paper/Burgers/runs/Revision/revision_random_grid_20noise_4model.pt (torch, 15625 bytes, 9 tensors)

func_approx.network.0.weight f4 [30, 2]
0	0x3ede9a62	0.4347716
1	0xbf40ad6f	-0.7526464
2	0xbf823e3d	-1.0175244
3	0xbf2e7403	-0.6814577
4	0xbfa3daa7	-1.2801102
5	0x3e477403	0.19477849
6	0x3da28568	0.079356015
7	0xbf499075	-0.7873605
8	0x3f4a6042	0.7905313
9	0xbecdd3d0	-0.40200663
10	0x3c230721	0.00995043
11	0xbf4322e2	-0.762251
12	0x3e5dc58d	0.21657391
13	0xbe98c68a	-0.29838973
14	0xbc897301	-0.016778471
15	0xbe3c3cb7	-0.18382536
16	0xbdc33328	-0.09531242
17	0x3f1f991f	0.6234302
18	0xbe1fc2d6	-0.15601668
19	0xbe80d784	-0.25164425
20	0x3e6ce3d5	0.23133786
21	0xbf4b7686	-0.7947773
22	0x3e63776d	0.22213526
23	0xbecb0bb5	-0.3965737
24	0x3f1e7e38	0.61911345
25	0x3f561573	0.8362648
26	0x3e816944	0.25275624
27	0xbe99b19a	-0.30018312
28	0xbf1b7d5e	-0.6073817
29	0x3f1c71ad	0.61110955
30	0xbeb8b8f6	-0.36078614
31	0x3eebce29	0.46055725
32	0xbfab6bd1	-1.3392278
33	0xbe3c2604	-0.18373877
34	0x3efa8a5a	0.4893368
35	0x3f3507af	0.7071485
36	0xbf007fdd	-0.50195104
37	0x3ed4a117	0.41529152
38	0xbd886f89	-0.06661899
39	0xbf0393b9	-0.5139728
40	0x3f918b73	1.1370682
41	0xbf0ddbe0	-0.5541363
42	0xbef015be	-0.46891588
43	0x3f3b008c	0.7304771
44	0x3f149378	0.5803752
45	0xbeb3c4a6	-0.35110968
46	0xbee190e7	-0.44055864
47	0xbf44cc7b	-0.7687451
48	0x3ea47119	0.32117537
49	0xbe5b4f48	-0.21416962
50	0xbdd943b8	-0.106086195
51	0xbf4734cd	-0.7781494
52	0xbf7dcc72	-0.99140084
53	0x3ec47215	0.38368288
54	0xbf8558ff	-1.0417784
55	0x3ee6b005	0.45056167
56	0xbecf1e15	-0.40452638
57	0x3f755da3	0.95846003
58	0xbefc9e86	-0.49339694
59	0x3f63133e	0.88701236

func_approx.network.0.bias f4 [30]
0	0xbd44d33d	-0.048053015
1	0x3e003fc3	0.12524323
2	0x3ba5be76	0.005058105
3	0xbea65679	-0.32487848
4	0xbd9c4aaf	-0.07631432
5	0x3eae247e	0.34012216
6	0x3e612727	0.21987592
7	0x3f02a2a5	0.51029426
8	0xbb61df2e	-0.00344653
9	0x3e87cb7b	0.2652243
10	0x3f09dafb	0.5384976
11	0xbe7ba51f	-0.24574707
12	0xbe068e79	-0.13140287
13	0x3e94e118	0.29077983
14	0xbe94db33	-0.29073486
15	0x3dd6ef78	0.10494894
16	0x3e4b5a3b	0.19858639
17	0x3d84b0c0	0.06479025
18	0xbe209e39	-0.15685357
19	0x3f2009e0	0.6251507
20	0x3e5dca20	0.21659136
21	0xbf1e4e5d	-0.6183832
22	0xbf230f68	-0.63695383
23	0xbe9a9b44	-0.30196583
24	0xbed9b86f	-0.42523524
25	0x3f2198db	0.63123864
26	0x3e58b4d0	0.21162724
27	0x3e577088	0.21039021
28	0x3f240d87	0.6408314
29	0x3f061e57	0.52390045

func_approx.network.2.weight f4 [30, 30]
0	0x3ebda444	0.37039387
1	0xbd248282	-0.040163524
2	0xbb2db80b	-0.0026507403
3	0x3dd1e9d8	0.1024968
4	0x3ed6505a	0.41858178
5	0x3de3a285	0.111149825
6	0x3e3ebfa6	0.18627796
7	0xbe0b6354	-0.1361211
8	0xbe14a851	-0.14517333
9	0xbc8a8cec	-0.0169129
10	0x3e976456	0.29568738
11	0x3e0a3ba0	0.13499308
12	0xbd3d30e9	-0.046189222
13	0x3ec3a07c	0.38208377
14	0xbf0f8178	-0.5605693
15	0xbebc1cdf	-0.36740777
16	0xbea3a8db	-0.31964764
17	0xbe1caaa0	-0.15299463
18	0xbee1e4dd	-0.4411992
19	0x3ce1583e	0.027507897
20	0x3ef984a6	0.48734015
21	0xbecf89cd	-0.4053482
22	0xbcc2d368	-0.023782447
23	0x3e0815be	0.13289544
24	0x3b234a62	0.0024916162
25	0x3e29e460	0.16591024
26	0xbe8b8d0c	-0.27256048
27	0xbe980b93	-0.2969633
28	0x3e04a507	0.12953578
29	0xbe23c6f2	-0.1599386
30	0xbe9f7bf3	-0.31149253
31	0x3e6c8219	0.23096503
32	0x3e3838e7	0.17990457
33	0x3d585ed8	0.052824825
34	0xbe798695	-0.24367745
35	0xbd789089	-0.060684714
36	0xbe0f90f1	-0.14020135
37	0x3d9eb6ee	0.07749735
38	0x3d768a5f	0.060190555
39	0xbcb9a775	-0.022662858
40	0xbec21cd1	-0.3791261
41	0xbe3197ba	-0.17343035
42	0x3d1eca12	0.038766928
43	0xbde59ebf	-0.11211919
44	0x3effef25	0.4998714
45	0x3e8921e8	0.2678368
46	0x3f403855	0.75085956
47	0x3d5ee343	0.054415952
48	0x3ee3d8e8	0.44501424
49	0xbe90c699	-0.28276518
50	0xbebcd591	-0.36881688
51	0x3ec22664	0.37919915
52	0xbdc167f6	-0.09443657
53	0x3e41f7dd	0.18942209
54	0x3d0519e5	0.032495398
55	0xbe8e896b	-0.27839217
56	0x3e6c40b8	0.23071563
57	0x3e50f85d	0.20407243
58	0x3dfe4443	0.12415364
59	0x3e2facbd	0.17155738
60	0x3e17f07a	0.14837828
61	0x3f1e7b54	0.61906934
62	0x3e4a90df	0.19781826
63	0xbd485a60	-0.048914313
64	0xbd89d22e	-0.06729542
65	0x3e03d28d	0.12873287
66	0xbda5544a	-0.080727175
67	0xbcc0945a	-0.02350824
68	0xbe35408d	-0.17700405
69	0x3e2dc187	0.16968356
70	0xbe1c757c	-0.15279192
71	0x3dab4998	0.08363646
72	0xbf053c8b	-0.52045506
73	0xbdbebb3a	-0.093130544
74	0x3e114116	0.14184985
75	0xbb960464	-0.00457816
76	0x3f9942e1	1.1973535
77	0xbe1f9c8a	-0.15587059
78	0x3ca8addb	0.020590713
79	0x3d1275ad	0.035756756
80	0xbe59e2c6	-0.21277913
81	0xbd1a51ad	-0.03767555
82	0xbdfa26fb	-0.12214466
83	0x3e6e922d	0.23297949
84	0x3c88f66a	0.016719062
85	0x3e31954c	0.17342108
86	0x3eaeac00	0.341156
87	0x3ea74e6a	0.32677013
88	0xbd1a446f	-0.03766292
89	0xbd3d759f	-0.04625475
90	0xbe4d0efb	-0.20025246
91	0x3e6bb403	0.23017888
92	0x3e541f7f	0.2071514
93	0xbe34c6a8	-0.17653906
94	0xbe01915a	-0.12653103
95	0xbe562182	-0.2091122
96	0x3df8bd79	0.12145514
97	0xbdba46b5	-0.090955175
98	0xbcd5e852	-0.026111756
99	0xbd6c2fb6	-0.05766269
100	0xbea972b3	-0.3309532
101	0x3d82e8cc	0.06392059
102	0x3e137a64	0.14402157
103	0xbe7daa48	-0.24771988
104	0x3e49ad80	0.19695091
105	0x3de75caf	0.11296975
106	0x3c5de9d1	0.013544516
107	0xbe0bc0d6	-0.1364778
108	0x3e947517	0.28995582
109	0xbbe6ddbf	-0.007045477
110	0xbe8f26c2	-0.27959257
111	0x3e89e3ab	0.2693151
112	0xbded2bf2	-0.115806475
113	0x3d483882	0.048882015
114	0xbdad5262	-0.08462979
115	0xbddbec8b	-0.10738476
116	0x3a92d56f	0.0011202524
117	0x3ec10477	0.3769872
118	0x3c956fd4	0.0182418
119	0x3e74df2c	0.23913258
120	0xbebb5773	-0.36590156
121	0xbcc92fb0	-0.024558872
122	0x3e839e1d	0.25706568
123	0xbed5a599	-0.41727903
124	0xbe981770	-0.2970538
125	0xbc1238f9	-0.008924716
126	0xbcdc0fef	-0.026863066
127	0xbd8db697	-0.06919592
128	0x3da35572	0.07975282
129	0x3da17093	0.078828
130	0xbe647bce	-0.22312853
131	0xbeb70f60	-0.35753918
132	0x3e42941e	0.19001815
133	0xbdcb3a61	-0.09923244
134	0xbd17567c	-0.036947712
135	0x3e491b08	0.19639218
136	0x3e9d41bc	0.30714214
137	0x3d46fd7f	0.048581596
138	0x3be32669	0.006932069
139	0xbdb6d9e2	-0.089282766
140	0x3ced291f	0.028950272
141	0x3e3a1c27	0.18174802
142	0xbec7a60a	-0.38993865
143	0xbd468425	-0.048465867
144	0xbd9e7af9	-0.07738299
145	0xbd95d9dd	-0.07316945
146	0x3ea6f031	0.32605127
147	0x3e6d1cc3	0.23155503
148	0x3eeff057	0.46863052
149	0x3e5d8025	0.21630915
150	0xbe7275de	-0.23677775
151	0xbe3109ac	-0.17288846
152	0xbe48e761	-0.19619514
153	0xbd214077	-0.03936812
154	0xbe20703d	-0.15667816
155	0xbe17e277	-0.14832483
156	0x3d208799	0.039191816
157	0x3de41c79	0.11138243
158	0x3b9edb8e	0.0048479503
159	0x3df25c9f	0.11834072
160	0x3d0258cb	0.03182296
161	0xbe15bb7a	-0.14622298
162	0x3e2d6766	0.16933975
163	0x3db29e9b	0.08721658
164	0xbe429a24	-0.19004112
165	0xbdb5c660	-0.08875728
166	0x3d57ef5e	0.052718513
167	0x3c1706f0	0.009217963
168	0xbe01440d	-0.12623616
169	0x3d3c3be7	0.045955565
170	0x3a47bed3	0.00076196826
171	0x3d0fbc86	0.0350919
172	0xbdee21e2	-0.116275564
173	0xbe9cb282	-0.3060494
174	0xbdfb7212	-0.122776166
175	0x3e1fae0d	0.15593739
176	0xbe2a4876	-0.16629204
177	0x3d8b6e97	0.06808203
178	0x3ebaeb5a	0.36507684
179	0x3e891a1c	0.26777732
180	0xbd78e661	-0.06076658
181	0x3d827805	0.06370548
182	0x3db0c905	0.086320914
183	0xbe7311b3	-0.2373722
184	0xbe4747ea	-0.19461027
185	0xbe69621a	-0.22791329
186	0xbe472254	-0.19446689
187	0x3d290599	0.041265104
188	0x3e840c0e	0.25790447
189	0x3cb32a7a	0.02187084
190	0xbe5cbe91	-0.2155707
191	0xbe89cc1e	-0.26913542
192	0x3e86860c	0.26274145
193	0xbd8b6a25	-0.06807355
194	0xbcd37f6d	-0.025817597
195	0x3e56685c	0.20938247
196	0x3def9599	0.11698455
197	0x3e73838b	0.23780648
198	0x3e67d908	0.22641385
199	0xbe00b693	-0.12569647
200	0x3b9a89d3	0.004716137
201	0xbd981415	-0.07425705
202	0xbc153091	-0.009105817
203	0xbe985091	-0.29748967
204	0xbd6569e2	-0.05600918
205	0x3e085eb4	0.13317376
206	0x3e51a98e	0.20474836
207	0x3e95ba1e	0.2924356
208	0x3e44398e	0.1916258
209	0x3e8e2dd8	0.2776935
210	0x3dbca454	0.092110306
211	0x3ea625e1	0.32450774
212	0x3e97c66a	0.29643565
213	0x3eda06ea	0.425834
214	0xbe1c5c41	-0.15269567
215	0x3e1da722	0.15395787
216	0x3e1eb19e	0.15497443
217	0x3dc8fdea	0.09814055
218	0xbe7cffd6	-0.24706969
219	0x3e14bbd0	0.1452477
220	0xbdd3995e	-0.10331987
221	0x3c968538	0.01837407
222	0xbc1c69a8	-0.009546675
223	0xbe12e7d6	-0.14346251
224	0x3e22bf7c	0.15893358
225	0xbe11fc18	-0.14256322
226	0x3f018dec	0.5060718
227	0xbec2b115	-0.38025728
228	0xbd85691c	-0.06514189
229	0x3d685cc1	0.056729082
230	0xbe0daa02	-0.13834384
231	0x3e4082b0	0.18799853
232	0x3dda9e67	0.10674744
233	0x3f02be72	0.51071846
234	0xbca49d43	-0.02009452
235	0xbdcee9ae	-0.101031646
236	0x3df880f1	0.121339686
237	0x3e078483	0.13234143
238	0xbeb78399	-0.3584259
239	0xbe8aaef9	-0.2708662
240	0xbec4f772	-0.38470036
241	0x3f617b60	0.8807888
242	0x3f1209aa	0.57045996
243	0xbe3ebb07	-0.18626033
244	0xbf41afc9	-0.7565885
245	0x3e8ad74e	0.2711739
246	0x3c70da45	0.014700477
247	0xbd501e92	-0.050810404
248	0xbdb8f8fb	-0.09031864
249	0x3e233da5	0.15941484
250	0x3d698e6d	0.057020593
251	0xbe122d3c	-0.14275068
252	0xbf08865b	-0.5333001
253	0x3d571e6b	0.052519243
254	0x3e995064	0.29944146
255	0x3d8f97d9	0.070113845

func_approx.network.2.bias f4 [30]
0	0x3e3c288e	0.18374845
1	0x3c6246c8	0.013810821
2	0xbdd23eb7	-0.10265868
3	0xbe2cd2b6	-0.16877255
4	0xbd77ce38	-0.0604994
5	0xbe2d2a02	-0.16910556
6	0x3dbabf3d	0.09118507
7	0xbdd51c86	-0.10405831
8	0x3ccfe633	0.025378322
9	0xbd404ab8	-0.046946257
10	0xbd807031	-0.06271399
11	0xbca4c8ba	-0.020115245
12	0xbd2f8b89	-0.04285768
13	0xbcba18d9	-0.022716926
14	0x3d45e4cc	0.0483139
15	0xbe15e21f	-0.1463704
16	0xbe362519	-0.17787589
17	0x3e14379e	0.14474341
18	0x3aa94e9b	0.0012917103
19	0xbcc220e4	-0.023697324
20	0x3db4b46c	0.08823475
21	0xbd0920ac	-0.033478424
22	0x3d9b41c1	0.07580901
23	0xbdd14764	-0.10218695
24	0xbe23b5da	-0.1598734
25	0x3d561f0a	0.052275695
26	0x3c38881f	0.011262923
27	0x3d69b4d1	0.057057206
28	0xbcb71af6	-0.022351723
29	0xbb812f11	-0.0039423783

func_approx.network.4.weight f4 [30, 30]
0	0x3e4702c4	0.19434649
1	0x3dc3d1e5	0.095615186
2	0xbe028932	-0.12747648
3	0xbdbe2be3	-0.092857145
4	0xbdc4b60e	-0.09605037
5	0xbe0dc725	-0.13845499
6	0xba0f3111	-0.00054623286
7	0xbd3492da	-0.04408536
8	0xbd5f8066	-0.05456581
9	0xbe0cef8b	-0.13763253
10	0x3e41020b	0.18848436
11	0x3dd015d1	0.10160411
12	0x3e5e118e	0.21686384
13	0x3dd78612	0.10523619
14	0x3df93153	0.12167611
15	0xbd9ea37a	-0.077460244
16	0x3db3a476	0.08771603
17	0xbe664aee	-0.22489521
18	0x3d2cc289	0.04217771
19	0x3e4efe31	0.20214154
20	0x3cdaee00	0.026724815
21	0x3c67fe11	0.014159695
22	0xbe29cb0c	-0.16581362
23	0xbe31743d	-0.17329498
24	0x3dc66b7c	0.0968847
25	0x3df1e968	0.11812097
26	0xbdd14a12	-0.10219206
27	0x3e19f5e8	0.15035212
28	0xbca89530	-0.02057895
29	0xbe1f0719	-0.15530051
30	0x3e59761e	0.21236464
31	0xbeb4be97	-0.3530166
32	0x3e87f74c	0.2655586
33	0xbe442a3a	-0.19156733
34	0x3d7d2204	0.061800018
35	0x3d2eb3be	0.042651884
36	0x3d876784	0.06611541
37	0xbdc9d7f4	-0.09855643
38	0xbe0f0326	-0.13966045
39	0x3dee37cc	0.11631736
40	0x3d2ab271	0.04167408
41	0x3ddab908	0.10679823
42	0x3ea4e2e8	0.32204366
43	0xbe02e8f0	-0.12784171
44	0xbe346d73	-0.17619877
45	0xbd5bdbd6	-0.05367645
46	0x3df15603	0.117839836
47	0x3e974cd9	0.29550818
48	0xbeb433a8	-0.3519566
49	0xbeb10d2e	-0.34580368
50	0x3d07b413	0.033130717
51	0xbd8ad904	-0.06779674
52	0xbe16b8e5	-0.14718969
53	0xbe718af0	-0.23588157
54	0x3e34d9ef	0.1766126
55	0x3d4d6f45	0.050154943
56	0x3e947fb2	0.29003674
57	0x3e2aa3aa	0.16663995
58	0xbe6adf29	-0.22936691
59	0xbdc25468	-0.094887555
60	0x3cdb00a0	0.026733696
61	0xbc90dc8d	-0.017683292
62	0xbd3eed92	-0.046613283
63	0x3e1cf452	0.15327576
64	0xbd3d56b9	-0.046225283
65	0xbdd021f0	-0.10162723
66	0xbd7d1cd3	-0.061795067
67	0xbe6355fe	-0.22200772
68	0x3cc6ed20	0.024282992
69	0x3b6adfb3	0.0035838902
70	0xbdd68efc	-0.10476491
71	0x3e2c9d59	0.16856898
72	0xbe9a8a67	-0.30183718
73	0x3e8dce16	0.27696294
74	0xbd06a356	-0.032870613
75	0xbdc5656c	-0.09638485
76	0x3d40c382	0.04706145
77	0xbe31fe32	-0.17382124
78	0x3dad1ba4	0.08452538
79	0x3e8b0703	0.27153787
80	0xbb87498c	-0.0041286405
81	0x3d0fa835	0.035072524
82	0x3de9628e	0.11395751
83	0x3e70e98e	0.23526594
84	0xbdc4e073	-0.09613123
85	0x3d65b715	0.056082804
86	0xbe0414f4	-0.12898618
87	0xbcadb45a	-0.021204162
88	0x3e46504e	0.19366571
89	0x3e4ee2a0	0.20203638
90	0xbd9f5cbe	-0.07781361
91	0xbd5715c2	-0.052510984
92	0x3d5ccce9	0.053906355
93	0xbe3b2146	-0.18274412
94	0xbe882749	-0.26592472
95	0xbd0943e3	-0.033512007
96	0xbe368eb8	-0.1782788
97	0xbd7d74d4	-0.061878994
98	0x3db6aa99	0.08919258
99	0x3c547232	0.012966679
100	0x3d13e62f	0.036108192
101	0x3c4635b1	0.012097762
102	0xbc48fdc0	-0.01226753
103	0x3d47cf2b	0.048781555
104	0xbcf387ce	-0.029727843
105	0xbe6ce1c0	-0.23132992
106	0x3e28c4f7	0.16481386
107	0x3d99f186	0.0751677
108	0x3e1bb49c	0.15205616
109	0x3e19f13a	0.15033427
110	0xbe374ca1	-0.17900325
111	0xbd30fb98	-0.04320869
112	0x3d922728	0.07136375
113	0xbe162fa5	-0.14666612
114	0xbd79d25c	-0.06099163
115	0xbe6c6c06	-0.23088083
116	0x3d4fe1cd	0.05075245
117	0xbd687189	-0.0567489
118	0x3e0b73d4	0.13618404
119	0xbe73f295	-0.23823006
120	0xbc87413c	-0.016510598
121	0x3e222872	0.15835741
122	0xbcc54769	-0.024081903
123	0xbe1e89e8	-0.15482295
124	0xbceb3876	-0.028713446
125	0xbdc2285b	-0.094803534
126	0xbe2a83a5	-0.16651781
127	0x3d1b883d	0.037971724
128	0x3e2b728e	0.16742918
129	0xbec04a20	-0.37556553
130	0xbe04fcf8	-0.12987125
131	0xbe0e9e0c	-0.13927478
132	0xbe0618b1	-0.13095357
133	0x3e13553f	0.14387988
134	0xbe85b31d	-0.26113215
135	0x3d478055	0.04870637
136	0xbe86f613	-0.26359615
137	0xbe846550	-0.25858545
138	0x3e9f0e01	0.31065372
139	0x3d33325f	0.04374921
140	0x3e27eeb7	0.16399656
141	0x3cc21665	0.02369232
142	0xbd849cac	-0.06475195
143	0xbdad8b63	-0.084738515
144	0xbdebcc0c	-0.11513528
145	0x3dba8aaa	0.09108479
146	0x3e05168c	0.12996882
147	0x3e7889fd	0.24271388
148	0x3eb20ca2	0.34775263
149	0x3e1f49af	0.15555452
150	0x3de135c9	0.10996587
151	0x3e232d75	0.15935309
152	0x3f3e411c	0.743181
153	0x3d6ed660	0.058309913
154	0x3e25bfee	0.16186497
155	0xbee20b2d	-0.4414915
156	0xbc55a851	-0.013040618
157	0x3eff2efd	0.49840537
158	0x3f83bc24	1.0291791
159	0x3edab5c1	0.42716792
160	0x3e5aeeab	0.21380107
161	0x3dbdd259	0.09268636
162	0x3ebbdb75	0.3669087
163	0x3e9d2c29	0.30697754
164	0xbd7b0c1b	-0.06129084
165	0x3dfd97b3	0.1238245
166	0xbd5ab760	-0.053397536
167	0xbe12f9e6	-0.14353141
168	0xbdcb3ac9	-0.09923322
169	0xbec4f008	-0.3846438
170	0x3e881df9	0.26585367
171	0x3d8ad21d	0.06778357
172	0xbe2cd3d8	-0.16877687
173	0xbe622e02	-0.22087863
174	0x3f5cdf6a	0.862784
175	0xbda48a44	-0.080341846
176	0x3e640ab7	0.22269712
177	0xbe18adb4	-0.14910012
178	0x3e02abe0	0.12760878
179	0x3d169571	0.036763612
180	0xbe2db2f8	-0.16962802
181	0xbbf158dc	-0.007365329
182	0x3c819520	0.015818179
183	0xbdcb3f53	-0.099241875
184	0xbe40f47e	-0.18843266
185	0xbdc2c859	-0.095108695
186	0xbe6ba18c	-0.23010844
187	0xbb00a6c5	-0.0019630652
188	0xbcbb9c39	-0.022901641
189	0x3e0194ea	0.12654462
190	0x3cbb1171	0.022835465
191	0xbc186e63	-0.009303662
192	0xbe1433a0	-0.14472818
193	0xbe3f26c2	-0.18667129
194	0xbe2e52ef	-0.17023824
195	0xbdd3d113	-0.10342612
196	0x3e14419c	0.14478153
197	0xbe132187	-0.14368258
198	0xbe6f4bbb	-0.23368733
199	0xbe0097f8	-0.12557971
200	0xbe9d07ed	-0.3067011
201	0xbdc4d554	-0.096110016
202	0x3e2eed38	0.1708268
203	0xbccc5565	-0.024943063
204	0x3de4fff3	0.11181631
205	0xbe623cc9	-0.220935
206	0x3e6f7b9c	0.23386997
207	0x3d970a49	0.073750086
208	0x3e28f6e0	0.16500425
209	0xbe001463	-0.12507777
210	0xbe440bad	-0.19145079
211	0x3e053419	0.13008155
212	0x3d8a981b	0.06767293
213	0x3e3723a0	0.17884684
214	0x3ddc14b8	0.10746139
215	0x3de26e8e	0.11056243
216	0x3cf3cd5a	0.029761005
217	0x3e45413c	0.19263166
218	0x3df55076	0.11978237
219	0xbe140e86	-0.14458665
220	0xbd465f62	-0.048430808
221	0x3e1c16c1	0.15243055
222	0xbe8031f4	-0.2503811
223	0x3e98a5b6	0.29813927
224	0x3e3cc92b	0.18436114
225	0x3e0d99f4	0.1382826
226	0x3da22bb3	0.07918491
227	0xbe096fec	-0.13421601
228	0x3e281c5c	0.16417068
229	0x3e860683	0.26176843
230	0xbd4ce430	-0.050022304
231	0x3b48411c	0.0030556386
232	0xbca9389a	-0.020656873
233	0x3e3a15aa	0.18172327
234	0xbc9734e5	-0.01845784
235	0xbe373449	-0.17891039
236	0x3dbab822	0.09117152
237	0x3dddd91a	0.108324245
238	0x3db6204a	0.088928774
239	0x3e8a8ad1	0.27059034
240	0xbe1de973	-0.15421085
241	0x3d59c88c	0.053169772
242	0xbc2a7fa8	-0.010406412
243	0x3db484b3	0.08814373
244	0x3e1cb676	0.15303978
245	0x3dea97f8	0.11454767
246	0x3ea08eac	0.3135885
247	0xbe8da69b	-0.27666172
248	0xbe1fd637	-0.1560906
249	0x3db42927	0.08796912
250	0xbe31df58	-0.17370355
251	0xbd848009	-0.06469733
252	0xbdefd8af	-0.11711251
253	0xbb36627c	-0.0027829697
254	0x3d77a604	0.06046106
255	0x3e4a1022	0.19732717

func_approx.network.4.bias f4 [30]
0	0x3ce55b3d	0.027997607
1	0xbd78fa7f	-0.060785767
2	0x3d464316	0.048403822
3	0xbde398bf	-0.111131184
4	0xbd922dab	-0.07137617
5	0x3dfb84b4	0.122811705
6	0x3d51ec88	0.051250964
7	0xbcc25a03	-0.023724562
8	0x3dd62307	0.104559
9	0x3dafca17	0.085834675
10	0x3e19929b	0.14997332
11	0x3d19c3b2	0.037540145
12	0xbc7b38f0	-0.015333399
13	0xbe3664b2	-0.1781185
14	0xbabbff9a	-0.0014343143
15	0xbcdf7d4f	-0.027281431
16	0xbc14cea4	-0.00908247
17	0x3e408745	0.18801601
18	0xbd836970	-0.06416595
19	0xbe38d49c	-0.18049854
20	0x3e32a5f6	0.17446122
21	0xbbb6a605	-0.0055739903
22	0xbe080129	-0.13281693
23	0x3cd8a518	0.02644591
24	0x3cfe3d37	0.031035049
25	0xbc44049a	-0.011963988
26	0x3e1cd465	0.15315397
27	0xbdf2e0d5	-0.118592896
28	0xbd8f8d31	-0.07009352
29	0xbd3111ac	-0.043229744

func_approx.network.6.weight f4 [30, 30]
0	0x3e053168	0.13007128
1	0x3e81f942	0.2538548
2	0xbda13955	-0.07872263
3	0xbe46a12a	-0.19397417
4	0x3ddf6a7f	0.109089844
5	0xbeda00bd	-0.42578688
6	0xbdedbca1	-0.11608244
7	0x3e0b13ca	0.13581768
8	0x3e90160c	0.2814182
9	0x3e08b88f	0.13351654
10	0x3d09fd1a	0.033688642
11	0xbde6d8fe	-0.11271857
12	0x3e76deff	0.24108504
13	0xbdd0020e	-0.10156642
14	0x3c94e14b	0.018173834
15	0x3e44883e	0.19192597
16	0xbe3c8377	-0.18409525
17	0x3e09ac0b	0.13444535
18	0xbe8100c4	-0.25195897
19	0xbc28abe3	-0.010294887
20	0x3e4f64fe	0.20253369
21	0xbd8c150a	-0.068399504
22	0xbe151721	-0.14559604
23	0x3d71daf6	0.059046708
24	0x3ccd6a3c	0.02507507
25	0x3e973ecd	0.295401
26	0x3d5fa7af	0.054603275
27	0xbd8b2d08	-0.067956984
28	0x3e79cb7a	0.24394026
29	0x3e5fcea2	0.21856168
30	0x3da27b50	0.07933676
31	0x3c332fc0	0.010936677
32	0xbe2bd410	-0.16780114
33	0xbde16a33	-0.11006584
34	0x3d9192c2	0.0710807
35	0x3de96050	0.11395323
36	0xbde13b47	-0.109976344
37	0x3e400104	0.18750387
38	0xbd4e6a64	-0.05039443
39	0xbe2cea2d	-0.16886206
40	0xbde458f6	-0.111497805
41	0xbd897f9c	-0.06713793
42	0xbdfeadb7	-0.12435477
43	0x3cf5e460	0.030016124
44	0xbd6c5805	-0.05770113
45	0xbd96b86d	-0.07359395
46	0x3d6623b8	0.056186408
47	0x3e3caff8	0.18426502
48	0x3e381c43	0.17979531
49	0xbe402a57	-0.18766151
50	0x3c6e03fe	0.014527319
51	0x3d390dd9	0.04517922
52	0x3c9aa7e6	0.018878888
53	0xbddadb68	-0.1068638
54	0xbe363954	-0.17795306
55	0xbe385fe9	-0.18005337
56	0xbe1a4fd8	-0.1506952
57	0xbc1d2461	-0.009591193
58	0xbe0f363c	-0.13985533
59	0xbe5f8aa5	-0.21830232
60	0x3c05696f	0.008142813
61	0xbe3e5146	-0.18585691
62	0xbd4cbef0	-0.04998678
63	0x3ddb5b62	0.10710789
64	0x3dd75267	0.10513764
65	0x3d977bfa	0.073966935
66	0xbdf5b466	-0.11997299
67	0x3e24941a	0.16072121
68	0xbd9f4816	-0.07777421
69	0x3d888e5b	0.06667777
70	0xbe1aca45	-0.15116222
71	0x3e821ef3	0.25414237
72	0xbe32bd4c	-0.17455024
73	0x3e2cec75	0.16887076
74	0x3ddcdb72	0.10784043
75	0xbce1e344	-0.027574189
76	0x3e583976	0.2111567
77	0x3e118f1a	0.14214745
78	0x3ca13ec9	0.019683259
79	0xbc02e1f7	-0.0079884445
80	0xbcc8e638	-0.02452384
81	0x3dc86b4c	0.0978609
82	0xbdcf2f80	-0.10116482
83	0x3d6dfe07	0.058103587
84	0xbe7e7122	-0.24847844
85	0xbc62e8b1	-0.013849423
86	0xbd469ede	-0.04849135
87	0x3d8828ad	0.06648383
88	0xbdf95f86	-0.12176423
89	0xbe16ced0	-0.1472733
90	0xbcceae3c	-0.025229566
91	0xbdab74a5	-0.083718576
92	0xbdd83e8b	-0.10558804
93	0x3d739751	0.05947048
94	0x3e68975d	0.2271399
95	0xbd012966	-0.03153362
96	0xbd6f001a	-0.058349706
97	0xbc233681	-0.009961725
98	0xbd3b26c1	-0.045691255
99	0x3b8238f1	0.003974073
100	0x3cdb4cb9	0.026769983
101	0xbdc223c5	-0.09479479
102	0xbd1eb5d2	-0.038747616
103	0xbe8585c9	-0.26078632
104	0x3c4991ec	0.012302857
105	0x3e22dd2f	0.15904687
106	0x3dd3fb7a	0.103507
107	0x3df7af8d	0.120940305
108	0xbd0a1e97	-0.03372058
109	0x3e8aa555	0.27079263
110	0xbd1e6878	-0.038673848
111	0x3c91d42a	0.017801363
112	0xbc127ecc	-0.008941364
113	0xbe00c918	-0.12576711
114	0xbd4abbab	-0.04949538
115	0x3e4abf21	0.19799472
116	0xbddd44dd	-0.1080415
117	0xbe3fe94e	-0.18741342
118	0x3e9cbdc0	0.30613518
119	0x3e127f0a	0.14306274
120	0x3d8c6939	0.06856007
121	0x3bfc6cd0	0.007703401
122	0x3e13dde0	0.14440107
123	0x3dfbba2b	0.12291368
124	0xbd62fee3	-0.05541886
125	0x3d2f48a6	0.042793892
126	0x3e224f66	0.158506
127	0xbe2bd4d3	-0.16780405
128	0x3dbe9a01	0.09306718
129	0xbd71fd04	-0.059079185
130	0x3e16888c	0.14700526
131	0x3d78d878	0.060753316
132	0x3e2aec96	0.16691813
133	0xbd84e1d9	-0.064883895
134	0x3e35fba1	0.1777177
135	0x3a93cc19	0.0011276036
136	0x3d999e97	0.07500952
137	0x3ceab19d	0.028649146
138	0xbe2a650d	-0.1664011
139	0xbdad5cd7	-0.084649734
140	0xbc22640e	-0.00991155
141	0xbe7f2e68	-0.24920046
142	0xbdb92dbc	-0.09041926
143	0x3df652d4	0.12027517
144	0x3e8f9a08	0.28047204
145	0x3d511853	0.051048588
146	0xbd38c5bc	-0.04511045
147	0xbe5bdd8c	-0.21471232
148	0x3de98588	0.11402422
149	0x3d5a422a	0.053285755
150	0x3e0cb8e1	0.137424
151	0xbdb32767	-0.0874775
152	0xbd04d73a	-0.03243182
153	0xbe211788	-0.15731633
154	0xbd9b9a2c	-0.07597765
155	0x3e8a609b	0.2702683
156	0xbe53cf79	-0.20684613
157	0xbe23c66b	-0.15993659
158	0x3e6e2ce4	0.23259312
159	0xbe37cd2d	-0.17949362
160	0x3e426173	0.18982486
161	0xbe58c9c8	-0.21170723
162	0xbded8b61	-0.1159885
163	0xbe1c7412	-0.15278652
164	0xbd7c0bc3	-0.061534654
165	0x3dc24a42	0.0948682
166	0x3cf4dee1	0.029891433
167	0xbe015afc	-0.12632364
168	0xbe5ec066	-0.21753082
169	0x3e38c13a	0.1804246
170	0x3d9325ec	0.071849674
171	0x3dab43b7	0.08362525
172	0x3daa75c3	0.083232425
173	0xbdae1511	-0.08500112
174	0x3e065410	0.13118005
175	0x3e391752	0.18075302
176	0xbe5c42eb	-0.21509902
177	0x3dd11e63	0.10210874
178	0x3eadcb03	0.33943948
179	0x3d937321	0.071996935
180	0x3e3015a1	0.17195751
181	0x3e2d4efc	0.16924661
182	0x3ded4c7f	0.11586856
183	0xbd5b3b9d	-0.05352365
184	0x3e84c047	0.25927946
185	0x3e01ccde	0.12675807
186	0x3e02cd17	0.12773548
187	0xbddc2fce	-0.107513055
188	0x3e02cda0	0.12773752
189	0x3d7b3b2f	0.06133574
190	0xbd8f58c8	-0.069993556
191	0xbb05c000	-0.002040863
192	0xbc89acdf	-0.016806064
193	0xbe58469c	-0.21120685
194	0x3e1ee5fa	0.15517417
195	0xbe197de1	-0.14989425
196	0xbe752a36	-0.23941883
197	0x3e1bee96	0.15227732
198	0x3d6e869c	0.058233842
199	0x3de6cb48	0.112692416
200	0x3e10bab5	0.14133723
201	0xbdc17f1e	-0.09448074
202	0xbdb8965c	-0.09013054
203	0xbdb395fe	-0.08768843
204	0x3da3a6db	0.079908095
205	0xbdeabb73	-0.11461534
206	0xbe3d93b4	-0.18513376
207	0xbdaee4b2	-0.08539714
208	0x3e06d822	0.13168386
209	0x3e4ebe55	0.20189793
210	0xbd5ff04e	-0.05467253
211	0xbc6de9f4	-0.014521111
212	0xbe4d9ad7	-0.20078598
213	0xbdc296fe	-0.09501456
214	0x3db0a30d	0.086248495
215	0xbd99f27b	-0.075169526
216	0xbe6e3358	-0.23261774
217	0x3da6b41d	0.08139823
218	0x3cf5f970	0.030026168
219	0xbe245752	-0.16048935
220	0x3db227f8	0.0869903
221	0xbe45c6a8	-0.19314063
222	0x3ea2cfec	0.31799257
223	0xbd14671b	-0.03623114
224	0x3db57a42	0.088612095
225	0x3d8e70aa	0.06955083
226	0xbe65959d	-0.22420354
227	0x3dcefda8	0.10106975
228	0xbd7636ae	-0.06011074
229	0xb77817d1	-1.4787497e-05
230	0x3cb89140	0.022530198
231	0x3d85db5f	0.06535982
232	0x3e03c91e	0.12869689
233	0x3e52325e	0.20527026
234	0x3d7ef732	0.062247463
235	0x3df47bdd	0.119376875
236	0xbdc9322f	-0.09824025
237	0xbdfac45d	-0.122444846
238	0x3e3cfe7a	0.1845645
239	0x3e86172c	0.26189554
240	0xbe075d81	-0.13219263
241	0xbe2afbbc	-0.16697592
242	0x3cd8081c	0.026371054
243	0xbd7347e3	-0.05939473
244	0xbe39473c	-0.1809358
245	0xbdd619a5	-0.1045411
246	0x3e0b4c43	0.1360331
247	0xbd8688ca	-0.06569059
248	0xbd825b6c	-0.063650936
249	0x3de5e31c	0.11224958
250	0xbe55031b	-0.20801966
251	0x3d852121	0.065004595
252	0xbe218426	-0.15773067
253	0xbda32abf	-0.079671375
254	0x3c2199e1	0.009863348
255	0x3c839bc2	0.016065482

func_approx.network.6.bias f4 [30]
0	0x3dc09dd9	0.09405107
1	0xbdf50af7	-0.11964982
2	0x3dedcf3b	0.11611792
3	0x3e1b6f71	0.1517923
4	0xbdca66d3	-0.098828934
5	0x3da19e06	0.07891469
6	0xbe0f82ff	-0.14014815
7	0x3da3ea82	0.08003713
8	0xbd9fdb7c	-0.07805535
9	0x3d0d34a6	0.034474038
10	0xbd81af19	-0.06332225
11	0x3e275e5b	0.16344588
12	0x3d37ec26	0.044902943
13	0xbda3c8cd	-0.07997284
14	0xbe3f7f6b	-0.1870095
15	0xbd497691	-0.04918534
16	0xbd38cf31	-0.045119468
17	0xbdf93923	-0.12169101
18	0xbd6d8cb5	-0.057995517
19	0xbc596f49	-0.013271161
20	0xbd1a011a	-0.037598707
21	0x3d4a01b6	0.049318038
22	0xbd4f2a2b	-0.050577324
23	0xbbdfbaa8	-0.006827671
24	0x3af4ea41	0.0018685536
25	0x3e29b7b8	0.1657399
26	0x3c9986f8	0.018741116
27	0xbdb4e4fe	-0.08832739
28	0x3e17d188	0.14826024
29	0x3c0c835e	0.008576242

func_approx.network.8.weight f4 [1, 30]
0	0x3e0ed7f5	0.13949569
1	0xbde2eda1	-0.1108048
2	0xbd9b1b59	-0.075735755
3	0x3de48956	0.11159007
4	0x3de0f643	0.10984471
5	0x3e13e89a	0.14444199
6	0x3d8e330c	0.0694333
7	0x3cf8d5c8	0.030375376
8	0xbe478821	-0.19485523
9	0x3cf1c95e	0.029514965
10	0x3e3eca6f	0.1863191
11	0x3e3039f4	0.17209607
12	0x3d322aa7	0.043497708
13	0x3e8ffae5	0.28121105
14	0xbd6c4d86	-0.05769112
15	0x3c3323cb	0.010933827
16	0xbe7e65a6	-0.24843463
17	0xbe02ae46	-0.12761793
18	0xbe0bad9c	-0.13640445
19	0xbe010f7b	-0.12603562
20	0xbe2f95ed	-0.17147036
21	0xbe1d944c	-0.15388602
22	0x3e3203b9	0.17384233
23	0x3d17792e	0.0369808
24	0x3deded3e	0.11617516
25	0x3e1da03f	0.1539316
26	0x3e38a125	0.18030222
27	0xbe1fe146	-0.15613279
28	0x3e17aaa7	0.14811192
29	0xbe594653	-0.21218233
