paper/Burgers/runs/Revision/revision_random_grid_20noise_7model.pt (torch, 15561 bytes, 9 tensors)

func_approx.network.0.weight f4 [30, 2]
0.2277236 0.63308245 0.1761789 0.09090674 -0.037045963 -0.873163 -0.32421532 0.56874025
-0.13075835 -0.90725386 -0.11147551 0.42664632 0.5264963 0.31329283 0.46829894 0.5289606
0.49669525 -0.47006205 -0.3482297 0.6996034 0.3988226 -0.18218553 2.355165 -0.29239264
-0.18580477 -0.41158912 0.5648619 -0.74024254 0.5046735 -0.028783537 0.041493617 -0.6991063
0.8942314 0.6450272 0.62145776 0.8323008 -0.5855156 0.57191265 0.5646201 -0.24521388
-0.70284456 0.6488348 -0.00036141867 0.6136932 -0.17487979 0.03181152 0.89063686 -0.2873614
-0.5097678 -0.34582198 -0.48742226 0.6559386 0.10830857 0.23022309 0.35146442 -0.8639717
-0.7244576 -0.86095107 0.36511627 -0.1953619
00000000: 6030 693e b111 223f 3e68 343e 502d ba3d
00000010: 82bd 17bd 9c87 5fbf 8dff a5be f698 113f
00000020: 84e5 05be ca41 68bf 464d e4bd 6371 da3e
00000030: 76c8 063f eb67 a03e e1c4 ef3e f669 073f
00000040: d74e fe3e f9ab f0be 2a4b b2be 3519 333f
00000050: 7a32 cc3e d88e 3abe 06bb 1640 7db4 95be
00000060: 9b43 3ebe cfbb d2be ca9a 103f 8980 3dbf
00000070: 4832 013f 74cb ebbc 36f5 293d a1f8 32bf
00000080: 59ec 643f 8120 253f db17 1f3f aa11 553f
00000090: 5ae4 15bf de68 123f f18a 103f 5919 7bbe
000000a0: 9fed 33bf 0a1a 263f cb7c bdb9 ff1a 1d3f
000000b0: b013 33be cc4c 023d c700 643f 0921 93be
000000c0: 2480 02bf 940f b1be 698f f9be 98eb 273f
000000d0: e2d0 dd3d 9abf 6b3e 25f3 b33e 402d 5dbf
000000e0: 0e76 39bf 4a67 5cbf 85f0 ba3e f30c 48be

func_approx.network.0.bias f4 [30]
0.38478827 0.42543602 -0.47967356 0.04965978 -0.40517482 0.13050623 0.13699208 0.16993707
0.104078434 0.04063623 -0.4915288 0.010788131 0.24086925 -0.3862922 0.59655184 0.084947586
-0.19593525 -0.0052637435 -0.30143172 0.0030891919 -0.20046203 -0.13027576 0.537994 0.24937391
-0.102603644 -0.4304161 -0.6294078 -0.5205085 -0.19192134 -0.61166954
00000000: f802 c53e c0d2 d93e c697 f5be 0e68 4b3d
00000010: 1373 cfbe 6da3 053e a747 0c3e fc03 2e3e
00000020: 1327 d53d 2d72 263d aaa9 fbbe b3c0 303c
00000030: 6ea6 763e 17c8 c5be 9fb7 183f 00f9 ad3d
00000040: 40a3 48be 7b7b acbb 4255 9abe 0a74 4a3b
00000050: eb45 4dbe 0267 05be fab9 093f e05b 7f3e
00000060: dc21 d2bd 805f dcbe df20 21bf 0c40 05bf
00000070: 0787 44be 6096 1cbf

func_approx.network.2.weight f4 [30, 30]
0.10808995 -0.17674266 -0.025856597 0.16320118 0.0661416 0.057370137 -0.024814207 0.04697552
0.15698393 -0.15661594 0.019306267 -0.14122017 0.18406868 0.051662356 -0.14818397 -0.087729774
-0.020892845 -0.045743193 -0.1592292 -0.06632712 0.087655656 -0.023618676 0.021847865 -0.18816198
-0.052744433 0.07257074 0.105839096 -0.19756517 -0.09821094 -0.09033189 0.18948588 -0.1442489
-0.06028737 0.13722768 0.012665663 0.14302729 -0.104706414 -0.11141577 -0.041423984 -0.052344672
-0.16487709 -0.20550986 -0.27150914 -0.04599699 0.136841 -0.2176062 0.0384212 -0.0101226885
0.13210991 -0.11036869 0.16838683 -0.059005376 0.043241665 -0.17197956 -0.015737118 -0.021119835
-0.007602402 -0.23184806 -0.048058588 0.14033481 0.12463202 -0.028378898 -0.0705018 -0.07870302
-0.10872556 0.08347343 -0.13524742 -0.1683687 0.07987726 -0.048430383 -0.2420868 0.1794892
0.042331867 0.015226034 -0.023915755 -0.12528403 0.0040574307 -0.0012953434 -0.019255357 -0.02798173
-0.028008567 -0.13033445 -0.028450062 -0.11477191 0.1439743 0.1696377 0.4712196 -0.095104635
0.028171133 -0.11751843 0.17164227 0.0792421 0.058826886 -0.2948144 0.18390906 -0.13498715
0.18842803 0.032442324 0.41996032 -0.27419716 0.10632982 0.6686077 0.06317048 0.033284925
0.25593612 0.2152978 0.09628503 0.22515246 -0.089863226 0.53058237 -0.4452758 -0.22079332
-0.19584134 0.34182295 -0.15697773 -0.14004585 0.044358935 0.1314393 -0.06295058 0.12578371
-0.12050951 0.052284393 -0.09609467 -0.19939625 0.1777398 -0.20370607 0.071455695 0.024554182
0.14828137 -0.053599957 0.17857055 0.06296152 -0.015817752 0.1058356 -0.038790207 -0.031519637
-0.085032396 0.046239886 -0.22833236 0.045867518 -0.23275793 0.05462173 -0.08969144 0.0982608
0.22173288 0.055176914 -0.13891143 -0.080297135 0.015029033 0.1992207 0.01914348 0.19114918
0.14992158 0.14192526 -0.092003234 -0.03279661 -0.01059297 -0.09651115 -0.23517452 0.13625164
-0.19654965 -0.16118264 -0.021556012 0.062058832 0.17710231 -0.21512097 -0.002158376 -0.0670953
0.107642725 -0.23445824 0.16305664 0.13156791 -0.052367862 0.10773167 -0.12733044 0.2542239
0.15115035 -0.12578398 0.14848825 0.05586522 -0.24006316 -0.16461352 0.07452059 -0.014350151
0.34792244 0.012563268 0.04027873 -0.22548378 0.21068801 -0.3136582 -0.05459852 0.09432716
0.030585425 0.28542396 0.015114191 0.02741237 -0.13118841 -0.19345196 -0.098332785 0.17043021
-0.28570613 -0.3005169 -0.06526612 0.16471474 0.25262323 -0.2653784 0.026607964 0.26522335
0.22548787 0.18175782 -0.027747167 0.08217144 -0.07542859 0.12638418 0.063769124 -0.030313302
0.07033016 -0.124990605 0.14760038 -0.14310268 -0.05964167 0.041888706 0.17757776 -0.13294582
0.11576606 0.10172148 0.13646114 -0.054662988 -0.055162378 -0.11231507 0.10484041 -0.016987106
0.07934641 0.11039235 -0.086619385 -0.17248562 -0.073581934 -0.11414289 0.010549999 0.012630295
0.21780491 -0.08666054 -0.22204262 0.035835244 -0.0018101415 0.0014427046 0.32894766 0.079230115
0.21822381 -0.0021774522 0.087407134 1.7531779 -0.25469193 0.29974517 0.02303305 -0.3143573
00000000: 445e dd3d 07fc 34be 37d1 d3bc 361e 273e
00000010: 3f75 873d f3fc 6a3d 2a47 cbbc 6769 403d
00000020: 65c0 203e ee5f 20be 2d28 9e3c 059c 10be
00000030: 807c 3c3e e89b 533d 8abd 17be abab b3bd
00000040: 7927 abbc 375d 3bbd fb0c 23be 83d6 87bd
00000050: cf84 b33d f47b c1bc 4bfa b23c 89ad 40be
00000060: 8c0a 58bd f89f 943d 2bc2 d83d 864e 4abe
00000070: d122 c9bd edff b8bd 9608 423e fcb5 13be
00000080: e4ef 76bd 6a85 0c3e a483 4f3c bf75 123e
00000090: 5170 d6bd f42d e4bd 32ac 29bd 5e67 56bd
000000a0: 8ad5 28be 2d71 52be 3f03 8bbe 5767 3cbd
000000b0: 0c20 0c3e 29d4 5ebe 8c5f 1d3d a2d9 25bc
000000c0: d247 073e fb08 e2bd 996d 2c3e 9faf 71bd
000000d0: 2c1e 313d 691b 30be 21eb 80bc 8103 adbc
000000e0: 921d f9bb 9469 6dbe 15d9 44bd eeb3 0f3e
000000f0: 133f ff3d dd7a e8bc 3f63 90bd 0d2f a1bd
00000100: 82ab debd 1ef4 aa3d 4d7e 0abe d868 2cbe
00000110: b096 a33d f05e 46bd 9ae5 77be 04cc 373e
00000120: 2e64 2d3d 9e76 793c f9ea c3bc 754a 00be
00000130: 32f4 843b 83c8 a9ba 69bd 9dbc f139 e5bc
00000140: 3972 e5bc 6576 05be 1b10 e9bc 890d ebbd
00000150: 006e 133e 81b5 2d3e b243 f13e 38c6 c2bd
00000160: 26c7 e63c 81ad f0bd fec2 2f3e af49 a23d
00000170: 76f4 703d eaf1 96be a852 3c3e 123a 0abe
00000180: 47f3 403e 3ee2 043d 0a05 d73e 9263 8cbe
00000190: 73c3 d93d e029 2b3f 865f 813d c655 083d
000001a0: 0f0a 833e 0777 5c3e 1631 c53d 5e8e 663e
000001b0: 360a b8bd 3fd4 073f 31fb e3be a517 62be
000001c0: a28a 48be 6b03 af3e c5be 20be 2e68 0fbe
000001d0: b7b1 353d 0698 063e 3cec 80bd 72cd 003e
000001e0: b1cd f6bd 2928 563d 48cd c4bd 882e 4cbe
000001f0: 6c01 363e 5398 50be 5d57 923d da25 c93c
00000200: 12d7 173e a18b 5bbd 33db 363e f8f1 803d
00000210: 3b94 81bc 56c0 d83d 7be2 1ebd bc1a 01bd
00000220: 7725 aebd 0966 3d3d f5cf 69be 94df 3b3d
00000230: 1858 6ebe 09bb 5f3d 25b0 b7bd f53c c93d
00000240: f20d 633e 3001 623d cc3e 0ebe d372 a4bd
00000250: 553c 763c 8300 4c3e cad2 9c3c 9cbc 433e
00000260: 0b85 193e db54 113e 316c bcbd bd55 06bd
00000270: 238e 2dbc a3a7 c5bd 97d1 70be 8d85 0b3e
00000280: 5044 49be 100d 25be 3c96 b0bc 6731 7e3d
00000290: 4f5a 353e ac48 5cbe 8a73 0dbb 4369 89bd
000002a0: ca73 dc3d d215 70be 52f8 263e bdb9 063e
000002b0: af7f 56bd 6ca2 dc3d e962 02be a329 823e
000002c0: 28c7 1a3e 84cd 00be 4e0d 183e eed2 643d
000002d0: 1ed3 75be 7290 28be 409e 983d e51c 6bbc
000002e0: e422 b23e 2ad6 4d3c 4ffb 243d 38e5 66be
000002f0: 99be 573e cf97 a0be b3a2 5fbd 992e c13d
00000300: 498e fa3c 1723 923e 83a1 773c e88f e03c
00000310: 4156 06be 4518 46be b362 c9bd 4285 2e3e
00000320: 1348 92be 5add 99be 3eaa 85bd fbaa 283e
00000330: d557 813e addf 87be f2f8 d93c 5bcb 873e
00000340: 4be6 663e b91e 3a3e 074e e3bc 8049 a83d
00000350: 4e7a 9abd db6a 013e 6399 823d 9a53 f8bc
00000360: 4209 903d 13fb ffbd 8e24 173e 8289 12be
00000370: d34a 74bd 7e93 2b3d f2d6 353e f322 08be
00000380: c216 ed3d 5a53 d03d 78bc 0b3e 4ce6 5fbd
00000390: f2f1 61bd 7205 e6bd 92b6 d63d 8b28 8bbc
000003a0: 5f80 a23d 6215 e23d 8165 b1bd 12a0 30be
000003b0: 20b2 96bd bfc3 e9bd e7d9 2c3c 4cef 4e3c
000003c0: 4008 5f3e 157b b1bd 245f 63be fac7 123d
000003d0: 4542 edba 2219 bd3a d46b a83e 6643 a23d
000003e0: 1076 5f3e 96b3 0ebb 8302 b33d 2268 e03f
000003f0: fb66 82be 3378 993e cfaf bc3c 71f3 a0be

func_approx.network.2.bias f4 [30]
0.120656624 0.05819598 -0.006187444 0.07434337 0.065519676 -0.12548992 -0.08465692 0.130664
-0.14820848 0.07375958 -0.0068832017 0.13678926 0.091744155 0.055913568 0.14833966 -0.07598514
-0.07705037 0.10661478 0.06118114 -0.10284022 -0.13188115 -0.047990568 -0.17268448 -0.109035015
-0.029919235 -0.02014897 0.18523677 -0.06995888 -0.055126812 -0.03829501
00000000: d21a f73d e85e 6e3d 0bc0 cabb 5641 983d
00000010: 2e2f 863d 6e80 00be 9b60 adbd c9cc 053e
00000020: f7c3 17be 430f 973d 7b8c e1bb 7c12 0c3e
00000030: 5ce4 bb3d a005 653d 5ae6 173e 199e 9bbd
00000040: 96cc 9dbd da58 da3d 1399 7a3d e59d d2bd
00000050: da0b 07be c291 44bd 33d4 30be c04d dfbd
00000060: 2f19 f5bc 740f a5bc b5ae 3d3e 9a46 8fbd
00000070: a7cc 61bd 3adb 1cbd

func_approx.network.4.weight f4 [30, 30]
0.099402994 -0.08250167 -0.07093878 0.16636923 -0.002812626 -0.23547351 0.0630241 0.013022887
-0.01345672 -0.2737233 -0.027482212 -0.05024942 0.13212588 -0.16403808 0.047901444 0.04686507
-0.11505658 -0.25695008 0.005848217 0.022593629 0.123402186 -0.12432529 -0.014208363 0.047866143
0.018969545 -0.18310863 -0.059083596 0.057624962 -0.27861956 0.05519848 -0.08259337 -0.09766691
-0.10338556 0.05109865 0.13022421 0.0962122 0.17155161 -0.027663432 -0.9108339 -0.090918906
0.0998963 -0.017385522 -0.16991082 0.028690342 -0.013677595 -0.25120604 0.025707228 0.5449332
-0.27060497 0.08241875 0.006350557 0.33262375 0.029601382 -0.1651312 0.03395598 -0.30266708
0.041473035 -0.12543145 -0.26436365 0.18120266 -0.09526609 0.019038366 0.13476986 0.28653115
0.111158304 -0.30383995 0.06269562 0.4014128 1.1133785 -0.32329884 -0.313735 0.10292355
0.5576838 -0.192455 0.12373339 -0.010113217 -0.3883915 -0.5011636 -0.36524054 0.006572274
-0.07127937 -0.23697217 -0.2987777 0.04743935 -0.04460213 0.17114386 0.5706947 -0.41393045
0.03741888 -0.20819926 -0.071213104 0.058264762 -0.16010909 0.24022736 0.05889566 -0.16095737
0.027068768 0.038496982 -0.098180436 -0.17989644 0.09583524 0.0039974977 0.19956204 0.02739659
-0.06367311 -0.18669534 -0.18634742 -0.1769293 -0.12990722 -0.0035008069 -0.12992625 -0.026986666
-0.20638117 -0.015127202 -0.0029533494 0.032948986 0.120513014 -0.049247343 -0.21355142 0.08196544
-0.19501601 -0.268815 0.11948733 0.06257525 -0.047960367 0.14621682 0.03984324 -0.10233612
0.111480124 0.068965346 -0.101154484 0.16960783 -0.04247846 -0.14102831 0.13571598 0.0702843
0.091358215 -0.06765237 -0.05008055 0.08777805 -0.024617644 -0.3229155 0.007242412 0.07189028
-0.15247644 -0.28257456 0.14962074 -0.020097392 -0.27784628 0.17392428 0.13876262 -0.039597966
0.10985468 0.030727286 0.05524994 -0.01144018 0.1903929 0.16823602 -0.2892982 -0.18427883
-0.42632225 0.03274795 0.06939578 -0.07847906 0.14544259 -0.341589 -0.11085973 0.15586434
-0.24130076 -0.11788845 -0.16317043 -0.04524679 -0.29904312 0.18430036 -0.19526656 -0.02816399
0.29145685 -0.38886198 0.06600926 0.010890443 -0.013463831 0.105300136 -0.14790855 0.13243425
0.21006359 -0.1538475 0.14306833 0.06710261 -0.34681153 0.060327213 -0.2411487 0.088061996
0.20048846 -0.009941532 -0.03875636 0.10146706 0.025674492 0.093624115 -0.029745797 0.10547897
0.06559711 -0.25665173 -0.051481538 -0.053376816 -0.1632392 0.101548776 -0.08869008 -0.13604333
-0.123267435 0.23456281 -0.06643113 -0.17518672 -0.09760716 -0.044562418 0.16132121 0.0006557293
0.22402889 0.037839226 -0.029174305 -0.23373799 0.2079036 -0.16859876 0.19519193 -0.24684101
0.017190183 0.029307554 0.10719297 -0.3247101 -0.19197753 -0.12546612 -0.013961484 -0.035318628
-0.065953255 -0.0068358174 -0.17434485 -0.040252246 0.06141066 0.002434888 -0.110305354 -0.0818156
0.04823994 -0.10026497 0.057092454 -0.19207853 -0.17989357 0.04528048 -0.29023007 0.113677934
0.3481024 0.16223605 0.021177515 -0.24359767 0.0340013 0.0966465 -0.022026787 0.04707852
00000000: cc93 cb3d a3f6 a8bd 5a48 91bd b25c 2a3e
00000010: 0954 38bb f81f 71be c812 813d f25d 553c
00000020: 9379 5cbc 7625 8cbe 6022 e1bc 56d2 4dbd
00000030: 024c 073e 99f9 27be 4e34 443d 96f5 3f3d
00000040: c9a2 ebbd f68e 83be 66a2 bf3b 4616 b93c
00000050: 49ba fc3d 429e febd 32ca 68bc 4a0f 443d
00000060: 0566 9b3c d480 3bbe a401 72bd 2708 6c3d
00000070: 39a7 8ebe cd17 623d b626 a9bd 9705 c8bd
00000080: cfbb d3bd d14c 513d 7f59 053e e70a c53d
00000090: 3aab 2f3e 6c9e e2bc 692c 69bf b133 babd
000000a0: 6e96 cc3d 156c 8ebc 1afd 2dbe 0208 eb3c
000000b0: fe17 60bc 149e 80be f797 d23c be80 0b3f
000000c0: bc8c 8abe 29cb a83d 5518 d03b a94d aa3e
000000d0: 997e f23c 2718 29be 6d15 0b3d 2ef7 9abe
000000e0: a1df 293d 1a71 00be ac5a 87be 318d 393e
000000f0: de1a c3bd 59f6 9b3c 1c01 0a3e 36b4 923e
00000100: f7a6 e33d e990 9bbe 9066 803d fb85 cd3e
00000110: 3083 8e3f 6d87 a5be e0a1 a0be 95c9 d23d
00000120: 5ec4 0e3f ec12 45be ee67 fd3d e8b1 25bc
00000130: 40db c6be 424c 00bf cf00 bbbe 3b5c d73b
00000140: ebfa 91bd d5a8 72be 64f9 98be c44f 423d
00000150: b9b0 36bd 5640 2f3e 0c19 123f b1ee d3be
00000160: 8a44 193d 3032 55be 2dd8 91bd 08a7 6e3d
00000170: a3f3 23be 29fe 753e 933c 713d 02d2 24be
00000180: 52bf dd3c 03af 1d3d d312 c9bd c636 38be
00000190: 4445 c43d 71fd 823b fe59 4c3e d06e e03c
000001a0: 0c67 82bd 102d 3fbe dcd1 3ebe f42c 35be
000001b0: 6606 05be cb6d 65bb 630b 05be 2413 ddbc
000001c0: 9655 53be 15d8 77bc fb8c 41bb 84f5 063d
000001d0: 87cf f63d 95b7 49bd 39ad 5abe 7fdd a73d
000001e0: 47b2 47be 1fa2 89be c6b5 f43d 7427 803d
000001f0: 1772 44bd ddb9 153e aa32 233d 9a95 d1bd
00000200: b14f e43d b43d 8d3d 152a cfbd adad 2d3e
00000210: e5fd 2dbd ba69 10be 21f9 0a3e 37f1 8f3d
00000220: 041a bb3d 538d 8abd 4321 4dbd fac4 b33d
00000230: f1aa c9bc 2e55 a5be c151 ed3b 363b 933d
00000240: c922 1cbe 9dad 90be 2e36 193e 49a3 a4bc
00000250: de41 8ebe 3519 323e ca17 0e3e 7a31 22bd
00000260: 7efb e03d cab7 fb3c c34d 623d 986f 3bbc
00000270: 5bf6 423e 1046 2c3e e51e 94be 97b3 3cbe
00000280: e946 dabe b722 063d 601f 8e3d a1b9 a0bd
00000290: e7ee 143e c1e4 aebe 6d0a e3bd e79a 1f3e
000002a0: 8c17 77be 806f f1bd 2616 27be b354 39bd
000002b0: 2e1c 99be 3cb9 3c3e f5f3 47be 2bb8 e6bc
000002c0: d539 953e eb18 c7be dd2f 873d d46d 323c
000002d0: 6697 5cbc 99a7 d73d 5775 17be d89c 073e
000002e0: e91a 573e 338a 1dbe 8180 123e 186d 893d
000002f0: 4891 b1be ab19 773d afef 76be d959 b43d
00000300: d94c 4d3e cfe1 22bc fdbe 1ebd f6cd cf3d
00000310: 5053 d23c 00be bf3d 75ad f3bc 5c05 d83d
00000320: c757 863d db67 83be 4ede 52bd a6a1 5abd
00000330: 2d28 27be cef8 cf3d 25a3 b5bd f14e 0bbe
00000340: a373 fcbd 3c31 703e 0b0d 88bd 2664 33be
00000350: 43e6 c7bd 1587 36bd 6331 253e 40e5 2b3a
00000360: d467 653e 4efd 1a3d f4fe eebc 0359 6fbe
00000370: aee4 543e 27a5 2cbe 65e0 473e e4c3 7cbe
00000380: 6dd2 8c3c 6516 f03c fd87 db3d 6740 a6be
00000390: c295 44be 317a 00be b5be 64bc 44aa 10bd
000003a0: 8012 87bd fefe dfbb 7587 32be 8adf 24bd
000003b0: bf89 7b3d a492 1f3b c6e7 e1bd f08e a7bd
000003c0: 3e97 453d b857 cdbd c7d9 693d 3cb0 44be
000003d0: 0536 38be 0678 393d 0999 94be facf e83d
000003e0: 7a3a b23e 3521 263e 787c ad3c ab71 79be
000003f0: f244 0b3d 9aee c53d 8571 b4bc 68d5 403d

func_approx.network.4.bias f4 [30]
0.12793712 -0.117327385 0.13548769 0.14277099 -0.13377248 0.029710008 0.022947052 0.11204553
0.08806331 -0.002954062 0.07511356 -0.123869106 -0.054816943 0.025514085 0.02038483 -0.15992492
-0.07600275 -0.060890917 0.0883832 -0.113353394 0.10102218 -0.2045303 -0.052396037 -0.17350619
0.081322566 0.038199287 0.109973155 0.009279267 0.21875806 0.113957
00000000: f301 033e 5749 f0bd 49bd 0a3e 8f32 123e
00000010: a7fb 08be 6762 f33c 75fb bb3c 2078 e53d
00000020: 895a b43d f098 41bb 23d5 993d 16af fdbd
00000030: bb87 60bd ea02 d13c 16fe a63c 5cc3 23be
00000040: 54a7 9bbd c168 79bd 4002 b53d d325 e8bd
00000050: b7e4 ce3d 6470 51be 3a9d 56bd 9bab 31be
00000060: 728c a63d db76 1c3d 9b39 e13d 1108 183c
00000070: 1d02 603e 4a62 e93d

func_approx.network.6.weight f4 [30, 30]
0.045316882 -0.04471418 -0.15794237 -0.14491533 -0.13845733 0.023306994 -0.07721355 -0.008045783
-0.022898555 0.15283969 0.18887253 0.05666886 -0.23246981 -0.0070600417 0.019605407 -0.017364318
-0.15818566 0.011449044 -0.15984754 -0.18324685 -0.094392 0.06612584 0.082745634 0.4087319
0.045027554 0.111514 -0.034192592 -0.020604076 -0.12920767 0.029875398 -0.0042849756 0.08725179
0.19233225 -0.100578465 -0.14074151 -0.03256603 -0.18996918 0.14645956 0.11483533 0.19304352
0.0343729 0.18515779 -0.05012863 -0.064571515 0.0854723 0.023720155 -0.046207435 -0.118605874
0.11749279 -0.031134756 -0.05061848 -0.16573004 0.119734176 0.23308274 0.20178232 0.14252149
-0.09946965 0.21305797 -0.10659043 0.05367117 -0.085091904 0.13934954 -0.07616096 -0.015731448
-0.092722304 0.061508164 0.19348027 0.062292427 0.036955893 -0.0024075513 -0.122052096 -0.11590327
-0.10790934 0.05800898 -0.11442228 -0.1016171 0.10844581 0.15158969 0.019994533 0.06820768
0.036094572 -0.1073235 -0.19191591 0.038769636 -0.0563747 -0.20807205 0.11914344 0.013921124
0.14244692 -0.03474726 0.18227921 0.45561755 -0.13231751 0.19951364 -0.05142008 0.053158175
-0.029842367 0.029654132 0.28952563 -0.08571132 -0.08232168 0.0405504 -0.06320997 0.16384879
0.0758175 -0.23341018 0.009800847 -0.069150805 -0.16761361 0.19120444 0.060729 -0.037337497
-0.00049921445 -0.09545081 -0.15562874 -0.25375378 0.07471214 0.0004332097 0.0064638257 -0.19712391
0.096112214 0.06759693 -0.14214143 -0.063729465 -0.13565189 -0.18161999 -0.050506648 -0.0053051948
-0.13165317 0.124619566 0.11112991 0.14824827 0.19513035 0.09115207 -0.096290424 -0.06232435
-0.15429755 -0.034664493 0.15115245 -0.13150376 -0.08818217 -0.10822918 -0.13377419 -0.15563211
0.04582285 -0.011495718 -0.088753685 -0.012228469 -0.0060938913 0.0016637992 0.17391454 0.06307097
-0.10700066 0.11427895 -0.047171216 -0.20215131 0.0029578884 0.14829881 0.11834141 -0.29519624
-0.07388491 -0.14488666 0.19144855 0.15639906 0.06584415 0.08947922 0.020962885 -0.09552327
0.00307964 -0.014479728 0.034063626 -0.13519362 -0.07455084 -0.34558094 -0.123973735 0.0689523
0.25060704 -0.200533 0.07306894 -0.09313702 0.184211 0.09961988 0.116319135 0.23306574
0.06386467 0.4294477 0.09884215 0.055307645 0.13126671 0.14398807 -0.19401592 0.21619594
-0.08531402 0.10278575 -0.17729981 0.042336676 -0.3316638 -0.1231256 0.07136951 -0.10279437
-0.054702792 0.15760095 0.05766722 0.20714568 -0.15628341 0.10453218 -0.16051912 -0.100160316
-0.31965467 0.20875731 -0.12811576 0.03845186 -0.12044918 -0.11197416 0.048845675 0.056407418
0.097599424 -0.01882836 0.13551742 0.06589926 0.15244707 -0.11658952 0.08734608 -0.1354054
0.033889968 0.21385561 -0.17407472 -0.062696934 0.008725832 -0.17417802 0.18291494 0.059384294
0.17968939 0.22107817 -0.14258432 -0.016347762 -0.027813306 -0.037498143 -0.17841582 -0.026399035
0.06901682 -0.09883472 0.16856293 0.0926797 -0.16956449 -0.13096099 -0.17490639 0.10990032
-0.22394255 0.12444522 -0.13582152 0.0015292497 -0.011057466 0.17458948 -0.09965933 0.18576013
00000000: 329e 393d 3726 37bd a5bb 21be af64 14be
00000010: c2c7 0dbe 4fee be3c 2322 9ebd 76d2 03bc
00000020: c095 bbbc 0282 1c3e cd67 413e 9b1d 683d
00000030: 910c 6ebe ec57 e7bb 859b a03c 9d3f 8ebc
00000040: 6cfb 21be c594 3b3c 13af 23be 10a5 3bbe
00000050: 9850 c1bd fc6c 873d 8b76 a93d 4f45 d13e
00000060: d06e 383d 7461 e43d 880d 0cbd e1c9 a8bc
00000070: 044f 04be 40bd f43c fb68 8cbb 11b1 b23d
00000080: bff2 443e 15fc cdbd 8b1e 10be f563 05bd
00000090: 4887 42be 7ff9 153e c92e eb3d 33ad 453e
000000a0: 99ca 0c3d 019a 3d3e ae53 4dbd 123e 84bd
000000b0: 1a0c af3d c550 c23c 0244 3dbd a3e7 f2bd
000000c0: 0fa0 f03d 510e ffbc 5355 4fbd 23b5 29be
000000d0: 3137 f53d 3ead 6e3e 06a0 4e3e 27f1 113e
000000e0: beb6 cbbd de2b 5a3e 154c dabd 4dd6 5b3d
000000f0: aa44 aebd a5b1 0e3e 47fa 9bbd 3ddf 80bc
00000100: 31e5 bdbd fcef 7b3d b11f 463e 5826 7f3d
00000110: 105f 173d 02c8 1dbb 73f6 f9bd b25e edbd
00000120: 92ff dcbd d39a 6d3d 3a56 eabd a01c d0bd
00000130: d618 de3d 543a 1b3e 93cb a33c 78b0 8b3d
00000140: e7d7 133d 6ccc dbbd 9b85 44be e9cc 1e3d
00000150: 28e9 66bd d710 55be 7a01 f43d 6d15 643c
00000160: 9bdd 113e 2553 0ebd 67a7 3a3e b446 e93e
00000170: 3e7e 07be 4e4d 4c3e dd9d 52bd 63bc 593d
00000180: fb77 f4bc 39ed f23c b43c 943e 6b89 afbd
00000190: 4598 a8bd 2d18 263d 3b74 81bd fac7 273e
000001a0: 3546 9b3d 1403 6fbe bb93 203c f09e 8dbd
000001b0: e7a2 2bbe 19cb 433e f9be 783d 34ef 18bd
000001c0: b7dd 02ba b77b c3bd 245d 1fbe 04ec 81be
000001d0: ae02 993d 6c20 e339 80ce d33b dada 49be
000001e0: 7bd6 c43d 4270 8a3d 868d 11be 9884 82bd
000001f0: 54e8 0abe 97fa 39be 0fe0 4ebd 33d7 adbb
00000200: 17d0 06be 8b38 ff3d 1498 e33d 65ce 173e
00000210: 40d0 473e f0ad ba3d ea33 c5bd d147 7fbd
00000220: 2d00 1ebe 5bfc 0dbd b5c7 1a3e eca8 06be
00000230: db98 b4bd 43a7 ddbd 1afc 08be 065e 1fbe
00000240: beb0 3b3d 8958 3cbc 7ec4 b5bd eb59 48bc
00000250: 44af c7bb d613 da3a a716 323e 5a2b 813d
00000260: 2923 dbbd 150b ea3d 9b36 41bd c100 4fbe
00000270: 22d9 413b a5db 173e fb5c f23d f623 97be
00000280: f950 97bd 2b5d 14be 170b 443e 1327 203e
00000290: 4cd9 863d e240 b73d 5bba ab3c b4a1 c3bd
000002a0: c9d3 493b 623c 6dbc 4d86 0b3d 3270 0abe
000002b0: 1cae 98bd fcef b0be f1e5 fdbd dd36 8d3d
000002c0: 914f 803e 8658 4dbe 2ba5 953d 9fbe bebd
000002d0: cfa1 3c3e 8205 cc3d ba38 ee3d c9a8 6e3e
000002e0: 7bcb 823d 92e0 db3e c16d ca3d 458a 623d
000002f0: c86a 063e 9c71 133e 1cac 46be 7862 5d3e
00000300: 1eb9 aebd 5681 d23d 158e 35be 3969 2d3d
00000310: d6cf a9be 4629 fcbd 2d2a 923d db85 d2bd
00000320: 0910 60bd 2562 213e 7634 6c3d ff1d 543e
00000330: c208 20be f814 d63d 205f 24be da20 cdbd
00000340: c7a9 a3be 7ac4 553e c730 03be b37f 1d3d
00000350: 0fae f6bd b552 e5bd 6712 483d 770b 673d
00000360: 35e2 c73d ef3d 9abc 14c5 0a3e 31f6 863d
00000370: 161b 1c3e 7cc6 eebd 80e2 b23d b7a7 0abe
00000380: 35d0 0a3d f7fc 5a3e a540 32be 4067 80bd
00000390: cbf6 0e3c b95b 32be 0e4e 3b3e f23c 733d
000003a0: 7f00 383e 5162 623e a001 12be beeb 85bc
000003b0: bbd8 e3bc a797 19bd a3b2 36be ca42 d8bc
000003c0: b158 8d3d dc69 cabd c39b 2c3e dbce bd3d
000003d0: 50a2 2dbe a31a 06be a91a 33be 6b13 e13d
000003e0: 3251 65be 23dd fe3d cc14 0bbe 1b71 c83a
000003f0: 602a 35bc 96c7 323e 311a ccbd e737 3e3e

func_approx.network.6.bias f4 [30]
-0.06387988 -0.058665745 -0.01261883 0.057381157 0.15116549 0.08725684 0.039034884 -0.15227374
0.0211575 -0.044547573 -0.033780687 -0.00907507 -0.017775953 -0.051495366 0.12480042 0.22437906
-0.01149605 -0.119221345 -0.13115755 0.0064622676 0.20238575 0.062394414 -0.05183807 -0.02710159
0.06646198 -0.08589183 -0.007387878 -0.15877451 0.032182027 -0.050130222
00000000: 74d3 82bd 7e4b 70bd 36bf 4ebc 8108 6b3d
00000010: 20cb 1a3e b7b3 b23d 0be3 1f3d a6ed 1bbe
00000020: 7e52 ad3c 8477 36bd 9e5d 0abd 9aaf 14bc
00000030: e09e 91bc ceec 52bd 5d97 ff3d a0c3 653e
00000040: ee59 3cbc 522a f4bd 2a4e 06be 6ec1 d33b
00000050: 363e 4f3e 4991 7f3d 2854 54bd 2704 debc
00000060: 381d 883d 0ee8 afbd 0316 f2bb c995 22be
00000070: 4dd1 033d 5955 4dbd

func_approx.network.8.weight f4 [1, 30]
0.08215919 0.19299988 -0.03376185 -0.10868767 -0.062875316 -0.16401078 0.20394725 0.18348362
-0.025477502 -0.13736849 0.13670912 -0.22089815 -0.15195067 0.11919755 -0.19913647 -0.23310949
-0.21752392 -0.17653434 0.27701917 0.15759386 -0.1370995 0.053532116 -0.007032385 0.026200773
0.06544104 0.03716376 0.27751106 0.2545866 -0.22262724 0.13872536
00000000: 1443 a83d c3a1 453e de49 0abd a497 debd
00000010: c6c4 80bd 71f2 27be 8cd7 503e 21e3 3b3e
00000020: 32b6 d0bc 53aa 0cbe 7afd 0b3e 2033 62be
00000030: f598 1bbe d81d f43d 6eea 4bbe 41b4 6ebe
00000040: 97be 5ebe 6bc5 34be 75d5 8d3e 4960 213e
00000050: d063 0cbe 7e44 5b3d ec6f e6bb 01a3 d63c
00000060: f405 863d 0739 183d ee15 8e3e 2d59 823e
00000070: 65f8 63be 050e 0e3e
