paper/Burgers/runs/runs/figure_4model.pt (torch, 15625 bytes, 9 tensors)

func_approx.network.0.weight f4 [30, 2]
000000 11 ef c3 bd 54 bc 29 3f 45 03 2f bf c6 50 76 bf
       -0.09567083 0.6630299 -0.68364364 -0.96217
000010 0d 3f a8 be 54 c7 37 3e 51 02 57 bd d7 b7 66 3f
       -0.32860604 0.17947131 -0.052492443 0.9012427
000020 4b 7b 23 be 6d 71 e7 3e 7c 7d cb be dd 44 6e bc
       -0.15965001 0.45203725 -0.39744174 -0.0145427855
000030 d7 ed 5e bf 71 73 79 bf ab c4 f2 bf ac 75 23 3e
       -0.87081665 -0.97441775 -1.8966268 0.15962857
000040 92 40 aa 3e 03 f3 3d 3f f7 ec 8e be 7c 5a bd be
       0.33252388 0.7419893 -0.27915165 -0.36983097
000050 c0 ba 85 bc e5 8a 4d 3f c0 f9 bc be 35 71 31 3f
       -0.0163244 0.8029006 -0.36909294 0.69313365
000060 36 f8 34 be b9 71 21 3e 4a 6d 5e 3f d3 90 6e bf
       -0.1767281 0.15766038 0.8688551 -0.93189734
000070 f2 04 45 bf 36 8e 01 bf ee 54 ac be b6 be 5c 3f
       -0.7696067 -0.5060762 -0.33658546 0.862285
000080 e4 78 98 be 13 b5 24 bf 10 78 13 bf e3 3b 8c bf
       -0.29779732 -0.643388 -0.57605076 -1.0955776
000090 dd 19 4e bf f0 60 69 3f e5 b3 f9 3e a6 ea ba 3e
       -0.80508214 0.9116354 0.4877006 0.36507148
0000a0 d6 e9 01 3e b0 e0 2d bf 72 c6 b4 3e b0 73 5e bf
       0.12686858 -0.6792097 0.35307652 -0.86895275
0000b0 17 2a 1e bf f8 a0 54 bf 63 b0 db 3e f1 d0 10 3f
       -0.61782974 -0.8305812 0.4290801 0.5656882
0000c0 8e 8a 44 bf a1 04 56 3e cb c8 83 3e fe 2f 85 3f
       -0.7677392 0.20900203 0.2573913 1.0405271
0000d0 46 0f 28 3e 80 44 b0 3e 7d 5c 79 3f 91 00 2c bf
       0.16412076 0.3442726 0.9740675 -0.67188364
0000e0 14 21 06 3f df 27 46 bf fa e0 fa be 9c 86 62 bf
       0.52394223 -0.7740459 -0.48999768 -0.8848665

func_approx.network.0.bias f4 [30]
000000 cc db 83 3e 78 c4 f6 3d 70 90 d5 be 87 90 75 3e
       0.2575363 0.12049192 -0.4171176 0.23980914
000010 ad bf bc 3e 1a 2d 78 bd 22 65 22 3d 36 51 01 bd
       0.36864987 -0.060589887 0.03964723 -0.03157159
000020 6f a7 b2 3e 16 7f 32 3f 43 51 01 bf 30 df 90 be
       0.34893367 0.6972517 -0.5051462 -0.2829528
000030 b6 73 81 3e 7b d1 f8 3e de bf bf 3e 93 46 09 3f
       0.25283593 0.4859732 0.3745107 0.5362331
000040 32 60 8c 3d 19 d0 0d bf 99 87 45 bd b8 52 bc be
       0.06854285 -0.55395657 -0.04822502 -0.3678186
000050 e9 b9 0c bf 29 64 1c 3f 69 06 96 3e 74 fa 1f bf
       -0.54971176 0.6109033 0.29301766 -0.62491536
000060 5d a7 51 3d a9 c7 92 bd 26 cb 0a be cd e8 83 bd
       0.051185 -0.071669884 -0.13554057 -0.064408876
000070 ce 7f 5f 3e 31 54 9e be
       0.21826097 -0.30923608

func_approx.network.2.weight f4 [30, 30]
000000 aa 4b fd 3d d8 5d f8 bc f7 86 09 3e 78 1b 08 3e
       0.123679474 -0.030318186 0.13430391 0.13291728
000010 25 56 fc bd b1 2a 0d be 23 1c f1 3c 5e 2e 4c bd
       -0.12321118 -0.13785817 0.029432362 -0.049848907
000020 5f 92 d9 bd a3 14 01 be eb cd 9a 3e c5 7f 84 3e
       -0.10623621 -0.12605529 0.30235228 0.2587873
000030 84 af c5 bc d9 b8 1c be 9d 24 37 be 1c 71 82 3c
       -0.024131544 -0.15304889 -0.1788506 0.015923075
000040 f5 c4 6d be 25 dc 21 be 83 2d 14 3e 3c fb cc 3d
       -0.23219664 -0.15806635 0.14470486 0.10008857
000050 38 e8 dd bd 39 4f 05 bc 66 b1 7b be 0f b5 60 3e
       -0.10835308 -0.008136564 -0.24579391 0.21944068
000060 69 86 29 3e 2e 69 7c bd 88 68 43 3d 6e 6e e7 bd
       0.1655518 -0.061623745 0.04770711 -0.1130036
000070 af 80 f3 bd 71 02 87 3b 18 94 97 bc 68 84 ac 3d
       -0.11889779 0.004120164 -0.018503234 0.08423692
000080 a1 bb 17 be cb c6 7d bb 33 a2 86 be 8b 04 77 bd
       -0.14817668 -0.0038723226 -0.26295623 -0.060307067
000090 ca bc 00 bd c8 2c 0c bf 1f ae d5 bd 34 c3 05 bd
       -0.031430043 -0.5475583 -0.104336016 -0.032656863
0000a0 96 23 82 be 5b 00 45 be c6 28 57 be 6a 02 76 3e
       -0.25417775 -0.19238417 -0.21011648 0.24024358
0000b0 d9 57 09 3e 5f 3c 7b bd cb d6 db 3d fd f6 82 bc
       0.13412417 -0.06133687 0.10734328 -0.015986914
0000c0 39 3b 1d be 84 70 b6 bc b1 91 62 3e ca db b7 3e
       -0.15354623 -0.022270449 0.2212589 0.35909873
0000d0 50 22 8f 3e 8b fa 14 be a4 08 8a be 64 2b 3d be
       0.27955866 -0.145487 -0.26959717 -0.18473583
0000e0 dd 3c 35 bd 0a c6 38 3e c2 bf 04 3e 95 6e e3 bd
       -0.044247497 0.18044296 0.12963775 -0.11105076
0000f0 b0 2a 59 be 80 e4 f4 bd d8 0d f1 bd be 16 7f bb
       -0.2120769 -0.119576454 -0.117702186 -0.0038923468
000100 e4 b0 09 3e a3 1d 58 be d5 2d 0d 3e f7 e6 76 be
       0.13446385 -0.21105056 0.13787015 -0.24111544
000110 1c 0d 7a bd 1b 02 bb 3c 24 16 87 bd 65 1f c0 bd
       -0.06104766 0.022828152 -0.0659602 -0.09380988
000120 30 e6 da bd 80 bc 10 be fc 52 91 3d d6 c2 b4 bd
       -0.10688436 -0.14134407 0.07095906 -0.088262245
000130 cc 66 1a bd e3 a0 13 3e 96 fc 83 be 80 d4 bf bd
       -0.03769569 0.14416842 -0.25778645 -0.09366703
000140 33 2c 15 3e 74 a0 62 bd 5f 31 55 3e 79 66 8e 3a
       0.14567642 -0.0553288 0.20819615 0.001086428
000150 c9 c4 65 be ce e2 3c 3d 25 6b dd bd a9 cc ef 3c
       -0.22438349 0.046114735 -0.10811452 0.029272394
000160 fa c4 4b 3e cb bf 0d be 72 f1 0c 3e af 0f 43 be
       0.1989936 -0.13842694 0.13763979 -0.19048952
000170 31 56 94 3d b0 47 1c 3e 18 85 5b 3e 2f 8c bc bc
       0.07243002 0.15261722 0.2143749 -0.023016063
000180 98 cb 35 be ad d8 02 bf 39 5f 3c bd d6 a2 08 3e
       -0.17753446 -0.5111187 -0.04598925 0.13343367
000190 9c 19 3e 3e aa bf 22 3e 29 73 b9 ba bc fe 58 bc
       0.18564457 0.15893427 -0.00141487 -0.013244327
0001a0 a5 4a 8a bd b9 dd 32 bd 08 39 86 be d8 f8 0c bc
       -0.067525186 -0.043668482 -0.26215386 -0.008604251
0001b0 08 97 86 bd c4 e7 ff bb 5f b6 bf bd 03 12 b2 3d
       -0.06571776 -0.007809611 -0.093609564 0.08694842
0001c0 8d e2 39 be 87 1b 0c be 6e 4f 48 be 1e 87 84 3e
       -0.18152829 -0.13682376 -0.1956155 0.25884336
0001d0 a2 d3 d4 3d ac fd d0 3d a7 4d f1 3c df eb b1 bd
       0.10391928 0.10204634 0.029455973 -0.08687567
0001e0 0a 9a f7 bd b3 8c 11 be 0e 1e 84 bc b2 1f 35 be
       -0.120899275 -0.14213829 -0.016127612 -0.17687872
0001f0 da 95 f0 bd 35 24 6c bd 44 f2 90 be 51 f8 a9 bf
       -0.11747332 -0.057651717 -0.28309834 -1.3278905
000200 f0 81 14 3e fc 25 03 be bd ff 20 bd 51 8c b3 3d
       0.14502692 -0.12807459 -0.03930639 0.087669976
000210 35 a5 4c bd a5 92 6a 3d d0 81 9c be ec 40 bd bd
       -0.04996224 0.057268757 -0.3056779 -0.092408985
000220 63 55 2f be a0 3e a2 bd 71 c2 9e be df 39 36 3d
       -0.17122416 -0.07922101 -0.31007722 0.044488784
000230 81 de a0 3d 90 ed 39 3e b9 5a bc bd d3 15 39 3e
       0.07854939 0.18157029 -0.091969915 0.18074732
000240 d1 7a ef be 2f f5 fb bd 6a 07 db 3d 7e 18 f3 3e
       -0.4677339 -0.123026244 0.106947735 0.47479624
000250 08 0d 17 3d 54 43 0b 3d 32 bb 24 3d 31 b1 22 3e
       0.036877662 0.033999756 0.040217586 0.15887906
000260 44 c4 33 be 8e b8 35 bc a6 1c 68 3d 64 15 77 be
       -0.17555338 -0.011091365 0.056667946 -0.24129254
000270 be b6 b8 3d 5c df 79 bf 47 ce 0a 3d 69 9e 58 3d
       0.0901923 -0.97606444 0.033888128 0.052885447
000280 c2 6d a1 be 49 81 7a be b8 c4 bc 3d f8 a2 89 3e
       -0.3152905 -0.24463381 0.092172086 0.26882148
000290 43 88 1a be 8d 6e 04 bd 00 59 17 be a2 a1 92 3c
       -0.15091042 -0.032331992 -0.14780045 0.017899338
0002a0 3e a6 99 be 85 f9 3f be 57 98 fb bd 5f 86 c7 3e
       -0.30009645 -0.18747528 -0.12284916 0.38969705
0002b0 b7 cd 1b 3e 8c 90 1d 3d e7 ce a8 be 21 78 ce bd
       0.15215193 0.03846793 -0.32970354 -0.100815065
0002c0 d6 f4 bc bd 73 b0 78 3e 30 dd d4 3e 45 18 1c 3c
       -0.09226386 0.2428606 0.41575003 0.009527271
0002d0 78 0c 26 be a6 e3 45 3d d8 07 5d be 7c dd dc bc
       -0.16215694 0.048312806 -0.21585023 -0.02696108
0002e0 e9 1b 3a be 1d 57 17 be 25 84 83 3e 91 5f 29 bf
       -0.1817471 -0.14779325 0.25686756 -0.6616145
0002f0 b8 a7 7e bd 32 bf ea 3d 0d 40 3e be 4d 6a ab be
       -0.062171668 0.11462249 -0.18579121 -0.3347954
000300 98 88 68 be ca f0 be 3e 9a e9 b1 3c ae 6f 12 3e
       -0.22708356 0.37293082 0.021717835 0.14300415
000310 41 16 65 3d 5a 75 81 3d d3 8c 5e be 1c 0c d7 bd
       0.055929426 0.06321211 -0.21733408 -0.105003566
000320 52 26 9b bd 00 af 8c 3e 72 32 41 3e 8c 8b ba bd
       -0.075756684 0.27477264 0.188669 -0.09108648
000330 ca c0 41 be a1 55 6b be 15 79 97 bb 60 b1 df 3c
       -0.189212 -0.22981884 -0.0046225884 0.027306259
000340 bf 9b 94 3e a1 58 9b bc 3d 37 2b bd 29 73 0d be
       0.29025075 -0.01896316 -0.041800726 -0.13813461
000350 ed eb b8 bd 75 1b 03 3e 7f e2 35 3d aa 90 27 be
       -0.09029374 0.12803443 0.044405457 -0.16363779
000360 a8 13 24 be f6 31 74 bf de 6f 04 3e aa 80 11 be
       -0.16023123 -0.95388734 0.12933299 -0.14209238
000370 cb 36 99 bd ab a8 93 bb 7f bf b2 3c 96 14 42 bd
       -0.07481154 -0.004506191 0.021819828 -0.047382914
000380 97 44 20 be ee 93 1c 3e 73 1c 7e be d5 50 95 bd
       -0.15651165 0.15290806 -0.2481554 -0.07290808
000390 00 7d 51 3c 97 f9 69 3e d8 45 21 bb 58 46 45 3a
       0.01278615 0.22849117 -0.002460828 0.00075254356
0003a0 d9 4b bb be 57 eb 2b 3e a8 f2 7a be 7e d0 83 3e
       -0.36581305 0.16788994 -0.24506629 0.25745004
0003b0 e0 0e 8e 3e d2 41 11 3e 1d a7 85 3d 6e 3e 26 be
       0.27745724 0.14185265 0.06526015 -0.16234753
0003c0 16 2d 5e be 1c ce ef bd 08 48 2c 3e ef 8f 98 3d
       -0.21696886 -0.11709234 0.16824353 0.07449328
0003d0 e0 9c 78 be 7f 70 3a 3d 7c 55 04 3e be 1c 48 be
       -0.24278593 0.04551744 0.12923235 -0.19542214
0003e0 be be fe 3d c6 68 e3 3d 08 36 c5 bd aa c7 0b be
       0.12438725 0.11103968 -0.09629446 -0.13650385
0003f0 83 b4 23 bd 4c 00 5f 3e 0c 1c 41 be 01 d9 08 3e
       -0.03996707 0.21777457 -0.18858355 0.1336403

func_approx.network.2.bias f4 [30]
000000 49 2d 32 3d 44 08 01 3e ff 3f e7 3d a3 7d e5 3c
       0.04350022 0.1260081 0.11291503 0.02801401
000010 17 2f db 3d 94 f0 2e 3d 5f c1 5d 3c df a3 9e bd
       0.10702341 0.042709902 0.013534873 -0.077461
000020 26 3a 43 bd 6c 1f 8e 3d a8 94 30 3d 0c c6 69 bd
       -0.047662877 0.06939587 0.04311052 -0.057073638
000030 d2 34 4e bd 57 70 03 be 78 37 05 3d 3e 25 17 3e
       -0.050343342 -0.12835823 0.032523602 0.147603
000040 45 bb 01 bd 4c 82 36 be 3d fd 88 bd aa 97 1a bd
       -0.031672735 -0.17823142 -0.06688926 -0.037742294
000050 d5 54 a4 3d 0a 7f 00 bd e2 fe f5 3d b3 23 3d be
       0.08023993 -0.031371154 0.12011506 -0.1847065
000060 24 61 33 3d 59 b6 e3 3d 35 f7 80 3d 8a cc 97 bd
       0.043793812 0.111187644 0.06297151 -0.074120596
000070 cc c7 d7 bd 81 5f bf 3d
       -0.10536155 0.09344388

func_approx.network.4.weight f4 [30, 30]
000000 4a c8 23 3e 8c e4 60 be ae 46 2c be b0 f2 7c 3d
       0.15994373 -0.21962184 -0.16823837 0.061754882
000010 0c 9c f8 bd 0c 61 a0 be cb 96 7e be 1c 7f 37 bc
       -0.121391386 -0.3132404 -0.2486221 -0.011199739
000020 76 e9 63 be 09 11 2e 3e 60 d0 df 3d 36 b7 a3 bd
       -0.22257027 0.16998686 0.10928416 -0.07993929
000030 e8 1a c9 bd c7 c5 72 3d a3 f4 ea bd b2 16 04 3e
       -0.09819585 0.059270646 -0.11472442 0.12899283
000040 dc 01 56 be 90 f5 38 be 59 8f a6 be af 93 92 3d
       -0.20899147 -0.18062425 -0.3253124 0.07157075
000050 e4 52 6b be e1 52 60 3e 87 91 1e bd 2a 07 a2 3b
       -0.22980839 0.21906616 -0.038713004 0.0049447017
000060 97 fd 8d 3e ad 92 bd 3d e3 ab 35 3c 46 29 52 3e
       0.27732536 0.09256492 0.011088344 0.20523557
000070 a9 c0 75 be 5b 4f 2d 3e 00 a2 01 bd 27 49 93 bd
       -0.23999275 0.16924803 -0.031648636 -0.07191687
000080 e1 5e a7 3d 8e 47 8d 3e ad 16 bf bb 46 43 dd bb
       0.081723936 0.27593654 -0.0058315606 -0.0067524044
000090 68 45 43 3e 1c 7e 5f 3e 91 ae 52 3e 34 4f 60 bd
       0.19069445 0.2182545 0.20574404 -0.054763034
0000a0 55 9b 1b be f2 4f a4 3e 7c 9c 1a 3d 48 cd 19 3e
       -0.15195973 0.32092243 0.03774689 0.15019715
0000b0 43 ce 21 3d 56 f7 1b be 33 17 3e bd 05 ae 24 be
       0.039503347 -0.1523107 -0.046408843 -0.16082008
0000c0 76 6f a0 3d d5 b7 ba 3d 40 16 7a 3d 83 21 65 3c
       0.078337595 0.091170944 0.061056376 0.013985041
0000d0 41 fd 4d bd 12 e9 39 be ab ba 37 3e bf 29 a2 be
       -0.05029035 -0.18155316 0.17942302 -0.31672475
0000e0 d8 8c 03 be 21 6d 29 bd 9d 77 91 3e ec eb b8 bd
       -0.12846696 -0.04136384 0.2841157 -0.090293735
0000f0 4a c7 81 3d 0e 2f e3 bd 61 fc ab 3d 3f 7f aa bc
       0.063368395 -0.11092959 0.08397747 -0.020812629
000100 55 2d 26 3c 64 87 4c 3e 50 a7 8d 3d 38 a3 12 bd
       0.010142644 0.19973522 0.06916678 -0.03580019
000110 5c d2 a5 bb c0 6b d6 bd a5 7a b0 bc d6 c6 57 3d
       -0.005060477 -0.104697704 -0.021542856 0.05267986
000120 ba fd 5f bc a4 e1 25 3e e7 87 b2 bc 49 a2 95 bd
       -0.013671333 0.16199356 -0.021793319 -0.07306344
000130 0c c2 d2 3c f2 4c 29 be 6d 34 bd 3d 65 ab 2f bc
       0.025727294 -0.16533259 0.09238515 -0.010722016
000140 66 ce 15 3d 37 5f bc bd f6 70 45 3e 58 51 f1 3d
       0.03657379 -0.09197848 0.19281372 0.11783093
000150 f5 9b b2 bd 9c 51 0d 3e 10 97 1c be 7c 98 63 be
       -0.08721153 0.13800663 -0.15292001 -0.22226137
000160 f8 be a1 bc 16 4d 80 3d 5b 76 57 bd 32 5d 88 be
       -0.019744381 0.06264703 -0.052603107 -0.26633602
000170 f9 b5 99 be 6c de da bd 08 30 3f be 4f 40 52 be
       -0.30021647 -0.10686955 -0.18670666 -0.20532344
000180 8f 23 1d 3d 66 ff 85 be 6a 78 88 be f9 38 01 be
       0.03836399 -0.26171416 -0.2665437 -0.1261939
000190 8b ac 51 be 6b 8b 3f be a6 e4 0d be 9e 2e 9c 3e
       -0.20475976 -0.18705527 -0.13856754 0.30504316
0001a0 f3 38 17 bf cc 0e 37 3c ba 45 ae be 44 c1 5f bd
       -0.5907127 0.011172961 -0.34037572 -0.05462767
0001b0 33 af 79 be 22 ee df bd c8 2f 1a bf 18 e0 a6 3e
       -0.2438324 -0.10934092 -0.6022916 0.32592845
0001c0 ba d9 81 be c3 d3 e3 3e c2 cd 0b bc 9a a9 9a 3d
       -0.25361425 0.444975 -0.008532943 0.0755188
0001d0 09 f2 84 bc e3 fc 6f 3e dd 0d d8 3e dd 08 e7 be
       -0.016228693 0.23436312 0.42198077 -0.4512395
0001e0 77 27 6f 3d 6d 88 96 3d 6b 6b ad 3d 1d b0 39 3d
       0.058387246 0.0735024 0.08467754 0.04533397
0001f0 35 c7 ff 3e 62 74 8e be 4f e1 a2 3c bb 4e 48 3e
       0.4995667 -0.27823168 0.019882826 0.19561283
000200 be 3c 8a 3e ff 3f 81 bd 11 c7 94 3e 56 d3 bf bd
       0.26999468 -0.063110344 0.29058126 -0.09366481
000210 8c 01 54 be 09 13 fd be 0c 05 26 3f f6 2c 8c be
       -0.20703715 -0.49428585 0.6485145 -0.27378052
000220 6b 23 43 3e 7a ad 9f 3e c4 73 56 3e 25 85 29 3e
       0.1905648 0.3118704 0.20942599 0.16554697
000230 d8 38 a8 bc 02 4e 72 be 06 14 ba 3d 9d 3f ff bd
       -0.020534918 -0.2366257 0.090858504 -0.12463305
000240 af 0a 87 be 4c e6 73 be 0c 8a 98 ba 7c a5 69 bd
       -0.26375338 -0.2381832 -0.0011637821 -0.057042584
000250 4b 3d d2 bd b1 86 c1 bd 32 f2 e2 bd 5c 6a 5f 3e
       -0.10265597 -0.094495185 -0.11081351 0.21817917
000260 dc 54 9e bd 91 74 cb bd 66 35 d7 b8 5e f7 d8 3d
       -0.077310294 -0.09934343 -0.00010261945 0.105940565
000270 80 1b 37 3e 17 d1 f5 3d 15 81 c1 3d af 16 12 be
       0.17881584 0.12002771 0.094484486 -0.14266466
000280 86 0b 81 b9 45 28 28 3c b7 f0 5a 3e 04 56 8d be
       -0.00024613383 0.010263507 0.21380888 -0.27604687
000290 2f e9 43 bd 55 da 3e be a6 81 b6 3c a9 1c 8b 3e
       -0.047829803 -0.18637975 0.022278618 0.27170303
0002a0 a5 a0 72 3e 61 e9 c1 bd 4d c9 bf 3d 7c 0d b9 3d
       0.23694094 -0.094683416 0.09364567 0.09035775
0002b0 74 e1 96 3d a0 b6 c8 3d 96 a9 05 be dc 5c 1c be
       0.073672205 0.09800458 -0.13052973 -0.15269798
0002c0 6e 6d 5c 3e ea 12 10 be 9b be 12 3e 72 5e af bd
       0.21526119 -0.14069715 0.14330523 -0.08562936
0002d0 10 28 31 3d 6e 36 18 3e 3e 6a 6c 3e e2 e6 05 be
       0.043251097 0.14864513 0.23087403 -0.13076356
0002e0 cb 3b 65 be d3 02 d5 bd 2f 53 00 be f9 0a 57 3d
       -0.2238609 -0.10400929 -0.12531732 0.0525007
0002f0 00 81 55 be 22 8c f8 bd 37 72 e8 bc 9a f9 47 be
       -0.20849991 -0.12136103 -0.028374774 -0.19528809
000300 04 3e 11 3e bf 75 ce bd 01 ac ad be 6c 0d 21 be
       0.14183813 -0.10081052 -0.3392029 -0.15727776
000310 35 c0 a7 3d 16 1d 50 3d b5 0f 0b be ec f2 be 3d
       0.081909575 0.05080899 -0.1358021 0.093236774
000320 20 2f 21 3e bb a2 4e bc 46 af 0d 3c c4 75 69 3e
       0.15740633 -0.01261204 0.0086477455 0.2279883
000330 41 48 0f 3d b4 e9 2b 3e ca e6 1f be 51 27 86 3d
       0.034981016 0.1678837 -0.15615383 0.06550468
000340 50 b0 02 3e 0d e5 d0 bd e7 e1 a4 3d 00 93 9a 3e
       0.1276257 -0.10199938 0.080509 0.30190277
000350 12 9a 55 3d e5 ae 3a bd d1 54 ed 3d ff d5 47 3d
       0.052148886 -0.04557695 0.11588443 0.048788067
000360 c9 90 4a 3e a9 c2 0d bc 70 52 53 3e 5d 70 36 be
       0.19781794 -0.008652368 0.20636916 -0.178163
000370 95 f4 2a bd 12 23 98 3b 79 13 90 3e 9f ea 86 be
       -0.041737158 0.0046428526 0.28139856 -0.26350877
000380 77 ab ca 3d dc 4c 6c be 2b 6f b1 bc 0b 08 06 3d
       0.098959856 -0.23076195 -0.021659454 0.032722514
000390 20 de d1 3e 14 59 27 3d 44 2c ad 3e 48 05 80 3d
       0.4098978 0.040856436 0.33822834 0.06251007
0003a0 e1 f6 22 3e d1 9d 54 be 6f e8 fd bc c7 d6 61 3d
       0.1591449 -0.20763327 -0.030994622 0.05513647
0003b0 e2 c0 75 3e 88 ed d2 be 5c eb 9d 3d 2f 17 49 3e
       0.2399936 -0.41196847 0.07710907 0.1963775
0003c0 35 90 e6 bd 75 10 b3 bd 42 97 4b 3d b5 ee da 3d
       -0.11257974 -0.08743373 0.049704798 0.10690061
0003d0 61 64 36 bd 5e 47 1f 3d d9 60 e1 3b db 69 ac 3e
       -0.044529323 0.03888642 0.006878 0.3367451
0003e0 64 68 c6 3d 1c 9c aa 3e ba b1 fd bb 1a cb 18 3f
       0.0968788 0.33322227 -0.007742134 0.5968491
0003f0 4b 66 80 be 21 54 a1 bc 79 71 b4 3e 62 0e a8 bd
       -0.25078043 -0.019693436 0.35242823 -0.08205868

func_approx.network.4.bias f4 [30]
000000 d7 27 1b bd c7 a7 b2 bd 67 f0 9a bc 8b 43 ec 3d
       -0.03787979 -0.08723407 -0.01891346 0.1153632
000010 0a 7f 96 bd a6 50 c5 3d a5 fd da bc 14 5a f7 3c
       -0.073484495 0.09634523 -0.026732275 0.03019432
000020 63 9f 01 bd da 0c b4 bc 7c 68 3c be ea cd 1a be
       -0.031646144 -0.021978784 -0.18399233 -0.15117612
000030 54 59 a7 3c 53 a0 13 3e ca 53 ac 3d 89 a0 4a 3d
       0.020428337 0.14416628 0.08414419 0.049469505
000040 ca 3f c9 3d 70 7a 1d 3e d8 f9 47 be 69 97 0d be
       0.0982662 0.15378737 -0.19528902 -0.1382729
000050 65 ec 90 bd 3f e7 88 bd e4 d7 9f bd c2 b6 bd bd
       -0.07076339 -0.06684732 -0.0780485 -0.09263374
000060 b3 be e8 bd 93 97 83 3d 28 bd bd 3d 1e e6 38 3e
       -0.11364498 0.06425395 0.09264594 0.18056533
000070 e0 1b 1e 3e 37 a0 85 bd
       0.15440321 -0.06524699

func_approx.network.6.weight f4 [30, 30]
000000 6b ab 84 3d 9e 7d 31 bd 0c 77 33 3e d4 58 4f be
       0.06478008 -0.04333269 0.17525882 -0.20248729
000010 c2 b2 93 bd 5e f0 13 be 23 cd ca 3d a9 fd 92 bd
       -0.0721183 -0.14447162 0.09902408 -0.07177288
000020 ac 28 1c bd 26 92 54 3e 16 2f 63 3e 0f a5 36 bd
       -0.038124725 0.20758876 0.2218593 -0.044591006
000030 cf 90 86 be 66 8e 9d 3e 0c 6d cc bd 48 e7 1e bd
       -0.26282355 0.30772704 -0.099817365 -0.038794786
000040 cc fc ad bd 99 bc e2 bc c2 b3 e5 bd 68 4a dd bd
       -0.08495483 -0.027677821 -0.11215927 -0.108052075
000050 64 dc 56 be 00 c2 98 bd e3 11 1a 3e e7 cd 22 be
       -0.2098251 -0.074588776 0.15045886 -0.15898858
000060 f6 07 b6 bd 80 54 9c bd 24 d4 24 3e 71 f1 6b 3e
       -0.08888237 -0.076333046 0.1609655 0.23041321
000070 0e 57 6b bc cc 81 b1 bc cf b6 19 be a2 55 e3 bd
       -0.014364017 -0.021668337 -0.15011142 -0.111003175
000080 81 84 f6 3d 49 43 15 3d 63 7e e7 3d 09 67 90 bc
       0.12036992 0.03644112 0.11303403 -0.017627256
000090 97 8b 0f 3e 1e 31 04 be 83 b3 9a 3d fe 48 45 3e
       0.14018093 -0.12909362 0.075537704 0.19266126
0000a0 f6 65 4e be 47 21 bb bd 4b 78 8c 3d 2b 28 ae bd
       -0.20156083 -0.091372065 0.068588816 -0.08503755
0000b0 14 11 9e bd 81 f3 f9 3d 2b 73 4d 3c 85 40 70 3c
       -0.07718101 0.12204648 0.012539665 0.01466382
0000c0 a0 25 b1 bd 14 34 11 3e ef 10 ad 3d e6 8b 39 3d
       -0.086497545 0.14180022 0.084504955 0.045299433
0000d0 14 ad 5f bc e4 9c d2 3d 3c c7 07 3e 50 9e c1 bd
       -0.013652105 0.10283831 0.13259596 -0.09454024
0000e0 76 af bc bd 17 bb b8 3d 47 e4 d6 bd 4b b4 1d 3e
       -0.09213154 0.090200596 -0.10492759 0.15400808
0000f0 4d 11 81 be 52 46 c5 3d b0 e2 2f bd 7d 82 41 3e
       -0.25208512 0.09632553 -0.042940795 0.18897434
000100 6e 93 40 3e be 80 8e 3d a2 82 80 3d dc 74 30 3e
       0.1880624 0.069581494 0.06274916 0.17232078
000110 5a 22 f6 bd b2 f9 89 be ed 57 39 be f0 38 d1 bd
       -0.12018271 -0.26948315 -0.18099947 -0.10215938
000120 6f d9 14 3e 14 2c 2c be fb 59 81 3d fe df 92 3d
       0.1453607 -0.1681369 0.063159905 0.07171629
000130 5a e1 c0 3d 56 3b 52 be 0b 5e 12 be 7c 72 01 3e
       0.094179824 -0.20530447 -0.14293687 0.12641329
000140 3a f3 cc bc bf a4 6a 3e 76 9d aa bd 4f d2 c8 3d
       -0.025018323 0.22914408 -0.083308145 0.09805738
000150 11 48 ae bc da 7b d7 3b d0 25 9d bc d0 c4 cf bd
       -0.021274598 0.0065760436 -0.01918307 -0.10144961
000160 2b 36 12 3e 40 a8 22 bd 58 77 0a be 0d 0f 46 3e
       0.14278476 -0.039711237 -0.13522089 0.19341679
000170 77 35 af bc 2f c5 86 3e c3 0a 21 be 67 63 93 3d
       -0.021387799 0.26322314 -0.15726762 0.07196694
000180 37 ae 44 3e 8c 42 21 bd 5d 92 ab be 0f 9b 15 bd
       0.19207083 -0.039370105 -0.33510104 -0.03652483
000190 f8 1d 1d be fb a9 90 3e c5 e3 cf 3e 67 6f e3 be
       -0.15343463 0.28254685 0.40603462 -0.4442093
0001a0 4e fd 66 3d 40 18 5f be c6 84 af 3d ff 73 0b 3e
       0.056393914 -0.21786594 0.085702464 0.13618468
0001b0 2e 71 51 be da b3 3f 3e bc 15 5f 3e 03 31 11 3e
       -0.20453331 0.18720952 0.21785635 0.14178853
0001c0 5b ee d7 bd 4c b7 a4 3c c8 e9 91 3e f8 a2 82 3e
       -0.105435096 0.020106934 0.28498673 0.2551496
0001d0 7c 16 bd be 28 42 e9 be cd b5 29 be 95 e3 49 be
       -0.36931217 -0.45558286 -0.16573258 -0.19715722
0001e0 30 fc 8f 3d d6 5f ac 3d 96 c6 6f bd 99 a7 7e 3d
       0.07030523 0.08416717 -0.058538996 0.062171552
0001f0 88 4d dd 3d 7e ca ad bd 13 10 3b 3d f1 b3 67 bd
       0.108058035 -0.08485888 0.045669626 -0.05656809
000200 d3 84 bd 3d 27 0f b0 3d ec 54 52 bd 37 e1 0b be
       0.0925385 0.0859664 -0.05135052 -0.13660131
000210 8f 7d ac be ce e3 06 3e f3 f2 1c bb d2 74 81 bd
       -0.33689544 0.13172838 -0.002394852 -0.0632111
000220 d8 45 bf bd f7 be 3e 3e 55 06 d7 bd 32 70 77 bd
       -0.093394935 0.18627535 -0.104992546 -0.060409732
000230 cf c7 32 be fb 7e fe bd 37 92 f4 3d e5 0c 12 be
       -0.17459033 -0.12426563 0.11941951 -0.14262731
000240 7f 1a f8 bb 41 fe 31 bd dc d5 bd 3b e3 99 8f 3d
       -0.007571518 -0.043455366 0.0057933163 0.070117734
000250 56 bf 46 be 21 a8 11 3e 2d 22 97 be 97 ce b4 3c
       -0.19408926 0.14224292 -0.29518262 0.022071166
000260 20 7f cc 3c c7 72 37 3d fb 56 22 3e 9a 54 5b 3e
       0.024962962 0.044787195 0.15853493 0.21418992
000270 57 96 8a 3d 92 10 ae 3c 50 9d 21 3e d9 05 25 3d
       0.06766956 0.021248136 0.15782666 0.04028878
000280 f9 eb 42 3d a5 97 17 bd 50 c3 a3 3d a2 e0 c1 3d
       0.047588322 -0.037009854 0.07996237 0.094666734
000290 f2 36 3e 3d df 84 ed bc 2b 5e 80 be 0c c2 72 be
       0.04643912 -0.028994022 -0.25071844 -0.23706836
0002a0 32 1d 44 3d 1a 89 4a 3c ff 5c 2e bc cc 79 35 3e
       0.047879405 0.012361789 -0.010642289 0.17722243
0002b0 05 48 e3 bd 95 dc ea 3d ac 2e 14 bd b9 da 3e 3d
       -0.11097721 0.11467854 -0.036177322 0.04659531
0002c0 5c 22 c3 3d 5f f3 b8 3d fb 58 08 3e 7a 90 3d be
       0.09528038 0.09030794 0.13315193 -0.18512145
0002d0 a6 71 7b bd 15 95 9a 3c 53 e1 48 be 9c 42 07 3d
       -0.06138768 0.018869916 -0.19617204 0.033022508
0002e0 30 4a e9 bd 35 78 77 3d 66 d9 06 3e 21 cd 3f be
       -0.11391103 0.060417373 0.13168868 -0.18730594
0002f0 80 a2 de 3d cf 7e 7b bd ec 06 00 be 5b ba 40 3e
       0.10870838 -0.06140023 -0.1250264 0.18821089
000300 75 9c ed bd 79 32 69 bd ee d7 f1 bd 78 e1 b7 3b
       -0.116021074 -0.0569329 -0.118087634 0.0056115948
000310 bf 8d 7a 3d 9e 3a 71 bd 23 ad 2b be 6e 10 b9 bc
       0.061170336 -0.058893792 -0.16765265 -0.022590842
000320 ea 7a 1a 3e 47 7a d8 3d dc 4c 03 3e a2 6a ae 38
       0.1508595 0.105701976 0.12822288 8.3168285e-05
000330 02 f8 ac 3c 0c bd 06 be 03 2c 0c 3e 55 8f 51 be
       0.021114353 -0.13158053 0.13688664 -0.20464833
000340 3d fc 2f bd c1 de b6 bc 8b 67 80 3d 82 34 c8 3c
       -0.042965163 -0.022323014 0.06269749 0.0244391
000350 6c 7b 88 bd 50 b4 17 3e 1d 14 06 be 74 6d 43 bc
       -0.06664166 0.14814878 -0.1309361 -0.011927951
000360 9d fb b0 3d 99 ca d5 3c 2a 30 06 bd 95 f4 29 3d
       0.086417414 0.026097583 -0.032760777 0.041493017
000370 c5 08 1d be 68 4d c1 bd 2b 3b 84 3e 90 bd 97 bd
       -0.15335377 -0.09438592 0.25826392 -0.07409203
000380 a2 95 83 3b 15 7b c3 3d 43 6d 5e 3d d9 97 d2 bd
       0.0040156404 0.095449604 0.05430342 -0.10282869
000390 c5 67 04 be 34 ba 06 bd f0 31 96 3d 30 f8 15 3d
       -0.1293021 -0.03289242 0.073337436 0.036613643
0003a0 6f 0a 76 3d 2a 00 c2 bd c1 eb 45 bd 70 06 ff 3d
       0.060068544 -0.094726875 -0.048320536 0.124524
0003b0 58 b2 29 bd aa 63 b8 3c f1 fd 84 3d 09 72 af bd
       -0.041429847 0.022508461 0.06493748 -0.08566672
0003c0 4b 9a 31 be 07 e0 6f 3d 4c eb 5f bc cc 52 e5 3c
       -0.17344014 0.05856326 -0.013666939 0.027993582
0003d0 83 18 88 3d 61 76 b8 3d f6 36 0b 3d 25 d8 87 bd
       0.066453 0.09006954 0.03398796 -0.06633023
0003e0 6b 33 a8 bc 9c 3f 5e be ec d2 bc 3d f7 46 f8 bd
       -0.02053233 -0.21703953 0.09219918 -0.121229105
0003f0 a8 a3 68 3e ce a1 07 bb 16 74 02 be 00 2d 24 3e
       0.2271868 -0.0020695808 -0.12739596 0.16032791

func_approx.network.6.bias f4 [30]
000000 34 a0 93 bd d9 64 7f 3d 72 60 13 be 25 47 3b 3c
       -0.07208291 0.062352035 -0.1439226 0.011430536
000010 61 0e e0 3c f4 cc 5f 3d a5 b6 77 3d 3b 92 e6 bd
       0.027350606 0.054638818 0.060476918 -0.1125836
000020 21 0d a5 3d 7e 84 07 3e ef b6 56 bc ab 4e cd 3d
       0.08059145 0.13234136 -0.013105138 0.1002477
000030 5a 48 a1 bd 1d a4 06 3d 72 ae 11 3d 41 f4 b8 bd
       -0.07875128 0.032871354 0.035566755 -0.09030963
000040 86 2a ae 3d be b1 2c be 3d 37 81 bd 1e 69 bc bd
       0.085042045 -0.16864678 -0.06309364 -0.09199737
000050 91 73 dc bd 05 79 d6 bd 71 03 2b be e4 b0 d3 3c
       -0.1076423 -0.104723014 -0.16700532 0.025841184
000060 28 84 4f bc 2f 43 18 be e9 bd 31 3c 06 96 86 bc
       -0.012665786 -0.14869379 0.010848501 -0.016428959
000070 29 8b 57 3d f3 32 13 be
       0.052622948 -0.14374904

func_approx.network.8.weight f4 [1, 30]
000000 29 44 0d be 05 da 28 3d 6d b4 85 3e 95 41 27 3e
       -0.13795532 0.041223545 0.26114216 0.16333611
000010 ca 63 d2 bd 4b c2 5e 3e 21 b1 45 3d fe f1 f5 3d
       -0.102729395 0.21753804 0.048264626 0.12009047
000020 ae 26 3e 3e 47 cd 90 be 88 ba 12 3e 89 82 3a 3d
       0.18569443 -0.28281614 0.14328969 0.045534644
000030 aa 2e 8a bd 15 5b 42 3e 81 cd 71 3d a8 2d 85 3e
       -0.06747182 0.18980058 0.059033874 0.26011395
000040 74 44 9a 3d a6 5d 2d be ce 47 e5 3e 50 1f 80 bd
       0.07532588 -0.16930255 0.44781345 -0.062559724
000050 28 8d 7d 3e 0a d3 b4 3d 9d 89 06 3e 79 0f 57 3e
       0.24760878 0.08829315 0.13138433 0.21001996
000060 a9 7e 32 3d 1b c3 e9 bd 77 7b 78 be 8b 40 41 be
       0.043577824 -0.114141665 -0.24265848 -0.18872277
000070 16 83 a9 bd 27 8b 13 bd
       -0.08276956 -0.036021378
