paper/Burgers/runs/runs/figuremodel.pt (torch, 15625 bytes, 9 tensors)

func_approx.network.0.weight f4 [30, 2]
000000 1f de af 3e a9 33 51 bf 10 ad 38 bf 96 1a 2e bf
       0.34349152 -0.8171945 -0.7213907 -0.68009317
000010 81 06 69 bf 71 41 ca bc 4b e1 0b 3e 7e a9 73 bf
       -0.9102555 -0.024689408 0.13660161 -0.951805
000020 73 15 22 3f 97 9a d6 be 67 8e 07 3e 39 e3 49 bf
       0.6331398 -0.41914818 0.13237916 -0.7886234
000030 f1 b8 b7 3e d4 a3 9b be d0 08 14 3d 9d e4 0c be
       0.35883287 -0.30398428 0.036141217 -0.13759084
000040 71 ce 0d bd 68 a8 36 3f 5c 06 a7 bd c0 98 b0 be
       -0.034620706 0.7135072 -0.0815551 -0.3449154
000050 56 c6 2e 3e 35 2c 41 bf 26 71 46 3e 93 3f da be
       0.17067847 -0.7545808 0.193791 -0.42626628
000060 f8 a0 00 3f c7 b3 64 3f 1b bd 4b 3e 33 dc b0 be
       0.5024562 0.8933682 0.19896357 -0.34543
000070 f2 57 e9 be 5f 7d 26 3f 4f c2 b6 be 42 f9 f4 3e
       -0.4557491 0.6503505 -0.3569512 0.4784642
000080 34 1f 24 c0 81 5b 98 be 62 63 33 3e 43 e1 25 3f
       -2.5644045 -0.29757312 0.1751838 0.6479685
000090 2e 98 eb bd 6c 53 c3 3e 30 ec ac bc c7 6b 00 bf
       -0.11503635 0.38149583 -0.021108717 -0.50164455
0000a0 1e 1a 83 3f 67 26 f2 be 03 f9 e4 be d1 3b 36 3f
       1.0242345 -0.47294924 -0.4472123 0.7118502
0000b0 f7 b3 33 3f de cf 03 bf 26 8f 6b be 79 6d 4e bf
       0.7019648 -0.51489055 -0.23003826 -0.8063579
0000c0 c9 73 a5 3e 50 cc 53 be b4 b0 15 be ed 9c 4d bf
       0.323149 -0.20683408 -0.14618188 -0.80317575
0000d0 1a f8 0e bf bc 59 b8 3d 7c b7 8b bf 3e a6 0b 3f
       -0.5584732 0.090014905 -1.091537 0.5455054
0000e0 fc a9 03 bf 4d 5e 80 3f 43 dd 19 bf 8b 12 7f 3f
       -0.5143125 1.0028778 -0.60103244 0.9963767

func_approx.network.0.bias f4 [30]
000000 24 c6 e6 bd a5 1e 46 3e 3f 52 b1 3c 2a 63 a6 be
       -0.11268261 0.19347627 0.021645663 -0.3249753
000010 2f 63 77 bd 30 90 80 3e dd 22 93 3e d8 09 08 3f
       -0.060397323 0.25110006 0.28737536 0.5314002
000020 d3 4d 70 3d bf 7a 6c 3e 41 47 da 3e 53 ee 8f be
       0.05866797 0.23093699 0.42632487 -0.28111514
000030 45 98 74 bd 82 58 95 3e f1 67 6d be 8a c0 fd 3d
       -0.059715528 0.2916909 -0.23184182 0.123902395
000040 b0 39 9f 3c b2 12 a1 bd 66 a2 ae bd d3 66 14 3f
       0.019436687 -0.07864894 -0.08527069 0.579694
000050 e5 11 7b 3e 55 04 12 bf 0e 14 0e bf 4f bf 4b be
       0.24518545 -0.5703786 -0.5549935 -0.19897197
000060 78 4a da be 94 5f 03 3f f1 50 c4 3e bc 0e 2f 3e
       -0.4263494 0.51317716 0.38343003 0.17095464
000070 9d e4 13 3f db a4 e2 3e
       0.5777071 0.442664

func_approx.network.2.weight f4 [30, 30]
000000 f3 a3 a3 3e 10 53 17 3e a5 9a ab 3d 2d e1 fb 3d
       0.3196102 0.1477778 0.083791055 0.12298808
000010 f9 64 9b 3e f4 22 36 3e 33 4c 18 3e 25 4d 15 be
       0.30350474 0.17786771 0.14872818 -0.1458021
000020 d3 a8 03 be c3 c2 15 3d 95 3a b5 3e 00 b4 ef 3d
       -0.1285737 0.036562692 0.35396257 0.11704254
000030 2c d9 2a be 04 9a a0 3e e3 5c 0e bf fc 16 a2 be
       -0.16684407 0.31367505 -0.55610484 -0.3165816
000040 de b4 97 be 49 97 6e be dd df 93 be 5f 4f a4 bb
       -0.29630178 -0.23299898 -0.28881732 -0.0050143446
000050 5c 4b b2 3e 2e 96 a2 be ab 92 7f bd 3a bf 58 3e
       0.3482312 -0.31755203 -0.062395733 0.21166697
000060 bf c9 f7 bc b6 b1 85 3e 86 54 27 be 73 68 02 be
       -0.030247567 0.26112145 -0.16340837 -0.12735157
000070 65 fe d9 3d b6 6e 39 be 3b 95 80 be f8 47 82 3e
       0.10644225 -0.18108639 -0.25113854 0.25445533
000080 ca 28 a7 3d a9 97 40 3d ed 4c ee bd e9 f6 20 bd
       0.08162077 0.047019634 -0.11635766 -0.039297972
000090 de 44 a7 bd 90 89 e3 3d 4a 17 a4 bc 64 b7 8c 3c
       -0.08167432 0.11110222 -0.020030636 0.017177291
0000a0 b7 ce 67 be 17 2e 19 be e8 b4 17 3d fb 93 b8 bc
       -0.22637449 -0.14958988 0.03703776 -0.0225315
0000b0 69 30 d2 3e 59 5c 60 3e 16 7e e5 3f aa ed 9c 3d
       0.4105256 0.21910228 1.7929103 0.07662518
0000c0 20 38 8d 3e f7 f4 49 be a8 78 53 be 05 f1 71 3e
       0.27581882 -0.19722353 -0.20651495 0.23627098
0000d0 86 d3 ab bd a2 6d 20 3e 45 05 15 3d aa a2 0f be
       -0.08389954 0.15666822 0.03638198 -0.14026895
0000e0 1b 18 1b 3e 1b 66 be 3d b4 a0 34 3e ab 26 56 3e
       0.15145914 0.09296819 0.17639428 0.20913188
0000f0 44 36 8e 3e 25 fb 27 3f 68 31 7f 3d 20 ad 1b 3d
       0.27775776 0.6561759 0.062302977 0.0380069
000100 19 9c 39 3d fe 89 13 3e c1 b0 85 bd 93 c4 a4 bc
       0.045314882 0.14408109 -0.06527854 -0.020113265
000110 32 28 89 be 6c af 4a 3e 5d 86 30 be dc 60 2d 3e
       -0.2678848 0.1979348 -0.17238756 0.1693148
000120 64 6e 00 bf 8c 89 82 bd b5 e4 c9 3d 73 8b d2 bd
       -0.5016844 -0.06373891 0.098580755 -0.10280504
000130 1b 15 a8 3f 9c 11 9c bd 22 35 f9 bd 03 9f d5 3c
       1.3131441 -0.07620546 -0.121683374 0.0260768
000140 94 01 28 be 43 ff c8 bc b5 82 c0 3d 60 1f 2f 3e
       -0.16406852 -0.02453578 0.093999304 0.17101812
000150 92 59 1b 3e 84 31 12 3e 78 6d 15 3e 7b 04 1b 3e
       0.15170887 0.14276701 0.1459254 0.15138428
000160 42 f1 5d be f3 90 43 be bd 26 21 be 53 9e 0b 3e
       -0.21674064 -0.19098262 -0.15737434 0.13634615
000170 40 f8 30 3e 25 00 45 be 89 e2 04 be a0 6c 45 be
       0.172822 -0.19238336 -0.12977041 -0.19279718
000180 f0 b9 0a 3e 0f bc 93 bd b5 49 71 bd fd 38 c7 3c
       0.13547492 -0.07213604 -0.058908183 0.024319166
000190 35 1a a0 be 7e 6f 80 3d d4 31 5d 3e 2f de 3b be
       -0.31269994 0.062712654 0.21601039 -0.18346475
0001a0 e6 73 64 3e dc 87 c5 3d dc 37 1f 3e 5f 5b b9 bd
       0.22309837 0.09645054 0.15548652 -0.09050631
0001b0 8e 8b 6f 3e 9b eb ef 3d e1 87 43 be 5c cc 2d 3e
       0.2339308 0.1171486 -0.19094802 0.16972488
0001c0 ce f6 1a be 8b 20 80 bc 41 ac 07 be cc 08 8a bd
       -0.15133211 -0.015640518 -0.13249303 -0.06739959
0001d0 32 31 42 bc 36 a9 ac 3e a8 7f 15 3d 3e 35 82 3e
       -0.011852549 0.33722848 0.036498696 0.25431246
0001e0 b5 7d 03 bf 34 d0 de bd 94 bc 61 3e 78 df 0b bf
       -0.5136369 -0.10879555 0.22044593 -0.5463786
0001f0 c2 66 c2 be 76 c1 04 be bf c1 9a bc 79 91 4a bd
       -0.37969023 -0.12964424 -0.018891213 -0.04945514
000200 bf ef 83 3e 7a 8a a8 3c fa b1 90 be da b0 f1 be
       0.2576885 0.020573843 -0.28260785 -0.4720524
000210 55 6d 8b 3e 6e ce c3 bd 0d ec 1b 3d 51 25 a1 3e
       0.2723185 -0.09560858 0.038066912 0.31473783
000220 3e 68 66 3e 67 75 12 3e 13 b6 06 3d b8 55 92 bd
       0.22500703 0.14302598 0.032888483 -0.07145256
000230 61 eb cc 3c 6c 0c 2b 3e 40 56 ed be 2d 45 33 be
       0.025014581 0.16703957 -0.46354866 -0.17506857
000240 e3 f1 18 be 84 5c 04 be ee 09 93 3e 1a 95 ab 3e
       -0.14936022 -0.12925917 0.28718513 0.33512193
000250 96 84 10 3f 28 11 a6 3e 36 7f 79 be a7 5d 71 be
       0.5645231 0.32434964 -0.24364933 -0.23570882
000260 8f 4e 3d be b1 83 9c 3d ef 0d 06 be 59 65 52 be
       -0.18486999 0.07642306 -0.13091253 -0.20546474
000270 90 77 0b 3d c6 3e a3 3d 75 67 b2 bc 23 2c f1 bb
       0.03404957 0.079709575 -0.021777848 -0.007359998
000280 bd 77 5c bc ad b7 21 be 67 83 23 3e 1a ae 70 3d
       -0.013456282 -0.15792723 0.15968095 0.058759786
000290 64 74 11 be 71 1c f7 bd e1 fe f1 be 7b f6 8f bd
       -0.14204556 -0.12065972 -0.4726477 -0.07029434
0002a0 1f b7 8f bd cd 90 c2 bb fb 91 81 3c 69 12 5c 3d
       -0.070173495 -0.0059376718 0.01581668 0.053728495
0002b0 85 83 e7 bd 44 ee 25 be 2d b6 22 be 70 e6 d6 3d
       -0.11304382 -0.16204172 -0.15889807 0.10493171
0002c0 bb 74 34 be 9f c1 5a 3d 98 7d 7d 3e db f3 30 3e
       -0.17622654 0.053407308 0.24754941 0.17280523
0002d0 9f 41 f6 bd 4a b3 0b 3d 62 58 97 3d 8a 5b 8c be
       -0.12024235 0.03410653 0.073899046 -0.2741359
0002e0 20 b5 f3 bd b1 70 ac be b2 11 2f be 93 75 ad 3d
       -0.11899781 -0.33679727 -0.17096594 0.08469691
0002f0 5e de 9b 3e 8a c3 b2 bc 75 ef 7e be c8 59 93 be
       0.3044309 -0.021821756 -0.24896033 -0.28779435
000300 c3 6b 90 3e cb 16 89 bd 57 27 f6 3c 6c 06 66 3e
       0.28207216 -0.066938005 0.030048056 0.22463387
000310 80 69 6a bc 45 8c 81 3e d0 8b 6b 3e d8 0f ec bd
       -0.01430738 0.2530233 0.23002553 -0.115264595
000320 22 69 23 bb 15 b8 c7 bd 0f 2a 85 bc 5b 50 9c be
       -0.002493449 -0.09751908 -0.016255407 -0.30530056
000330 4d 5d de bd dd 01 bf 3d d6 59 3d 3e 43 f6 97 3e
       -0.108576395 0.09326527 0.18491301 0.2968007
000340 74 64 73 3e 54 6d a3 3e 3e 01 38 3e 81 b5 97 3e
       0.23768789 0.31919348 0.17969224 0.29630664
000350 80 21 f8 3d 0d a1 b0 3e ff 51 5c bd 97 30 80 3e
       0.121157646 0.34497872 -0.053789135 0.2503707
000360 9b 45 39 3e 6e e8 02 3e 7f 8f 7c be a1 00 44 3e
       0.18092959 0.12783977 -0.24664114 0.19140865
000370 69 e1 00 bd d5 ab 9f bd 82 0c b9 3c dc 08 cf bd
       -0.031464968 -0.07796446 0.022588972 -0.10109112
000380 d8 2d 62 3d 8f 3c 20 be 4a c7 34 3f 00 05 88 be
       0.0552195 -0.15648101 0.7061659 -0.26566315
000390 a7 77 30 be 68 5b d1 3d ee 9b 88 bd 91 70 10 3e
       -0.17233144 0.102225125 -0.06670366 0.1410544
0003a0 ce b3 b5 3d 74 dd 99 3e eb 82 19 be f3 6f 3f bd
       0.08872186 0.30051768 -0.14991347 -0.046737622
0003b0 a5 4c 2f 3c d1 f5 01 be e5 46 a6 be f0 75 89 be
       0.010699426 -0.12691428 -0.32475963 -0.26847792
0003c0 a3 b8 03 be 98 be e8 3e 52 98 4f 3e b4 9b f0 bd
       -0.12863402 0.45457911 0.2027295 -0.11748448
0003d0 68 72 98 bd 81 ca 8a 3e 45 9d d7 3d d7 9c fe 3b
       -0.07443696 0.27107623 0.10528044 0.0077701616
0003e0 cd 60 35 be 6f 8c 3c 3e c9 cf 0f 3e 9d 7b 2a 3c
       -0.17712708 0.18412946 0.14044107 0.010405448
0003f0 b0 19 72 bd 81 13 0f 3e 39 13 fa 3d 39 b1 5c be
       -0.05910653 0.13972284 0.12210698 -0.2155198

func_approx.network.2.bias f4 [30]
000000 31 64 25 3e ed b4 5a 3d 6d d4 d4 bd 27 61 07 be
       0.16151501 0.0533952 -0.103920795 -0.13220654
000010 5b 50 a8 bc 7d b7 39 be 38 f2 16 3e 71 54 82 bd
       -0.020546129 -0.18136401 0.14740837 -0.06363762
000020 31 38 a0 3d af 5f 97 bd a4 16 c9 bd 54 e6 8f 3d
       0.07823218 -0.07391297 -0.098187715 0.070263535
000030 3c 3a a6 bd b4 1c 92 bc f6 60 e5 3c 56 0a 30 be
       -0.08116576 -0.017835952 0.028000336 -0.17191443
000040 8c 6b 1e be 22 4d 42 3e 75 df 5c 3d ec 62 16 bd
       -0.15470713 0.18974736 0.053924043 -0.036715433
000050 46 55 0f 3d e8 bc a6 bc 1d eb e3 3d 4d 14 c2 bd
       0.034993432 -0.02035375 0.11128829 -0.09476528
000060 06 a9 08 be eb a8 7e 3d b0 8e 8f 3c 1b df 2a 3d
       -0.13345727 0.06217281 0.017524093 0.041716676
000070 62 da 46 bc d5 20 8d 3b
       -0.012137027 0.0043068924

func_approx.network.4.weight f4 [30, 30]
000000 7c 4c 52 3e 94 39 ac 3d 92 46 0e be c8 3d 59 bd
       0.20536989 0.0840942 -0.13894108 -0.053037435
000010 9f f9 af bd 2f 0f bb bd 07 bc c7 3c 72 8d 91 bd
       -0.08592533 -0.091337554 0.02438165 -0.07107057
000020 19 b8 5e 3e 7f 2c 0c be fc c5 0c 3e f7 0d 26 3e
       0.21749915 -0.13688849 0.137474 0.16216265
000030 31 fc 14 3e f5 c4 eb 3d 1e 0e f5 3d f2 a1 02 be
       0.14549328 0.11512176 0.11965583 -0.1275709
000040 f5 6c 27 3e dc 4a 45 be 20 e6 2e 3d 10 d8 72 3e
       0.16350158 -0.19266838 0.042699933 0.23715234
000050 17 31 31 3a f1 57 8b 3d 95 6d cb bd 20 90 16 be
       0.0006759329 0.06803883 -0.099330105 -0.14703417
000060 5e 7e ad 3d ab 6c fd 3d 1a fc 0f be 17 bd 19 3d
       0.08471368 0.123742424 -0.14061013 0.037533846
000070 a7 5c 24 bd a7 39 31 bd 6c 00 71 3e 34 e4 ee be
       -0.040127423 -0.043267872 0.23535317 -0.4665848
000080 61 8c 13 3e 08 6d 2b be 7a dd fb 3d 04 63 aa 3d
       0.14409019 -0.16740811 0.12298103 0.08319667
000090 de 56 8e 3d 8e fe da bd ba b8 ea be 13 cd 44 3d
       0.06950162 -0.10693084 -0.4584406 0.048047137
0000a0 78 12 71 3d 9f 27 20 3e 5b 21 94 3e e7 74 46 be
       0.058855504 0.15640114 0.28931698 -0.19380532
0000b0 f2 40 64 be 8a f5 00 be 00 dc 62 3e 36 0d c6 3e
       -0.222904 -0.12593666 0.22154236 0.38681954
0000c0 ef b7 c2 be a0 c3 58 be 42 3a 9c 3d d3 9b a5 bc
       -0.38030955 -0.21168375 0.07628299 -0.020215904
0000d0 78 61 d2 bd 97 96 63 be 70 03 73 bd 99 0c 7f 3d
       -0.10272497 -0.22225414 -0.05932945 0.062267873
0000e0 a3 55 6c 3e a9 9d a0 3d d3 53 7d be 96 0c 19 bd
       0.23079543 0.07842571 -0.24739008 -0.03736552
0000f0 ed 09 89 3d b8 e9 90 bd 86 84 d8 bc 53 38 c7 3d
       0.06691346 -0.07075828 -0.02643038 0.0972754
000100 0d 9c 2c be c7 d0 5e be 8f 9c c8 bd 7e 53 48 be
       -0.16856404 -0.2175933 -0.09795486 -0.195631
000110 e1 0a a7 3d 0b 42 02 3e 41 7d 79 bd a8 01 2a 3e
       0.08156372 0.12720506 -0.060910467 0.16602194
000120 00 db 39 be d6 b5 3c 3d 2e 4c 02 be 95 ec 12 be
       -0.18149948 0.04607185 -0.12724373 -0.14348061
000130 73 43 af 3c ec df 1e be fe 43 b4 3d 12 dd d0 3d
       0.021394467 -0.15515107 0.08802031 0.10198416
000140 31 c5 f1 bd c0 eb b3 bb 76 0b 83 3d 48 98 38 3e
       -0.118051894 -0.00549075 0.063986704 0.1802684
000150 27 11 bf 3d 5f 3f 8e ba fc ff 1e bd 52 41 ed bc
       0.093294434 -0.0010852626 -0.038818344 -0.028961811
000160 54 8b 00 3e 97 f4 4b 3e 66 68 e8 bd 83 92 c4 3c
       0.1255315 0.19917522 -0.113480374 0.023995643
000170 7c 28 35 3d 9b 88 35 be 46 85 b4 be 94 90 b0 bd
       0.044228062 -0.17727892 -0.3525793 -0.08621326
000180 b5 4d 33 be 24 11 d7 bd 0e 63 b1 3d 1b cc a3 3b
       -0.17510112 -0.10501316 0.08661471 0.0049986965
000190 a3 70 91 bc 15 54 7e 3d 11 f1 06 3d 68 4f d1 3d
       -0.017753905 0.062091906 0.032944743 0.10220224
0001a0 55 ab 3e 3b 61 34 2e be 79 05 7d 3d 29 8a 4b 3c
       0.002909382 -0.17012168 0.061772797 0.012423077
0001b0 62 e1 37 3e 4c 33 1d 3e cb d7 0a be 05 dd 07 bd
       0.1795707 0.153516 -0.13558881 -0.033169765
0001c0 b4 77 16 3d 21 5e 23 be fe 85 18 bd 5f 30 58 be
       0.03673525 -0.15953876 -0.03723716 -0.21112202
0001d0 77 00 5b 3d 21 b5 42 bd db 13 2c 3e f0 9d 1e be
       0.05346724 -0.04753602 0.1680445 -0.15489936
0001e0 83 d2 a3 3d c0 7a 71 3e 53 51 70 bc 45 92 0d be
       0.07999136 0.23581982 -0.014667827 -0.13825329
0001f0 18 1f 49 3d d2 02 c3 bd 90 a5 cc bd 21 8f 48 bd
       0.04910192 -0.09522022 -0.09992516 -0.048964623
000200 bc 63 e6 3d 49 61 2a be 2b 87 da bd 54 b8 0a be
       0.112494916 -0.16638674 -0.106703125 -0.13546878
000210 e8 bd 68 bd 4f b0 d8 3d 10 e8 d3 bd 4d fb 6c 3d
       -0.056821734 0.10580503 -0.10346997 0.057856847
000220 24 dd c2 bd 2e db ae be f1 c9 b0 3e 7f fb d5 3d
       -0.095148355 -0.34151596 0.3452907 0.1044836
000230 bd 2d 8b 3e 50 3e 0a 3d a4 4b cf bd f7 2f c1 bd
       0.27183333 0.033750832 -0.10121849 -0.09432977
000240 5d d6 1e be 59 9a 3c 3e 51 aa ed 3d 89 33 ee 3d
       -0.1551146 0.18418254 0.11604751 0.11630923
000250 77 a9 8c 3e 39 de 67 3e 4c d9 f3 bd ec 19 a2 3e
       0.2747304 0.22643365 -0.119066805 0.31660402
000260 6a de 31 3e 12 d0 06 3e 45 03 ad 3d de d6 03 3d
       0.1737 0.1316531 0.08447889 0.032187335
000270 d7 69 b6 bd 9b be e7 3d 7f be a8 3d e1 9f 9e 3d
       -0.08906906 0.11315652 0.08239459 0.07745338
000280 72 2c 7c bd 3e ae df 3d 3c a3 1b bd bf 40 74 3c
       -0.061565824 0.10921906 -0.03799747 0.014908015
000290 ec 53 0a 3e 46 be 2d 3e e3 02 8c be ee d5 8d be
       0.13508576 0.16967115 -0.27345952 -0.27702278
0002a0 64 d4 f7 bc 1c c6 91 bd 07 8d 80 3e c7 c5 d7 3d
       -0.030252643 -0.071178645 0.25107595 0.1053577
0002b0 fa b0 db 3c de a8 8a bd aa c9 50 3d 07 fe 0d 3d
       0.026817787 -0.0677049 0.05097357 0.034666087
0002c0 5e 5f b9 bc d5 db d7 bd 62 73 a3 3e de dd 4b 3d
       -0.022628482 -0.105399765 0.31923968 0.049772136
0002d0 e3 5d 61 be 07 86 85 bd 5f 2d 95 bc 26 d2 92 bd
       -0.22008471 -0.06519704 -0.018210111 -0.07168989
0002e0 98 72 4c be 96 dc af bd d5 25 16 be 44 d6 cb bd
       -0.19965589 -0.08586995 -0.1466287 -0.09952977
0002f0 31 69 a8 bd 8a 4e 8a 3c 0f 21 bd bc 15 ae b6 3c
       -0.08223189 0.016883153 -0.023087053 0.022299806
000300 23 58 2e be 58 ce 36 3e 23 de 39 be a4 9a 50 bd
       -0.17025809 0.17852151 -0.18151145 -0.050928727
000310 34 39 98 bb d6 1f de bd f4 eb 43 be a2 3a 97 bd
       -0.004645491 -0.10845916 -0.19132978 -0.0738423
000320 19 f5 19 be 41 c7 be 3c 01 2f 20 3e 97 4e 5a bd
       -0.15034904 0.023288371 0.1564293 -0.053297605
000330 62 51 7f 3d 7d c5 02 be b4 8f 36 3e ff 9d 14 3d
       0.062333472 -0.12770648 0.17828256 0.03628349
000340 ab 71 02 3e f2 5f b5 3d 56 66 71 be 38 b7 50 3e
       0.12738673 0.08856191 -0.23574194 0.20382392
000350 72 50 ab 3d 83 f0 4c 3e 37 a0 dc 3d 01 6b b5 3d
       0.08364953 0.20013623 0.10772746 0.088583
000360 94 89 c2 3c af 27 39 3e ae ac ff bb 1a 54 23 be
       0.023747243 0.18081544 -0.0078025674 -0.15950051
000370 72 89 1b be df 89 14 3e 23 40 9a be 8c 35 77 3e
       -0.1518915 0.14505719 -0.30127057 0.2414152
000380 39 4d 80 3e ed 22 47 3e 69 fa 90 b9 37 1c 86 be
       0.25058916 0.19446917 -0.0002765239 -0.261934
000390 b4 ea fe 3d d7 5c a7 3e 08 cd 38 3d 57 6f f9 bc
       0.1244711 0.3268802 0.045117408 -0.030448599
0003a0 d5 1e 97 bc 5a ab 55 3e 18 5b 80 bb d7 9e 36 be
       -0.018447319 0.20866147 -0.003917109 -0.1783403
0003b0 10 8c ef 3d f7 12 11 3e 1a 26 36 3e 2f ef 61 3e
       0.11696637 0.14167391 0.17787972 0.22063898
0003c0 8c b1 0b be a9 d3 8e 3d 2a fe 02 bd dd 83 f4 3d
       -0.13641948 0.06973965 -0.03198067 0.119392134
0003d0 9b d2 4b 3e d5 8c 07 3e 6a db a1 3e f3 a5 5e be
       0.19904558 0.13237317 0.31612712 -0.21742992
0003e0 60 41 06 3e 98 47 0b 3e 4d 4c 53 be 0a 93 a2 bd
       0.13110876 0.1360153 -0.20634575 -0.07938202
0003f0 a5 64 2e be 9c 95 be bd d2 51 ba 3c 0e 21 47 3e
       -0.1703058 -0.093058795 0.022744093 0.19446203

func_approx.network.4.bias f4 [30]
000000 ae 7c b7 3c 1f 58 8c bd 9c 92 b2 3d 57 99 d2 bd
       0.02239832 -0.06852745 0.0871937 -0.102831535
000010 6b 26 1e be 98 f5 b7 3d 6b 2d d4 3d 9a f2 f7 bb
       -0.15444343 0.0898239 0.10360225 -0.007566762
000020 89 dd d4 3d 69 be bb 3d f9 1f 2d 3e ce a0 33 3d
       0.10393817 0.09167177 0.16906728 0.043854527
000030 f9 be 1d bd 59 2a 34 be 25 7f a2 3a de e7 4b bd
       -0.038512204 -0.1759428 0.0012397511 -0.049781673
000040 89 10 e0 bc 04 cf 3e 3e 90 62 43 bd 6e 67 29 be
       -0.027351635 0.18633658 -0.04770142 -0.16543362
000050 94 26 39 3e c1 2d 1e bc 3f fc ff bd 12 4e 67 3c
       0.18081123 -0.009654463 -0.12499284 0.0141177345
000060 78 b7 9d bc a9 1c 35 bd 7c 35 0f 3e 4f 56 f2 bd
       -0.019252524 -0.044216786 0.13985246 -0.11832868
000070 3d 62 bf bd 02 68 73 bd
       -0.09344909 -0.05942536

func_approx.network.6.weight f4 [30, 30]
000000 2c 6b e7 3d 0f 48 86 3e cb c8 a5 bc a5 87 3d be
       0.11299738 0.2622685 -0.020237347 -0.18508776
000010 a8 e0 06 3e fc d8 35 be 89 b4 29 bd 5b b8 03 3e
       0.13171637 -0.17758554 -0.041431937 0.12863295
000020 62 28 80 3e 7a ea ec 3d c6 ae 0d 3d 79 ec 7d bd
       0.2503081 0.1156816 0.034590505 -0.061993096
000030 9f 7c 8e 3e af 40 bd bd c6 61 f8 3c 60 80 50 3e
       0.27829453 -0.09240853 0.03032006 0.20361471
000040 2b 6e dc bd fc bb 0d 3e 96 b7 ff bd 27 a5 84 3d
       -0.107632 0.13841242 -0.12486188 0.06476813
000050 0c ff 47 3e 5a 31 15 bd fe a5 19 be 4b d6 9c 3d
       0.19530886 -0.03642402 -0.15004727 0.07658061
000060 a9 2c f8 3d c7 56 40 3e 50 10 73 3d db b3 8a bd
       0.12117893 0.18783103 0.05934173 -0.06772586
000070 e5 93 4f 3e 64 75 61 3e 8a 99 b9 3d 4e 95 36 bd
       0.20271261 0.22017437 0.090624884 -0.04457598
000080 40 44 6e be 49 66 0a be 3d 58 51 3d ab 18 0a 3e
       -0.23268223 -0.13515581 0.05110954 0.13485973
000090 4c f3 0b be 8a 60 56 3e 41 bb fc bc 30 f2 5b be
       -0.13667029 0.20935264 -0.030851008 -0.21479106
0000a0 27 78 f1 bd 60 1a c9 bd b4 27 25 be 2f 98 46 bc
       -0.11790495 -0.09819484 -0.16128427 -0.012121244
0000b0 7b 09 eb bd cf cb e5 bd 81 84 93 3c 49 6b 64 3e
       -0.11476418 -0.11220514 0.018007519 0.22306551
0000c0 24 b2 07 3e ab 72 39 be 1b 8f 19 3d 8a 26 6c bd
       0.13251549 -0.18110149 0.03748999 -0.05765394
0000d0 3e 1e 0a 3a 3e c0 46 be 99 cb 8a be c9 84 1d be
       0.00052687887 -0.19409272 -0.27108458 -0.15382685
0000e0 35 ca 1d be a1 d8 f4 ba 7a c0 bf bd c0 b5 43 be
       -0.15409167 -0.0018680283 -0.09362884 -0.19112301
0000f0 82 5a 53 3b b2 b7 64 be c6 a4 f2 bd 85 fc 95 3d
       0.0032249992 -0.22335699 -0.11847834 0.07323555
000100 c4 8b f4 3d e7 b6 1a 3e 78 1b 1f be 4f c4 44 3e
       0.11940721 0.15108834 -0.15537822 0.19215511
000110 1d 59 86 bd 34 1e 3e 3c 00 b6 21 be 1d 38 60 3e
       -0.06559966 0.011603881 -0.15792084 0.21896406
000120 b2 d5 49 be a1 0d f8 3d d8 0f 34 3d b2 3c 9e bd
       -0.19710425 0.121119745 0.043960422 -0.077264205
000130 01 a8 34 3e 04 48 43 3e a3 93 be bc 3c c8 48 3b
       0.17642213 0.1907044 -0.023263758 0.0030636927
000140 c7 f5 65 bc 27 bd 24 3d 9a ad fe bd 9f 7e 68 bd
       -0.014035649 0.040219452 -0.124354556 -0.05676138
000150 a8 4b 82 be d0 0e 2f 3d 58 8d 22 bd ee 32 92 3d
       -0.25448346 0.042738736 -0.039685577 0.0713862
000160 92 3d ac bd 0e 2f f6 bd c2 a4 cc bc 1e 4d 8a bd
       -0.08410181 -0.12020694 -0.024980906 -0.0675299
000170 5c 85 ab bd 3e 10 56 3d 86 63 6d 3e e9 2b 3d be
       -0.08375046 0.052261584 0.23182496 -0.18473782
000180 6d f6 44 bd 55 eb cb bc 86 31 2f bd 04 ea 05 3d
       -0.048086572 -0.024892488 -0.04277184 0.032693878
000190 b5 cf ed 3c 8b 14 bc bc f4 a1 11 bd 58 30 4d be
       0.029029706 -0.022959014 -0.03555484 -0.20037973
0001a0 35 26 63 3d e2 69 43 3e 3d 37 ed 3d 03 2c c0 3d
       0.05545636 0.1908336 0.115828015 0.093833946
0001b0 2f 98 8a ba 54 0f 48 3e 97 dd 2c bd fc e7 7a 3d
       -0.0010573919 0.19537097 -0.042203512 0.061256394
0001c0 6a 8b 81 bb ed 64 1b bd 9d 2b 1a 3d 9e 87 10 3e
       -0.003953387 -0.037938047 0.03763925 0.14114234
0001d0 be 78 d3 bd ed 68 35 be f0 32 81 3e 9f 53 df 3d
       -0.10325764 -0.17715807 0.25234175 0.10904621
0001e0 d6 f9 8d 3d aa 81 c4 3c 26 f4 5b 3e 57 6a b7 3d
       0.06932418 0.02398761 0.21479854 0.089558296
0001f0 f5 93 10 bd 57 4c 5c 3d 04 8e 24 3e 50 7e 34 be
       -0.035297353 0.05378374 0.160698 -0.1762631
000200 f7 a5 f0 3d 90 b0 6e bd 9c e4 39 3e ff 5f bd 3d
       0.11750405 -0.058273852 0.18153614 0.092468254
000210 55 8b 35 3e 96 c7 a7 bd 05 94 61 3e 50 50 aa 3c
       0.17728932 -0.08192365 0.22029121 0.02079025
000220 74 c6 89 3d b7 40 28 3d 02 d9 25 be 87 3b 8b bd
       0.06727305 0.041077342 -0.16196063 -0.06798463
000230 46 ad 4c 3c 3d 36 4f be 58 dc 9f bd 71 aa 4b 3e
       0.0124924835 -0.20235534 -0.07805699 0.19889237
000240 fb ee 90 3e 6e 10 da bb 68 ef b9 bd a3 e4 35 be
       0.28307328 -0.0066547906 -0.09078866 -0.17762999
000250 e7 e7 04 3e fc 7b 9a 3d 98 11 f3 3d 59 fd c6 bd
       0.12979089 0.075431794 0.1186859 -0.09716291
000260 be 5a 0a 3d 11 d3 08 be bd e4 83 3c fe c3 11 3e
       0.033777945 -0.13361765 0.016100282 0.14234921
000270 e3 f7 2b be bd e8 0a be d5 3d 52 3e 0f 04 4d be
       -0.1679378 -0.13565345 0.205314 -0.2002108
000280 9c 98 43 3e 9e 03 d3 bd 10 e6 5c bd e2 4c e8 bd
       0.19101185 -0.10303424 -0.053930342 -0.11342789
000290 50 41 81 bd d4 31 a7 3d 4a d0 82 3d 87 72 1d be
       -0.063112855 0.08163801 0.06387384 -0.1537572
0002a0 04 a0 18 be 62 61 e3 3d 49 5a 4a 3d 0a d5 92 3d
       -0.14904791 0.11102559 0.04940251 0.0716954
0002b0 57 ee da 3d 39 d3 61 bd 08 93 85 3e 73 00 55 3d
       0.10689991 -0.05513308 0.26088738 0.05200238
0002c0 35 f4 36 be 27 68 24 3e 6a 21 92 3e ae e9 39 3d
       -0.17866595 0.16055356 0.28541118 0.04538887
0002d0 03 74 3d 3e d7 ce 80 3e 60 be d2 3d 44 92 c3 bd
       0.18501286 0.25157806 0.102902174 -0.09549382
0002e0 b6 01 9d 3e 15 2d 1c 3e b9 3f 0d 3e e8 fb 10 be
       0.30665368 0.15251572 0.1379384 -0.14158595
0002f0 8f 1a 14 3e 88 bc 7e 3d a2 03 7f bd 3d 47 b4 3c
       0.14463256 0.062191516 -0.062259324 0.022006625
000300 75 7e 2b bc 07 24 49 be 44 8f 6b 3e a8 31 cd bd
       -0.010467161 -0.1964265 0.2300387 -0.10019237
000310 a4 6f 73 be ff 88 05 3e 5f 75 a1 3d 83 4e 00 3e
       -0.23773056 0.13040541 0.07883715 0.1252995
000320 50 3e 2b 3e 1a 35 79 bd 75 a6 c8 bd 71 ab f5 3c
       0.16722989 -0.060841657 -0.09797374 0.029988976
000330 90 09 83 3e 3c 11 26 be e0 7a 66 be 63 8d 8e bd
       0.25593233 -0.16217512 -0.2250781 -0.06960561
000340 ef d5 e2 3d 91 8f 42 3e 87 e0 fd bd ff 6c 39 be
       0.11075961 0.19000079 -0.12396341 -0.18107985
000350 dc c3 9a be 2f 2f d1 bc a3 67 83 bd b0 a9 0b be
       -0.30227554 -0.025535194 -0.064162515 -0.1363895
000360 c2 93 5e be 12 44 c3 3d 51 8e 82 bd f7 70 33 be
       -0.21736053 0.09534468 -0.06374801 -0.17523561
000370 2f d6 f4 3c 64 8f 46 bd d1 a7 9b 3d 08 e4 70 3d
       0.029887287 -0.04847659 0.07600368 0.058811218
000380 8a 47 4d 3d 79 88 17 3d 4a 90 d9 bd fb 6e f1 3d
       0.050117053 0.036995385 -0.10623224 0.11788746
000390 49 8b f8 3c 3b fd 62 bd b2 d3 88 bc 7a 19 78 3e
       0.030339854 -0.05541728 -0.016702507 0.24228469
0003a0 c6 a3 04 3e ec 8c b7 3d dc b5 c7 bc db 64 0d 3d
       0.129531 0.089624256 -0.02437871 0.03452001
0003b0 e0 0c f8 3c 05 d0 22 bb 11 12 c8 bc fa 3a 01 3e
       0.030279577 -0.0024843228 -0.024422677 0.12620154
0003c0 33 5f 09 be 07 e7 46 be a3 25 9a bd 8b ea 6f bd
       -0.13415222 -0.19424067 -0.0752671 -0.058573287
0003d0 9a 8b 63 be 47 73 f4 bd 06 56 ee 3d 45 cc 79 bd
       -0.22221223 -0.1193605 0.116375014 -0.060985822
0003e0 30 12 95 bd 83 78 cf 3d 3e 22 65 be 60 3f 9b 3c
       -0.072788596 0.10130408 -0.22376344 0.018951118
0003f0 4f a3 45 be b1 44 d4 bd 8e ec 23 bd b2 2c e1 ba
       -0.19300579 -0.10364664 -0.040020518 -0.0017179458

func_approx.network.6.bias f4 [30]
000000 47 ec c4 3d 7a 97 f7 bd 6b 4c e1 3d d1 d5 1c 3e
       0.09615379 -0.12089439 0.11000904 0.1531594
000010 ec e9 bf bd 0b 22 79 3d 41 04 11 be 62 f5 7d 3d
       -0.09370789 0.06082348 -0.14161779 0.062001593
000020 dd 02 9e bd 0b 82 e3 3c c7 31 30 bd 3f a6 28 3e
       -0.0771539 0.02777197 -0.04301622 0.16469668
000030 42 cf 42 3d 48 82 bd bd 51 f3 44 be 43 54 29 bd
       0.047560938 -0.09253365 -0.19233443 -0.041340124
000040 1c 75 1c bd d8 91 fa bd 7b 6a 81 bd f1 94 c5 bd
       -0.03819762 -0.12234849 -0.06319138 -0.09647549
000050 22 21 2b bd 5b 82 1d 3d 4f f2 4e bd 3c f5 a0 bb
       -0.041779645 0.038454395 -0.050524052 -0.0049120467
000060 9d fa 19 3c f3 da 23 3e c8 71 ab 3c 65 22 b7 bd
       0.00939813 0.16001491 0.020928279 -0.08942107
000070 57 2f 16 3e 1c 5a 96 3c
       0.14666496 0.018353514

func_approx.network.8.weight f4 [1, 30]
000000 2d 34 ff 3d 2f 27 1c be 13 a3 c8 bd e2 5b a2 3d
       0.124611236 -0.15249322 -0.09796729 0.079276815
000010 8a 19 0d 3e 1b 06 e3 3d 78 c5 f5 3d a4 94 07 bd
       0.13779274 0.11085149 0.12000555 -0.03310074
000020 ea e6 78 be 8c 3b b9 bd 74 fd 13 3e a0 85 43 3e
       -0.24306837 -0.09044561 0.14452153 0.19093943
000030 90 95 5f 3d 98 9a 7f 3e 67 4b 86 bd 4b 9d 0b 3d
       0.054585993 0.24961317 -0.065573506 0.034085553
000040 43 41 61 be 38 a4 18 be 12 a6 42 be 53 a4 b9 bd
       -0.21997552 -0.14906394 -0.19008663 -0.090645455
000050 39 a5 4e be c4 54 08 be 49 c1 52 3e 2e ce 8c 3c
       -0.20180215 -0.13313586 0.20581545 0.017188158
000060 0b 06 09 3e 9e d3 1e 3e 36 ba 30 3e db 99 38 be
       0.13381211 0.15510413 0.17258534 -0.18027441
000070 5e 80 2f 3e a1 61 66 be
       0.17138812 -0.2249818
