paper/Burgers/runs/shifted_results/shifted_grid_12model.pt (torch, 15689 bytes, 9 tensors)

func_approx.network.0.weight f4 [30, 2]
0	0xbd1147cd	-0.035468865
1	0xbf14c95e	-0.5811976
2	0xbf99bcde	-1.2010763
3	0x3ecea3b1	0.40359262
4	0x3f217996	0.6307615
5	0xbee1225a	-0.4397152
6	0xbeb413e4	-0.35171425
7	0x3e9006b0	0.28130102
8	0xbe13a2fd	-0.14417644
9	0x3f37d76e	0.71813095
10	0xbda01bd0	-0.07817805
11	0x3e393513	0.18086652
12	0xbf429bed	-0.76019174
13	0x3eac1d90	0.33616304
14	0xbd3ead7d	-0.04655217
15	0x3e816b6e	0.25277275
16	0x3e455e96	0.19274363
17	0x3f0f4a4e	0.55972755
18	0x3c2bf86d	0.010496241
19	0xbe1dfda2	-0.15428784
20	0xbf1531be	-0.58279026
21	0x3f44ffa4	0.76952577
22	0x3f4bec37	0.7965731
23	0x3e7e1b9b	0.24815218
24	0x3fd08aa0	1.6292305
25	0x3f82e6d8	1.0226698
26	0x3e95f56e	0.2928881
27	0x3f148d61	0.5802823
28	0x3efff4c0	0.49991417
29	0xbbac54b4	-0.005259121
30	0xbe509c56	-0.20372137
31	0x3f404ef0	0.7512045
32	0xbe58fa34	-0.21189195
33	0x3ea56f02	0.32311255
34	0xbec061a4	-0.37574494
35	0x3ebf9ca2	0.3742419
36	0x3f05750d	0.5213173
37	0x3f2b2b4e	0.6686295
38	0x3ef983ff	0.48733518
39	0x3f233107	0.63746685
40	0xbdfd962c	-0.12382159
41	0x3f56b395	0.8386777
42	0x3e9b274b	0.30303416
43	0x3f461ddf	0.7738933
44	0xbf847366	-1.0347717
45	0xbf116be8	-0.56805277
46	0xbf3d6ea2	-0.7399694
47	0x3e856151	0.2605081
48	0x3f140dd4	0.578336
49	0xbf2761f7	-0.6538386
50	0x3e8d271b	0.27568898
51	0x3d4df5ff	0.05028343
52	0xbfd81da1	-1.6884042
53	0xbcf2c2c7	-0.029633893
54	0xbd69ca1f	-0.057077523
55	0xbef8417a	-0.48487455
56	0xbef031fd	-0.46913138
57	0x3f0a8285	0.54105407
58	0xbdbc6b46	-0.09200148
59	0xbe666dd6	-0.22502837

func_approx.network.0.bias f4 [30]
0	0xbe300671	-0.17189957
1	0xbe2198b5	-0.1578091
2	0xbe09a585	-0.13442047
3	0xbeb7e98d	-0.35920373
4	0x3e6cd458	0.23127878
5	0xbcf2405f	-0.02957171
6	0xbf0bb25e	-0.5456904
7	0xbea0afbb	-0.31384072
8	0xbe7805e1	-0.24220993
9	0xbe868f38	-0.26281142
10	0x3df27bf5	0.11840049
11	0x3f103bf8	0.56341505
12	0x3c63cd5b	0.013903941
13	0xbc20af6b	-0.009807448
14	0x3f2323db	0.63726586
15	0xbed8966b	-0.4230226
16	0xbf080dab	-0.53145856
17	0x3dbccd45	0.092188396
18	0x3e050783	0.12991147
19	0x3d66ba68	0.056330115
20	0x3ee9bcf3	0.4565197
21	0xbf22856a	-0.63484824
22	0xbe897ea3	-0.2685443
23	0x3ed4ff25	0.4160091
24	0xbede5e67	-0.43431398
25	0xbdc81e62	-0.0977142
26	0x3db5fe9b	0.08886453
27	0xbebb3685	-0.36565033
28	0xbf033e42	-0.5126687
29	0xbed06ec1	-0.407095

func_approx.network.2.weight f4 [30, 30]
0	0xbe5d6822	-0.21621755
1	0xbdb4f6a7	-0.08836108
2	0xbe1c4e3d	-0.1526422
3	0xbe176373	-0.1478403
4	0xbd7a23f3	-0.06106944
5	0x3d7388bc	0.059456572
6	0x3e454801	0.19265749
7	0x3e5df103	0.2167397
8	0x3e9cacd6	0.30600613
9	0xbb2717a6	-0.0025496273
10	0x3e40e955	0.18839009
11	0xbd57d472	-0.052692838
12	0x3e0f7887	0.14010821
13	0x3e3dbe42	0.18529609
14	0x3d85efc2	0.06539871
15	0x3e5c7da9	0.2153231
16	0x3def8dbc	0.116969556
17	0x3e28300d	0.1642458
18	0x3e67ff20	0.22655916
19	0x3e5cb152	0.21552017
20	0xbdbffdac	-0.09374556
21	0x3e8259f4	0.25459254
22	0x3d0e3e37	0.0347273
23	0x3db518d5	0.08842627
24	0xbd308f05	-0.043105144
25	0x3e28f8dd	0.16501184
26	0x3b75e78b	0.0037522044
27	0x3ce1ec1d	0.027578408
28	0x3e563327	0.2091795
29	0xbc0ee6f5	-0.008722057
30	0x3dab84b0	0.083749175
31	0x3dad9095	0.084748425
32	0xbe96591c	-0.2936486
33	0x3d733d51	0.059384648
34	0x3dd2b521	0.10288454
35	0xbd921067	-0.07132035
36	0x3e6c3b13	0.2306941
37	0xbd0e67c7	-0.03476694
38	0x3e571b46	0.21006498
39	0xbdbc1000	-0.09182739
40	0x3e88f1d4	0.26747
41	0xbdf2f150	-0.11862433
42	0xbcaa7ac2	-0.020810489
43	0x3dbb1d84	0.09136489
44	0x3dc9723e	0.09836243
45	0x3e3b729b	0.18305437
46	0x3e091abc	0.13389105
47	0x3e0d9e2d	0.1382987
48	0x3da99d55	0.08281962
49	0x3c53837e	0.012909768
50	0xbd266a79	-0.040628884
51	0x3e54f822	0.2079778
52	0xbd4dfd2a	-0.050290264
53	0x3d697ac8	0.05700186
54	0xbe3edb99	-0.18638457
55	0xbd99cadb	-0.07509395
56	0x3f1295f1	0.5726004
57	0x3e08e49f	0.13368462
58	0x3e8885f0	0.26664686
59	0xbe004273	-0.12525348
60	0x3e838274	0.25685465
61	0x3e255d87	0.16148959
62	0xbd412d4e	-0.047162347
63	0xbdae41b0	-0.08508623
64	0xbdd28baa	-0.10280545
65	0x3e027a54	0.12741977
66	0x3c97f84d	0.018551016
67	0xbd9bc5e2	-0.076061025
68	0xbea25d25	-0.3171169
69	0x3e2bdabe	0.16782662
70	0x3e3439dc	0.17600197
71	0xbccd7c02	-0.025083546
72	0xbed44e52	-0.41466004
73	0xbd94490b	-0.07240494
74	0xbe05069f	-0.12990807
75	0xbda3d9ee	-0.08000551
76	0x3e1b1ec7	0.1514846
77	0x3dfe4539	0.12415547
78	0xbeb727ff	-0.35772702
79	0xbead3175	-0.33826795
80	0x3dccbe91	0.09997285
81	0xbc54db0d	-0.012991679
82	0x3e63025e	0.22168872
83	0x3e08dd0f	0.13365577
84	0xbe340384	-0.17579466
85	0xbf3308d3	-0.6993534
86	0x3f8caba3	1.0989879
87	0x3c2f713b	0.010708149
88	0x3e1e7591	0.15474536
89	0xbd7536de	-0.05986678
90	0xbd33e339	-0.04391787
91	0xbcd2333f	-0.025659202
92	0x3d962f61	0.073332556
93	0xbdb1c5e2	-0.08680321
94	0x3d4dab2e	0.050212078
95	0x3d351092	0.044205256
96	0xbe8357a2	-0.25652796
97	0xbd126bde	-0.0357474
98	0xbcbb3780	-0.022853613
99	0x3dfa7a7c	0.12230393
100	0xbeab18a0	-0.33417225
101	0x3e3cd58e	0.1844084
102	0xbde7a9e8	-0.11311704
103	0xbe45cbeb	-0.1931607
104	0xbcda785f	-0.026668726
105	0xbe4b368a	-0.19845024
106	0xbd8125c2	-0.0630603
107	0xbdcb1ffc	-0.0991821
108	0xbd8e916d	-0.069613315
109	0xbe0817a0	-0.13290262
110	0xbdf2f184	-0.11862472
111	0xbe07402a	-0.1320807
112	0x3dcd916a	0.10037501
113	0xbe0e3fc0	-0.13891506
114	0x3ea0a0cd	0.3137268
115	0x3ed293ec	0.4112848
116	0xbeb2ca30	-0.34919882
117	0x3d987035	0.07443277
118	0x3dfde42c	0.12397036
119	0xbe2ac924	-0.16678292
120	0xbe5494e5	-0.20759924
121	0x3ec842fa	0.391136
122	0xbe2f2561	-0.17104103
123	0x3e8c0a6c	0.273517
124	0x3e16eea1	0.14739467
125	0x3e45498b	0.19266336
126	0x3e67d2e5	0.22639044
127	0x3e8e5b18	0.27803874
128	0x3e5f4d3b	0.21806805
129	0xbe2c4ec6	-0.16826925
130	0x3e5d1671	0.21590592
131	0xbe2308e7	-0.15921365
132	0x3e1ffbb4	0.15623361
133	0x3e3a3fea	0.18188444
134	0xbdf298c4	-0.11845544
135	0x3eb7395f	0.35785958
136	0x3e9af54c	0.30265272
137	0x3e812ea6	0.25230902
138	0xbd643444	-0.055713907
139	0x3db1c75b	0.08680602
140	0x3e34ccd0	0.17656255
141	0x3e2728fc	0.16324228
142	0x3e19f09f	0.15033196
143	0x3e096f92	0.13421467
144	0xbe453c1e	-0.19261214
145	0x3d937660	0.072003126
146	0x3e837b6a	0.25680095
147	0x3d720128	0.059083134
148	0x3db558d5	0.08854834
149	0xbe1fceca	-0.15606228
150	0x3e0ff05c	0.14056534
151	0x3d114690	0.035467684
152	0x3e223d4f	0.158437
153	0xbe14639f	-0.14491127
154	0xbd1a91df	-0.03773677
155	0xbbed8fc8	-0.007249806
156	0xbdb8a119	-0.09015102
157	0x3de3d034	0.11123696
158	0x3dde892c	0.10866007
159	0x3e33f6ee	0.17574665
160	0x3d902f6c	0.07040295
161	0xbe33ebb8	-0.17570388
162	0xbe1ad4e0	-0.15120268
163	0x3c81edab	0.0158604
164	0xbd577879	-0.052605126
165	0x3b7aa4c0	0.0038245171
166	0xbd4e8c3c	-0.050426707
167	0x3d8842ed	0.0665339
168	0x3e0ea666	0.13930663
169	0x3e0b2b60	0.13590765
170	0x3e121117	0.14264332
171	0xbe3ea48e	-0.1861746
172	0xbcdaad68	-0.026694015
173	0xbe0ca941	-0.1373644
174	0x3d4612fd	0.048357952
175	0x3ccb096e	0.02478477
176	0x3d4c2d17	0.04984769
177	0x3d89bfe6	0.06726055
178	0xbdb1e0e5	-0.08685473
179	0x3d2b17d7	0.041770782
180	0xbe843e88	-0.25828958
181	0xbc86866a	-0.016421515
182	0xbe39bed6	-0.18139204
183	0xbc751727	-0.014959133
184	0x3eaf6541	0.34256938
185	0x3d697206	0.056993507
186	0xbe1b47a6	-0.1516405
187	0x3e2b2ec3	0.16717057
188	0x3d8a0f6b	0.06741222
189	0x3d88f5bb	0.06687494
190	0x3dd4b700	0.10386467
191	0x3e8432e4	0.25820076
192	0x3e3e3625	0.18575342
193	0x3e4e230d	0.20130558
194	0x3e2b64ac	0.16737622
195	0x3e4f2a8c	0.20231074
196	0xbe1cf00a	-0.15325943
197	0x3e0e7d7e	0.13915059
198	0x3ec81b51	0.3908334
199	0x3e80cc59	0.25155905
200	0x3eb6609d	0.35620585
201	0x3e15404e	0.14575312
202	0xbec238ea	-0.37934047
203	0x3e1b767d	0.15181918
204	0xbea631b0	-0.32459784
205	0x3ecdd58c	0.40201986
206	0xbf96824c	-1.1758513
207	0xbe8d503e	-0.27600282
208	0x3d15e416	0.036594473
209	0xbe869b3a	-0.26290303
210	0x3ddf9849	0.10917718
211	0xbde2cdcf	-0.11074411
212	0x3e0c81be	0.13721368
213	0xbc9a856f	-0.018862454
214	0xbe8084f5	-0.25101438
215	0xbd86fb23	-0.06590869
216	0x3c9c204a	0.019058365
217	0x3da37dc0	0.07982969
218	0xbe8058d6	-0.25067776
219	0xbd9858e7	-0.07438832
220	0xbc8b281a	-0.016986895
221	0xbdf89798	-0.12138289
222	0xbeaf04e3	-0.34183416
223	0xbea05fb7	-0.31323025
224	0xbd487433	-0.04893894
225	0xbe8b7550	-0.2723794
226	0x3c800dec	0.015631638
227	0xbc98e12a	-0.018662054
228	0xbd45f867	-0.048332598
229	0xbe9dcd4e	-0.30820698
230	0x3e0e3075	0.13885672
231	0xbe8d15d9	-0.2755573
232	0xbc659269	-0.014011958
233	0x3d0f6f1f	0.035018083
234	0x3e1fcede	0.15606257
235	0x3c058947	0.008150405
236	0xbda78cae	-0.081811294
237	0xbdacb63f	-0.08433198
238	0xbe668b6c	-0.22514123
239	0x3d49c659	0.049261425
240	0xbe009230	-0.12555766
241	0xbeb7f1bc	-0.35926616
242	0x3eb4a4ba	0.35281926
243	0xbe3f0432	-0.18653944
244	0xbc8e17b9	-0.017345296
245	0xbea1e9df	-0.31623742
246	0xbe158d2b	-0.14604633
247	0x3cbc3d0d	0.02297833
248	0xbd5f2662	-0.054479964
249	0xbd958cd8	-0.073022544
250	0xbe9162bd	-0.28395644
251	0x3c9f60ec	0.019455396
252	0x3e228185	0.1586972
253	0xbe2e8517	-0.17042957
254	0x3e0383d5	0.12843259
255	0xbea3cff2	-0.31994587

func_approx.network.2.bias f4 [30]
0	0x3e187e85	0.14892013
1	0xbe1b3767	-0.15157853
2	0xbdeb4601	-0.114879616
3	0x3e1e064e	0.15432093
4	0xbdebe4ec	-0.11518273
5	0xbae25357	-0.0017267269
6	0xbda52cdf	-0.08065199
7	0xba95b8ae	-0.0011422837
8	0x3d23b6b0	0.039969146
9	0xbda4d06c	-0.08047566
10	0x3d66c5cb	0.056340974
11	0x3d526618	0.051366895
12	0xbdd465bb	-0.10370966
13	0x3df1a74d	0.11799488
14	0x3e1b8263	0.15186457
15	0xbe12be92	-0.1433051
16	0x3da897b6	0.082320616
17	0xbe2b527f	-0.16730689
18	0x3d5f4a84	0.054514423
19	0x3cbd0636	0.02307425
20	0xbd90da72	-0.07072915
21	0x3ca82860	0.020527065
22	0x3e0aaebc	0.13543218
23	0xbc912c13	-0.017721212
24	0xbc6db05b	-0.014507378
25	0xbdc09e62	-0.09405209
26	0x3e3b2f01	0.1827965
27	0x3e84bc51	0.25924924
28	0xbd9f4c17	-0.07778185
29	0xbe18e1e0	-0.14929914

func_approx.network.4.weight f4 [30, 30]
0	0xbdb86ea2	-0.090054765
1	0xbdafffeb	-0.08593734
2	0xbeb55771	-0.35418275
3	0xbe05b301	-0.13056566
4	0xbdb2162b	-0.086956345
5	0xbd1aed76	-0.037824117
6	0x3ec208bc	0.3789729
7	0x3dcd98fb	0.10038944
8	0xbaa1b1ad	-0.0012336277
9	0xbf2f90ed	-0.68580514
10	0xbe9a089d	-0.30084696
11	0xbedd6a0f	-0.4324498
12	0x3b90c83b	0.0044184006
13	0xbe970688	-0.2949717
14	0xbebfa366	-0.3742935
15	0x3d4efae6	0.050532244
16	0xbe0e6db6	-0.13909039
17	0xbf0ea80e	-0.5572518
18	0x3e5577d0	0.20846486
19	0xbc38cc99	-0.011279249
20	0xbe277c38	-0.1635598
21	0x3e576e90	0.2103827
22	0xbe266a60	-0.16251516
23	0xbe78b3df	-0.24287365
24	0x3c717406	0.014737135
25	0x3daf0593	0.08545985
26	0xbe7b042f	-0.24513315
27	0x3df02f73	0.117278
28	0xbe45a85b	-0.19302504
29	0x3e883fc1	0.2661114
30	0xbd770ff5	-0.060317952
31	0x3d167174	0.03672929
32	0x3d75ae5e	0.059980743
33	0xbdaa5c15	-0.083183445
34	0x3d80cd81	0.06289197
35	0x3e32dee0	0.17467833
36	0xbca444da	-0.020052362
37	0x3d5998bd	0.05312418
38	0x3e54d217	0.20783268
39	0xbe196532	-0.14980009
40	0xbe9eff0f	-0.3105397
41	0x3b4aeeef	0.003096517
42	0x3cc4ede8	0.024039224
43	0x3cddb795	0.027065078
44	0x3df3e70c	0.11909303
45	0xbd0839a3	-0.03325809
46	0x3e43dace	0.19126436
47	0xbe64bb5c	-0.22337097
48	0xbda5952a	-0.080850914
49	0x3d5aceae	0.05341976
50	0x3e5573f7	0.20845018
51	0xbe2a07a3	-0.16604476
52	0xbd0867be	-0.03330206
53	0xbb556b57	-0.00325652
54	0xbdf0b193	-0.117526196
55	0xbe29d6e9	-0.16585888
56	0x3e507878	0.20358455
57	0x3e8050da	0.25061685
58	0xbb8bd6fe	-0.0042675724
59	0x3e49829b	0.19678728
60	0x3e436e90	0.19085145
61	0xbe1b1570	-0.15144897
62	0xbe321d0d	-0.17393894
63	0x3d609349	0.054827962
64	0x3c351550	0.011052445
65	0xbd99fcde	-0.07518934
66	0xbdf38e35	-0.11892358
67	0xbe7caf01	-0.24676134
68	0x3e795c4d	0.24351616
69	0xbe2069cc	-0.15665358
70	0x3d9574e1	0.072976835
71	0x3e1f3282	0.15546611
72	0xbe10bd6a	-0.14134756
73	0xbe286f1c	-0.16448635
74	0x3d09936a	0.03358785
75	0xbc810709	-0.015750425
76	0xbe0a2350	-0.13490033
77	0xbe5eb494	-0.21748573
78	0x3cbab7c9	0.022792714
79	0x3c956cc7	0.018240346
80	0xbe03209c	-0.12805408
81	0x3e182c5e	0.14860675
82	0xbdd10d37	-0.10207599
83	0xbe2cb86c	-0.16867226
84	0x3c859813	0.016307866
85	0xbd98c166	-0.07458763
86	0x3e2b89af	0.16751741
87	0xbd85ae14	-0.065273434
88	0xbdd07c11	-0.10179914
89	0xbe7267c3	-0.23672394
90	0x3b5d814e	0.0033798995
91	0x3d05838e	0.032596163
92	0xbe484ba7	-0.19560109
93	0x3ca5582d	0.020183647
94	0xbdbdbda7	-0.09264689
95	0xbdc8ccec	-0.09804711
96	0xbda9ffb0	-0.08300722
97	0x3dab9973	0.083788775
98	0x3b94b609	0.004538302
99	0xbc4c1ead	-0.012458486
100	0x3e3b7579	0.18306531
101	0x3c9c3d79	0.019072281
102	0xbd915aee	-0.070974216
103	0x3d862c84	0.065514594
104	0xbe2da202	-0.16956332
105	0xbe0acdc9	-0.13555063
106	0x3c878a9d	0.016545588
107	0xbf741a50	-0.9535265
108	0xbdc50045	-0.09619192
109	0x3d7d75e3	0.061880004
110	0xbe1fa9f0	-0.1559217
111	0x3e2b1d54	0.16710407
112	0xbeaf00ea	-0.34180385
113	0xbec358a6	-0.3815357
114	0x3dae970f	0.08524906
115	0x3d2d57b3	0.042319965
116	0x3dd4a5ce	0.10383187
117	0xbd686a94	-0.056742266
118	0x3e73fc42	0.23826697
119	0x3deed919	0.11662502
120	0xbcdbec65	-0.02684612
121	0xbe3c6f55	-0.18401845
122	0x3e37ff55	0.17968495
123	0x3ce2f460	0.027704418
124	0xbe87509b	-0.26428685
125	0x3e170c94	0.14750892
126	0xbde238cf	-0.11045992
127	0x3ec70c07	0.38876364
128	0x3ec7d3ff	0.39028928
129	0xbead6b16	-0.33870763
130	0x3e00eb4c	0.12589759
131	0x3c8f0714	0.01745943
132	0xbded2392	-0.1157905
133	0x3d8ad680	0.06779194
134	0x3e2eefb5	0.17083628
135	0xbe605f79	-0.2191142
136	0x3e11d1fc	0.14240259
137	0x3da5f459	0.08103246
138	0xbe252623	-0.16127829
139	0x3e70a95b	0.23502104
140	0x3d433aec	0.047663614
141	0x3dca6572	0.098826304
142	0xbbc98d92	-0.0061509097
143	0xbd2f137a	-0.042743184
144	0x3d4ca52a	0.0499622
145	0x3da5c330	0.0809387
146	0x3e47f9a9	0.19528832
147	0x3e892adc	0.26790512
148	0x3db3b6aa	0.08775075
149	0x3cac3410	0.02102092
150	0x3d82381f	0.063583605
151	0x3c46b953	0.012129146
152	0xbd9811cc	-0.074252695
153	0x3d0c3ea7	0.034239437
154	0xbd0b53f0	-0.034015596
155	0xbc1a53b7	-0.009419373
156	0x3d545b73	0.051845025
157	0x3d3d2eeb	0.046187323
158	0xbe80ae3d	-0.25132933
159	0x3d2b28a5	0.04178681
160	0xbe50bd3c	-0.20384687
161	0xbe710a23	-0.23539023
162	0x3dd9e4a6	0.10639314
163	0xbd4ed31e	-0.050494306
164	0x3e4c395d	0.19943757
165	0x3e0a02ad	0.13477583
166	0x3c4b520b	0.012409697
167	0x3eb610ca	0.35559684
168	0x3e095e42	0.13414863
169	0x3cf8ad47	0.030356063
170	0x3bd67f51	0.006545939
171	0xbe18a9e7	-0.14908563
172	0x3e51b01f	0.20477341
173	0x3d9da79a	0.07697983
174	0xbdcfd274	-0.101475626
175	0x3dad9962	0.08476521
176	0xbdd4da30	-0.103931785
177	0xbd5f3fb0	-0.054504097
178	0x3e25d11f	0.16193055
179	0x3e1715e7	0.14754449
180	0xbcea8f64	-0.028632827
181	0xbc82090f	-0.01587346
182	0xbd0cfbef	-0.03441995
183	0x3e445dcd	0.19176407
184	0xbe45f6b7	-0.19332395
185	0x3e6ae0f9	0.22937383
186	0x3da843e3	0.08216073
187	0xbd04aafc	-0.032389626
188	0xbd6b2b67	-0.05741444
189	0x3da9df59	0.08294553
190	0x3dcb8fab	0.09939512
191	0x3e08b07a	0.1334857
192	0xbe568094	-0.20947486
193	0x3c839661	0.016062917
194	0x3ddc6192	0.107607976
195	0x3d8e968c	0.06962308
196	0xbc702783	-0.014657858
197	0xbe65c2a2	-0.22437528
198	0x3e17b451	0.14814879
199	0x3e23c697	0.15993725
200	0x3d465a48	0.048425943
201	0x3dfa8193	0.122317456
202	0x3cb3f982	0.02196956
203	0xbddcb96a	-0.107775524
204	0x3dff00ac	0.124513
205	0x3d824f09	0.06362731
206	0x3e6485f0	0.22316718
207	0xbddea404	-0.10871127
208	0x3e7492e8	0.23884165
209	0xbdbef38e	-0.09323798
210	0x3e723bac	0.23655576
211	0xbda7a231	-0.081852324
212	0x3c3c5933	0.011495876
213	0xbe0fc2e1	-0.14039184
214	0xbdb6a457	-0.08918064
215	0xbe2145a3	-0.1574922
216	0x3e73e291	0.23816897
217	0x3c7925e8	0.015206791
218	0xbd9d2313	-0.076727055
219	0xbe8f056a	-0.27933818
220	0xbdea847d	-0.114510514
221	0x3a2e71d2	0.0006654534
222	0xbd93c629	-0.072155304
223	0xbe847529	-0.25870636
224	0xbe848830	-0.25885153
225	0xbd0bf231	-0.03416652
226	0xbd5d0168	-0.05395642
227	0x3dadeba9	0.08492214
228	0x3d01b391	0.03166539
229	0x3e048584	0.12941557
230	0xbe0acdf2	-0.13555124
231	0xbdcc5b62	-0.099783674
232	0x3e45a7e3	0.19302325
233	0x3d9b3d76	0.07580082
234	0xbdb9afd6	-0.09066741
235	0x3dd1a665	0.10236815
236	0xbe74d662	-0.23909906
237	0xbe6cc53e	-0.23122117
238	0xbd150cca	-0.03638915
239	0x3da83946	0.08214049
240	0xbd85662d	-0.06513629
241	0xbcb96b86	-0.022634279
242	0x3e387cb9	0.18016328
243	0x3e184654	0.14870578
244	0xbc8ae0ab	-0.016952833
245	0xbd6b56a0	-0.05745566
246	0xbeaebd40	-0.3412876
247	0x3c432183	0.011909845
248	0x3df04ee7	0.117337994
249	0xbddb1ab8	-0.106984556
250	0x3e63332f	0.22187494
251	0x3e84f6d3	0.25969562
252	0x3ba86020	0.005138412
253	0x3d2988b5	0.04139014
254	0xbe21fc81	-0.15818979
255	0x3c156026	0.009117162

func_approx.network.4.bias f4 [30]
0	0x3e005d22	0.12535527
1	0xbd6b5dfa	-0.05746267
2	0x3e0a9d72	0.13536623
3	0xbde439d3	-0.111438416
4	0xbd9199e1	-0.07109428
5	0x3da692d4	0.08133474
6	0x3c7485c3	0.014924469
7	0xbe0b1ef1	-0.13586022
8	0x3e0be6a0	0.13662195
9	0xbccb172b	-0.02479132
10	0xbb718afa	-0.0036856518
11	0xbd5edcbb	-0.054409724
12	0x3e1273db	0.14302008
13	0x3cba5ea6	0.02275021
14	0x3c0a9bf8	0.008460037
15	0xbcc6193a	-0.02418195
16	0x3e251059	0.16119517
17	0x3da73c7b	0.081658326
18	0xbd609467	-0.054829028
19	0xbd50c830	-0.050972164
20	0xbe4353db	-0.19074957
21	0x3d50e943	0.051003706
22	0xbe33204f	-0.17492794
23	0xbe217295	-0.15766366
24	0x3c728635	0.014802505
25	0xbc8a4f80	-0.016883612
26	0xbdf7fc91	-0.1210872
27	0x3e32a081	0.1744404
28	0x3bd6d64b	0.0065563074
29	0xbc6961d4	-0.014244515

func_approx.network.6.weight f4 [30, 30]
0	0x3e18f931	0.14938809
1	0x3cb2ecd7	0.02184145
2	0xbdab463f	-0.08363008
3	0xbbeb0de6	-0.0071732877
4	0xbd0fbc43	-0.03509165
5	0xbd9940a4	-0.07483032
6	0x3d13ec43	0.03611399
7	0x3dda8ce2	0.106714025
8	0xbdb9f5c4	-0.09080079
9	0xbd927e7f	-0.071530335
10	0xbe433336	-0.19062504
11	0xbe0cec56	-0.1376203
12	0xbcc401b5	-0.023926595
13	0xbdce26f5	-0.10066024
14	0x3da8812c	0.082277626
15	0x3e2f36ca	0.17110744
16	0x3e37e4ef	0.17958425
17	0xbcef39cc	-0.029202364
18	0xbe10cabf	-0.14139841
19	0x3d25812c	0.04040639
20	0xbd914849	-0.070938654
21	0xbd5159e5	-0.05111112
22	0x3e538ec5	0.20659931
23	0x3c45f802	0.012083055
24	0x3ce58283	0.028016334
25	0x3e949c1f	0.2902536
26	0x3dff1c28	0.12456542
27	0x3e141e4a	0.1446468
28	0x3de7c9e1	0.11317802
29	0x3e0e56f3	0.13900356
30	0xbdcc0bc2	-0.0996318
31	0xbce9f992	-0.028561387
32	0x3e23427f	0.15943335
33	0x3c7d980f	0.015478148
34	0x3e9581e6	0.29200667
35	0xbdb865f0	-0.09003818
36	0x3d02118e	0.031755023
37	0x3e79fb5d	0.24412294
38	0xbe1432e2	-0.14472535
39	0xbdd8182e	-0.10551487
40	0x3dc32137	0.095278196
41	0xbcdc0334	-0.026856996
42	0x3e1d9616	0.15389284
43	0xbe02581d	-0.12728925
44	0x3dce5328	0.100744545
45	0xbd8564dc	-0.06513378
46	0xbda7e25b	-0.08197471
47	0xbd32b173	-0.04362626
48	0xbe180d2a	-0.14848772
49	0x3db9cb5b	0.0907199
50	0x3d4ad2b4	0.04951735
51	0x3e0e9c6a	0.13926855
52	0x3d45aa44	0.04825808
53	0x3d2f8f36	0.042861186
54	0x3cfb6b6e	0.030690875
55	0x3ea2a608	0.31767297
56	0x3c43b047	0.011943883
57	0x3e62f683	0.2216435
58	0xbe41ad96	-0.18913874
59	0xbe0d50ee	-0.13800403
60	0x3e42a304	0.19007498
61	0x3d36c18a	0.044618167
62	0xbc9c437f	-0.019075153
63	0x3dd99302	0.10623743
64	0x3e23a68c	0.15981501
65	0xbda09ad8	-0.07842034
66	0x3dc9a8a1	0.098466165
67	0x3e74ea0c	0.23917407
68	0xbdaaba20	-0.08336282
69	0x3e0817bc	0.13290304
70	0xbdb0a311	-0.086248524
71	0xbea0fbca	-0.314421
72	0xbe03e8bb	-0.12881748
73	0xbe11363f	-0.1418085
74	0x3e2f45d0	0.17116475
75	0x3e207f5a	0.15673581
76	0x3e394f07	0.18096553
77	0x3c7ebf3e	0.015548525
78	0x3d003f4e	0.031310372
79	0xbd092b71	-0.033488695
80	0xbcf6f638	-0.030146703
81	0xbdc76424	-0.09735897
82	0x3c85e4c6	0.01634444
83	0x3e0ee25c	0.13953537
84	0xbd65d728	-0.056113392
85	0x3ddac307	0.1068173
86	0x3d06cdce	0.032911114
87	0x3e7137b2	0.23556402
88	0xbd99c450	-0.07508147
89	0x3ddae5d8	0.106883705
90	0xbe0ad082	-0.13556102
91	0xbdda534f	-0.10660421
92	0xbdb61021	-0.08889795
93	0x3dc5745a	0.09641333
94	0x3da14b2f	0.07875668
95	0x3d32eb5b	0.043681484
96	0x3e27420c	0.16333789
97	0xbe273b2d	-0.16331168
98	0x3d5b1b02	0.053492554
99	0x3e12dd4f	0.14342235
100	0xbd1bb6a1	-0.038015965
101	0x3e8341ae	0.25636047
102	0xbe25138a	-0.16120735
103	0x3e183ba8	0.14866507
104	0x3d8c9c2b	0.06865724
105	0xbbb63909	-0.0055609983
106	0xbc06b24a	-0.008221218
107	0x3da4d65c	0.08048698
108	0xbe092b81	-0.13395502
109	0x3e04845b	0.12941115
110	0xbe133b7d	-0.14378162
111	0xbcd8ce47	-0.026465548
112	0xbd457144	-0.04820372
113	0x3daf7e62	0.085690275
114	0xbe03a5f0	-0.12856269
115	0xbe5726d0	-0.210109
116	0xbcfdd7fb	-0.030986777
117	0x3d02cad4	0.031931713
118	0x3d7b20cf	0.061310586
119	0xbd6eb89e	-0.058281533
120	0x3d25fb8d	0.0405231
121	0xbda8bc38	-0.08239025
122	0x3e7058e6	0.23471412
123	0xbdffd649	-0.124920435
124	0x3e826bf6	0.25472993
125	0x3caa774a	0.020808835
126	0x3deac0bf	0.11462545
127	0x3e18dc23	0.14927725
128	0xbe0db154	-0.13837177
129	0x3e0e1893	0.13876562
130	0xbdfc0388	-0.12305361
131	0xbe810e51	-0.25206235
132	0x3dd3691c	0.103227824
133	0xbcdeea8d	-0.027211452
134	0xbda92954	-0.08259836
135	0x3d9fb9d6	0.07799117
136	0x3e257c81	0.16160776
137	0xbe7e0aae	-0.24808761
138	0x3da4a5a8	0.08039409
139	0x3d9026c7	0.07038646
140	0xbccc09cb	-0.024907013
141	0x3d375690	0.044760287
142	0xbdaa1ef6	-0.083066866
143	0xbb57a9da	-0.0032907636
144	0xbc4bc712	-0.012437599
145	0x3e52fa0f	0.20603202
146	0xbd4b6c6a	-0.04966394
147	0xbddc8bea	-0.10768874
148	0xbd8344d7	-0.064096145
149	0x3e022b42	0.12711814
150	0xbdfadfb5	-0.122497
151	0x3e6d07d0	0.23147511
152	0x3cc6aaf8	0.024251446
153	0xbd78905b	-0.060684543
154	0xbe2add63	-0.16686015
155	0x3e147c7c	0.14500612
156	0xbca44b7b	-0.020055523
157	0xbb7300e5	-0.003707939
158	0xbc526b4e	-0.012842966
159	0x3ca3e3ea	0.020006139
160	0xbde4410d	-0.1114522
161	0xbd12f34a	-0.03587655
162	0x3e344a78	0.17606533
163	0x3e628a33	0.22123031
164	0x3d56c32f	0.052432235
165	0x3e0411b9	0.12897386
166	0xbdd8b799	-0.105818935
167	0x3dae60f8	0.08514589
168	0xbdb11b6c	-0.086478084
169	0x3cdb5595	0.026774207
170	0x3d09b393	0.03361852
171	0x3df22667	0.11823731
172	0xbe28bb53	-0.16477709
173	0x3e098f9a	0.13433686
174	0x3e030020	0.12793016
175	0xbda86926	-0.082231805
176	0xbde3c700	-0.111219406
177	0xbe212ace	-0.15738985
178	0xbcc08b61	-0.023503961
179	0xbe3ee930	-0.18643641
180	0xbe1ce7ef	-0.1532285
181	0x3e9dcd52	0.3082071
182	0x3e01abd2	0.126632
183	0x3e44f4a1	0.19233944
184	0xbc11245f	-0.008858769
185	0xbdc9a59b	-0.0984604
186	0x3e79ce23	0.24395041
187	0xbe92f7ff	-0.2870483
188	0x3e4dfe7d	0.20116611
189	0xbe180a8f	-0.14847778
190	0x3e47ff6f	0.19531034
191	0x3ea6c38d	0.32571068
192	0x3dacefa3	0.084441446
193	0x3d17876a	0.036994375
194	0xbd7c634c	-0.061618134
195	0xbe3f46d9	-0.1867937
196	0xbd74be06	-0.059751533
197	0x3ee92ab3	0.4554039
198	0xbcf52361	-0.029924097
199	0x3bf95017	0.0076084244
200	0xbe97618f	-0.2956662
201	0x3df2f48d	0.118630506
202	0xbe633b9c	-0.22190708
203	0xbe178abc	-0.14799017
204	0xbe3863c3	-0.18006806
205	0xbe1d434c	-0.15357703
206	0x3e4bd2a1	0.19904567
207	0xbd6e88d0	-0.058235943
208	0x3e3c63cf	0.18397449
209	0xbdeb7de7	-0.11498623
210	0x3dc8506d	0.09780965
211	0x3e6906c2	0.22756484
212	0xbe5fdaff	-0.21860884
213	0x3e3dd416	0.18537936
214	0xbcd902ad	-0.026490534
215	0x3cc56a8f	0.024098663
216	0x3da4f04d	0.08053646
217	0x3d20bc39	0.039242003
218	0x3ccf80a1	0.02532989
219	0xbd380ba9	-0.044932995
220	0xbc2f5d3c	-0.010703381
221	0xb9b84a1a	-0.00035150425
222	0xbd0b1fb2	-0.033965774
223	0xbd428056	-0.047485672
224	0x3dc1b99e	0.09459232
225	0xbe932f2a	-0.2874692
226	0x3e198335	0.14991458
227	0xbdac960e	-0.08427058
228	0x3d922da5	0.07137612
229	0xbd369fc6	-0.044585966
230	0xbe989f66	-0.2980911
231	0x3d8e47ed	0.069473125
232	0xbe407d58	-0.18797815
233	0xbe06f1be	-0.13178155
234	0xbbad5222	-0.005289332
235	0xbe0b774f	-0.13619731
236	0x3d81ab1b	0.06331464
237	0x3ddd995b	0.10820266
238	0xbdd26ace	-0.102742776
239	0x3e4c6643	0.19960885
240	0xbdef03d1	-0.1167065
241	0x3d0fb193	0.035081457
242	0x3da42fba	0.080169156
243	0xbd91e82b	-0.07124361
244	0xbe2109cd	-0.15726395
245	0xbd94423e	-0.07239197
246	0x3da8d63f	0.08243989
247	0xbd9527a2	-0.0728295
248	0x3e435d31	0.19078518
249	0x3da1aa8a	0.07893856
250	0xbde9ba01	-0.114124306
251	0xbcc730ee	-0.024315324
252	0xbb18554f	-0.0023244207
253	0x3d3d810c	0.046265647
254	0xbd8f6c9c	-0.070031375
255	0xbdb43c47	-0.088005595

func_approx.network.6.bias f4 [30]
0	0x3dffff22	0.124998346
1	0xbdda3d64	-0.106562406
2	0xbe12cf81	-0.14336969
3	0x3d225d6d	0.03963988
4	0xbd499b8d	-0.04922061
5	0x3d91d014	0.07119766
6	0xbd75186e	-0.05983775
7	0x3e12ba52	0.14328888
8	0xbe20ee77	-0.15715967
9	0xbe166e1a	-0.14690438
10	0x3e0b7da8	0.13622153
11	0xbdb104e5	-0.08643512
12	0x3d200513	0.03906734
13	0x3d55a44c	0.05215864
14	0x3c895e4e	0.0167686
15	0xbdcbbb10	-0.09947789
16	0x3ccf58d6	0.025310915
17	0xbe01c86d	-0.12674113
18	0x3e04cabd	0.12967964
19	0x3d29d7f4	0.041465715
20	0x3e118100	0.14209366
21	0x3dee86ea	0.116468266
22	0x3d92682c	0.071487755
23	0x3d77f908	0.06054023
24	0x3dd9cfe0	0.10635352
25	0xbdbe7899	-0.09300346
26	0x3e15bd2b	0.14622943
27	0xbd371d6d	-0.044705797
28	0x3e1767e3	0.14785723
29	0xbcf387e7	-0.02972789

func_approx.network.8.weight f4 [1, 30]
0	0x3d916ec0	0.07101202
1	0x3e37480e	0.1789858
2	0x3d2d6d16	0.04234036
3	0xbd8d0a21	-0.068866976
4	0x3e100b0d	0.14066716
5	0xbe49b940	-0.19699574
6	0xbddba308	-0.10724455
7	0xbd3ac877	-0.045601334
8	0xbdeedda3	-0.116633676
9	0xbd133cd7	-0.035946693
10	0x3decdf65	0.115660466
11	0xbe7ea8b3	-0.24869041
12	0x3e8693c3	0.26284608
13	0x3e0962ce	0.13416597
14	0x3e8ff455	0.28116098
15	0xbdb0c97d	-0.08632181
16	0xbe2a31c7	-0.16620551
17	0x3e027700	0.12740707
18	0x3e4e2f46	0.20135221
19	0xbe0c221c	-0.13684887
20	0xbe0ebe34	-0.13939744
21	0xbda1c7d1	-0.0789944
22	0x3e75dfa1	0.24011089
23	0x3d091f5f	0.033477183
24	0xbeabb383	-0.33535394
25	0xbdda7f73	-0.1066884
26	0xbe0d91a6	-0.13825092
27	0x3e64109f	0.22271965
28	0xbe20ca81	-0.15702249
29	0x3e3696ca	0.17830959
