paper/Burgers/runs/shifted_results/shifted_grid_39checkpoint.pt (torch, 59607 bytes, 36 tensors)

func_approx.network.0.weight f4 [30, 2]
000000 d4 41 6e bf f1 4c 50 3f 9b 7f d1 3e 00 2e 4f bf
       -0.93069196 0.81367403 0.40917668 -0.80929565
000010 c2 0a 09 3f 0f 69 85 3f 22 7f 87 be cb 52 3b bf
       0.5353204 1.0422686 -0.26464182 -0.7317321
000020 a6 05 4b bf 39 82 e4 bd c4 f4 79 3f 93 5e 29 bd
       -0.79305494 -0.111576505 0.9763911 -0.04134996
000030 79 91 65 3e 1c b8 16 be 5f 1c 6c bf c8 04 d0 be
       0.22418775 -0.1471867 -0.9223079 -0.40628648
000040 f9 37 3f 3f 44 28 d1 be 64 19 f0 be bc 15 a5 be
       0.7469478 -0.40851033 -0.46894372 -0.32243145
000050 18 85 45 3f 3c 24 40 bf 1c e2 1e 40 07 97 8b 3c
       0.7715621 -0.7505529 2.4825506 0.017039789
000060 9f 40 4e be 39 4e 24 3f 6e 7e 1c 3f bc 0e 49 be
       -0.20141838 0.6418186 0.61130416 -0.19634527
000070 93 25 29 3f 13 a1 e8 be e4 c2 c8 be 1c 4b 03 3f
       0.6607296 -0.4543539 -0.3921119 0.5128648
000080 dc a8 6b 3f 93 0d 34 bf e7 2a d9 be 71 49 5c bf
       0.92054534 -0.7033321 -0.42415544 -0.8604956
000090 b4 26 0f c0 92 88 b5 be ec df 68 3f 39 3c 15 3e
       -2.2367373 -0.35455757 0.9096668 0.14573754
0000a0 69 e7 e1 be d9 04 bb bd 54 17 a2 be 12 da dd 3e
       -0.44121864 -0.09131784 -0.31658423 0.43330437
0000b0 96 b4 ff 3d d9 85 81 bf 2e 8a bb 3f 92 f1 4b 3f
       0.12485616 -1.0118972 1.4651544 0.7966548
0000c0 09 8f 5b bf bb 3a 9f be bb 8a 36 3f 6e c6 ff 3c
       -0.8576513 -0.31099495 0.71305436 0.031222548
0000d0 d9 64 0b bf ec 9b 14 bf 67 d0 29 bf 74 3f 9d 3e
       -0.54450756 -0.5805042 -0.6633362 0.30712473
0000e0 d0 d2 ea be 32 4f 5e 3f 4a 53 81 3d 39 b8 01 bf
       -0.45863962 0.8683959 0.06314714 -0.50671726

func_approx.network.0.bias f4 [30]
000000 f5 6a 8e 3e 30 d7 3b 3d 8b 6c 0f be 43 78 e6 be
       0.27815977 0.045859516 -0.1400625 -0.45013627
000010 6b 82 8d be df e7 60 3e 94 c9 33 3e 08 81 7e be
       -0.27638564 0.21963452 0.17557365 -0.24853909
000020 80 f2 04 be 4e bd 28 be 84 1d af be b6 15 ae 3d
       -0.12983131 -0.16478464 -0.34202206 0.08500235
000030 db 88 01 bf 80 89 8b bd ee 4a af 3d 36 b4 ac bd
       -0.5059945 -0.068133354 0.085592136 -0.0843281
000040 29 c9 c9 3d 12 0d df be ea 17 20 be 8e 86 ca bd
       0.098528214 -0.4356466 -0.15634122 -0.098889455
000050 d3 a6 1a 3f 71 59 26 3d 64 42 10 bf b3 6d 01 be
       0.60410804 0.04061264 -0.56351304 -0.12639503
000060 5b eb eb be cb 46 d2 bd 4a a8 3d be 04 87 ce be
       -0.46078 -0.10267409 -0.18521228 -0.40337384
000070 d5 16 df be 62 0a de 3e
       -0.43572107 0.43367296

func_approx.network.2.weight f4 [30, 30]
000000 20 9d 31 bf bf e8 a0 3e ef e0 ba 3e 5f 51 e4 3d
       -0.6938038 0.3142757 0.36499736 0.11148333
000010 6d f0 87 be cc 2a d9 3e 6e 87 67 3e 87 6e e7 be
       -0.26550618 0.42415464 0.22610256 -0.45201513
000020 b2 35 f3 3e 89 7f 74 be 95 78 12 3f 62 2f 04 3f
       0.47501904 -0.23876776 0.57215244 0.516348
000030 93 df d3 be 12 2f d4 3e 9b 9b d7 3e 2f e2 77 be
       -0.4138151 0.41442162 0.42110905 -0.24207376
000040 a1 4d 08 3f a3 ba 0e 3d 9e 4e 56 bf 8c 14 ba 3e
       0.5324345 0.03484596 -0.8371371 0.363438
000050 07 95 89 bd e7 88 aa be fd 54 27 3e e6 da 68 3f
       -0.06717878 -0.33307573 0.16341014 0.9095901
000060 e6 15 eb bd 96 bb 05 3f d9 c3 ed bd d2 67 9c be
       -0.11478786 0.5223936 -0.116096206 -0.3054796
000070 31 6c a8 be 28 88 8a 3e f7 52 6d bd cd 5e 06 bd
       -0.32895043 0.27057004 -0.05794045 -0.032805253
000080 d3 81 b1 bd 07 f6 cb bd d7 3f 4b 3e 10 32 16 be
       -0.0866734 -0.09959035 0.19848572 -0.14667535
000090 a3 cd 8f bd e3 7a 5b 3c c6 02 03 3e ec 4f 2b bd
       -0.07021644 0.013395998 0.12794027 -0.041824266
0000a0 93 20 a1 bc 2b 63 a6 3d dd d2 73 be 6a 2a 32 3e
       -0.019668853 0.081243835 -0.23810907 0.17398992
0000b0 7c 3d 08 3e 16 b0 f0 3c de b0 3f 3d 93 83 02 3e
       0.13304704 0.02938084 0.046799533 0.12745504
0000c0 38 c7 0a 3c d8 75 24 bd b6 62 76 3e 0f 49 37 be
       0.008470349 -0.040151447 0.24061093 -0.17898963
0000d0 e4 50 09 bd e9 33 89 3d a7 e2 59 3d 3b 90 1f be
       -0.03352441 0.06699354 0.05319467 -0.15582363
0000e0 cd 2b ad 3d 18 d0 9e bd d3 46 81 be be 37 8a 3d
       0.0845562 -0.077545345 -0.25249347 0.06748913
0000f0 a7 43 7a 3d 75 a4 22 3e 5e df d1 bd b4 12 ca bd
       0.061099675 0.15883048 -0.10247682 -0.098668486
000100 81 ad 9c 3e 0e 86 f1 bd c4 74 02 3d 53 d2 5a 3e
       0.30601123 -0.11793147 0.031849638 0.21369295
000110 11 8b de 3d de bf 6a 3e 62 06 ec 3d 5c ac 8a be
       0.108663686 0.22924754 0.11524655 -0.27084625
000120 f6 b7 9a 3d 17 5e ca 3d 0f c6 b1 bd 82 ce 18 3d
       0.07554619 0.098812275 -0.08680355 0.037306316
000130 65 90 9f bd 1d 7d 06 3e 0a c4 fc 3d 3a a5 69 bd
       -0.07791213 0.13133664 0.12342079 -0.057042338
000140 03 0a 7c 3d 6e a7 34 3d 12 a7 08 3b 82 73 b8 bc
       0.061532985 0.044104986 0.0020851535 -0.022516016
000150 cf 90 bd 3d 0e d9 60 be 98 5d 38 3c d4 43 c4 3d
       0.09256136 -0.219578 0.011252783 0.0958325
000160 d4 92 3e 3d 28 0d e5 3d 66 af 66 bd 41 7c 11 3d
       0.046526745 0.1118415 -0.056319617 0.03551889
000170 b0 dd 53 be ad 0a 06 bd 38 59 0b 3e 70 e7 f4 3d
       -0.20690036 -0.032725025 0.13608253 0.11958206
000180 87 45 3b 3d f3 d3 a8 bd a6 bc 79 3d 24 c9 38 3e
       0.045720603 -0.08243551 0.060970925 0.18045479
000190 b2 71 ab 3d ff 16 8e 3d 47 fe e3 3b 9a 66 5f 3d
       0.08371295 0.0693798 0.0069578025 0.054541208
0001a0 88 c2 07 bc be 83 1d be 98 9c 32 bd 62 d1 d7 bd
       -0.008286126 -0.15382287 -0.04360637 -0.105379835
0001b0 38 37 e2 bd b5 1d 2d 3e 43 72 07 be 55 b1 2f bd
       -0.110456884 0.16905864 -0.13227181 -0.042893726
0001c0 6a bc 4e bd e4 11 f3 bd 2d 4e 7a bc a3 9b e0 3d
       -0.050472654 -0.11868647 -0.015277428 0.10967185
0001d0 b5 a8 ef bd 3f 13 6c bd f2 56 81 bd 67 27 4a bd
       -0.117021 -0.057635542 -0.063154116 -0.049353983
0001e0 a0 22 be bd 44 6e e4 bd df c4 26 3d e5 c2 23 be
       -0.09283948 -0.11153844 0.040715095 -0.15992315
0001f0 8f 8d 8c be ae 2a 5a 3e 3e eb ce 3d 83 69 ec bd
       -0.2745175 0.21305344 0.10103463 -0.11543562
000200 b5 56 35 be bb e4 96 be 83 1d ac b9 fd 1d 48 3e
       -0.17708857 -0.29471382 -0.00032828384 0.1954269
000210 e9 89 36 3e d2 5e 03 be fb c4 5f 3d e4 03 90 3b
       0.17826046 -0.1282914 0.054631215 0.004394995
000220 c2 65 12 be 67 b3 86 be ac 24 9f be 31 69 50 3e
       -0.1429663 -0.26308748 -0.31082666 0.20352627
000230 37 54 e9 bd da 9d 7d 3e 42 b9 c7 be 28 a8 11 3e
       -0.11393016 0.24767247 -0.39008528 0.14224303
000240 37 b5 c7 3b 24 4c 2b 3d 96 23 ac be d3 de 8f 3d
       0.0060946005 0.04182066 -0.336209 0.07024922
000250 a8 ca 24 be 3a 0d 1b be e2 fa 5a 3b 88 db 2e be
       -0.16092932 -0.15141764 0.0033413698 -0.17075932
000260 cd 7f 33 3e 47 3a 3c be e1 cd 25 3e c4 bd 10 be
       0.17529221 -0.18381606 0.16191818 -0.1413489
000270 3c 64 ba 3d 5d 71 9a bd dd 6c f8 bd b3 5c 0d be
       0.091011494 -0.075411536 -0.12130139 -0.13804893
000280 ae bd 82 bd 5d 6b c2 bd 22 b4 fd bd a5 59 bc ba
       -0.06383835 -0.09493134 -0.12387873 -0.0014369978
000290 9d f0 83 ba 21 10 6c bd fa f9 dd 3d ec 7e 98 bd
       -0.0010066215 -0.05763257 0.10838695 -0.074460834
0002a0 a6 71 08 3e 18 4d 5c bd 9e 68 38 be d0 e6 9d 3d
       0.13324603 -0.05378446 -0.18008658 0.077100396
0002b0 7d c9 86 be 80 6c 1c 3e 0a 34 19 3e 00 09 97 bd
       -0.26325598 0.15275764 0.14961258 -0.073747635
0002c0 2e 97 44 be 44 44 63 3e 15 01 ab 3d f7 41 81 3d
       -0.19198295 0.2219401 0.08349816 0.0631141
0002d0 f3 6d 9f bd f7 09 2b 3e 68 7a 83 bc 34 fb 2f 3e
       -0.07784643 0.1670302 -0.016049579 0.1718567
0002e0 22 15 eb bc 56 dd e5 3d f8 e7 ec bd 68 bc 80 bd
       -0.0286966 0.11223857 -0.11567682 -0.06285936
0002f0 5e 35 05 3e f6 57 0d 3e 85 fc 4d 3e 4c a7 77 3e
       0.13008639 0.13803086 0.2011586 0.24184912
000300 88 d3 b0 bd 73 60 3c 3d 20 02 d7 3d dd 8d af bd
       -0.086340964 0.04599042 0.10498452 -0.0857198
000310 74 4d 2a 3e 8a 28 c8 3c 26 e9 1e be f0 da e7 3d
       0.16631109 0.024433393 -0.15518627 0.11321056
000320 e3 75 4f bd 99 85 b1 be ee 48 96 3d 4b 5d 97 bd
       -0.050649535 -0.3467224 0.07338129 -0.07390841
000330 50 da 4e bd 5d 94 8d 3d 97 61 59 be 92 0e 63 bd
       -0.050501168 0.06913064 -0.21228634 -0.055433817
000340 ee b1 25 be 0e 04 87 3d d6 1d 90 bd 89 f4 53 3e
       -0.16181156 0.0659257 -0.07036941 0.20698752
000350 14 7c 9d be d2 37 b7 bd 00 6f d2 bd d0 19 fe 3c
       -0.30758727 -0.08946194 -0.10275078 0.031018168
000360 4e ea 91 bc f5 42 01 3e 0d f7 09 3e 3f ba de 3d
       -0.01781192 0.12623198 0.13473149 0.108753674
000370 66 ce 49 3e 74 5d 81 3d b8 0b 96 be 2c bf ca bd
       0.19707641 0.06316653 -0.29305816 -0.098997444
000380 16 4a a0 bd 06 80 58 be a6 a0 a9 3d a6 f0 d9 3c
       -0.07826631 -0.21142587 0.082825944 0.026604008
000390 2f 00 c3 bd 15 d9 8e bc 50 02 f8 3d e8 0c bc bd
       -0.095215194 -0.017437497 0.12109816 -0.09182149
0003a0 5f 00 ce 3d 52 c7 2d be af 08 e9 3d c2 5b 0b be
       0.100586645 -0.16970566 0.113786094 -0.13609222
0003b0 e6 76 5c 3e b8 d3 b8 3d 5c ce 02 be ce a5 82 3e
       0.21529731 0.09024757 -0.12774032 0.25517124
0003c0 2b 6d da bc 60 1f 13 3d 8e 45 04 3e 94 e9 b4 3d
       -0.026663383 0.035918593 0.12917158 0.08833614
0003d0 72 14 18 3c 45 cf 1f 3d 8a 60 47 3e a9 e8 cf bd
       0.009282218 0.039016027 0.1947042 -0.10151798
0003e0 4f 2b 09 3d 0d 93 cc bd e3 f9 00 bd 6c 92 06 3e
       0.033488568 -0.09988985 -0.03148831 0.13141793
0003f0 d4 37 f8 bd 2c 65 f4 3d d4 f9 61 3e bf eb ee 3c
       -0.12120023 0.119333595 0.22067958 0.029165147

func_approx.network.2.bias f4 [30]
000000 41 77 9e ba 8a 1c 10 be 9a e8 48 be 51 44 50 3d
       -0.0012089984 -0.14073387 -0.1961998 0.0508464
000010 8a a5 4e 3b 4b 4f 16 3b f8 d1 cc bd 69 c0 8a ba
       0.0031531774 0.0022935446 -0.10000986 -0.0010585907
000020 22 b2 2a 3e 3d 7f 98 3d 9d bd 29 3e 3b 7d e1 3d
       0.16669515 0.07446144 0.16576238 0.11010214
000030 af 86 4c 3b 46 e2 06 3e 85 33 8a 3d 85 be d5 bd
       0.0031208207 0.13172254 0.06748108 -0.10436729
000040 dc ec 01 3e bf b7 b5 3d 26 eb aa 3d 76 09 f0 3d
       0.12688011 0.088729374 0.08345632 0.117205545
000050 2f 23 77 bb 08 ae 67 bc 58 9e 69 3c 30 a2 ec bc
       -0.003771018 -0.014140613 0.0142589435 -0.02888593
000060 fc c5 1b 3d dc c1 7b 3e ac 8e 11 3e cc ba 92 3d
       0.03803061 0.2458567 0.14214581 0.07164535
000070 64 37 48 be 55 89 9b bd
       -0.1955238 -0.075945534

func_approx.network.4.weight f4 [30, 30]
000000 21 60 8b be e0 cd bf 3d d6 72 80 bd 20 64 f0 bd
       -0.27221778 0.093654394 -0.06271903 -0.11737847
000010 d9 07 9e 3e 0c da a6 3b f6 06 0b bc eb 49 8f 3d
       0.30865362 0.005091911 -0.008485546 0.069965206
000020 1e 96 4f 3d b5 f8 37 3d 81 c4 d3 bc e6 fa 33 3e
       0.050680272 0.04491492 -0.025850536 0.17576179
000030 ce 68 f0 bc 35 5d 80 3d 5d ab 9d 3e e1 9a 8e bd
       -0.02934685 0.06267778 0.30794802 -0.069631346
000040 90 43 88 bd 85 d7 f9 3c b0 79 44 3e 22 91 86 be
       -0.066535115 0.030498276 0.19187045 -0.26282603
000050 a3 5d ce 3d b5 d6 5d bd 1a 22 2b 3e 23 1b 44 bd
       0.100764535 -0.05415984 0.16712227 -0.047877442
000060 cf cf 8d 3d 2c 97 35 3d 04 08 63 be 1e 1d 37 be
       0.06924402 0.04433362 -0.22171026 -0.17882201
000070 07 d5 27 3e 75 82 08 3e 25 db 2f 3e a2 5a 52 3e
       0.16389857 0.13331015 0.17173441 0.20542386
000080 00 2e e4 3d fe 7d 07 3e 5a d5 2c 3d f0 74 31 bd
       0.11141586 0.13231656 0.042195655 -0.04332441
000090 6a 0e 63 3e 72 63 98 3e 07 f7 c5 bd d7 d8 1b be
       0.22173467 0.2976337 -0.09666257 -0.15219437
0000a0 14 36 1d be 65 c7 38 be 6c 3f c3 bd c3 3a 70 3c
       -0.1535266 -0.18044813 -0.09533581 0.014662447
0000b0 9b 46 c5 b9 ef 9b 07 be 35 20 c7 3e 71 56 03 be
       -0.00037627373 -0.13243078 0.3889176 -0.12825944
0000c0 f6 40 af be ad 17 80 be 81 1d 17 be d1 ad 8a be
       -0.3422925 -0.25018063 -0.14757349 -0.27085736
0000d0 1c 6f 96 3d f0 9a ce 3d dd b9 e4 bd 35 2a 9f 3e
       0.07345411 0.10088146 -0.11168263 0.3108689
0000e0 f6 b5 a2 be 64 3e 0b 3d da 0e 0c bd 25 18 81 3e
       -0.3177945 0.033995047 -0.03419385 0.25213733
0000f0 1e 31 85 be 1a 23 1b be 78 dc 27 3e a5 c1 9c be
       -0.26014036 -0.15150109 0.16392696 -0.3061649
000100 8e 07 38 be 64 c1 f6 3d f1 60 ff bd f5 6f ab be
       -0.17971632 0.12048605 -0.12469662 -0.33483854
000110 49 28 33 be f6 10 46 3d 78 7f 83 3e 73 21 91 3e
       -0.17495836 0.04835602 0.25683188 0.28345832
000120 5b 26 c8 3e 30 7a 30 3d 3a 74 8a bc 5b e6 35 be
       0.39091763 0.043085277 -0.016901124 -0.17763655
000130 37 13 cc be f8 79 bf 3c 5e 1a 6d bb be b4 c1 3d
       -0.3985841 0.023373589 -0.0036179046 0.09458302
000140 f6 32 6c bd 4f bf 21 3e 50 59 7b 3e 60 db 91 3d
       -0.057665788 0.15795635 0.24545789 0.071219206
000150 31 80 99 bb 13 38 01 bf d4 74 7b 3e ed d8 98 bc
       -0.004684471 -0.5047619 0.24556285 -0.018658126
000160 9b dd f9 3d c5 d7 c2 bd f9 1b 23 3e d2 a9 70 bd
       0.12200471 -0.09513811 0.1592864 -0.058755703
000170 d2 56 8a be 7d 0c 1f 3e 1a 55 a7 3e 25 d9 fc 3d
       -0.27019364 0.15532108 0.32682115 0.123461045
000180 d8 6e 12 be d2 60 e4 3d b6 a9 91 3c 1d ed 25 3e
       -0.14300096 0.111512795 0.01778112 0.16203733
000190 4b 56 4b be 03 f9 a3 bd 3b a1 5d 3c 5d 40 93 be
       -0.19857137 -0.080064796 0.01352721 -0.28760043
0001a0 82 97 24 3d 54 30 4b bd 66 76 55 3d 3d 55 70 3e
       0.04018355 -0.049606636 0.052114867 0.23470016
0001b0 8b 3e d6 bd b7 44 87 be bd df 42 3e 60 a4 92 3e
       -0.10461148 -0.26419613 0.19030662 0.28641033
0001c0 f0 3c 5d 3d cd 5b 94 3d 7d 38 41 be ba a3 17 3a
       0.054013193 0.07244072 -0.18869205 0.000578459
0001d0 35 53 5b 3e a7 9d 47 be f5 89 94 3e a6 89 62 bd
       0.2141846 -0.19493733 0.29011503 -0.055307053
0001e0 6f 0a d9 3c 6a 9c 9f 3e b6 5d 28 bd 10 e9 ef 3d
       0.026494233 0.31174022 -0.041104995 0.11714375
0001f0 25 6f 8a bd ae 8e 0e be cb b9 4c 3e 6a 98 a1 3e
       -0.067594804 -0.13921615 0.1999275 0.31561595
000200 39 59 1b 3d c2 b7 b6 be a1 fd 9c be fd 6d 74 3c
       0.037926886 -0.3568707 -0.30662253 0.014918801
000210 e9 aa c9 be 77 d7 55 3e 08 ee 42 be 54 72 42 be
       -0.39388207 0.20882975 -0.19036114 -0.18988925
000220 06 b7 fe 3e 47 ac 8e be db 33 95 be 66 b3 a3 3d
       0.4974901 -0.27865812 -0.29141125 0.07993202
000230 06 b0 27 be ea a7 6c be fd d2 43 be a5 f4 9f bd
       -0.16375741 -0.23110929 -0.19123454 -0.07810334
000240 a2 5e c7 3e 52 77 e8 3e 4d 41 ee be cd a9 2d bd
       0.38939387 0.45403534 -0.46534196 -0.042398263
000250 fa 50 d9 3d c1 a8 2b 3e 4f 11 3d be d8 41 0f 3e
       0.10611148 0.16763593 -0.18463634 0.13989961
000260 d1 4f cd 3d bc bc 04 be b8 aa a1 3e 93 e5 29 bd
       0.100249894 -0.12962621 0.3157556 -0.041478705
000270 06 55 c5 bd fc 34 52 3d 64 43 0b be 60 f6 ca bd
       -0.096353576 0.05132006 -0.13599926 -0.099102736
000280 cf 97 d5 bd 56 6d be bd ee 00 55 bd f2 3c 9f bd
       -0.10429346 -0.09298198 -0.05200284 -0.07775296
000290 8c 82 41 3d dc 5e 33 3e 50 59 69 3e 9c 1b df 39
       0.04724364 0.17516655 0.22787976 0.00042554445
0002a0 25 78 0f 3e b6 3a 89 bd ef 55 38 be 17 11 02 be
       0.14010675 -0.06700651 -0.18001531 -0.12701832
0002b0 e3 27 38 bd fa e9 66 3d 24 4a 42 3e a3 23 13 3e
       -0.044959914 0.05637548 0.18973595 0.14369063
0002c0 fd cd 98 3d f4 81 3e 3d 92 9a ce 3d aa bd 3d 3d
       0.07461164 0.04651065 0.10088076 0.046323456
0002d0 86 e7 65 3c a4 64 84 3d 55 ed 51 be 74 47 c9 3d
       0.01403225 0.06464508 -0.20500691 0.09828082
0002e0 7a 1c f1 3c a4 a0 13 3d c6 bc 0e bd 43 cb 5a bd
       0.029432524 0.03604187 -0.034847997 -0.0534165
0002f0 bf a9 b9 3e 5c 04 96 bd 53 bb 19 bc dc 67 aa be
       0.36262318 -0.0732505 -0.0093830405 -0.33282363
000300 ba a6 ad bd c9 62 0f bd fc 7e 05 be 0c f0 72 bc
       -0.08479066 -0.03500632 -0.13036722 -0.014827739
000310 f3 b6 41 3e 9a 11 2b 3d 0c 34 33 be 4e 89 e0 3c
       0.18917446 0.041764833 -0.17500323 0.027409222
000320 10 96 08 be a7 dd c6 3e 0d 52 ac be 6d cb d1 bd
       -0.13338494 0.38840982 -0.3365635 -0.102438785
000330 c5 46 6f be 1f ed 1b be db 51 67 3e 31 88 3b 3d
       -0.2336684 -0.15227173 0.22589819 0.04578418
000340 09 d6 34 3d 77 75 5e 3e 94 c5 e3 3e bc a2 ed bd
       0.044149432 0.21724497 0.44486678 -0.11603305
000350 1f 30 7b bd 30 ea bd 3e a0 57 a3 bd d4 79 14 be
       -0.06132519 0.37092733 -0.079756975 -0.14499599
000360 95 82 de 3e cc d1 95 bc 35 6a 4b 3e 0a b5 c0 3d
       0.43459 -0.018288516 0.19864734 0.094095305
000370 73 8c 09 be ba 92 98 be bc 10 0f bd f0 9e 28 be
       -0.13432483 -0.29799443 -0.03492807 -0.1646688
000380 2a d2 9e be 86 e9 70 3e 21 0a 31 3e bb d2 a9 bd
       -0.31019717 0.23526582 0.1728902 -0.08292147
000390 d1 a8 bf 3d a2 93 80 3e b4 17 63 be 24 c5 4d 3f
       0.09358371 0.25112635 -0.22177011 0.8037894
0003a0 6b 4a e1 be cd cb e1 bd 4a b1 dd be 1d e1 a2 3e
       -0.4400209 -0.110252 -0.43299323 0.31812373
0003b0 70 66 24 3f d7 60 a9 3d 5a 2d 2e 3c 65 20 d0 3c
       0.6421881 0.08270424 0.01063093 0.025406072
0003c0 92 a2 8b bd 24 87 e3 bd 44 26 d6 bd 09 bb 3a 3e
       -0.06818117 -0.111097604 -0.10456517 0.18235411
0003d0 d4 16 a2 3e ac 08 0b be 14 f3 a0 bd f4 ae 9b 3d
       0.3165804 -0.13577527 -0.078588635 0.07601729
0003e0 10 91 42 3e d2 c6 ea 3d 9d 75 2c 3c f1 92 5f 3c
       0.1900065 0.11463703 0.010526088 0.013645873
0003f0 1c a4 e1 3c 7f d3 cd bd e7 ee f3 3d 6a 22 93 3a
       0.027544074 -0.10050105 0.119108014 0.0011225466

func_approx.network.4.bias f4 [30]
000000 5c 3d f0 bd 2b 9d ec bd e2 73 fb bd 86 fe 35 bd
       -0.11730453 -0.11553415 -0.12277962 -0.044432186
000010 73 3e 03 3d a1 c5 03 3e 0e b5 82 3e 2b 03 63 be
       0.032041978 0.12868358 0.2552876 -0.22169177
000020 ff 94 a7 3d 18 de b5 bd 6b 1d 6d be 89 64 8e bd
       0.081827156 -0.08880252 -0.23155753 -0.06952769
000030 93 b9 fb 3d e1 58 53 3d 0f 1c 9f 3d 36 68 0e be
       0.12291255 0.051598433 0.077690236 -0.13906941
000040 7b 42 f4 bd a9 c7 c6 3d 36 9a 3d 3e 21 c8 6c 3d
       -0.11926743 0.09706051 0.18515858 0.057808045
000050 13 84 2d bd 12 d4 04 3e 33 c8 89 3c 8f 28 ac 3c
       -0.042362284 0.12971523 0.016819095 0.021015434
000060 ac 6a af bc d8 02 0c 3e f1 52 9b 3d 2e 4d ed bd
       -0.02141317 0.1367296 0.07584179 -0.115869865
000070 d3 2c 9b 3d b7 c7 61 3c
       0.07576909 0.013780526

func_approx.network.6.weight f4 [30, 30]
000000 8f ce 97 3e 38 dc 65 bd 80 be 9c 3d 26 4d ae 3d
       0.2964978 -0.05611822 0.076535225 0.08510809
000010 02 3f 1b 3e ce 60 28 3e 7f 32 21 be b5 63 c9 be
       0.15160754 0.16443178 -0.15741919 -0.39333883
000020 68 94 1e be 3c 64 0f 3e dc 40 7e 3e 0f 07 d9 3d
       -0.154863 0.1400308 0.2482943 0.105970494
000030 bb 4e 0e 3e fd 00 ad 3d 70 4a c3 be ba 11 b2 bc
       0.13897221 0.08447454 -0.3814273 -0.021736968
000040 d7 d9 4a 3e 78 35 ac be 65 ab cb bd aa 14 f1 bc
       0.19809662 -0.33634543 -0.099448 -0.029428799
000050 9a e0 71 3d 06 f0 dd bd 5e 80 b7 3d 66 fd 3c 3e
       0.059052087 -0.108367965 0.08960031 0.18456039
000060 a6 db 40 3c dc c9 a6 be da bd 2e 3e 1a 40 84 bc
       0.011771118 -0.3257588 0.1706461 -0.016143847
000070 79 43 0e 3d e4 fa 71 3e d6 db c7 bd f0 ed 46 3e
       0.034732316 0.23630863 -0.09758727 0.19426703
000080 49 ae 5c be 5b bc 78 3d 92 07 58 3e a3 98 a9 bd
       -0.2155086 0.060726505 0.21096638 -0.08281066
000090 be 5d 69 3e 7e d0 a7 3d ec e6 07 be 78 88 ce 3c
       0.22789666 0.081940636 -0.13271683 0.025211558
0000a0 ff f8 9e bd 49 df f8 bd 46 ab ce 3d 9f 61 0a 3e
       -0.07762336 -0.12151963 0.100912616 0.13513802
0000b0 b1 21 f1 3d 91 9c 3b 3e 53 be 28 3e b0 b5 e4 3d
       0.11774004 0.18321444 0.16478853 0.11167467
0000c0 cd 9a 60 bd d1 17 aa bc 83 8e 49 be 23 cc 8a bd
       -0.05483513 -0.02076331 -0.1968327 -0.06777217
0000d0 93 c5 05 3e 11 3a c7 bc 26 fb e0 3d 50 b2 e0 bd
       0.1306365 -0.02431968 0.10985403 -0.109715104
0000e0 1a 16 ef 3d 6a 70 80 3e fa 80 19 be 44 1b 97 3d
       0.116741374 0.25085765 -0.14990607 0.073782474
0000f0 9b d3 0d be ab f7 40 3d 76 8e 83 3c 45 b7 0c be
       -0.13850252 0.047111195 0.016059142 -0.13741787
000100 50 2d 6a 3d cd a0 43 be 16 29 16 3d 72 15 d0 bb
       0.05717212 -0.1910431 0.036660276 -0.0063502127
000110 9d 2e e5 bd da f5 f9 bd 66 fe 2d be a2 cb 74 bd
       -0.111905314 -0.122050956 -0.16991577 -0.059764512
000120 46 89 11 3d 44 d3 85 3b 16 41 36 3d d8 41 02 be
       0.035531305 0.0040840227 0.044495665 -0.1272043
000130 35 b6 22 bd 18 f4 47 3e de 3b cf 3c 32 98 82 bd
       -0.039724547 0.19526708 0.025297102 -0.06376685
000140 50 01 49 3c a0 5e 9f bd 3d 7f f1 3d 71 c7 c4 bd
       0.012268379 -0.0778172 0.11791847 -0.09608353
000150 7c 69 b7 3b 84 e7 aa 3d ab 97 07 3e 41 5d 93 bd
       0.0055972915 0.08344939 0.1324145 -0.07195521
000160 df 0f 91 bd 46 68 71 bd 38 88 62 3c 23 9c 7e 3d
       -0.07083105 -0.058937334 0.013826422 0.062160622
000170 3f 85 9e be 81 e7 6d 3e 67 37 a6 3e ee 39 f7 3d
       -0.30961034 0.23232843 0.32464144 0.12071596
000180 99 6f 88 3e a2 e3 a4 3e 4e c2 53 3e b7 3a 11 3d
       0.26647642 0.3220492 0.2067959 0.035456385
000190 df 97 17 be 24 39 88 bd f9 3e 8b 3e ad ee f8 3c
       -0.14804028 -0.06651524 0.27196482 0.030387247
0001a0 ed ec 97 3c 2b 73 af 3e 34 a5 34 3e 8b f5 ca bd
       0.018545592 0.34267554 0.17641145 -0.09910115
0001b0 01 fa 1d bc f4 bd 3f 3e 3e d7 60 bd b5 5f 3d 3e
       -0.009642125 0.18724805 -0.05489277 0.1849354
0001c0 f4 04 29 3e d4 33 23 be f8 4b 8c 3e 12 94 98 bd
       0.16505796 -0.1593774 0.2740171 -0.07450117
0001d0 c9 81 fa 3c 9e d1 89 3e 86 c0 3b be d0 66 45 3e
       0.030579465 0.26917738 -0.1833516 0.19277501
0001e0 7f c6 28 3e cc bc a7 bd c5 52 90 3e 47 56 61 bc
       0.1648197 -0.08190307 0.28188148 -0.01375348
0001f0 37 d5 66 be e1 85 1c be 05 f6 a4 3d 3f b7 09 be
       -0.22542273 -0.15285446 0.08054737 -0.13448809
000200 f0 07 45 3d f2 05 a4 bb c8 dc 9f 3d 38 e1 36 3c
       0.048103273 -0.0050055915 0.078057826 0.011162095
000210 cf ce fc bd 04 a3 fa bd df 51 78 3e 0c af 99 3b
       -0.12344133 -0.12238124 0.24249981 0.0046900567
000220 47 65 85 3d cf 44 3a 3c 09 92 10 3e 83 77 23 3e
       0.06513458 0.011368944 0.14118208 0.15963559
000230 63 23 1e bd e9 d3 02 be 19 4f 2b be 8d 47 81 bd
       -0.038607966 -0.1277615 -0.16729392 -0.06312475
000240 77 a5 84 be 2c a6 54 39 76 21 63 bd 97 ac 76 be
       -0.2590749 0.000202798 -0.055451833 -0.24089275
000250 e5 c3 14 3e 82 0d 27 3e 8e e0 5f 3e e1 d1 69 bc
       0.14527853 0.16313747 0.21863005 -0.01427123
000260 8e 11 1c 3e b0 fa 53 be 8e c5 e1 bd 9b 5b 31 3e
       0.15241072 -0.20701098 -0.11024009 0.17320101
000270 40 8b 1b bd d9 7a 93 3c ab 62 53 3e 2a 49 11 3d
       -0.037974596 0.018002914 0.20643108 0.035470165
000280 7b 16 d9 bd 81 fb 18 3e dc 36 6a be 5c 16 47 bd
       -0.10599991 0.14939691 -0.2287249 -0.048605308
000290 94 ee 06 3e 22 2a f4 bd ff 62 44 be e1 88 bb bc
       0.13176948 -0.11922099 -0.19178389 -0.022892417
0002a0 7e f7 40 3e 88 69 97 bb 81 1c 34 3d 3a 63 c3 3d
       0.18844411 -0.0046207346 0.043972496 0.0954041
0002b0 27 d8 83 3d 4a 21 cf 3d 23 68 31 bd 55 25 0c 3d
       0.06437712 0.10113771 -0.043312203 0.03421529
0002c0 52 eb 1b bd 25 e5 33 be 1d 61 09 3e 6f 66 1c 3e
       -0.038066216 -0.1756788 0.13415952 0.1527345
0002d0 a7 b8 a7 3e 60 51 58 be 9a 94 27 3e 24 43 30 be
       0.32758066 -0.21124792 0.16365281 -0.17213112
0002e0 83 c1 97 be af c8 57 3e e8 b6 25 bd b2 f9 68 be
       -0.29639825 0.21072648 -0.040457636 -0.22751501
0002f0 df f4 95 3d 68 bc 39 3e bd 8a 1d bd b7 bd 21 3d
       0.07322096 0.18138278 -0.03846239 0.039487567
000300 f5 b9 bc 3c 4f 06 64 bc 9a 20 d4 3d 08 a9 2d be
       0.02303789 -0.01391752 0.10357781 -0.16959012
000310 38 29 d0 bd 78 d9 f3 3d ac 31 0a be 90 cb 9e 3d
       -0.10164112 0.11906713 -0.13495511 0.0775367
000320 1f 63 6c be 3d 38 53 bd d9 02 99 3d 05 1c c3 bd
       -0.23084687 -0.051567305 0.07471246 -0.09526829
000330 52 e8 16 be 37 aa 64 3d 40 e4 89 bd e6 03 e5 bd
       -0.1473706 0.055826392 -0.06732988 -0.11182384
000340 fe 56 f1 bd 8d 50 02 be 41 cc 5b bc b5 e2 0f bc
       -0.117841706 -0.1272604 -0.013415397 -0.0087820785
000350 ab 67 ec 3a a4 07 0a 3e cd 21 d1 3d c3 e2 6e 3b
       0.0018036267 0.13479477 0.10211525 0.0036451078
000360 11 04 b3 3d ed 93 bc 3d 5e 5b aa 3c 59 10 c6 3d
       0.0874101 0.09207902 0.02079552 0.09671087
000370 17 28 ea 3d fe d0 00 3e a7 e1 07 3d c4 de 13 3e
       0.11433428 0.12579724 0.033174183 0.14440447
000380 53 17 3d be 4e 67 b2 3d 54 4e 74 3d 5f f1 82 bd
       -0.18465929 0.0871111 0.059645012 -0.06393694
000390 b0 32 6d 3d 1b 98 6c bc 0c cc b6 bd 56 88 38 be
       0.057909667 -0.014440562 -0.089256376 -0.18020758
0003a0 b7 f2 1a bc 5e 41 4d 3e f5 1c 6a bd 32 d5 9b bd
       -0.009457282 0.20044467 -0.05715652 -0.07609023
0003b0 50 92 78 bd ce a2 0b 3d 28 95 cf 3c 07 23 28 3e
       -0.06068641 0.03409081 0.025339678 0.16419612
0003c0 02 c4 66 3e 80 d9 06 3e 16 c2 62 3c 65 13 8f 3e
       0.22535709 0.13168907 0.013840219 0.27944484
0003d0 a3 8a 2d bd 27 43 a6 3d 62 1b 08 be ff 91 9e be
       -0.042368542 0.08118277 -0.13291696 -0.3097076
0003e0 78 b1 11 be 52 fb c9 3a 13 15 06 3e 6b 46 26 3e
       -0.14227855 0.0015409982 0.13093977 0.162378
0003f0 53 6b 63 bd 8b 89 0f be 5c 8c 35 be 02 95 ab bd
       -0.055522274 -0.14017312 -0.17729324 -0.0837803

func_approx.network.6.bias f4 [30]
000000 75 b1 05 bd 13 82 20 3d 07 fc 4f bd 5f 28 3c 3d
       -0.03263994 0.03918655 -0.05077746 0.04593694
000010 b8 f5 cf bd 4b f4 8b 3d 20 4a 9f 3d 22 a1 6a bd
       -0.10154289 0.068337046 0.0777781 -0.057282574
000020 b7 58 4c 3d 96 a3 fc 3d 26 67 c7 3d 7b ca f4 bd
       0.049889293 0.12335889 0.09736471 -0.119526826
000030 e5 14 cf bc b0 70 96 3d 33 94 82 3d 46 c0 e4 bd
       -0.025278518 0.07345712 0.06375923 -0.11169486
000040 8e e0 96 bd e6 b2 ca 3c 2a da d1 bd d9 e7 12 3e
       -0.07367049 0.024743509 -0.102466896 0.14346255
000050 11 95 bf 3c 81 47 0f be 19 3a c5 bd 67 85 30 be
       0.02338651 -0.1399212 -0.09630222 -0.17238389
000060 34 53 32 3d 76 6b af bb 2a e1 65 3d 0d 08 66 bd
       0.04353638 -0.0053533865 0.056122936 -0.05616002
000070 ab 4c 46 3e 6a ca 9a bd
       0.19365184 -0.07558139

func_approx.network.8.weight f4 [1, 30]
000000 e7 d3 36 3e 0d ca 83 3e 51 3f b9 bc 3b 74 29 3e
       0.17854272 0.2574009 -0.0226132 0.16548245
000010 5d bf 1e be 45 d1 14 be b8 81 85 be 3b 05 0e 3e
       -0.15502687 -0.14532955 -0.2607553 0.13869183
000020 55 e3 44 3e 98 f9 b2 bd 35 f8 86 3d fe 48 30 be
       0.19227345 -0.087390125 0.065903105 -0.17215344
000030 9a b3 2d 3e 22 fe 6a 3d e6 e7 88 3d 66 bc 85 be
       0.16963044 0.057371266 0.06684856 -0.261203
000040 55 c4 29 3e 6c 24 26 be c9 45 85 3e cd 35 84 be
       0.16578801 -0.16224831 0.26029804 -0.25822297
000050 29 e6 d7 3d 3b f5 3e be 9a fd 58 3e fe fa a4 3e
       0.105419464 -0.18648235 0.21190491 0.32222742
000060 d2 1b 51 3e 51 b3 3d be 64 a1 24 be 82 13 16 3e
       0.20420769 -0.18525435 -0.1607719 0.14655879
000070 1b 1a 55 be 9b 2e 13 be
       -0.2081074 -0.14373247

exp_avg f4 [30, 2]
000000 d0 7d 36 34 b0 34 58 32 24 c7 ab 34 01 fd 19 b4
       1.6995841e-07 1.25848345e-08 3.1996126e-07 -1.4341278e-07
000010 50 ab d3 34 ec 5d 9d b4 cc f3 bc 34 64 88 2a 34
       3.942646e-07 -2.9311866e-07 3.5195114e-07 1.5882102e-07
000020 c5 e7 3b 35 46 5c 30 b5 13 da f5 b4 36 d3 6e 34
       7.00002e-07 -6.5699385e-07 -4.5793476e-07 2.2242315e-07
000030 69 76 3a b4 5e c1 7a 34 21 6d f5 34 02 4f 12 35
       -1.7365677e-07 2.3353411e-07 4.5714208e-07 5.450421e-07
000040 6c a3 c7 b4 70 78 98 35 62 e5 16 35 9f a0 90 35
       -3.7185544e-07 1.1359934e-06 5.621315e-07 1.0775583e-06
000050 cf ea a0 34 d9 c7 eb 34 4f 05 f7 b5 8e 43 3a 34
       2.9973168e-07 4.391757e-07 -1.8404479e-06 1.7347176e-07
000060 b0 33 b2 b4 85 40 66 b5 53 ba 3f b4 fb 40 86 35
       -3.319269e-07 -8.5775565e-07 -1.7856046e-07 1.000269e-06
000070 90 9b 57 b4 12 51 d4 34 7e de 96 b1 65 5f 3d b5
       -2.0080029e-07 3.9547064e-07 -4.390869e-09 -7.0546804e-07
000080 a3 da 3d b4 7b 86 87 34 ce bb 9d 35 43 35 b0 b4
       -1.7681536e-07 2.5243557e-07 1.175207e-06 -3.2821308e-07
000090 d7 62 b1 35 9a 44 01 35 73 83 99 b2 77 68 4b b5
       1.3216294e-06 4.8156073e-07 -1.787132e-08 -7.577541e-07
0000a0 0c ed f9 34 4d 79 19 35 cc 1f 18 34 10 c3 41 b5
       4.6552339e-07 5.717346e-07 1.4167671e-07 -7.2181956e-07
0000b0 b8 03 4f b5 c2 72 18 35 04 f3 c0 b5 a9 2d df b5
       -7.711892e-07 5.6791407e-07 -1.4375842e-06 -1.6628084e-06
0000c0 0e 3c a3 34 37 48 ee b1 35 7b 31 b5 af 41 dc 34
       3.0404811e-07 -6.9349215e-09 -6.611693e-07 4.1025984e-07
0000d0 5a 45 96 34 32 4a 95 b4 a8 f9 4d 33 42 f5 12 b5
       2.7990137e-07 -2.7807397e-07 4.7957343e-08 -5.4746135e-07
0000e0 0b 0c 5a 35 83 4c b6 34 f3 27 25 35 6e 9e 9a 35
       8.1228853e-07 3.395581e-07 6.1525424e-07 1.1520003e-06

exp_avg_sq f4 [30, 2]
000000 88 17 02 29 df ef 37 25 17 88 e6 29 c1 47 b9 28
       2.888621e-14 1.5953991e-16 1.02376597e-13 2.0570244e-14
000010 71 04 2f 2a 52 7b c1 29 13 78 0b 2a 88 39 e3 28
       1.5544663e-13 8.5923144e-14 1.2387339e-13 2.5227013e-14
000020 82 ec 09 2b 49 ff f2 2a 5f 1b 6c 2a 02 d8 5e 29
       4.90004e-13 4.3164975e-13 2.0970507e-13 4.948126e-14
000030 71 d3 07 29 a0 a3 75 29 3f 4a 6b 2a c9 3c a7 2a
       3.0159418e-14 5.454285e-14 2.0897952e-13 2.9707337e-13
000040 df af 1b 2a 10 9f b5 2b 43 e3 b1 2a 20 6a a3 2b
       1.3827783e-13 1.2904972e-12 3.159921e-13 1.1611302e-12
000050 01 4e ca 29 56 2a 59 2a 93 5b 6e 2c ba 8e 07 29
       8.9841336e-14 1.928816e-13 3.3872668e-12 3.0099817e-14
000060 6c 1c f8 29 05 1b 4f 2b 6b 9d 0f 29 7e d0 8c 2b
       1.1018343e-13 7.357867e-13 3.1888917e-14 1.0005467e-12
000070 2b 9a 35 29 9a 1a 30 2a 28 4a bc 23 4d 16 0c 2b
       4.0323793e-14 1.564117e-13 2.0414407e-17 4.976894e-13
000080 33 d0 0c 29 1e 82 8f 29 53 60 c2 2b 56 94 f2 29
       3.126683e-14 6.3730474e-14 1.3811264e-12 1.0772691e-13
000090 06 d5 f5 2b e6 8e 82 2a e3 85 b8 25 8e 9f 21 2b
       1.7467423e-12 2.3191795e-13 3.2009637e-16 5.7420117e-13
0000a0 94 ff 73 2a ed 04 b8 2a 52 e9 b4 28 a7 a9 12 2b
       2.1671407e-13 3.2688384e-13 2.0085201e-14 5.210506e-13
0000b0 45 68 27 2b 3f 91 b5 2a b4 6d 11 2c 15 91 42 2c
       5.947502e-13 3.2252844e-13 2.0666637e-12 2.7649595e-12
0000c0 23 2c d0 29 92 6c 6b 24 51 17 f6 2a 76 82 3d 2a
       9.244712e-14 5.1049465e-17 4.3714557e-13 1.6831835e-13
0000d0 63 6b b0 29 44 1f ae 29 f0 d2 25 27 52 ba a8 2a
       7.834599e-14 7.732576e-14 2.30127e-15 2.997208e-13
0000e0 8c ba 39 2b 01 d9 01 2a 67 19 d5 2a 0f c6 ba 2b
       6.598409e-13 1.153279e-13 3.7854027e-13 1.3271067e-12

max_exp_avg_sq f4 [30, 2]
000000 a9 4b 35 35 7e 8d 8a 35 dd 69 0e 34 2c 09 a8 35
       6.7537854e-07 1.0322981e-06 1.3263293e-07 1.2519645e-06
000010 4e 4a d0 34 92 aa 62 35 41 d4 27 36 e5 aa 82 37
       3.8797083e-07 8.4439773e-07 2.5008487e-06 1.5576787e-05
000020 ed 6b a5 34 b3 c5 b0 37 e6 96 00 34 29 6f 0d 36
       3.081217e-07 2.1072896e-05 1.1975825e-07 2.107534e-06
000030 c7 56 a5 34 60 5b 44 37 3e 0e 32 33 df d7 c5 35
       3.0796784e-07 1.1703785e-05 4.1456808e-08 1.474047e-06
000040 43 da 0d 35 b5 ea 39 37 6c 23 95 34 4a 37 ee 36
       5.2844206e-07 1.1081506e-05 2.7779186e-07 7.099389e-06
000050 58 68 c4 35 b3 1f 02 37 07 ce 17 33 bb 74 bd 35
       1.4633506e-06 7.755984e-06 3.5344808e-08 1.411557e-06
000060 4e dc ca 36 3a ea a9 38 ac 67 0c 36 a9 57 9e 38
       6.045716e-06 8.102176e-05 2.092197e-06 7.550355e-05
000070 68 dc 3f 35 7c 3f c5 36 dc 61 69 35 41 87 90 36
       7.147378e-07 5.878448e-06 8.694167e-07 4.30728e-06
000080 7a 7c 8c 34 41 dd 74 35 b1 e1 9a 36 6a 76 f3 37
       2.61676e-07 9.121905e-07 4.6158316e-06 2.9022998e-05
000090 46 44 24 33 5d 36 d1 34 1c e1 98 34 93 3b 98 37
       3.824632e-08 3.8968838e-07 2.8475995e-07 1.8147553e-05
0000a0 06 1f 87 34 e6 81 ff 36 3b a2 52 34 70 66 95 36
       2.5168282e-07 7.6147144e-06 1.9616793e-07 4.4524713e-06
0000b0 f4 43 b5 36 e0 a1 19 38 0d 5e 35 34 b4 fd 33 35
       5.402131e-06 3.66288e-05 1.6891154e-07 6.7051883e-07
0000c0 91 fe 92 34 02 99 8c 37 9c 5b 11 36 47 22 cb 38
       2.737984e-07 1.676055e-05 2.1660007e-06 9.686179e-05
0000d0 fa 39 94 34 18 ab 9a 36 ef 72 12 35 df 61 b5 37
       2.7609332e-07 4.6094756e-06 5.455649e-07 2.1622456e-05
0000e0 e0 ac a3 36 67 9a b8 37 32 ec 46 36 4f 53 45 38
       4.877904e-06 2.2006408e-05 2.9641783e-06 4.7046047e-05

exp_avg f4 [30]
000000 f4 56 b3 b1 53 51 3f 33 94 ff 2a b5 03 01 84 34
       -5.219471e-09 4.4544617e-08 -6.370185e-07 2.4587652e-07
000010 3e 57 8b b4 82 a4 76 34 d1 ed f7 33 26 58 b0 b4
       -2.5954245e-07 2.2970383e-07 1.1545092e-07 -3.284669e-07
000020 2b 4b e6 b4 6c a7 b5 b3 c6 e2 52 34 15 a5 38 34
       -4.289553e-07 -8.458923e-08 1.9640274e-07 1.7196392e-07
000030 4f 30 44 b4 43 21 ef b4 7b 6c f8 b3 4f 5f 20 33
       -1.8271497e-07 -4.454142e-07 -1.15681324e-07 3.7339586e-08
000040 21 55 cc b4 94 6a 51 35 b8 b9 44 b5 19 21 57 b4
       -3.80599e-07 7.801366e-07 -7.3285946e-07 -2.0035476e-07
000050 b5 ab cd 32 80 cb 19 b4 0b 2b 39 35 e9 da 92 b5
       2.3943224e-08 -1.4323268e-07 6.8980506e-07 -1.0941559e-06
000060 0c e4 af 33 87 5e 35 b4 a3 ee 5c 34 6f c5 db b3
       8.190554e-08 -1.6891327e-07 2.0575912e-07 -1.0233895e-07
000070 b3 11 6d 35 fb fb d7 b2
       8.8315136e-07 -2.5143882e-08

exp_avg_sq f4 [30]
000000 3f 69 09 24 11 6e 0f 27 b6 72 e4 2a 1c 24 88 29
       2.9796286e-17 1.9904904e-15 4.0580533e-13 6.045877e-14
000010 82 b0 97 29 d3 a4 6d 29 fd 2f 70 28 30 f3 f2 29
       6.736366e-14 5.2767534e-14 1.3333082e-14 1.0789145e-13
000020 73 2d 4f 2a 86 f6 00 28 f0 bf 2d 29 8f 34 05 29
       1.8401062e-13 7.158884e-15 3.8580196e-14 2.957752e-14
000030 ac 6c 16 29 88 62 5f 2a b1 2d 71 28 65 e2 c9 26
       3.340095e-14 1.9840564e-13 1.3388095e-14 1.4008541e-15
000040 fe 18 23 2a ba 4f 2b 2b 49 2d 17 2b d3 cd 34 29
       1.4485979e-13 6.0862047e-13 5.370882e-13 4.0146553e-14
000050 2f b6 25 26 18 e4 b8 28 b8 ef 05 2b cb 7e a8 2b
       5.749278e-16 2.0527024e-14 4.758377e-13 1.197231e-12
000060 c8 bb f1 27 6f 83 00 29 a6 ad 3e 29 44 b9 3c 28
       6.709453e-15 2.853571e-14 4.233909e-14 1.04762695e-14
000070 bf 8d 5b 2b 0e be 38 26
       7.800114e-13 6.4095396e-16

max_exp_avg_sq f4 [30]
000000 59 a2 7c 35 56 8f e2 34 58 ff 93 35 c7 8c 9a 36
       9.411356e-07 4.220007e-07 1.1026668e-06 4.6059463e-06
000010 9a 25 a5 34 76 30 bd 34 29 52 22 35 a7 80 fa 33
       3.0761004e-07 3.5239253e-07 6.046926e-07 1.1664934e-07
000020 13 c9 9c 35 c6 20 3f 35 82 40 50 36 21 c1 7e 33
       1.1681426e-06 7.1200736e-07 3.1031964e-06 5.9314633e-08
000030 67 1b 72 37 fa b2 a9 36 94 ef f5 35 d8 b3 0d 36
       1.4430704e-05 5.057428e-06 1.8323649e-06 2.111532e-06
000040 65 21 7d 35 ff ca 12 37 c4 b1 c6 33 19 62 2d 35
       9.429844e-07 8.749542e-06 9.252429e-08 6.4590273e-07
000050 e9 f4 02 35 5f 11 10 35 e7 08 1c 37 ed 75 07 35
       4.8785165e-07 5.366946e-07 9.300397e-06 5.0463024e-07
000060 61 96 4c 35 b3 05 3f 36 d4 93 0b 35 22 ed 9b 35
       7.621475e-07 2.8464535e-06 5.1996653e-07 1.1617415e-06
000070 79 92 66 37 21 f6 04 37
       1.3743172e-05 7.9251195e-06

exp_avg f4 [30, 30]
000000 02 e9 3a 34 e6 5b 6c 33 12 29 55 b5 50 03 29 34
       1.7407368e-07 5.5031613e-08 -7.940845e-07 1.5740557e-07
000010 ae a8 83 33 3c b4 8f b2 a1 e8 af 32 5c 71 9f 34
       6.1308455e-08 -1.6729352e-08 2.0478469e-08 2.9698538e-07
000020 29 87 29 b4 c8 75 d6 33 8f 39 2b b4 7d 66 2a b5
       -1.5788522e-07 9.986576e-08 -1.5946556e-07 -6.3479075e-07
000030 8e fe 1c b3 27 5e 6e b3 ac 0f ba b3 bf 04 1e 33
       -3.6553097e-08 -5.5499324e-08 -8.6641506e-08 3.679156e-08
000040 12 6f 17 b4 e8 c7 a0 34 3f 70 7e 35 9f 9e 1a b4
       -1.4103378e-07 2.9947773e-07 9.4785713e-07 -1.4400074e-07
000050 50 10 94 33 cb 11 75 33 67 f9 c5 33 b9 c0 8a b5
       6.894754e-08 5.705969e-08 9.2188934e-08 -1.0337891e-06
000060 4a 31 1e 34 36 90 18 b3 d6 a5 92 34 73 e4 a1 b3
       1.4732828e-07 -3.5521417e-08 2.731528e-07 -7.5387014e-08
000070 a0 a5 bc 32 2b 9b 8c 33 0e 71 1c 34 91 e9 76 b4
       2.1961398e-08 6.547483e-08 1.4569761e-07 -2.2995506e-07
000080 65 ee 69 33 e4 ef f3 b3 bd fa b1 31 6d 57 39 b2
       5.446636e-08 -1.1359205e-07 5.1798836e-09 -1.0788296e-08
000090 16 c0 92 b3 61 07 a2 33 49 18 96 b3 6e 5b cc b3
       -6.833595e-08 7.545055e-08 -6.989337e-08 -9.516121e-08
0000a0 9e 49 a1 b3 88 30 b5 33 c1 da 70 34 07 e5 57 31
       -7.5105376e-08 8.437297e-08 2.2431324e-07 3.1416805e-09
0000b0 71 1b 11 b4 fb 7e 1d 34 79 9e 62 b4 dc 49 24 b3
       -1.351416e-07 1.466796e-07 -2.1105542e-07 -3.82514e-08
0000c0 3a d3 0a b4 92 ae db 33 17 de 27 b4 bb fa e9 33
       -1.2929095e-07 1.0229736e-07 -1.5633883e-07 1.08955156e-07
0000d0 28 3d 45 b4 1d 3d 41 b4 71 a9 ae 33 d7 0c ff 33
       -1.8369303e-07 -1.7996759e-07 8.1333276e-08 1.18766984e-07
0000e0 03 c6 e8 b3 57 bb 04 34 f2 0d 88 34 b5 bf 6e b4
       -1.083936e-07 1.2361612e-07 2.534212e-07 -2.223522e-07
0000f0 87 6c bf b4 6a 4f 3d 34 78 30 36 b3 e8 81 05 b4
       -3.5655486e-07 1.7630887e-07 -4.241926e-08 -1.243385e-07
000100 39 c1 94 b4 a2 70 85 34 37 31 45 34 3c bd 39 34
       -2.7707736e-07 2.4855132e-07 1.8364959e-07 1.729831e-07
000110 eb 74 ef 33 e9 44 85 34 17 ee 81 34 be 70 85 34
       1.1150572e-07 2.482332e-07 2.4201356e-07 2.485521e-07
000120 a5 53 21 b3 a6 6d 80 34 99 ba 00 34 0f ea aa b3
       -3.7561808e-08 2.3921638e-07 1.1988813e-07 -7.958817e-08
000130 ca ad 8d 34 7b fc 18 b4 c5 37 db b4 f9 cb e0 34
       2.6389745e-07 -1.4247955e-07 -4.0832506e-07 4.187166e-07
000140 78 d1 d7 b3 e6 b7 98 b3 6d 20 37 34 39 48 01 33
       -1.004982e-07 -7.1115025e-08 1.7055e-07 3.010084e-08
000150 55 9b ad 33 94 39 e5 34 af a5 41 2f e0 bc b4 b3
       8.084195e-08 4.2696468e-07 1.761211e-10 -8.416259e-08
000160 cd 41 04 b4 e1 a3 40 32 bf 6d c2 33 28 1a 1d b4
       -1.2317396e-07 1.1213133e-08 9.053792e-08 -1.463128e-07
000170 2f a2 f4 31 58 49 84 b4 d6 48 92 34 19 98 9a b4
       7.1197728e-09 -2.464028e-07 2.7247614e-07 -2.87954e-07
000180 e5 64 64 34 b9 3e 8a b3 c1 ed 6d 34 15 de e1 32
       2.127086e-07 -6.437535e-08 2.215884e-07 2.6294439e-08
000190 2f 04 21 b4 83 f7 00 b5 8a ca 80 34 aa b1 c9 33
       -1.4995815e-07 -4.804389e-07 2.3989224e-07 9.392109e-08
0001a0 9f 39 59 34 09 17 8e 33 75 33 4a 33 a3 49 4b b4
       2.0230662e-07 6.61658e-08 4.707859e-08 -1.8932637e-07
0001b0 aa 72 65 34 7a bd a6 b4 4c 2f 0f 35 f6 c0 d4 32
       2.1369002e-07 -3.1057772e-07 5.334048e-07 2.4767797e-08
0001c0 25 e1 59 b4 04 b6 5e b1 d9 a6 3d 34 5f 11 da b4
       -2.0291607e-07 -3.2408716e-09 1.7662695e-07 -4.0618303e-07
0001d0 cd 5b 47 b4 f2 55 42 b4 01 12 7a 34 28 9a d1 b3
       -1.8566716e-07 -1.8098925e-07 2.3289614e-07 -9.760362e-08
0001e0 a3 1b 90 b4 9b 21 8f 34 48 e0 c4 b4 30 22 0c 35
       -2.6842199e-07 2.6660277e-07 -3.667103e-07 5.2203814e-07
0001f0 57 ff 06 34 39 2d a1 b3 63 6d 18 34 f8 a2 2d 35
       1.2572615e-07 -7.505373e-08 1.4195898e-07 6.4684673e-07
000200 07 b6 6e 33 4a 8d 05 35 7a 84 a4 34 11 b3 04 b5
       5.5579246e-08 4.9751964e-07 3.064377e-07 -4.943441e-07
000210 cd 19 76 b4 ad ce 42 31 a8 7e f7 33 e4 af 52 b4
       -2.2919922e-07 2.8348197e-09 1.15248724e-07 -1.9621763e-07
000220 ad ee 00 34 3f 4f 37 35 55 58 e0 34 c7 c4 a3 b4
       1.2007759e-07 6.828813e-07 4.178752e-07 -3.050429e-07
000230 40 7a 8f 34 da ae 42 b4 9a 70 24 35 2b 32 c1 b5
       2.6724774e-07 -1.8131269e-07 6.125862e-07 -1.4394221e-06
000240 df 11 b6 34 9a ac 1e b4 a2 fe 33 35 c3 df d8 b3
       3.3913145e-07 -1.4777689e-07 6.7053236e-07 -1.0098986e-07
000250 38 34 36 b4 81 e8 88 34 ad b2 50 b3 99 1d 24 34
       -1.6969068e-07 2.5501143e-07 -4.859128e-08 1.5284458e-07
000260 40 b7 1b b3 7f d8 05 33 c1 9b be 33 f5 da e4 b3
       -3.6255415e-08 3.1163378e-08 8.875896e-08 -1.06569054e-07
000270 23 20 3f 34 6b 0f e6 32 05 0f 85 34 1c 76 96 30
       1.7799952e-07 2.6782535e-08 2.478411e-07 1.0947505e-09
000280 57 74 af 33 38 1b da b2 22 d9 88 b3 63 d2 19 34
       8.1702346e-08 -2.5390918e-08 -6.37249e-08 1.4325774e-07
000290 8f 00 84 34 25 8b 37 b4 d9 e3 32 34 52 16 d6 32
       2.4587322e-07 -1.7093824e-07 1.6660432e-07 2.4923029e-08
0002a0 36 3c e8 33 0a 8d ed b3 72 c7 0d 34 ee 64 5a b4
       1.0814294e-07 -1.10618274e-07 1.3204206e-07 -2.033955e-07
0002b0 33 de e8 33 39 a0 11 b4 49 bf 9f 33 47 77 15 b4
       1.084376e-07 -1.3562466e-07 7.438809e-08 -1.3920099e-07
0002c0 aa 03 2b b2 7b 0a 3a b4 97 0e a8 b3 90 dd ff 33
       -9.954343e-09 -1.7326413e-07 -7.8257635e-08 1.1914665e-07
0002d0 21 60 dc 34 e1 2e 5e b4 97 6a 85 34 9f 8e 85 b4
       4.1048136e-07 -2.0692416e-07 2.4850735e-07 -2.487695e-07
0002e0 fe 74 05 b4 23 c2 e6 33 a1 45 c2 b3 dc bc 38 b4
       -1.2429152e-07 1.0745523e-07 -9.0464944e-08 -1.7205042e-07
0002f0 e0 f2 bd b4 88 27 24 b4 76 c3 b7 b4 f7 68 9c b4
       -3.5380708e-07 -1.5288072e-07 -3.4228623e-07 -2.9133636e-07
000300 0e 98 a8 31 ee 72 67 b4 f0 7f 95 b4 65 68 26 34
       4.90673e-09 -2.1555363e-07 -2.78465e-07 1.5497933e-07
000310 42 a3 b6 b4 f0 b3 91 b4 95 b4 3c b1 5d c1 53 34
       -3.4018927e-07 -2.7139276e-07 -2.746025e-09 1.9721251e-07
000320 b7 89 45 34 15 a4 20 34 fd 4d b9 b4 d6 65 28 34
       1.8397155e-07 1.4960854e-07 -3.451568e-07 1.5683267e-07
000330 c2 5c 2a b4 ef d8 0e 33 7f 01 65 b4 4a 77 06 34
       -1.5866229e-07 3.325925e-08 -2.1327831e-07 1.252312e-07
000340 fc cb c9 33 61 01 f8 b1 39 b8 24 35 25 94 ae b4
       9.3968964e-08 -7.2179067e-09 6.136284e-07 -3.2517815e-07
000350 4a 1b fa 31 a7 a7 df b4 5c c7 0c b3 bc 6d 27 b4
       7.27906e-09 -4.165897e-07 -3.2777606e-08 -1.5593008e-07
000360 86 25 2f 34 6d e2 1a b3 c0 8d 76 b4 4c 2a 9a b4
       1.6311796e-07 -3.6061852e-08 -2.2962104e-07 -2.871551e-07
000370 0e 34 da b4 1a 70 a9 34 96 a1 99 af c6 d3 ae af
       -4.064354e-07 3.1560268e-07 -2.7945352e-10 -3.180089e-10
000380 f1 35 1c b4 df 40 8c 33 7b d1 dc b4 e4 57 d8 b4
       -1.4548256e-07 6.531058e-08 -4.113061e-07 -4.0297084e-07
000390 e1 a2 06 b5 6a cf 97 b4 ab 55 7f b4 e0 ae 3f 33
       -5.015591e-07 -2.8276855e-07 -2.3779891e-07 4.46297e-08
0003a0 97 3b b2 b4 fd ed ea b3 f6 13 39 b4 11 de a8 b2
       -3.319844e-07 -1.0939764e-07 -1.723673e-07 -1.9658758e-08
0003b0 47 75 89 b4 c5 68 3b b3 e0 00 0e 34 e4 92 c5 b2
       -2.560357e-07 -4.3634618e-08 1.3225099e-07 -2.3000617e-08
0003c0 cd 8c 73 34 17 32 22 b4 7e a5 05 34 03 c1 f5 b3
       2.2682362e-07 -1.5105648e-07 1.2446796e-07 -1.144381e-07
0003d0 e3 31 b7 b2 30 a2 9c 32 b0 c1 bb b3 c3 31 db 32
       -2.132669e-08 1.8234545e-08 -8.7430976e-08 2.5517584e-08
0003e0 2d 1e aa b4 4c f8 ed 32 40 7c 35 b4 b7 a5 ea b4
       -3.1686923e-07 2.7703344e-08 -1.690214e-07 -4.370647e-07
0003f0 75 8e 8a b3 88 08 2f b4 c4 0b 88 b4 d3 f9 e3 33
       -6.4520385e-08 -1.6301249e-07 -2.5340535e-07 1.0615954e-07

exp_avg_sq f4 [30, 30]
000000 cc 79 08 29 00 50 5a 27 b0 7d 31 2b 01 30 df 28
       3.0303708e-14 3.0296946e-15 6.305746e-13 2.4778792e-14
000010 d1 77 87 27 34 f2 a1 25 49 dd f1 25 0a 9d c6 29
       3.7599932e-15 2.809317e-16 4.1956784e-16 8.820208e-14
000020 09 88 e0 28 c4 ac 33 28 ae 10 e5 28 b1 d9 e2 2a
       2.4927992e-14 9.973959e-15 2.5431341e-14 4.0296718e-13
000030 44 be c0 26 0e f4 5d 27 3e 3b 07 28 f2 1c c3 26
       1.3374248e-15 3.0802213e-15 7.5068515e-15 1.3538689e-15
000040 24 2a b3 28 ac f6 c9 29 9d e3 7c 2b 81 c8 ba 28
       1.9891268e-14 8.968984e-14 8.984426e-13 2.0737103e-14
000050 0c 57 ab 27 ef 9f 6a 27 96 26 19 28 ed 68 96 2b
       4.755641e-15 3.2560724e-15 8.501573e-15 1.0687264e-12
000060 29 87 c3 28 41 e7 b5 26 eb 03 a8 29 da cb cc 27
       2.1707965e-14 1.2622079e-15 7.4613784e-14 5.684239e-15
000070 16 34 0c 26 b0 7b 9a 27 ce 38 bf 28 81 27 6e 29
       4.8642847e-16 4.287769e-15 2.1229895e-14 5.288088e-14
000080 db 16 56 27 6b 82 68 28 88 e8 0a 24 de 27 0a 25
       2.9710856e-15 1.2906867e-14 3.012094e-17 1.19831e-16
000090 37 44 a8 27 ea 3c cd 27 55 10 b0 27 a6 2d 23 28
       4.6703326e-15 5.6964973e-15 4.886752e-15 9.058216e-15
0000a0 cc 4a cb 27 d4 51 00 28 ac 9c 62 29 86 d5 4d 23
       5.6424913e-15 7.123171e-15 5.0317972e-14 1.1158288e-17
0000b0 9d 84 a4 28 03 cc c1 28 0d a0 48 29 67 6c d3 26
       1.826517e-14 2.151578e-14 4.4547743e-14 1.4670449e-15
0000c0 78 9a 96 28 e1 91 3c 28 d8 29 dc 28 aa dc 55 28
       1.6720336e-14 1.0467729e-14 2.4443053e-14 1.1871724e-14
0000d0 46 fc 17 29 3c e2 11 29 a9 7a ee 27 f0 23 7e 28
       3.3747548e-14 3.2392695e-14 6.619126e-15 1.4107625e-14
0000e0 a1 b5 53 28 24 aa 89 28 fc 9e 90 29 41 aa 5e 29
       1.1752237e-14 1.5283842e-14 6.422464e-14 4.9441574e-14
0000f0 a9 23 0f 2a fc fe 0b 29 39 af 01 27 4b 41 8b 28
       1.2713324e-13 3.1085364e-14 1.7997335e-15 1.5460416e-14
000100 1a e0 ac 29 9c 1c 8b 29 e3 e4 17 29 93 c3 06 29
       7.67721e-14 6.177803e-14 3.3727263e-14 2.992361e-14
000110 cc fc 5f 28 61 c1 8a 29 57 e4 83 29 e9 1d 8b 29
       1.2433803e-14 6.161977e-14 5.857179e-14 6.1780286e-14
000120 9e 64 cb 26 ad db 80 29 24 77 81 28 f1 39 e4 27
       1.4113227e-15 5.7224496e-14 1.4373546e-14 6.3345533e-15
000130 6d d2 9c 29 59 da b6 28 14 b9 3b 2a b4 65 45 2a
       6.964295e-14 2.0300752e-14 1.6673148e-13 1.75324e-13
000140 d7 f2 35 28 48 37 b6 27 71 00 03 29 c0 a1 82 26
       1.0100176e-14 5.0575084e-15 2.9088226e-14 9.064405e-16
000150 ad 7c eb 27 1e 40 4d 2a 56 74 d1 20 1f 38 ff 27
       6.5360776e-15 1.8229903e-13 3.5482962e-19 7.0837564e-15
000160 fe a8 88 28 42 5b 11 25 9b ba 13 28 fa d6 c0 28
       1.5172322e-14 1.2607665e-16 8.200603e-15 2.1409513e-14
000170 eb ea 76 24 42 b9 88 29 8d 2f a7 29 da b8 ba 29
       5.354173e-17 6.0717504e-14 7.4245386e-14 8.292126e-14
000180 fd c4 4b 29 55 70 95 27 12 27 5d 29 34 03 48 26
       4.5245915e-14 4.14776e-15 4.9105746e-14 6.939328e-16
000190 eb 93 ca 28 d7 f1 81 2a 3b 98 81 29 b8 f7 1e 28
       2.2490654e-14 2.3082813e-13 5.7551586e-14 8.824477e-15
0001a0 43 57 38 29 06 d8 9d 27 7a 29 20 27 c1 71 21 29
       4.0931895e-14 4.3810467e-15 2.2226945e-15 3.5847847e-14
0001b0 96 ae 4d 29 90 35 d9 29 f4 2b a0 2a ff a0 31 26
       4.5670573e-14 9.6460275e-14 2.8452208e-13 6.16274e-16
0001c0 9b 73 39 29 b2 79 7d 23 27 84 0c 29 2e c2 39 2a
       4.1178524e-14 1.37409275e-17 3.120087e-14 1.649867e-13
0001d0 0f 43 1b 29 c2 88 13 29 dd 48 74 29 8e ad 2b 28
       3.4475078e-14 3.2759175e-14 5.4242082e-14 9.5300405e-15
0001e0 78 3e a2 29 58 0d a0 29 e0 68 17 2a e3 6b 99 2a
       7.205082e-14 7.107742e-14 1.344788e-13 2.725312e-13
0001f0 65 61 8e 28 c2 f8 ca 27 62 84 b5 28 6d 8b eb 2a
       1.5807405e-14 5.6335967e-15 2.0152449e-14 4.1841132e-13
000200 28 9b 5e 27 78 58 8b 2a 5e 74 d3 29 ac 93 89 2a
       3.08928e-15 2.4752748e-13 9.390469e-14 2.4438557e-13
000210 1f 96 6c 29 56 c8 16 23 ca 46 6f 28 59 65 2d 29
       5.2532736e-14 8.173939e-18 1.3282515e-14 3.8501622e-14
000220 11 e0 81 28 3a 43 03 2b 6d 9d 44 2a 5e 88 d1 29
       1.441905e-14 4.6633845e-13 1.7462915e-13 9.3051204e-14
000230 e7 d3 a0 29 d9 0d 14 29 36 41 d3 2a b9 cc 11 2c
       7.1421866e-14 3.2874612e-14 3.7526378e-13 2.0719383e-12
000240 93 7d 01 2a 6c b3 c4 28 20 1d fd 2a ff bb 37 28
       1.1501069e-13 2.1838183e-14 4.4962038e-13 1.0199306e-14
000250 d7 ae 01 29 00 70 92 29 76 52 2a 27 15 6f d2 28
       2.8795403e-14 6.5031314e-14 2.3636941e-15 2.3362858e-14
000260 32 ab bd 26 5b 2a 8c 26 a1 f1 0d 28 84 9c 4c 28
       1.3160912e-15 9.725932e-16 7.879467e-15 1.1358214e-14
000270 6d b1 0e 29 98 30 4f 26 ca 53 8a 29 11 73 25 22
       3.1684226e-14 7.188341e-16 6.142966e-14 2.2422585e-18
000280 c6 92 f0 27 92 c2 3a 26 61 53 92 27 f5 e0 b8 28
       6.6772514e-15 6.4795405e-16 4.061354e-15 2.0525663e-14
000290 ec 22 88 29 f7 98 03 29 47 09 fa 28 3f 7d 33 26
       6.045671e-14 2.922052e-14 2.7759599e-14 6.227284e-16
0002a0 69 b7 52 28 d2 74 5c 28 86 0c 9d 28 b1 50 3a 29
       1.16971125e-14 1.2237785e-14 1.7435933e-14 4.1370285e-14
0002b0 6a da 53 28 a5 b2 a5 28 99 6c c7 27 70 8a ae 28
       1.1760214e-14 1.8396155e-14 5.5351337e-15 1.9377918e-14
0002c0 ac 8b e7 24 02 37 07 29 11 b3 dc 27 40 bd 7f 28
       1.00416894e-16 3.0023733e-14 6.125641e-15 1.4196381e-14
0002d0 1c b7 3d 2a 63 d9 40 29 0b 14 8b 29 8b 5f 8b 29
       1.6850101e-13 4.2821117e-14 6.176317e-14 6.189414e-14
0002e0 84 32 8b 28 c8 19 50 28 31 70 13 28 a8 58 05 29
       1.5454008e-14 1.155191e-14 8.184467e-15 2.960883e-14
0002f0 72 f1 0c 2a 3e 90 d2 28 ad ea 03 2a 0a 26 bf 29
       1.2518266e-13 2.3377239e-14 1.1716557e-13 8.4887026e-14
000300 86 9b ec 23 c8 42 51 29 fe 9d ae 29 8c 5b d8 28
       2.5653038e-17 4.6465246e-14 7.7545595e-14 2.402052e-14
000310 86 4d 02 2a a8 df a5 29 1e f4 a4 23 35 2d 2f 29
       1.1573216e-13 7.36627e-14 1.7884303e-17 3.8897017e-14
000320 e7 6e 18 29 60 9f c9 28 54 24 06 2a 95 a0 dd 28
       3.3846972e-14 2.23846e-14 1.1914195e-13 2.460557e-14
000330 91 d0 e2 28 1e c6 9f 26 70 e3 4c 29 11 4b 8d 28
       2.5181492e-14 1.1086541e-15 4.549437e-14 1.56867e-14
000340 0a 1e 1f 28 e4 98 75 24 39 fa d3 2a 2b 1f ee 29
       8.832787e-15 5.325541e-17 3.7654756e-13 1.057473e-13
000350 09 ff 91 24 3e 67 43 2a 66 4a 9b 26 b5 07 db 28
       6.331577e-17 1.7355299e-13 1.0775451e-15 2.4317227e-14
000360 14 aa ef 28 69 11 bc 26 54 77 6d 29 82 af b9 29
       2.660809e-14 1.304984e-15 5.2728072e-14 8.246096e-14
000370 58 fe 39 2a 25 4d e0 29 24 a0 65 22 d7 94 af 21
       1.6519544e-13 9.960981e-14 3.1120065e-18 1.1897859e-18
000380 d7 a9 be 28 b2 c2 99 27 6f 7a 3e 2a 59 d6 36 2a
       2.1167894e-14 4.267712e-15 1.6917868e-13 1.6239214e-13
000390 8a 9e 8d 2a cf 0d b4 29 d1 ac 7e 29 9c a1 0f 27
       2.515664e-13 7.996001e-14 5.6549224e-14 1.9932845e-15
0003a0 60 31 f8 29 07 ae 57 28 42 d3 05 29 cd 78 df 25
       1.10219776e-13 1.1972634e-14 2.971517e-14 3.876619e-16
0003b0 36 a0 93 29 9a 69 09 27 76 96 9d 28 13 10 19 26
       6.5559036e-14 1.9069816e-15 1.7495754e-14 5.3104323e-16
0003c0 8e bb 67 29 e5 94 cd 28 27 a1 8b 28 c0 18 6c 28
       5.145498e-14 2.2824145e-14 1.5501989e-14 1.31059985e-14
0003d0 74 42 05 26 d0 99 c3 25 96 b6 09 28 7c f2 3e 26
       4.6233705e-16 3.3931335e-16 7.64462e-15 6.624812e-16
0003e0 3c 1b e2 29 58 34 5f 26 c9 af 00 29 b4 17 57 2a
       1.00411406e-13 7.7439606e-16 2.857418e-14 1.910406e-13
0003f0 de 17 96 27 81 63 ef 28 e9 9a 90 29 20 0f 4b 28
       4.165924e-15 2.6577483e-14 6.421757e-14 1.1272043e-14
