paper/Burgers/runs/random_grid_noise_20/random_grid40checkpoint.pt (torch, 59607 bytes, 36 tensors)

func_approx.network.0.weight f4 [30, 2]
000000 65 2d 14 bf b7 8c f1 3e f9 4e 09 3f 92 40 a6 bd
       -0.57881767 0.4717767 0.5363613 -0.081177846
000010 fc bd 01 bf 78 a9 29 bf 15 ec af bf 11 62 cd be
       -0.5068052 -0.66274214 -1.3743922 -0.4011388
000020 f8 a9 b6 be 20 7c 4b 3f b8 1a ea 3e 5e be e1 3c
       -0.3567655 0.79486275 0.4572351 0.027556594
000030 15 9f 26 be 6b 90 3d 3f 7a f1 f9 3e 8f d7 3b bf
       -0.16271622 0.7404849 0.48817044 -0.7337579
000040 89 5b 15 bf ee 64 5d bf 32 2f 1c 3f 85 af 21 bf
       -0.58342797 -0.8648213 0.61009514 -0.63158447
000050 25 62 02 3f 7c 1a de 3e d8 22 05 3f 41 c3 49 3f
       0.50931007 0.4337958 0.5200629 0.7881356
000060 00 ed ed 3e 23 13 51 3f 57 36 23 3f f6 2f 6b be
       0.4646988 0.81669825 0.6375479 -0.22967514
000070 b6 e8 4e bf 4c b4 39 be f4 c0 40 3f 99 0d 1c bf
       -0.8082384 -0.18135184 0.75294423 -0.6095825
000080 9a 91 4c 3f 5f 4f 88 3e 12 e0 ef bd e6 3a 94 3e
       0.7990967 0.26623055 -0.1171266 0.28951186
000090 75 66 85 bf 2b 01 20 bd 47 b4 13 be 86 f2 48 bf
       -1.0421892 -0.039063614 -0.14424239 -0.7849506
0000a0 2d 78 fe be 73 40 ac be f4 08 b4 3e 00 99 a4 be
       -0.49701062 -0.3364292 0.3516308 -0.3214798
0000b0 bd ed 11 bf 79 5b 31 3f 16 db da 3e 93 d5 d0 be
       -0.57003385 0.692802 0.42745274 -0.40787944
0000c0 b8 a7 0f bf be 20 46 3f ae 84 a8 3e aa ca 22 bf
       -0.56115294 0.7739371 0.32913727 -0.6359049
0000d0 9c a3 54 bf 6f 23 13 3f 57 c9 97 bf 40 60 8f be
       -0.8306215 0.5747594 -1.1858319 -0.2800312
0000e0 cb e2 4e bc 9c b4 1c bf e5 a7 7d 3f b6 93 dd be
       -0.012627314 -0.6121309 0.9908431 -0.43276757

func_approx.network.0.bias f4 [30]
000000 13 b3 0a be ef 3b d4 3e b9 0f 56 be b3 47 74 3c
       -0.13544874 0.41451976 -0.20904435 0.014909673
000010 2d ae 02 bf cb 4d a6 3c 3f b7 2a bf 7a e4 27 3e
       -0.5104702 0.020300766 -0.6668586 0.1639575
000020 74 04 96 be 5f a8 08 3e ca 2e 67 3e d5 87 d0 3d
       -0.29300272 0.13345478 0.22576442 0.10182158
000030 1f bb 10 3f c1 61 b4 be 58 d2 e3 3d 14 66 98 3d
       0.56535524 -0.3523083 0.11124104 0.07441345
000040 74 c9 03 3f 38 49 aa be 7f b0 8a bd 5c 1d 70 bd
       0.5147927 -0.33258986 -0.06771945 -0.05862175
000050 4c 28 17 bf d8 b8 4b 3e 3d d9 9f 3e 1b ff c3 3e
       -0.59045863 0.19894731 0.31220427 0.38280568
000060 b6 05 98 3e 68 06 b6 3e fa 24 10 3d 00 3d 9c bd
       0.29691857 0.35551763 0.035191514 -0.07628822
000070 b2 e1 13 bf 33 d2 53 bc
       -0.5776626 -0.012928533

func_approx.network.2.weight f4 [30, 30]
000000 b9 ef 9f 3d f8 ee 31 be 89 43 db 3d 40 61 7a 3e
       0.07809395 -0.17376316 0.10706241 0.2445116
000010 24 74 91 3d 3c 64 9b be a2 25 91 bd ff 6a 16 3d
       0.0710223 -0.3034991 -0.07087256 0.036723133
000020 c8 04 c5 3d eb 67 a0 bd bc 55 c4 3d a7 df f1 bd
       0.096200526 -0.07832321 0.09586665 -0.118102364
000030 55 6a 0d 3e 93 c8 a0 be 12 3a a5 3e 71 ee 95 be
       0.13810094 -0.31403026 0.32270867 -0.2928348
000040 26 b6 ff bd ca 20 14 bd db 0c 83 3d 26 8f 77 bd
       -0.12485914 -0.036164083 0.06398936 -0.06043925
000050 3a f2 d5 3c 65 86 91 be 44 77 9d 3d a9 e6 5c be
       0.02611648 -0.28422847 0.07688764 -0.21572365
000060 c1 5c c2 bc 8d 26 d2 3d 42 1a a4 3e ef c4 ca 3d
       -0.02372587 0.10261259 0.32051283 0.09900843
000070 4d 79 ca bd fd 26 de bd c4 44 92 3e 08 38 34 bd
       -0.098864175 -0.1084728 0.2856809 -0.043998748
000080 91 59 97 3d 68 dc 5a 3e 96 8a 02 3e 39 af 96 be
       0.0739013 0.21373141 0.12748179 -0.2943056
000090 54 34 23 be d4 2d d0 3c 70 f4 31 bd 98 6a d4 bd
       -0.1593793 0.025412478 -0.043446004 -0.10371894
0000a0 4c d3 89 3c 6f 71 44 3e a3 1c 93 3d 7a d9 38 be
       0.016824387 0.19183896 0.071831964 -0.1805171
0000b0 62 5f 1c 3d 4b 90 8d 3c 05 8c 0c be f8 c0 2c 3e
       0.0381769 0.017280718 -0.13725288 0.16870487
0000c0 ae e1 ae bd 21 93 56 bd f2 b2 af 3d d3 8e df bd
       -0.08539139 -0.052386407 0.08579053 -0.109159134
0000d0 b4 2a 55 3e 5f a6 5a be 43 19 a7 3e b9 fb 2c be
       0.20817071 -0.21352528 0.3263646 -0.168929
0000e0 78 1b ab 3e 68 7d 5b 3d d7 ae d5 bd 5d dd 52 bd
       0.33419394 0.053586394 -0.10433739 -0.05148064
0000f0 ea a3 ce bd a5 9d 20 3e 13 29 aa 3d 6f b0 8c be
       -0.10089858 0.15685137 0.083086155 -0.27478358
000100 3b 4c 5b bd 40 3e 1e 3e 8f 89 38 be 4b 62 5c 3e
       -0.053539496 0.15453434 -0.18021224 0.21521871
000110 6f 49 0b be be 9c 86 3d 80 5a ba bd ac 94 ce 3c
       -0.13602231 0.06572865 -0.09099293 0.025217377
000120 8e 20 19 be f1 57 b5 bd 83 88 9c bc 6c 83 96 3d
       -0.14953825 -0.08854664 -0.019108063 0.073492855
000130 89 95 98 bc 75 bf a2 3c ba d1 b6 3c 7c f8 2c bd
       -0.018625991 0.019866684 0.022316802 -0.04222916
000140 2f 88 1d be 7a 0e 1c 3e 38 8b 9e be 0e 00 0a 3c
       -0.15383981 0.15239897 -0.3096559 0.008422865
000150 22 82 25 be 46 44 1a 3e d0 17 cc be a7 35 38 be
       -0.16162923 0.15065107 -0.39861917 -0.17989217
000160 36 8b b5 3a e4 c0 81 3e 53 ca 10 be b7 16 0f 3d
       0.0013850692 0.25342476 -0.1413968 0.034933772
000170 80 f5 35 be c0 fd 3f be 61 ac 9e 3d 76 5d 2a bd
       -0.17769432 -0.18749142 0.077477224 -0.041593038
000180 82 07 02 be 79 09 83 be 75 4c b1 be f4 d2 18 bd
       -0.12698177 -0.25593165 -0.34628645 -0.037310556
000190 8c a9 3a 3d 41 b4 6a 3e 20 b1 98 3e 97 a7 e3 3c
       0.04557185 0.22920324 0.29822636 0.027789874
0001a0 1f 6f bb bc 14 ed 9e bd 8d 7d a7 bc 13 aa 12 3e
       -0.022880135 -0.07760063 -0.02044561 0.1432269
0001b0 51 bc 04 3e 14 7d 40 be 89 b8 37 be 9a 6b 7d be
       0.12962462 -0.18797714 -0.17941488 -0.24748078
0001c0 48 2d 20 3e dd 5b 14 3d a2 83 23 3d 93 7a e6 bc
       0.15642273 0.03622042 0.039920457 -0.02813462
0001d0 2b c9 93 ba 7e 8d 35 be 58 5b 81 be 27 fb 66 be
       -0.0011275163 -0.17729756 -0.25265002 -0.22556745
0001e0 12 dd 2e be a5 4e 06 3e 35 a3 19 bb e5 98 82 3e
       -0.17076519 0.13115938 -0.0023443226 0.25507274
0001f0 4b 0d 19 be 86 c9 e8 bd 3f 17 50 be 50 b0 da 3d
       -0.14946477 -0.113665625 -0.20321368 0.1067816
000200 c6 3a 84 3e 0f e3 32 bc a7 d6 04 be 63 18 93 bd
       0.2582609 -0.010918393 -0.12972508 -0.07182386
000210 ce 92 bd 3d a7 e6 33 3d 51 bf a7 3e 05 b4 42 3e
       0.092565164 0.04392114 0.3276315 0.19013985
000220 9e be 2c 3d 10 e6 cb bd f7 2f 29 3e 00 ab 2d 3e
       0.042173974 -0.0995599 0.16522203 0.16959763
000230 3e 57 57 3e b0 7c ac 3c 3f c3 b2 bc 55 21 e7 3d
       0.21029374 0.02105555 -0.021821616 0.112856545
000240 2a 3b 83 3c b2 6c 39 3e af e4 04 be f3 cd b2 3d
       0.016019423 0.1810787 -0.12977861 0.08730688
000250 04 e0 25 3e 38 60 77 3e e6 3f 26 be a5 07 28 be
       0.16198736 0.24157798 -0.16235313 -0.16409166
000260 6c 41 1c 3e c5 80 62 3d 6f 89 8c bc 71 d6 30 3d
       0.15259331 0.055298585 -0.017155377 0.043173257
000270 c4 4e 0b be 90 0b 5b 3e 1d f2 6d 3e 2c f7 bd 3e
       -0.13604265 0.2139113 0.2323689 0.3710264
000280 9d 76 b7 bd a6 d9 d9 bc d0 04 c4 bc 31 aa 4b 3e
       -0.089581706 -0.02659304 -0.023928076 0.19889142
000290 e0 f5 c7 3e 3f cf 9b 3e 4a b4 d9 3b 93 84 3c be
       0.39054775 0.30431554 0.0066438066 -0.18409948
0002a0 85 7c 62 3d 66 00 90 3e 71 e1 69 3e 8c 5e f6 bc
       0.055294532 0.28125304 0.22839905 -0.03007438
0002b0 be 17 83 bd 51 8b 6b 3e d6 38 b8 bd 49 42 87 3e
       -0.06401013 0.23002364 -0.089952156 0.2641776
0002c0 df 2e b3 be 09 28 9e 39 9a 00 93 3e f2 70 c7 3d
       -0.34996697 0.00030165937 0.28711396 0.097383395
0002d0 cf e6 4d 3e 91 57 eb bd d6 23 4d 3e 9e 93 3d 3f
       0.20107578 -0.11491311 0.20033202 0.7405337
0002e0 f5 96 51 3d c8 a9 18 bf 4c f7 a1 bc ee b3 45 be
       0.051169354 -0.59634066 -0.01977124 -0.19306919
0002f0 de 65 01 3e e7 08 7e be c1 55 9d bd 44 cb 6b be
       0.12636515 -0.24808083 -0.07682372 -0.23026758
000300 ba a4 31 be 85 de b8 be 57 1e 98 3f 1a 98 fd be
       -0.17347994 -0.3610727 1.1884259 -0.49530107
000310 1b 7a 0b be be 13 b8 bd fc d4 0b 3f 6d 86 79 bb
       -0.13620798 -0.089881405 0.54621863 -0.0038074509
000320 7a 37 cd bc b7 fb 56 bd ab af 57 3e a5 70 5c be
       -0.025050867 -0.052486148 0.21063106 -0.21527345
000330 fd d3 2b 3e 71 bf 6e be 09 62 81 3e 6f a0 1e 3f
       0.16780086 -0.23315217 0.25270107 0.6196355
000340 da 15 0b be de 70 01 bf 4d 41 1a be 8a 75 94 bc
       -0.13582554 -0.50562847 -0.15063973 -0.018122453
000350 30 72 f4 3d 1a 31 de bd 59 a5 6c bd af 66 07 3d
       0.11935842 -0.10849209 -0.057774875 0.03305691
000360 3f 32 04 3d dd ac 8f 3e c9 0a 22 3c f7 9d 9b 3e
       0.03227448 0.28061572 0.009890267 0.30393955
000370 38 ff 4b bd 7e 63 53 be e8 c0 92 3d 04 61 76 3e
       -0.049803942 -0.20643422 0.071657 0.24060446
000380 85 2c b0 3c f5 27 e2 3c 2c fb 01 3d 8f d6 7a 3d
       0.021505604 0.027606944 0.031733677 0.061239775
000390 19 36 15 3d 8d 67 af 3c 6f f9 74 bd b9 6f 00 3d
       0.036428545 0.021411682 -0.05980819 0.031356547
0003a0 d8 cd 9c be 12 c4 b7 3d b1 1f b9 be 71 11 a9 3c
       -0.30625796 0.08972944 -0.3615699 0.0206382
0003b0 b7 f7 ce be 80 0a e9 bd c7 08 6a 3e f7 65 9c 3e
       -0.40423366 -0.11378956 0.22854911 0.30546543
0003c0 c1 2a 95 3e cb 41 4b be f5 61 e5 3d 4a 0a fd 3e
       0.2913418 -0.19849317 0.112003244 0.49421912
0003d0 33 db 82 3e 9a 18 05 bf 28 6e cb 3d 94 d0 53 be
       0.2555786 -0.51990664 0.0993312 -0.20685035
0003e0 b9 78 f3 bd 60 0f c3 be 83 c0 24 bd 1c 73 9e 3b
       -0.118882604 -0.38097668 -0.040222656 0.0048354995
0003f0 a2 23 a3 3d 1a c6 c2 be 2b e9 77 3f 7e 20 d2 be
       0.07965781 -0.38041764 0.9684016 -0.41040415

func_approx.network.2.bias f4 [30]
000000 66 ec 10 be 9a ed 86 3d 7a b6 13 be 05 86 c3 3d
       -0.14152679 0.06588288 -0.14425078 0.095470466
000010 51 c9 af bd 26 52 25 bd 23 26 c5 3d ea 15 03 3d
       -0.0858332 -0.040361546 0.096264146 0.03200332
000020 85 99 9e bc d3 a9 8e 3d c3 47 f3 3d a6 f7 20 bd
       -0.019360313 0.06965985 0.11878922 -0.039298676
000030 5e 4d 00 3d 3c 40 a1 3c b7 4a 5c bc d0 2d c9 bd
       0.031323783 0.01968395 -0.013445548 -0.09823191
000040 8e 40 aa bd 54 17 d4 3d f0 79 74 3c b3 78 2f 3e
       -0.08313094 0.10356012 0.01492165 0.17135887
000050 11 96 54 be b3 12 8c bc 1b 40 c1 bc 08 cf 07 3d
       -0.20760371 -0.01709876 -0.023590138 0.033156425
000060 65 2f f9 bb 39 2c 2a be 91 92 22 be 3a 93 94 3d
       -0.007604527 -0.16618432 -0.15876223 0.07254644
000070 11 f1 67 3e 54 4a ae 3d
       0.22650553 0.08510271

func_approx.network.4.weight f4 [30, 30]
000000 e1 52 81 3e 51 b4 13 3e 64 84 f0 bd 8b 24 45 be
       0.25258544 0.14424254 -0.117440015 -0.19252221
000010 30 44 0d 3e f2 d6 7d 3e d4 bc 7d 3e 02 42 85 bd
       0.13795543 0.24789026 0.24779063 -0.065067306
000020 b4 3e d2 3d 4f 48 31 be 4f 6a 8b 3d d1 66 04 3e
       0.10265866 -0.1731274 0.06807386 0.12929846
000030 eb 4d 8e 3e 54 0c 10 be 88 a1 81 be a5 d0 84 bd
       0.27793822 -0.14067203 -0.2531855 -0.06485108
000040 e6 d4 21 3e 79 a0 8b 3e 7e 84 00 3e 53 ba 4c be
       0.1580387 0.27270868 0.12550542 -0.19992952
000050 9a bb 0d 3f 76 2a 5b 3e b2 2b 72 3e e3 8c fa 3d
       0.5536438 0.21402916 0.23649481 0.12233903
000060 77 b6 a3 be 3e 90 07 3a 0e a9 86 3d 99 8a 57 be
       -0.31975147 0.0005171335 0.065752134 -0.21048965
000070 35 1d 17 be da 6c 00 3e c2 3e 4d 3d 76 9d 4a 3e
       -0.14757235 0.12541524 0.05010868 0.19786629
000080 63 ed 26 3c c2 ac a1 3d dc 1c cd 3d 16 70 a8 3d
       0.010188433 0.07894279 0.1001527 0.08224504
000090 ab aa 2b be eb e3 bc bd 49 6e 03 3e 47 12 8f bd
       -0.16764323 -0.092231594 0.12835039 -0.06985908
0000a0 77 b3 77 bd 87 2d 1e 3e 2c 05 91 3d fb 74 64 3d
       -0.060473885 0.15447055 0.070810646 0.055775624
0000b0 61 0e 00 3e 3b 67 50 3e bf 11 62 3d 0b 89 ab bd
       0.12505485 0.2035188 0.055192705 -0.08375748
0000c0 1c 89 42 3e 7d b2 8c bd d6 10 5d 3e 00 e2 ed bc
       0.18997616 -0.068699814 0.21588454 -0.02903843
0000d0 83 3f 91 3d 2b 97 3c be 9e cf b2 bc 2c 99 04 be
       0.07092192 -0.18417041 -0.021827515 -0.12949055
0000e0 ac 1d 0e bc a4 d8 c2 3d f0 11 4a 3e 61 d5 26 3c
       -0.0086740665 0.09513977 0.19733405 0.010182709
0000f0 1d 40 54 3e 96 bc d3 3e 1f 9d 2c be bd 07 2c 3e
       0.20727582 0.41354817 -0.16856812 0.16799827
000100 95 59 25 bc d0 20 f4 be d1 22 13 3f fb 34 06 bf
       -0.010092159 -0.47681284 0.57475 -0.5242459
000110 83 02 4b 3e 36 f9 2a be a6 e6 08 3f 6a cc 0c 3e
       0.19825177 -0.16696629 0.5347694 0.13749853
000120 0c 1b 18 3f 39 10 29 3e ce 34 d5 3d c3 da 5d be
       0.5941627 0.16510095 0.10410462 -0.21665482
000130 76 69 c9 be 58 ad 3b 3d a1 de 5d 3e 16 e9 da 3d
       -0.39338273 0.04581961 0.21666957 0.10688989
000140 c7 ba 9c 3e af fc e0 be 7f 61 18 3f 71 4a e0 bd
       0.3061125 -0.43942782 0.5952377 -0.109516986
000150 49 9c 9f 3e c6 83 8b be f7 35 ff 3d 6f 1c 1a 3e
       0.31173924 -0.27248973 0.12461465 0.15049909
000160 15 88 be 3d 2f bc 27 bd 4a af 1e 3e b8 72 37 3c
       0.09303299 -0.04095095 0.15496555 0.011196785
000170 cc ca f7 3d 14 15 f0 bd be 89 11 3e d0 8a 15 3e
       0.12099227 -0.1172277 0.142127 0.14603734
000180 3d cd 7f be 32 02 88 3e b7 d2 95 be 91 80 c2 3d
       -0.24980636 0.26564175 -0.29262325 0.09497178
000190 40 b6 98 bd a4 17 e8 3d 16 0e 39 3d 16 a9 d7 bc
       -0.074566364 0.11332634 0.04517945 -0.026325744
0001a0 49 28 cf bd be b2 99 3d be 01 87 3e 7c 95 e2 3c
       -0.10115106 0.075047955 0.26368517 0.02765917
0001b0 a1 2b d5 3d da eb c3 3c 51 cb 31 bd 8e 09 97 3e
       0.10408712 0.023916174 -0.04340679 0.29499477
0001c0 af 3d 33 3e f2 de 5d bc e5 20 2e 3e 44 ae 09 3d
       0.17503999 -0.013541924 0.17004736 0.03361346
0001d0 84 74 c4 3d c0 09 ec bd a6 b2 98 3d f7 ab e8 3d
       0.09592536 -0.11525297 0.074559495 0.11360925
0001e0 5e 7e 9c bc aa 55 ae 3d fd 5f 08 bc 26 e8 0e 3e
       -0.019103225 0.08512433 -0.008323667 0.13955745
0001f0 77 91 8c be 43 2a e3 bd 92 17 3d 3e 04 57 6e 3d
       -0.2745473 -0.11092045 0.18466023 0.058188453
000200 20 a8 71 3d 60 c3 8a be f8 a0 b7 be bf 5a 56 be
       0.058998227 -0.27102184 -0.35864997 -0.20933054
000210 22 a6 ef bc 61 9a 8d 3d a3 04 69 3e 58 9a 43 3d
       -0.029254023 0.06914211 0.22755675 0.047754616
000220 8f 9e c2 3c a7 5e 1c 3e d7 84 3e 3e 92 a6 1f 3e
       0.023757247 0.15270482 0.18605362 0.15590885
000230 21 b9 84 be b4 15 3c be ad c6 1a bc e0 61 19 3e
       -0.25922492 -0.18367654 -0.009446782 0.14978743
000240 03 a9 23 bd fd a1 31 bd 59 f8 fb bd 47 60 8a 3d
       -0.039956104 -0.043367375 -0.12303228 0.06756645
000250 41 57 86 be 84 25 99 bd 72 8a 66 be 38 66 43 3e
       -0.26238444 -0.07477859 -0.2251375 0.19081962
000260 a3 ed d1 bd 06 c1 85 3e d7 1d 44 3d 53 43 7b bd
       -0.10250404 0.26123828 0.04788002 -0.061343502
000270 44 94 00 be 18 39 7c be 71 3c 8d bd d4 e3 c5 bd
       -0.12556559 -0.24631155 -0.06896294 -0.096625954
000280 86 28 a2 3d 19 0e 66 be 80 48 99 be 2e 67 45 3e
       0.079178855 -0.22466315 -0.29938126 0.19277641
000290 a6 05 83 3e a3 54 6e 3c 19 b0 98 bc 9e e5 d5 bd
       0.25590247 0.014546546 -0.018638657 -0.10444187
0002a0 d8 6c 3f bd 74 e3 2d 3e 8a d6 ca bd d8 45 19 3d
       -0.04673466 0.16981298 -0.09904201 0.037420124
0002b0 32 02 32 be 57 e4 c0 bd 9e 11 75 3e da bd 21 bd
       -0.1738365 -0.09418552 0.23932502 -0.039487697
0002c0 99 83 1a 3c c8 f7 3a 3e 9c b5 0d be fc 3a 14 be
       0.009430789 0.18258584 -0.1383881 -0.14475626
0002d0 cf 7d 09 3c 64 b7 24 be 8d 35 ac 3c 69 90 28 be
       0.0083918115 -0.16085583 0.021021629 -0.16461338
0002e0 8d 7f 57 3d c6 3a 7b 3e ed d4 8d 3d ef e8 57 3e
       0.052611876 0.24534139 0.06925378 0.21084951
0002f0 c6 c1 48 be bb 05 e8 3d 38 18 ae bc 09 95 93 3d
       -0.19605169 0.11329218 -0.021251783 0.072061606
000300 c1 5e 83 3d b9 0e 51 be c1 1e 1f be 27 78 a5 3d
       0.06414557 -0.20415772 -0.15539075 0.08079558
000310 99 00 89 3e a1 95 d2 3b a5 e2 60 bd 06 21 87 be
       0.26758268 0.0064265286 -0.054903645 -0.26392382
000320 8d c5 27 3e 16 1d 26 3d 64 1d cc bd 75 09 06 bd
       0.16383953 0.040555082 -0.09966543 -0.032723863
000330 48 b0 82 be 64 81 76 bc f7 c5 18 bd 86 63 bf bd
       -0.25525117 -0.015045498 -0.03729817 -0.093451545
000340 c1 e9 9d bc 5f f6 21 3e 27 fe 2c be d1 c8 e8 3c
       -0.019276502 0.1581664 -0.16893826 0.02841607
000350 d8 41 fa bb 2f b9 03 be 2a 2c 49 3e 6f 5c ab 3d
       -0.0076372437 -0.1286361 0.19645754 0.0836724
000360 df 8e b8 be 18 cd 9a bc 4c 46 42 be 7d 28 8c 3e
       -0.36046502 -0.018896624 -0.18972129 0.2737464
000370 47 ab 45 3e d1 67 98 3e ec 45 4a bd 46 1b 4d be
       0.19303618 0.29766706 -0.04938309 -0.20029935
000380 a9 b4 c4 bd ee 78 14 be b8 d2 6c 3e cc 92 ca bc
       -0.09604771 -0.14499256 0.23127258 -0.024728201
000390 e8 be 63 be 3d 4e 4d 3c ef 7f 67 3e e0 76 69 3e
       -0.22240794 0.0125308605 0.22607397 0.22799253
0003a0 17 e0 a1 bd 79 bd 3a bc df 99 20 3e 75 b5 90 3d
       -0.0790407 -0.011397713 0.15683697 0.0706586
0003b0 f4 bb 0e 3e af 0f a7 bd 42 86 68 3e 9c e8 c9 3d
       0.13938886 -0.08157288 0.22707465 0.0985882
0003c0 90 0a 30 bc 51 3f 38 3e 55 88 31 bd 41 59 18 3d
       -0.010744706 0.17992903 -0.043342907 0.037194494
0003d0 ab bf 42 bc 36 aa 6a be bf dc c1 3d 6f 3b 38 be
       -0.0118865175 -0.22916493 0.09465932 -0.17991422
0003e0 e2 45 83 3e c6 3b 12 3e 6d 04 63 bd ca b3 d7 3c
       0.25639254 0.14280614 -0.055424143 0.026330847
0003f0 65 5d f7 bd 65 e9 84 bd b3 1a 40 3d a4 be 5f 3e
       -0.120783605 -0.06489829 0.046900462 0.21850067

func_approx.network.4.bias f4 [30]
000000 99 fd 34 3c a3 8a d9 bd 8d 6d ac 3d 34 27 de 3d
       0.0110467905 -0.10622146 0.08419333 0.10847321
000010 9b 6e 05 be d4 d8 0d be a0 35 21 be 4c 29 24 3e
       -0.13030474 -0.13852245 -0.15743113 0.16031379
000020 2d 38 d2 3d 0e 6d cc 3d d4 d8 b8 bd 8d a6 f0 bd
       0.10264621 0.09981738 -0.09025732 -0.11750517
000030 da f7 9b bc 3f a0 41 3d 73 5c cf bd 49 d2 52 3d
       -0.019039083 0.047271963 -0.10125055 0.051470075
000040 95 8a 36 be 69 74 9e 3d 89 5e 07 3e 8f 4d 1b bd
       -0.17826302 0.07737047 0.13219656 -0.037915763
000050 9a 4b 21 3d a2 83 48 be c9 3a fc 3d 8b 82 68 3d
       0.03937874 -0.19581464 0.123159 0.05676512
000060 77 85 a9 bd d6 e1 c6 bc d6 a2 30 3e 2a b5 84 bd
       -0.082774095 -0.024277609 0.17249617 -0.06479867
000070 c9 69 58 bc 6c cf e8 bb
       -0.013208815 -0.0071048047

func_approx.network.6.weight f4 [30, 30]
000000 6f b2 53 3e 9a ab a6 3d 7e fc 7c 3d f6 e3 32 be
       0.20673536 0.08138199 0.061764233 -0.17469773
000010 ec 54 80 3e a3 ad 1a 3d 58 c0 84 3e 76 03 21 be
       0.2506479 0.03776325 0.25927997 -0.15723976
000020 05 4e 2a 3d cf 9f 27 be 6d 52 ae bc 81 e3 8d 3e
       0.04157831 -0.16369556 -0.021279538 0.27712634
000030 89 b7 a9 bd 61 19 8a 3c 59 48 0a 3e 89 7d 69 3e
       -0.0828696 0.016857805 0.13504161 0.22801794
000040 94 5e 1f be f9 d9 b6 3d a7 df 11 be 54 a5 94 3c
       -0.15563422 0.08928294 -0.14245473 0.01814524
000050 14 2b f4 3e 70 96 0f 3e 14 4c 92 be f5 1c 03 be
       0.47689116 0.14022231 -0.28573668 -0.12804015
000060 99 04 0f 3e 57 61 e4 3c 0e 33 86 3e bb 06 93 bc
       0.13966598 0.027878447 0.26210827 -0.017947545
000070 08 6c c5 bd 1c 78 6f 3e 58 8a d8 3d f4 76 05 be
       -0.09639746 0.23385662 0.10573262 -0.13033658
000080 7e 0a 57 be ab 55 28 3d 70 b2 16 3e 70 dc 7a be
       -0.21000096 0.041097324 0.14716506 -0.24498153
000090 55 a9 6f 3e 44 44 ed 3d 04 1a 0b be 4d 4c 17 be
       0.23404439 0.11585286 -0.13584143 -0.147752
0000a0 9a e7 84 3c 1b aa cf 3d 97 b3 09 be 77 01 ff bd
       0.016223717 0.10139867 -0.13447414 -0.12451451
0000b0 f3 6a 2f 3e 07 4e 7b 3d 79 d6 7c be 98 7a 44 be
       0.17130642 0.06135371 -0.2469119 -0.19187391
0000c0 2d cf 00 3e 06 74 38 3e a8 c3 0c be 1e 9c 01 be
       0.12579031 0.1801301 -0.13746512 -0.1265721
0000d0 7f 89 1f be 83 05 1b bc 83 4d b9 3c 2f 99 87 bd
       -0.15579794 -0.009461763 0.022619968 -0.06621014
0000e0 58 50 3b 3e 3d c0 64 bd 18 70 07 bc 42 0a 5d 3d
       0.18292367 -0.055847395 -0.008266471 0.05396486
0000f0 58 e8 0d 3e d8 77 a5 bb 90 67 82 3d 3a d7 9b 3d
       0.13858163 -0.005049687 0.06367409 0.076094106
000100 9c 73 52 3e c0 bf 96 bd bf 8d da bd db 99 80 be
       0.20551914 -0.07360792 -0.10671567 -0.25117382
000110 f7 f9 0a be 01 24 57 3c 4d a8 4c 3d 11 ac d1 bd
       -0.13571917 0.013131143 0.04996519 -0.10237897
000120 c7 76 bc bd 07 29 dd 3d 28 fa 78 3e 1e 92 2a 3d
       -0.092023425 0.10798841 0.24314177 0.041643254
000130 e2 03 be 3c cd 48 20 3e 32 f5 32 3a 68 13 98 3c
       0.02319521 0.15652771 0.0006826698 0.018563941
000140 69 6f d8 3d 3d 6c 0d be 71 5b e6 bd 51 77 6a 3d
       0.10568125 -0.13810821 -0.1124791 0.057242695
000150 5c ef 74 bd b8 5d 21 bd 10 89 8c 3c 9b dd f5 bd
       -0.059798583 -0.039396018 0.0171552 -0.120051585
000160 18 41 5d 3e ae 49 08 3e 4e 8d 29 3d 65 0a 04 3e
       0.21606863 0.13309357 0.041394524 0.1289459
000170 05 79 e7 3c 0c ce 71 bd 3d d1 19 be 3d c8 01 3e
       0.028255949 -0.059034392 -0.15021224 0.12674041
000180 59 bf a9 3d 7f b3 16 3e dd 36 9a bc 08 08 c4 bd
       0.0828845 0.1471691 -0.018824989 -0.09571844
000190 d8 0e 4c bc 82 4e b4 3d 53 d7 77 bc e1 dd a0 3d
       -0.012454711 0.08804037 -0.015127021 0.0785482
0001a0 96 33 87 bc f4 64 e7 bb 39 be 56 3d b7 b4 bf bd
       -0.01650409 -0.007061595 0.052427504 -0.093606405
0001b0 7b f0 95 bd dc 1a 20 3d e8 06 0f be cc 21 30 be
       -0.07321259 0.039088115 -0.13967478 -0.17200392
0001c0 35 67 0a be 51 ee 03 be d8 ce b7 3d 09 df 4b 3e
       -0.13515933 -0.12883879 0.08974999 0.199093
0001d0 10 d7 11 bd ea 49 c4 bd 98 09 48 3e 02 06 33 3c
       -0.03560549 -0.095844105 0.1953491 0.010926725
0001e0 5f 80 53 3e 03 d5 1b be 49 e8 a7 bd c9 a3 45 3d
       0.20654438 -0.15217976 -0.08198602 0.0482519
0001f0 5c 06 49 3e 41 8b 28 be 40 6b 5d 3d 47 84 09 be
       0.19631332 -0.16459371 0.05405736 -0.13429366
000200 ae 0c aa bd b0 27 80 bd 33 cc 5c be 73 a2 45 3e
       -0.083032 -0.0625757 -0.21562271 0.1930025
000210 b1 ab 58 3d df 72 83 3e 51 3d b6 bd 35 92 35 3d
       0.052898113 0.25673577 -0.08898414 0.044328887
000220 76 94 4c be e6 48 c3 3d 31 66 3a bd 8b 59 a9 bc
       -0.19978508 0.09535389 -0.045507614 -0.02067258
000230 7d ce 05 3e 15 40 0e be e3 ab 2b bd a1 90 61 3e
       0.1306705 -0.13891633 -0.04191197 0.22027828
000240 4b 86 fa 3d 6c 14 e4 3d 49 ef 97 3d 25 24 31 3d
       0.122326456 0.11136708 0.07418687 0.04324736
000250 ff 50 da bd 43 43 4c 3d fd 73 92 bd ef ec 1d be
       -0.1065998 0.049868833 -0.07151029 -0.15422414
000260 3e bc d5 bd f3 73 14 3e 08 7a b2 bd 9b ca 22 3e
       -0.10436295 0.14497356 -0.08714682 0.158976
000270 93 7d 16 bd 88 81 8d 3e d5 4d 53 3e b3 b1 63 3a
       -0.03674085 0.27637887 0.2063516 0.0008685842
000280 4c dd 12 3e e8 dc 15 bc ad 58 d7 3d 78 d4 3a bd
       0.1434223 -0.009146906 0.105149604 -0.045612782
000290 87 4d fb 3b bb 25 14 bd 2a 58 3e 3d 28 f2 f5 bd
       0.007669154 -0.036168795 0.0464708 -0.12009078
0002a0 85 5c 13 bd 93 18 d2 bd 51 60 21 be 74 64 e5 3c
       -0.035976905 -0.102585934 -0.15759398 0.028002001
0002b0 de cb b8 3c 9c 7a b8 bd 50 91 4a be 4d ac 24 be
       0.022558149 -0.09007761 -0.19781995 -0.16081353
0002c0 7f 7c f6 3d 8a 9b 37 3d ac 79 bd bc ad 77 5e 3d
       0.120354645 0.044826068 -0.023129307 0.05431335
0002d0 0b 4c 90 3e c8 98 2a be 2e 0f ec bd ae 73 b5 3d
       0.28183016 -0.16659844 -0.11526333 0.08859955
0002e0 03 b3 1d 3e 51 6f ee bd 87 6d ec 3d db a6 09 3e
       0.15400319 -0.11642326 0.11544328 0.13442557
0002f0 f7 c8 10 be b5 6e 0f be b7 72 26 be 0e b5 fe 3d
       -0.14139162 -0.14007075 -0.16254698 0.12436877
000300 b8 64 61 be b8 c9 85 bd da 1c fa 3d c2 d9 a1 bd
       -0.22011077 -0.065326154 0.12212534 -0.07902862
000310 5d 68 3c be 1b 08 c3 bd 5c 2b 17 3d 9c 8b 48 3e
       -0.18399186 -0.0952303 0.036906585 0.19584507
000320 6c ad ae bc dd 2f f2 bd 73 23 4b 3c 97 7c 03 3e
       -0.021322928 -0.118255354 0.0123985885 0.12840496
000330 06 c1 45 3c 97 3d 89 3c 7f 9e 09 be 14 2b 34 be
       0.012069946 0.016753001 -0.13439368 -0.17594558
000340 15 83 fc bd 87 f3 2f bc 5a cd d7 3d 11 49 48 3e
       -0.123296894 -0.010739214 0.105372146 0.19559123
000350 0d 4a cf bc a3 27 eb 3d 82 ab 68 be 3e 7d 82 be
       -0.025303865 0.114821695 -0.22721675 -0.25486177
000360 d3 17 d2 3d bb 98 8b 3e c2 37 1b 3e c2 da 7f 3e
       0.1025845 0.27264962 0.15157989 0.24985793
000370 42 3a 43 be c7 0d 8b be 34 9d ad bd 2b fe 4c 3e
       -0.19065192 -0.2715895 -0.0847725 0.20018832
000380 1a 90 b5 3c 17 23 a9 bd 08 61 99 3d 82 bf 94 bd
       0.02216344 -0.08258646 0.0748921 -0.0726309
000390 b0 77 2d 3e 60 b9 5f be bc aa 19 3e d3 05 0f be
       0.16940188 -0.21848059 0.15006536 -0.13967066
0003a0 42 25 88 3e 79 b8 d2 be d0 ee 52 3b 02 0c d8 3d
       0.26590925 -0.41156366 0.00321858 0.10549165
0003b0 be a7 15 be 5f d8 68 3c 61 d2 25 bc 30 76 93 be
       -0.1461477 0.014211743 -0.010120959 -0.28801107
0003c0 9c 8f 78 bc 47 c3 84 bd 5a 7f 59 be 7b 71 25 3e
       -0.015170958 -0.06482559 -0.21239987 0.1615657
0003d0 ee d0 88 3e 98 d9 49 3e cf c4 d0 bd dc 5b 3b be
       0.267219 0.19711912 -0.10193788 -0.1829676
0003e0 5a 20 0b 3d 67 0b 86 be 55 5d b5 3d ac 70 5c bc
       0.0339664 -0.26180574 0.08855692 -0.013454597
0003f0 9b 25 05 3e a6 d9 98 bd 9c 4d 58 3d 00 5f 18 bd
       0.13002627 -0.07463388 0.05280839 -0.037199974

func_approx.network.6.bias f4 [30]
000000 77 5a e0 bd bf a8 4a 3e 57 d3 36 3e be 58 14 3d
       -0.10954755 0.19790934 0.17854057 0.036217444
000010 85 52 53 3e e3 cd 02 be 56 aa 2d bd 27 7b d9 bd
       0.20636947 -0.12773852 -0.042398773 -0.106191926
000020 a9 ac ff 3b ed 4c 05 3e a3 18 c5 bb 6a a1 a0 bd
       0.007802565 0.13017626 -0.0060149 -0.07843287
000030 12 db 23 be 5c 99 78 3c a8 54 da 3d ec 13 c3 bd
       -0.16001537 0.0151732825 0.10660678 -0.09525284
000040 d1 c2 c0 bd 0c 72 3f 3e d8 b3 b2 3d da c5 ba 3d
       -0.09412158 0.18695849 0.08725709 0.091197684
000050 59 82 e8 3c 30 df 0a 3e 13 da 0a be 23 7b a0 3d
       0.028382467 0.13561702 -0.13559751 0.078359865
000060 64 b1 0f be 07 bd 4c be 61 d8 cc bd 33 c7 57 3e
       -0.14032513 -0.19993983 -0.100022085 0.21072082
000070 e6 a5 0e 3e 16 cc b9 bd
       0.13930473 -0.090721294

func_approx.network.8.weight f4 [1, 30]
000000 bf d4 38 be 6e 43 42 be 4f 9c a3 bd d5 2a 20 bc
       -0.18049906 -0.18971035 -0.07988798 -0.009775837
000010 7a 28 2b be bd 0c 48 3e 22 37 15 be 9c a8 81 3e
       -0.1671466 0.1953611 -0.14571813 0.2532395
000020 32 44 fc bd 5b e6 1e be 38 e4 d1 3d 83 0d 97 3d
       -0.12317695 -0.15517561 0.102486074 0.07375624
000030 42 39 26 3e dd 3d e5 bd ef 39 6e 3e a6 64 ae 3d
       0.1623278 -0.1119344 0.23264287 0.08515291
000040 a8 d6 33 be 9e 56 db bd 6d cb 39 be dc 2f c3 bd
       -0.17562354 -0.1070988 -0.18144007 -0.09530613
000050 c6 41 2d be af c0 a9 3d d5 27 0e 3e 93 4e b8 bd
       -0.16919622 0.082887046 0.13882382 -0.08999362
000060 0a b2 e1 3c 79 5f 1f 3e a7 c5 f1 bd e4 f4 57 be
       0.027550716 0.15563764 -0.11805277 -0.21089512
000070 f8 10 b8 bd 4a 8e 30 be
       -0.089876115 -0.17241779

exp_avg f4 [30, 2]
000000 3c ac e2 33 df 2a b5 b4 a3 00 b7 b4 43 4c 75 35
       1.0555274e-07 -3.374507e-07 -3.408687e-07 9.138059e-07
000010 ac 8a a3 34 67 d5 90 35 3e 06 43 36 43 3b 54 36
       3.0462013e-07 1.0790944e-06 2.9060898e-06 3.1624957e-06
000020 73 9e e4 b4 13 19 75 b5 71 ba 15 b6 81 7b 79 35
       -4.2583596e-07 -9.13061e-07 -2.2311253e-06 9.293945e-07
000030 1e 82 1a b5 de 9e ca b5 ee b5 54 34 b9 51 24 35
       -5.7558816e-07 -1.5096409e-06 1.9810224e-07 6.1213683e-07
000040 22 a8 54 35 23 e1 04 b5 04 01 a6 b4 0b 75 6a 34
       7.922082e-07 -4.950145e-07 -3.0920648e-07 2.1835528e-07
000050 91 e3 15 b4 49 81 68 b5 93 7a 56 b5 0b 94 ad 34
       -1.3959495e-07 -8.661487e-07 -7.989958e-07 3.2331477e-07
000060 48 c0 41 34 25 11 da b5 bb 08 3e b5 1a 2a 34 b5
       1.8044477e-07 -1.6247255e-06 -7.079322e-07 -6.711649e-07
000070 e5 af 57 36 10 87 d9 35 30 2b ec b5 dd b7 61 34
       3.213988e-06 1.6207068e-06 -1.7595939e-06 2.1021647e-07
000080 ab 08 b6 b4 5c 05 cf b5 27 e8 56 b4 c5 07 98 b5
       -3.3906448e-07 -1.5424262e-06 -2.001476e-07 -1.1327144e-06
000090 5b ca f0 35 28 1e 13 35 10 db 0c b5 25 ce 8c 34
       1.7940287e-06 5.480565e-07 -5.247284e-07 2.6227022e-07
0000a0 3c ac c6 32 18 14 47 35 a7 7e 8d b3 d6 3d 96 35
       2.3128557e-08 7.416252e-07 -6.588862e-08 1.1193868e-06
0000b0 94 f7 be b5 a7 35 93 b5 85 d4 e6 b4 bb d8 7f 34
       -1.4228158e-06 -1.0967968e-06 -4.2995467e-07 2.3827572e-07
0000c0 1e a8 09 b5 c5 cd 61 b5 0e 35 b9 34 5c 8d 7a 35
       -5.128112e-07 -8.4118466e-07 3.4497538e-07 9.333796e-07
0000d0 38 ab 27 35 ea 26 8f b5 15 97 c5 35 68 d5 96 33
       6.2461504e-07 -1.0665656e-06 1.4721614e-06 7.023738e-08
0000e0 81 7b 9f b5 ac 9e 60 35 a7 8f c2 b5 e5 f6 ae 35
       -1.1882368e-06 8.36774e-07 -1.4495935e-06 1.3035866e-06

exp_avg_sq f4 [30, 2]
000000 08 1c 49 28 f3 36 00 2a 1b da 02 2a 9d 0b 6b 2b
       1.116382e-14 1.1387748e-13 1.162199e-13 8.350489e-13
000010 26 0f d1 29 93 e1 a3 2b 50 95 14 2d 2b f2 2f 2d
       9.284092e-14 1.1644456e-12 8.44598e-12 1.000137e-11
000020 f4 3a 4c 2a 91 ba 6a 2b 79 26 af 2c 2d 32 73 2b
       1.8139293e-13 8.3392413e-13 4.9780705e-12 8.6400575e-13
000030 75 8a ba 2a 8a 65 20 2c 48 c5 30 29 81 f2 d2 2a
       3.313631e-13 2.2793733e-12 3.9250965e-14 3.7471765e-13
000040 17 ab 30 2b 83 f6 89 2a cd 56 d7 29 04 c4 56 29
       6.2765196e-13 2.450714e-13 9.5629755e-14 4.7687562e-14
000050 57 ce af 28 ed 2b 53 2b 55 b5 33 2b 2d 77 eb 29
       1.9518389e-14 7.502322e-13 6.3845224e-13 1.045677e-13
000060 0e e9 12 29 f8 c1 39 2c bf 12 0d 2b 78 d7 fd 2a
       3.2620655e-14 2.6397756e-12 5.011928e-13 4.509134e-13
000070 26 bc 35 2d 44 e2 38 2c e5 e3 59 2c 04 93 47 29
       1.0330436e-11 2.6273575e-12 3.0964062e-12 4.4314392e-14
000080 98 73 01 2a bb 69 27 2c 5a 8c 34 29 e1 96 b4 2b
       1.1497606e-13 2.379082e-12 4.0089764e-14 1.2831647e-12
000090 a5 7d 62 2c ba 1f a9 2a 91 09 9b 2a 1a eb 9a 29
       3.2186278e-12 3.0042445e-13 2.754017e-13 6.8797575e-14
0000a0 60 92 1b 26 a0 d0 1a 2b 2e be 9c 27 8d 59 b0 2b
       5.3974803e-16 5.5001316e-13 4.350489e-15 1.2530407e-12
0000b0 9c 74 0e 2c ca 50 a9 2b 18 4e 50 2a 88 16 80 29
       2.0244145e-12 1.2030596e-12 1.8501205e-13 5.6882504e-14
0000c0 8a 0d 94 2a cb 2f 47 2b a1 00 06 2a 39 3b 75 2b
       2.6299476e-13 7.076533e-13 1.1901809e-13 8.7123673e-13
0000d0 66 a2 db 2a 13 19 a0 2b 69 83 18 2c 8e 89 c0 27
       3.90149e-13 1.1375643e-12 2.1673446e-12 5.3439842e-15
0000e0 cb b6 c6 2b 3a 1c 45 2b 0c df 13 2c 31 2d ef 2b
       1.4119481e-12 7.002763e-13 2.1013772e-12 1.6994515e-12

max_exp_avg_sq f4 [30, 2]
000000 24 df 42 34 36 64 02 36 28 3d 48 33 45 87 20 35
       1.8148836e-07 1.942984e-06 4.662175e-08 5.980149e-07
000010 cc 8f 01 35 27 4b 55 35 48 cc fc 33 cc 7a 81 34
       4.8265497e-07 7.9458044e-07 1.1771823e-07 2.411747e-07
000020 51 05 32 35 69 39 0c 36 1f 6e 6c 35 6c b4 53 36
       6.6317904e-07 2.0895043e-06 8.80771e-07 3.154647e-06
000030 79 33 f8 35 34 ff b9 36 0d 2b 9a 33 1b 65 ff 34
       1.849242e-06 5.543139e-06 7.179015e-08 4.7571015e-07
000040 aa 31 e6 35 b1 2e 77 36 20 57 57 35 ae 51 92 35
       1.715079e-06 3.6833046e-06 8.0220525e-07 1.090162e-06
000050 a6 42 5e 34 f3 d0 3d 36 2c a8 3f 35 84 e4 a2 35
       2.0699608e-07 2.828482e-06 7.1397767e-07 1.2136447e-06
000060 1b f0 83 35 8c b9 29 36 f8 b1 c1 33 99 e2 3a 35
       9.83014e-07 2.5290965e-06 9.019635e-08 6.962014e-07
000070 cc 6e 9a 34 78 8b cb 35 b6 1a 91 35 78 00 0d 35
       2.876535e-07 1.5165269e-06 1.0811116e-06 5.2527275e-07
000080 59 f0 a8 33 2e b7 10 36 b4 92 8f 34 3e 57 10 36
       7.8668286e-08 2.1564297e-06 2.6742566e-07 2.1508454e-06
000090 3a af f1 32 90 2c 94 33 31 db 81 33 b5 33 9f 34
       2.8135776e-08 6.899893e-08 6.046901e-08 2.965368e-07
0000a0 05 6f 34 32 d4 e5 45 35 30 92 53 33 70 a0 e8 35
       1.0502622e-08 7.372266e-07 4.9260223e-08 1.733204e-06
0000b0 d3 8b 11 36 0e 16 72 36 e5 0c aa 34 92 69 57 36
       2.1688072e-06 3.6073648e-06 3.167435e-07 3.2098947e-06
0000c0 bd 62 0d 36 6d 82 17 36 14 73 e5 34 fb 27 04 36
       2.106811e-06 2.2576671e-06 4.2738304e-07 1.9692804e-06
0000d0 dd 0a 1c 35 28 59 66 36 81 9f de 33 4d 68 e5 34
       5.8130337e-07 3.4324567e-06 1.0366694e-07 4.2730463e-07
0000e0 cc 3c f8 35 4b bc f5 36 b7 60 6c 33 cf 3a 92 35
       1.8495134e-06 7.323489e-06 5.5035994e-08 1.0894963e-06

exp_avg f4 [30]
000000 9f b5 ba b4 08 9e a3 33 6a ff 8c b4 a9 4b b9 34
       -3.4777347e-07 7.619025e-08 -2.626287e-07 3.4513985e-07
000010 0d 92 ba b3 9b c2 9d 34 fd 91 13 b4 b7 fb 85 34
       -8.6878664e-08 2.9385123e-07 -1.3743552e-07 2.4956327e-07
000020 98 be 86 35 4a a2 89 33 2d 1c 8e b4 62 29 39 b5
       1.0039248e-06 6.40908e-08 -2.6470062e-07 -6.897809e-07
000030 e1 d8 7f b4 3c a2 b8 34 8f 8d be 34 67 df 90 34
       -2.3827626e-07 3.4390712e-07 3.5493255e-07 2.6984637e-07
000040 86 dc a1 34 6e b1 88 33 45 b1 07 b4 76 32 01 b5
       3.014904e-07 6.365268e-08 -1.2637345e-07 -4.8129675e-07
000050 73 f2 1e b4 b2 52 9e 34 1e 46 53 b5 2f 8a 54 35
       -1.4803099e-07 2.9489962e-07 -7.870566e-07 7.917724e-07
000060 cb a7 31 b5 d9 c4 05 35 c2 33 ae b3 3d ee e5 b4
       -6.618181e-07 4.983281e-07 -8.111921e-08 -4.2827915e-07
000070 d0 f4 8c b3 b0 c4 81 34
       -6.563789e-08 2.417123e-07

exp_avg_sq f4 [30]
000000 5e 3a 08 2a d3 9b d1 27 36 52 9b 29 dd 28 06 2a
       1.2099477e-13 5.81781e-15 6.897644e-14 1.1915768e-13
000010 d6 c3 08 28 b3 78 c2 29 3c 66 aa 28 7a 47 8c 29
       7.591982e-15 8.6362686e-14 1.8918129e-14 6.229648e-14
000020 3b d8 8d 2b 08 f7 94 27 9d cf 9d 29 e4 ed 05 2b
       1.0078669e-12 4.1346084e-15 7.008216e-14 4.758123e-13
000030 de cd 7f 29 b6 51 05 2a c0 e1 0d 2a 37 1a a4 29
       5.6799936e-14 1.1841122e-13 1.2601638e-13 7.2876106e-14
000040 e7 b6 cc 29 69 72 92 27 8d ea 8f 28 ec 69 82 2a
       9.0911484e-14 4.0647184e-15 1.597791e-14 2.3166137e-13
000050 91 61 c5 28 a2 d9 c3 29 7e 5f 2e 2b 5f 76 30 2b
       2.1913706e-14 8.697493e-14 6.194974e-13 6.2692034e-13
000060 ab 9b f6 2a 48 d0 8b 2a ce 54 ee 27 33 9c 4e 2a
       4.3806395e-13 2.4835884e-13 6.6150215e-15 1.8350668e-13
000070 ed c2 9b 27 3a 19 84 29
       4.323248e-15 5.866354e-14

max_exp_avg_sq f4 [30]
000000 3f d3 7c 34 0d 47 0d 34 d3 9a e2 34 c4 8f 80 34
       2.354618e-07 1.3157496e-07 4.220843e-07 2.394646e-07
000010 74 b3 77 35 eb 23 39 36 3a f9 12 36 46 7a 84 34
       9.227581e-07 2.7588055e-06 2.1900764e-06 2.4675882e-07
000020 50 4d c0 35 cc 4d 7e 35 5e da 6f 34 60 56 31 35
       1.4327616e-06 9.4735583e-07 2.2338051e-07 6.606333e-07
000030 1f 21 a5 35 12 66 12 34 a2 c6 d4 34 9e 87 40 36
       1.2303097e-06 1.3634443e-07 3.9632602e-07 2.868917e-06
000040 e3 c5 0c 34 61 55 d7 34 50 9b 52 33 89 54 12 34
       1.3110507e-07 4.0108992e-07 4.903569e-08 1.3628063e-07
000050 82 b5 42 33 81 6f f5 33 2e d4 7d 36 e8 9f cd 34
       4.5334225e-08 1.1428984e-07 3.7823443e-06 3.8300573e-07
000060 35 75 6b 36 64 8d 20 35 e5 46 aa 35 3a 88 a1 34
       3.5085952e-06 5.9810395e-07 1.268662e-06 3.0087705e-07
000070 74 da 43 36 e3 77 0f 34
       2.918442e-06 1.3361527e-07

exp_avg f4 [30, 30]
000000 c4 14 72 b5 d8 f6 a3 33 35 97 c2 33 05 50 0f b5
       -9.0182243e-07 7.6351796e-08 9.0613334e-08 -5.3388095e-07
000010 0f 9d 07 b5 f1 e9 5f b4 d3 5b 24 b5 dd c5 13 35
       -5.051997e-07 -2.0853601e-07 -6.122838e-07 5.5049696e-07
000020 db 7a 2b 34 e4 e8 4a 35 e4 3d 24 b2 98 18 d8 b3
       1.597031e-07 7.5589764e-07 -9.560129e-09 -1.00627574e-07
000030 45 2c 85 b4 62 31 0c 35 dd e2 86 33 b3 b3 5e 35
       -2.480539e-07 5.2225926e-07 6.2811274e-08 8.296294e-07
000040 74 7b 08 34 fd da 47 b5 bb 90 7c b4 82 02 85 34
       1.2710899e-07 -7.4451947e-07 -2.3521982e-07 2.4775005e-07
000050 2b a3 80 b2 79 81 50 35 8d 58 39 b5 b3 f9 75 35
       -1.4975361e-08 7.7674446e-07 -6.904673e-07 9.163297e-07
000060 fc 26 26 b5 1d c3 3a 35 89 4d 6c b5 ea 57 d8 b4
       -6.189655e-07 6.9574327e-07 -8.802968e-07 -4.02971e-07
000070 03 5f c5 34 ba e1 6f 35 41 54 30 b4 fc 92 5e 32
       3.676324e-07 8.9362914e-07 -1.6421929e-07 1.2955521e-08
000080 6a 33 0f 33 0d 4b b4 b3 15 9d 56 34 92 0e 8e 33
       3.3341543e-08 -8.395555e-08 1.9987449e-07 6.6150406e-08
000090 86 53 8d 34 94 65 20 33 05 c9 5e 34 d3 f9 12 34
       2.6324068e-07 3.7345288e-08 2.0748492e-07 1.3688195e-07
0000a0 b6 68 87 33 c6 c8 e0 b2 67 45 9f b4 e9 29 84 34
       6.305474e-08 -2.6168333e-08 -2.9666555e-07 2.461741e-07
0000b0 89 ef 8a b4 a8 16 48 34 fc 85 12 b3 23 61 54 b3
       -2.5878788e-07 1.8634694e-07 -3.4115132e-08 -4.9448442e-08
0000c0 aa 26 5f b4 75 88 09 b3 cf 6e 95 33 c9 c6 f3 33
       -2.078256e-07 -3.2021905e-08 6.958509e-08 1.1351728e-07
0000d0 26 ae aa b4 44 95 b0 33 0e 72 a5 b4 6e 4e 04 b3
       -3.1791677e-07 8.22279e-08 -3.081663e-07 -3.0804976e-08
0000e0 fe c1 84 b4 ae eb f0 b3 f0 e3 5d 34 2f da 87 34
       -2.4728064e-07 -1.1218741e-07 2.0665152e-07 2.530446e-07
0000f0 d7 0f 09 34 ad f8 0a b4 49 22 82 34 f8 a5 f6 34
       1.2764882e-07 -1.2942719e-07 2.4239333e-07 4.594183e-07
000100 31 85 6a b4 42 65 80 32 90 ed 73 b4 da d8 c5 33
       -2.1841403e-07 1.4947208e-08 -2.2717563e-07 9.2129724e-08
000110 86 fd 1b 34 31 a8 80 b2 9e 22 98 b4 c6 76 65 b4
       1.4527731e-07 -1.4977646e-08 -2.8337394e-07 -2.1370496e-07
000120 6d 4f 1d b4 82 9f 55 b2 a2 2c 2c 34 10 d1 a8 b3
       -1.465066e-07 -1.24345e-08 1.6034986e-07 -7.861138e-08
000130 1b 23 8d b4 bc 74 2e 34 01 73 58 34 0e 8e 3f 34
       -2.628884e-07 1.624748e-07 2.0158406e-07 1.783994e-07
000140 13 9f 81 34 9c 92 22 b4 16 ec f8 b2 74 16 59 b4
       2.4143864e-07 -1.5140762e-07 -2.897836e-08 -2.0217868e-07
000150 1f 1d d6 b2 0c e3 99 33 74 97 ef 33 a6 8d cd 34
       -2.4926122e-08 7.165917e-08 1.1156854e-07 3.8287288e-07
000160 2d 35 36 34 1d 3e 4f b4 ca 3b b8 b4 dc ad a6 34
       1.6969416e-07 -1.9300974e-07 -3.4316173e-07 3.104641e-07
000170 44 c8 2c 34 68 38 d5 34 4d 3d fb b4 a4 04 61 34
       1.6091604e-07 3.9715383e-07 -4.6796995e-07 2.0956446e-07
000180 32 5e 0a b5 98 01 d6 34 d1 7a 90 34 fd 2d af 34
       -5.154608e-07 3.9861766e-07 2.691145e-07 3.262975e-07
000190 e6 d7 1a 32 63 90 75 b4 a2 29 84 b4 69 72 bd 34
       9.013069e-09 -2.286993e-07 -2.4617208e-07 3.5287238e-07
0001a0 0b 43 8c b3 ec cc 6f 34 53 6c cf 33 0d 28 e8 b4
       -6.531453e-08 2.233316e-07 9.658893e-08 -4.3242508e-07
0001b0 e7 44 8c 33 92 c3 0d 35 ac 7b 3d b4 f9 01 e5 34
       6.531791e-08 5.2811185e-07 -1.7646988e-07 4.265601e-07
0001c0 2e 57 cc b4 e8 bd e6 34 cf 7b c0 b4 8f a8 00 35
       -3.8061393e-07 4.2979013e-07 -3.585287e-07 4.7929e-07
0001d0 13 f7 10 b4 07 b3 7d 34 04 3f b8 34 34 18 79 32
       -1.350093e-07 2.3627591e-07 3.431852e-07 1.4499211e-08
0001e0 3d 1e 27 b3 60 f4 0b 34 6d df ed b4 de 33 15 b5
       -3.891022e-08 1.3034287e-07 -4.4307254e-07 -5.55823e-07
0001f0 b9 6f 16 34 f0 1b 69 34 6a bf 93 33 b5 5b d6 b3
       1.4010483e-07 2.170998e-07 6.880039e-08 -9.981833e-08
000200 fb a6 37 b5 3c 7c 5d b3 fe 5f bb 34 bc 4e ee 34
       -6.84158e-07 -5.1568563e-08 3.4901308e-07 4.438824e-07
000210 33 ed f9 34 45 97 b8 34 55 82 f7 b4 f9 8f ed b2
       4.655245e-07 3.4382734e-07 -4.6102164e-07 -2.7655902e-08
000220 f6 fa 91 34 af e3 87 b3 e7 5d b0 b4 74 b3 b4 34
       2.7190953e-07 -6.327843e-08 -3.2850878e-07 3.3658182e-07
000230 db 24 69 b4 2e ec bf 33 3e 56 f2 b3 b9 b7 a7 32
       -2.1713224e-07 8.9370914e-08 -1.12846905e-07 1.9524906e-08
000240 fd bf 88 b3 bb f7 41 b3 7d fd d1 b2 38 5a f8 b4
       -6.367916e-08 -4.5161624e-08 -2.4446075e-08 -4.6259242e-07
000250 9e 79 52 34 a5 e6 cd 33 0c 32 a6 b3 a7 6e 54 34
       1.9602018e-07 9.5880104e-08 -7.739081e-08 1.9784294e-07
000260 06 6c b8 b4 63 aa 83 b3 9c d8 3e b4 5d 62 1f 34
       -3.4351268e-07 -6.131156e-08 -1.7773931e-07 1.4843813e-07
000270 9a 9e 52 b4 de 8e 8d 33 46 87 c8 b4 7b a8 81 33
       -1.9615473e-07 6.5918115e-08 -3.7351327e-07 6.037677e-08
000280 ad 77 99 34 f8 b7 bf 34 13 30 e6 34 86 69 51 33
       2.8585546e-07 3.5710377e-07 4.2875817e-07 4.8757578e-08
000290 48 2b f3 b3 ab 99 ea 32 1d ba 8b 34 ff 03 b5 b3
       -1.1323442e-07 2.7311065e-08 2.6026183e-07 -8.429196e-08
0002a0 44 7b a9 b3 f6 b9 eb b4 e5 ae a7 b4 58 fd d7 33
       -7.8920976e-08 -4.3907465e-07 -3.1233427e-07 1.00578006e-07
0002b0 bf dd 21 33 12 c9 1c 34 d8 4d 73 33 1c b2 f5 33
       3.768741e-08 1.4601781e-07 5.6648645e-08 1.14410994e-07
0002c0 b1 a2 6f 31 da dd d5 b3 d7 1a e0 b4 84 0f 94 b2
       3.4871557e-09 -9.95894e-08 -4.174278e-07 -1.7236523e-08
0002d0 4c 53 1f b4 c6 1b 1e 35 27 55 f9 b4 a2 d1 34 b5
       -1.4838332e-07 5.89e-07 -4.644182e-07 -6.736028e-07
0002e0 cf 1b 95 b2 2d eb 25 35 bd ac 0b 33 2f d3 4e b3
       -1.7358529e-08 6.1809516e-07 3.2520564e-08 -4.8155183e-08
0002f0 b2 47 3e b5 14 30 f4 32 be f1 f0 b3 40 9a 1e 35
       -7.0884846e-07 2.8427202e-08 -1.12198435e-07 5.908405e-07
000300 f5 f1 3b 35 03 af ea 35 38 40 3a b5 16 41 ca 33
       7.001502e-07 1.7485294e-06 -6.938385e-07 9.418197e-08
000310 e5 cb 0e b5 f8 df e3 33 a6 38 da b5 37 81 df b4
       -5.319583e-07 1.0611251e-07 -1.6258753e-06 -4.1631003e-07
000320 3f a2 94 35 69 d9 4a 34 a0 8d 34 34 d2 7b 05 b4
       1.1074079e-06 1.889181e-07 1.6815329e-07 -1.2431636e-07
000330 fc 9f 9d 34 e8 cf 96 b3 0e ea 33 b4 18 54 14 b5
       2.9359933e-07 -7.022737e-08 -1.6755823e-07 -5.525667e-07
000340 74 c0 20 34 b7 20 fe 34 df 4e 74 33 71 1f cd 34
       1.4971175e-07 4.733499e-07 5.688241e-08 3.8207102e-07
000350 77 4d 35 b5 98 fe 3e b5 c9 93 8a b4 33 f1 9f 33
       -6.754048e-07 -7.1151e-07 -2.581203e-07 7.447888e-08
000360 55 bc e7 b4 19 52 19 b4 a1 a6 75 b5 7c 39 0e b4
       -4.3164133e-07 -1.4279102e-07 -9.151209e-07 -1.3245693e-07
000370 d4 52 06 35 b5 6c 36 35 23 5c 87 35 59 d8 d2 b4
       5.003942e-07 6.7958473e-07 1.0085099e-06 -3.9272962e-07
000380 17 51 d0 b3 0d 5a 13 b4 cf dc 33 35 54 d4 19 b4
       -9.700505e-08 -1.3723202e-07 6.7004015e-07 -1.432648e-07
000390 06 bc a8 b4 0d 30 fb b4 37 d3 35 b5 3c 5c 14 33
       -3.1429244e-07 -4.6787355e-07 -6.773511e-07 3.4542822e-08
0003a0 42 65 37 35 c9 b9 4c 34 0e 22 3d 35 4e 5a be 33
       6.832016e-07 1.9066569e-07 7.045754e-07 8.863991e-08
0003b0 80 52 68 34 8b 6e 1d b5 8a 0e 52 b5 4e 01 f9 b2
       2.1636697e-07 -5.864792e-07 -7.8252253e-07 -2.8988008e-08
0003c0 b3 3e 49 b4 b9 33 30 33 41 5a 03 b4 96 7b 1f b5
       -1.8742394e-07 4.1025235e-08 -1.223316e-07 -5.9411957e-07
0003d0 b9 5e fc 32 87 e6 54 34 7d 43 13 34 ac 1b f5 33
       2.9379736e-08 1.9827904e-07 1.3714994e-07 1.1413735e-07
0003e0 10 e6 b4 b3 76 93 52 34 10 1a ed 33 eb 71 58 34
       -8.423751e-08 1.961142e-07 1.1040913e-07 2.0158011e-07
0003f0 0b 4e d3 b3 dd 66 bf 34 12 26 e4 b4 84 e2 94 34
       -9.839649e-08 3.5651365e-07 -4.249601e-07 2.773196e-07

exp_avg_sq f4 [30, 30]
000000 54 ed 64 2b 17 09 d4 27 86 07 14 28 30 7a a0 2a
       8.133123e-13 5.8851676e-15 8.217282e-15 2.8506494e-13
000010 7b ae 8f 2a 0d e9 43 29 1f 0c d3 2a 69 9a aa 2a
       2.5522973e-13 4.3500837e-14 3.748954e-13 3.030521e-13
000020 88 bf e5 28 35 d5 20 2b 1d 5b 02 25 5d 78 36 28
       2.550717e-14 5.7139303e-13 1.1306573e-16 1.0129129e-14
000030 d0 8f 8a 29 fe 8d 99 2a 17 f0 8e 27 62 bd 41 2b
       6.1533786e-14 2.7276787e-13 3.9673223e-15 6.8830195e-13
000040 e8 dd 91 28 bc 07 1c 2b c4 65 79 29 01 38 8a 29
       1.619447e-14 5.5433067e-13 5.5377374e-14 6.138146e-14
000050 f9 46 99 25 fb d4 29 2b 6a 31 06 2b b8 5b 6c 2b
       2.6589362e-16 6.033643e-13 4.767494e-13 8.397133e-13
000060 c9 ad d7 2a ba 40 08 2b 90 20 5a 2b c7 df 36 2a
       3.831226e-13 4.840673e-13 7.749435e-13 1.6242486e-13
000070 54 2d 18 2a 5d cd 60 2b e8 f3 f2 28 64 c6 4b 25
       1.3516038e-13 7.9865785e-13 2.6973175e-14 1.767466e-16
000080 d4 7b a3 26 d8 64 fe 27 40 f1 33 29 09 e7 9d 27
       1.1343961e-15 7.0608497e-15 3.9955235e-14 4.3826743e-15
000090 37 0c 9c 29 78 df ca 26 64 06 42 29 b1 e2 a8 28
       6.9299106e-14 1.4077137e-15 4.3082196e-14 1.8750059e-14
0000a0 ba c4 8f 27 c2 e7 4c 26 2e 41 c6 29 22 77 88 29
       3.9903764e-15 7.109081e-16 8.804273e-14 6.0602795e-14
0000b0 14 d8 96 29 b9 6e 1c 29 f9 cc a9 26 b5 83 30 27
       6.698822e-14 3.4734995e-14 1.1782289e-15 2.4496305e-15
0000c0 94 96 42 29 a2 ac 96 26 27 f5 ae 27 54 32 68 28
       4.320726e-14 1.0455133e-15 4.8560496e-15 1.28895e-14
0000d0 7b a5 e3 29 08 c7 f3 27 1b e7 d5 29 4b f0 89 26
       1.01095313e-13 6.766184e-15 9.4991906e-14 9.571416e-16
0000e0 68 b5 89 29 76 f8 62 28 ec 68 40 29 94 36 90 29
       6.115491e-14 1.25993966e-14 4.272357e-14 6.4043524e-14
0000f0 8e cb 92 28 c7 f7 96 28 67 58 84 29 ac b1 6d 2a
       1.6297534e-14 1.6760802e-14 5.877313e-14 2.1111471e-13
000100 b2 de 56 29 12 73 81 25 44 78 68 29 cf f4 18 28
       4.7710703e-14 2.2455908e-16 5.1618662e-14 8.490779e-15
000110 a6 44 be 28 fc cb 83 25 e1 dc b4 29 e9 c0 4d 29
       2.1124009e-14 2.2863103e-16 8.031922e-14 4.5686467e-14
000120 31 86 c1 28 10 fc 3b 25 6d 9e e7 28 0c c3 de 27
       2.14855e-14 1.6305067e-16 2.5714858e-14 6.182885e-15
000130 9b b2 9b 29 39 de ed 28 93 0a 37 29 d2 5f 0f 29
       6.914366e-14 2.640866e-14 4.0643334e-14 3.183549e-14
000140 7d 55 83 29 6d 86 ce 28 fd 13 73 26 7d 24 38 29
       5.8323985e-14 2.2928892e-14 8.433465e-16 4.0887856e-14
000150 f1 3c 34 26 f3 42 b9 27 b0 42 60 28 76 16 25 2a
       6.2532636e-16 5.14204e-15 1.2448958e-14 1.4662737e-13
000160 e1 c6 01 29 13 c8 27 29 6f 96 04 2a 77 0d d9 29
       2.8816254e-14 3.7254986e-14 1.1776147e-13 9.6390716e-14
000170 86 3c e9 28 6b 9a 31 2a 44 93 76 2a 94 ca 45 29
       2.5894444e-14 1.5774333e-13 2.1900282e-13 4.3918496e-14
000180 ac 94 95 2a 77 e7 32 2a 63 15 a3 29 9b c0 ef 29
       2.657088e-13 1.5889881e-13 7.242364e-14 1.0647144e-13
000190 24 75 bc 24 2c 8f 6b 29 56 76 88 29 94 32 0c 2a
       8.173045e-17 5.2304664e-14 6.060141e-14 1.2452046e-13
0001a0 6a b6 99 27 2f a1 60 29 c4 15 28 28 3a 8a 52 2a
       4.2663804e-15 4.9877796e-14 9.330593e-15 1.8699704e-13
0001b0 6c ca 99 27 b5 02 9d 2a 8c 42 0c 29 b0 dd 4c 2a
       4.2685497e-15 2.789068e-13 3.1143965e-14 1.8195753e-13
0001c0 30 1b 23 2a 1b fb 4f 2a 12 ba 10 2a d9 52 81 2a
       1.4486741e-13 1.8472413e-13 1.2854325e-13 2.297249e-13
0001d0 86 31 a4 28 95 73 7b 29 fb 9a 04 2a f6 43 76 25
       1.8229135e-14 5.5833447e-14 1.1777725e-13 2.1360125e-16
0001e0 55 8c da 26 77 12 99 28 c1 09 5d 2a 8a ec ad 2a
       1.5164826e-15 1.699442e-14 1.9632127e-13 3.0895105e-13
0001f0 ab d9 b0 28 d2 45 54 29 99 b5 aa 27 c7 89 33 28
       1.9634324e-14 4.7134016e-14 4.7381367e-15 9.966372e-15
000200 c5 c0 03 2b e4 d1 3f 27 ff 26 09 2a 70 d9 5d 2a
       4.680807e-13 2.6620357e-15 1.2181574e-13 1.9704182e-13
000210 2e 02 74 2a 80 1b 05 2a cc 4d 6f 2a 99 55 5d 26
       2.167231e-13 1.1822314e-13 2.1254455e-13 7.6790784e-16
000220 8f 81 a6 29 13 54 90 27 42 07 f3 29 7a 24 ff 29
       7.394356e-14 4.0059182e-15 1.0792627e-13 1.13306025e-13
000230 2f 5d 54 29 00 ed 0f 28 f2 7d 65 28 f9 c9 dd 25
       4.715428e-14 7.989486e-15 1.2739364e-14 3.847425e-16
000240 75 48 92 27 37 29 13 27 83 05 2d 26 cb f1 70 2a
       4.06017e-15 2.042269e-15 6.00289e-16 2.1400171e-13
000250 06 1b 2d 29 9d ae 25 28 84 d1 d7 27 38 4c 30 29
       3.8437156e-14 9.197203e-15 5.9901645e-15 3.914596e-14
000260 d8 de 04 2a cc 8b 87 27 7f 49 0e 29 bb 78 c6 28
       1.180127e-13 3.7621595e-15 3.159408e-14 2.2034774e-14
000270 5f 4d 2d 29 40 96 9c 27 4d 18 1d 2a 6f 5f 83 27
       3.8480825e-14 4.34616e-15 1.3952832e-13 3.6463273e-15
000280 d5 04 b8 29 e3 97 0f 2a ad ff 4e 2a 2b 5d 2b 27
       8.17208e-14 1.2753648e-13 1.8385181e-13 2.3781524e-15
000290 e3 02 67 28 20 52 57 26 4d 8c 98 29 fa 02 00 28
       1.2823702e-14 7.470441e-16 6.774494e-14 7.106073e-15
0002a0 3b 7e e0 27 81 13 59 2a 4d b1 db 29 e1 3e 36 28
       6.230935e-15 1.9280238e-13 9.7563105e-14 1.0116664e-14
0002b0 91 4b cd 26 13 10 c0 28 5b a1 67 27 53 d4 6b 28
       1.4245215e-15 2.1323253e-14 3.214516e-15 1.3091161e-14
0002c0 8f e1 78 23 45 bc 32 28 88 33 44 2a 83 f2 ab 25
       1.3491871e-17 9.921809e-15 1.7426176e-13 2.9828104e-16
0002d0 fa b3 c6 28 3c 4d c3 2a 5d df 72 2a 61 85 ff 2a
       2.2060468e-14 3.469255e-13 2.1571412e-13 4.538965e-13
0002e0 1a 4e b5 25 4e 12 d7 2a a0 fe 99 26 08 67 27 27
       3.1451419e-16 3.8204373e-13 1.0685524e-15 2.323176e-15
0002f0 0c 6f 0d 2b 9b d6 6d 26 2a 5c 63 28 34 89 c4 2a
       5.024737e-13 8.251674e-16 1.2621016e-14 3.4911798e-13
000300 b8 fb 09 2b f8 24 57 2c 7c 81 07 2b 8a 66 20 28
       4.902151e-13 3.057386e-12 4.814133e-13 8.904019e-15
000310 4a 4e 9f 2a 07 6d 4b 28 7a 04 3a 2c 9a 24 43 2a
       2.8298398e-13 1.1292405e-14 2.6434675e-12 1.7332178e-13
000320 f9 97 ac 2b 90 f0 20 29 fa df fe 28 46 be 8b 28
       1.2263516e-12 3.573579e-14 2.82968e-14 1.5514618e-14
000330 91 2b c2 29 b5 d7 b1 27 90 56 fd 28 67 e7 ab 2a
       8.622888e-14 4.936124e-15 2.8126183e-14 3.053627e-13
000340 f9 f4 c9 28 52 65 7c 2a 48 29 6b 27 21 5f 24 2a
       2.2421723e-14 2.2417249e-13 3.263518e-15 1.459913e-13
000350 2d 68 00 2b 59 80 0e 2b 7b 0b 96 29 32 40 c8 27
       4.561931e-13 5.062665e-13 6.66333e-14 5.558075e-15
000360 00 cc 51 2a de b9 b7 28 d3 ba 6b 2b a3 4f 9e 28
       1.8633706e-13 2.0397688e-14 8.374804e-13 1.757606e-14
000370 c3 f7 8c 2a 6d 00 02 2b fd 25 8f 2b c1 b5 2d 2a
       2.5040915e-13 4.618587e-13 1.0171305e-12 1.5428545e-13
000380 4f bb 29 28 ac 19 aa 28 42 c0 fc 2a a9 e3 b8 28
       9.422001e-15 1.8884925e-14 4.4897598e-13 2.0526836e-14
000390 8a 77 de 29 d5 7a 76 2a dd 25 01 2b 31 68 ad 26
       9.879517e-14 2.1891805e-13 4.588255e-13 1.2032528e-15
0003a0 51 64 03 2b 1c c7 23 29 36 bd 0b 2b af 99 0d 28
       4.6679766e-13 3.636597e-14 4.9645303e-13 7.860397e-15
0003b0 58 22 53 29 5c a4 c1 2a 72 5d 2c 2b 5a 0d 7b 26
       4.68812e-14 3.4397734e-13 6.1236357e-13 8.7101213e-16
0003c0 4e 3a 1e 29 3f 45 f3 26 a2 d3 86 28 5d b7 c6 2a
       3.513362e-14 1.6880281e-15 1.496877e-14 3.52991e-13
0003d0 20 f7 78 26 70 0f 31 29 1f 72 a9 28 d0 c5 6a 28
       8.63772e-16 3.9315285e-14 1.8812261e-14 1.3032503e-14
0003e0 e4 ea ff 27 99 3f 2d 29 6a a5 5b 28 22 04 37 29
       7.1031387e-15 3.846888e-14 1.2192811e-14 4.0637747e-14
0003f0 3a ab 2e 28 d2 1c 0f 2a a3 54 4b 2a af 33 ad 29
       9.696069e-15 1.271095e-13 1.8059386e-13 7.691709e-14
