paper/Burgers/runs/random_grid_noise_20/random_grid25checkpoint.pt (torch, 59607 bytes, 36 tensors)

func_approx.network.0.weight f4 [30, 2]
0	0xbdc825ce	-0.09772836
1	0x3ef90fa7	0.48644754
2	0x3f3f1d4a	0.74654067
3	0xbf3251b0	-0.69655895
4	0x3ef14f47	0.47130796
5	0x3f377a91	0.71671396
6	0xbdd80ab4	-0.105489165
7	0x3f4f01fc	0.808624
8	0x3f27369e	0.65317714
9	0xbf3b74f4	-0.7322533
10	0xbe77e11f	-0.2420697
11	0x3f5a5b49	0.8529554
12	0xbee10650	-0.4395013
13	0x3f2ba8de	0.67054546
14	0xbf44d4e5	-0.7688735
15	0x3f25440a	0.64556944
16	0x3e918592	0.2842222
17	0xbf298e83	-0.6623308
18	0xbf474ecf	-0.7785463
19	0xbf320f85	-0.6955493
20	0x3f6c440f	0.9229135
21	0x3ebffd89	0.3749812
22	0x3f14c1f0	0.58108425
23	0xbdcb5f71	-0.099303134
24	0xbf982a88	-1.188798
25	0x3f3589e5	0.70913535
26	0xbf01a486	-0.5064167
27	0xbe676f76	-0.22601113
28	0xbd01b8b2	-0.03167028
29	0x3f3d76d8	0.74009466
30	0x3ee6eed3	0.45104083
31	0xbe099fc2	-0.13439849
32	0x3fc5d314	1.5455041
33	0x3f8908e3	1.0705837
34	0xbe33122b	-0.174874
35	0x3f24e9a9	0.6441904
36	0xbf86c30d	-1.0528275
37	0xbf75de97	-0.9604277
38	0x3f477aeb	0.7792193
39	0x3de1dd96	0.11028592
40	0x3cc907e7	0.024539901
41	0xbf047b78	-0.517509
42	0xbe940618	-0.289109
43	0xbf0fb90c	-0.56141734
44	0x3d0c983b	0.034324866
45	0xbf469198	-0.7756591
46	0x3e686586	0.22694978
47	0x3e64eec2	0.22356704
48	0x3e916297	0.2839553
49	0xbf068720	-0.52549934
50	0xbf97794f	-1.1833895
51	0xbf1c4c67	-0.6105408
52	0x3ee46074	0.44604838
53	0x3f3b12a6	0.7307533
54	0x3e93bf12	0.28856713
55	0xbed87af7	-0.42281315
56	0xbf21b2fd	-0.6316374
57	0x3e09bba8	0.13450491
58	0xbf43fe22	-0.7655965
59	0x3f1a0c64	0.60175157

func_approx.network.0.bias f4 [30]
0	0x3f07410d	0.52833635
1	0x3e75aa09	0.23990645
2	0x3f1e5a9d	0.61857015
3	0xbf015676	-0.50522554
4	0xbe16b363	-0.14716868
5	0x3e8a0a6b	0.26961073
6	0xbe45bd38	-0.19310462
7	0xbe2bb621	-0.16768695
8	0x3f1333f2	0.5750114
9	0xbf020e69	-0.5080324
10	0x3e3e6f06	0.1859704
11	0x3e1bc97f	0.15213583
12	0x3d86aed7	0.06576317
13	0xbf0bb836	-0.5457796
14	0x3efc1d13	0.49240932
15	0x3f04cf8a	0.5187918
16	0xbd4169d5	-0.04722007
17	0xbefd5f2d	-0.49486676
18	0xbe090fed	-0.13384981
19	0x3e4163e7	0.18885766
20	0x3ee0e3b1	0.43923715
21	0x3da4a7e3	0.08039834
22	0xbe844212	-0.25831658
23	0x3ec4180f	0.38299605
24	0xbbf4b963	-0.007468389
25	0xbe99e93a	-0.3006075
26	0xbea0478d	-0.3130459
27	0xbf157b73	-0.58391494
28	0x3def2d66	0.11678581
29	0x3e032b6a	0.1280953

func_approx.network.2.weight f4 [30, 30]
0	0xbcff09ae	-0.031132545
1	0xbcf6ecad	-0.030142153
2	0x3d9cb196	0.07651059
3	0x3dfa15d0	0.12211192
4	0xbeba4b69	-0.36385658
5	0x3e5744f6	0.210224
6	0x3e12491f	0.14285706
7	0x3dd79449	0.1052633
8	0x3dde8f91	0.10867227
9	0x3e0249ec	0.12723511
10	0xbd656a93	-0.05600984
11	0xbe5bd0f8	-0.21466434
12	0x3eaae249	0.33375767
13	0xbd7be2b5	-0.0614955
14	0x3e695103	0.2278481
15	0xbdaf493f	-0.085588925
16	0x3cb7a960	0.022419631
17	0x3dbbfd07	0.091791205
18	0xbe47abb8	-0.19499099
19	0xbe262e80	-0.16228676
20	0x3d84d38f	0.06485664
21	0xbd5f9d23	-0.054593217
22	0x3d2abd7d	0.041684616
23	0xbd7b8d19	-0.061413858
24	0xbe43cd80	-0.19121361
25	0xbe0e0688	-0.13869679
26	0xbc9d41ea	-0.01919647
27	0xbd7c3486	-0.061573528
28	0x3dddfade	0.10838865
29	0x3e978443	0.29593095
30	0xbd0a6bdb	-0.033794265
31	0x3e64f948	0.22360718
32	0xbe3b04b2	-0.1826351
33	0xbd266f53	-0.04063351
34	0x3e1d6d69	0.15373768
35	0xbe82e2ed	-0.25563756
36	0xbbc00db9	-0.005861011
37	0xbd03dbcb	-0.032192033
38	0xbc838e61	-0.016059102
39	0xbcb980e3	-0.022644466
40	0x3da7506b	0.081696354
41	0xbe14d683	-0.14534955
42	0x3baf90d1	0.0053578396
43	0x3e049fbf	0.12951563
44	0xbdf167f2	-0.11787404
45	0x3dc67ef7	0.09692185
46	0xbe316c29	-0.17326416
47	0xbe650a9b	-0.22367327
48	0x3e868982	0.26276785
49	0xbde1cdc5	-0.110255755
50	0x3e471ed0	0.19445348
51	0x3e941504	0.28922284
52	0x3dc8a380	0.0979681
53	0xbd6f0d2c	-0.05836217
54	0x3ce0de1d	0.027449662
55	0x3cde2913	0.027119195
56	0xbd970d0c	-0.07375535
57	0xbdb691b7	-0.08914512
58	0xbde1493b	-0.11000296
59	0x3d1f250f	0.0388537
60	0xbe1b8445	-0.15187176
61	0x3e252a8d	0.16129513
62	0xbe8145bc	-0.25248516
63	0x3d6ff731	0.05858535
64	0x3cf9cfff	0.030494688
65	0xbe9f10ae	-0.31067413
66	0xbe3b9cb6	-0.18321499
67	0xbd481b0b	-0.048853915
68	0x3cec3b78	0.02883695
69	0x3e9caa6d	0.30598775
70	0xbe3f812f	-0.18701623
71	0xbb93af99	-0.004507017
72	0x3cdcce80	0.026953936
73	0x3db57898	0.08860892
74	0xbe7583ca	-0.23976055
75	0xbe221fff	-0.15832518
76	0xbcfda4cc	-0.03096237
77	0xbc313c80	-0.010817647
78	0x3ea62473	0.32449684
79	0xbe266e5d	-0.16253038
80	0xbe3a8116	-0.18213305
81	0x3ecc58f8	0.39911628
82	0x3ec9a09b	0.39380345
83	0x3d589b00	0.052882195
84	0x3dbf71cf	0.09347879
85	0x3e8eb251	0.2787042
86	0xbe507d7b	-0.20360367
87	0x3e96dd19	0.2946556
88	0xbe034fec	-0.12823457
89	0xbde63540	-0.112406254
90	0xbe20ee17	-0.15715824
91	0x3e44447c	0.1916675
92	0xbc72912e	-0.014805121
93	0x3c233cf8	0.009963267
94	0x3e8d55fe	0.2760467
95	0x3c8be59e	0.017077263
96	0xbe2e2be0	-0.17008924
97	0xbe90b041	-0.2825947
98	0x3e411875	0.18856986
99	0xbde5d75c	-0.11222717
100	0x3bc94495	0.006142209
101	0xbda46de0	-0.080287695
102	0xbecf045d	-0.40433016
103	0xbe09766e	-0.13424084
104	0x3da57e7c	0.080807656
105	0xbe2d883f	-0.16946505
106	0x3e292eda	0.16521779
107	0xbe26b1e8	-0.16278803
108	0xbd73643b	-0.05942176
109	0x3e35da70	0.17759109
110	0x3c3f8f3e	0.011691866
111	0x3ce8e511	0.02842954
112	0x3d31cec2	0.04341007
113	0xbe399315	-0.18122514
114	0x3e3f7357	0.18696342
115	0xbc676712	-0.014123695
116	0x3dbdde62	0.09270932
117	0x3e5af362	0.21381906
118	0xbe9a70af	-0.30164096
119	0xbbdc6778	-0.0067262016
120	0xbda34952	-0.07972969
121	0x3c476c9c	0.012171891
122	0xbe84c7fd	-0.2593383
123	0x3d7b6a60	0.061380744
124	0x3e5b51ba	0.21417895
125	0xbeb5216b	-0.35377058
126	0xbd6958cf	-0.05696946
127	0xbdbc65c8	-0.09199101
128	0xbe250f24	-0.16119057
129	0x3c609ae1	0.013708801
130	0xbd46f6dd	-0.04857527
131	0xbe308f4b	-0.17242162
132	0xbe7c8d46	-0.24663267
133	0xbd758e50	-0.059950173
134	0xbe974bb8	-0.29549956
135	0x3d015c94	0.03158243
136	0xbd5b5bb5	-0.053554256
137	0x3d14368c	0.036184832
138	0x3e4f9d5c	0.20274872
139	0xbd4c3d4d	-0.04986315
140	0x3dc4dc63	0.09612348
141	0x3df7939a	0.120887
142	0x3eb7895c	0.35846984
143	0xbe5013c7	-0.20320044
144	0xbd00b4b1	-0.03142232
145	0x3d982ab5	0.07430021
146	0xbd156cc9	-0.0364807
147	0xbd50dc55	-0.050991375
148	0xbe568750	-0.20950055
149	0xbd987024	-0.07443264
150	0x3e6be109	0.23035063
151	0xbde4c90d	-0.1117116
152	0xbd3a1b88	-0.045436412
153	0x3e75632d	0.23963614
154	0xbe8fac05	-0.28060928
155	0x3e5939fa	0.21213523
156	0x3d7f6e40	0.062361002
157	0x3ddb2c77	0.1070184
158	0xbde1c337	-0.110235624
159	0xbe44b7e7	-0.19210778
160	0xbb4db4a2	-0.0031388183
161	0x3d03eafb	0.032206517
162	0x3d9bd66d	0.07609258
163	0xbb39af81	-0.0028333368
164	0x3e8b53fb	0.2721251
165	0xbdfe97f7	-0.12431329
166	0xbbb55d0d	-0.005534774
167	0xbcb85038	-0.022499189
168	0xbe0f7b97	-0.1401199
169	0xbb8b9339	-0.0042594937
170	0xbd450811	-0.048103396
171	0xbe95a4a7	-0.29227182
172	0xbd410041	-0.047119383
173	0xbdc673da	-0.09690066
174	0xbdff18d7	-0.1245591
175	0xbd81a9eb	-0.063312374
176	0x3b9cf2a9	0.0047896695
177	0x3d28cb06	0.041209243
178	0x3e4aa89a	0.19790879
179	0x3ea1b1cc	0.3158096
180	0xbe17c549	-0.14821352
181	0x3e9f9409	0.3116763
182	0x3db8fd65	0.09032706
183	0xbe664217	-0.22486149
184	0x3e987b11	0.29781392
185	0x3e018d9c	0.12651676
186	0xbe920540	-0.2851963
187	0xbe8662a5	-0.26247135
188	0x3e0fa580	0.14027977
189	0x3d529b14	0.051417425
190	0x3e4f8f4d	0.20269509
191	0x3e3593a3	0.177321
192	0xbe0d1517	-0.13777576
193	0xbd4e6c65	-0.05039634
194	0x3e395397	0.18098293
195	0xbd387466	-0.04503288
196	0xbe04b9a2	-0.12961438
197	0xbcbffedb	-0.023436954
198	0x3e12c07d	0.14331241
199	0xbd985e8f	-0.074399106
200	0x3dfd6cbc	0.12374255
201	0x3e1d976e	0.15389797
202	0x3dd707ac	0.1049951
203	0xbdc0ab3f	-0.094076626
204	0x3dc23d2d	0.094843246
205	0xbe2aad91	-0.16667773
206	0xbe80ab14	-0.25130522
207	0xbd94bd7b	-0.07262703
208	0xbef474a8	-0.47745252
209	0xbe1ce25f	-0.15320729
210	0x3e0d4b40	0.13798237
211	0xbe3070ab	-0.1723048
212	0xbd5287d2	-0.05139906
213	0x3e278f11	0.16363169
214	0xbe49618d	-0.19666119
215	0x3e3556e5	0.17708929
216	0x3e8caa75	0.27473798
217	0x3e9406ed	0.28911534
218	0xbbe53c47	-0.006995711
219	0xbc3dc840	-0.011583388
220	0x3ce99fd9	0.028518604
221	0x3d160167	0.03662243
222	0x3eb97044	0.36218464
223	0x3d60bfcd	0.054870415
224	0x3cb4e009	0.022079485
225	0xbd96842b	-0.07349428
226	0xbd26d263	-0.040727984
227	0x3d737792	0.059440203
228	0x3d5759c5	0.052575845
229	0x3d39cb27	0.045359757
230	0xbe88df58	-0.26732898
231	0x3dc82ae8	0.09773809
232	0xbe23c01d	-0.15991254
233	0xbe692289	-0.2276708
234	0x3c46339c	0.012097266
235	0x3ce37cae	0.027769413
236	0x3e428d87	0.18999301
237	0xbcec7d49	-0.028868334
238	0x3d453c10	0.048152983
239	0x3d984c84	0.07436469
240	0xbd5be40f	-0.05368429
241	0x3caf333d	0.021386737
242	0x3c709af4	0.014685381
243	0x3e27d3d2	0.16389397
244	0xbe378546	-0.17921934
245	0x3e0f19f7	0.13974749
246	0xbe0e87c9	-0.13918985
247	0xbd6752d3	-0.05647547
248	0xbe1c7788	-0.15279973
249	0xbdbca71a	-0.092115596
250	0x3c23a94d	0.009989095
251	0x3e00f3d3	0.12593012
252	0xbd1094ff	-0.035298344
253	0x3c7b6789	0.015344509
254	0x3e4fcfc7	0.20294105
255	0x3d7fa0b1	0.062409107

func_approx.network.2.bias f4 [30]
0	0x3d7890eb	0.06068508
1	0x3da5b44a	0.08091028
2	0x3d809fc3	0.06280472
3	0xbde903e7	-0.113776974
4	0x3ddb3a2e	0.10704456
5	0xbcf307b7	-0.029666765
6	0xbd90e359	-0.07074613
7	0x3d834f8c	0.06411657
8	0x3de4ff00	0.1118145
9	0xbd96fc6b	-0.07372364
10	0x3cbad653	0.022807276
11	0xbd656457	-0.056003895
12	0x3dae215c	0.085024565
13	0xbd530eda	-0.051527835
14	0xbda82e3d	-0.08211944
15	0x3d9c578b	0.07633885
16	0xbd8fb4c2	-0.07016899
17	0x3d09ce6a	0.033644117
18	0xbd8a60cf	-0.06756746
19	0xbc9b1d20	-0.018934786
20	0x3d923460	0.07138896
21	0x3d7ff46d	0.062488962
22	0xbc0c8c6c	-0.008578401
23	0x3e23c769	0.15994038
24	0x3cb6d14a	0.022316594
25	0x3db5cb7e	0.08876704
26	0x3dc8d67d	0.098065354
27	0x3ddda684	0.10822776
28	0x3e518922	0.20462468
29	0xbe007c67	-0.12547456

func_approx.network.4.weight f4 [30, 30]
0	0x3e386b6d	0.1800973
1	0xbd90df5c	-0.070738524
2	0xbd3dca92	-0.046335764
3	0xbe3de168	-0.18543017
4	0x3d1ea75e	0.038733833
5	0x3ce4dda2	0.027937714
6	0xbe9a4b08	-0.3013537
7	0x3db00136	0.08593981
8	0xbb3f7176	-0.0029211915
9	0x3ae1ca85	0.0017226493
10	0xbd2947e9	-0.041328344
11	0xbe9c1484	-0.30484402
12	0x3ca10099	0.019653605
13	0xbdb69205	-0.0891457
14	0xbeb8e1ef	-0.36109874
15	0x3e131018	0.14361608
16	0xbda65d14	-0.08123222
17	0x3eb5ed4f	0.35532615
18	0xbe152d88	-0.1456815
19	0x3e52c4ab	0.20582835
20	0x3e809314	0.25112212
21	0xbe9fb9c8	-0.31196427
22	0x3d054d79	0.032544587
23	0x3d24a391	0.04019505
24	0xbe35d3bb	-0.1775655
25	0xbef0b07c	-0.47009647
26	0x3e69626b	0.2279145
27	0xbcf6d427	-0.030130459
28	0xbd512abb	-0.05106614
29	0x3e182cf4	0.14860898
30	0xbe865ddc	-0.26243484
31	0xbe0fe019	-0.1405033
32	0x3e6d15a6	0.2315279
33	0x3eacc76a	0.3374589
34	0x3eca0cc1	0.39462855
35	0xbd1cb23a	-0.038255908
36	0xbd56addf	-0.05241191
37	0xbe030bba	-0.12797442
38	0xbbdf56b6	-0.0068157567
39	0xbe060297	-0.13086925
40	0x3d6ac062	0.057312377
41	0x3e6496a2	0.22323087
42	0x3ce104f4	0.027468182
43	0xbd482900	-0.048867226
44	0x3f5e18a9	0.8675638
45	0xbc37cfde	-0.011218993
46	0x3eab0dec	0.3340906
47	0x3dcc9446	0.099892184
48	0xbe86b816	-0.2631232
49	0xbe7744f3	-0.24147396
50	0x3da6a12a	0.08136208
51	0x3e034b5d	0.12821718
52	0x3e4b2bfc	0.19840997
53	0x3ec03f7f	0.37548444
54	0xbe33cec1	-0.17559339
55	0x3ec8080d	0.39068642
56	0x3d8d2e83	0.06893637
57	0x3e0d8acf	0.13822483
58	0x3c6ae401	0.014336587
59	0xbd8f444d	-0.06995449
60	0xbd953547	-0.072855525
61	0x3d78aa17	0.060709085
62	0x3e04b79d	0.12960668
63	0xbdba1e35	-0.09087793
64	0x3e7ce58a	0.24696937
65	0xbe2914a5	-0.16511782
66	0x3d8f0593	0.06983485
67	0xbd290ce8	-0.041272074
68	0xbdf7c28f	-0.12097656
69	0xbbfb0377	-0.007660325
70	0xbd8b167b	-0.06791397
71	0x3eb0946b	0.34488234
72	0xbdecae0f	-0.115566365
73	0x3dd772b2	0.10519923
74	0xbe1f46a2	-0.15554288
75	0xbd913595	-0.07090298
76	0xbe07ef88	-0.13274968
77	0xbdf0af08	-0.117521346
78	0x3db07409	0.08615882
79	0xbe3461b6	-0.17615399
80	0xbe0c0bb6	-0.13676342
81	0x3d3e03d9	0.04639039
82	0x3d1e5ea2	0.038664468
83	0x3e6c927d	0.23102756
84	0xbdfbbc68	-0.12291795
85	0xbdbc85c5	-0.09205202
86	0x3bffe62c	0.007809421
87	0xbc177825	-0.009244953
88	0xbdd69c81	-0.104790695
89	0x3e195b78	0.14976299
90	0x3d7dfb7d	0.062007416
91	0xbb7f2c11	-0.0038936178
92	0xbdeb6ba6	-0.11495142
93	0xbd8a484c	-0.06752071
94	0xbccd14f5	-0.025034407
95	0xbe01d8cf	-0.12680362
96	0x3c4b5197	0.012409589
97	0x3c8bc2a0	0.017060578
98	0xbda88d1b	-0.08230039
99	0x3dd369f7	0.103229456
100	0xbde596c5	-0.11210398
101	0xbd9da4ff	-0.07697486
102	0xbdec37e1	-0.115340956
103	0x3e40d31e	0.18830535
104	0x3e5e5efa	0.21715918
105	0xbd5e3062	-0.05424536
106	0x3dc4ba7d	0.09605882
107	0xbea16a0c	-0.3152622
108	0x3e4d751b	0.20064203
109	0x3ccfaebe	0.025351878
110	0xbeddca6a	-0.43318492
111	0x3dbc0d10	0.09182179
112	0x3cd8b4e3	0.026453441
113	0x3e22fda3	0.15917067
114	0x3e84534c	0.258448
115	0x3d1973b9	0.037463877
116	0xbd861755	-0.06547419
117	0xbe0a49ca	-0.13504711
118	0xbcc1b642	-0.023646478
119	0xbd0655b8	-0.03279659
120	0x3d17d6b0	0.037069976
121	0x3e08de39	0.13366021
122	0xbd46e1b4	-0.04855509
123	0xbd4658ee	-0.048424654
124	0xbe28824e	-0.16455957
125	0xbce55cfa	-0.027998436
126	0xbe374b1b	-0.17899744
127	0x3d297c90	0.041378558
128	0xbe869002	-0.26281744
129	0xbc8d5f79	-0.017257439
130	0x3dcba2d8	0.09943169
131	0xbd5d8fb7	-0.054092135
132	0xbdb4d845	-0.08830313
133	0xbd520070	-0.05126995
134	0xbeb7c31d	-0.35891047
135	0x3e0dcf1a	0.13848534
136	0x3e4da4d8	0.20082414
137	0x3c94be12	0.018157039
138	0xbc4fa16d	-0.012672764
139	0xbdbb74d1	-0.0915314
140	0xbcd4f7cf	-0.02599707
141	0xbdcf75d4	-0.10129896
142	0x3db415a3	0.087931894
143	0x3e286a25	0.16446741
144	0x3dac9c4b	0.08428248
145	0xbeb5aa4f	-0.35481498
146	0xbd5ac3be	-0.05340933
147	0xbe35276f	-0.17690824
148	0xbd91a1aa	-0.07110913
149	0x3d95b4c3	0.07309868
150	0x3e9cf803	0.30657968
151	0x3d82e898	0.0639202
152	0xbe86cb00	-0.26326752
153	0xbc843bcc	-0.016141795
154	0xbe862afa	-0.26204664
155	0x3e64d33e	0.22346207
156	0xbd905832	-0.07048072
157	0x3dde3821	0.108505495
158	0xbe167dca	-0.14696422
159	0x3e35806b	0.17724769
160	0xbe5586d3	-0.20852213
161	0xbe1335f6	-0.14376053
162	0xbdea6a4f	-0.11446058
163	0xbdaa1d47	-0.083063655
164	0xbd5c1209	-0.053728137
165	0x3e00caa4	0.12577301
166	0xbe09801d	-0.13427778
167	0x3e118c95	0.14213784
168	0x3dd63863	0.10459974
169	0x3e8fa640	0.28056526
170	0x3dcd6124	0.10028294
171	0x3c00749a	0.0078403
172	0x3dcdc1c1	0.10046721
173	0xbea10def	-0.31455943
174	0xbda1ecf7	-0.079065256
175	0xbe3685cb	-0.17824475
176	0xbdcb2dee	-0.0992087
177	0xbe2685cf	-0.16261981
178	0x3e8ce019	0.27514723
179	0xbc3b1248	-0.011417933
180	0x3e30c61a	0.1726307
181	0xbdeac507	-0.11463361
182	0xbe269d12	-0.16270855
183	0xbe4d219a	-0.20032349
184	0xbd9b14aa	-0.07572301
185	0x3e727506	0.23677453
186	0xbe4802fa	-0.19532385
187	0x3e197327	0.14985333
188	0xbc606709	-0.0136964405
189	0x3dca1d5e	0.098688826
190	0xbe3f5f8b	-0.1868879
191	0xbef8e828	-0.4861462
192	0xbdca1355	-0.098669685
193	0x3dec1843	0.11528065
194	0xbee2e2ca	-0.4431365
195	0x3dd404e0	0.10352492
196	0xbe27b12a	-0.16376176
197	0x3e1ff7ab	0.15621822
198	0x3d4e9627	0.050436165
199	0x3ea21c2a	0.31662112
200	0x3d89115a	0.06692763
201	0xbe608b4b	-0.21928136
202	0xbe326023	-0.17419486
203	0xbeab8df8	-0.3350675
204	0x3e981341	0.2970219
205	0xbea428dd	-0.32062426
206	0x3e2d8791	0.16946246
207	0xbe7d732c	-0.24750966
208	0x3ea18819	0.31549147
209	0xbd55cfb1	-0.052200023
210	0x3dc090e7	0.09402638
211	0xbdf36989	-0.118853636
212	0xbe8e27aa	-0.27764636
213	0x3d3a4f89	0.045486007
214	0xbe036d8e	-0.1283476
215	0xbde56368	-0.11200601
216	0x3cf63335	0.030053714
217	0x3bec8bbc	0.007218806
218	0x3e209cc4	0.15684801
219	0xbe67ae73	-0.22625141
220	0x3d0dcec8	0.03462103
221	0x3cb7b80f	0.022426633
222	0xbe3e3622	-0.18575338
223	0xbe018ddf	-0.12651776
224	0x3ecf1fc9	0.40453938
225	0xbc89a7f1	-0.016803714
226	0x3d4b67e5	0.04965963
227	0xbe198096	-0.14990458
228	0xbe1d4a32	-0.15360335
229	0x3ced0318	0.02893214
230	0x3e087d29	0.13328995
231	0xbdad3921	-0.08458162
232	0xbcc17042	-0.023613099
233	0xbafefc94	-0.0019453936
234	0xbe82c5a0	-0.255414
235	0x3da1a5eb	0.078929745
236	0xbbc86809	-0.0061159176
237	0xbcdb5f72	-0.02677891
238	0x3dbddf5c	0.09271118
239	0xbd974783	-0.07386687
240	0xbe350644	-0.17678171
241	0x3cd00c4a	0.025396485
242	0xbd0e51f3	-0.03474612
243	0xbde07270	-0.10959327
244	0x3ddad73f	0.10685586
245	0x3df526d5	0.11970297
246	0xbdb0f97b	-0.086413346
247	0x3d387ade	0.04503905
248	0x3db79eae	0.089658126
249	0xbe5d7c95	-0.21629556
250	0x3db528f5	0.088457026
251	0x3e1d895f	0.15384434
252	0xbe8ae35e	-0.27126592
253	0xbdbec1c1	-0.093142994
254	0x3ddaa1ee	0.10675417
255	0x3e497735	0.1967438

func_approx.network.4.bias f4 [30]
0	0xbe2abe00	-0.16674042
1	0x3d916941	0.07100154
2	0xbe023c8f	-0.12718414
3	0x3d02a64d	0.031896878
4	0x3d71bb3d	0.059016455
5	0x3dd16fad	0.102263786
6	0x3e006167	0.12537156
7	0xbe012d8f	-0.12615035
8	0x3e214649	0.15749468
9	0x3d9df66e	0.07713018
10	0xbdab18c6	-0.083543345
11	0x3e171070	0.14752364
12	0xbdf83936	-0.12120287
13	0x3db55ce1	0.08855606
14	0x3d7d73ba	0.061877944
15	0xbdcb28a6	-0.099198624
16	0xbba468dd	-0.0050173835
17	0xbd8b2cf9	-0.06795687
18	0xbe19a019	-0.15002479
19	0x3d4db45d	0.050220836
20	0xbd92f049	-0.07174737
21	0xbd83d8c3	-0.064378284
22	0x3dd2ba5a	0.1028945
23	0xbd540355	-0.05176099
24	0x3d9c7f2c	0.076414436
25	0xbd61f7ed	-0.05516808
26	0xbd3a8b0f	-0.045542773
27	0x3d90942a	0.0705951
28	0x3dabac03	0.08382418
29	0xbd9a3500	-0.0752964

func_approx.network.6.weight f4 [30, 30]
0	0xbd1e6167	-0.03866711
1	0x3e112ca2	0.14177182
2	0xbd932dca	-0.07186468
3	0xbe03497d	-0.12821002
4	0x3e409bd2	0.1880944
5	0x3e39fe39	0.18163384
6	0x3dc53271	0.096287616
7	0x3e0aa017	0.13537632
8	0xbde97969	-0.1140011
9	0x3ca72cb3	0.020407056
10	0x3e6c6d0c	0.23088473
11	0xbdd3a51a	-0.10334225
12	0xbcf32eb5	-0.029685358
13	0xbd800cc5	-0.062524356
14	0xbddedea7	-0.10882311
15	0x3d006483	0.031345855
16	0xbd9b4909	-0.0758229
17	0x3e12190a	0.14267364
18	0xbd57a1a7	-0.052644398
19	0xbdaf8a68	-0.08571321
20	0xbe20b641	-0.15694524
21	0xbe055ebf	-0.13024424
22	0x3e216949	0.1576282
23	0x3e6ecc74	0.2332018
24	0x3db5f730	0.08885038
25	0xbd91dc9e	-0.071221575
26	0xbd2f3aa5	-0.042780537
27	0xbe1fc3aa	-0.15601984
28	0x3e643afb	0.22288124
29	0x3e2f2b6b	0.17106406
30	0x3d9f733b	0.0778565
31	0x3e51344b	0.20430104
32	0x3e4ee183	0.20203213
33	0xbdee520e	-0.116367444
34	0xbda08690	-0.07838166
35	0xbe57671f	-0.21035431
36	0xbe415ae4	-0.18882328
37	0x3c9063d8	0.017625734
38	0x3e3504fd	0.17677684
39	0x3cb54167	0.022125913
40	0xbe328841	-0.17434789
41	0xbe506118	-0.20349538
42	0x3d4d8dc5	0.05018403
43	0x3d24d8cb	0.040245812
44	0x3e14c1fd	0.14527126
45	0xbdf049f8	-0.117328584
46	0x3e2ba459	0.16761912
47	0xbe02dc66	-0.12779388
48	0xbc0b03a8	-0.008484758
49	0xbe5ce688	-0.21572316
50	0xbd74e758	-0.05979094
51	0xbd7fcfc8	-0.062454015
52	0xbe6f3adf	-0.23362301
53	0xbe80b382	-0.25136954
54	0x3dc3fd0b	0.095697485
55	0xbd7d5709	-0.06185058
56	0x3e47fc1b	0.19529764
57	0xbd80f7b7	-0.06297248
58	0xbbe06125	-0.006847518
59	0x3d671598	0.056417078
60	0x3dead53a	0.11466451
61	0x3dce2d99	0.10067291
62	0xbd1586ab	-0.036505383
63	0x3d92cb32	0.07167663
64	0xbdc79309	-0.097448416
65	0x3d9552b3	0.07291164
66	0xbe058857	-0.13040291
67	0x3d02a62e	0.031896763
68	0x3cc9e522	0.024645392
69	0x3a77005c	0.0009422356
70	0xbd96cf81	-0.07363797
71	0x3e5268a0	0.20547724
72	0x3d880607	0.066417746
73	0x3d1dff61	0.038573626
74	0x3d8925b2	0.06696643
75	0x3d6a0985	0.057137985
76	0xbe5ea574	-0.21742803
77	0x3e0b5e6b	0.13610236
78	0x3d095eb1	0.03353757
79	0xbdcc0db7	-0.099635534
80	0x3d0740ac	0.03302066
81	0x3d4cab3c	0.04996799
82	0x3e1ff302	0.15620044
83	0x3cf40efd	0.029792303
84	0xbdb8a93e	-0.090166554
85	0x3e806f41	0.2508488
86	0x3ce53b52	0.027982388
87	0x3e837488	0.25674844
88	0xbe3559a0	-0.1770997
89	0xbe241dfe	-0.16027066
90	0xbdac9301	-0.08426476
91	0x3e145de5	0.14488943
92	0xbdec9f68	-0.11553842
93	0xbe42093d	-0.18948837
94	0xbde781ac	-0.1130403
95	0x3e6de16b	0.23230521
96	0x3e5d6008	0.21618664
97	0xbb74ddf5	-0.0037363742
98	0x3db475ae	0.08811508
99	0x3d00d71d	0.031455148
100	0x3bf466ae	0.0074585294
101	0xbe220739	-0.15823068
102	0x3b27190c	0.0025497107
103	0x3e346346	0.17615995
104	0x3b6458b9	0.0034842922
105	0x3e183bbf	0.14866541
106	0xbdef7edf	-0.116941206
107	0xbe431034	-0.1904915
108	0x3e1a50d9	0.15069903
109	0x3dddaa36	0.10823481
110	0xbbc68ce8	-0.006059278
111	0xbe2d12d8	-0.1690172
112	0x3e4dd244	0.20099741
113	0x3e818a04	0.2530061
114	0x3c219957	0.009863219
115	0x3d4852e9	0.048907194
116	0x3d68fba0	0.056880593
117	0xbdbbce14	-0.09170166
118	0xbd7620d4	-0.0600899
119	0x3d5e4040	0.054260492
120	0x3e63e33e	0.22254655
121	0xbe30f701	-0.17281725
122	0xbdde86e1	-0.1086557
123	0xbe1fdde0	-0.15611982
124	0x3deb9f6e	0.11505018
125	0x3dc154e7	0.09440022
126	0x3d37869d	0.04480611
127	0xbcdcc26e	-0.02694818
128	0x3deecfbb	0.11660715
129	0xbe57153b	-0.21004193
130	0x3db89770	0.090132594
131	0x3d4f3afc	0.05059336
132	0xbe0122c1	-0.12610914
133	0xbe4001e3	-0.1875072
134	0xbdfa216a	-0.122134045
135	0xbdc1f7be	-0.09471081
136	0xbb819b3a	-0.003955272
137	0x3d68f392	0.05687291
138	0x3e0d49aa	0.13797632
139	0xbe2b96b4	-0.16756707
140	0xbdd0ae10	-0.1018945
141	0x3ca317d2	0.01990882
142	0x3e1efc55	0.15525945
143	0xbdfe659b	-0.124217235
144	0x3e43e5a1	0.19130565
145	0x3e708661	0.23488761
146	0x3e0fa262	0.14026788
147	0x3e9693ed	0.29409733
148	0xbe73a63c	-0.23793882
149	0x3cc77b5b	0.024350813
150	0xbe57f5e5	-0.21089895
151	0xbe4f5f43	-0.20251183
152	0xbc08b820	-0.00834468
153	0x3beab07d	0.0071621523
154	0xbd8d3566	-0.068949506
155	0x3e998cdd	0.29990283
156	0x3e31eb12	0.17374828
157	0xbd4d7597	-0.05016097
158	0x3e3573e9	0.17719997
159	0x3e9f3f6e	0.3110308
160	0x3a9b6f0c	0.0011858656
161	0xbdaef178	-0.0854215
162	0xbe08ecee	-0.13371632
163	0x3e9644ad	0.2934927
164	0x38b06d00	8.412637e-05
165	0xbd16a248	-0.036775857
166	0x3cdc41c2	0.026886825
167	0xbe06b072	-0.13153246
168	0xbda41665	-0.08012084
169	0x3e27f8a7	0.16403447
170	0xbc7ff1d2	-0.015621619
171	0x3ceb4083	0.028717285
172	0x3e177080	0.14789009
173	0x3e9bf565	0.3046066
174	0x3d009f9d	0.03140222
175	0x3e10bf11	0.14135386
176	0xbe977a53	-0.29585513
177	0xbe3f222f	-0.18665384
178	0x3e01e896	0.1268638
179	0x3c8a814f	0.016907362
180	0xbddd54f1	-0.10807217
181	0xbc48e2c5	-0.012261097
182	0xbded9a1b	-0.11601659
183	0x3dd0ec15	0.10201279
184	0x3dda89b9	0.106708
185	0x3d259d8c	0.04043345
186	0x3d3e76a4	0.046499863
187	0x3e1bce2f	0.15215372
188	0x3d34177a	0.0439677
189	0x3cdeeab8	0.027211532
190	0x3da10f1c	0.0786421
191	0xbda1caf5	-0.07900039
192	0xbde59318	-0.112096965
193	0x3b9f23e9	0.0048565757
194	0x3d9e39ba	0.07725854
195	0x3e19e8c5	0.15030201
196	0x3e192689	0.14956106
197	0xbe2269f8	-0.15860736
198	0xbe39aac8	-0.18131554
199	0x3da7c7f3	0.08192434
200	0xbde3b603	-0.111187
201	0x3df4d8ea	0.119554356
202	0x3ce033cf	0.027368454
203	0x3db9b073	0.09066858
204	0xbd3a3699	-0.045462225
205	0x3e298e18	0.1655811
206	0x3e0a9e9e	0.1353707
207	0xbd1ec638	-0.038763255
208	0xbe1c6935	-0.15274508
209	0xbe269839	-0.16269006
210	0xbd1a38bc	-0.037651762
211	0xbde0e110	-0.10980427
212	0xbdc9169a	-0.09818764
213	0xbd42867e	-0.047491543
214	0x3e2c457c	0.16823381
215	0xbdf63a93	-0.12022891
216	0xbd4cc539	-0.049992774
217	0xbe0463ba	-0.12928668
218	0xbe20caff	-0.15702437
219	0xbd4042a4	-0.046938553
220	0x3e2abd2e	0.16673729
221	0xbd5529de	-0.05204188
222	0xbd16281c	-0.036659345
223	0x3d1a2e83	0.037642013
224	0xbda84ff0	-0.08218372
225	0x3e1591da	0.14606419
226	0x3c9143ce	0.017732527
227	0xbe2e797f	-0.17038535
228	0xbd70acdc	-0.0587586
229	0x3da5bac9	0.08092267
230	0xbe49c83b	-0.19705288
231	0x3dba3449	0.09092004
232	0xbd67c3f9	-0.05658338
233	0xbd35fdb3	-0.0444314
234	0xbddfa2d3	-0.10919728
235	0x3d3ad3b0	0.045612037
236	0xbda8baff	-0.08238792
237	0xbe3d971d	-0.18514676
238	0x3dfa0fc3	0.122100376
239	0x3e7aa3ff	0.24476622
240	0x3e117f50	0.14208722
241	0x3d8ef97e	0.069811806
242	0xbdf3d3d1	-0.11905635
243	0x3a330442	0.00068289426
244	0xbda4519d	-0.08023379
245	0x3d67d027	0.056594994
246	0x3d53e7cc	0.05173473
247	0xbda3981d	-0.07987998
248	0xbe1f4f55	-0.15557607
249	0x3d485e9a	0.048918344
250	0xbe201604	-0.15633398
251	0xbe208d36	-0.15678868
252	0x3e36ba4c	0.17844504
253	0x3d6f61b9	0.058442805
254	0x3cd88126	0.02642877
255	0xbca2af68	-0.01985903

func_approx.network.6.bias f4 [30]
0	0xbe097a7d	-0.13425632
1	0x3c9c906a	0.01911183
2	0xbd15e264	-0.036592856
3	0xbe15ec2f	-0.14640878
4	0x3e262800	0.16226196
5	0xbdf31130	-0.11868513
6	0xbc2b1fcf	-0.0104445955
7	0xbc09f7d6	-0.008420905
8	0x3e050a1f	0.12992142
9	0xbd502ad4	-0.050822094
10	0x3e3ce92f	0.18448327
11	0xbdf4fe87	-0.1196261
12	0x3e096523	0.13417487
13	0x3dbfecd4	0.09371343
14	0xbe0ee471	-0.13954331
15	0xbe08733b	-0.13325207
16	0xbcdfb4fe	-0.027307983
17	0x3c888e72	0.016669486
18	0x3d9f69d2	0.077838555
19	0xbcc14d9f	-0.023596583
20	0xbd311080	-0.043228626
21	0x3df4628a	0.11932857
22	0xbd6c2838	-0.057655543
23	0xbdeb7a9f	-0.114979975
24	0x3e1eb1c1	0.15497495
25	0xbd2a4cee	-0.041577272
26	0x3d453f91	0.048156325
27	0x3e196a9e	0.14982077
28	0xbdee870b	-0.11646851
29	0x3de817cc	0.11332664

func_approx.network.8.weight f4 [1, 30]
0	0x3e3859bb	0.1800298
1	0xbe119e84	-0.14220625
2	0xbda68bb2	-0.081321135
3	0x3e034767	0.12820207
4	0xbd7efa03	-0.06225015
5	0x3dd7cece	0.10537492
6	0x3b47171e	0.003037877
7	0x3e4f3257	0.20234047
8	0xbddcb37a	-0.1077642
9	0xbbcb427b	-0.0062029934
10	0x3e4c6962	0.19962075
11	0xbe24b3ba	-0.16084185
12	0x3df361a2	0.11883856
13	0x3e8e5b87	0.27804205
14	0x3d8b9863	0.06816175
15	0xbe3f81ba	-0.1870183
16	0x3cb061e0	0.021531045
17	0x3e044c42	0.12919715
18	0x3e3589c9	0.17728342
19	0xbe43592a	-0.19076982
20	0xbe387eb7	-0.18017088
21	0xbe581663	-0.2110229
22	0xbc9907c9	-0.01868047
23	0x3e60c3e3	0.21949725
24	0xbddf2ebb	-0.10897585
25	0x3e94008c	0.28906667
26	0xbe88e67c	-0.26738346
27	0xbe269212	-0.16266659
28	0xbd16c1c7	-0.036805894
29	0x3d3c0f42	0.04591299

exp_avg f4 [30, 2]
0	0xb5042ceb	-4.9239196e-07
1	0xb58aae74	-1.0332574e-06
2	0xb603580b	-1.957177e-06
3	0xb4d54a2d	-3.9728312e-07
4	0xb5da6c58	-1.6273798e-06
5	0x35822d10	9.69887e-07
6	0x346eb0d9	2.2229814e-07
7	0xb518a5ea	-5.686585e-07
8	0xb562396d	-8.4275126e-07
9	0x35843fac	9.853297e-07
10	0xb4cb77c6	-3.7898843e-07
11	0x34e60a00	4.2848114e-07
12	0x35a844ee	1.2537037e-06
13	0xb564490c	-8.5042916e-07
14	0x3618d4cc	2.277363e-06
15	0xb569ba44	-8.7070316e-07
16	0xb5f59c77	-1.829946e-06
17	0x357a4f68	9.324781e-07
18	0x35e1d5f4	1.6826075e-06
19	0x34ec1624	4.3974535e-07
20	0xb58a9f48	-1.0328158e-06
21	0xb658c417	-3.2300647e-06
22	0xb61659f4	-2.2404101e-06
23	0xb456b828	-1.9997299e-07
24	0x36badd7d	5.5690166e-06
25	0xb69c5160	-4.6586356e-06
26	0x359c3c1a	1.1640398e-06
27	0xb55b2757	-8.1641105e-07
28	0xb51fc490	-5.951815e-07
29	0x35870a3e	1.0061265e-06
30	0xb58091f6	-9.579223e-07
31	0xb4b8edae	-3.4445605e-07
32	0xb6e6ffa1	-6.8842933e-06
33	0xb3f67b81	-1.1477733e-07
34	0x35a3f297	1.2215049e-06
35	0xb3d55ae2	-9.935117e-08
36	0x36a8635c	5.018357e-06
37	0x35e9ebfa	1.7428531e-06
38	0xb56a2e2b	-8.7238976e-07
39	0x341005bd	1.3413133e-07
40	0x34347226	1.6805333e-07
41	0x34546b14	1.9782993e-07
42	0x35b00788	1.3115214e-06
43	0x355f0b5f	8.309052e-07
44	0x34f49d06	4.556279e-07
45	0xb5089aba	-5.0889105e-07
46	0x3457d710	2.0101675e-07
47	0x35bf7f52	1.4267664e-06
48	0xb520ac5a	-5.985545e-07
49	0xb5954908	-1.112262e-06
50	0x35a34abe	1.2166199e-06
51	0xb57ce214	-9.42063e-07
52	0xb5ed9e51	-1.7703952e-06
53	0xb624d0af	-2.4559374e-06
54	0xb529cec9	-6.325832e-07
55	0xb6025e1b	-1.9426286e-06
56	0x366cb07c	3.5269468e-06
57	0xb5850494	-9.910605e-07
58	0x3606f547	2.0110326e-06
59	0xb6013af2	-1.9256809e-06

exp_avg_sq f4 [30, 2]
0	0x2a888c17	2.425566e-13
1	0x2b96482b	1.0678172e-12
2	0x2c86c71a	3.8306138e-12
3	0x2a31b65d	1.5784028e-13
4	0x2c3a5ee1	2.6484858e-12
5	0x2b8463eb	9.406897e-13
6	0x295e946c	4.9422638e-14
7	0x2ab61601	3.2344963e-13
8	0x2b47f665	7.1040943e-13
9	0x2b88a49e	9.709072e-13
10	0x2a21c68a	1.4368555e-13
11	0x2a4eb7f5	1.8360298e-13
12	0x2bdd35e8	1.5717956e-12
13	0x2b4b934f	7.232452e-13
14	0x2cb67bef	5.1865105e-12
15	0x2b556952	7.581896e-13
16	0x2c6ba5e9	3.3487607e-12
17	0x2b74ce5f	8.697261e-13
18	0x2c473a29	2.8311886e-12
19	0x2a59f35b	1.9357903e-13
20	0x2b962672	1.0668812e-12
21	0x2d3792ce	1.0434943e-11
22	0x2cb09b57	5.019467e-12
23	0x29343a97	4.0018847e-14
24	0x2e086800	3.101519e-11
25	0x2dbee6c2	2.1702976e-11
26	0x2bbeb3a3	1.3550171e-12
27	0x2b3ba478	6.666399e-13
28	0x2ac78eca	3.544858e-13
29	0x2b8e7817	1.0123038e-12
30	0x2b81255c	9.176371e-13
31	0x2a059862	1.1865641e-13
32	0x2e50737c	4.7396295e-11
33	0x286d943d	1.3188287e-14
34	0x2bd1fe0c	1.4920855e-12
35	0x28329438	9.913125e-15
36	0x2ddd8631	2.5184384e-11
37	0x2c55dbe8	3.0391193e-12
38	0x2b563d97	7.6113546e-13
39	0x28a2276a	1.8002706e-14
40	0x28fe7897	2.8251962e-14
41	0x29305c1f	3.9159753e-14
42	0x2bf21c4b	1.7202987e-12
43	0x2b425a00	6.9047545e-13
44	0x2a69e111	2.0772643e-13
45	0x2a91cb69	2.5898318e-13
46	0x2936182a	4.0433077e-14
47	0x2c0f47ad	2.036131e-12
48	0x2ac9b1c8	3.5828133e-13
49	0x2bae1d4c	1.2371575e-12
50	0x2bd0519c	1.480194e-12
51	0x2b79cf2f	8.8750096e-13
52	0x2c5c8ee9	3.1343211e-12
53	0x2cd43bac	6.0320273e-12
54	0x2ae14697	4.001701e-13
55	0x2c84cc2c	3.7743333e-12
56	0x2d5ad9c3	1.2440218e-11
57	0x2b8a3f60	9.82308e-13
58	0x2c8e4c85	4.044378e-12
59	0x2c827940	3.7082837e-12

max_exp_avg_sq f4 [30, 2]
0	0x35092a8d	5.1098397e-07
1	0x3570e755	8.97436e-07
2	0x34450301	1.8348148e-07
3	0x35dab3b1	1.6294563e-06
4	0x3634dfb7	2.695231e-06
5	0x36f7e510	7.38784e-06
6	0x35bc85cd	1.4046033e-06
7	0x3627c088	2.4997007e-06
8	0x3619fd34	2.294616e-06
9	0x35dd4916	1.6487054e-06
10	0x36faafbb	7.4710383e-06
11	0x35c9002b	1.4975716e-06
12	0x3612c320	2.1869273e-06
13	0x36a66561	4.9589876e-06
14	0x3634526e	2.687007e-06
15	0x367fce4f	3.8118048e-06
16	0x36c7168a	5.933286e-06
17	0x3731f943	1.0608058e-05
18	0x35a54965	1.2314819e-06
19	0x3700964f	7.664391e-06
20	0x350be3c3	5.211297e-07
21	0x362d4680	2.5820045e-06
22	0x35146f82	5.529656e-07
23	0x36046f76	1.9734412e-06
24	0x354388c1	7.2842164e-07
25	0x3590e2f3	1.0794887e-06
26	0x34aae9d0	3.1835089e-07
27	0x356d5d9f	8.8425617e-07
28	0x37afd5e2	2.0961223e-05
29	0x37c4e81b	2.3473103e-05
30	0x34368900	1.6999911e-07
31	0x3509125b	5.106319e-07
32	0x34c8b624	3.7385428e-07
33	0x34d6213b	3.9884785e-07
34	0x374d3e2a	1.2233426e-05
35	0x3762def6	1.3522562e-05
36	0x3459bb2c	2.0277793e-07
37	0x34c64221	3.692849e-07
38	0x3531f294	6.6290636e-07
39	0x35827f06	9.722723e-07
40	0x36eaff6f	7.00348e-06
41	0x369dd995	4.7042945e-06
42	0x36165116	2.239894e-06
43	0x36400107	2.8610827e-06
44	0x3642a0bc	2.9001812e-06
45	0x35d07462	1.553108e-06
46	0x353e34ac	7.0857163e-07
47	0x35fe202d	1.8933839e-06
48	0x3415ade5	1.3939969e-07
49	0x351b9e7f	5.797264e-07
50	0x339b3d93	7.22895e-08
51	0x34e0ae65	4.185014e-07
52	0x35680a95	8.6442134e-07
53	0x35c543bc	1.4697357e-06
54	0x35c079a5	1.4340518e-06
55	0x36430579	2.906045e-06
56	0x36500a26	3.1000322e-06
57	0x35b96ada	1.3814672e-06
58	0x36298e35	2.5265738e-06
59	0x3582ffb0	9.76017e-07

exp_avg f4 [30]
0	0xb53d6a78	-7.056292e-07
1	0xb515290d	-5.556656e-07
2	0xb591f7cc	-1.087546e-06
3	0xb3b7e1eb	-8.562696e-08
4	0x35924115	1.0896789e-06
5	0xb5c7c1b4	-1.488303e-06
6	0xb4c6d3be	-3.7034437e-07
7	0xb543474a	-7.27469e-07
8	0xb540c7f8	-7.1816567e-07
9	0xb585e880	-9.976939e-07
10	0x361b276c	2.3119746e-06
11	0x35271aa1	6.22511e-07
12	0xb543fb73	-7.300907e-07
13	0xb5839baa	-9.805565e-07
14	0xb60ea0d4	-2.1253263e-06
15	0xb5160a1c	-5.5894066e-07
16	0xb56536d0	-8.538891e-07
17	0xb482faef	-2.4396965e-07
18	0x35816156	9.639577e-07
19	0x3650781b	3.1064326e-06
20	0x3374f086	5.7029432e-08
21	0xb1b45d78	-5.2493156e-09
22	0x35a69cdd	1.2413617e-06
23	0xb5820d17	-9.689564e-07
24	0x33a887f5	7.84784e-08
25	0xb4808ca5	-2.394419e-07
26	0x356bf865	8.7905784e-07
27	0x3562814e	8.4379724e-07
28	0xb5da6fcb	-1.6274802e-06
29	0x353ebc9c	7.105498e-07

exp_avg_sq f4 [30]
0	0x2b0c26bc	4.9791746e-13
1	0x2aadd308	3.0877406e-13
2	0x2ba6769f	1.1827933e-12
3	0x2804dfe8	7.376024e-15
4	0x2ba7245c	1.1876155e-12
5	0x2c1be481	2.215367e-12
6	0x2a1a7422	1.371824e-13
7	0x2b14f700	5.2922944e-13
8	0x2b11344b	5.158692e-13
9	0x2b8c184b	9.954341e-13
10	0x2cbc11cf	5.3452585e-12
11	0x2ada36fa	3.8762727e-13
12	0x2b160b2a	5.33062e-13
13	0x2b875177	9.614938e-13
14	0x2c9eefeb	4.5172663e-12
15	0x2aafe264	3.1243335e-13
16	0x2b4d418e	7.2921606e-13
17	0x2986179d	5.954892e-14
18	0x2b82c9b5	9.29304e-13
19	0x2d29c463	9.650144e-12
20	0x276bcfe5	3.2725501e-15
21	0x252cd90e	1.4992163e-16
22	0x2bd8e8c7	1.5412332e-12
23	0x2b842300	9.388879e-13
24	0x27dfeccf	6.215168e-15
25	0x29812042	5.7343466e-14
26	0x2b59848f	7.727785e-13
27	0x2b486a34	7.120166e-13
28	0x2c3a638f	2.6487456e-12
29	0x2b0e1dfa	5.0490135e-13

max_exp_avg_sq f4 [30]
0	0x35b51de8	1.3494255e-06
1	0x347d8d5d	2.3613889e-07
2	0x36eef4ac	7.1214363e-06
3	0x3682442b	3.8822377e-06
4	0x36a26189	4.839331e-06
5	0x379cdb79	1.8698849e-05
6	0x36d3dc59	6.313942e-06
7	0x36eaa356	6.9927582e-06
8	0x37872f74	1.6115351e-05
9	0x3651f977	3.1288635e-06
10	0x35c151f8	1.4403477e-06
11	0x35c70396	1.4827699e-06
12	0x35f4a104	1.8226278e-06
13	0x357a506d	9.324929e-07
14	0x3855fc57	5.1018167e-05
15	0x350ed1bc	5.3204326e-07
16	0x35737d94	9.0707294e-07
17	0x380bc822	3.332657e-05
18	0x35275a9d	6.234421e-07
19	0x361a2c2e	2.2973504e-06
20	0x379d49a3	1.8750148e-05
21	0x36a21de6	4.831457e-06
22	0x36e77b8c	6.898719e-06
23	0x35fac33c	1.8683272e-06
24	0x3455b907	1.9904483e-07
25	0x347ab136	2.3347533e-07
26	0x3639f709	2.7710942e-06
27	0x36620356	3.3678566e-06
28	0x3701032c	7.689738e-06
29	0x36e63030	6.860144e-06

exp_avg f4 [30, 30]
0	0xb3f23c47	-1.12799675e-07
1	0xb429e5b6	-1.582292e-07
2	0xb4c2274f	-3.6163917e-07
3	0x34c41240	3.6521124e-07
4	0xb3b53be5	-8.439364e-08
5	0xb3d80266	-1.005872e-07
6	0x342dbb7a	1.6180084e-07
7	0x34070e98	1.2578164e-07
8	0xb497abe0	-2.8250997e-07
9	0x34d4125c	3.9501435e-07
10	0xb431e9e7	-1.6569503e-07
11	0x33558634	4.9714984e-08
12	0xb378404c	-5.7800477e-08
13	0x33a63a59	7.740591e-08
14	0xb45015c4	-1.9379428e-07
15	0xb2a9113d	-1.9682028e-08
16	0xb43014a6	-1.6398789e-07
17	0x349240e6	2.724184e-07
18	0x3500448d	4.778347e-07
19	0x32319e8f	1.0338808e-08
20	0xb4849254	-2.4693384e-07
21	0xb446a21c	-1.8499162e-07
22	0x339c5ce6	7.281214e-08
23	0xb282e448	-1.5237802e-08
24	0xb35dbcb1	-5.1627186e-08
25	0x349e0d37	2.9439408e-07
26	0x34e7b7a5	4.3160722e-07
27	0x33f51246	1.14120255e-07
28	0xb3699511	-5.4385115e-08
29	0x340c0e02	1.3043612e-07
30	0xb44f1be6	-1.9288527e-07
31	0xb49cd295	-2.9210483e-07
32	0xb4b0b8c0	-3.2916978e-07
33	0x34d1f9d5	3.911106e-07
34	0xb2fee330	-2.9672805e-08
35	0xb32649fe	-3.8717182e-08
36	0x34919608	2.7117517e-07
37	0x3479c8e4	2.3263016e-07
38	0xb4f2e459	-4.5242157e-07
39	0x3480a359	2.396071e-07
40	0xb449e7ef	-1.880396e-07
41	0xb4826ee3	-2.4295068e-07
42	0x33578d3a	5.0187033e-08
43	0x34e9d32c	4.355328e-07
44	0xb423fb69	-1.527202e-07
45	0xb4f099ff	-4.481553e-07
46	0xb2c1fd37	-2.2583306e-08
47	0x34dba40d	4.0911291e-07
48	0x342c42d0	1.6043055e-07
49	0xb481f97a	-2.420964e-07
50	0xb4c7092b	-3.707331e-07
51	0x32a78e8f	1.9506187e-08
52	0x335b840a	5.111e-08
53	0xb4ac9101	-3.2143e-07
54	0xb424408b	-1.5297171e-07
55	0xb2fe061c	-2.957227e-08
56	0xb2f7dde7	-2.8855494e-08
57	0x34214922	1.5020899e-07
58	0x33b78537	8.545833e-08
59	0x31acf9ae	5.034244e-09
60	0xb4ac46e9	-3.208909e-07
61	0x35832555	9.771126e-07
62	0x33b1e740	8.284269e-08
63	0x33645957	5.316664e-08
64	0x35e0964b	1.6733042e-06
65	0xb5869a4e	-1.0028687e-06
66	0xb5309141	-6.577648e-07
67	0xb5a49209	-1.2261454e-06
68	0x335f1dc7	5.1948316e-08
69	0xb553ac54	-7.8854396e-07
70	0x35e11879	1.6770929e-06
71	0x3579b61d	9.302474e-07
72	0xb61bc158	-2.320934e-06
73	0xb4bc8107	-3.5111609e-07
74	0xb52df8f7	-6.4809814e-07
75	0x34bb633c	3.4903667e-07
76	0x35eab83c	1.7487978e-06
77	0xb2fb8bd1	-2.9283827e-08
78	0xb54c2f73	-7.606497e-07
79	0x35bda67d	1.4130052e-06
80	0xb33f1141	-4.4486345e-08
81	0x33f44dc5	1.13762816e-07
82	0x35289e26	6.2815013e-07
83	0xb3b77fe2	-8.544863e-08
84	0x351c3726	5.819478e-07
85	0xb6245cc3	-2.4491899e-06
86	0xb465f0c3	-2.1414876e-07
87	0x34c1f1d6	3.612501e-07
88	0xb59c5f08	-1.1650563e-06
89	0xb6042715	-1.9692282e-06
90	0x345f8737	2.0817684e-07
91	0xb38366a4	-6.118833e-08
92	0x34768203	2.2957833e-07
93	0xb53b7e30	-6.9846556e-07
94	0xb46a0e17	-2.1798074e-07
95	0x32e3ec48	2.6533726e-08
96	0xb3ea36e5	-1.09064594e-07
97	0x3419e72b	1.4333334e-07
98	0x34d2028c	3.91174e-07
99	0xb28862b0	-1.5877362e-08
100	0xb4e70824	-4.3033026e-07
101	0xb49c9856	-2.9168103e-07
102	0x34df09d0	4.1544126e-07
103	0x3148a98d	2.920021e-09
104	0x347674a2	2.2952966e-07
105	0x33aeb4c5	8.135388e-08
106	0xb5916eef	-1.0835628e-06
107	0xb4f8b0e1	-4.6322296e-07
108	0x350e9891	5.3121136e-07
109	0xb5009102	-4.789473e-07
110	0x3504d322	4.948107e-07
111	0x350b320d	5.185437e-07
112	0x32e4445d	2.6573781e-08
113	0xb14757f2	-2.9008302e-09
114	0x3278a69f	1.4473385e-08
115	0x34cb3fa7	3.785801e-07
116	0xb5694b8e	-8.690921e-07
117	0xb4b0e9ec	-3.2952755e-07
118	0x35020ff4	4.845199e-07
119	0x34bf5286	3.5636566e-07
120	0x35a94b19	1.2613338e-06
121	0x35599ccf	8.1066986e-07
122	0x35dc7c0d	1.6427381e-06
123	0xb5b9277d	-1.3795067e-06
124	0xb48ca02a	-2.6193567e-07
125	0x354d8f7b	7.657724e-07
126	0xb50b6aed	-5.193713e-07
127	0xb52fa745	-6.543599e-07
128	0x35b32ce3	1.3349603e-06
129	0xb5e5ec73	-1.7130645e-06
130	0x358fc4b9	1.0711584e-06
131	0x34cc956d	3.8106683e-07
132	0xb50fa5e0	-5.351303e-07
133	0xb5ac883f	-1.2854651e-06
134	0x35ad8196	1.2927219e-06
135	0x359551e2	1.1125196e-06
136	0x3585190c	9.916562e-07
137	0xb5a27e52	-1.2106705e-06
138	0xb5930372	-1.0953356e-06
139	0x3555ddfc	7.9671713e-07
140	0x3598c0bb	1.1380974e-06
141	0x34f6faa4	4.6003436e-07
142	0xb53a6c16	-6.9447685e-07
143	0x354d4497	7.646826e-07
144	0xb3e76bc4	-1.0776378e-07
145	0xb5cec23d	-1.5404727e-06
146	0xb5a542a1	-1.231285e-06
147	0xb5cd4f52	-1.5296775e-06
148	0x34b8e9cc	3.444278e-07
149	0x33e54b31	1.0677321e-07
150	0xb4fc2f18	-4.6972923e-07
151	0xb3843c90	-6.157745e-08
152	0xb517e999	-5.659181e-07
153	0x3489a39c	2.563728e-07
154	0x34c226a9	3.6163445e-07
155	0xb4f9e935	-4.6549545e-07
156	0xb26d90af	-1.3828113e-08
157	0xafb22b53	-3.2408795e-10
158	0xb4a71e26	-3.112811e-07
159	0x35090881	5.104885e-07
160	0xb464e301	-2.1316738e-07
161	0xb38b7e37	-6.49565e-08
162	0xb435d3d8	-1.6934007e-07
163	0x34d346a5	3.9353213e-07
164	0xb50aeb79	-5.1751664e-07
165	0xb4a46f8d	-3.0628544e-07
166	0x34c63859	3.6921372e-07
167	0x34883d7d	2.5376713e-07
168	0x33f270e7	1.128954e-07
169	0xb436314d	-1.6968006e-07
170	0xb4801769	-2.385889e-07
171	0xb2479d8a	-1.1619145e-08
172	0x34c778dd	3.7154578e-07
173	0xb499ea70	-2.8669047e-07
174	0x3432d751	1.6655873e-07
175	0x349fd219	2.9768924e-07
176	0x3472594d	2.2570494e-07
177	0x350c052b	5.2161585e-07
178	0xb428918a	-1.5699166e-07
179	0xb4949119	-2.767272e-07
180	0x33d36768	9.844263e-08
181	0xb50c6158	-5.229572e-07
182	0x331c0b2d	3.6331745e-08
183	0x35320250	6.631353e-07
184	0xb4b1b208	-3.3098354e-07
185	0x349177b7	2.709546e-07
186	0x35012461	4.8109183e-07
187	0x34fc408b	4.698562e-07
188	0xb50f587e	-5.3400424e-07
189	0xb2e4576a	-2.6582445e-08
190	0x340d9819	1.3186981e-07
191	0xb3f1b018	-1.1254468e-07
192	0x34c9efa9	3.7613543e-07
193	0x3335bc91	4.2313847e-08
194	0x34197e54	1.4295193e-07
195	0xb482beac	-2.435312e-07
196	0x3388bfb7	6.367866e-08
197	0x350c09b5	5.216819e-07
198	0xb4130295	-1.3691381e-07
199	0x3206e1a5	7.851132e-09
200	0xb4e8433f	-4.3262295e-07
201	0xb4e2d29b	-4.2249016e-07
202	0xb4965b54	-2.8006127e-07
203	0x32985eb7	1.77382e-08
204	0xb4afe792	-3.276478e-07
205	0xb325523f	-3.849186e-08
206	0x353cc485	7.032143e-07
207	0xb34ae689	-4.724146e-08
208	0x321151b8	8.4586915e-09
209	0x34a02aa4	2.9833348e-07
210	0x330d8744	3.2952144e-08
211	0x344304d2	1.8162544e-07
212	0x3354901c	4.9491163e-08
213	0xb44fad08	-1.9341326e-07
214	0x33e411a0	1.0620283e-07
215	0xb326cc97	-3.883596e-08
216	0xb41a89b3	-1.4392462e-07
217	0xb4335b6f	-1.6703937e-07
218	0x342d7a81	1.6156447e-07
219	0xb259bd67	-1.26741275e-08
220	0xb359138a	-5.054202e-08
221	0x340c2883	1.3053254e-07
222	0xb44b780a	-1.8949518e-07
223	0xb3cfb6df	-9.672453e-08
224	0x327f4751	1.4859169e-08
225	0x3454f415	1.9832835e-07
226	0x342b97ca	1.5980837e-07
227	0xb4261610	-1.5467981e-07
228	0xb34f8f5c	-4.8326328e-08
229	0x32c86d4a	2.3332763e-08
230	0x341250d0	1.3626709e-07
231	0x33d522fe	9.9249505e-08
232	0x32fd6183	2.949742e-08
233	0x339be684	7.2596805e-08
234	0x33b497bc	8.4095035e-08
235	0x336e33ad	5.5460692e-08
236	0xb455a23c	-1.9896191e-07
237	0xb342e2d0	-4.537543e-08
238	0xb3898a61	-6.4047306e-08
239	0xb3e4e0a5	-1.065794e-07
240	0x351182eb	5.420722e-07
241	0x347c738a	2.3511362e-07
242	0xb5082111	-5.0712066e-07
243	0xb4b770a0	-3.4168352e-07
244	0x32e15867	2.6233648e-08
245	0xb364d1fa	-5.327636e-08
246	0xb45c006d	-2.0489252e-07
247	0xb4279494	-1.560714e-07
248	0x34d3a3a7	3.9420885e-07
249	0x35670ebf	8.6075664e-07
250	0xb53120ad	-6.598519e-07
251	0xb48d5140	-2.6322414e-07
252	0x335ceeb7	5.143985e-08
253	0x3322674d	3.7812516e-08
254	0x348d960b	2.6372467e-07
255	0x338ec3ce	6.648007e-08

exp_avg_sq f4 [30, 30]
0	0x28658897	1.2741672e-14
1	0x28e19738	2.5045599e-14
2	0x2a134462	1.3079948e-13
3	0x2a163920	1.3342496e-13
4	0x28006d4a	7.129126e-15
5	0x2836b5a3	1.0142416e-14
6	0x28ebe151	2.6187956e-14
7	0x288e93e7	1.582931e-14
8	0x29b3c152	7.9827326e-14
9	0x2a2fb659	1.5606387e-13
10	0x28f78c37	2.7483317e-14
11	0x2732dc94	2.4822038e-15
12	0x277272e5	3.364653e-15
13	0x27d85cd2	6.005268e-15
14	0x29293852	3.757439e-14
15	0x25e7a363	4.0182827e-16
16	0x28f3384d	2.7002836e-14
17	0x29a7293b	7.423442e-14
18	0x2a8093d6	2.283995e-13
19	0x25079710	1.1760565e-16
20	0x29895e7d	6.100413e-14
21	0x291a3a08	3.4245203e-14
22	0x27bfd407	5.324303e-15
23	0x258ea689	2.4745922e-16
24	0x2740ab07	2.6738067e-15
25	0x29c347f9	8.672225e-14
26	0x2a51c522	1.8631323e-13
27	0x286acea7	1.303442e-14
28	0x2755ebef	2.9687588e-15
29	0x28994bf8	1.7019358e-14
30	0x29279389	3.7209415e-14
31	0x29c027ee	8.5334395e-14
32	0x29f402b6	1.0836247e-13
33	0x2a2c3ad2	1.5297076e-13
34	0x26813c31	8.967488e-16
35	0x26d8c76c	1.5042064e-15
36	0x29a599f8	7.354181e-14
37	0x2973c3fe	5.4126835e-14
38	0x2a667587	2.0468879e-13
39	0x29814f87	5.7425466e-14
40	0x291f4aad	3.5369863e-14
41	0x2984ec55	5.9029746e-14
42	0x273744a3	2.543356e-15
43	0x2a5593a2	1.8969421e-13
44	0x28d21e32	2.3327779e-14
45	0x2a622255	2.0084744e-13
46	0x261775f2	5.2548495e-16
47	0x2a3c72ca	1.673758e-13
48	0x28e809f0	2.5761484e-14
49	0x2983fdf5	5.861623e-14
50	0x2a1abf9b	1.3744424e-13
51	0x25dd0771	3.834243e-16
52	0x273c6a58	2.614789e-15
53	0x29e8a814	1.03320266e-13
54	0x28d2cd11	2.3403617e-14
55	0x2681049a	8.95242e-16
56	0x267123f5	8.36624e-16
57	0x28cb4da4	2.2571199e-14
58	0x2803bb35	7.312555e-15
59	0x2443bfe4	4.2446422e-17
60	0x29e7e06e	1.0297393e-13
61	0x2b8664e6	9.549278e-13
62	0x27fb8b7b	6.981772e-15
63	0x2753fc95	2.9419057e-15
64	0x2c450ae0	2.800142e-12
65	0x2b8d9197	1.0059062e-12
66	0x2af3a4c1	4.3279792e-13
67	0x2bd39dc3	1.5036239e-12
68	0x274ab7f6	2.8132857e-15
69	0x2b2f12a0	6.2198337e-13
70	0x2c45efab	2.8128426e-12
71	0x2b739ade	8.6545864e-13
72	0x2cbd8a75	5.387075e-12
73	0x2a0aeac2	1.233831e-13
74	0x2aec7638	4.2004052e-13
75	0x2a094615	1.2192359e-13
76	0x2c5735a3	3.0583112e-12
77	0x268ac55e	9.62917e-16
78	0x2b22e289	5.786834e-13
79	0x2c0c81f1	1.9967329e-12
80	0x27139cba	2.048531e-15
81	0x28692c33	1.2943682e-14
82	0x2ade2819	3.9462945e-13
83	0x28043a19	7.34007e-15
84	0x2abeb32b	3.3875103e-13
85	0x2cd31054	5.9987935e-12
86	0x294e929f	4.5868362e-14
87	0x2a12f38f	1.3051906e-13
88	0x2bbf0b3f	1.3574488e-12
89	0x2c887266	3.8780533e-12
90	0x2943378e	4.3346884e-14
91	0x27874098	3.754006e-15
92	0x296d6e57	5.2720276e-14
93	0x2b095234	4.8786257e-13
94	0x2956011e	4.7518514e-14
95	0x264c2610	7.08283e-16
96	0x2856500f	1.1896746e-14
97	0x28b92786	2.0556267e-14
98	0x2a2c4863	1.5301783e-13
99	0x259bdb8d	2.7036987e-16
100	0x2a508ea6	1.8523602e-13
101	0x29bfa783	8.5111626e-14
102	0x2a425a17	1.7261918e-13
103	0x244c23ec	4.4265876e-17
104	0x296d4d19	5.2691443e-14
105	0x27ef378c	6.639605e-15
106	0x2ba53e32	1.1741218e-12
107	0x2a719754	2.1457602e-13
108	0x2a9edc83	2.821945e-13
109	0x2a812cad	2.2946003e-13
110	0x2a89d521	2.4483977e-13
111	0x2a976336	2.689183e-13
112	0x264de9cd	7.144052e-16
113	0x24124519	3.171723e-17
114	0x257229c3	2.1004303e-16
115	0x2a2164df	1.4334669e-13
116	0x2b549ef7	7.553814e-13
117	0x29f4871a	1.0859213e-13
118	0x2a842cce	2.3479e-13
119	0x2a0efe44	1.270035e-13
120	0x2bdfeb04	1.5910333e-12
121	0x2b38fbd4	6.5719413e-13
122	0x2c3de953	2.6988036e-12
123	0x2c05eadc	1.903081e-12
124	0x299ab3af	6.870144e-14
125	0x2b2517d8	5.8652866e-13
126	0x2a97dba6	2.69754e-13
127	0x2af10dd0	4.2819784e-13
128	0x2bfad0de	1.7821541e-12
129	0x2c4e84ff	2.9348188e-12
130	0x2ba17dfd	1.1474707e-12
131	0x2a237f93	1.452157e-13
132	0x2aa13897	2.8638612e-13
133	0x2be89111	1.6524855e-12
134	0x2beb356e	1.6712584e-12
135	0x2bae3181	1.2377184e-12
136	0x2b8a6a3b	9.834975e-13
137	0x2bce493c	1.4657507e-12
138	0x2ba8e18d	1.1999721e-12
139	0x2b32ad1f	6.3478557e-13
140	0x2bb64be4	1.2952942e-12
141	0x2a6e476d	2.1163427e-13
142	0x2b07c70b	4.823786e-13
143	0x2b2498ab	5.8476374e-13
144	0x28518288	1.1630135e-14
145	0x2c27004b	2.373229e-12
146	0x2bd55e1f	1.5160684e-12
147	0x2c24a99f	2.339996e-12
148	0x2a0598d0	1.186579e-13
149	0x284ec855	1.1478737e-14
150	0x2a786d2b	2.20647e-13
151	0x2788a4f3	3.792642e-15
152	0x2ab44b3a	3.2026622e-13
153	0x299406b1	6.573681e-14
154	0x2a133eb5	1.3077979e-13
155	0x2a73f922	2.1669171e-13
156	0x255ddca6	1.9243453e-16
157	0x21903dc2	9.774167e-19
158	0x29da330e	9.6900014e-14
159	0x2a92b49d	2.6060135e-13
160	0x294cad7a	4.5447566e-14
161	0x279824a1	4.222819e-15
162	0x290127fa	2.8678428e-14
163	0x2a2e5e3f	1.5487003e-13
164	0x2a96c5f1	2.6782702e-13
165	0x29d33f26	9.381237e-14
166	0x2a198bd2	1.363764e-13
167	0x29910609	6.4403405e-14
168	0x2866016b	1.2767872e-14
169	0x2901af4f	2.879581e-14
170	0x2980330b	5.6931964e-14
171	0x253038d1	1.5284817e-16
172	0x2a1b6fae	1.3805512e-13
173	0x29b91570	8.219369e-14
174	0x28f9e22e	2.7742643e-14
175	0x29c790c3	8.8624874e-14
176	0x2965a08e	5.0987474e-14
177	0x2a992b72	2.7208406e-13
178	0x28de0d43	2.4652703e-14
179	0x29ac7116	7.657952e-14
180	0x282eb07e	9.697211e-15
181	0x2a99f5ab	2.7348726e-13
182	0x26bf9395	1.329329e-15
183	0x2af78e90	4.3974937e-13
184	0x29f6b0ca	1.09552626e-13
185	0x29a55565	7.3422856e-14
186	0x2a824b76	2.3145e-13
187	0x2a78902e	2.2076847e-13
188	0x2aa08814	2.8516133e-13
189	0x264e4acd	7.157198e-16
190	0x289cb0e8	1.73962e-14
191	0x286452a2	1.2674461e-14
192	0x2a1f4d9c	1.4148963e-13
193	0x27019658	1.7983848e-15
194	0x28b822e2	2.0443232e-14
195	0x298591be	5.931669e-14
196	0x279268ae	4.0636634e-15
197	0x2a99355a	2.721528e-13
198	0x28a8eb70	1.8753852e-14
199	0x24a11261	6.9853755e-17
200	0x2a52ba49	1.8716377e-13
201	0x2a48f981	1.7850132e-13
202	0x29b0a1ec	7.844059e-14
203	0x25b87a5a	3.200182e-16
204	0x29f1bd79	1.0735418e-13
205	0x26d6b5ee	1.4898545e-15
206	0x2b0b319b	4.945156e-13
207	0x27213447	2.2371578e-15
208	0x24b0e480	7.671493e-17
209	0x29c86b59	8.900406e-14
210	0x269ca771	1.087006e-15
211	0x291495f4	3.2992665e-14
212	0x2730a618	2.4514946e-15
213	0x29287a68	3.7409664e-14
214	0x284b3fdc	1.1282611e-14
215	0x26d9baf3	1.5108072e-15
216	0x28ba9a4a	2.071706e-14
217	0x28fb5c0d	2.7906519e-14
218	0x28eb2345	2.6105537e-14
219	0x253c9cbf	1.6359508e-16
220	0x273843ef	2.5571956e-15
221	0x28997a31	1.7039404e-14
222	0x2921c0aa	3.591629e-14
223	0x282891a2	9.3574525e-15
224	0x25802b36	2.2233741e-16
225	0x29312638	3.9335045e-14
226	0x28e60eb6	2.554151e-14
227	0x28d7850d	2.3927497e-14
228	0x2728721b	2.337654e-15
229	0x261d5819	5.458971e-16
230	0x28a743cd	1.8570128e-14
231	0x283178a6	9.851635e-15
232	0x267b5c3b	8.7208114e-16
233	0x27bdec96	5.2714545e-15
234	0x27fed73d	7.0732524e-15
235	0x275df403	3.080219e-15
236	0x2932493d	3.9587464e-14
237	0x27146ce9	2.0598166e-15
238	0x2793cff1	4.1026147e-15
239	0x284cb0e0	1.13626285e-14
240	0x2aa56b47	2.9384326e-13
241	0x2978f79f	5.528184e-14
242	0x2a90cd72	2.5722095e-13
243	0x2a037355	1.1675151e-13
244	0x2646f17e	6.902233e-16
245	0x274d894f	2.85239e-15
246	0x293d160b	4.198555e-14
247	0x28db6ca2	2.4360996e-14
248	0x2a2ef99b	1.5540904e-13
249	0x2b508d73	7.4092745e-13
250	0x2af51e4b	4.3541763e-13
251	0x299c06fb	6.9290026e-14
252	0x273ec96b	2.6476986e-15
253	0x26ceacba	1.4340939e-15
254	0x299cacb2	6.9577495e-14
255	0x279f53c6	4.4222193e-15
