paper/Burgers/runs/random_grid_noise_20/random_grid30model.pt (torch, 15625 bytes, 9 tensors)

func_approx.network.0.weight f4 [30, 2]
00000000: e34d a0bf ea48 2d3f 25fd fc3e 3b0c 09bf
00000010: 8c76 a23e 404e 1cbf 8ea4 0abc 1912 25bf
00000020: 0cd6 3dbc b5e5 013f 0c5f a5bd ab60 043e
00000030: 6ccf 393f bf81 44bf 9450 543f 45eb ea3e
00000040: 9374 19be 6058 f83e 5213 813f 3352 423f
00000050: ea5f b1bf 0411 4bbf 8358 b4be 99cf 463f
00000060: 8a80 81be f503 69bf a020 cdbe b1c1 29bf
00000070: 5885 06be 07bd d73e cbc6 1b3f c4c4 efbd
00000080: 9d61 98bc 5746 473e c2f2 dc3e 680a 193f
00000090: 4271 393f a9e3 4abf 1698 02bf de56 3fbf
000000a0: 4732 ff3e 95de 2cbf 6f3e 44c0 d88b 20bf
000000b0: a2e8 6abf 64d2 423f 1f98 68bd 8d85 ddbe
000000c0: 7678 453f 126c 933d dfd8 40be 5878 32bf
000000d0: 5a92 053e a7ec 113f 0426 9cbf e457 233f
000000e0: b180 6dbf e622 6dbe 425e fd3c 9163 70bf
-1.2523769 0.67689383 0.49411884 -0.5353429 0.3173107 -0.610569 -0.008462084 -0.6448074
-0.011586677 0.5074113 -0.080747694 0.12927501 0.72582126 -0.76760477 0.8293545 0.4588262
-0.14985876 0.48504925 1.0084021 0.75906676 -1.3857396 -0.7932284 -0.3522378 0.7766052
-0.2529338 -0.9102166 -0.40063953 -0.66311175 -0.13136804 0.42136404 0.6085021 -0.11707452
-0.018601233 0.19460426 0.4315396 0.59781504 0.7243844 -0.7925363 -0.51013315 -0.74741924
0.49843046 -0.67527133 -3.0663106 -0.62713385 -0.9176122 0.7610228 -0.0567857 -0.43265954
0.77136934 0.07198347 -0.1883273 -0.6971488 0.1304411 0.5700173 -1.2199101 0.63805985
-0.9277449 -0.23157844 0.030928735 -0.93901926

func_approx.network.0.bias f4 [30]
00000000: 60fa f5bd b3d7 ebbe c241 b8be c797 ba3e
00000010: 2064 35be 4b7e 503e 13dd b73e 7c3d b63e
00000020: 55e8 9dbe 7659 d33d 5376 683e 89a4 74be
00000030: 436c 7b3d 6ecf abbe 113c 303e 7b40 553e
00000040: 7945 25bf d9d8 f83d f406 263f 724d 1ebf
00000050: 1b8f 003f 3f0a dcbd d8f5 59bc 5665 9ebe
00000060: e0cd ea3d ec7e b4be 9604 7d3d 8035 30be
00000070: 196b e3bc ff0f fcbe
-0.12010646 -0.46063003 -0.3598767 0.36443922 -0.17713976 0.20360677 0.35910854 0.35593784
-0.30841318 0.10319798 0.22701387 -0.2389089 0.061382543 -0.33556694 0.17210414 0.20825379
-0.6455913 0.121507354 0.6485436 -0.6183692 0.5021836 -0.10744142 -0.013303243 -0.30936688
0.11465049 -0.35253084 0.06177195 -0.17207909 -0.02776103 -0.49230954

func_approx.network.2.weight f4 [30, 30]
00000000: 29d0 00be 6536 753e 0f12 723e 521b 4f3e
00000010: 0d46 2cbd 46ac eebc 6046 813e d600 f73d
00000020: 3926 39be b786 7a3d 3352 a0bd 3976 5dbe
00000030: 3f8e 0a3e 7827 783c 5554 6fbd 4ae5 b2bd
00000040: 5ce5 bdbd 7d4c 77be c9a0 493e 23a2 c8bd
00000050: 3c70 58bd 0ec9 00be 1c20 f1bd 57c0 613e
00000060: 3c75 063e 8051 0a3c 475f 7cbd b346 49bc
00000070: 30e0 e2bd b335 cebd 2366 adbe cb31 843e
00000080: f4a2 2d3e 0352 303a ca83 f33b c2da 9e3d
00000090: edc8 2e3e 2c70 a4bd 0515 d4bb 3e92 683e
000000a0: 1b92 0bbf 1388 e9bc 77b9 85bd 9819 2d3e
000000b0: ead3 aebe 3d70 f13d edbf 07be 95f5 b33d
000000c0: e51a 3e3e ad71 363e 39ab 1a3e 3762 75be
000000d0: 3a06 bbbe e790 6e3d 1c58 513d f665 7b3e
000000e0: 0080 9fbe b08f 61be f577 40be c75e fbbb
000000f0: ed5f 7f3d 01d7 0dbe 0841 003c 9be7 863e
00000100: 7542 46bd e4a7 10bd ef77 4dbd 2363 90be
00000110: aafb 86bd 5b0c 9fbe a3b4 ca3e e001 d9bd
00000120: 43ea 7b3e 6817 203e a4b5 4dbe 1e70 88be
00000130: 288b abbd c48d 9ebe e503 493e c3c0 083d
00000140: 8a28 183e 4e5c 133f e8fb 2e3e b912 3abd
00000150: 51ce b4be 7019 393e 6813 a9be 6525 963d
00000160: 274e 963e 473b 7b3d 037a 67be dfd9 f33e
00000170: f64b c83e 6197 cdbd 4f11 88bd ea24 4cbe
00000180: 5f2c 8e3c 6f23 9a3d 5290 cbbd a6b7 293e
00000190: c794 91be 805b 27bd 21da abbd 2db2 383e
000001a0: 48fc d3be 6dc5 813d 5650 b53c 3c34 cabd
000001b0: 4ba3 10bc be1e d43d a051 343e c059 c2be
000001c0: c002 50be 6cf8 1a3e 60ed 683e ec99 8f3e
000001d0: 0984 9ebd 4342 30be 52c7 f63c a185 b23d
000001e0: 8c50 e7bd 08ce 8dbd 8c93 a5bd 89f7 833e
000001f0: f59e abbd bd29 213d 5640 223e 1581 2cbe
00000200: 111d f63d a692 90bd 56df ea3d e465 61bd
00000210: 397f 393e 78a0 593e 2454 df3b 7794 1d3e
00000220: 1c48 9ebd 99dc 2abd c5d4 5e3e 069f 06be
00000230: bd0a 493d 4f23 0f3e 0b08 f5bd bd83 ee3d
00000240: 4820 87bd 4012 c53c 2302 92be 772e 8fbe
00000250: f7c7 813d b904 1e3e d9a9 88be b530 0e3e
00000260: 8f38 bc3d 51ff d83d 11bb a83d 3d8e 12be
00000270: 93d1 dd3d 8b3e 353e 2795 bcbd 9b73 953d
00000280: 33fc 21bf 4e89 1dbd 18d3 d93d d0cc d83c
00000290: 78b5 31be 71a8 6d3e f078 ebbc 1ad9 ac3d
000002a0: 1e2a 383e 5eaa f6bd 8850 d73b 0da5 b0be
000002b0: 78b5 82bd bb19 99bd 17a0 b1bd d148 ee3d
000002c0: 4b41 f53d 5947 bebe aa95 7dbe ffd0 4b3e
000002d0: 2f84 b9bd b96a af3d 57b8 a63d ee6b a2bd
000002e0: d4a2 1ebe 08ac 9c3d 77a2 cf3d e03b 21be
000002f0: 26ad b4bd 052b 773d b031 1b3e d3cd 7cbe
00000300: 81a0 3d3e 33a6 333e 9a86 27be 8d15 1d3e
00000310: 49ee 4cbe 035a 05be f765 b6bd c7e9 babd
00000320: 95b5 ecbd 680c 9d3d 1c66 20be 5b72 febd
00000330: 8fcb 88bb 4dc6 713e ead3 b33b 5138 4bbd
00000340: 43bb 87bd e19d a33e 44f1 393f 7b13 cdbe
00000350: 8578 77be 20c6 2fbe 7ddf 263e ab36 20bc
00000360: 1c3c d4be b27f 073d da6f 03bd b66c bcbe
00000370: 5520 a93f e27e 913e d574 813e cf03 7dbd
00000380: a23a 813c 1791 7abe 53a1 08be 7af0 62be
00000390: 8783 58be 1bcf d13d d596 4abe d234 ca3e
000003a0: fda8 d13e 0694 f2bd 6ad7 bbbe 0fa1 1dbd
000003b0: b2f1 243d 5ae6 393f f4e2 6c3e a262 7cbc
000003c0: 4ed2 12be 7277 cc3e 60c5 a43e f880 353d
000003d0: 3476 01be ffe5 5d3d 7182 7b3e c8fb 7bbd
000003e0: f02d 8fbd ee7f b6be 5b33 5d3e 4efe a2bd
000003f0: 0f02 b33c 2179 a23e ffd0 39be 040a 633e
-0.12579407 0.23946531 0.23639701 0.20225266 -0.042058993 -0.02913488 0.25249004 0.12060706
-0.18080987 0.06116363 -0.07828178 -0.2162713 0.13530825 0.015146129 -0.058430035 -0.0873514
-0.092722625 -0.24150272 0.19690241 -0.0979655 -0.05284141 -0.12576696 -0.117737025 0.22046028
0.13130659 0.008442283 -0.0616143 -0.012284922 -0.110779166 -0.10068836 -0.33866987 0.2581924
0.16956693 0.0006726088 0.007431482 0.077565685 0.17068835 -0.080292076 -0.0064722323 0.22712037
-0.54519814 -0.028507268 -0.06529515 0.16904294 -0.34146053 0.11788986 -0.13256808 0.087870754
0.18564947 0.17816801 0.15104379 -0.23963247 -0.36528188 0.05824366 0.05110942 0.24550614
-0.31152344 -0.22027469 -0.1879576 -0.0076712104 0.06234734 -0.13851549 0.007828005 0.26348576
-0.048403222 -0.035316363 -0.050163206 -0.28200635 -0.0659097 -0.31064114 0.3959094 -0.10596061
0.24601083 0.15633929 -0.20088822 -0.2664804 -0.08376151 -0.30967534 0.19630392 0.033386957
0.14859214 0.5756272 0.17088282 -0.04542801 -0.35313657 0.1807611 -0.33022618 0.07331351
0.293565 0.06133583 -0.22605138 0.4762716 0.39120454 -0.10038639 -0.06643926 -0.19935957
0.017355142 0.0752629 -0.09939636 0.16573963 -0.2843382 -0.040858746 -0.08391214 0.18036719
-0.41403413 0.06336484 0.022133034 -0.09873244 -0.008827995 0.10357426 0.17609262 -0.379591
-0.20313549 0.15133828 0.22746801 0.2804712 -0.077400275 -0.17212777 0.03012434 0.08716894
-0.1129466 -0.06924063 -0.08084783 0.25774792 -0.08379928 0.039346445 0.15844855 -0.16846116
0.12017263 -0.07059221 0.11468379 -0.05502881 0.18114938 0.2125262 0.0068154503 0.15388666
-0.077285975 -0.041714285 0.21760853 -0.131466 0.049082506 0.13978313 -0.11964425 0.11646221
-0.06597954 0.024056554 -0.28517255 -0.27965137 0.063369684 0.15431489 -0.26692083 0.13885768
0.09190475 0.10595573 0.08238805 -0.14312072 0.10830989 0.1769964 -0.09208136 0.072974406
-0.6327545 -0.038461022 0.10635966 0.02646485 -0.17354381 0.23208787 -0.02874419 0.08439846
0.17984816 -0.12044214 0.0065708794 -0.34500924 -0.06382269 -0.07475611 -0.08673113 0.116349824
0.11975344 -0.3716381 -0.24764124 0.19903944 -0.09058415 0.085652776 0.08140629 -0.07930742
-0.15491802 0.0765 0.101384096 -0.15745497 -0.08822088 0.06034376 0.15155673 -0.2468789
0.18518259 0.17543869 -0.1635994 0.15340252 -0.20012774 -0.13022618 -0.08906167 -0.09126621
-0.115580715 0.07668382 -0.15663952 -0.12424155 -0.0041746567 0.23610802 0.0054879086 -0.049614254
-0.06627514 0.3195639 0.7263377 -0.40053925 -0.24167068 -0.17165422 0.16296192 -0.009778659
-0.4145211 0.033080764 -0.03208909 -0.3680169 1.3212992 0.28417116 0.25284448 -0.06177121
0.015775029 -0.2446941 -0.1334279 -0.22162047 -0.21143924 0.1024458 -0.197841 0.39493424
0.4094924 -0.118446395 -0.36687785 -0.038483676 0.04026956 0.72617114 0.23133451 -0.015404375
-0.14338037 0.3993488 0.32181835 0.044312447 -0.12642747 0.05417442 0.24561478 -0.061519414
-0.06991184 -0.35644478 0.21601622 -0.07958661 0.021851568 0.3173304 -0.18146132 0.2217179

func_approx.network.2.bias f4 [30]
00000000: 9590 b2bd 7fd3 463e a5ab a6bb b132 0ebc
00000010: f685 e5bd b4e9 d2bd dd5b 093e e73f c63d
00000020: 7599 b43d 5e38 c23d a171 4f3d d9e2 2a3e
00000030: da01 203e 31d3 4b3d 1f38 b8bd f8a8 9a3d
00000040: dbeb 853d b855 1dbd f6a9 483c 4c00 163e
00000050: ca2a 053c b720 a03d 8dee d4bd ca87 8f3c
00000060: 2677 04be 854e ea3d 09ad 853d 14f4 9d3c
00000070: f03f 55be 8158 c83d
-0.08718983 0.19416617 -0.0050863796 -0.008679078 -0.11207192 -0.102984816 0.1341395 0.09680157
0.08818332 0.094834074 0.050645474 0.16688098 0.15625706 0.049761955 -0.08995079 0.075517595
0.065391265 -0.038411826 0.012247553 0.14648551 0.0081278775 0.0781874 -0.103970625 0.017520804
-0.12936077 0.11440758 0.065271445 0.019281425 -0.20825171 0.09782506

func_approx.network.4.weight f4 [30, 30]
00000000: 10cb ce3c 6e34 88be 7a43 5d3d 1efd 7b3d
00000010: b883 adbd 35f7 c8bd c984 8dba a160 64bd
00000020: c831 c3bd 39bc a83d b613 a43c 6fae 803e
00000030: ff18 723d 9f2b 81be 94dc a0be dcef bcbd
00000040: 4d52 f63d df94 563e addc 0ebe 76f1 59be
00000050: a4c7 d7bd 9f21 1d3d 4473 69be 32f0 f1bd
00000060: 4a05 a0bd 1a3e 9c3e 504a 09be 5aff 8bbd
00000070: 0175 813e b1be e5bd 04e8 83bb 69ce 9bbe
00000080: 35df 453d af52 f23d c280 2bbc 1b0a 9bbd
00000090: 7ab0 123e 0363 a33e bc22 1f3e f61a 7d3e
000000a0: 4759 103e f2d1 033e ff21 b1bd f56e ea3d
000000b0: b4b5 293d 6e32 8abd 2e3c 9f3d 471f b73d
000000c0: a758 6bbd 146f 52bd c9f9 453e c52f ca3d
000000d0: 703d 743c 7ed3 df3a ba2a e83d 2e79 90bd
000000e0: e01b 43be b756 783d 5ef9 33be e41a 573e
000000f0: 1a9a c7bc d9f8 fdbd 2a0f 853d 791b fb3e
00000100: ef06 67bc 3325 343e d326 92bd fd36 7a3d
00000110: c336 85bd 4120 4bbd 801b 16be 0d17 973e
00000120: 2701 423e 2943 0bbe 9751 053e 5960 d0bd
00000130: e65c 3c3e 9bd1 073e d6c8 02be 0521 06be
00000140: fad4 103e 904d 5ebd d0d7 573e fe98 8fbe
00000150: e194 843d 94f4 e5bd 0def 483e 8242 8d3d
00000160: e082 82be dcaa 7e3d 8cc7 f13c a344 fd3d
00000170: 1bfb 24bd 916d 143d 21ff 01bd ad96 4f3e
00000180: 6cc0 f6bd fbe3 b9bd eba8 7abd b11b 883d
00000190: 075c 38be 8a1e 31be 4fd5 283e 9176 493e
000001a0: 53ec a1bc b953 95bb f765 17be 3133 88bd
000001b0: 064b b9bc 7950 523d 1253 a43c 8819 5abe
000001c0: 4d84 0a3e 8a98 37be 3c60 8bbd 56a7 243d
000001d0: 3572 10be 7807 fc3d a85c 0b3d ca13 ae3a
000001e0: b933 093d 4307 e3be f8d0 01bc 7f19 18bf
000001f0: 0b0d c7bc 74c4 9abe f85f 743d 0d44 be3e
00000200: 2da6 fc3b 9e00 ec3d cdcb bf3e db60 21bd
00000210: 9a6a 24be b5db 353d 6db7 18bd 2535 5f3e
00000220: f095 d2bc 6602 a03d 53a0 77bd 8832 8dbd
00000230: 5ffa 803e a46f 3b3e dd12 3bbc 7fc9 563e
00000240: 2ec3 a93e 8607 553e 486f b23d 6d33 10be
00000250: d872 d43d 0da2 243e ac86 31bc a8d7 593e
00000260: fdd3 16bf 3a4c 73bd 2342 6abe 9b96 1f3e
00000270: 7a13 21be 7600 49bd 24be a1bd 41cc 583e
00000280: 2f0b 033e d203 0dbd ebe9 41be 5e41 5abe
00000290: 14e0 1bbe 798a 3dbd ec40 5abe af15 b7bc
000002a0: 80fe bebd d23d 34be ba5b 153e 118c bc3d
000002b0: cec8 91be b1af 803e d5c6 3fbe 06ed 4f3e
000002c0: 29bf 84bd 8f9e c4bd 7995 093e 6bb5 283e
000002d0: d7a3 31bd cf9f 2c3c 019f 16bd ab8d c4bb
000002e0: 4f08 5dbd d0a8 8a3d 1ab2 88bd 815f 50bd
000002f0: edc4 8d3c d07c 1f3e ff04 673d 5991 e1bc
00000300: ef4a 43bd 0e5a e5bd 78c1 71bd e678 2e3e
00000310: c873 f3bd 7bcc b93d c2e1 f4bd 570a c13d
00000320: caee 363d 18f6 27bd 29b4 6ebe 4c8b 173d
00000330: 9616 1c3e 9274 bd3d fd38 dc3d 9678 fbbd
00000340: ad2f 323e 9117 a6bd ddd2 723d 3a21 153e
00000350: f160 65bb f882 c8bd 46a6 5b3e b284 623e
00000360: 5dc2 51bd adb7 5cbe 2de6 f53c ce41 76bd
00000370: 521e 25be 91bf 94bc 4747 95bc 4ded 3e3e
00000380: b638 de3d 543b 873d e035 733d 1d94 b5bd
00000390: c973 ed3d d26c 16bd 508f 103d 95cb cebd
000003a0: 865b 4f3e 7c70 843d a692 44bd 1d3e 18be
000003b0: 02dc d5bd 1f12 6ebd 3e4f 1fbe 201b acbd
000003c0: fcf6 a43d b2d4 2bbe f858 a2bd ce16 e6bc
000003d0: c354 093d 8e81 bbbd 732e fcbd 7782 f1bd
000003e0: dafa 3dbe 41bc 453d 44ca 773d 7d33 363e
000003f0: 000b e4bd dea9 58be 18b0 84be 81ad f23d
0.025243312 -0.266025 0.05401943 0.06152069 -0.08472389 -0.09812776 -0.0010797019 -0.055756215
-0.095309794 0.082390256 0.02002893 0.25133082 0.05910587 -0.25228593 -0.31418288 -0.09225437
0.120274164 0.20955227 -0.13951369 -0.21283516 -0.10536125 0.03836214 -0.22797877 -0.11813392
-0.07813509 0.3051613 -0.13407254 -0.06835814 0.2528458 -0.11218012 -0.004025461 -0.30430916
0.04830857 0.11832177 -0.01046771 -0.07570287 0.14325133 0.31911477 0.15540594 0.24717316
0.14096557 0.12873057 -0.08649062 0.114469446 0.04143305 -0.067479 0.0777515 0.089415126
-0.057457592 -0.051375464 0.19333567 0.098723926 0.014907226 0.0017076579 0.113362744 -0.07054363
-0.19053602 0.060629573 -0.17575595 0.21006352 -0.024365474 -0.124009795 0.06497033 0.49044397
-0.014100774 0.17592315 -0.071363114 0.061087597 -0.065045856 -0.049591307 -0.14658928 0.29509774
0.18945752 -0.13599838 0.13019405 -0.10174627 0.18394813 0.13263552 -0.12771925 -0.13098533
0.14143744 -0.054273188 0.2107842 -0.2804641 0.06473709 -0.1122829 0.1962244 0.06897451
-0.25490475 0.062174663 0.029514097 0.12366607 -0.040278535 0.036237303 -0.03173745 0.20272322
-0.1204842 -0.09076687 -0.06119625 0.06645907 -0.18003856 -0.17296806 0.16487621 0.19674136
-0.019766008 -0.0045570997 -0.1478499 -0.06650389 -0.022618782 0.051346276 0.020059142 -0.21298802
0.13527031 -0.17929283 -0.068054646 0.040198646 -0.14106067 0.12306112 0.03402391 0.0013281044
0.033496592 -0.44341478 -0.007923357 -0.59413904 -0.024298212 -0.30228007 0.059661835 0.37161294
0.0077102394 0.11523555 0.37460175 -0.03939901 -0.1605629 0.044398982 -0.037284303 0.21797617
-0.025706261 0.078129575 -0.06045563 -0.06894404 0.25191018 0.18304306 -0.011418072 0.20975302
0.33156723 0.20803651 0.087126315 -0.14082117 0.10373467 0.16077442 -0.010835331 0.21273673
-0.5891722 -0.059398867 -0.22876792 0.15584795 -0.15730086 -0.049072705 -0.078975946 0.21171667
0.12797235 -0.03442747 -0.18936889 -0.21313998 -0.15222198 -0.046274636 -0.21313828 -0.022349207
-0.09325886 -0.17601708 0.14585772 0.09206403 -0.28473514 0.25134042 -0.18728192 0.20305261
-0.064817734 -0.09600555 0.13435926 0.16475455 -0.04336914 0.010536148 -0.03677273 -0.0059983335
-0.053963 0.0677048 -0.06674595 -0.05087233 0.017305816 0.15574956 0.05640125 -0.027535127
-0.047678884 -0.11198817 -0.059022397 0.17038307 -0.11887318 0.09072205 -0.119571224 0.094258
0.04466132 -0.041006178 -0.23310913 0.03699808 0.15242991 0.0925075 0.10753057 -0.12278859
0.17401 -0.08109964 0.059283126 0.14563456 -0.0035000409 -0.09790605 0.21450147 0.22120932
-0.05121075 -0.21554442 0.030016983 -0.06012135 -0.16124848 -0.018157752 -0.018222464 0.1864521
0.108506605 0.06603113 0.05937755 -0.08866141 0.1159435 -0.036724873 0.035292923 -0.10097424
0.20249757 0.06466767 -0.047991417 -0.14867444 -0.10442354 -0.05812275 -0.15557572 -0.08403611
0.08054921 -0.16780356 -0.07927126 -0.028087046 0.0335281 -0.0915557 -0.12313547 -0.11792462
-0.18552724 0.048275236 0.06049563 0.17793079 -0.111349106 -0.21158549 -0.259156 0.118494995

func_approx.network.4.bias f4 [30]
00000000: 6d7d 173e 9bf5 bebd 9a86 943d 3ade ef3d
00000010: 3992 6f3d 0513 ecbb dfa2 903d 0456 1bbe
00000020: 35b7 c4bc ddb2 c7bd 1f0d 0a3d 1d01 03be
00000030: d2fe 6c3b 68dc 13bd 3ed6 34bc cfb9 143e
00000040: 4b50 37bd 7096 b6bb 37ff c1bb 9f2c b93d
00000050: ac40 04be 6a3f 16be 1808 f83c 5021 3a3d
00000060: f6c6 9abd 00a4 1ebd 2c5e 893d 9883 a5bd
00000070: 22bf 1a3e fd0b 183e
0.1479394 -0.09324189 0.07252236 0.11712308 0.05848906 -0.0072044157 0.07062315 -0.15169531
-0.024013141 -0.09750912 0.03370392 -0.12793393 0.0036162627 -0.036098868 -0.011037407 0.14524005
-0.044754308 -0.0055721328 -0.0059203166 0.09041714 -0.12915295 -0.14672628 0.030277297 0.045441926
-0.0755748 -0.03873062 0.06707415 -0.0808174 0.15111974 0.14848323

func_approx.network.6.weight f4 [30, 30]
00000000: 5c17 693d abf1 343e faf5 8a3d 0548 133e
00000010: 40ad 2e3e d95c d6bd 15c7 193e 952b 9abd
00000020: c85a 39bd bd9d 753c cc04 66bc 8f98 2bbe
00000030: e3e1 24bd e929 213e a197 07be 2992 123d
00000040: e9b2 0abe 7daa 61be 16ca d4bd 9576 b9bd
00000050: 171d aabd 724b 9bbd 27df 3b3d cb69 853d
00000060: a622 07be b78b a83d a089 6ebd 8aaf 51be
00000070: eb35 9ebd 8590 8ebe af32 903d 04b2 21be
00000080: 33f1 15be 6bc5 a23d 27c5 a6be 0922 9cbe
00000090: 5515 1fbe acdb e43d 4a34 0fbe bd3d c93e
000000a0: 8572 2bbd d916 b53d c07b afbd 0f92 58be
000000b0: 4fc8 1c3e ef9a 4bbd 676a 523e 54f9 6e3e
000000c0: 1600 a53d 89a9 f4bc 6c6d eebd 7641 bf3d
000000d0: 9418 1e3e ff00 6bbe 8448 2d3e 68de 5bbc
000000e0: 8547 193e 5a7e 8b3d 233c 54bd c2f0 ef3d
000000f0: da94 b23d 8873 5a3e b5bc 953e 7e44 29be
00000100: 97c6 cbbc 75e4 08bd f7fb 17be 9813 ca3d
00000110: 31b1 353c 0c0b b73d af38 973d 64b4 c43d
00000120: 53b8 84bd 6143 6e3e e40d 2f3d 9d55 61bd
00000130: 5871 2bbc ea16 5d3d 3b11 a2bd f532 033e
00000140: ddfc 17be 53eb 9ebd 42aa 9e3d 1833 153e
00000150: 25a8 92bc ddee b03d 5efc e13d df48 fbbd
00000160: 66e0 313e 6a52 f3bb 7bbe d03d 67fc 9e3d
00000170: 2c11 69be 7a06 57bd efcc ccbc 0270 3cbd
00000180: 3afd 40bd 3884 52be 6fdc 2d3e 86af 543e
00000190: aef8 cb3d 8ba6 fe3d 11a2 2ebe 4de2 b33d
000001a0: c0c8 2ebe 9f3e 1e3c b97d 233e 517d 613e
000001b0: 4220 5d3d 010b 873c c585 653e c695 1dbe
000001c0: 104c a5bc c9ee 0c3e 3a09 853e 6a3c 00be
000001d0: 46ed ae3d 383c 3a3e 2c62 02bd 25a7 aebc
000001e0: d4e2 043e e2fc 63bd 3f8f f2be 295d 30be
000001f0: b2be 55be 16a8 633e 21e5 3fbd bf46 7cbd
00000200: 2835 0e3e 307b 943e 5974 9bbd 3d22 c93c
00000210: 08bc 47be 2551 ecbd 3f10 3d3e afed 313d
00000220: c800 1a3e 8f88 cc3d e1cf ad3c f44c a1bc
00000230: 9064 eb3d bb8b 55be c74b 1f3e 7127 6f3e
00000240: 16da c9bc 9a83 a73d 0bcf 04be 5ab9 623e
00000250: 404b 80be 069c 3e3c 8033 3e3d e935 4d3d
00000260: 2946 cdbd f6f2 f4bd faee a5be 48c8 2b3e
00000270: e719 9e3d 337d ef3b b2a2 edbd 5ae6 063e
00000280: 9aba e03d f33a e13d 7c93 0fbd 580a 58be
00000290: 22ff 153e c2d4 183e af94 e33b 674e c73d
000002a0: a32f 38be f7ae a73d aa2a 213e 8432 e8bd
000002b0: 2248 0b3d 2f93 193e 92fa cf3d e91a fd3b
000002c0: 8adc d93a 346f f83d b4a0 60be ebb1 da3d
000002d0: 64bc 01be 81d4 b3bd 1048 85be e36d 7fbd
000002e0: b65c 2e3d ceba c53d dad4 243e f297 1f3e
000002f0: df22 173e 58ec 573e 1d20 ddbc 6e50 ffbd
00000300: 0744 aebc 4ca3 0dbe b41b eb3d 7d84 9e3d
00000310: fd4f b33a 4923 a23d b163 b23d 4415 bfbd
00000320: 8b2e 353e dae5 bebc 9ee5 163e 8f78 d03d
00000330: 6932 0ebe f155 07be 60d1 3dbe b784 f13d
00000340: c01a 813d 0d21 283c 4af9 07be 6814 163e
00000350: 7aff 37bb 845c 293c 044a b03c 37bd 183d
00000360: c924 823d 1698 2fbe eb46 023e be7f f7bd
00000370: f59f 6c3c fbea cb3d 14d3 9bbd 573c 913d
00000380: f8ca fdbc 15ae 9e3d c3f2 6d3d afe3 5d3e
00000390: 868f 13be 3f74 013e dcc5 58bd abfb 03bd
000003a0: a667 733d edf7 c3bd c295 283d bff0 ecbd
000003b0: 9016 cbbc ab28 2dbe 5462 afbb d2d8 05be
000003c0: 9f85 c4bd 23aa 733e ff64 c3bd ab3e d33d
000003d0: c994 ef3e d61d 923e 15ce 343e 35de ffbd
000003e0: 85be c83d 0aa4 8dbe 701c 853d 6a5b 84bd
000003f0: 04a8 2bbe 04c3 0d3e 9bc1 11be 271f 1bbd
0.056907043 0.17670314 0.067851976 0.14382942 0.17058277 -0.10466928 0.1501735 -0.07527844
-0.04525259 0.014991221 -0.01403923 -0.16757415 -0.040254485 0.15738644 -0.13241436 0.03578392
-0.13544811 -0.22037692 -0.10390107 -0.09055821 -0.0830633 -0.075827494 0.04586711 0.06514319
-0.13196811 0.082297735 -0.05823672 -0.20477119 -0.07725128 -0.27844635 0.07040917 -0.15790564
-0.14642791 0.07947811 -0.3257229 -0.30494717 -0.15535481 0.111747116 -0.1398479 0.39304915
-0.04185726 0.088422485 -0.08568525 -0.21149467 0.15310787 -0.049708303 0.20548402 0.23337299
0.08056657 -0.029865997 -0.11641964 0.093386576 0.15439063 -0.22949599 0.16922194 -0.013419725
0.14968689 0.06811209 -0.051815163 0.11715843 0.087197974 0.21333134 0.29245535 -0.16530034
-0.024874968 -0.033421 -0.1484221 0.098670185 0.011089609 0.08937654 0.073838584 0.09604719
-0.064804696 0.2326789 0.042737857 -0.055013288 -0.010464035 0.05397693 -0.07913443 0.12812407
-0.14842553 -0.07759728 0.07747318 0.14570272 -0.017902443 0.086393096 0.11034463 -0.122697584
0.17370757 -0.007425596 0.10192581 0.07762986 -0.22760457 -0.05249641 -0.025000064 -0.046005256
-0.047116496 -0.2055825 0.1697862 0.20770082 0.09959541 0.12434109 -0.17054011 0.08783398
-0.17068768 0.009658485 0.15965928 0.2202046 0.05398584 0.01648474 0.2241431 -0.15389165
-0.020177871 0.13762964 0.25983602 -0.12523046 0.0854135 0.18187034 -0.031831905 -0.021319935
0.12977153 -0.05566109 -0.47374913 -0.17223038 -0.20873526 0.22232088 -0.046849374 -0.061590906
0.13887465 0.29000235 -0.07590551 0.024552459 -0.19505322 -0.115389146 0.18463229 0.043439563
0.1503936 0.09986984 0.021217288 -0.019690014 0.1149379 -0.20854084 0.1555625 0.2335489
-0.024640124 0.08179398 -0.12969606 0.22141019 -0.2505741 0.011633879 0.046435833 0.05010024
-0.100231476 -0.119604036 -0.32408887 0.1677562 0.07719784 0.007308626 -0.11603297 0.1317381
0.109730914 0.10997572 -0.03505276 -0.21097696 0.14648107 0.1492491 0.0069452147 0.09731751
-0.17986922 0.08187669 0.15738931 -0.1133776 0.034004338 0.14997552 0.10155214 0.007724155
0.0016621512 0.12130585 -0.21936303 0.106784664 -0.12669522 -0.08780766 -0.26031542 -0.062360656
0.042568885 0.09654771 0.16096821 0.15585306 0.14759396 0.21086252 -0.026992852 -0.124665126
-0.021272672 -0.13831824 0.11479893 0.07740114 0.0013680455 0.07916886 0.08710421 -0.09330228
0.17693536 -0.023302961 0.1473603 0.10179245 -0.13886417 -0.13216378 -0.18536901 0.117928915
0.0630393 0.010261786 -0.1327869 0.14656222 -0.002807586 0.010336999 0.021519668 0.037289824
0.063546725 -0.1714786 0.12722366 -0.12084912 0.014442434 0.09956928 -0.07608619 0.07091587
-0.030980572 0.07748047 0.058092844 0.21668886 -0.14410219 0.12642 -0.05292307 -0.03222243
0.05942502 -0.095687725 0.041158445 -0.11569356 -0.024791032 -0.16910045 -0.005352298 -0.13070992
-0.09595799 0.23795371 -0.09540748 0.10314687 0.46793202 0.28538388 0.17656739 -0.124935545
0.09801964 -0.27664214 0.06499565 -0.06462748 -0.16763312 0.13843924 -0.14234011 -0.037871506

func_approx.network.6.bias f4 [30]
00000000: 4ae8 4cbd 49d1 713d 4463 2b3d 8e3f dfbd
00000010: e852 65bd b0b0 323e 9af3 bc3d ebe3 9ebd
00000020: 5ee0 6a3d a706 56bd c4b0 2ebd d066 19be
00000030: 746c cfbc f4e9 01bd 45ea d93d 6ca2 a9bb
00000040: 490f 25be f793 9d3c d614 b83d 9b35 9fbd
00000050: d397 68bd 2a2c dfbd 657f cbbd 5b87 1bbe
00000060: 6a70 033e 694b d93c 7445 af39 0bdb e73d
00000070: 8cc7 413c ea8b 6e3d
-0.050026216 0.05903748 0.041842714 -0.10900794 -0.05598727 0.17450213 0.09226151 -0.07758316
0.05734288 -0.052252438 -0.042649046 -0.14980626 -0.02532027 -0.031717256 0.106403865 -0.005176833
-0.16119112 0.019235594 0.08988349 -0.07773896 -0.056785416 -0.108970955 -0.09936408 -0.15188353
0.12835851 0.026525216 0.00033430348 0.11321076 0.011827361 0.0582389

func_approx.network.8.weight f4 [1, 30]
00000000: 5085 50be d4db 723e 967d 37be 0353 473e
00000010: c8c6 203e 8565 053e 004a a53d 1424 97bc
00000020: 4bff 00be 0000 a5bd 64d5 b73e 4ff6 6abe
00000030: e2b1 ecbd 9e60 cf3d 48d4 1bbe 519a d2bc
00000040: 7877 83bd f1a3 87be 692d 413e 71c5 f43d
00000050: afef 973e 13c2 b5bd 1f12 5f3b 2c58 5bbe
00000060: 31d2 45be f593 93be bfb1 6ebe 7c66 c03d
00000070: a368 20be d66a 84be
-0.20363355 0.2371667 -0.17919001 0.1946526 0.15700829 0.13027008 0.08070755 -0.01844982
-0.12597387 -0.080566406 0.35904992 -0.22945522 -0.11557366 0.1012585 -0.15217698 -0.02570835
-0.06419271 -0.26492265 0.18864979 0.119517215 0.29675052 -0.08874907 0.00340379 -0.21420354
-0.19318463 -0.2882382 -0.23309992 0.09394547 -0.15664916 -0.2586276
