paper/Burgers/runs/grid14checkpoint.pt (torch, 59607 bytes, 36 tensors)

func_approx.network.0.weight f4 [30, 2]
0	0xbf70ce77	-0.9406504
1	0x3f62d05f	0.885992
2	0x3f289aa0	0.6586094
3	0xbf5d16ec	-0.863631
4	0x3dea0d17	0.11428278
5	0x3f98bf09	1.1933299
6	0xbe869b7d	-0.26290503
7	0xbf3c4a58	-0.7355094
8	0xbf34eb16	-0.7067121
9	0xbdfd683b	-0.12373396
10	0x3f4da7e3	0.803343
11	0x3db2da2c	0.08733019
12	0x3e1e8463	0.15480189
13	0xbe26f447	-0.16304122
14	0xbeee94c1	-0.46597865
15	0xbec10384	-0.37697995
16	0x3f0fa20f	0.56106657
17	0xbedd36fe	-0.43206018
18	0xbe8731b8	-0.2640512
19	0xbeb592d9	-0.35463598
20	0x3f4c0d59	0.79707867
21	0xbf464b1f	-0.77458376
22	0x3f8d36d4	1.1032357
23	0x3dbbb5cf	0.091655366
24	0xbe4378de	-0.19089076
25	0x3f355d45	0.70845443
26	0x3f0fcca0	0.5617161
27	0xbe45822e	-0.19287941
28	0x3f0b6498	0.5445037
29	0xbeed1ca2	-0.46310908
30	0xbec067b7	-0.37579128
31	0x3f0abc26	0.5419334
32	0x3f48e615	0.7847608
33	0xbf451798	-0.76989126
34	0xbe952a86	-0.29134005
35	0xbf51b878	-0.819221
36	0xbf97d084	-1.1860509
37	0xbe8e3576	-0.27775162
38	0x3f6ed51c	0.9329393
39	0x3e3f65e5	0.18691213
40	0xbf0a13e9	-0.5393663
41	0xbdcc952c	-0.0998939
42	0xbeaecffd	-0.34143057
43	0x3ec99f75	0.3937947
44	0x3e395e12	0.18102291
45	0xbf845979	-1.0339805
46	0x3f8917a6	1.0710342
47	0x3f09bfd0	0.5380831
48	0xbf47c7e4	-0.78039384
49	0xbe98d238	-0.29847884
50	0x3f45ee45	0.77316695
51	0x3d492db6	0.04911586
52	0xbef57d45	-0.47947136
53	0xbf0e1516	-0.55500925
54	0xbf15ede1	-0.585661
55	0x3ea82eea	0.32848293
56	0xbf012fc8	-0.50463533
57	0x3f622f2e	0.8835324
58	0x3da0611f	0.078310244
59	0xbf10018a	-0.5625235

func_approx.network.0.bias f4 [30]
0	0x3e899073	0.26868019
1	0x3e5a93d7	0.21345459
2	0xbebd0938	-0.36921096
3	0xbee7c86a	-0.4527009
4	0xbe9c90b4	-0.3057915
5	0x3e9420d9	0.2893131
6	0x3e2d6978	0.16934764
7	0xbe59441f	-0.21217392
8	0xbe4dd6f8	-0.20101535
9	0xbdc8c72c	-0.09803614
10	0xbe9f911d	-0.311654
11	0x3ec50c74	0.38486063
12	0xbefbf3d4	-0.49209464
13	0xbd99b9ab	-0.075061165
14	0x3de52aab	0.11189779
15	0xbdd5545d	-0.10416482
16	0x3e1b3c02	0.1515961
17	0xbecc71db	-0.39930615
18	0xbe9c896e	-0.305736
19	0xbd0fee4e	-0.035139374
20	0x3f276437	0.6538729
21	0x3cdcc0d3	0.026947415
22	0xbefd6c22	-0.4949656
23	0xbe7514c6	-0.23933706
24	0xbef21a6e	-0.4728579
25	0xbd6aaf7e	-0.05729627
26	0xbe63d53f	-0.22249316
27	0xbeb16d04	-0.34653485
28	0xbef0c6d9	-0.4702671
29	0x3ed300ff	0.41211697

func_approx.network.2.weight f4 [30, 30]
0	0xbf2458b9	-0.6419788
1	0x3ece4ce2	0.40293032
2	0x3dae20da	0.0850236
3	0x3dc95473	0.098305605
4	0xbe82a659	-0.25517538
5	0x3ed432f8	0.41445136
6	0x3e45a361	0.19300605
7	0xbea4d301	-0.32192233
8	0x3ea706b0	0.3262229
9	0xbe3cdcc8	-0.18443596
10	0x3f10e6cc	0.5660217
11	0x3e9ed748	0.31023622
12	0xbec77786	-0.38958377
13	0x3e8e32bc	0.27773082
14	0x3eb75dbb	0.35813698
15	0xbe75e057	-0.2401136
16	0x3ef1c107	0.4721758
17	0x3d2af2e1	0.041735534
18	0xbed72955	-0.4202372
19	0x3ec544ab	0.38528952
20	0x3cfd8d34	0.03095112
21	0xbea25a61	-0.3170958
22	0x3e41f2e2	0.18940309
23	0x3f03cb45	0.5148204
24	0xbe0ad8aa	-0.13559213
25	0x3f19b078	0.60034895
26	0xbdb92f08	-0.090421736
27	0xbe97a2f7	-0.2961652
28	0xbec0ba46	-0.37642115
29	0x3e82bdd6	0.25535458
30	0xbd8639e9	-0.06554014
31	0xbd3242e4	-0.043520823
32	0xbd621347	-0.055194166
33	0xbdda672c	-0.1066421
34	0x3e52329c	0.20527118
35	0xbe2a8740	-0.16653156
36	0xbdb222ed	-0.08698068
37	0x3bb125b5	0.0054061064
38	0x3e02e2ec	0.12781876
39	0xbd460605	-0.048345584
40	0xbc6facc0	-0.014628589
41	0x3dd1ccc9	0.10244138
42	0xbe60a01c	-0.21936077
43	0x3e34014f	0.17578624
44	0x3e04cc64	0.12968594
45	0x3d107828	0.03527084
46	0x3d27e3cd	0.040988732
47	0x3de3e151	0.1112696
48	0x3bc9cfb8	0.006158795
49	0xbc52a03e	-0.0128555875
50	0x3e187a5a	0.14890423
51	0xbe11ebc0	-0.14250088
52	0xbd5928cd	-0.053017426
53	0x3db46657	0.08808582
54	0x3d7a93fa	0.061176278
55	0xbdf03618	-0.117290676
56	0x3d95b199	0.07309265
57	0xbd81baf1	-0.06334484
58	0xbe6f1433	-0.23347549
59	0x3d4b78a5	0.049675602
60	0xbd2c1a3e	-0.042017214
61	0x3e3e255b	0.18568937
62	0xbd950b4c	-0.07277545
63	0xbd6c3e0f	-0.05767637
64	0x3ea6427a	0.32472593
65	0xbdee8a67	-0.11647492
66	0x3cdc7db2	0.026915405
67	0x3e5874f9	0.21138372
68	0x3e317cec	0.1733281
69	0x3e7c4039	0.24633874
70	0x3e535e46	0.20641431
71	0xbe365bb5	-0.17808421
72	0x3d9d57d1	0.07682765
73	0x3e0c37dc	0.13693184
74	0xbd5f7169	-0.054551516
75	0x3c2b5f5a	0.010459745
76	0xbd1570e7	-0.036484625
77	0x3e1b7ce7	0.15184365
78	0x3e05d33d	0.13068862
79	0xbd5c9909	-0.053856883
80	0x3d7e6fd0	0.06211835
81	0x3c130121	0.008972437
82	0x3d5841da	0.052797176
83	0x3c592c07	0.013255126
84	0x3e0b29cf	0.13590167
85	0xbe5611a0	-0.20905161
86	0x3cfd23ca	0.030900855
87	0x3d6e94dc	0.058247432
88	0x3d1a5bc3	0.037685167
89	0x3de2c789	0.110732146
90	0xbd88106a	-0.06643756
91	0x3d258682	0.04041148
92	0xbe5e731a	-0.21723595
93	0xbd0efbdc	-0.03490816
94	0x3e28e7eb	0.1649472
95	0x3d1cb824	0.038261548
96	0x3c0e6d94	0.008693118
97	0xbd721e47	-0.059110906
98	0x3d951feb	0.072814785
99	0x3e508f6c	0.20367211
100	0x3dd698c3	0.10478356
101	0xbcd37dc6	-0.02581681
102	0x3c59d6e4	0.013295863
103	0x3c720659	0.014772021
104	0xbc47a7f9	-0.012186044
105	0xbe21e796	-0.15811
106	0xbd5a62f1	-0.053317014
107	0xbdee8d5c	-0.11648056
108	0xbd849dc0	-0.06475401
109	0x3e01c6bb	0.12673466
110	0xbe478aa6	-0.19486484
111	0xbd17bdd1	-0.037046257
112	0xbd72a39f	-0.059238072
113	0xbe0258cf	-0.1272919
114	0xbc70e12d	-0.014702124
115	0x3c212482	0.009835364
116	0xbdc077df	-0.093978636
117	0x3b4fb05c	0.0031690812
118	0xbd7c9131	-0.061661903
119	0xbd60efc1	-0.054916147
120	0xbdba0bdb	-0.090842925
121	0xbdcd6dfb	-0.10030743
122	0xbd2070e6	-0.03917017
123	0xbd96121b	-0.07327672
124	0xbe8b622d	-0.2722334
125	0x3e5f0c68	0.21782076
126	0x3dd7a0f8	0.10528749
127	0xbde12421	-0.10993219
128	0xbe349df7	-0.17638384
129	0xbe91eae7	-0.2849953
130	0x3bd807e5	0.006592738
131	0x3e0f03ce	0.13966295
132	0x3e57d287	0.21076404
133	0xbe065e05	-0.13121803
134	0x3d545cae	0.0518462
135	0xbb320e68	-0.0027169231
136	0xbe2f22ac	-0.1710307
137	0xbe122e57	-0.1427549
138	0xbe6e3d31	-0.2326553
139	0x3e3706a5	0.17873628
140	0xbe00d2ea	-0.12580457
141	0x3e409f5e	0.18810794
142	0xbea896b4	-0.32927477
143	0xbc4dbfca	-0.012557933
144	0xbbf954de	-0.007608994
145	0x3cbb0076	0.022827368
146	0xbe996022	-0.29956156
147	0x3d955863	0.07292249
148	0xbe074982	-0.13211635
149	0xbe2da851	-0.16958739
150	0xbc0654f6	-0.008198967
151	0xbe24349b	-0.16035692
152	0x3e2fb64f	0.17159389
153	0xbe39073b	-0.18069164
154	0x3e31fafb	0.17380898
155	0xbe219aad	-0.1578166
156	0x3df6f66e	0.120587215
157	0xbd92e90c	-0.071733564
158	0xbdce37c4	-0.1006923
159	0xbe05a86a	-0.13052526
160	0xbd58a9b6	-0.052896224
161	0xbdd34a68	-0.10316926
162	0xbe16e071	-0.14734055
163	0x3ce0e92d	0.027454937
164	0x3ca45812	0.020061526
165	0xbd98858b	-0.07447346
166	0x3e036680	0.1283207
167	0xbd977ebf	-0.07397222
168	0x3e0dd7ce	0.13851854
169	0xbd698cea	-0.05701915
170	0xbe464a8d	-0.19364376
171	0xbc0d22d9	-0.008614265
172	0xbe87104a	-0.26379615
173	0x3e17c842	0.14822486
174	0x3e2ac91e	0.16678283
175	0xbd985232	-0.074375525
176	0xbe3db749	-0.18526949
177	0x3e279a66	0.16367492
178	0x3d904416	0.07044236
179	0x3db373e3	0.08762338
180	0xbd6b472a	-0.057440914
181	0x3e05b302	0.13056567
182	0xbb4e1dd1	-0.0031450877
183	0x3e4a61ee	0.1976392
184	0x3ddee981	0.10884381
185	0xbb277114	-0.0025549578
186	0xbe141689	-0.14461721
187	0xbd30875a	-0.04309783
188	0x3d40bd32	0.04705543
189	0x3e132f5d	0.14373536
190	0x3e3c90bb	0.18414585
191	0x3d15173c	0.03639911
192	0xbd39b29d	-0.045336355
193	0xbcedaff3	-0.029014563
194	0x3d88b6fb	0.06675526
195	0xbd748729	-0.05969921
196	0x3e0a6017	0.13513218
197	0x3d3476ec	0.044058725
198	0x3ddfe24d	0.10931835
199	0x3d1d46b6	0.038397513
200	0x3d4c7fba	0.049926497
201	0xbe3baaff	-0.18326949
202	0x3daef6eb	0.085431896
203	0xbdbc21fa	-0.09186168
204	0x3c8c3498	0.017114922
205	0xbd7039b3	-0.058648776
206	0xbe5ba4e9	-0.21449627
207	0x3d846134	0.064638525
208	0xbdf0bd0f	-0.1175481
209	0x3d1f2df1	0.038862173
210	0xbe0b700d	-0.13616963
211	0x3e8f6982	0.28010184
212	0xbea91da1	-0.33030418
213	0xbdc77925	-0.09739903
214	0xbe0d1dfe	-0.13780972
215	0x3d4670cc	0.048447415
216	0x3c96e4f2	0.018419717
217	0x3df93f63	0.12170293
218	0x3e37f758	0.17965448
219	0x3de362b2	0.11102809
220	0x3e88a91f	0.2669153
221	0x3dce9e10	0.10088742
222	0xbeb3be3e	-0.3510608
223	0xbd83e48e	-0.06440078
224	0xbd4bf6b2	-0.049795814
225	0xbe7fd95d	-0.24985261
226	0x3de1d332	0.110266104
227	0x3c43df46	0.011955088
228	0xbdffb704	-0.12486079
229	0x3d0fb257	0.035082188
230	0x3d4b56d8	0.049643368
231	0xbe3f5de9	-0.18688168
232	0x3db9fe68	0.09081727
233	0xbe32609d	-0.17419668
234	0x3dd0d272	0.10196389
235	0xbcd9d6bc	-0.026591651
236	0x3e5f914c	0.2183277
237	0x3d68a88b	0.05680136
238	0xbe3e56ee	-0.18587849
239	0x3e966a5d	0.29378024
240	0xbd49fabb	-0.04931138
241	0x3d09db4b	0.0336564
242	0x3e1067ea	0.1410214
243	0x3da48aa4	0.08034256
244	0xbd914ef7	-0.070951395
245	0x3dfc4325	0.12317494
246	0x3e2c64ac	0.16835278
247	0xbdf529ec	-0.119708866
248	0x3d1a48e3	0.037667166
249	0xbdf2d744	-0.11857465
250	0xbc7b5dac	-0.015342157
251	0x3e26e783	0.16299252
252	0xbda2e12b	-0.07953104
253	0x3dec1200	0.11526871
254	0x3e50a43e	0.20375153
255	0x3d352289	0.04422239

func_approx.network.2.bias f4 [30]
0	0x3b802937	0.003911163
1	0xbe109bbf	-0.14121912
2	0xbe5691e5	-0.20954092
3	0x3d2e25b4	0.042516425
4	0x3bf9892a	0.007615228
5	0x3c079e3d	0.008277473
6	0xbe2346be	-0.15944955
7	0x3d438520	0.04773438
8	0x3e077e6e	0.13231823
9	0x3d30b130	0.04313773
10	0x3e157db8	0.14598739
11	0x3d9baf4f	0.07601797
12	0x3b63a5cd	0.0034736276
13	0x3dece237	0.115665846
14	0x3cd98e39	0.026557075
15	0xbe047a65	-0.12937315
16	0x3e28ee2f	0.1649711
17	0x3c5e46a1	0.013566644
18	0x3d946dbb	0.07247492
19	0x3de47595	0.111552395
20	0x3b4bae05	0.0031079066
21	0xbd56e792	-0.052466936
22	0x3ce95954	0.028484978
23	0xbda6090c	-0.08107194
24	0x3dbc75db	0.09202167
25	0x3e82c15d	0.2553815
26	0x3dc12af6	0.09432022
27	0x3d8baebf	0.068204395
28	0xbe530a96	-0.20609507
29	0xbe0132b3	-0.12616996

func_approx.network.4.weight f4 [30, 30]
0	0xbe342baf	-0.17594789
1	0x3dc4e21f	0.09613442
2	0xbd86794b	-0.065661035
3	0xbdf03559	-0.11728925
4	0x3e938f2a	0.28820163
5	0x3c0b8751	0.008516149
6	0x3c45aae4	0.012064669
7	0x3d2136cc	0.0393589
8	0x3da8b32c	0.08237299
9	0x3d9d7ce2	0.07689835
10	0xbcad1bb9	-0.021131383
11	0x3e236362	0.1595588
12	0xbd05f5d5	-0.032705147
13	0x3d172a25	0.036905427
14	0x3e8b156e	0.27164787
15	0xbd754612	-0.059881277
16	0xbdc8fb15	-0.09813515
17	0x3d5992a0	0.053118348
18	0x3e2325a1	0.15932323
19	0xbe7633a1	-0.24043132
20	0x3dc116b2	0.09428157
21	0x3d3c2325	0.045931954
22	0x3e1ef635	0.15523608
23	0xbd3c155f	-0.04591882
24	0x3d95435f	0.07288241
25	0xbd2a62c3	-0.041598093
26	0xbe0447a3	-0.12917952
27	0xbe438679	-0.19094266
28	0x3e267865	0.16256864
29	0x3e37fc5e	0.17967364
30	0x3e00e8c2	0.1258879
31	0x3e1dcf85	0.15411194
32	0x3e405389	0.18781866
33	0x3e17e72f	0.14834283
34	0xbd8736ab	-0.06602224
35	0xbc95af82	-0.018272165
36	0x3e1791e9	0.14801754
37	0x3e8dba0c	0.27681005
38	0xbe4a4bfe	-0.19755551
39	0xbe07b299	-0.13251723
40	0xbe085b4b	-0.13316076
41	0xbe1d2699	-0.15346755
42	0xbb6ce414	-0.0036146687
43	0xbc9ee82b	-0.019397816
44	0x3c3dc6a0	0.011583
45	0xbda58bfd	-0.08083341
46	0x3eaabd6b	0.3334764
47	0xbe1e390d	-0.1545145
48	0xbe9448bc	-0.28961742
49	0xbe7ad807	-0.2449647
50	0xbe00a194	-0.12561637
51	0xbe9ede78	-0.31029105
52	0x3e5d7aaa	0.21628824
53	0x3de72f03	0.11288264
54	0xbdd382f7	-0.10327714
55	0x3e7799c8	0.24179757
56	0xbebcd7dd	-0.3688344
57	0x3c4d6728	0.012536801
58	0xbd067a02	-0.0328312
59	0x3dcb95fa	0.09940715
60	0xbe35b44d	-0.1774456
61	0xbe2401eb	-0.16016357
62	0x3dd84393	0.10559764
63	0xbe660bbb	-0.22465412
64	0xbde16bcf	-0.11006891
65	0x3da507e9	0.08058149
66	0xbdb3c9fa	-0.08778758
67	0xbe9e3198	-0.30897212
68	0xbdfe9a05	-0.12431721
69	0x3d11792c	0.03551595
70	0x3e804093	0.25049266
71	0x3e4fbbc1	0.20286466
72	0x3ebdf34c	0.37099683
73	0xbaab1ecd	-0.0013055444
74	0xbcd45b6f	-0.025922505
75	0xbe000096	-0.12500224
76	0xbe9dd0c3	-0.30823335
77	0x3df39e5f	0.11895441
78	0x3d105012	0.03523261
79	0x3e1ec054	0.15503055
80	0xbd6e21b8	-0.058137625
81	0x3e910dd3	0.2833086
82	0x3e10ce68	0.14141238
83	0x3dc3e381	0.09564877
84	0xbe05d927	-0.13071118
85	0xbeb95b75	-0.3620259
86	0x3eaff900	0.3436966
87	0xbdc08b82	-0.09401609
88	0x3e013bbf	0.12620448
89	0xbdb21fa2	-0.0869744
90	0x3e106793	0.1410201
91	0xbd32803d	-0.04357933
92	0xbe757934	-0.23972017
93	0x3e343b9c	0.17600864
94	0x3e647593	0.22310476
95	0x3df93b42	0.12169506
96	0xbe292243	-0.16516976
97	0x3e06d034	0.1316536
98	0x3cf9c649	0.030490058
99	0x3dfa08d0	0.12208712
100	0xbe4017d1	-0.18759085
101	0xbd8d2bac	-0.068930954
102	0xbd0c278b	-0.0342174
103	0xbe695c96	-0.22789225
104	0x3bbfc887	0.005852762
105	0xbcddc813	-0.027072942
106	0x3d40b2e2	0.047045596
107	0x3e300618	0.17189825
108	0xbddd853f	-0.1081643
109	0xbe811093	-0.25207958
110	0x3e53a65a	0.20668927
111	0x3dd9bb96	0.10631482
112	0x3ca4eb6f	0.020131795
113	0x3d203e6b	0.039122026
114	0xbdf1b780	-0.11802578
115	0xbd200384	-0.039065853
116	0x3e0f157f	0.13973044
117	0xbe495d8a	-0.19664589
118	0x3e899cfa	0.26877576
119	0xbda2a3e2	-0.079414144
120	0x3e27871d	0.16360135
121	0x3e97b699	0.29631498
122	0xbdc3214c	-0.09527835
123	0x3e29e4b5	0.16591151
124	0x3dc7bcff	0.09752845
125	0xbdd7be05	-0.1053429
126	0x3e2e9592	0.17049244
127	0x3eca21e0	0.3947897
128	0xbcd94e8e	-0.026526716
129	0xbea2c229	-0.31788757
130	0xbea89980	-0.3292961
131	0x3d46e020	0.048553586
132	0xbed7f3af	-0.42178103
133	0x3e370472	0.1787279
134	0xbe34d101	-0.17657854
135	0xbe653a5e	-0.22385547
136	0x3ef47ce2	0.47751528
137	0xbe7ed694	-0.24886543
138	0xbeafb259	-0.34315756
139	0x3d735af5	0.059412915
140	0xbe355839	-0.17709436
141	0xbea47884	-0.32123196
142	0xbd2d12e8	-0.04225436
143	0xbc12e229	-0.008965054
144	0x3e9bb809	0.30413845
145	0x3ef88f03	0.4854661
146	0xbec18d4d	-0.37803116
147	0xbc0b3897	-0.008497379
148	0x3e03db12	0.12876537
149	0x3e014ea8	0.12627661
150	0xbe1085da	-0.1411356
151	0x3e18f659	0.14937724
152	0x3d917bd9	0.071037
153	0xbded41f9	-0.11584849
154	0x3e831484	0.2560159
155	0xbccdce9a	-0.02512293
156	0xbe0061b6	-0.12537274
157	0x3d115f4b	0.03549127
158	0xbe1476e7	-0.14498483
159	0xbd8d4f16	-0.0689985
160	0xbdeb34cd	-0.1148468
161	0xbd8d094d	-0.068865396
162	0xbcf1f76c	-0.029536925
163	0xbd4c5deb	-0.049894255
164	0x3d619cb7	0.055081096
165	0x3e0fdc97	0.14048992
166	0x3e56c385	0.20973022
167	0xbd05d675	-0.032675225
168	0x3dfc2007	0.12310796
169	0xbd915196	-0.070956394
170	0xbe23beef	-0.15990804
171	0xbe278170	-0.1635797
172	0x3bae5c0a	0.0053210305
173	0x3d347a95	0.044062216
174	0x3e21bf3e	0.1579561
175	0x3d970357	0.07373684
176	0x3d9cea1d	0.07661841
177	0x3d16f2af	0.036852535
178	0x3dbb8c63	0.09157636
179	0xbc2c4978	-0.010515563
180	0xbd5bd0bd	-0.053665865
181	0x3d95468c	0.072888464
182	0xbe048ac3	-0.12943558
183	0xbd356831	-0.044288818
184	0x3e5c0e13	0.21489744
185	0x3d7ba63d	0.061437834
186	0xbd4adf55	-0.049529392
187	0xbd564b88	-0.052318126
188	0x3e940815	0.28912416
189	0xbd742d07	-0.059613254
190	0x3d1d13e3	0.038349044
191	0xbe88d01d	-0.26721278
192	0xbd5bba6d	-0.053644586
193	0x3b9bb991	0.004752346
194	0xbd74a447	-0.05972698
195	0x3c8787dc	0.016544275
196	0x3e4db58b	0.20088784
197	0x3da32ec3	0.079679035
198	0xbdd66869	-0.104691334
199	0xbab81dc9	-0.0014046963
200	0xbdbc303c	-0.091888875
201	0xbd8d4642	-0.06898166
202	0xbe80db91	-0.25167516
203	0xbd80d594	-0.06290737
204	0xbe0f5b9d	-0.13999791
205	0xbe225540	-0.15852833
206	0x3dd1eeed	0.102506496
207	0xbc1dce4d	-0.0096317055
208	0x3de52eed	0.11190591
209	0x3dfda037	0.12384074
210	0x3ed4bdc2	0.41551024
211	0xbbd5b5d5	-0.00652192
212	0x3d940c87	0.07228952
213	0x3e95ea07	0.2928011
214	0xbe05e5b6	-0.13075909
215	0xbe09f5d9	-0.1347269
216	0x3eb6f17b	0.3573111
217	0x3e338564	0.17531353
218	0x3dce6a91	0.1007892
219	0xbc6ed46f	-0.014577015
220	0xbe516f46	-0.20452604
221	0xbe80087b	-0.2500647
222	0xbd710c01	-0.05884934
223	0x3cbad8fe	0.022808548
224	0xbe81e9e0	-0.25373745
225	0x3e1bc7f6	0.15212998
226	0x3d416ebf	0.047224756
227	0xbeb6dfa9	-0.35717514
228	0x3d1e46d0	0.03864175
229	0x3e5f0843	0.21780495
230	0xbe68c160	-0.22730017
231	0x3f0364af	0.51325506
232	0xbea91111	-0.33020833
233	0xbe7f3abb	-0.24924748
234	0x3cc96f4d	0.024589205
235	0x3d9673f9	0.07346339
236	0x3dca7842	0.098862186
237	0x3e63763d	0.22213073
238	0xbe14fcda	-0.1454958
239	0x3d49ff06	0.049315475
240	0xbcf92ab7	-0.030415876
241	0xbdc1dc31	-0.09465826
242	0xbe0a8a04	-0.13529211
243	0x3e414af9	0.18876256
244	0x3d9e5d44	0.07732633
245	0xbe3db15c	-0.18524688
246	0xbd6a9f21	-0.057280663
247	0x3dc61039	0.09671063
248	0x3e7a0996	0.24417719
249	0x3e00c2a8	0.12574255
250	0x3c211247	0.009831018
251	0xbcaa365c	-0.020777874
252	0x3c202f81	0.009776951
253	0xbd2052ba	-0.039141394
254	0x3d98f6a3	0.07468917
255	0x3d18b2d0	0.037279904

func_approx.network.4.bias f4 [30]
0	0xbdf7fe81	-0.1210909
1	0xbe1dec75	-0.15422232
2	0xbdd99c79	-0.10625548
3	0xbcdcecac	-0.026968323
4	0x3dbec447	0.09314781
5	0x3dec5eae	0.11541496
6	0x3e6878ea	0.22702375
7	0xbdd92760	-0.10603213
8	0x3d9211d9	0.071323104
9	0xbd86b81e	-0.06578086
10	0xbe666f4d	-0.22503395
11	0xbd51014a	-0.05102662
12	0x3e02cb85	0.12772949
13	0x3d7ac08b	0.06121878
14	0x3d8cb827	0.06871062
15	0xbe5be350	-0.21473432
16	0xbde325f1	-0.11091221
17	0x3cf816a3	0.030284232
18	0x3e51ac49	0.20475878
19	0xbcf7a109	-0.030228155
20	0xbd60aced	-0.054852415
21	0x3dd29452	0.10282196
22	0xbc86242e	-0.016374674
23	0x3d6d5ad6	0.057947956
24	0xbbe7081b	-0.007050527
25	0x3e03083a	0.12796107
26	0x3d6c2e73	0.057661485
27	0xbe010d92	-0.12602833
28	0x3d935264	0.07193449
29	0x3c91d181	0.017800095

func_approx.network.6.weight f4 [30, 30]
0	0x3e80cb86	0.25155276
1	0xbd973adb	-0.07384273
2	0x3de718c5	0.11284021
3	0x3d54b3ec	0.0519294
4	0x3dc0b776	0.094099924
5	0x3dd530c6	0.104096934
6	0xbdb9846d	-0.09058461
7	0xbe6628ad	-0.22476454
8	0xbe1e181e	-0.15438887
9	0x3e0ed29f	0.13947533
10	0x3e5bf666	0.21480712
11	0x3d51ef34	0.051253513
12	0x3de70e76	0.11282055
13	0x3dd1b372	0.102393046
14	0xbea950fb	-0.33069596
15	0x3d60b652	0.054861374
16	0x3e14908b	0.14508264
17	0xbe8c196c	-0.27363145
18	0xbda8153f	-0.08207177
19	0x3c062e32	0.008189725
20	0x3d21a90e	0.039467864
21	0xbd979aea	-0.074025944
22	0x3d9d2430	0.07672918
23	0x3e161d43	0.146596
24	0xbc68f229	-0.014217892
25	0xbe355809	-0.17709364
26	0x3e1c3230	0.1525352
27	0xbc6d4c81	-0.014483572
28	0x3d2c2ab0	0.042032897
29	0x3e286a0f	0.16446708
30	0xbd075618	-0.03304109
31	0x3e3f9599	0.1870941
32	0xbe4b1f66	-0.19836196
33	0x3d8095e7	0.062785916
34	0x3e449984	0.19199187
35	0xbda223c7	-0.0791698
36	0x3e5aa6ac	0.21352643
37	0xbc4c6fe1	-0.012477846
38	0xbe0b201c	-0.13586468
39	0x3d2a21e1	0.041536216
40	0xbd5346e4	-0.05158128
41	0xbda845aa	-0.08216412
42	0x3d9eaa37	0.0774731
43	0x3de1f85a	0.110336974
44	0x3de1a621	0.11018015
45	0x3e16e137	0.1473435
46	0x3e3585ef	0.17726873
47	0x3dafd570	0.08585632
48	0xbdaeab25	-0.08528737
49	0xbda34bf1	-0.07973469
50	0xbe6bf67a	-0.23043242
51	0xbda84d10	-0.082178235
52	0x3dd3ee02	0.10348131
53	0xbccff420	-0.025384963
54	0x3daad3dc	0.0834119
55	0xbd94dca1	-0.07268644
56	0x3df3ae2f	0.11898457
57	0x3e50ef6a	0.20403829
58	0xbe1219a9	-0.14267601
59	0x3daa9b58	0.08330411
60	0xbe115003	-0.14190678
61	0x3d24d022	0.040237553
62	0x3c96085a	0.01831453
63	0xbdffa418	-0.1248247
64	0x3d71c7d2	0.059028454
65	0xbe43fc8d	-0.19139309
66	0x3cddc377	0.027070744
67	0x3b8f4fbb	0.0043735183
68	0xbddee5de	-0.108836874
69	0xbdf406e5	-0.119153775
70	0xbe2f7e94	-0.1713813
71	0xbd8cf9a7	-0.06883555
72	0x3cc2d8e9	0.023785071
73	0xbb929e70	-0.0044744536
74	0x3d0e9fd5	0.034820396
75	0xbe0bbd23	-0.13646369
76	0xbc7dcdb2	-0.015490936
77	0x3e43fef8	0.19140232
78	0x3d29f858	0.041496605
79	0xbd346f60	-0.044051528
80	0x3cbed434	0.023294546
81	0xbdb15401	-0.086586006
82	0x3deac451	0.11463226
83	0xbdaa18e0	-0.08305526
84	0x3b81e194	0.0039636586
85	0x3d05eff3	0.032699537
86	0x3dfd91cc	0.12381324
87	0xbdaf9512	-0.08573355
88	0xbd8de93a	-0.0692925
89	0xbce90a2e	-0.028447237
90	0x3cb8d5c4	0.022562869
91	0xbc77b320	-0.01511839
92	0xbe5c4817	-0.21511875
93	0x3e39622d	0.18103857
94	0x3ea04f06	0.3131029
95	0x3e0902f2	0.1338003
96	0x3e52037a	0.20509139
97	0x3e0057dd	0.12533517
98	0x3e0da599	0.13832702
99	0x3cfcd831	0.030864807
100	0xbd9c6545	-0.07636503
101	0xbdc847ca	-0.09779318
102	0x3e4fedfb	0.20305626
103	0x3cf6d925	0.03013284
104	0x3de39e21	0.11114145
105	0x3ec50e95	0.38487688
106	0x3e1d3dd2	0.15355614
107	0xbe2f376b	-0.17110984
108	0xbdd0ae39	-0.1018948
109	0x3d6202c4	0.05517842
110	0xbcc1868c	-0.023623727
111	0x3e130b11	0.1435969
112	0x3de19a5d	0.110157706
113	0xbe47443b	-0.19459622
114	0x3e5a6813	0.21328764
115	0x3c94ce7c	0.018164866
116	0x3cfa4ac0	0.030553222
117	0x3e7bcb51	0.24589278
118	0xbe172dba	-0.14763537
119	0x3e11f795	0.14254601
120	0x3de9161b	0.113811694
121	0xbdaad5f4	-0.083415896
122	0x3e74b7e1	0.23898269
123	0x3c280d49	0.010257074
124	0xbe51d607	-0.20491801
125	0xbe1e7606	-0.1547471
126	0x3df1337e	0.117773995
127	0xbbad2f79	-0.0052852
128	0x3d1e45a9	0.03864065
129	0xbc8fcdc3	-0.01755417
130	0x3d19c2b4	0.0375392
131	0xbce4c5e6	-0.027926397
132	0xbdbb00b8	-0.091309965
133	0xbde282e6	-0.11060123
134	0x3e825237	0.2545335
135	0x3d3dd8ed	0.046349455
136	0x3d82ed5c	0.06392929
137	0x3d618dc4	0.05506684
138	0x3e3a3f66	0.18188247
139	0x3e5557e4	0.20834309
140	0x3c726d2a	0.014796535
141	0xbddc2de1	-0.10750938
142	0xbe227cbf	-0.158679
143	0xbd719796	-0.058982454
144	0xbe6ca5a7	-0.23110066
145	0xbd8f5c97	-0.07000082
146	0xbd9aa7d2	-0.075515404
147	0xbe46ddd4	-0.19420558
148	0x3e2bd44d	0.16780205
149	0x3e1c8eb6	0.15288815
150	0x3e01c284	0.12671858
151	0xbc117c8b	-0.008879791
152	0x3df8566d	0.121258594
153	0xbe516760	-0.2044959
154	0xbdb60de6	-0.0888937
155	0x3df8a4e8	0.12140828
156	0xbc9207aa	-0.01782592
157	0x3dd67ece	0.10473405
158	0x3e4986d8	0.19680345
159	0x3ca4d0a3	0.020119017
160	0xbe059a34	-0.13047105
161	0x3ddfb074	0.10922328
162	0xbe6dc169	-0.23218311
163	0xbca092b3	-0.019601202
164	0x3dfd4cae	0.12368141
165	0xbdc67fcc	-0.09692344
166	0xbe45160a	-0.19246688
167	0x3d1fbb4d	0.038996983
168	0x3e496824	0.19668633
169	0x3da54bd5	0.080711044
170	0x3dd8e773	0.105910204
171	0x3dfb6f0f	0.12277042
172	0x3de09692	0.10966219
173	0x3ddbceab	0.10732778
174	0xbc96d92e	-0.018414106
175	0x3c81522b	0.015786251
176	0xbd4d9ea2	-0.050200112
177	0xbe1037d9	-0.14083804
178	0x3e0f61a7	0.14002095
179	0x3e1f5d17	0.15562855
180	0x3e13315d	0.143743
181	0xbe550d8c	-0.20805949
182	0x3e09def2	0.13463953
183	0xbe30fd20	-0.1728406
184	0xbe9356c4	-0.28777134
185	0x3e006522	0.12538579
186	0x3c0213e8	0.007939316
187	0xbe0ef759	-0.13961543
188	0x3d6f744a	0.05846051
189	0x3e224395	0.15846093
190	0xbd7bc53d	-0.061467398
191	0xbcc2f6b7	-0.023799283
192	0xbbe790a6	-0.007066804
193	0x3d793eb6	0.06085082
194	0x3dceb2d6	0.10092704
195	0xbdf0ea78	-0.11763471
196	0xbdeeb58c	-0.11655721
197	0x3e6751d7	0.22589813
198	0xbdfde2b6	-0.12396757
199	0x3e44d20c	0.19220752
200	0xbdf6228b	-0.12018307
201	0xb94bc2ad	-0.00019432111
202	0x3e0b6b13	0.13615064
203	0xbdc68c86	-0.096947715
204	0xbe0ac603	-0.13552098
205	0xbc1021d1	-0.008797125
206	0xbdbc2bd1	-0.09188045
207	0xbd8cc164	-0.06872824
208	0xbdb895e3	-0.090129636
209	0xbe143bf4	-0.14475995
210	0x3ca2868c	0.019839548
211	0x3c39c560	0.011338562
212	0x3c0b777f	0.008512377
213	0x3dcc5975	0.09978
214	0x3dc48849	0.09596307
215	0x3cf010b3	0.029304838
216	0x3ddd0281	0.10791493
217	0x3d5ca566	0.053868674
218	0x3ceba889	0.028766887
219	0x3d9feb60	0.07808566
220	0x3ddc629b	0.10760995
221	0x3e0a643e	0.13514802
222	0x3dcffe22	0.10155894
223	0x3e1b7ac3	0.15183549
224	0xbe0c55b3	-0.13704567
225	0x3e0449e5	0.12918814
226	0x3c158a29	0.009127178
227	0xbd681082	-0.056656368
228	0x3d5c9861	0.053856257
229	0xbd70b519	-0.05876646
230	0xbe1489f2	-0.14505747
231	0xbe30ee97	-0.17278515
232	0xbc7bac68	-0.015360929
233	0x3e285356	0.1643804
234	0xbd3bb77b	-0.045829277
235	0x3a3b78f2	0.0007151506
236	0xbc9df75d	-0.019282991
237	0x3dae3377	0.0850591
238	0x3ab85349	0.0014062907
239	0x3de3f44d	0.11130581
240	0x3e64fc32	0.2236183
241	0x3e10084a	0.14065662
242	0x3ccdc982	0.0251205
243	0x3e62c7d9	0.22146548
244	0xbd902ce2	-0.07039811
245	0x3d7c7a10	0.061639845
246	0xbdf08344	-0.11743787
247	0xbe912895	-0.28351274
248	0xbe2213db	-0.15827887
249	0x3bc092fe	0.005876898
250	0x3dfde1c3	0.12396576
251	0x3e26be6c	0.16283578
252	0xbd772a8d	-0.060343314
253	0xbe128012	-0.14306667
254	0xbe40ec0c	-0.18840045
255	0xbd7946c7	-0.060858514

func_approx.network.6.bias f4 [30]
0	0xbc7d8a67	-0.015474892
1	0x3d6ebd01	0.058285717
2	0xbd82bb40	-0.06383371
3	0x3c396352	0.011315184
4	0xbdfb63bc	-0.12274882
5	0x3d3434ee	0.04399579
6	0x3d219eb7	0.039458003
7	0xbca18589	-0.019716995
8	0x3d732e6c	0.059370443
9	0x3daf1fda	0.08550997
10	0x3e091729	0.13387741
11	0xbe1a6e0b	-0.1508104
12	0xbcd39ac8	-0.025830641
13	0x3dae3309	0.08505828
14	0x3e1b2b93	0.15153341
15	0xbdf28003	-0.118408225
16	0xbc377eb4	-0.011199642
17	0x3c75f6b0	0.015012428
18	0xbd39008c	-0.045166537
19	0x3db37037	0.08761638
20	0x3d74bc31	0.059749786
21	0xbe16eb70	-0.1473825
22	0x3c495771	0.012288914
23	0xbe0da4da	-0.13832417
24	0x3d791dab	0.06081931
25	0x3ac92001	0.0015344621
26	0x3d71b40f	0.059009608
27	0xbd0169d9	-0.031595085
28	0x3e1ff639	0.1562127
29	0xbdf1cc76	-0.11806576

func_approx.network.8.weight f4 [1, 30]
0	0x3dfb7a8a	0.12279232
1	0x3e6feb20	0.23429537
2	0xbceeb971	-0.02914116
3	0x3dd7824f	0.10522901
4	0xbe079f88	-0.1324445
5	0xbe081708	-0.13290036
6	0xbe6038d9	-0.21896686
7	0x3e03bcbf	0.1286497
8	0x3e1a6dbd	0.15080924
9	0xbd87a258	-0.066227615
10	0x3cdf2496	0.027239125
11	0xbe33542b	-0.17512576
12	0x3e165997	0.14682613
13	0x3d1fbcb6	0.03899833
14	0x3d595635	0.05306073
15	0xbe4f19ce	-0.20224687
16	0x3e6917d8	0.22763002
17	0xbe2d80bc	-0.1694364
18	0x3e87a6e7	0.26494524
19	0xbe681799	-0.22665252
20	0x3ddf3afb	0.108999215
21	0xbe1ca7b5	-0.1529835
22	0x3e3835b0	0.1798923
23	0x3e8fffe1	0.28124908
24	0x3e58e6dd	0.21181817
25	0xbe07ac16	-0.1324924
26	0xbdfa3b00	-0.122182846
27	0x3df6f0e8	0.12057668
28	0xbe306471	-0.17225815
29	0xbdd7004f	-0.10498106

exp_avg f4 [30, 2]
0	0x350acf95	5.171108e-07
1	0xb59b6b6f	-1.1579667e-06
2	0x351a6a4b	5.752415e-07
3	0x350a28d1	5.14684e-07
4	0xb5785ed4	-9.252519e-07
5	0xb52366c3	-6.087177e-07
6	0x350e0680	5.290858e-07
7	0x361ce547	2.3379268e-06
8	0x355fa245	8.3310107e-07
9	0xb469a0cb	-2.1758312e-07
10	0xb52718a4	-6.2248205e-07
11	0xb3d4ff03	-9.918406e-08
12	0x346850b7	2.1636048e-07
13	0x34a5b5a1	3.0865797e-07
14	0x356a7180	8.733696e-07
15	0x3598ddb9	1.1389412e-06
16	0x3568615a	8.65684e-07
17	0x366157c5	3.3578701e-06
18	0x3562323d	8.4264667e-07
19	0x36531bf0	3.1457712e-06
20	0x33a6ff56	7.776423e-08
21	0x35588bc7	8.0669673e-07
22	0xb5a9b1e2	-1.2643252e-06
23	0x33e8449f	1.0815824e-07
24	0xb4a28f04	-3.027891e-07
25	0xb5550e54	-7.9369534e-07
26	0xb518a73b	-5.6867765e-07
27	0x351e4980	5.8966543e-07
28	0x31cc6f20	5.949815e-09
29	0x35a527fb	1.2305094e-06
30	0xb4973cc1	-2.8170146e-07
31	0xb4f39a2d	-4.5374455e-07
32	0xb409c216	-1.2829727e-07
33	0xb4757455	-2.2859724e-07
34	0xb36138a9	-5.2438427e-08
35	0x360d2915	2.103455e-06
36	0x35d633c5	1.5959309e-06
37	0x349c1c9f	2.907809e-07
38	0xb5389db6	-6.877484e-07
39	0x35566292	7.986465e-07
40	0x3516040b	5.588524e-07
41	0x35931537	1.0958528e-06
42	0x340ba7be	1.3006408e-07
43	0xb5c870c5	-1.4933981e-06
44	0xb5887667	-1.0167249e-06
45	0x35400581	7.1533583e-07
46	0xb504cab1	-4.9468787e-07
47	0x35828489	9.724328e-07
48	0x35154fd9	5.562302e-07
49	0x3552c69f	7.852013e-07
50	0xb57c79a4	-9.4054326e-07
51	0x344b54fa	1.8936763e-07
52	0x35249a13	6.131897e-07
53	0x360676f4	2.0036796e-06
54	0xb49e7801	-2.9517108e-07
55	0xb5c35f76	-1.4556415e-06
56	0xb500b9c5	-4.7954046e-07
57	0xb51f826d	-5.942191e-07
58	0x34ef79ee	4.4605935e-07
59	0x35000ea9	4.770505e-07

exp_avg_sq f4 [30, 2]
0	0x2a968951	2.6740635e-13
1	0x2bbcb922	1.3409588e-12
2	0x2aba48ae	3.309067e-13
3	0x2a9522ce	2.6491868e-13
4	0x2b70f92f	8.561094e-13
5	0x2ad09835	3.7053837e-13
6	0x2a9d9755	2.799381e-13
7	0x2cc050c5	5.4659354e-12
8	0x2b435cc9	6.940668e-13
9	0x29553b68	4.7347028e-14
10	0x2ada2344	3.874905e-13
11	0x28314a93	9.8416445e-15
12	0x2952d835	4.6816897e-14
13	0x29d69640	9.529573e-14
14	0x2b56b474	7.62785e-13
15	0x2bb69130	1.2972175e-12
16	0x2b52f0b7	7.4941046e-13
17	0x2d465bcf	1.12753825e-11
18	0x2b47e057	7.1010336e-13
19	0x2d2e1726	9.895895e-12
20	0x27da53b9	6.0597927e-15
21	0x2b373268	6.5084613e-13
22	0x2be0f925	1.5985309e-12
23	0x285345a5	1.1727955e-14
24	0x29ce7db7	9.170046e-14
25	0x2b3152b2	6.2997795e-13
26	0x2ab60f5d	3.2340355e-13
27	0x2ac3c106	3.4772895e-13
28	0x24400e87	4.164567e-17
29	0x2bd51a4d	1.514186e-12
30	0x29b2b30c	7.9358476e-14
31	0x2a67d0aa	2.0589316e-13
32	0x289444d2	1.6461147e-14
33	0x296b5d28	5.2261282e-14
34	0x2746304f	2.7504208e-15
35	0x2c9bac89	4.42452e-12
36	0x2c333aae	2.5470004e-12
37	0x29be701b	8.457142e-14
38	0x2b05234a	4.7300065e-13
39	0x2b338b8e	6.3787246e-13
40	0x2aafd3f8	3.1233328e-13
41	0x2ba902f3	1.2008991e-12
42	0x289866ad	1.6919918e-14
43	0x2c1cf0ed	2.2302674e-12
44	0x2b917d4c	1.0337647e-12
45	0x2b1010db	5.118247e-13
46	0x2a89c88e	2.4475251e-13
47	0x2b8516cd	9.456547e-13
48	0x2aae2e86	3.094089e-13
49	0x2b2d8a8a	6.165421e-13
50	0x2b79024c	8.846576e-13
51	0x29218ab7	3.5869497e-14
52	0x2ad3ad59	3.7601413e-13
53	0x2c8d41a9	4.0147508e-12
54	0x29c435f1	8.713506e-14
55	0x2c151bcc	2.1189604e-12
56	0x2a8178a4	2.2998714e-13
57	0x2ac6cabf	3.531255e-13
58	0x2a600785	1.9897805e-13
59	0x2a801ea2	2.2758623e-13

max_exp_avg_sq f4 [30, 2]
0	0x35219ad7	6.0202495e-07
1	0x358160aa	9.639382e-07
2	0x34608516	2.0910042e-07
3	0x357dec06	9.4593304e-07
4	0x348cc7ba	2.6222352e-07
5	0x352b34ee	6.3779487e-07
6	0x367e8ac3	3.792972e-06
7	0x37cf79f3	2.473311e-05
8	0x34ac629d	3.2109247e-07
9	0x380cf377	3.3605345e-05
10	0x3446e62a	1.852392e-07
11	0x364984cc	3.0028632e-06
12	0x34d02074	3.8766632e-07
13	0x3767fc01	1.3827347e-05
14	0x33bf8aa4	8.919349e-08
15	0x35df270a	1.6626157e-06
16	0x34d6aa5b	3.9984556e-07
17	0x374d1480	1.2223725e-05
18	0x348087cb	2.394066e-07
19	0x36f692e7	7.348473e-06
20	0x35bdd403	1.4143301e-06
21	0x36ecb9e5	7.054989e-06
22	0x337e825d	5.9257548e-08
23	0x35a9be14	1.2646801e-06
24	0x3687e534	4.0499963e-06
25	0x387d9728	6.0460676e-05
26	0x35935e4d	1.0979799e-06
27	0x389a2dd4	7.3518284e-05
28	0x35022d67	4.8494843e-07
29	0x369fee8b	4.7663393e-06
30	0x351dfb73	5.8852964e-07
31	0x367126d7	3.5934406e-06
32	0x344a6681	1.8850007e-07
33	0x352b2b79	6.3765725e-07
34	0x36ba6011	5.5544156e-06
35	0x380cfd77	3.361466e-05
36	0x32a71599	1.945118e-08
37	0x359e2649	1.178306e-06
38	0x33f312ef	1.1319013e-07
39	0x3792a860	1.7482962e-05
40	0x3496284f	2.7969006e-07
41	0x37432cc3	1.1633328e-05
42	0x33f81ad9	1.15532835e-07
43	0x3628d607	2.515853e-06
44	0x36b5047c	5.3947424e-06
45	0x382aa32f	4.0683135e-05
46	0x341fdb32	1.4887772e-07
47	0x355be5f3	8.191848e-07
48	0x3509b14b	5.129447e-07
49	0x37c23377	2.3150567e-05
50	0x35880bfd	1.0136279e-06
51	0x39031159	0.00012499596
52	0x351064dc	5.379095e-07
53	0x36f00de0	7.1541726e-06
54	0x3488e61a	2.5499395e-07
55	0x37a5aea8	1.9750863e-05
56	0x367d7787	3.7769512e-06
57	0x3782ed86	1.5607813e-05
58	0x3600b71c	1.918007e-06
59	0x380f8288	3.4215424e-05

exp_avg f4 [30]
0	0xb50fb2b9	-5.3531727e-07
1	0x35857b6b	9.945192e-07
2	0xb4f3d764	-4.5418994e-07
3	0xb515452b	-5.560748e-07
4	0x32bb5e73	2.1812616e-08
5	0xb45f2619	-2.0782353e-07
6	0x358ce87f	1.0498478e-06
7	0xb417451c	-1.4088113e-07
8	0x34897273	2.560151e-07
9	0x33e3f80e	1.0615632e-07
10	0x3575e1d0	9.159821e-07
11	0x3444ac76	1.8316663e-07
12	0xb47c22f2	-2.3482042e-07
13	0xb553fd66	-7.897237e-07
14	0xb2f758ae	-2.8794911e-08
15	0xb53ce34a	-7.0366207e-07
16	0x31dd1ae5	6.435004e-09
17	0x3551fd87	7.82275e-07
18	0x34ce4e84	3.8427618e-07
19	0xb5486fb3	-7.466835e-07
20	0x352b3323	6.377688e-07
21	0xb50a0585	-5.141704e-07
22	0x35ad2a14	1.2901751e-06
23	0xb5c320d4	-1.4538186e-06
24	0x32616fdc	1.3122158e-08
25	0xb55f7e68	-8.325792e-07
26	0xb4e5bcb1	-4.2791865e-07
27	0xb520ce31	-5.990469e-07
28	0xb41a1fe5	-1.4353971e-07
29	0xb334de5d	-4.2111754e-08

exp_avg_sq f4 [30]
0	0x2aa157b5	2.8660204e-13
1	0x2b8b3324	9.890738e-13
2	0x2a684449	2.062943e-13
3	0x2aae13b2	3.0922275e-13
4	0x260a3a10	4.7957057e-16
5	0x2942897a	4.3195895e-14
6	0x2b9b1e86	1.1021884e-12
7	0x28b2cb6b	1.9850188e-14
8	0x29939af2	6.55499e-14
9	0x284b53d1	1.12869385e-14
10	0x2b6c2af7	8.390367e-13
11	0x29171dd0	3.3554594e-14
12	0x297870eb	5.5165003e-14
13	0x2b2f8d65	6.2368714e-13
14	0x2670342e	8.3337444e-16
15	0x2b0b5f5b	4.951505e-13
16	0x246bcf31	5.1133e-17
17	0x2b2c409e	6.119635e-13
18	0x2a26432e	1.476707e-13
19	0x2b1ceed4	5.5753774e-13
20	0x2ae4fb6a	4.067539e-13
21	0x2a94d4fb	2.6437866e-13
22	0x2bea44bc	1.6645778e-12
23	0x2c14bb37	2.113599e-12
24	0x254e0d0d	1.7872074e-16
25	0x2b43220c	6.9325166e-13
26	0x2a4e2b8f	1.8311588e-13
27	0x2aca05ba	3.5886382e-13
28	0x28b9f860	2.0646841e-14
29	0x27009ba2	1.7847937e-15

max_exp_avg_sq f4 [30]
0	0x3582cafd	9.744832e-07
1	0x34b52742	3.374244e-07
2	0x35836f8c	9.792725e-07
3	0x36fd5c12	7.550706e-06
4	0x352fcad9	6.548776e-07
5	0x34ea1e05	4.3607739e-07
6	0x357713e8	9.204364e-07
7	0x34a37eb9	3.045332e-07
8	0x35567295	7.988795e-07
9	0x35329030	6.651999e-07
10	0x36615364	3.3576152e-06
11	0x34066937	1.2518e-07
12	0x3709f41b	8.222672e-06
13	0x361f94d4	2.3779476e-06
14	0x35add036	1.2950102e-06
15	0x35cbee6a	1.5194066e-06
16	0x355979d6	8.1016094e-07
17	0x37361991	1.0853998e-05
18	0x33477c1e	4.6446182e-08
19	0x346335f7	2.1160655e-07
20	0x3554f5fa	7.93341e-07
21	0x34a9b7ef	3.1612532e-07
22	0x3743e3da	1.1675957e-05
23	0x34c9678b	3.7514505e-07
24	0x35bd8157	1.411924e-06
25	0x35607112	8.361104e-07
26	0x3595fa5d	1.117423e-06
27	0x3502bdbc	4.8704874e-07
28	0x37453244	1.1753818e-05
29	0x368aa6e1	4.1321478e-06

exp_avg f4 [30, 30]
0	0x3547d8ae	7.444859e-07
1	0xb4c97461	-3.7523844e-07
2	0xb51e8caa	-5.906428e-07
3	0xb46961b0	-2.1735354e-07
4	0x32d2ae03	2.4526349e-08
5	0xb3b3b7c9	-8.3687674e-08
6	0xb3ff1a60	-1.18791604e-07
7	0x3399ebb5	7.1674926e-08
8	0xb50d432b	-5.2624335e-07
9	0xb3a13153	-7.506119e-08
10	0xb53953ea	-6.903998e-07
11	0xb48fc1c4	-2.677681e-07
12	0xb2719b7f	-1.4063402e-08
13	0xb4325ed4	-1.661204e-07
14	0xb4e2a882	-4.2218386e-07
15	0x34d6e16d	4.0024625e-07
16	0xb5100bb3	-5.3661205e-07
17	0xb449c97f	-1.8792888e-07
18	0x34fa70f6	4.664832e-07
19	0xb50b8bd9	-5.198504e-07
20	0xb45de452	-2.0665291e-07
21	0x34e756fb	4.309039e-07
22	0xb4f6a54f	-4.5941349e-07
23	0xb5aa6e47	-1.2698082e-06
24	0x332ad0aa	3.977099e-08
25	0xb3a5c941	-7.720019e-08
26	0x340e22f0	1.3237491e-07
27	0x33eb90c0	1.096937e-07
28	0x33bdf746	8.845977e-08
29	0xb3e3ca6c	-1.06073315e-07
30	0x34ac3123	3.2073248e-07
31	0xb45dc319	-2.0653205e-07
32	0xb45421b7	-1.9756304e-07
33	0xb4413d4e	-1.7996828e-07
34	0x3442bf28	1.81372e-07
35	0xb463e952	-2.1225904e-07
36	0xb41336cd	-1.3710378e-07
37	0x33b3ebf0	8.378254e-08
38	0x33189ad2	3.5531066e-08
39	0xb315dc6a	-3.489223e-08
40	0xb45e48e4	-2.0701879e-07
41	0xb45d2cc4	-2.0598515e-07
42	0x3488bd2c	2.5469615e-07
43	0xb4221bbe	-1.5097518e-07
44	0xb3affa4d	-8.194602e-08
45	0x33fc039b	1.173532e-07
46	0xb43b45d3	-1.7441134e-07
47	0xb44eeafa	-1.9270729e-07
48	0x3407179e	1.2581447e-07
49	0xb4b3817d	-3.3435563e-07
50	0xb381feb8	-6.053364e-08
51	0x32f0d245	2.8035297e-08
52	0xb40ff120	-1.3405634e-07
53	0xb4df79e9	-4.1625688e-07
54	0x344d0ab0	1.9096001e-07
55	0xb4871162	-2.5158357e-07
56	0xb1968528	-4.3807127e-09
57	0x33b8b10b	8.6003716e-08
58	0x3473ea83	2.2716453e-07
59	0xb474aa50	-2.278623e-07
60	0x344f1e8d	1.9289492e-07
61	0x34160ec8	1.3975216e-07
62	0xb49e2348	-2.9455464e-07
63	0xb542f807	-7.263156e-07
64	0xb50086de	-4.7879973e-07
65	0x350b756a	5.1952395e-07
66	0xb291758c	-1.6933676e-08
67	0xb5258db8	-6.167352e-07
68	0xb30cc183	-3.2772288e-08
69	0xb4ec1498	-4.397341e-07
70	0xb44e4678	-1.9210881e-07
71	0x3542cf84	7.2572607e-07
72	0xb448067b	-1.8628809e-07
73	0x34024d60	1.2135342e-07
74	0x3385f2e5	6.2374774e-08
75	0xb1fe2741	-7.3968356e-09
76	0x33db4489	1.0210449e-07
77	0xb50a09c9	-5.1423245e-07
78	0xb56b067e	-8.755377e-07
79	0x34f10c60	4.4898752e-07
80	0x3407141b	1.2580169e-07
81	0x3356ccdb	5.0012073e-08
82	0xb451943c	-1.9518569e-07
83	0x341d8307	1.4669432e-07
84	0xb53f1a74	-7.119154e-07
85	0x34b23932	3.31967e-07
86	0xb52ea66b	-6.506222e-07
87	0xb44abd45	-1.8881572e-07
88	0xb4834a23	-2.4454593e-07
89	0x33bebf52	8.8823654e-08
90	0x34972f59	2.8160392e-07
91	0x347f8136	2.3795732e-07
92	0xb2720071	-1.4086354e-08
93	0xb4f9eed3	-4.6553632e-07
94	0x349fef0e	2.9789993e-07
95	0x347ecad2	2.3729379e-07
96	0x3493a995	2.750427e-07
97	0xb53427ff	-6.711343e-07
98	0xb4842caa	-2.4619413e-07
99	0xb4d1d1f7	-3.9082053e-07
100	0xb55a9538	-8.142847e-07
101	0x35bf3624	1.4246366e-06
102	0xb4af0c94	-3.2605442e-07
103	0x35a9b076	1.2642838e-06
104	0xb390ebe0	-6.748428e-08
105	0x34613dbf	2.0977221e-07
106	0x34b87ef8	3.4365053e-07
107	0x3420d022	1.497688e-07
108	0x31f04b6a	6.993493e-09
109	0x345afb7b	2.039432e-07
110	0x34aee28a	3.2574854e-07
111	0x348ad746	2.5861135e-07
112	0x340fee99	1.3404714e-07
113	0x34f6d2c8	4.5974434e-07
114	0x34acb8b3	3.2171883e-07
115	0xb48c0787	-2.608251e-07
116	0xb556248c	-7.9774395e-07
117	0x356733e4	8.6129717e-07
118	0xb4bca582	-3.5138152e-07
119	0x3366b602	5.3716583e-08
120	0x3494454b	2.7617565e-07
121	0x345d1c33	2.0592488e-07
122	0xb4f3d6d2	-4.541858e-07
123	0x34e06ba2	4.1801565e-07
124	0x3527e5f4	6.2546974e-07
125	0xb51b8b27	-5.7944493e-07
126	0xb490099f	-2.682909e-07
127	0x34bf817c	3.5670735e-07
128	0x34a8288c	3.132194e-07
129	0x3319c141	3.5798852e-08
130	0xb2d01ee8	-2.4228441e-08
131	0xb569da54	-8.7116973e-07
132	0xb3fe9b95	-1.1856097e-07
133	0xb365d2f0	-5.3510064e-08
134	0x338d6bcb	6.5854316e-08
135	0xb45f4ad7	-2.079572e-07
136	0x3313b787	3.439302e-08
137	0x351d3e06	5.8577314e-07
138	0x35a405b5	1.2220613e-06
139	0xb4e3e070	-4.2445345e-07
140	0x34c7e3fb	3.7232516e-07
141	0xb4182284	-1.416866e-07
142	0x35624a51	8.4299705e-07
143	0xb3e706ac	-1.0757989e-07
144	0x355f58ba	8.320309e-07
145	0xb4b58998	-3.381399e-07
146	0x34fd1047	4.7136766e-07
147	0x34306146	1.6426665e-07
148	0xb4585df4	-2.0150748e-07
149	0x3319732e	3.5727844e-08
150	0x33c11a24	8.992018e-08
151	0xb42d1b7f	-1.6121884e-07
152	0xb40dd32b	-1.3208471e-07
153	0xb3dba59a	-1.0228105e-07
154	0xb393c1df	-6.880486e-08
155	0xb3451eba	-4.5895582e-08
156	0x330e697d	3.3157892e-08
157	0xb42a8c53	-1.5883533e-07
158	0xb3d7bf04	-1.0046463e-07
159	0xb460e1f1	-2.0943823e-07
160	0xb239cd8f	-1.0815156e-08
161	0xb4c8839d	-3.7348664e-07
162	0x34b2aa2b	3.3278897e-07
163	0xb3867fe5	-6.263125e-08
164	0xb4640fff	-2.1239974e-07
165	0x3419a9b0	1.4310967e-07
166	0xb48acbb1	-2.5852708e-07
167	0xb44298b4	-1.8123211e-07
168	0xb4712f5e	-2.2462106e-07
169	0x32034b88	7.642377e-09
170	0xb55680e8	-7.9908796e-07
171	0x338c513a	6.534033e-08
172	0x3396e825	7.027146e-08
173	0xb39c17af	-7.268624e-08
174	0xb4a9bd52	-3.1616452e-07
175	0x34c8c414	3.739557e-07
176	0xb3fe279f	-1.1835004e-07
177	0xb4a76145	-3.1176947e-07
178	0x348b17d3	2.5908102e-07
179	0xb48c11dc	-2.6090026e-07
180	0x35af0357	1.3039488e-06
181	0xb5031ae8	-4.8840457e-07
182	0xb4895c9f	-2.558563e-07
183	0xb56fa961	-8.9280917e-07
184	0x33f05067	1.1190496e-07
185	0xb4883782	-2.537236e-07
186	0xb4be2195	-3.5414692e-07
187	0xb41ac3a9	-1.4413548e-07
188	0xb47b969d	-2.343099e-07
189	0xb496ec80	-2.8111754e-07
190	0xb58599cb	-9.954032e-07
191	0xb4934461	-2.7430636e-07
192	0x34427265	1.8109274e-07
193	0xb52682f7	-6.20304e-07
194	0xb4a4843e	-3.06436e-07
195	0x34896f93	2.559942e-07
196	0xb519a4bf	-5.723668e-07
197	0xb5829d33	-9.731506e-07
198	0xb4808195	-2.393614e-07
199	0xb4f67ce1	-4.5911932e-07
200	0x32896f32	1.5999465e-08
201	0x34291f9d	1.5750852e-07
202	0xb559c5b3	-8.112649e-07
203	0xb5393e4f	-6.900854e-07
204	0xb40faf28	-1.3381634e-07
205	0xb4eafbbd	-4.376906e-07
206	0xb4c5e243	-3.6858737e-07
207	0x3409cf93	1.2834634e-07
208	0x348535c3	2.4812297e-07
209	0xb4354e9a	-1.6885534e-07
210	0xb4109c12	-1.3467823e-07
211	0x33ce63a1	9.610745e-08
212	0x34033b8e	1.2221992e-07
213	0xb3d37e05	-9.848376e-08
214	0xb411ae25	-1.3567531e-07
215	0x3424256f	1.5287308e-07
216	0x32cca39c	2.3823127e-08
217	0xb3e8b194	-1.0835643e-07
218	0x338ce8ff	6.56164e-08
219	0xb3d5bb7d	-9.952689e-08
220	0x337663b3	5.7367014e-08
221	0x34543ec8	1.9766878e-07
222	0x3346fab2	4.6328474e-08
223	0x33df8e73	1.0410158e-07
224	0x33c53104	9.182443e-08
225	0xb2a301ab	-1.8976456e-08
226	0x342aafd1	1.5896445e-07
227	0xb3db6e05	-1.02179946e-07
228	0xb47da6c8	-2.3623136e-07
229	0x3441f67c	1.8064196e-07
230	0xb3e2442a	-1.0536344e-07
231	0xb2d65f20	-2.4956137e-08
232	0xb3c24c23	-9.047678e-08
233	0x343f394c	1.7809106e-07
234	0xb41779d5	-1.4107293e-07
235	0x341a0709	1.4344927e-07
236	0xb3ef4236	-1.11413485e-07
237	0xb3fc0a4e	-1.1736539e-07
238	0xb3516443	-4.8752792e-08
239	0xb384987c	-6.174466e-08
240	0x3586cc32	1.0043207e-06
241	0xb4efbf0e	-4.465623e-07
242	0xb3429973	-4.5308706e-08
243	0xb5144878	-5.523975e-07
244	0xb394242b	-6.898366e-08
245	0x33cdf620	9.590826e-08
246	0xb4903947	-2.6863765e-07
247	0xb48b3c25	-2.5934528e-07
248	0xb54b5bd8	-7.5757043e-07
249	0xb49d980b	-2.9354155e-07
250	0xb58bbb77	-1.0410866e-06
251	0x34b4874e	3.362606e-07
252	0x34332136	1.6682756e-07
253	0xb4c58bad	-3.6795737e-07
254	0xb5278fdd	-6.2421697e-07
255	0x351483d3	5.5326126e-07

exp_avg_sq f4 [30, 30]
0	0x2b1c032c	5.5426735e-13
1	0x2a1e890a	1.4080764e-13
2	0x2ac46490	3.4886373e-13
3	0x2954c95e	4.7248114e-14
4	0x262e2fdc	6.043324e-16
5	0x27fc6df7	7.0063275e-15
6	0x287e35c7	1.41114935e-14
7	0x27b934a1	5.1404875e-15
8	0x2a9be67e	2.7693467e-13
9	0x27cb18c2	5.637066e-15
10	0x2b062af0	4.766595e-13
11	0x29a17613	7.170319e-14
12	0x25659667	1.9913542e-16
13	0x28f8905d	2.7596139e-14
14	0x2a48ae53	1.7824049e-13
15	0x2a345e78	1.6019987e-13
16	0x2aa21ad5	2.87956e-13
17	0x291f144c	3.5322697e-14
18	0x2a7501fc	2.176106e-13
19	0x2a9822ee	2.702486e-13
20	0x2940573a	4.270822e-14
21	0x2a510ec0	1.8568046e-13
22	0x2a6da45e	2.1106855e-13
23	0x2be2ede7	1.6124297e-12
24	0x26e481ff	1.5855914e-15
25	0x27d6c6b8	5.9612383e-15
26	0x289dddb3	1.7526648e-14
27	0x2858c4f9	1.203312e-14
28	0x280cff98	7.826984e-15
29	0x284ab6d8	1.12529005e-14
30	0x29e7a687	1.02873486e-13
31	0x29401e4f	4.2658853e-14
32	0x292fd028	3.9038353e-14
33	0x2911e662	3.2396293e-14
34	0x29142b84	3.2900345e-14
35	0x294aed22	4.505869e-14
36	0x28a951df	1.8798275e-14
37	0x27fd25f8	7.026277e-15
38	0x26b63386	1.2642752e-15
39	0x26b00242	1.2213065e-15
40	0x294106d0	4.2860518e-14
41	0x293f1df9	4.2436517e-14
42	0x299214a8	6.487286e-14
43	0x28cd5270	2.2795324e-14
44	0x27f20556	6.717428e-15
45	0x287820db	1.377389e-14
46	0x290903b9	3.042334e-14
47	0x29274822	3.7144014e-14
48	0x288ea49f	1.583656e-14
49	0x29fbbeaf	1.11797175e-13
50	0x27841256	3.665724e-15
51	0x266301b1	7.875874e-16
52	0x28a1f2e6	1.7979931e-14
53	0x2a431861	1.7327937e-13
54	0x292441c4	3.6472358e-14
55	0x298e880d	6.329668e-14
56	0x23f0ae99	2.6094797e-17
57	0x2805506d	7.400423e-15
58	0x29686b1d	5.1607254e-14
59	0x2969d7ce	5.1923574e-14
60	0x292793f8	3.720979e-14
61	0x28afee0e	1.9532143e-14
62	0x29c36009	8.676399e-14
63	0x2b147ce4	5.2753483e-13
64	0x2a810e6f	2.2925019e-13
65	0x2a97f18f	2.6990603e-13
66	0x25a59209	2.8721895e-16
67	0x2ad62003	3.803625e-13
68	0x269aecbb	1.0750063e-15
69	0x2a59b607	1.9336625e-13
70	0x292636c5	3.690691e-14
71	0x2b143f38	5.2667896e-13
72	0x291c4bed	3.4704813e-14
73	0x2884a6c1	1.4727262e-14
74	0x278c387d	3.891905e-15
75	0x24814ab2	5.607137e-17
76	0x283bd50c	1.04267825e-14
77	0x2a94dd3f	2.6443602e-13
78	0x2b57c500	7.6656737e-13
79	0x2a62f9b6	2.0159468e-13
80	0x288e8ebd	1.582707e-14
81	0x27345234	2.502458e-15
82	0x292b9491	3.8098488e-14
83	0x28c1d7df	2.1520924e-14
84	0x2b0ea887	5.0682413e-13
85	0x29f82816	1.1020366e-13
86	0x2aee4d61	4.2330985e-13
87	0x292090cc	3.5652728e-14
88	0x2986aabe	5.9804145e-14
89	0x280e284b	7.891321e-15
90	0x29b2b657	7.936419e-14
91	0x297f4ab2	5.6686162e-14
92	0x2599cfa3	2.668197e-16
93	0x2a74133a	2.1678224e-13
94	0x29c7dca8	8.875653e-14
95	0x297da2e6	5.6318577e-14
96	0x29aa5fee	7.566158e-14
97	0x2afd9522	4.504531e-13
98	0x298893f7	6.065281e-14
99	0x2a2c0149	1.5277115e-13
100	0x2b3aa706	6.6312266e-13
101	0x2c0ed218	2.029604e-12
102	0x29ef851e	1.0636824e-13
103	0x2be0f578	1.5984289e-12
104	0x27a5a233	4.5972557e-15
105	0x294666bd	4.4053943e-14
106	0x2a0507cd	1.181548e-13
107	0x28caa0a0	2.2496165e-14
108	0x24cfad23	9.0065245e-17
109	0x293b6110	4.160653e-14
110	0x29eef751	1.0612226e-13
111	0x2996af9b	6.691801e-14
112	0x28a26903	1.8031155e-14
113	0x2a6e06d2	2.1141013e-13
114	0x29e91c5c	1.0352198e-13
115	0x299932f6	6.803405e-14
116	0x2b332419	6.364367e-13
117	0x2b50d108	7.4186534e-13
118	0x2a0b1583	1.2353143e-13
119	0x2753a8c2	2.9373616e-15
120	0x29abcbd4	7.629284e-14
121	0x293f1716	4.2430543e-14
122	0x2a684a64	2.0631549e-13
123	0x2a44be41	1.7474305e-13
124	0x2adc3d1b	3.912225e-13
125	0x2abd054e	3.3576825e-13
126	0x29a219a8	7.198696e-14
127	0x2a0f4c4d	1.2727424e-13
128	0x29dcf281	9.81203e-14
129	0x26ba03e0	1.2907393e-15
130	0x263036f4	6.113674e-16
131	0x2b55a09e	7.58957e-13
132	0x287dad6c	1.4081926e-14
133	0x274edb3a	2.8707086e-15
134	0x279ce1eb	4.354364e-15
135	0x2942d787	4.3263594e-14
136	0x26adea1b	1.2067741e-15
137	0x2ac12bab	3.4313988e-13
138	0x2bd22f15	1.4934465e-12
139	0x2a4ada27	1.8016891e-13
140	0x2a1c1acc	1.386488e-13
141	0x28b4e9cf	2.0085413e-14
142	0x2b480923	7.1066953e-13
143	0x2851d086	1.1647047e-14
144	0x2b42dd2d	6.922959e-13
145	0x2a00bdae	1.1434492e-13
146	0x2a7a3116	2.222149e-13
147	0x28f338be	2.7003027e-14
148	0x2936ffbc	4.0633932e-14
149	0x26baf86e	1.297368e-15
150	0x2811ef53	8.101012e-15
151	0x28ea370f	2.6003097e-14
152	0x289d4099	1.7458516e-14
153	0x283ca2a5	1.0471364e-14
154	0x27aabde6	4.7390367e-15
155	0x2718250e	2.1114325e-15
156	0x269ec57d	1.1016982e-15
157	0x28e34ce1	2.5235404e-14
158	0x2835f289	1.010011e-14
159	0x294592bf	4.387007e-14
160	0x25144e99	1.2863584e-16
161	0x2a1d0fbc	1.394986e-13
162	0x29f9681a	1.107588e-13
163	0x278d6ab4	3.925105e-15
164	0x294b3620	4.5122e-14
165	0x28b88c59	2.048897e-14
166	0x29968776	6.684837e-14
167	0x2913f7b2	3.28554e-14
168	0x2963428c	5.0461846e-14
169	0x2491b346	6.318743e-17
170	0x2b33bbcb	6.385419e-13
171	0x279a0bb0	4.275626e-15
172	0x27b2565f	4.949857e-15
173	0x27beb471	5.293123e-15
174	0x29e11b32	9.996725e-14
175	0x2a1d73a4	1.3984522e-13
176	0x287c7a05	1.4015269e-14
177	0x29dae29b	9.7204546e-14
178	0x29972be1	6.713359e-14
179	0x29994c6e	6.8078233e-14
180	0x2bef4b9c	1.7002957e-12
181	0x2a864b93	2.3855622e-13
182	0x299372c4	6.54802e-14
183	0x2b605ef6	7.971257e-13
184	0x2861b805	1.2529912e-14
185	0x2990f98d	6.438175e-14
186	0x2a0d372e	1.254246e-13
187	0x28bb2f92	2.0781801e-14
188	0x29774c40	5.4911154e-14
189	0x29b1f6b9	7.9031786e-14
190	0x2b8b72e5	9.908434e-13
191	0x29a973fb	7.525227e-14
192	0x2913c3f5	3.2810523e-14
193	0x2ad89cf8	3.8478227e-13
194	0x29d37a8e	9.391542e-14
195	0x29939859	6.5545395e-14
196	0x2ab86f05	3.2762e-13
197	0x2b8548bd	9.470407e-13
198	0x29810725	5.72999e-14
199	0x2a6d56a2	2.1079885e-13
200	0x2595d58f	2.5992093e-16
201	0x28df8970	2.4817577e-14
202	0x2b3941ae	6.581635e-13
203	0x2b060bf4	4.762295e-13
204	0x28a1589c	1.7913019e-14
205	0x2a57b25d	1.9157718e-13
206	0x2a18f7ef	1.3586331e-13
207	0x28947bba	1.6484959e-14
208	0x298aac41	6.1583124e-14
209	0x29007842	2.8526016e-14
210	0x28a37764	1.8148413e-14
211	0x282676cf	9.240614e-15
212	0x28869ce7	1.4945034e-14
213	0x282edb5e	9.706508e-15
214	0x28a5d943	1.8412902e-14
215	0x28d28be2	2.3375348e-14
216	0x2623ad8f	5.67872e-16
217	0x2853994f	1.1746096e-14
218	0x279b3782	4.3081324e-15
219	0x283280ed	9.908941e-15
220	0x276db2df	3.2987323e-15
221	0x292fff6a	3.9079342e-14
222	0x271aba03	2.147263e-15
223	0x28434067	1.08386395e-14
224	0x2817ec74	8.4334564e-15
225	0x25d072e6	3.6160107e-16
226	0x28e3a417	2.5273225e-14
227	0x283c386e	1.0448333e-14
228	0x297b5ad4	5.5811977e-14
229	0x2912fa98	3.2635868e-14
230	0x284802dc	1.110285e-14
231	0x2633d65d	6.2393617e-16
232	0x2813a074	8.194932e-15
233	0x290edc53	3.1721435e-14
234	0x28b35194	1.9908371e-14
235	0x28b96034	2.0580847e-14
236	0x285fb854	1.24189565e-14
237	0x2878311e	1.3777416e-14
238	0x272b6d0b	2.379013e-15
239	0x278960d7	3.8130133e-15
240	0x2b8df504	1.0086658e-12
241	0x2a608913	1.9942754e-13
242	0x27146274	2.0592498e-15
243	0x2aabc873	3.0514792e-13
244	0x27aba434	4.7640064e-15
245	0x2825caed	9.2033425e-15
246	0x29a281c7	7.216758e-14
247	0x29977680	6.7263035e-14
248	0x2b218b30	5.739185e-13
249	0x29c208f5	8.6168845e-14
250	0x2b988a71	1.0838675e-12
251	0x29fea181	1.13078824e-13
252	0x28fabae7	2.7836632e-14
253	0x2a18715c	1.3539641e-13
254	0x2adb5b1e	3.896544e-13
255	0x2aac5232	3.0610372e-13
