paper/Burgers/runs/rand14model.pt (torch, 15689 bytes, 9 tensors)

func_approx.network.0.weight f4 [30, 2]
000000 eb 06 80 bf 26 51 39 3f 41 6b a0 3e 4e fe 47 bf
       -1.0002111 0.7238945 0.31331828 -0.78122413
000010 ab 6b f2 3e 8c 8c 74 3f 44 c7 80 be 5b df 35 bf
       0.4734777 0.9552696 -0.25152028 -0.7104394
000020 cd b2 3f bf 15 6c 04 be 79 ee 72 3f 61 bb 55 3d
       -0.74882203 -0.12931855 0.9489513 0.05218065
000030 13 4a 33 3e a9 39 20 be 03 64 75 bf 2a 4c b6 be
       0.17508726 -0.15646996 -0.9585573 -0.35604984
000040 74 87 40 3f ec 76 c7 be 55 d7 e9 be ce 1a aa be
       0.75206685 -0.38957918 -0.45672098 -0.33223575
000050 68 f8 3c 3f 7d f8 34 bf 6a 62 be 3f e7 f6 73 3d
       0.7381654 -0.70691663 1.4873784 0.059561636
000060 4e 66 73 be 4a bb 1c 3f 52 b0 2a 3f 6b 8b 44 be
       -0.23769495 0.6122328 0.66675293 -0.19193809
000070 14 bd 1f 3f 67 16 da be a7 a8 ba be 4d 9f 00 3f
       0.62397885 -0.42595217 -0.36456797 0.50243074
000080 54 6c 8c 3f f7 b3 2d bf dd b1 e3 be ad 88 61 bf
       1.0970559 -0.6785273 -0.44471636 -0.88099176
000090 ae 35 cf bf b1 81 b5 be 77 cd 39 3f 19 57 1c 3e
       -1.6188257 -0.3545051 0.7257914 0.152676
0000a0 20 1b 0c bf 60 a2 cd bd 47 4c 82 be d3 41 06 3f
       -0.5472889 -0.10040736 -0.2544882 0.5244419
0000b0 eb 9b 08 3e af 52 81 bf 93 bc 87 3f da 56 24 3f
       0.13340728 -1.0103358 1.0604423 0.64195025
0000c0 c2 68 37 bf 0b db a3 be 1f 17 33 3f 27 a3 24 3d
       -0.7164422 -0.32003054 0.69957155 0.040194657
0000d0 bf 55 20 bf 85 e6 11 bf e9 a0 2e bf 61 35 92 3e
       -0.6263084 -0.5699237 -0.6821428 0.2855635
0000e0 94 32 d7 be 72 29 59 3f 05 d5 b7 3d 49 a6 fe be
       -0.42030776 0.84828866 0.08976177 -0.4973624

func_approx.network.0.bias f4 [30]
000000 76 5f 80 3e 6d 2d 85 bd 22 91 56 be cf e5 e8 be
       0.2507283 -0.06502805 -0.20953801 -0.4548783
000010 90 c2 87 be 2c 52 5e 3e 9f 63 d9 3d 27 c1 3e be
       -0.26515627 0.21711034 0.10614704 -0.1862837
000020 04 90 f9 bd 85 cb 48 be 38 10 cc be 3f 17 8e 3e
       -0.12185672 -0.19608887 -0.39856124 0.2775211
000030 bb f8 08 bf a2 3c 1c bd b4 14 90 3d e3 6a 94 bd
       -0.5350453 -0.03814376 0.07035199 -0.072469495
000040 f0 4a 36 3e 3b 1d ec be 06 af 1b be f4 47 73 be
       0.17802024 -0.4611605 -0.15203485 -0.23757917
000050 e7 50 12 3f e7 30 9d 3d bc 92 13 bf 8d e8 94 be
       0.571547 0.07675343 -0.57645774 -0.29083672
000060 c4 e1 ef be 04 fb 07 be 3d 3d 85 be de 7a dd be
       -0.46851933 -0.13279349 -0.26023284 -0.43257803
000070 e6 14 c6 be 4c 00 e3 3e
       -0.3868782 0.44336164

func_approx.network.2.weight f4 [30, 30]
000000 57 96 34 bf 9e 8a 62 3e a9 aa d0 3e 44 40 c9 3d
       -0.705419 0.22123191 0.40755203 0.09826711
000010 57 40 74 be 39 97 ca 3e 25 df 80 3e 15 3e d8 be
       -0.23852669 0.395685 0.25170246 -0.42234865
000020 ba 8d 05 3f c5 f1 8c be 46 2f 03 3f b7 fc a1 3e
       0.5216938 -0.27528206 0.5124401 0.3163812
000030 ad f9 c3 be a1 5d 05 3f c9 26 cd 3e b2 85 60 be
       -0.38276425 0.5209599 0.40068653 -0.21926
000040 69 7d 1a 3f 2c d6 54 3d f9 a3 05 bf 06 94 d4 3e
       0.6034761 0.051962063 -0.5220333 0.41519183
000050 50 cb 4f be 0f 6d 9e be 4e 94 ea 3d ad 93 5e 3f
       -0.20292401 -0.3094258 0.11454068 0.86944085
000060 86 65 5c bd e6 6b 40 3f 2d c3 e0 bd c1 df 9c be
       -0.053807758 0.7516464 -0.10974727 -0.3063946
000070 12 cf 63 be 40 50 81 3e 81 3a 38 bd a5 e4 0e bd
       -0.2224696 0.25256538 -0.04497767 -0.03488602
000080 24 e3 a1 bd 7d e3 d7 bd 8f 3a 49 3e aa c2 15 be
       -0.07904652 -0.10541437 0.19651245 -0.1462504
000090 9b ba a3 bd ac ca e1 3b b7 f8 e5 3d 22 7f 45 bd
       -0.079945765 0.0068906154 0.11229079 -0.048216946
0000a0 de 52 0c bd 01 2b b5 3d b9 9a 6f be a6 e0 20 3e
       -0.034258716 0.08846093 -0.23398866 0.15710697
0000b0 c5 4d f9 3d c8 3b 24 3d ab 83 2a 3d cd 31 f9 3d
       0.121730365 0.040096074 0.041629475 0.12167702
0000c0 07 04 5b bc 86 58 76 bd fc 4f 69 3e 52 ac 20 be
       -0.013367659 -0.060143016 0.22784418 -0.15690735
0000d0 58 7b 1e bd 39 0b 75 3d 71 cd 33 3d 10 25 29 be
       -0.03869185 0.059825156 0.043897096 -0.16518044
0000e0 0b 6e 97 3d 05 1d 43 bd 3b 44 7f be fd 0d 83 3d
       0.07394036 -0.047635097 -0.24928372 0.063991524
0000f0 09 95 81 3c ef 16 12 3e c4 48 68 bd 34 64 12 be
       0.015818136 0.14266561 -0.05671002 -0.14296037
000100 6c 16 7d 3e 29 87 82 bd ce 42 ae ba cf fe 14 3e
       0.24715585 -0.06373436 -0.0013295056 0.14550327
000110 b3 f4 08 3e 5e c0 37 3e ea 65 10 3e 86 fd 25 be
       0.13374595 0.17944476 0.14101377 -0.16209993
000120 6b 0d b3 3d 87 5f d7 3d c3 e9 b0 bd ee 6a 3f 3d
       0.08742794 0.10516267 -0.086383365 0.046732835
000130 cf 91 82 bd 78 30 a2 3d 62 f2 1f bc f5 44 e9 bb
       -0.06375467 0.07919401 -0.009762378 -0.007118816
000140 0f 1e 79 3b 3c 9a 31 3d c8 4b 39 bd 41 e9 6a 3d
       0.00380123 0.04335998 -0.045238286 0.057351355
000150 3f b3 10 3d be 48 02 be 74 27 43 bd e7 ab cf 3d
       0.035327192 -0.12723061 -0.047645047 0.1014021
000160 f9 26 4d 3d f3 b4 ba 3d 64 5f 5d bd e7 96 3e 3d
       0.050085995 0.091165446 -0.05404605 0.04653063
000170 98 10 4e be 7e 82 8c bc 77 4b 40 3e 86 b9 5b 3d
       -0.20123518 -0.017152067 0.18778788 0.053643726
000180 95 e0 83 3d 21 d4 a5 bd 33 75 3e 3d d3 0f 3f 3e
       0.0643932 -0.08097101 0.04649849 0.1865838
000190 1e e7 a8 3d ed 11 30 bc 1f 64 c0 bc 0c ba bd 3c
       0.08247207 -0.010746461 -0.023485241 0.023160003
0001a0 f8 cd 17 3a 64 3a 27 be 9e 32 0b bd a6 60 b4 bd
       0.00057908846 -0.16330868 -0.03398382 -0.08807497
0001b0 6e 65 b8 bd c0 e6 af 3d 41 ec bf bb 19 ae e6 bc
       -0.09003721 0.08588934 -0.005857021 -0.028159188
0001c0 69 f7 86 bc 58 e9 0c be cd c7 c5 bb 82 5e 4d bd
       -0.016475396 -0.13760889 -0.006035781 -0.050138958
0001d0 db 16 dc bd f9 a3 e1 bc bf be 5c bd 51 5d 0a bc
       -0.10746547 -0.027544009 -0.053892847 -0.0084451
0001e0 c2 9d 21 be 87 aa 23 be 75 0a 1e b9 e7 d4 1c be
       -0.15782836 -0.1598302 -0.0001507195 -0.15315591
0001f0 83 79 97 be 0e 70 78 3e 56 d6 a0 3d 83 61 25 be
       -0.29584894 0.24261495 0.07853381 -0.16150479
000200 c5 28 9e bc cb a9 a6 be 58 63 89 3d e4 f6 37 3e
       -0.01930655 -0.32551417 0.067084014 0.17965275
000210 00 20 37 3e f0 f1 01 3d 14 ee e6 3d 5c ad 42 3c
       0.17883301 0.03172487 0.112758785 0.011882152
000220 7e 80 c9 bd 49 31 86 be bf f4 95 be a6 17 bf 3e
       -0.09838961 -0.26209477 -0.2928829 0.3732273
000230 1d 00 14 be 8e 43 77 3e 99 0c b4 be 76 b4 09 3e
       -0.14453168 0.24146864 -0.3516586 0.13447747
000240 b6 b5 5e bb 1b c1 f7 3d ba cc b6 be 67 be 2b 3c
       -0.003398282 0.12097379 -0.3570307 0.010482407
000250 c2 56 1b be 70 2f 20 be 16 8c 56 bc c8 d0 1a be
       -0.15169814 -0.15643096 -0.0130949225 -0.15118706
000260 22 7e 26 3e e6 27 2f be b7 15 23 3e 34 c3 0b be
       0.16259053 -0.17105064 0.15926252 -0.13648683
000270 04 c2 d0 3d ce 49 89 bd e0 a2 da bd 6c 39 04 be
       0.101932555 -0.0670353 -0.10675597 -0.1291253
000280 5d 85 42 bd ca 14 c0 bd 0a fb 08 be ba 27 1b 3c
       -0.047490466 -0.09378965 -0.13377014 0.009469921
000290 39 16 62 3c de 79 8c bd 6d 7d 00 3e 5c 55 7a bd
       0.013799244 -0.06859182 0.12547846 -0.06111656
0002a0 77 c5 0b 3e 4d 1a 81 bd 44 f9 2f be 34 0a 48 3d
       0.13649546 -0.063038446 -0.17184931 0.048837855
0002b0 5c 2e 80 be 91 93 17 3e 8c 9a 1e 3e a4 bc 84 bd
       -0.2503537 0.14802386 0.15488642 -0.06481293
0002c0 32 8b 39 be 16 f7 20 3e 45 49 89 3d 74 0f 8f 3d
       -0.18119505 0.15719256 0.06703428 0.06985369
0002d0 9f 0b 1a bd e0 00 03 3e 9e b9 ee 3b 2c 19 1c 3e
       -0.03760874 0.12793303 0.007285311 0.15243977
0002e0 34 af a8 bc 32 ed b6 3d 6d b4 ee bd da bf 78 bd
       -0.020591356 0.0893196 -0.11655507 -0.06072984
0002f0 8a 43 f9 3d c5 28 0a 3e cc 65 19 3e e0 d5 34 3e
       0.12171085 0.13492115 0.14980239 0.17659712
000300 ba 4a cb bd 49 ff 9e 3d 14 93 b6 3d f7 fc 8d bd
       -0.09926362 0.077635355 0.08914772 -0.06933015
000310 11 04 23 3e 43 6b 54 3b 6c c6 e7 bd 35 18 bf 3d
       0.1591952 0.0032412566 -0.11317143 0.09330789
000320 3a f5 09 bd b1 d3 98 be 50 9a 15 3d e4 8c 98 bd
       -0.033681132 -0.29849008 0.036524117 -0.07448748
000330 8e ad 05 bd 5c 87 75 3d 8e 85 61 be a8 d9 99 3c
       -0.032636218 0.059943542 -0.22023603 0.018780544
000340 09 9c 17 be a0 07 a4 3d 25 8b cd bd 85 80 7b 3e
       -0.14805616 0.08009267 -0.10036305 0.24560745
000350 1b fc c8 be 23 1d 22 bd 8f db f1 bc 4d 6a 0e bd
       -0.3925484 -0.03957857 -0.029523639 -0.034769345
000360 d0 d3 e3 bc d2 2d 3c 3e dd 16 0a 3e 02 44 18 3e
       -0.027810961 0.18376854 0.13485284 0.14869693
000370 6a 86 72 3e 79 d1 dd bc c8 d4 8d be 4d a5 0a be
       0.23684087 -0.027077423 -0.27701402 -0.1353962
000380 8c 05 bd bd f5 4d 58 be 3e 60 8b 3d 94 af ab 3d
       -0.092295736 -0.21123488 0.06805466 0.08383098
000390 5a 54 44 3d 33 48 cc bd bb e2 9b 3d 52 ae 34 be
       0.047932006 -0.099747084 0.07611605 -0.17644623
0003a0 0c 13 24 3e cd c0 77 be 3b 28 2a 3e c9 ab 67 be
       0.16022891 -0.24194641 0.16616909 -0.22624125
0003b0 e3 a7 8a 3e 02 74 34 3e 96 40 fc bd 25 01 78 3e
       0.27081212 0.17622378 -0.12317006 0.24219187
0003c0 08 0b 41 bd 7d 81 bf 3c 97 67 0b 3e 42 88 ad 3d
       -0.04712966 0.023377175 0.13613735 0.08473255
0003d0 00 24 d7 bb 1f a6 77 3d 61 6b 1f 3e 4d 89 db bd
       -0.006565571 0.06046116 0.15568306 -0.107195474
0003e0 46 10 1b 3d 17 13 d9 bd d0 34 93 bc 22 cb 0b 3e
       0.037857316 -0.10599344 -0.017969519 0.13651708
0003f0 a8 e8 cb bd 75 cb 02 3e 78 ae 53 3e 6f 90 09 3d
       -0.09956485 0.12772925 0.20672023 0.03358501

func_approx.network.2.bias f4 [30]
000000 cf 93 1a bd d7 c3 14 be d1 aa 52 be e4 f3 46 3d
       -0.037738618 -0.14527832 -0.20572974 0.048572436
000010 68 b6 c0 3b fa fa 7d 3c 70 21 a5 bd a3 a2 60 bd
       0.0058811195 0.015501732 -0.08063018 -0.054842602
000020 1e ef 18 3e 64 7a 4d 3d e7 60 27 3e b6 12 0c 3e
       0.14934966 0.05016555 0.16345559 0.13679013
000030 a6 05 56 3c d3 b1 0c 3e 69 4a e5 3c 7a 38 f8 bd
       0.01306287 0.1373971 0.027989583 -0.12120147
000040 29 41 0f 3e 87 7d 3c 3b 47 aa ea 3d 13 e2 cf 3d
       0.139897 0.0028761344 0.11458259 0.10150542
000050 24 e7 24 3b b5 25 76 bd de 57 52 3d bc b1 c9 bb
       0.0025162185 -0.060094554 0.051353328 -0.006155221
000060 ae c1 cf 3b b9 6d 3e 3e be 7f f9 3d a8 a6 62 3d
       0.006340227 0.18596543 0.12182568 0.055334717
000070 cd 2b 51 be 7e d7 91 bd
       -0.20426865 -0.0712118

func_approx.network.4.weight f4 [30, 30]
000000 5a 8c 44 be 74 64 b0 3d 2b 55 99 bd 85 b5 0b be
       -0.19194165 0.0861291 -0.074869476 -0.13643463
000010 73 7c a9 3e 3f a1 59 bb 92 91 38 3c e6 4b 4c 3d
       0.3310276 -0.0033207682 0.011265175 0.04987707
000020 c3 e6 ca 3d 98 d3 91 3d 6f dd cb bc 77 4c 15 3e
       0.099072956 0.071204364 -0.024885861 0.1457995
000030 fa 61 23 bd c1 72 ec 3c 69 e7 8c 3e d0 a8 9c bd
       -0.03988836 0.028863313 0.27520302 -0.07649386
000040 e0 3e b1 bd e9 e2 aa 3c 5f 40 3a 3e be 13 74 be
       -0.086545706 0.020860152 0.18188618 -0.23835656
000050 43 2a cb 3d b9 d5 d5 3b ec 59 36 3e e7 19 3b bd
       0.0992017 0.006525722 0.1780774 -0.045679
000060 db d9 ac 3d ed 7b c1 bc 02 ed 44 be 31 ab 2b be
       0.0843999 -0.023618663 -0.19231036 -0.16764523
000070 f3 c9 1e 3e 3d f9 1f 3e f7 73 e2 3d 25 7b 3f 3e
       0.15506725 0.1562242 0.11057275 0.1869932
000080 a5 eb 04 3e d2 19 07 3e 9f 3c a3 ba 5d 1b 0e bd
       0.12980516 0.13193443 -0.001245398 -0.034694064
000090 95 d9 32 3e 83 7e 92 3e 02 f0 f9 bd 48 f1 18 be
       0.17465813 0.28612146 -0.12203981 -0.14935791
0000a0 6a 3d 14 be 2e 12 39 be 1f c0 4a bc 0d 52 c5 3c
       -0.14476553 -0.18073341 -0.012374907 0.024086976
0000b0 79 66 9d bd eb a8 eb bd 53 d8 f0 3e e2 18 33 be
       -0.07685561 -0.11506828 0.47040042 -0.17489961
0000c0 f9 b5 9c be 6a 5f 77 be 32 88 10 be 16 d0 57 be
       -0.30607584 -0.24157491 -0.14114454 -0.21075472
0000d0 56 e7 f6 3d 91 46 e1 3d 48 f1 ca bd 2a 24 a7 3e
       0.120558426 0.109997876 -0.09909302 0.32644778
0000e0 1d a1 b8 be e4 e1 6c 3b ec 63 fa bc 34 99 2b 3e
       -0.3606042 0.0036145383 -0.030565225 0.16757661
0000f0 da 10 b5 bd 10 42 05 be 9d 2d de 3d fb 53 39 be
       -0.08841105 -0.13013482 0.10848544 -0.18098442
000100 55 6c 43 be c2 c8 a5 3d f1 bf bc bd 13 58 8a be
       -0.19084294 0.08094932 -0.092162974 -0.2702032
000110 81 c5 23 be 38 6c 28 3d c7 c4 67 3e 07 61 79 3e
       -0.1599331 0.04111883 0.22633658 0.24353419
000120 22 8c 99 3e 9e 0b 2b 3c 9e fb 2f 3d 1c f4 1e be
       0.29989725 0.0104397815 0.04296457 -0.15522808
000130 3a d1 d6 be 9a b6 95 3d 59 1e 1b 3c 08 47 f8 3d
       -0.41956502 0.07310219 0.009467685 0.12122923
000140 27 fd 89 bd d4 76 77 3d 75 71 16 3e c9 b0 8f 3d
       -0.06737738 0.060416058 0.14691718 0.07016141
000150 52 65 9e bd 06 36 eb be 76 d6 96 3e 9b c9 04 bd
       -0.07734169 -0.45939654 0.29460496 -0.03241883
000160 fb 36 12 3e 2b e3 85 bd da d7 06 3e 27 e1 3e bd
       0.14278786 -0.065374695 0.13168278 -0.04660144
000170 d2 d2 5f be 38 4b 10 3e 70 fd 84 3e a2 e3 e3 3d
       -0.21857765 0.14091194 0.25974607 0.11127402
000180 79 a6 26 be 06 4e ec 3d 20 63 06 3d bf 81 03 3e
       -0.16274442 0.11538319 0.032809377 0.12842463
000190 d2 e5 4e be e2 46 cd bd 12 eb 89 bc 8f c0 6e be
       -0.20204857 -0.100232854 -0.016835723 -0.23315643
0001a0 b0 e8 90 bc e7 a7 c9 bc 60 a9 9d 3d 53 8d 21 3e
       -0.017689079 -0.024616195 0.07698321 0.15776567
0001b0 7e bf c6 bd b9 0a 6a be fb 9e 3e 3e 78 2c 14 3e
       -0.09704493 -0.22855653 0.18615334 0.14470088
0001c0 68 54 0f 3d 92 a5 0f 3d 0f 3c 0c be 21 77 12 3b
       0.034992605 0.03507001 -0.13694786 0.0022348838
0001d0 b8 72 f3 3d 76 bd 21 be 84 3e 5c 3e bd d7 8d bd
       0.11887115 -0.1579493 0.21508223 -0.069259144
0001e0 d1 24 e2 3c b3 6e a4 3e 2a 57 28 bd 8b 55 a1 3d
       0.027605446 0.32115707 -0.04109875 0.07877644
0001f0 4e fa 69 3d 0c d6 be bd a2 21 3f 3e de 17 c3 3e
       0.057123475 -0.0931817 0.18665174 0.38104147
000200 59 4b 3b 3d a7 80 97 be 30 15 9c be 9a ee 9c 3c
       0.045726154 -0.2959034 -0.30484915 0.019156743
000210 91 03 a9 be ae 77 e4 3d 06 da 86 be 72 7c 45 be
       -0.33010533 0.111556396 -0.26338214 -0.19285753
000220 e2 ca f5 3e 2b d7 25 be 78 f3 a5 be 14 18 7e 3d
       0.4800635 -0.16195361 -0.32412314 0.06203468
000230 27 7a 2d be 3f f0 ef bc 13 cf a9 bd f1 e8 e4 bc
       -0.16941129 -0.029289363 -0.082914494 -0.027943106
000240 ee 15 7c 3e e2 70 1a 3f f9 d8 f7 be 70 c5 34 bd
       0.2461774 0.60328496 -0.48407724 -0.044133604
000250 15 c8 d6 3d 71 3c 29 3e 7b d6 61 be cf 41 89 3d
       0.10487381 0.16526963 -0.22054474 0.06702005
000260 24 83 b0 3d 7c da 23 be ed 30 8a 3e 86 da 45 bd
       0.08618763 -0.16001314 0.26990452 -0.048304103
000270 53 bc 4e be ac d1 29 3c 74 80 1e be 67 78 24 bd
       -0.20189027 0.010364931 -0.15478688 -0.040153887
000280 b7 d5 b9 bd 5c 64 94 bd 1f 85 61 3d 6f de 02 bd
       -0.09073966 -0.072457045 0.055058595 -0.03195041
000290 58 da 7d bb 36 cd e1 3d c8 41 4f 3e d6 f2 8f 3a
       -0.003873488 0.11025469 0.20239937 0.0010982405
0002a0 00 2e 77 3e 89 ce 26 bd 6b 3e 05 be b5 81 77 be
       0.24138641 -0.04072431 -0.13012092 -0.24170573
0002b0 59 f9 fd ba 43 99 80 3d ff 91 17 3e ae c4 f8 ba
       -0.001937668 0.06279232 0.14801787 -0.0018979514
0002c0 f9 0b 3f 3d 2d 31 25 3d af 34 e2 3d 7f 73 81 bb
       0.046642277 0.0403301 0.11045205 -0.003950536
0002d0 00 a8 e3 bd 7d db 52 3d ea eb 09 be b1 93 8c 3d
       -0.11116028 0.05147885 -0.134689 0.068641074
0002e0 76 51 56 3d 62 9b 1c 3d 39 0a d0 bd 81 1f 93 bd
       0.05232378 0.038234122 -0.101582 -0.07183743
0002f0 d4 e0 8b 3e d6 cf e1 bd 8d 71 99 bc 1c e0 a9 be
       0.27319968 -0.1102597 -0.018730903 -0.33178794
000300 c8 db e9 bc 57 c1 a4 3d b2 20 e6 bd 5a 67 72 3b
       -0.028547183 0.08044689 -0.11236705 0.0036987872
000310 3b 72 4c 3e ae 7f 33 3d 3c 6d 87 bd 03 a3 f4 3c
       0.1996545 0.043822937 -0.06612632 0.029862886
000320 d3 06 c7 bd 83 a6 84 3d 28 d4 a5 be b6 39 ca bd
       -0.097180985 0.06477072 -0.32388425 -0.09874289
000330 f0 2d 0a be 3d d8 94 bd a8 d5 21 3e 75 ee dd 3c
       -0.13494086 -0.07267807 0.1580416 0.027091244
000340 02 4c 50 3d d1 9f 0c 3e 73 0f 42 3e f5 ab e5 3b
       0.050853737 0.1373284 0.18951206 0.0070090243
000350 73 fc 40 bd 91 83 7b 3e cc 8a 15 bd d6 8d e4 bd
       -0.047115754 0.24561907 -0.03650932 -0.111598656
000360 70 a5 ae 3e f5 b5 da 3a 21 e6 66 3c 03 5f d0 bd
       0.34110594 0.0016686307 0.014092953 -0.10174372
000370 5d 10 2f be 0a 41 51 be a8 9e 01 3c 46 c3 4e 3e
       -0.17096086 -0.20434967 0.007911362 0.20191678
000380 cc ac c5 be cf d1 bf 3d 94 b4 29 3e 81 06 ba be
       -0.38608396 0.0936619 0.16572791 -0.36333087
000390 4c ae 35 3d b4 ee 55 3e bc c8 4e be 77 01 7e 3e
       0.044355676 0.2089184 -0.20193762 0.24805246
0003a0 aa ef 77 be c4 db bb bd 77 d8 e4 bc ee 31 9d 3e
       -0.24212518 -0.09172776 -0.02793525 0.30702156
0003b0 89 d6 bd 3e 6b 45 ba 3d 44 57 05 bc 27 d2 97 bd
       0.3707774 0.09095272 -0.0081384815 -0.0741313
0003c0 73 6f 0a bd b9 63 d8 bd 76 ee ef bd 9d bd 37 3e
       -0.033797693 -0.105658956 -0.11715405 0.17943425
0003d0 11 22 ee 3d 8e 36 27 be 6e a0 5e bd d9 3e a7 3d
       0.116275914 -0.16329405 -0.054352216 0.08166284
0003e0 63 04 61 3e 03 1f 08 3e fe a6 64 3c 38 7a b3 bb
       0.2197433 0.1329308 0.01395583 -0.005477216
0003f0 7c 58 b0 3c 54 10 99 bd 29 a3 c4 3d 70 27 f4 3c
       0.021526568 -0.074738175 0.09601433 0.029803962

func_approx.network.4.bias f4 [30]
000000 c9 9e e1 bd 05 0e 10 be ba c8 ac bd 5b e7 2c bd
       -0.11016614 -0.14067848 -0.08436723 -0.042212825
000010 6b f9 60 3c 39 07 c4 3d dc b3 58 3e 20 e6 1c bd
       0.013731341 0.0957169 0.21162361 -0.0383054
000020 b6 e1 91 3d 76 d5 67 bd f4 d8 5b be 0a c4 62 bd
       0.07123129 -0.056600057 -0.2146948 -0.05536274
000030 9b ef 1a 3e 56 81 18 3d da 2b 9b 3c 22 33 19 be
       0.15130465 0.03723272 0.018941808 -0.14960912
000040 73 f2 da bd 94 30 06 3e 04 09 31 3e 5f 09 36 3d
       -0.10690775 0.13104469 0.17288595 0.04444253
000050 5e 95 5e bd a8 cf e9 3d 86 cc 45 3b 94 9a 35 3d
       -0.054341666 0.114165604 0.003018172 0.04433687
000060 0b 5b 19 bc 83 7c fa 3d 2d 0d 8c 3d 85 62 1f be
       -0.009360085 0.1223078 0.068384506 -0.15564926
000070 f7 32 a2 3d c9 73 b0 3c
       0.07919877 0.021539586

func_approx.network.6.weight f4 [30, 30]
000000 22 cf 80 3e d1 00 9e bd 69 c9 fe 3d b4 e0 01 3d
       0.2515803 -0.077149995 0.1244076 0.031708434
000010 96 99 0a 3e 3d 83 00 3e e1 e6 01 be 53 b4 2e be
       0.13535151 0.12550063 -0.1268573 -0.17060976
000020 a8 ab 1f be d6 4b 0e 3e fa 08 68 3e 42 24 a1 3d
       -0.15592825 0.13896117 0.22659674 0.07868244
000030 84 ca ac 3d be f8 05 3e 78 63 c7 be 58 30 99 3c
       0.08437064 0.13083169 -0.38943076 0.01869981
000040 bc 00 3a 3e 7d 21 98 be c1 ae d4 bd cb 33 ec 3c
       0.18164343 -0.2971305 -0.10384894 0.02883329
000050 bc 3b 9b 3d b1 a0 90 bd eb 31 96 3d e2 36 19 3e
       0.07579753 -0.070618995 0.0733374 0.14962342
000060 9a 6f 88 bc 62 c2 44 be 72 29 21 3e 4b af a7 bb
       -0.016654778 -0.19214776 0.15738466 -0.005117332
000070 e8 21 57 3c 58 23 91 3e 67 aa 9e bd fa d6 43 3e
       0.0131306425 0.28347278 -0.077473454 0.19124976
000080 cf ab 5d be 05 51 32 3d f0 b2 69 3e 2f 35 9d bd
       -0.21647571 0.043534297 0.22822165 -0.076761596
000090 88 42 6a 3e 34 bd 78 3d ff 8f 05 be 71 db fc 3c
       0.22876942 0.060727313 -0.13043211 0.030866357
0000a0 3c 68 9a bd da bc a7 bd 46 42 45 3d a8 22 03 3e
       -0.075394124 -0.081903175 0.048158906 0.12806189
0000b0 21 a7 ca 3d 6f 66 1f 3e 03 aa 30 3e 4a c3 8a 3d
       0.098951586 0.15566419 0.17252354 0.0677553
0000c0 d6 57 72 bd f6 4d 0a bd d0 de 4a be 28 05 93 bd
       -0.059165798 -0.033765756 -0.19811559 -0.07178718
0000d0 20 f4 ea 3d c9 91 0d bc b2 74 e2 3d 1e 4a 9c bd
       0.114723444 -0.008640715 0.11057414 -0.07631324
0000e0 a4 70 d4 3d 62 b4 32 3e c0 24 18 be cf 01 68 3d
       0.10373047 0.17451623 -0.14857769 0.05664235
0000f0 35 dc 0a be 9f 4b 5f 3d b6 aa 7f 3b 4f 50 f7 bd
       -0.13560565 0.054515477 0.0039011664 -0.120758645
000100 e9 3c 8d 3d c7 19 43 be b4 5d 21 3d 9d 2c c6 3b
       0.06896383 -0.19052802 0.039396003 0.006047799
000110 2c 17 d9 bd 1d b1 f4 bd 95 6c 29 be b7 e5 80 bd
       -0.10600123 -0.11947844 -0.16545327 -0.06293815
000120 e1 67 91 3d 91 1b 51 3a ee 5c 16 3d 11 49 fa bd
       0.070998915 0.0007976825 0.03670972 -0.122209676
000130 94 03 0d bd b4 aa 30 3e fd 6d e9 3c 90 7e 86 bd
       -0.03442724 0.17252618 0.02849483 -0.06567109
000140 f8 7f 80 b7 c6 35 a3 bd 85 3c fa 3d 7d a0 c6 bd
       -1.531838e-05 -0.07969241 0.122185744 -0.096985795
000150 08 cd 60 3b 84 80 e3 3c bf d7 06 3e 1b 71 7b bd
       0.0034301896 0.027771242 0.13168238 -0.061387163
000160 d7 2e 91 bd 48 fa 13 bd 30 3f 38 bb 01 bb 0d bd
       -0.07089012 -0.03612736 -0.0028113835 -0.03460217
000170 c0 41 53 be 48 40 3d 3e f1 43 ac 3e bd 2e 0f 3e
       -0.2063055 0.18481553 0.33645585 0.13982673
000180 09 94 77 3e fc 12 47 3e f7 db 2b 3e d2 fc d9 3c
       0.24177565 0.19440836 0.16783129 0.026609812
000190 91 73 fa bd 53 4a dc bb bd 38 f5 3d 77 a3 48 3d
       -0.12229074 -0.0067227273 0.119737126 0.048984017
0001a0 a4 a4 31 3d f2 93 be 3e 80 b8 37 3e 15 34 a0 be
       0.043369904 0.37222248 0.17941475 -0.31289735
0001b0 9a 4c 9d bc c2 84 02 3e 4a 04 44 bb 97 2c 1f 3e
       -0.019201566 0.12745956 -0.0029909783 0.15544353
0001c0 01 1a d6 3d c0 e8 18 be 61 7f 55 3e c3 fd c6 bc
       0.104541786 -0.14932537 0.20849372 -0.024290925
0001d0 18 1a 49 bc 9b 39 27 3e 98 7a 02 be 8d 73 15 3e
       -0.012274288 0.16330568 -0.12742078 0.1459486
0001e0 e8 d4 14 3e 10 d3 2b bd aa 7e 5a 3e 17 3c 50 3d
       0.14534342 -0.04194933 0.21337381 0.050838556
0001f0 63 7a 52 be 9d 01 0f be 7f 9a e3 3d 8b cb 64 bd
       -0.205545 -0.13965459 0.11113452 -0.055858176
000200 00 56 2c 3d 5e 0d ed bc fd 18 4c 3d a9 ea 62 bd
       0.042074203 -0.028937038 0.04982852 -0.05539957
000210 77 67 fe bb 4c 60 0c be 8f c4 91 3e 65 2a 97 3d
       -0.007763799 -0.1370861 0.28470275 0.07381133
000220 4c 35 4d 3d 36 c0 68 3d 29 a6 21 3e b3 d4 44 3e
       0.050099656 0.05682393 0.15786041 0.19221763
000230 a6 39 9e bd 18 9c e9 bd c6 62 14 be 0a 51 ba bd
       -0.07725839 -0.11406726 -0.14490804 -0.09097488
000240 24 90 64 be dc 7e a5 bd 0d b4 33 bd f8 2b 0d be
       -0.2232061 -0.08080837 -0.04387288 -0.13786304
000250 f3 8d 19 3e f3 ee 18 3e 7a 77 2d 3e e5 8b 1b 3a
       0.14995556 0.14934902 0.16940108 0.00059336267
000260 75 35 04 3e a4 1c 17 be 0c 98 fd bd 62 0d 0c 3e
       0.12911017 -0.1475702 -0.12382516 0.1367698
000270 9e de 3b bc f5 ee 41 3d 7e 35 35 3e 18 72 d4 3c
       -0.01146665 0.047347028 0.17696187 0.02593331
000280 83 97 00 be e9 22 cf 3d 61 67 29 be 3b d8 40 bd
       -0.12557797 0.101140805 -0.16543342 -0.047081213
000290 b2 92 1a 3e a5 17 9d bd 26 40 4b be 02 86 d5 bb
       0.15095022 -0.076705255 -0.1984869 -0.006516219
0002a0 cc 50 47 3e 19 d3 87 3c 47 ea 3c 3d 86 bf d4 3d
       0.19464415 0.016580151 0.04612186 0.10388093
0002b0 25 d7 b2 3d 9f 8c bc 3d 11 0b 05 bd 69 97 d5 bc
       0.08732442 0.09206509 -0.032481257 -0.026073175
0002c0 e8 84 1c bd 48 1a f9 bd 2b 6c 2b 3e 07 e9 1b 3e
       -0.038212687 -0.12163216 0.16740482 0.15225612
0002d0 a3 de 84 3e be a2 54 be 34 2a 2b 3e 77 2d e8 bd
       0.25951108 -0.20765206 0.16715318 -0.11336797
0002e0 b4 40 aa be 83 5a 0e 3e 26 1a 3a ba a7 05 8c be
       -0.3325249 0.13901715 -0.00070992333 -0.27348062
0002f0 3e 02 0c 3d fc 4e 3e 3e e0 80 2e bd 17 61 de bb
       0.034181826 0.18584818 -0.042603374 -0.0067864764
000300 09 cb 94 3d 2d d0 43 3a b5 94 f9 3d e3 55 0e be
       0.072652884 0.000746968 0.12186567 -0.1389995
000310 1a 5d c0 bd b2 08 76 3e 4c a5 05 be b8 9b ab 3d
       -0.09392758 0.24026754 -0.13051337 0.0837931
000320 95 f3 3f be 46 82 13 bd 10 45 c1 3d 14 37 c6 bd
       -0.18745263 -0.03601291 0.09437001 -0.09678474
000330 51 1f 35 be 4a 69 36 bd b0 0f a3 bd a0 50 93 bd
       -0.17687728 -0.044534005 -0.079619765 -0.071931124
000340 c1 eb 8b bd 54 a5 af bd cd 99 90 ba e4 c5 de bb
       -0.06832076 -0.08576456 -0.0011032164 -0.0067984927
000350 af f4 df 3c 94 f3 35 3d 54 d7 e5 3d d8 ae 54 3d
       0.027338354 0.044421747 0.11222711 0.051924556
000360 c6 46 89 3d 09 01 9c 3d 31 a8 25 3d 33 cd aa 3d
       0.06702952 0.07617385 0.040443603 0.0833992
000370 4e a4 e5 3d db 82 29 3e c7 e1 5c bb 8d d3 30 3e
       0.11212979 0.16553824 -0.003370391 0.172682
000380 01 fb 3e be 50 9e ab 3d ed 8e 66 3d f4 de 55 bd
       -0.18650438 0.08379805 0.05628865 -0.052214578
000390 4f cd 2d 3d e6 35 4d bc e3 36 9c bd d7 3e 2a be
       0.042432126 -0.012525057 -0.07627656 -0.16625534
0003a0 fc e4 10 bc 27 e9 45 3e 30 03 27 bd be d7 c4 3c
       -0.008843657 0.19327222 -0.040774524 0.024028655
0003b0 4a a5 d6 bc 73 da 48 3d a8 ab 8b bb 81 6e 34 3e
       -0.026201863 0.049036454 -0.0042624064 0.17620279
0003c0 9e a8 4c 3e 55 e1 f0 3d 2a 13 0a 3d 0a e8 72 3e
       0.19986197 0.11761729 0.033709683 0.23721328
0003d0 a0 b4 4f bd 1b df 9b 3d db 28 01 be 3a 33 4c be
       -0.050709367 0.07610913 -0.12613241 -0.19941416
0003e0 4d 5e 21 be 6f f1 cc 3b c9 37 f9 3d 8f 16 15 3e
       -0.15758629 0.006254367 0.12168843 0.14559387
0003f0 32 f5 b8 bd 22 c3 f5 bd 35 d4 32 be b1 28 42 bd
       -0.09031142 -0.12000109 -0.17463763 -0.047402088

func_approx.network.6.bias f4 [30]
000000 aa d6 b4 bc b9 49 4d 3d 60 cc 51 bd 99 94 35 3c
       -0.022075016 0.050119136 -0.051220298 0.011082792
000010 d6 12 bd bd 39 38 7f 3d 07 71 5d 3d ec af 3d bd
       -0.09232108 0.062309477 0.05406287 -0.04631035
000020 d2 c1 5b 3d 43 8e f6 3d 10 98 ef 3d 7b d4 03 be
       0.05365164 0.12038853 0.116989255 -0.12874024
000030 2b 07 1c bd 2b 6b 9c 3d 08 d5 c9 3d 7c 67 ef bd
       -0.038092773 0.07637628 0.098550856 -0.1168966
000040 ab 5a 31 bd 50 e2 b1 3c 63 be 81 bd a8 06 ec 3d
       -0.04329936 0.02171436 -0.063351415 0.11524707
000050 bf 67 35 3d 6c 6b 10 be 86 05 1b be 4a 6b 0f be
       0.044288393 -0.14103478 -0.15138826 -0.14005771
000060 fb da 30 3d b2 1c 35 3c 72 e6 8a 3d 96 89 4e bd
       0.043177586 0.011054205 0.06782235 -0.05042418
000070 d0 7c 36 3e a4 45 ea bd
       0.1782105 -0.11439064

func_approx.network.8.weight f4 [1, 30]
000000 d4 c9 3e 3e c1 fc 67 3e b0 f8 c4 bc 77 fe ee 3d
       0.18631679 0.22655012 -0.024044365 0.11669629
000010 97 5f 05 be 2b 6d e0 bd 75 c6 66 be 87 c3 11 3e
       -0.13024746 -0.10958322 -0.22536643 0.14234744
000020 33 70 19 3e 58 05 dd bd b3 77 3d 3d 8e 46 3a be
       0.14984207 -0.10792035 0.046256732 -0.18190977
000030 05 9a 04 3e e7 7e d0 3c 53 2d 1c 3d 4e 51 55 be
       0.12949379 0.025451137 0.038129162 -0.20831797
000040 9f 47 0a 3e 7e 83 17 be fd 93 58 3e 78 31 6d be
       0.13503884 -0.14796254 0.21150203 -0.23163402
000050 8c 8a 8e 3d f2 7b 24 be fd 8c 1b 3e 97 d9 93 3e
       0.069600195 -0.16062906 0.15190502 0.28876945
000060 2b 40 4c 3e 6c 39 22 be a9 ea ec bd ff ee 01 3e
       0.19946353 -0.15842217 -0.115681954 0.12688826
000070 20 18 41 be 1b 7c 23 be
       -0.18856859 -0.15965311
