paper/Burgers/runs/random_grid18model.pt (torch, 15561 bytes, 9 tensors)

func_approx.network.0.weight f4 [30, 2]
0.081329316 0.64203835 -0.82072204 -0.8499844 -0.36585692 0.23163286 0.0073571946 0.82602984
-0.06501827 0.35283634 -0.8847351 -0.15364425 -1.1299878 -0.7757267 -1.7335224 0.20923997
0.39264554 0.6284562 -0.16810557 -0.45040345 0.0396115 0.75096714 -0.3651758 0.6611386
-0.13021939 0.0528376 0.9204357 -0.8343477 -0.70458186 -0.32004791 -0.33060536 0.86363184
-0.5366763 -0.62293595 -0.5059974 -0.93021554 -0.88404983 0.8096243 0.5159895 0.42032444
0.03746721 -0.5505855 0.3290362 -0.82965064 -0.63699746 -0.6451645 0.4053374 0.5232675
-0.7897849 0.055797417 0.5111564 0.93822896 -0.02328328 0.21113658 1.0000957 -0.60702276
0.4759377 -0.6620708 -0.7027616 -0.5086088
00000000: fc8f a63d a05c 243f d71a 52bf 9498 59bf
00000010: 9951 bbbe 2a31 6d3e 9f14 f13b b176 533f
00000020: 4c28 85bd f7a6 b43e 007e 62bf eb54 1dbe
00000030: 71a3 90bf 0696 46bf 10e4 ddbf 0143 563e
00000040: d608 c93e 81e2 203f de23 2cbe 489b e6be
00000050: ab3f 223d 623f 403f 53f8 babe 6140 293f
00000060: 3b58 05be 3d6c 583d ada1 6b3f d097 55bf
00000070: 7a5f 34bf 52dd a3be 1b45 a9be fa16 5d3f
00000080: 9e63 09bf bb78 1fbf 0c89 01bf 9b22 6ebf
00000090: 1751 62bf 8a43 4f3f e317 043f c434 d73e
000000a0: 3877 193d 2cf3 0cbf 6f77 a83e fc63 54bf
000000b0: 4412 23bf 8029 25bf 6288 cf3e dcf4 053f
000000c0: 582f 4abf d58b 643d 25db 023f c62f 703f
000000d0: 94bc bebc 3034 583e 2303 803f d865 1bbf
000000e0: 1bae f33e 797d 29bf 2fe8 33bf 3034 02bf

func_approx.network.0.bias f4 [30]
0.31534007 0.030592421 -0.3759767 0.2848571 0.4016858 -0.048551083 -0.015419178 -0.034689873
0.3677184 0.59914774 -0.52967507 -0.29799512 0.26998758 0.47548258 0.41336286 0.57674724
0.024470337 -0.55221754 -0.08703457 -0.3323517 -0.5997065 0.63067806 0.25673848 -0.6429578
0.1101059 0.2011418 -0.18007767 -0.018250288 0.17110816 -0.28253937
00000000: 4174 a13e f59c fa3c 0580 c0be cad8 913e
00000010: c3a9 cd3e 80dd 46bd b8a0 7cbc f816 0ebd
00000020: 9645 bc3e bf61 193f c998 07bf d192 98be
00000030: d03b 8a3e 7472 f33e 4ca4 d33e b5a5 133f
00000040: 0476 c83c 215e 0dbf 2e3f b2bd 012a aabe
00000050: 5d86 19bf 1e74 213f 3a73 833e e298 24bf
00000060: 347f e13d 1ef8 4d3e 4866 38be a181 95bc
00000070: fa36 2f3e 00a9 90be

func_approx.network.2.weight f4 [30, 30]
0.12141473 0.0075642695 0.14584337 0.11731913 -0.12303429 -0.15393238 0.024317738 0.31253165
-0.096885346 -0.14699553 0.2669752 0.2353719 -0.023202408 -0.19288397 -0.14220141 0.015536637
-0.20375825 -0.16902488 0.087982975 0.07893018 -0.118187524 -0.018380828 -0.18149444 0.2174195
0.17773703 -0.091607 -0.010675242 -0.07005896 -0.08398287 -0.005346802 -0.051883083 0.10128254
-0.15415369 -0.0441268 -0.27583417 -0.060732182 0.009494521 -0.6526522 -0.14707643 -0.07361897
-0.19981869 -0.17109267 -0.2000248 0.2227669 0.13738953 -0.12668183 0.10396727 0.053100064
-0.19656375 0.009550598 0.26145035 0.30222178 0.28186014 -0.1159555 -0.30200633 -0.21100585
0.07149584 0.19847956 0.11479989 -0.076273195 -0.16722874 -0.16918255 -0.04562762 0.06375206
0.12162313 -0.17982522 0.090115786 -0.078844406 -0.023045082 -0.05050793 -0.03467956 -0.045716006
-0.14563294 -0.19713417 -0.012513447 -0.03964892 -0.09854425 0.08181914 -0.20415185 -0.02294338
0.13534161 -0.10195818 0.18326832 0.048595466 -0.15134487 0.08396312 -0.032784905 -0.07028496
0.15086626 -0.17551969 0.1327554 -0.2670001 0.10466848 0.15212192 0.1765981 -0.07528267
-0.24886331 -0.32228372 -0.030243076 0.10232883 0.24735858 0.22697803 -0.06429072 -0.071357794
-0.14917994 -0.03970443 -0.29211298 -0.0418405 -0.01674399 0.09928158 -0.082764216 0.032475594
-0.2865432 -0.08794419 -0.24588288 0.31066227 0.0068265502 0.078492194 -0.037057 -0.10331505
0.056904815 -0.17728804 0.047320403 0.06614926 -0.009622777 -0.09471201 -0.24888301 -0.6318485
0.20120235 -0.21703932 0.007632759 0.1946882 0.013628287 0.029503083 -0.2706968 0.17354101
-0.25177997 -0.1624229 -0.08327251 0.08556716 0.004874018 0.15172781 -0.09388865 0.24499135
-0.25698817 0.027683826 0.13877596 -0.04915187 -0.08519417 0.012634921 0.023697881 0.10544285
-0.22258297 -0.03813887 0.057109885 -0.25486407 0.059776593 -1.0158807 0.017547695 0.05105476
-0.25689963 -0.21083339 0.1056474 0.231301 -0.14627115 -0.083488 -0.18654689 0.04079017
-0.3672886 -0.1521342 -0.09649017 0.3424872 0.121126294 0.061325226 -0.431307 -0.067295924
-0.09723754 0.29003558 0.37713823 0.014749725 -0.14283775 -0.0076792045 -0.21316943 -0.007956301
-0.16019635 -0.13859153 0.20637903 -0.49091282 -0.056491397 0.10832353 -0.1254359 -0.281546
-0.20698558 0.33840492 0.027524631 0.1382592 0.01081056 0.062451106 -0.21005437 -0.07684566
-0.07211257 0.22603588 0.13933899 -0.07475008 -0.18422389 -0.17905003 0.07425964 0.0045079566
0.23563875 -0.02640157 -0.044368874 -0.023550022 -0.037352312 0.09042312 0.08638003 -0.16884436
-0.0005087855 -0.15026453 0.097506896 -0.097307585 -0.0008494206 0.16159043 0.10834678 -0.25866967
0.08581895 0.1492932 -0.15713768 -0.019246662 0.22128288 0.063068 -0.0059745423 -0.17982173
-0.2542924 0.07568976 0.21807203 0.20486696 0.19505483 -0.0477636 -0.108642936 -0.12127708
-0.2218254 -0.049516413 0.15000257 0.054546364 -0.17070273 0.0804539 0.21379322 -0.1569233
0.10305894 0.19994962 -0.1534912 -0.17582433 0.13255729 0.19138148 -0.07973018 0.13049896
00000000: 49a8 f83d b1dd f73b f757 153e 0345 f03d
00000010: 67f9 fbbd 73a0 1dbe fe35 c73c 2604 a03e
00000020: d36b c6bd ff85 16be f9b0 883e 5505 713e
00000030: fa12 bebc 6083 45be 3f9d 11be 618d 7e3c
00000040: 01a6 50be dc14 2dbe 6b30 b43d 25a6 a13d
00000050: 4d0c f2bd 6493 96bc aed9 39be 38a3 5e3e
00000060: b200 363e 739c bbbd 36e7 2ebc 127b 8fbd
00000070: 36ff abbd 3a34 afbb 5b83 54bd 386d cf3d
00000080: 77da 1dbe 4ebe 34bd 233a 8dbe 4fc2 78bd
00000090: e88e 1b3c 3714 27bf 349b 16be 8bc5 96bd
000000a0: 459d 4cbe eb32 2fbe 4dd3 4cbe 021d 643e
000000b0: d7af 0c3e e2b8 01be cbec d43d 747f 593d
000000c0: 0248 49be 1d7a 1c3c d2dc 853e d0bc 9a3e
000000d0: f94f 903e 147a edbd 93a0 9abe eb11 58be
000000e0: 696c 923d 3a3e 4b3e 341c eb3d 1f35 9cbd
000000f0: 033e 2bbe 313e 2dbe 07e4 3abd 7190 823d
00000100: 8c15 f93d 1a24 38be a08e b83d 2d79 a1bd
00000110: 0ac9 bcbc 67e1 4ebd 280c 0ebd b540 3bbd
00000120: cd20 15be 8add 49be 3305 4dbc e866 22bd
00000130: 91d1 c9bd cb90 a73d 2f0d 51be c1f3 bbbc
00000140: fe96 0a3e 73cf d0bd b1aa 3b3e 0a0c 473d
00000150: 26fa 1abe dbf4 ab3d 7749 06bd 90f1 8fbd
00000160: af7c 1a3e 6fbb 33be 08f1 073e 3db4 88be
00000170: 6e5c d63d d9c5 1b3e 22d6 343e cd2d 9abd
00000180: 06d6 7ebe 5f02 a5be 54c0 f7bc c791 d13d
00000190: 914b 7d3e ee6c 683e daaa 83bd 0924 92bd
000001a0: a0c2 18be 1da1 22bd d58f 95be f260 2bbd
000001b0: b12a 89bc 2454 cb3d 4980 a9bd 2105 053d
000001c0: cab5 92be 151c b4bd b9c8 7bbe 200f 9f3e
000001d0: 41b1 df3b 84c0 a03d 15c9 17bd d796 d3bd
000001e0: 0615 693d ff8a 35be 0ad3 413d 4379 873d
000001f0: daa8 1dbc 5ff8 c1bd 30db 7ebe d3c0 21bf
00000200: fd07 4e3e 8e3f 5ebe 391c fa3b 585c 473e
00000210: 2e49 5f3c 73b0 f13c c598 8abe bcb4 313e
00000220: 4ee9 80be 3052 26be c78a aabd d63d af3d
00000230: 3ab6 9f3b 895e 1b3e b148 c0bd 03df 7a3e
00000240: f493 83be 31c9 e23c 491b 0e3e 7953 49bd
00000250: 487a aebd b302 4f3c 0f22 c23c 6cf2 d73d
00000260: caec 63be 8137 1cbd 0eec 693d 8b7d 82be
00000270: 4dd8 743d 6108 82bf 2fc0 8f3c cc1e 513d
00000280: 5988 83be b5e4 57be aa5d d83d 2bda 6c3e
00000290: 1bc8 15be c2fb aabd 2606 3fbe 9813 273d
000002a0: 400d bcbe 11c9 1bbe a39c c5bd 7b5a af3e
000002b0: 1011 f83d 2930 7b3d 45d4 dcbe 72d2 89bd
000002c0: 7a24 c7bd 8b7f 943e 4318 c13e d5a8 713c
000002d0: 0f44 12be d6a1 fbbb 1649 5abe 255b 02bc
000002e0: 830a 24be f0ea 0dbe 0655 533e ed58 fbbe
000002f0: 8663 67bd bad8 dd3d 4572 00be cc26 90be
00000300: 07f4 53be 6943 ad3e 567b e13c d293 0d3e
00000310: c61e 313c bbcc 7f3d 7e18 57be 4261 9dbd
00000320: c1af 93bd f375 673e e1ae 0e3e 9216 99bd
00000330: 30a5 3cbe e458 37be 7015 983d 7bb7 933b
00000340: 494b 713e 1b48 d8bc 23bc 35bd faeb c0bc
00000350: bdfe 18bd c22f b93d 03e8 b03d 89e5 2cbe
00000360: 0460 05ba f2de 19be b2b1 c73d 3349 c7bd
00000370: a7ab 5eba f677 253e ebe4 dd3d 5a70 84be
00000380: d8c1 af3d 51e0 183e b3e8 20be 2dab 9dbc
00000390: fb97 623e cc29 813d 18c6 c3bb 3023 38be
000003a0: 9d32 82be 3c03 9b3d 464e 5f3e a5c8 513e
000003b0: 74bc 473e c4a3 43bd 3080 debd 1e60 f8bd
000003c0: 3326 63be b9d1 4abd 469a 193e 026c 5f3d
000003d0: b2cc 2ebe 04c5 a43d 9cec 5a3e 80b0 20be
000003e0: 9110 d33d 98bf 4c3e cc2c 1dbe 4b0b 34be
000003f0: 19bd 073e 82f9 433e 9449 a3bd 85a1 053e

func_approx.network.2.bias f4 [30]
0.055851024 0.11298201 0.03830645 -0.016873382 0.10205447 0.04167113 0.016034916 -0.03502763
0.017280634 0.005748503 0.00010654394 -0.069873616 -0.005508297 -0.14773631 -0.02085413 0.07526765
-0.018886436 -0.19824596 -0.015525533 0.00909037 0.22742932 0.030029135 0.073507614 -0.12347887
0.04489267 0.101334505 0.12011695 -0.08225235 -0.10954472 0.056557868
00000000: 0bc4 643d 1d63 e73d 39e7 1c3d 0c3a 8abc
00000010: ef01 d13d 59af 2a3d a85b 833c 2279 0fbd
00000020: 1e90 8d3c f05d bc3b 5870 df38 e619 8fbd
00000030: f27e b4bb 3048 17be 48d6 aabc ed25 9a3d
00000040: bab7 9abc fd00 4bbe ce5e 7ebc c6ef 143c
00000050: 3be3 683e a9ff f53c 298b 963d 7de2 fcbd
00000060: 60e1 373d 7788 cf3d e0ff f53d ec73 a8bd
00000070: fb58 e0bd 39a9 673d

func_approx.network.4.weight f4 [30, 30]
0.17515534 -0.24886006 -0.10562038 0.084962435 -0.021694394 -0.32295376 -0.24904783 0.099167116
-0.20219429 0.21725321 0.12631467 0.00596924 -0.066917665 0.048378624 -0.17820333 0.08568436
-0.23544368 -0.06915363 -0.28888354 0.1647647 -0.4239875 0.20551834 -0.032918252 -0.14601527
0.27635536 0.12179145 -0.006717351 0.36134905 -0.22291349 0.15521231 -0.052929614 -0.06811015
0.123298444 0.17652576 -0.13812436 -0.03416555 0.19710071 0.13377947 0.16382861 -0.092045225
-0.15549324 0.23118202 0.055112462 0.13424009 -0.088308714 -0.07258606 -0.036066867 -0.09891988
0.024696926 0.11739582 0.035305336 0.04000558 0.00649356 -0.09494353 0.11996956 -0.19708082
-0.11986257 -0.03894451 0.24814133 -0.07151431 0.042192705 -0.06652333 0.13766345 -0.0018627495
0.086202964 0.24806751 0.100457326 -0.08858153 0.0058636046 -0.12071864 -0.0029859848 -0.0010563532
-0.039244227 -0.016363954 0.026262728 -0.06482239 0.024600362 -0.5427304 0.088830136 0.021032589
0.11282192 -0.110572055 0.20594333 0.03420366 -0.11427616 0.1299366 -0.13508907 -0.24126561
-0.046130884 0.085797146 -0.047294144 -0.31018573 -0.23158169 0.0010970867 -0.114017546 -0.32721496
-0.008399892 -0.019617788 -0.18081835 -0.060220577 -0.18116093 -0.06710268 -0.14370887 0.22257529
-0.3303936 0.0016157383 -0.3099221 0.08433384 -0.115815535 -0.030541629 -0.63452595 0.28123683
-0.19562489 0.22899024 0.22766449 0.002097094 -0.01976947 0.18568733 0.31826887 -0.3626796
0.0005174586 0.1002361 0.02486564 -0.15907143 0.011025712 -0.14938113 0.09024625 -0.296011
0.19040528 -0.16175205 0.17763153 -0.22088933 -0.09807478 -0.15642013 0.19149216 -0.16938658
-0.032098703 0.34097677 0.019666499 0.09530191 -0.22541285 -0.083537 0.0006706156 0.13609163
0.0020064183 -0.10019449 0.083371826 -0.025870979 -0.122134075 -0.08861067 -0.112364545 0.25557184
-0.14111279 -0.24118361 -0.10482488 0.15573616 0.19344378 -0.05970915 0.11047176 -0.18688647
0.017925411 -0.09643112 0.22669592 -0.28847247 -0.02588148 -0.198802 0.035698436 0.29632407
0.28181073 -0.1455736 0.16744436 0.060289588 0.107911706 0.14150181 -0.179535 -0.13077709
0.24333127 -0.23694418 0.1098505 -0.051033635 0.029058114 0.20266832 0.11120813 -0.21454217
-0.25385982 -0.09044853 -0.21200994 0.13644038 -0.07952104 -0.086949445 -0.039645124 -0.2974819
0.07290441 -0.14409487 -0.10212423 -0.14045417 0.18399979 0.22972363 -0.08969114 -0.06706122
0.17320421 -0.041553974 0.0902915 -0.04807781 -0.09355034 0.17419198 -0.22301893 0.04130034
0.066948816 -0.050545387 0.04937532 0.3764671 0.006294573 -0.0598922 0.061970323 0.13348609
0.2161904 -0.025989551 0.17903759 -0.20220287 -0.10083839 0.090619884 0.113376215 -0.30494335
0.043086868 -0.22878979 -0.026699865 -0.16659755 0.30656707 -0.13263583 0.48824286 0.08941699
0.09156344 -0.21568686 -0.028266514 0.036929086 0.2504401 -0.4293426 0.08126722 0.18396258
-0.100784004 -0.022354096 0.35445398 0.0075229746 0.1185122 0.048461307 -0.0068720663 0.17215957
0.041311853 0.2143317 -0.026331529 0.26270327 -0.21891536 -0.14501265 0.0044625225 -0.067767605
00000000: ec5b 333e 2cd5 7ebe 7f4f d8bd c900 ae3d
00000010: 71b8 b1bc 325a a5be 6506 7fbe 2118 cb3d
00000020: 050c 4fbe a077 5e3e a258 013e 9d99 c33b
00000030: 210c 89bd aa28 463d ef7a 36be 487b af3d
00000040: 2618 71be 6ba0 8dbd 8be8 93be 14b8 283e
00000050: e414 d9be 6673 523e 4ad5 06bd 0785 15be
00000060: 737e 8d3e cc6d f93d 391d dcbb be02 b93e
00000070: 6f43 64be faef 1e3e b9cc 58bd 567d 8bbd
00000080: e583 fc3d 2bc3 343e 7970 0dbe 2df1 0bbd
00000090: c5d4 493e 7cfd 083e b0c2 273e 3582 bcbd
000000a0: 9f39 1fbe fbba 6c3e 9bbd 613d 3c76 093e
000000b0: 33db b4bd 00a8 94bd daba 13bd 8296 cabd
000000c0: 3551 ca3c 386d f03d 549c 103d e4dc 233d
000000d0: eec7 d43b c171 c2bd 9ab2 f53d 8ecf 49be
000000e0: 827a f5bd 4784 1fbd c318 7e3e 1876 92bd
000000f0: 42d2 2c3d 623d 88bd a6f7 0c3e 8027 f4ba
00000100: 2e8b b03d 6905 7e3e 92bc cd3d 3c6a b5bd
00000110: 7b23 c03b 563b f7bd 83b0 43bb 5575 8aba
00000120: 8ebe 20bd b30d 86bc ef24 d73c 9ac1 84bd
00000130: b386 c93c 61f0 0abf 93ec b53d 894c ac3c
00000140: 2e0f e73d 9a73 e2bd cfe2 523e 2319 0c3d
00000150: 9f09 eabd 1a0e 053e ca54 0abe 550e 77be
00000160: bdf3 3cbd 6ab6 af3d 81b7 41bd aad0 9ebe
00000170: c023 6dbe 1fcc 8f3a 0882 e9bd b888 a7be
00000180: b39f 09bc 7cb5 a0bc 7228 39be daa9 76bd
00000190: 4082 39be 216d 89bd 6b28 13be c7ea 633e
000001a0: 5a29 a9be 2ec7 d33a 1cae 9ebe 38b7 ac3d
000001b0: b230 edbd 7032 fabc 4b70 22bf 46fe 8f3e
000001c0: e451 48be 6b7c 6a3e e120 693e 666f 093b
000001d0: 95f3 a1bc d224 3e3e 23f4 a23e 24b1 b9be
000001e0: 0fa6 073a 9648 cd3d 07b3 cb3c 9fe3 22be
000001f0: 30a5 343c 5ef7 18be 07d3 b83d c18e 97be
00000200: 9af9 423e 54a2 25be 0ae5 353e d030 62be
00000210: 6edb c8bd 992c 20be 8516 443e ad73 2dbe
00000220: ee79 03bd 8294 ae3e a31b a13c a62d c33d
00000230: a0d2 66be 7215 abbd 40cc 2f3a 9b5b 0b3e
00000240: 1d7e 033b c532 cdbd d9be aa3d 60ef d3bc
00000250: 6e21 fabd 8379 b5bd 621f e6bd 50da 823e
00000260: df7f 10be d6f8 76be 6dae d6bd 4d79 1f3e
00000270: 2016 463e 9591 74bd 053f e23d 2b5f 3fbe
00000280: 50d8 923c ae7d c5bd fa22 683e aab2 93be
00000290: 6605 d4bc c092 4bbe 8638 123d cab7 973e
000002a0: 7f49 903e 3f11 15be 8976 2b3e 37f2 763d
000002b0: d000 dd3d dae5 103e 06d8 37be 6eea 05be
000002c0: d52b 793e 7fa1 72be 4df9 e03d a508 51bd
000002d0: 480b ee3c 4988 4f3e 17c1 e33d f1b0 5bbe
000002e0: eaf9 81be 143d b9bd 2219 59be 07b7 0b3e
000002f0: eddb a2bd 8d12 b2bd ed62 22bd 8c4f 98be
00000300: e84e 953d 9b8d 13be 8226 d1bd 38d3 0fbe
00000310: 716a 3c3e ac3c 6b3e fdaf b7bd 6557 89bd
00000320: 725c 313e 8034 2abd c0ea b83d 3ded 44bd
00000330: 5297 bfbd 625f 323e 135f 64be 8c2a 293d
00000340: 761c 893d ae08 4fbd c73d 4a3d 4cc0 c03e
00000350: b542 ce3b 8651 75bd 98d4 7d3d 94b0 083e
00000360: 0461 5d3e 0ae8 d4bc a155 373e 450e 4fbe
00000370: 5c84 cebd eb96 b93d ca31 e83d 8921 9cbe
00000380: db7b 303d df47 6abe adb9 dabc 8c98 2abe
00000390: 5cf6 9c3e b0d1 07be f8fa f93e 4120 b73d
000003a0: 9d85 bb3d 04dd 5cbe 2d8f e7bc f442 173d
000003b0: af39 803e cbd2 dbbe 6e6f a63d b060 3c3e
000003c0: d867 cebd f01f b7bc fe7a b53e 4983 f63b
000003d0: 86b6 f23d 5d7f 463d 122f e1bb 994a 303e
000003e0: 9e36 293d c579 5b3e 38b5 d7bc 0b81 863e
000003f0: 592b 60be 327e 14be 5a3a 923b bec9 8abd

func_approx.network.4.bias f4 [30]
-0.05552584 -0.07552091 -0.012902012 0.12314699 0.011983192 0.1135656 0.033124644 0.08488785
0.011008251 0.00528684 -0.16404748 -0.11594168 0.009515845 0.090405636 0.10694572 0.01594582
0.077564895 0.0763894 -0.16318838 -0.10867564 -0.10410447 0.018711884 -0.11309578 -0.050036147
-0.056353245 0.06791417 0.03900092 0.16131605 0.14335327 -0.0954945
00000000: 106f 63bd b5aa 9abd f662 53bc 7d34 fc3d
00000010: 2655 443c 1595 e83d b5ad 073d aed9 ad3d
00000020: f45b 343c 3a3d ad3b 10fc 27be d572 edbd
00000030: 59e8 1b3c 9726 b93d 5c06 db3d cfa0 823c
00000040: 58da 9e3d 0c72 9c3d db1a 27be 5591 debd
00000050: b934 d5bd aa49 993c c39e e7bd b4f2 4cbd
00000060: a9d2 66bd 9616 8b3d 6ebf 1f3d 0930 253e
00000070: 33cb 123e 9f92 c3bd

func_approx.network.6.weight f4 [30, 30]
0.006953335 -0.01667816 0.3640732 -0.2506221 -0.08947254 -0.1290336 0.052108333 -0.034405775
-0.06232422 0.1286454 0.32655662 -0.051969662 -0.26913962 0.33242753 -0.1002531 0.05025278
-0.11935571 -0.13015263 -0.1811829 -0.12758762 -0.22686103 -0.056578115 0.1773539 -0.092475265
-0.15772745 -0.101614326 0.26134905 0.23271981 0.056673862 0.0013220836 -0.23513563 -0.18434025
-0.09237037 0.11358828 -0.07641684 -0.0025812415 0.2871935 -0.099324815 0.008864857 0.16095161
-0.2504137 -0.11786215 0.18854824 -0.15520772 -0.18193972 0.21063119 0.06455256 0.07630843
-0.04751532 0.14374433 0.14863594 0.21169971 0.036435172 0.019234506 0.13011183 -0.15415004
-0.11323569 0.01894519 -0.17828164 0.13258791 -0.24413744 0.047334146 -0.0014575479 0.116332985
0.09223018 0.093931116 0.058861226 0.24886571 -0.15313278 -0.06645569 -0.18831038 -0.16831738
0.03793395 -0.12670943 0.022273952 0.09182841 0.08939697 -0.16560626 -0.10350069 0.09490078
-0.06466836 0.31917086 -0.033235755 0.084580496 -0.07884989 -0.027832355 0.082086354 -0.08750994
0.1112022 -0.031752955 -0.04006501 -0.013978967 -0.27194872 0.3508101 0.20316689 0.12062605
0.19945535 -0.12379625 -0.08216235 -0.1484666 -0.31474465 0.09244513 0.115685835 -0.24859388
-0.00048019533 -0.2256913 0.09606625 0.12138388 -0.117355116 0.08330526 0.13428518 0.26718438
-0.12615314 0.04338802 0.38063055 0.18739872 -0.34335074 -0.25660077 -0.25533435 -0.17104977
0.03602202 0.1436967 -0.13635342 0.10330282 0.3713445 -0.06301756 0.009202961 -0.066765666
0.071747914 0.009963842 -0.023562029 -0.10475181 -0.3794125 0.14709945 0.033660192 -0.08579462
-0.2472695 0.046462193 -0.10400161 -0.058017727 -0.18676761 -0.1037553 0.11776572 0.02246679
0.032949694 -0.042641163 0.03809695 0.07388488 -0.19245344 0.18621254 -0.3312344 0.027444657
0.08360791 0.006309752 0.17447837 0.23816822 0.03576172 0.05793986 0.113070264 0.18946385
0.016930487 -0.10570782 0.041901536 0.12398159 0.045710366 -0.021689693 -0.2618121 -0.22871861
0.041071013 -0.02218981 -0.024116188 0.28135896 -0.09585983 0.13491325 -0.04951814 0.025565688
0.12946752 0.115248464 0.13437667 -0.19172749 -0.09595939 -0.03371167 -0.2285027 0.026584005
-0.24165988 0.054197934 0.17459722 -0.17850761 0.12808116 0.05140698 -0.13169594 0.15310961
-0.06291804 -0.09900338 -0.17028452 0.06646748 0.13842304 0.012369725 -0.18297262 -0.028517198
0.16385846 0.18862925 0.14685407 -0.091591984 0.006191643 -0.16158853 0.13638651 -0.21283607
-0.055779018 -0.036807626 0.06280262 0.022849515 -0.11907469 0.10962027 -0.21181934 -0.0013915364
0.0965143 0.04398246 -0.016058635 0.115348 -0.19971068 -0.10195844 0.29415554 -0.07811454
-0.01049014 0.09581221 0.073622376 -0.057056937 -0.091580465 -0.020534888 0.09681531 0.08617437
0.08621567 -0.12628788 -0.05599196 0.12963018 -0.0714664 -0.0071638864 0.0267856 -0.10942085
-0.2054788 0.060673963 0.049500838 -0.027550919 0.049924076 0.12194079 0.023829112 -0.025745336
-0.032027453 -0.04636845 0.083127536 -0.1676341 0.18248309 0.015934734 -0.13944724 0.15588778
00000000: cdd8 e33b a3a0 88bc cd67 ba3e 8a51 80be
00000010: 613d b7bd 6221 04be 8c6f 553d 12ed 0cbd
00000020: ae47 7fbd 9fbb 033e 6e32 a73e 24de 54bd
00000030: abcc 89be f133 aa3e 7f51 cdbd dcd5 4d3d
00000040: c470 f4bd bb46 05be 0388 39be 54a6 02be
00000050: 424e 68be 74be 67bd 439c 353e ac63 bdbd
00000060: 4e83 21be 2c1b d0bd 8bcf 853e 1a4e 6e3e
00000070: da22 683d c449 ad3a 65c7 70be b1c3 3cbe
00000080: ad2c bdbd f9a0 e83d 6f80 9cbd 0c2a 29bb
00000090: 070b 933e cf6a cbbd e83d 113c 80d0 243e
000000a0: 3936 80be b661 f1bd ca12 413e c6ee 1ebe
000000b0: 684e 3abe b4af 573e 2234 843d 9847 9c3d
000000c0: 6d9f 42bd b731 133e 0534 183e cfc7 583e
000000d0: 0c3d 153d af91 9d3c 093c 053e 82d9 1dbe
000000e0: 1de8 e7bd f132 9b3c 768f 36be 20c5 073e
000000f0: 2aff 79be 73e1 413d 310b bfba fd3f ee3d
00000100: 2de3 bc3d f55e c03d 7818 713d a7d6 7e3e
00000110: d7ce 1cbe ec19 88bd 70d4 40be 645b 2cbe
00000120: a160 1b3d 1ec0 01be dd77 b63c 8910 bc3d
00000130: c215 b73d b094 29be 2bf8 d3bd 575b c23d
00000140: d870 84bd 5d6a a33e 3722 08bd 8a38 ad3d
00000150: 0d7c a1bd ae00 e4bc e41c a83d 6938 b3bd
00000160: fbbd e33d 630f 02bd 351b 24bd 0a08 65bc
00000170: dd3c 8bbe 629d b33e fb0a 503e ca0a f73d
00000180: 063e 4c3e e388 fdbd bc44 a8bd a107 18be
00000190: 3626 a1be df53 bd3d b2ec ec3d 658f 7ebe
000001a0: bac2 fbb9 9f1b 67be 62be c43d 1d98 f83d
000001b0: e157 f0bd f39b aa3d 0e82 093e 64cc 883e
000001c0: 4a2e 01be a3b7 313d 02e2 c23e 73e5 3f3e
000001d0: abcb afbe 2d61 83be 2fbb 82be ac27 2fbe
000001e0: d38b 133d 3a25 133e 3ba0 0bbe 6e90 d33d
000001f0: de20 be3e 5a0f 81bd 04c8 163c 70bc 88bd
00000200: 92f0 923d 623f 233c 2805 c1bc 1e88 d6bd
00000210: 5b42 c2be 3da1 163e 45df 093d 17b5 afbd
00000220: 3734 7dbe 244f 3e3d ccfe d4bd ffa3 6dbd
00000230: 0240 3fbe a97d d4bd 272f f13d 460c b83c
00000240: 42f6 063d 80a8 2ebd 8c0b 1c3d f550 973d
00000250: 8412 45be 80ae 3e3e 8e97 a9be 9ed3 e03c
00000260: a03a ab3d 09c2 ce3b 75aa 323e 5fe2 733e
00000270: e27a 123d 5952 6d3d 6291 e73d d002 423e
00000280: ceb1 8a3c 577d d8bd f2a0 2b3d 0fea fd3d
00000290: cb3a 3b3d 95ae b1bc 3c0c 86be 3635 6abe
000002a0: 143a 283d 68c7 b5bc 508f c5bc 480e 903e
000002b0: 2952 c4bd b326 0a3e 88d3 4abd 226f d13c
000002c0: 2293 043e 6307 ec3d 0a9a 093e 3654 44be
000002d0: 5b86 c4bd 4015 0abd 9dfc 69be b3c6 d93c
000002e0: b075 77be a7fe 5d3d 9dc9 323e b3ca 36be
000002f0: b527 033e 2090 523d 4ddb 06be c4c8 1c3e
00000300: 2cdb 80bd 49c2 cabd 115f 2ebe 1a20 883d
00000310: c5be 0d3e 63aa 4a3c 2d5d 3bbe e69c e9bc
00000320: 83ca 273e 0728 413e ea60 163e 9494 bbbd
00000330: 44e3 ca3b 7777 25be e8a8 0b3e b3f1 59be
00000340: 8a78 64bd 98c3 16bd a99e 803d e82e bb3c
00000350: 6edd f3bd 9880 e03d 2be7 58be 3764 b6ba
00000360: 4aa9 c53d f426 343d 668d 83bc 923b ec3d
00000370: f580 4cbe 96cf d0bd 8e9b 963e 84fa 9fbd
00000380: d6de 2bbc 3139 c43d 54c7 963d 89b4 69bd
00000390: 8a8e bbbd c838 a8bc 1b47 c63d 307c b03d
000003a0: d791 b03d 9c51 01be d357 65bd c6bd 043e
000003b0: fa5c 92bd 09bf eabb 7a6d db3c 0a18 e0bd
000003c0: 0969 52be 4385 783d 64c1 4a3d 77b2 e1bc
000003d0: 307d 4c3d 18bc f93d 4535 c33c e2e7 d2bc
000003e0: 382f 03bd d8ec 3dbd c53e aa3d 46a8 2bbe
000003f0: d9dc 3a3e 8f89 823c 42cb 0ebe 0ca1 1f3e

func_approx.network.6.bias f4 [30]
-0.07249142 0.052794654 -0.13134076 -0.0035342386 0.0033863403 0.06148534 0.06802861 -0.113172635
0.07740265 0.12121478 0.0052048215 0.08899801 -0.087438576 0.0357039 0.049982846 -0.07367301
0.08181061 -0.16977972 -0.061441027 -0.09077565 -0.11450907 -0.09074415 -0.15654556 0.029357282
-0.020726502 -0.1470493 0.020547247 -0.026116246 0.056287438 -0.1293236
00000000: 6276 94bd 353f 583d 317e 06be af9e 67bb
00000010: 5ded 5d3b 0dd8 7b3d 9552 8b3d 0ec7 e7bd
00000020: 4885 9e3d 743f f83d 358d aa3b 9744 b63d
00000030: ff12 b3bd 413e 123d d0ba 4c3d e0e1 96bd
00000040: 528c a73d bcda 2dbe 96a9 7bbd 96e8 b9bd
00000050: bb83 eabd 12d8 b9bd 7b4d 20be af7e f03c
00000060: a0ca a9bc 1794 16be b352 a83c bdf1 d5bc
00000070: a88d 663d 686d 04be

func_approx.network.8.weight f4 [1, 30]
-0.18374133 0.23223984 0.20537767 0.18228085 -0.10970067 0.23852472 0.1570729 0.15157442
0.16527629 -0.29708606 0.1261033 0.027729537 -0.119132295 0.20022866 0.027007515 0.28354576
0.07044177 -0.18157442 0.2812897 -0.067952275 0.21115087 0.09226457 0.14895125 0.20613322
0.13835508 -0.088181786 -0.014930176 -0.16392985 0.048925128 -0.08974095
00000000: b026 3cbe 48d0 6d3e 864e 523e d5a7 3a3e
00000010: bfaa e0bd d33f 743e b8d7 203e 5336 1b3e
00000020: 303e 293e aa1b 98be 3921 013e 0e29 e33c
00000030: a2fb f3bd be08 4d3e dd3e dd3c e92c 913e
00000040: c643 903d a5ee 39be 3405 903e 902a 8bbd
00000050: ef37 583e 35f5 bc3d ad86 183e 9614 533e
00000060: f4ac 0d3e a798 b4bd b29d 74bc 3add 27be
00000070: b765 483d 1aca b7bd
