paper/Burgers/runs/rand8model.pt (torch, 15690 bytes, 9 tensors)

func_approx.network.0.weight f4 [30, 2]
00000000: eb39 27bc 6726 06bf c183 c1bf d034 073f
00000010: d6e2 203f 2689 dbbe 4133 b3be 9728 ad3e
00000020: 2ce8 75be 515b 293f cb9c 06be 75c8 a73e
00000030: ab66 45bf 5b8d b83e b5ce f9bc f92a 723e
00000040: 2fbf bd3d db9d 123f 5b16 df3c 7e4c 55be
00000050: ff35 a0bf 1aa2 3b3f 72b5 603f ee2e 633d
00000060: 6069 ca3f 9840 533f 7e54 533e 5348 053f
00000070: 4153 1d3f 6d31 56bd 1b2f 75be d233 4c3f
00000080: f5b8 5cbe bb45 973e 92bb 01bf 6c93 a23e
00000090: 638b 1b3f 3a9b 0c3f 8e55 db3e da81 023f
000000a0: 3bc7 0dbe cd41 533f 269e 913e 6a6b 533f
000000b0: b550 93bf 8dba f4be e290 1fbf 657d f23d
000000c0: b945 1a3f 58c4 25bf 62ec 823e ad72 083e
000000d0: c436 9bbf 142b bbbd bc89 bbbd ab70 ebbe
000000e0: 3642 e9be e961 133f 3297 cebd 7d9f 60be
-0.01020668 -0.5240235 -1.5118333 0.5281496 0.62846124 -0.42878073 -0.3500004 0.3382003
-0.24014348 0.6615496 -0.1314575 0.32770124 -0.77109784 0.36045346 -0.030494073 0.23649205
0.09264981 0.5727212 0.02723234 -0.2082996 -1.2516478 0.7329422 0.87776864 0.055464678
1.5813408 0.8252044 0.206377 0.52063483 0.6145516 -0.05229323 -0.2394375 0.7976657
-0.2155493 0.29545388 -0.50676835 0.317531 0.6075956 0.54924357 0.4283871 0.5097939
-0.13845532 0.8252228 0.2844097 0.82585776 -1.1509005 -0.47798577 -0.6233045 0.11840323
0.6026264 -0.6475272 0.2557097 0.13324995 -1.2126088 -0.09139076 -0.0915713 -0.45984396
-0.45558327 0.57571274 -0.10087432 -0.2193584

func_approx.network.0.bias f4 [30]
00000000: 93f0 10be fa8e 2dbe 8dd1 0fbe 61b4 b0be
00000010: 75d2 163e 459e 14bc 477c 00bf 4f24 a7be
00000020: 17a1 b2be 6a5b 83be 82db 77be 6800 163f
00000030: 5d00 0fbe 2bd3 55bd bb02 0d3f a37d 0dbf
00000040: b10c 06bf 328e 273d ebfd 023e 717a 163d
00000050: 8bdd de3e 24c6 26bf 9a8e aabe 8c76 f23e
00000060: 485d ccbe 1361 e6bd db4e 0f3e 5127 bebe
00000070: 417d febe 1d1d cfbe
-0.14154272 -0.16949072 -0.14044781 -0.34512618 0.1472872 -0.0090709375 -0.5018963 -0.3264489
-0.34888527 -0.2565568 -0.2420483 0.5859437 -0.13964982 -0.05220334 0.5508229 -0.5526983
-0.52363116 0.040907092 0.12792175 0.036737863 0.435284 -0.6514609 -0.3331192 0.4735607
-0.39914918 -0.11248984 0.13994925 -0.3713937 -0.49704936 -0.404519

func_approx.network.2.weight f4 [30, 30]
00000000: 9db0 45be b9c6 8ebd 9206 0dbe b6a3 0fbe
00000010: c6f9 8fbd 5289 bd3d 560c 4c3e d581 643e
00000020: 0f7c 843e 9478 9f3b 891b 763e fea8 88bd
00000030: 560d dc3c 600f 143e f78c 553d 4ae8 6b3e
00000040: 6100 fd3d 06c9 023e 6297 2a3e 28e0 203e
00000050: 8dbe dcbd be6c 803e c1fd 513d f102 6d3d
00000060: fa60 17bd 9e6a 083e b401 533d 83ba 283d
00000070: 1d64 5e3e 7626 94b9 86da f33c 3f7b ab3d
00000080: ad0b 6abe d57a 503d 1d27 203e 542d 87bc
00000090: 582f 603e 3fd0 16bd 43b9 7f3e 42e3 f0bd
000000a0: ba72 b53e e232 dbbd bb0d 39bc b7ac 163e
000000b0: ec3a e13d 2eea 423e 91a0 fc3d 481d 113e
000000c0: 89c9 053e ea62 903d 4e9a 6ebc 3472 723e
000000d0: eb89 a4bd 02a3 5e3b 912b 67be 9e79 3bbb
000000e0: 384d a53e 1407 be3d ae88 843e a810 1abe
000000f0: 25fe 653e 9e38 6e3d 40b8 5b3d 36dd 06be
00000100: bb3f 96bd 768a 983c ad2f 0abd 8018 dbbd
00000110: 76e5 9cbe aeaf 133e c474 793d fd7b 213d
00000120: d174 99bd f1b1 07bc a09a abbd c858 e3bd
00000130: 04dd e33d e1fc a8bd 8db6 65be 605b 5fbe
00000140: af1f 2f3e 8af2 babc e488 0e3e 0c17 6abc
00000150: 5e89 1cbe 4810 75be b784 eb3d e0e1 0abd
00000160: 4f7e d73d 2392 c5bd 527e 5c3d 72ef 783d
00000170: c6f3 043d 0619 0ebd 1c52 7bbc 4e7e efbc
00000180: 13b9 42be 2a4a 803b e1f8 a6bd 14a8 533e
00000190: f414 9dbe 1bb3 db3d 9712 b2be f836 98be
000001a0: 8038 cebd c0e3 47be 8ae7 32bc c749 06bd
000001b0: 4a51 78be d0f3 98be 9e20 3abe 8d56 04be
000001c0: 4539 533e 4832 0fbe 1865 c53e 0a5a 383e
000001d0: 382d 76bd b469 2d3e 1f82 303e 831b acbd
000001e0: f8a0 80be 7ad8 003f f409 4ebe a609 a73e
000001f0: 33b8 4f3e ee4b be3e dfb7 943e 5b15 a03e
00000200: 0373 8e3e 9e92 3ebe 4a4e c33e aa71 4ebe
00000210: 74a0 003e 3f26 5e3e e5f3 21be d027 d33e
00000220: 71a1 ad3e 3bde aa3e 154a 5abd 39fb da3d
00000230: c132 483e 8dda 693e 54de 313e 66ae fe3d
00000240: 7dc5 66be 7312 5b3d e5d0 ab3e 0c47 2b3d
00000250: a466 093e 3023 26be 3b0b 3b3e 68a5 143d
00000260: ced1 2e3e 468e 0ebe 5af2 77bd 12d0 5d3a
00000270: 00f5 acbd 0ee7 eb3d ec58 b33d cbf3 3c3e
00000280: 8dad 3a3d d2be 3ebe 80aa 08be 42ad 69bc
00000290: 5594 73bd b3eb 893b d2bf 2dbd 12ce 8e3d
000002a0: 596e f73d f734 d93d 73fd 0a3e 30cf 40be
000002b0: d145 5bbc 3a86 01be cd83 b83d d5ed cebc
000002c0: 3fea 243e ab61 d63d ac3d 9fbd d59e 623d
000002d0: e985 31be 9e90 95bd 7a03 e1bd f06c febc
000002e0: 6cf5 823e 9276 d1bd d004 27be f259 213e
000002f0: 8bdb 843d e351 d83d 370f 9bbc 1478 863e
00000300: db08 b43d 5d3f 1b3e f307 303e 02cb 3f3e
00000310: 4bb9 23be cd97 8fbd cc65 af3e f144 343e
00000320: 657f 873e c951 2c3e 5868 bcbe 122d 74bc
00000330: 92f9 57be c63f 923e 8a58 17bf 3558 59be
00000340: bb0c d23c f299 76be 3bd9 b63d f19c 26be
00000350: cd9f 3a3e 289d 1abd 29dd 81be 7754 12be
00000360: b580 663a cb38 8f3d 4445 4bbe 700e aabd
00000370: 13ba b1bd 6fd5 cbbd bbd9 0fbe ae6b 83be
00000380: 07b1 fabc bd71 97be 5128 873b 31cf c1bd
00000390: 8d8a e53c f15f 6cbe 6cda 0f3e f713 85be
000003a0: 34bf 2bbd acb0 533c 33ac 423e d163 0e3e
000003b0: ed4d 0abe 0da5 c8bd 7418 7ebe 880b 1b3d
000003c0: 8939 0cbe 4ab3 9cbe bdc6 653e 2cb8 e4bd
000003d0: 7dfc ed3c d18d a5be e282 91bd eb08 be3d
000003e0: ff74 6dbd af46 31bc a5cf 85be 740b 43bd
000003f0: 69fa 0a3e 0574 49be ffaa 893d 8a70 8abe
-0.19305654 -0.06971497 -0.13772038 -0.14027295 -0.070300624 0.092547074 0.19926581 0.22315152
0.258759 0.004866669 0.24033941 -0.06672858 0.026861828 0.1445899 0.052136388 0.2303783
0.12353588 0.12771997 0.1665931 0.15710509 -0.10778532 0.25082964 0.05126739 0.057864133
-0.03695772 0.13321921 0.051515296 0.041193496 0.21717878 -0.00028257415 0.029767286 0.08373117
-0.22856016 0.05089839 0.1563992 -0.016501106 0.2189306 -0.036819693 0.24973015 -0.11762096
0.35439092 -0.107030645 -0.0112947775 0.14714323 0.109975666 0.19034645 0.12335313 0.14171326
0.13065161 0.07050116 -0.014563156 0.23676378 -0.08034118 0.0033971672 -0.22575213 -0.0028606425
0.32285476 0.09278694 0.25885528 -0.15045416 0.2246023 0.058159463 0.05364251 -0.13170323
-0.07336374 0.01862071 -0.033736873 -0.106980324 -0.30643815 0.14422485 0.060902372 0.039424885
-0.07492984 -0.008282171 -0.08379102 -0.11100918 0.1112614 -0.08251358 -0.22432919 -0.218122
0.1710193 -0.02282073 0.13919407 -0.014287721 -0.15286776 -0.23931992 0.11499923 -0.033906817
0.10522138 -0.09647014 0.053831406 0.060775228 0.032459043 -0.034691833 -0.015339401 -0.029235031
-0.19015913 0.003915091 -0.08152939 0.20669585 -0.30680048 0.10727521 -0.34779808 -0.29729438
-0.1006937 -0.19520473 -0.010919461 -0.032785203 -0.2424976 -0.29873514 -0.18176505 -0.12923642
0.20627315 -0.13984025 0.3855369 0.18003097 -0.060101718 0.16934854 0.17237137 -0.08403685
-0.2512281 0.5033032 -0.20120984 0.3262455 0.2028511 0.37167305 0.29046533 0.31266293
0.27822122 -0.18610618 0.38145667 -0.20160547 0.12561208 0.21694277 -0.15815695 0.41241312
0.33912233 0.33372673 -0.053293306 0.10692448 0.19550611 0.22837277 0.17369968 0.124356076
-0.22536273 0.05348439 0.3355781 0.041815802 0.1341806 -0.1622436 0.18266003 0.036290556
0.17072222 -0.1392146 -0.06053386 0.0008461486 -0.084451675 0.115186796 0.08757195 0.18452375
0.045575667 -0.1862748 -0.1334629 -0.014262499 -0.059467632 0.0042090057 -0.042419262 0.069728985
0.12081594 0.10605805 0.13573246 -0.18829036 -0.013383345 -0.1264886 0.09009514 -0.025259892
0.16104983 0.104678474 -0.07775435 0.055327255 -0.17336239 -0.07302974 -0.10986991 -0.031057805
0.25577867 -0.102276936 -0.1631043 0.15756968 0.06487187 0.10562494 -0.018928153 0.26263487
0.087907515 0.1516089 0.17190532 0.18729785 -0.15988652 -0.070113756 0.34257352 0.17604424
0.26464382 0.16828074 -0.36798358 -0.014903324 -0.21091297 0.2856428 -0.59119475 -0.21225055
0.025640836 -0.24082163 0.08928152 -0.16270806 0.18225022 -0.037747532 -0.25364044 -0.14290033
0.00087929826 0.06993254 -0.19850641 -0.08303535 -0.08678069 -0.099528186 -0.14047901 -0.2566809
-0.030601991 -0.29578963 0.004124679 -0.09463347 0.028020168 -0.23083474 0.14048165 -0.25991794
-0.041930392 0.01292054 0.19011001 0.13905264 -0.13506289 -0.09797106 -0.24814016 0.037852794
-0.13693823 -0.30605537 0.22439094 -0.111679405 0.02905106 -0.3233476 -0.07105042 0.09279045
-0.057972904 -0.010820075 -0.26134983 -0.047618344 0.13572086 -0.19673164 0.06722068 -0.27038985

func_approx.network.2.bias f4 [30]
00000000: a8bf 0d3e 9ea8 0bbe 0ff8 a7bd 3e27 b13d
00000010: 29b1 05be bc81 b4bb 861f b4bd 2ddf 353c
00000020: 60fd abbc 4cde 90bd 692d 973d 67f1 523d
00000030: a9ba d5bd d549 023e 539a fa3d ae6c 1bbe
00000040: 050b c33d d8f9 0bbe 2774 763d f026 9a3c
00000050: 5488 06bd 603f 5fbc 5587 e03d 55d3 013d
00000060: f95c 8fbc e7b2 b7bd da5d 3d3e e6a4 7c3e
00000070: ffb8 a3bd 841c 13be
0.13842642 -0.13638541 -0.0820161 0.08650063 -0.13055862 -0.0055086296 -0.08795075 0.0111005725
-0.020994842 -0.0707365 0.07381708 0.05149975 -0.10435993 0.12723477 0.12236466 -0.15178177
0.09523586 -0.13669527 0.060169365 0.018817395 -0.032844856 -0.01362595 0.109633125 0.031695683
-0.017500388 -0.0896967 0.18492833 0.24672279 -0.079942696 -0.14366347

func_approx.network.4.weight f4 [30, 30]
00000000: aa69 c7bd c6f5 9abd a5d7 6abe 6393 6dbe
00000010: cf2b cdbd 4bef 04bd 7eef bb3e cea9 053e
00000020: 45e5 86bd 28f9 babe a4a5 4fbe 3d84 bfbe
00000030: 68ab 883c d688 47be 5565 13be 7424 543d
00000040: 9150 e8bd bbe9 59bf 5223 4b3e 3c8a 29bd
00000050: 0a1b 29bd 2be8 953e 012d 3ebe fca7 943d
00000060: b9fd 823d 3025 eb3d 4c81 85be 3329 893d
00000070: 082c b5bd 1c6f 963e 9bbd a7bd 862f 063b
00000080: 12fd 893d 6b01 16be 3ca7 983d 8dff ac3e
00000090: 6668 603d 7e26 9d3d 0ddd ae3e d5e0 07be
000000a0: 1d3b 42be 487f 55bd e86f c43c bfb2 2a3d
000000b0: 911e 793e a380 7ebd b110 2b3e 5cf4 03bf
000000c0: 0539 a5bd 5597 873d 6f7a 8d3e 2fae f9bd
000000d0: 9b3e cbbd d9f9 66bd de69 08be f62d 30be
000000e0: 9848 803e a83d a73e 4149 283e e8ef 653e
000000f0: 7b4e 1a3e 3d1e 0abe 837b 0abe 79c7 473c
00000100: 7766 ac3b 0fbd 9fbd a417 b5bd de12 4cbe
00000110: b0a3 2e3e 0078 f7bc b306 92bc e5ca b53d
00000120: 47db 12be cd03 26be 41b4 873d 8662 32bd
00000130: 14f6 f4bd d5e3 fd3c 08b5 7a3d 939b 1b3a
00000140: 55d7 ccbd cff6 df3d 16f1 f0bc fd94 72bd
00000150: cf45 ba3c 7a66 3ebd a795 093e 1fe8 c3bd
00000160: fe72 15be 2a88 3fbe 998e 1b3c 6f63 0a3c
00000170: bdf4 65bd 3e4f 993d b8ce eabd a17b 8ebd
00000180: db2d 9dbe 814b eb3d 712f 33bd 2ef2 a23d
00000190: b582 5c3e e346 653e 6b0e 1ebd 1285 143e
000001a0: eccd 0e3d d916 48be 36ab 083d 9189 3d3d
000001b0: 3994 39be fdbf dc3d e80b 2ebe 9d2e d73c
000001c0: 95cf 9b3e c612 efbd 4465 e43c 8b10 d23c
000001d0: 69bc f93d e875 d23c 0195 1b3e 1512 4abd
000001e0: 5015 4d3d 716f 10be 9e47 393e 115d 8d3b
000001f0: 25d3 63be b0e8 e33d 2dbe 04be 32e2 983e
00000200: 1d9a 503e b2c6 54be 04da d13d e562 4e3c
00000210: c2ed 9cbd 8990 843d 1419 e93d 7ebc 38be
00000220: 5006 183e 230e 883d 9d89 1ebe 1deb 313e
00000230: 89bd 413d 0504 a23d dbb0 833d 8ff5 1d3c
00000240: 5331 a83d 0aca d83d 9c69 f93d 8a4a 503e
00000250: 23bc 803a c7f1 603c 2239 b13d 3897 cb3c
00000260: f5c8 e7bd 5118 d73c fdfa 34bd 4d63 e33c
00000270: 3ebc 2a3d 66a2 763c 57a1 84be 36d1 903c
00000280: 3244 34be 0d54 82be fa71 ed3d a662 6fbd
00000290: 7c34 2a3e de06 303e 6867 8b3c 3331 5e3d
000002a0: a36b 203e dfe7 833d a1b3 19bb ac67 0abe
000002b0: 7d5a f23d 28dd 6a3d 1fe9 f8bd d8cd d73d
000002c0: b78d e8bd c648 173c dfae d23d 58b7 1c3e
000002d0: 2801 0c3c f668 ffbc 3ec4 bcbc b323 073e
000002e0: 6cfa 67be 7490 493e 15df e93d 8c44 59bd
000002f0: 5267 1bbd c77d 5d3c 4a8f ca3c 1b4c be3d
00000300: 6133 59be 2c11 5b3c 5f26 933d 073e 983d
00000310: 6ad2 83bb a3fb a7be a4b4 263e 0d1c 2a3e
00000320: adfb 6e3d fe6d c93d 8e91 e23d 20eb b4bd
00000330: 50a9 003e 9a78 8a3d 0afc 2a3e 48b5 c3bd
00000340: 47ae 2c3e e261 64bd 73f7 8d3e 9c2e 89bd
00000350: 296f 42bd 1911 febd 61e5 f1bd 569e 63be
00000360: 22d7 8c3e 09e4 52bd c5ed fcbd 68b5 8cbe
00000370: 9e98 22be 5484 853c d5e1 68bd 7449 4cbe
00000380: ea90 debe c4e9 003d a76e 17bd 30a1 66be
00000390: e3ca 87bb 3db8 013e f569 2bbe ac1f 71bc
000003a0: cdf2 b33d 91f3 063e ca98 90bd 1029 cc3d
000003b0: 5c00 a1be 28ae 9abe 47f8 b8bd d8f4 c23d
000003c0: 0b2e c4bd 7487 3cbc 71aa 373e 2b3f c83d
000003d0: de88 3c3b 632d 0abd 8b2b 8ebe 7174 5b3d
000003e0: de2b 803d f15c 1bbe a73a 1a3e 07cb 513e
000003f0: 174f 263c ecec 13bc 3fc4 0ebe 7256 af3b
-0.09736951 -0.07566409 -0.22933824 -0.23200755 -0.100181215 -0.03245477 0.36706156 0.13053057
-0.065866984 -0.36518216 -0.2027803 -0.37405577 0.016683295 -0.19485793 -0.14394124 0.051792577
-0.11343492 -0.8512227 0.19837692 -0.041391596 -0.041285552 0.29278693 -0.18571855 0.07258603
0.0639605 0.11481702 -0.26075208 0.06697311 -0.08846289 0.29381645 -0.08190461 0.0020475104
0.067377225 -0.14648978 0.074537724 0.3378872 0.054787062 0.076733574 0.34153023 -0.1326936
-0.18967862 -0.052123338 0.023979142 0.04167437 0.24328066 -0.062134396 0.16705586 -0.5154474
-0.08067516 0.06620661 0.27632472 -0.12191426 -0.099240504 -0.056390617 -0.13321635 -0.17205033
0.25055385 0.32664227 0.16434194 0.22454798 0.15069 -0.13488097 -0.13523678 0.012193554
0.005261238 -0.07799732 -0.088424 -0.19929072 0.1705463 -0.030208588 -0.01782546 0.0887659
-0.1434146 -0.16212387 0.066261776 -0.04355099 -0.11960998 0.030992428 0.0612078 0.0005935963
-0.10002009 0.10935747 -0.029411834 -0.059224118 0.022738365 -0.046484448 0.13435994 -0.09565758
-0.14594647 -0.18704286 0.009494447 0.008446558 -0.056141604 0.074858174 -0.1146521 -0.06957174
-0.30699047 0.114890106 -0.043746416 0.07956348 0.21534236 0.22390322 -0.03858797 0.14503887
0.03486435 -0.19539966 0.033366404 0.04627377 -0.18122949 0.10778806 -0.1699673 0.026267344
0.3043181 -0.116735026 0.027880318 0.025642654 0.121941395 0.025690988 0.15193559 -0.04933365
0.050069153 -0.14105012 0.18093726 0.004314073 -0.22248514 0.11128366 -0.12963171 0.29860073
0.2037129 -0.20778921 0.10246661 0.0125968205 -0.07662536 0.064728804 0.113817364 -0.18040654
0.14846158 0.06643321 -0.15482183 0.17374845 0.047299895 0.07910923 0.06430217 0.009641065
0.08212533 0.10585411 0.121783465 0.20340934 0.0009821694 0.013729519 0.08653475 0.02485238
-0.113176264 0.026256712 -0.044184674 0.027757311 0.041683428 0.015053367 -0.25904343 0.017677885
-0.1760414 -0.2545475 0.11594005 -0.058443688 0.16621584 0.1719012 0.017017081 0.05424614
0.1566606 0.0644071 -0.0023453014 -0.1351611 0.118336655 0.057339817 -0.12153839 0.105373085
-0.11355155 0.009233659 0.1028726 0.15304315 0.008545198 -0.031177979 -0.023042794 0.13197212
-0.22654122 0.1968401 0.11419503 -0.053043887 -0.03794033 0.013518757 0.024726529 0.0929186
-0.21211006 0.013370793 0.07185053 0.07433706 -0.004022886 -0.3280917 0.16279846 0.16612263
0.058345485 0.098354325 0.110629186 -0.08833909 0.12564588 0.06761284 0.16697708 -0.09556061
0.16863357 -0.05575741 0.2772785 -0.06698343 -0.04746929 -0.12405605 -0.11811329 -0.22228369
0.27507883 -0.051487003 -0.123500384 -0.27482152 -0.15878531 0.01629845 -0.056855995 -0.19949895
-0.43469936 0.031472936 -0.03697076 -0.22522426 -0.004144059 0.12667938 -0.16739638 -0.014717024
0.08786545 0.1317885 -0.07060392 0.099687696 -0.31445587 -0.30210996 -0.0903173 0.095193565
-0.095790945 -0.011506904 0.17936112 0.09777673 0.0028768103 -0.03373469 -0.27767596 0.053577844
0.06258367 -0.15172173 0.15061437 0.20487605 0.010150692 -0.009028655 -0.1394205 0.0053508813

func_approx.network.4.bias f4 [30]
00000000: 5916 0b3e fb6d d9bd 7ab8 d13d fe61 46bd
00000010: dbe1 8cbd 133f ab3d 05d2 e83c 3384 06be
00000020: b83c 003e e64d eabc f7e4 783b 28ad 5cbd
00000030: ed06 1c3e 9e16 183d 87cd b4ba 0230 a7bc
00000040: f11b 1a3e 437e 783d e0e1 2e3e a9dc 1fbd
00000050: 435b 38be e04b 443d 50d7 24be 319b 2cbe
00000060: 77ca 3d3c a67f b83b 6d5d f2bd 09ad 1a3e
00000070: 7550 ce3c 25c7 70bd
0.13582744 -0.1061668 0.10240264 -0.048433296 -0.06879016 0.0836164 0.028420458 -0.13136367
0.12523162 -0.028601598 0.003797827 -0.053876072 0.15237017 0.037130944 -0.0013794162 -0.020408634
0.15049721 0.060667288 0.17078352 -0.039028797 -0.18003564 0.047923923 -0.1609776 -0.16856076
0.011583916 0.0056304513 -0.11834226 0.1510507 0.02518485 -0.05878367

func_approx.network.6.weight f4 [30, 30]
00000000: 1910 253e 458c d2bc 24ed 03be 5155 a6bc
00000010: 1ec2 8abd bd8f 83bd 5334 263d 1afc f63d
00000020: d528 debd fb7d bcbd 3a24 4ebe 7def 4cbe
00000030: df71 4cbc 7450 97bd de96 553d 9c0d 343e
00000040: cfd4 403e 7659 0ebd 28c5 d4bd ec6e 2c3d
00000050: fc2b 6cbd 8f9f 61bd 429f 3f3e dbb3 17b9
00000060: be6b b23c 4672 893e 2f29 ce3d f39d 773d
00000070: 7378 de3d d611 fc3d a046 85bd 56d8 cbbd
00000080: 2f2b b53d 7d6a 483d 70b3 723e 42d1 94bd
00000090: daaa 003d 3640 833e 4a8f 2cbe 2dd1 fbbd
000000a0: 10d6 993d caa6 4abd d1c5 283e e9d6 c9bd
000000b0: 5cb1 9e3d 187e 93bd 8fc5 98bd d739 5abd
000000c0: 55bf 29bd e52d a13d 623b 143d 83c3 153e
000000d0: 4e6a ed3b 1a5d f33c 3fe6 84bb bd5d 8a3e
000000e0: ff9c 1ebd bbf3 233e b861 3ebe 0cad 2fbe
000000f0: b426 513e 965c 16bb 67c3 afbd c74b d93d
00000100: 2182 f13d b571 5ebd 9e26 bc3d 69f8 8c3e
00000110: 9e35 fbbd 7a40 f43d 53b7 bbbd 2f33 9cbe
00000120: a9e1 07be ec7c f7bd a68d 2a3e 1c2b 0d3e
00000130: 3f07 3f3e 4789 843c c5c6 e23d 6068 34bd
00000140: ebe7 abbd d4d9 c7bd fc63 57bd 2685 063e
00000150: f5f8 a8bd 965a a03d 387a 08bc dfc0 573e
00000160: 94c7 a9bd 6fae 5f3c c07d 26be d601 a93c
00000170: 493b 40bd 1d38 663d 9aad b13d 5deb d43c
00000180: e2c4 3e3e ac29 40be 6a10 ec3d b979 173e
00000190: 60c8 c33b b8b8 953e e255 3abe 4bbe 203e
000001a0: aad0 223e 6ab5 c9bc eae8 bfbc 1ff9 563d
000001b0: 3a09 25be b276 033e 44b4 c4bd 5fe5 d4bc
000001c0: 70e8 21bd 60ea de3d ccf2 c8bd bd73 64be
000001d0: d464 523b 0ce5 583a 9fad b73d 6415 28bd
000001e0: 20d2 663d 6b61 4dbe 5e28 1e3e 4ddd a6bd
000001f0: c3bf 6b3e 79ff 433d 37b2 c63d ae5e 1c3e
00000200: aaad 5fbe 19fc f93d a4b8 2fbe e8c0 93be
00000210: 8db7 033e 987c d5bc 26e6 44be b95d 523d
00000220: 21a1 343e 49ad 7cbe 5308 c23d 5a9a 863d
00000230: 0442 1bbd 9a02 4d3d df5d cabd b19d 04bd
00000240: 1fe8 3bbd ce18 443e a646 b4bd e71d ddbd
00000250: 7704 a1bd b332 143e 92a6 1ebe c3cd 8e3e
00000260: cb6b 9b3d 1203 60bd cfce b5bd 2de4 fe3d
00000270: 3d1d 5bbc 0c4e 32bd 7a39 843c dacd 2d3d
00000280: de58 cdbd 097b d63b 4b9d 1e3e c669 3c3e
00000290: 658c 923d 9d08 d63d dfe2 d4bd df1e dc3d
000002a0: 37db ebbd b66b 4b3d d80c e43c 97d2 e63d
000002b0: 1e26 cfbd 7930 123e 6801 103e 1513 a4bc
000002c0: 6055 24bd 2bd8 b3bd 12e8 9abb 0b6c e9bd
000002d0: c312 3dbd 1573 c83e 9deb 943d a805 87bd
000002e0: 8946 bdbb a416 8dbd 6f87 2e3e 2b2f a4be
000002f0: 5401 003e a6e0 febd 0209 4e3e 8ccf ae3e
00000300: 61d0 d03d 72b1 0c3d c3e0 4d3e 62c8 b9bd
00000310: 1a99 f4bd 5d56 843e a72a 20bc ede6 82bc
00000320: 6de0 1ebe 1787 3f3e 93c4 3bbe 537e debd
00000330: db9f 65bd ef22 3bbe 258e 2b3e 5bd2 68bd
00000340: c69b 203e fe1f 9bbc fe1e 9f3d 7de3 993e
00000350: 745d 2abe 723a 393e 899f c0bb c854 583c
00000360: 6637 a93d 5c77 6b3c 37c1 333d f05c 0bbd
00000370: 2b64 56ba 71e4 a73b 320d afbc ff83 24bd
00000380: ab22 ee3d 1d81 7dbe c7fa 0f3e caa3 c5bd
00000390: b965 a23d 8929 15bd c220 8cbe ac8d ac3d
000003a0: 4b60 25be 2d88 f4bd 2c4e e93c c28c 08be
000003b0: 6d83 aa3d 10f4 bb3d 1c5c c8bd 88d9 633e
000003c0: bdc4 17be e6b9 d63d eaf9 cd3d d00f c2bd
000003d0: ed4e 19be 58c1 a3bd 1781 963d fba0 c3bd
000003e0: 58f5 543e 8856 c13d cbaa cfbd ae40 c6bc
000003f0: 7447 47bb 5858 573d 1ae4 21bd 5764 4cbd
0.16119422 -0.025701651 -0.1288343 -0.020304354 -0.06775306 -0.064239 0.040577244 0.12059803
-0.10847632 -0.09203716 -0.20131007 -0.20013233 -0.012478321 -0.07388392 0.05214583 0.17583317
0.1883118 -0.034753285 -0.10389167 0.04209797 -0.057659134 -0.055083808 0.18713096 -0.00014467484
0.021779891 0.26844996 0.10066449 0.060453366 0.108628176 0.123080894 -0.06507611 -0.09953372
0.08846127 0.04892968 0.23701262 -0.07266475 0.031412937 0.25634927 -0.16851535 -0.122957565
0.07511532 -0.04947547 0.16481711 -0.09855444 0.07748672 -0.07201785 -0.07459556 -0.053277817
-0.041442234 0.07870082 0.036189444 0.14625363 0.0072453385 0.02970748 -0.004055768 0.27024642
-0.038723942 0.16010945 -0.18591964 -0.17155856 0.2042492 -0.002294337 -0.08582192 0.106101565
0.11792398 -0.05430766 0.09187053 0.27533272 -0.12266086 0.119263604 -0.09165826 -0.305078
-0.13269676 -0.12084374 0.16655597 0.13785976 0.18655108 0.01617874 0.110730685 -0.044044852
-0.08393844 -0.09758344 -0.052585587 0.1313673 -0.0825061 0.07829778 -0.0083299205 0.21069668
-0.0829002 0.013652428 -0.16258907 0.020630758 -0.04693154 0.056205858 0.0867569 0.025991136
0.18629792 -0.18765897 0.11526568 0.14792527 0.0059748143 0.29242492 -0.18196824 0.15697591
0.15899912 -0.024622638 -0.023426492 0.052483674 -0.16116801 0.12838247 -0.096046954 -0.025988279
-0.03952831 0.10884547 -0.09811935 -0.22309776 0.0032103555 0.0008273877 0.089686625 -0.041036025
0.056352735 -0.20056693 0.15445086 -0.081476785 0.2302237 0.04785106 0.097019605 0.15270492
-0.21843591 0.12206287 -0.17160279 -0.28858113 0.12862988 -0.026060387 -0.1922842 0.051358912
0.17639591 -0.24675478 0.09474244 0.06572409 -0.037904754 0.05005131 -0.09881186 -0.03237695
-0.045875665 0.19150087 -0.088025376 -0.10796719 -0.0786218 0.14472465 -0.15493229 0.2789136
0.07588919 -0.054690428 -0.08877336 0.12445865 -0.01337367 -0.043531463 0.016140688 0.042432643
-0.10026716 0.0065454287 0.1548969 0.18399724 0.071556844 0.104508616 -0.10394835 0.10748076
-0.11516421 0.049663268 0.027838156 0.112706356 -0.10114692 0.14276303 0.14063036 -0.02002863
-0.040120482 -0.08781465 -0.004727372 -0.11397561 -0.04616047 0.391503 0.07271502 -0.06592876
-0.0057762307 -0.06889084 0.17043851 -0.32067236 0.12500507 -0.12445192 0.20120624 0.3414272
0.10195995 0.034348913 0.20105271 -0.09071423 -0.11943264 0.2584714 -0.009775794 -0.015979255
-0.15515299 0.18703876 -0.18336706 -0.10863938 -0.056060653 -0.18275045 0.16753443 -0.056841236
0.15684423 -0.018936154 0.07769583 0.30056372 -0.16637212 0.18088701 -0.005878393 0.013203807
0.082625195 0.014371719 0.043885436 -0.03402418 -0.00081783783 0.005123668 -0.021368597 -0.040164944
0.11627706 -0.24756284 0.14060508 -0.09650381 0.07929558 -0.036416564 -0.27368742 0.08425459
-0.16150014 -0.11940036 0.028479658 -0.13334945 0.08325849 0.091774106 -0.097831935 0.2225095
-0.14821143 0.10484676 0.10057433 -0.09475672 -0.14971514 -0.07995862 0.07348841 -0.09552189
0.20796716 0.09440333 -0.10139998 -0.024200764 -0.003040758 0.052574486 -0.039524175 -0.04990038

func_approx.network.6.bias f4 [30]
00000000: f632 023e 8107 d4bd 6026 10be 49fe 1d3d
00000010: e319 3cbd 900a 8e3d 9d7f 36bd 70c3 113e
00000020: 4714 22be f7cd 16be afc5 2d3e 98eb 92bd
00000030: 982f fc3c 1019 633d 31c4 293c 1c06 cdbd
00000040: 6d15 c43c b1c7 febd 1092 0c3e 93b0 163d
00000050: f480 103e 206f eb3d 7f7d a13d c881 843d
00000060: ac63 da3d 00b7 c8bd 5a04 133e ecb6 1bbd
00000070: a7e5 163e 9fba d9bc
0.12714753 -0.10352994 -0.14077139 0.038572583 -0.045923125 0.069356084 -0.044555295 0.1423471
-0.15828048 -0.14727007 0.16969942 -0.07173842 0.030784413 0.055443823 0.010361717 -0.10010931
0.023935998 -0.12440432 0.13727593 0.036789488 0.14111692 0.11495805 0.078852646 0.06470066
0.10663542 -0.098005295 0.14357129 -0.038016245 0.14736043 -0.026578246

func_approx.network.8.weight f4 [1, 30]
00000000: e2b6 af3d d79f 253e 9fa2 333d eb53 c4bd
00000010: be33 4a3e ff89 46be 9bd5 bebd 5c35 1cbd
00000020: cd4e f7bd 8aef 03bd 796d ad3d 9e88 6dbe
00000030: 72ea 6a3e ae97 e63d 49e5 8a3e 51c6 8abd
00000040: 7036 20be e7ad db3d 0cdb 563e e785 ffbd
00000050: e9e3 07be 335e 85bd afd0 7a3e 7254 f13c
00000060: 3b09 77be 5f91 f7bd 7679 f1bd a722 493e
00000070: 4360 2ebe f1ec 553e
0.08579804 0.16174255 0.04385626 -0.095863186 0.197463 -0.19388579 -0.09318086 -0.038136825
-0.12075577 -0.032210864 0.08468146 -0.23196647 0.22940996 0.11259399 0.27128056 -0.06776107
-0.15645766 0.107265286 0.20981997 -0.12476712 -0.13270535 -0.06512108 0.24493669 0.029459212
-0.24124615 -0.12088274 -0.11790745 0.19642125 -0.17028908 0.20891167
