paper/Burgers/runs/rand4checkpoint.pt (torch, 59671 bytes, 36 tensors)

func_approx.network.0.weight f4 [30, 2]
000000 16 a1 87 3a 75 e2 1e 3f b2 47 06 bf 90 48 3e bf
       0.001034769 0.62064296 -0.5245315 -0.7432947
000010 26 52 90 be e7 24 74 3e bf 7b a0 bd d1 c5 46 3f
       -0.28187674 0.23842202 -0.07836103 0.77645594
000020 00 47 bc bd 9c 16 b2 3e 9f 15 95 be 04 37 19 be
       -0.0919323 0.34782875 -0.29118058 -0.14962393
000030 c4 ed 4b bf 07 8d 39 bf 7d fd c0 bf 40 6d 53 3e
       -0.79659677 -0.72480816 -1.5077358 0.20647144
000040 4c e8 82 3e de 74 1b 3f 45 80 15 be 5c 70 d7 be
       0.25567853 0.607252 -0.14599712 -0.4207791
000050 6d 6d b0 3d e0 8e 3c 3f f4 9d 9f be 31 71 20 3f
       0.08614621 0.7365551 -0.31175196 0.62672716
000060 82 9d dd bd be 93 6e 3d 94 ea 4e 3f fe 67 50 bf
       -0.10821058 0.058246367 0.8082669 -0.8140868
000070 7a 63 02 bf bc 97 9b be 6f 8e 9f be f2 67 4e 3f
       -0.5093304 -0.30389202 -0.31163356 0.8062736
000080 04 e9 d8 be 03 e7 11 bf 26 fe e4 be fb f0 62 bf
       -0.42365277 -0.5699312 -0.4472515 -0.88648957
000090 f4 36 66 bf e4 58 4d 3f cd 1d c3 3e 62 a9 cf 3e
       -0.899276 0.8021376 0.38108674 0.40558916
0000a0 22 39 91 3d 30 db 04 bf 5d bf 85 3e 52 ef 4d bf
       0.07090975 -0.51896954 0.2612256 -0.804433
0000b0 4a c4 ea be b4 a8 16 bf a4 1b d4 3e d3 6d 05 3f
       -0.45852882 -0.5885117 0.41427338 0.52120703
0000c0 34 f7 e8 be 7e 20 01 3d 7c 7b ad 3e 3b d4 60 3f
       -0.455011 0.031525128 0.33883274 0.8782384
0000d0 0b 6a b1 3d d4 38 63 3e 0e 18 7f 3f f5 5f 0f bf
       0.08662804 0.22189647 0.9964608 -0.56005794
0000e0 01 b2 bb 3e 17 53 27 bf a0 47 c6 be 53 48 fd be
       0.36659244 -0.6536116 -0.3872652 -0.49469241

func_approx.network.0.bias f4 [30]
000000 72 7f a1 3e eb 5a 04 3e 92 0e c4 be 3c ce 8c 3e
       0.31542546 0.12925307 -0.38292366 0.27501094
000010 67 c3 ca 3e 71 c9 10 bd 19 e4 97 bc 93 33 e8 3c
       0.39602205 -0.03534836 -0.018541383 0.028344905
000020 96 53 c0 3e 8e 9e 1c 3f ad e1 0d bf 6f 8f 9f be
       0.3756377 0.61179435 -0.5542248 -0.3116412
000030 6b 82 8c 3e dd 90 0d 3f 8d c9 fe 3e dc fa 19 3f
       0.2744325 0.5529917 0.49763146 0.60148406
000040 37 c8 a7 3d 0c e5 0f bf a1 f4 4f be 6a 20 bd be
       0.08192485 -0.5620887 -0.20308162 -0.36938792
000050 80 3d 1c bf 7b 75 26 3f 66 e4 b7 3e ba 1a 28 bf
       -0.6103134 0.6502301 0.35916442 -0.6566578
000060 dd 74 25 3e 02 00 4e 3b 29 e0 3c be f5 3d 6b bd
       0.16157861 0.003143311 -0.18444885 -0.057432134
000070 e7 3e 54 3e 19 60 a5 be
       0.2072712 -0.3229988

func_approx.network.2.weight f4 [30, 30]
000000 d3 2c d1 3d 7b 85 3c 3d f7 58 28 3e 8d cc bd 3d
       0.10213628 0.046025734 0.16440187 0.092675306
000010 67 af 0a be f0 82 0c be d9 cb 7d 3d fb e2 45 3f
       -0.13543473 -0.13721824 0.061961982 0.7729947
000020 68 ee f4 bd fe e2 14 be 82 d7 82 3e 97 83 6f 3e
       -0.11959535 -0.14539716 0.25555044 0.23390041
000030 ca 7d ed bc 32 fc 4d be 37 43 05 be 37 71 95 bb
       -0.028990645 -0.20115736 -0.13013922 -0.0045606154
000040 48 f7 36 be 5d 7d 10 be 5c a6 c4 3d 64 bb 83 3d
       -0.17867768 -0.14110322 0.09602043 0.06432226
000050 8c 6d d0 bd 51 4a 97 bc a3 50 25 be 21 23 56 3e
       -0.101771444 -0.018468054 -0.16144042 0.20911838
000060 e2 f4 59 3e 2e 23 fa bd a6 6b c8 bc 0f b5 a4 bd
       0.21284822 -0.12213741 -0.024465393 -0.08042347
000070 5b 29 a4 bd 71 98 8e 3c fe 56 34 3a 4e be 94 3d
       -0.080157004 0.017406674 0.0006879418 0.0726286
000080 4c 26 25 be 4c b1 81 3c 40 b6 70 be 7b 7b 8a bd
       -0.1612789 0.015831612 -0.23507023 -0.06761833
000090 39 04 04 bc 05 e6 45 bf f3 75 ed bd a6 a8 5f bd
       -0.008057647 -0.77304107 -0.11594763 -0.054604195
0000a0 27 04 28 be e3 5b f5 bd 7c 24 32 be 11 49 3e 3e
       -0.16407834 -0.119804166 -0.1739673 0.1858256
0000b0 1a 59 2c 3e 88 19 8d bd b3 d2 91 3d df e3 aa 3c
       0.16830865 -0.06889635 0.07120266 0.02086061
0000c0 a9 9d fc bd 73 ce 8f 3c cd 6b 65 3e f8 e3 8b 3e
       -0.12334759 0.017554497 0.22404404 0.27322364
0000d0 f9 08 86 3e 4b 13 e9 bd 2a 5e 5c be 51 6e 1b be
       0.2617872 -0.11380633 -0.21520296 -0.15178801
0000e0 8b ea 58 3d 3a 8d 05 3e ed 09 6f 3d 89 c0 c0 bd
       0.052958053 0.13042155 0.058359075 -0.09411723
0000f0 d7 8f 3e be ea fb 16 be b9 f0 2e bd a0 32 48 3d
       -0.18609558 -0.14744535 -0.04271004 0.048876405
000100 ab 84 ee 3d 82 0e 37 be d4 77 f5 3d 43 b7 b2 bd
       0.11646398 -0.17876628 0.11985746 -0.08726361
000110 83 34 39 bd 39 95 47 bd 8a 1d 22 bd 5d ec 32 bd
       -0.045216095 -0.048726294 -0.039578952 -0.043682445
000120 4c ed 0f be 8a 60 51 be ae 62 7c bb b8 e8 5a bd
       -0.14055365 -0.20446983 -0.0038510966 -0.053444594
000130 2c 27 9e bd 68 61 e1 3d d2 fa 4d be f1 a8 19 bd
       -0.07722315 0.11004907 -0.20115212 -0.03751463
000140 c7 7b 17 3e b2 12 db bd 0b 07 45 3e 74 ec 3f 3d
       0.14793311 -0.10696925 0.19240968 0.04685636
000150 b6 92 c0 bd b1 bb 94 3d 20 d8 d9 bc c8 eb a6 bd
       -0.09402983 0.07262362 -0.026592314 -0.081504405
000160 77 43 1b 3e b6 c3 20 be 5f d9 eb 3d 25 d3 2b be
       0.15162455 -0.15699658 0.115160696 -0.16779764
000170 94 15 e1 3d e0 a9 05 3e 03 29 2f 3e cc b0 31 bc
       0.10990444 0.13053083 0.17105488 -0.010845374
000180 d9 5a 1e be 36 d7 83 3e c0 71 6e bd ba 12 a6 3d
       -0.15464343 0.2575013 -0.05821395 0.081090406
000190 24 70 83 3e 18 02 6f 3e 1d 08 81 bd b6 67 ad bd
       0.25671494 0.23340642 -0.063003756 -0.08467047
0001a0 14 97 f1 bd 99 b6 46 bd 50 53 6e be 13 b0 67 bc
       -0.11796394 -0.048513982 -0.23273969 -0.0141411
0001b0 72 7e 1d 3b 1c 81 a5 3d 23 7a 98 bd 26 0e ac 3c
       0.0024031666 0.08081266 -0.07445171 0.02100284
0001c0 c5 8b 74 be 12 fe 8f bd 35 7f 2a be 86 d5 71 3e
       -0.23881443 -0.07030882 -0.16650088 0.23616609
0001d0 0c 60 20 3d d5 f1 77 3d 44 20 35 bd 0c ca 8f bd
       0.039154097 0.060533363 -0.044220224 -0.07020959
0001e0 47 6a a8 3d b5 cb 14 be 8b c7 0c 3d 64 cb 96 3d
       0.08223396 -0.14530833 0.034369987 0.073630124
0001f0 ad 99 e0 3c f4 7e a3 bc af e3 81 be 74 44 84 bf
       0.027417028 -0.019957997 -0.2536902 -1.033339
000200 52 79 5c 3e 17 a8 3a be 26 48 91 bc 1a 4e 2f 3e
       0.21530655 -0.18228184 -0.017734598 0.17119637
000210 b7 4c 86 3d 43 4a 2f 3d fc e5 51 be 7b f9 4c 3e
       0.06557601 0.04279543 -0.20497888 0.20017044
000220 23 38 73 be c4 aa 37 be 8d d1 16 be 3a ab d9 3c
       -0.23751883 -0.17936236 -0.14728375 0.026570905
000230 16 72 06 bd e9 d6 31 3e 33 d7 0b bd a8 3b 52 3e
       -0.032823645 0.17367138 -0.034140777 0.2053057
000240 d0 88 b2 bb dd 83 e0 ba 2f 5b f9 3d 19 4b e9 3b
       -0.005448438 -0.0017129142 0.12175595 0.007119548
000250 43 6e 8e bd 82 53 51 3b bb 1d 50 3d b1 c9 d2 3d
       -0.069546245 0.0031940644 0.050809603 0.10292376
000260 47 4b 16 be e6 f4 16 bc 60 ee ac 3d ab 81 66 be
       -0.14677154 -0.009213662 0.08443904 -0.22510402
000270 e4 ed a0 3d 64 b7 d2 bf 0f 82 bc 3c 46 d1 8a bc
       0.07857874 -1.6462216 0.023011236 -0.016945492
000280 81 80 26 be 88 43 d4 bd 48 68 01 3e 11 07 f9 3d
       -0.16259958 -0.10364443 0.12637436 0.12159551
000290 1d 87 41 be cf bc 73 bd 13 8a 5b be 86 06 40 3d
       -0.18899198 -0.059506234 -0.2143939 0.04688122
0002a0 0c 25 84 be 64 70 c6 bd 12 ec e3 bd fd 98 75 3e
       -0.25809515 -0.096894056 -0.11129011 0.23984142
0002b0 15 f2 75 3d f1 61 0f 3e 88 4b 69 be d8 39 45 bd
       0.06004532 0.14002205 -0.22782719 -0.048150867
0002c0 b7 e1 26 bb 7a 7b 47 3e 35 01 8d 3e 4f 1a aa 3c
       -0.0025464126 0.19480696 0.27539983 0.020764498
0002d0 42 14 0e be 60 a3 ba bb 95 c5 60 be 59 a7 c9 bb
       -0.13874915 -0.0056957453 -0.21950372 -0.0061539826
0002e0 ed 89 1e be f9 90 14 be ec 85 55 3e ca b6 30 bf
       -0.15482302 -0.14508428 0.20851868 -0.69028914
0002f0 bf 5c 60 bd 7f 41 d1 3d f4 6b da bd f3 57 8b be
       -0.05477595 0.102175705 -0.10665122 -0.27215537
000300 12 f9 4f be 36 d9 ab 3e 46 a0 c7 3b 9b 81 0f 3e
       -0.20309857 0.33564156 0.006092104 0.14014284
000310 68 51 0a 3c 0e 11 82 3d 36 2c 5c be 38 8a 6b bd
       0.00844226 0.06350909 -0.2150124 -0.057504863
000320 8a 20 9e bd 7f 50 5c 3e 61 1f 0c 3e f0 19 67 bd
       -0.0772105 0.21515082 0.13683845 -0.05642122
000330 3f 23 4b be 5b 3c 3c be f5 5b a4 3d 10 b5 68 3c
       -0.19837664 -0.18382399 0.08025352 0.014203325
000340 f2 0b 67 3e 31 86 dc bc f2 48 a2 bd e6 06 bd 3c
       0.2256315 -0.026919456 -0.079240695 0.023074578
000350 9e bf fa bc 42 58 4c 3d 50 46 6e 3d 38 fb 0f be
       -0.030608948 0.049888857 0.058172524 -0.14060676
000360 c2 bf e4 3c 27 17 06 3f 20 5d 8b 3d 47 cf 0f be
       0.027923469 0.5237908 0.068048716 -0.14043914
000370 c2 e7 fe bc cd 15 01 3e 95 48 b0 3d 3c f4 7c be
       -0.03111637 0.12605973 0.08607594 -0.24702543
000380 a3 b5 5e 3d 6b 5c e5 3d 54 f1 f1 bd 2b 6a e6 3b
       0.05437244 0.11199268 -0.11813608 0.007031699
000390 b4 88 51 3e 6a 44 ad 3d 27 8c b6 3c 6b 07 28 be
       0.20462304 0.084603146 0.022283627 -0.1640908
0003a0 cd 36 5c be 08 d4 d9 3d c4 ae 4c 3e 89 86 2a 3e
       -0.2150528 0.10636145 0.19988543 0.16652884
0003b0 d7 b4 20 3e be a6 20 bd 74 00 6a bd b1 a9 b8 bd
       0.15693985 -0.039221518 -0.05712934 -0.09016741
0003c0 cc 13 60 be c7 19 99 bc bb ab 1d 3e f1 7a 4f 3d
       -0.21882552 -0.01868905 0.15397541 0.050654355
0003d0 06 7e 24 be bb 8c c7 3d 3e 73 6e 3e 0a e7 53 bd
       -0.16063699 0.09743639 0.23286149 -0.051734008
0003e0 a8 b8 ce 3d 3e 03 4f 3e ec 5e 18 be 5f 52 27 be
       0.10093814 0.2021608 -0.1487996 -0.16340016
0003f0 cc da 0f 3e 5c 78 31 3e ee ba 87 bd 43 7c 06 3e
       0.14048308 0.1733107 -0.06627451 0.1313334

func_approx.network.2.bias f4 [30]
000000 0d c3 36 3d f6 14 05 3e c1 15 21 3d a1 86 76 bc
       0.04461961 0.12996277 0.039327387 -0.0150467465
000010 53 c8 01 3e 9f d8 0e 3d ba 29 96 3c 49 46 3d bd
       0.12674074 0.034874555 0.018330444 -0.046209607
000020 7e b3 89 3c 72 06 0a 3b 78 6c fa bb 76 34 94 bd
       0.016809221 0.002106097 -0.007642325 -0.07236569
000030 f0 ca 7a 3c f6 c8 0f be 67 26 b4 bc 99 27 c3 3d
       0.015307173 -0.14041504 -0.021990968 0.09529037
000040 dc 42 3f bd d6 3e 3f be 21 6e 12 bd 90 98 39 3c
       -0.04669462 -0.18676314 -0.03574956 0.011327878
000050 b2 1e 22 3e fd ac 94 bb a3 4f 9f 3d 6e a4 f3 bd
       0.15832022 -0.0045372234 0.077788614 -0.11896597
000060 7f e6 c1 3c 6e 1f c7 3d 59 5c f9 3d f5 4a e7 bc
       0.02366948 0.097227916 0.12175817 -0.028233984
000070 2d 3c d4 bd c9 28 80 3d
       -0.1036304 0.06257779

func_approx.network.4.weight f4 [30, 30]
000000 db 52 3c 3e 31 36 58 be 09 e0 c8 bd b6 62 ef 3d
       0.18390982 -0.21114422 -0.09808356 0.116887495
000010 ab 44 a9 bc 90 50 8b be f0 64 80 be a3 16 e3 3d
       -0.020662626 -0.27209902 -0.2507701 0.11088302
000020 85 0d 38 be 01 85 53 3e 7a 7a ff 3d 9d af 03 3d
       -0.17973907 0.20656206 0.124745324 0.0321499
000030 34 cf 9d bd 0e 31 65 3d 78 82 11 be 8c 39 80 3d
       -0.077055365 0.055954985 -0.14209926 0.06260976
000040 b7 4a 90 be 1c b9 18 be b6 02 74 be 8e e7 06 3e
       -0.28182003 -0.14914364 -0.23829159 0.13174269
000050 be 32 68 be fe 76 4e 3e 58 e8 5d bd cd 12 11 be
       -0.22675607 0.2016258 -0.05417666 -0.14167328
000060 f2 ce 85 3e a3 b5 ef 3d 74 5c 4b 3b 14 26 05 3e
       0.2613445 0.11704566 0.0031030448 0.13002807
000070 23 5c 57 be f9 b6 15 3e 3e 85 24 bd 62 e2 a7 bd
       -0.21031241 0.1462058 -0.040166132 -0.08197476
000080 39 38 ed 3d e9 1d 19 3e 94 9d d8 bd d8 f4 3d bd
       0.11582989 0.14952816 -0.10576931 -0.04637608
000090 ad bf 42 3e 5d b0 0f 3e de 99 26 3e 3f 5c af bd
       0.19018431 0.14032121 0.16269633 -0.085625164
0000a0 a0 52 1c be 14 2b 48 3e 62 50 52 3d ef 3a 14 3e
       -0.15265894 0.19547683 0.05134619 0.14475606
0000b0 8d 6f e7 bd 1b 15 99 bd ce a4 38 bd a7 c3 0a be
       -0.113005735 -0.07474729 -0.045079045 -0.13551198
0000c0 13 b2 4a 3b 55 a9 05 3e ea e8 40 3c 2c e0 30 3d
       0.0030928894 0.13052876 0.011774281 0.043182537
0000d0 4b 0a af 3c eb cf 06 be 71 8f 09 3e c5 a5 49 be
       0.021367213 -0.13165252 0.13433625 -0.19692142
0000e0 4c e9 fd bd b7 ed bb bb ff 18 67 3e 12 92 75 bd
       -0.123980135 -0.005735125 0.22568129 -0.059953757
0000f0 d9 f9 df 3c e4 f8 bd bd bd db 30 3d 3f 69 8d bd
       0.027340816 -0.09275988 0.04317831 -0.0690484
000100 91 3c 05 3d 95 de 68 3e 55 33 8d 3d 05 a5 a9 bd
       0.032528464 0.22741158 0.068945564 -0.08283428
000110 96 1e 60 bc 96 70 e4 bd fa b3 65 bc 1f fb 91 3d
       -0.013679167 -0.111542866 -0.014019961 0.07127976
000120 ca d5 17 bd 69 5a f7 3d f3 79 d0 bb 89 a4 85 bd
       -0.03706912 0.12077791 -0.0063621937 -0.06525523
000130 d3 a6 09 3d c0 d6 3e be a2 f3 90 3d 80 d0 3b bd
       0.03360636 -0.18636608 0.07077719 -0.045853138
000140 00 36 59 3d 84 b2 bd bd 28 f6 6e 3e 35 83 03 3e
       0.053030014 -0.09262565 0.23336089 0.1284302
000150 2c ec c3 bd f9 2b dc 3d a3 6d 30 be c1 65 51 be
       -0.095665306 0.107505746 -0.17229323 -0.20448972
000160 81 52 ad bc b2 dd 9a 3d fc 2d 4b bd 70 bf 84 be
       -0.021157505 0.07561816 -0.0496044 -0.25927305
000170 80 ab 5b be 28 b0 36 3d 03 24 f3 bd b4 4b a6 be
       -0.21452141 0.04460159 -0.11872103 -0.32479632
000180 1a 68 28 3c 9f 0c 9d bc b1 71 0c be b1 e7 91 bd
       0.010278726 -0.019171057 -0.13715245 -0.0712427
000190 a2 ab 11 be 8e f0 cc bd e3 df 28 be 6d 9e 38 3e
       -0.14225629 -0.1000682 -0.16491656 0.18029185
0001a0 a2 45 98 be 7c 44 d5 bc 20 a9 a0 be 9f 99 a7 b9
       -0.29740626 -0.026033632 -0.31379032 -0.0003196718
0001b0 56 06 86 bd 7e af 0f bd 5d d5 b8 be 6a 60 78 3e
       -0.06544177 -0.03507947 -0.36100283 0.24255529
0001c0 6f b4 f3 bd 12 0e 4a 3e 41 bb ba 3d 4d 0d 38 bd
       -0.11899649 0.1973193 0.09117747 -0.04493456
0001d0 a3 3e 8c bb 87 78 20 3e fc 0c 8f 3e 02 b1 a6 be
       -0.004279928 0.15670978 0.27939594 -0.3255692
0001e0 7a 4d a7 bc f3 18 e3 3d bf 51 3f bd ee ae b8 bd
       -0.020422686 0.11088743 -0.04670882 -0.0901774
0001f0 25 73 92 3d 01 b2 20 be 00 60 ca 3d 6a 70 55 be
       0.07150868 -0.15692903 0.09881592 -0.20843664
000200 10 8c 32 3e de 5e 36 be 53 b3 17 3e f2 0b 44 be
       0.17436242 -0.17809626 0.148145 -0.19145182
000210 0f 23 c6 bd cc 30 da bd 0e 6f 56 3e f8 84 2d be
       -0.09674656 -0.106538385 0.20940802 -0.16945255
000220 6a 5b 07 bd c4 ad 65 3e ac 54 95 3c 23 39 a3 3d
       -0.033046164 0.22429568 0.018228851 0.07969882
000230 2b 6d 04 be 88 0f c7 bd 8b a8 9b bd 20 01 17 3e
       -0.1293227 -0.09719759 -0.076005064 0.14746523
000240 18 a6 c7 bc 26 66 0e be 46 51 b9 3d cd 3c 22 bd
       -0.024371192 -0.13906154 0.09048705 -0.039608765
000250 d8 ed 88 bd 86 e3 e2 bd 45 88 10 be d8 0d 73 3e
       -0.0668599 -0.11078553 -0.14114483 0.2373575
000260 f8 84 1a be 40 1e 46 be cf de 6c bd 62 83 13 3e
       -0.15089786 -0.19347477 -0.057829674 0.14405587
000270 5e f8 4b 3e 8f aa 87 bd 92 82 cc 3d 7a 32 57 be
       0.19918963 -0.06624328 0.09985842 -0.21015349
000280 79 7a d0 bb 79 96 9b bd 58 25 80 3e 15 e6 96 be
       -0.006362256 -0.0759706 0.2502849 -0.29472414
000290 6a a3 44 bc 86 0e 31 be 88 5c 39 3c 66 22 6f 3e
       -0.012001852 -0.17290697 0.011313565 0.23352966
0002a0 11 77 90 3e d5 6e 28 be 0d 08 e0 3d 9e 4b 8b 3d
       0.2821584 -0.16448529 0.109390356 0.06801532
0002b0 e1 b4 9a 3d d4 57 2c 3e 45 c0 32 be 51 e3 11 be
       0.07554031 0.16830379 -0.17456158 -0.1424687
0002c0 ad f9 83 3e 11 45 cc bd 7e e5 f2 3d 7c 25 81 bd
       0.25776425 -0.09974111 0.118601784 -0.06305978
0002d0 93 e2 8f 3d df 16 5b 3e 52 81 c9 3e d8 aa 39 be
       0.070256375 0.21395443 0.39356476 -0.18131578
0002e0 0d 08 65 be 6f 53 42 3d f7 55 33 be 61 e5 da 3d
       -0.22366352 0.04744285 -0.17513262 0.10688282
0002f0 56 aa 89 bd 44 07 95 bd fe e1 02 bd db 17 70 be
       -0.06721942 -0.072767764 -0.031953804 -0.234466
000300 0d fe 90 3d 7e 6f 6a be 2f 59 0e be db 11 dd bd
       0.07079706 -0.22894093 -0.13901208 -0.10794421
000310 07 17 38 3d 2a 94 1b 3d 84 49 9b bd 81 a8 40 3d
       0.044943836 0.037983097 -0.07582381 0.047035698
000320 c0 0b 6f 3e 3d 7f f2 bc ac 03 b9 3d 84 14 6d be
       0.23344326 -0.029601688 0.090339035 -0.23152357
000330 9f 89 91 bd a1 c5 9e 3e b7 ea 4a be 4d b8 9a 3d
       -0.07106327 0.31010154 -0.19816099 0.07554684
000340 fd c8 6d 3d c3 33 68 bd 0e 99 bd 3d c4 07 9f 3e
       0.058053005 -0.05668999 0.092577085 0.31060612
000350 5c f2 bc 3c b4 cf 39 be 2d a4 36 3d 63 cd b6 3c
       0.023064785 -0.18145639 0.044590164 0.022314733
000360 63 d3 1b 3e 84 af 1a bd 3c 32 21 3e 47 cb 2f be
       0.15217356 -0.03776504 0.15741819 -0.17167388
000370 84 63 9d bd a2 43 0b 3d 38 b8 04 3e 2f ec aa be
       -0.07684997 0.034000047 0.12960899 -0.3338332
000380 1c 49 35 bc 19 54 47 be 68 5d a7 bd 79 2c c1 3d
       -0.011064794 -0.19465674 -0.08172113 0.094323106
000390 8c 37 81 3e 16 f4 58 bd ed 8a 7e 3e 39 24 c7 3d
       0.2523769 -0.052967153 0.24857683 0.09723706
0003a0 69 14 38 3e 2b ec 95 be df b8 94 bd d8 70 40 3e
       0.17976536 -0.29281744 -0.07261824 0.18793046
0003b0 cc 20 43 3e ba 1e 60 be 45 19 a1 3c 73 9f 78 3e
       0.1905548 -0.21886721 0.01966537 0.24279575
0003c0 78 da 43 be d2 47 b8 3d 51 2f a5 3e fb 45 12 bc
       -0.19126308 0.08998074 0.32262662 -0.008927817
0003d0 f0 18 c7 3d d9 18 7a 3e 71 8b a5 3d d8 67 bb 3d
       0.09721553 0.24423541 0.08083237 0.09150666
0003e0 78 c4 e5 3d 1e 0a 2b 3e b2 da c2 3c b5 aa 23 3e
       0.11219114 0.16703078 0.023785923 0.15983088
0003f0 29 29 05 be 14 21 da be cf e2 35 3e 7a 23 b4 bd
       -0.13003983 -0.42603362 0.17762302 -0.08795829

func_approx.network.4.bias f4 [30]
000000 e3 e9 54 bd 52 63 99 bd bf 76 e1 bb 0e ce e9 3d
       -0.051980864 -0.07489647 -0.0068806107 0.11416255
000010 72 7d 45 3c f5 48 f4 3d 1d 13 13 ba 8d 41 85 3d
       0.012053834 0.11927978 -0.0005610453 0.065066434
000020 e3 50 0f 3c 24 32 4c 3c 80 f5 2c be e5 e8 f0 bd
       0.008747312 0.012463126 -0.16890526 -0.11763171
000030 dc 6d 67 3c 1e e6 b7 3d 63 dd d7 3d 3a a8 fc 3b
       0.014125314 0.08979438 0.10540273 0.007710484
000040 a0 ff 8f 3d 72 00 9d 3d 4b ea f8 bd de 81 d3 bd
       0.070311785 0.076661006 -0.12154063 -0.103275046
000050 06 e7 b7 bd 12 2b 59 bc 81 73 e4 bd 5a 2b 3d bd
       -0.08979611 -0.013254898 -0.11154843 -0.04618392
000060 28 f2 4b bd 41 95 8d 3d 66 ba 09 3d 0a c4 0a 3e
       -0.049791485 0.069132335 0.03362503 0.13551345
000070 80 17 1c 3e bf 53 d0 bd
       0.1524334 -0.10172223

func_approx.network.6.weight f4 [30, 30]
000000 9b 87 e7 3b b9 88 92 bc 8e 0b 5f 3e 5b 45 2d be
       0.007065726 -0.01788746 0.21781752 -0.16920988
000010 9f ea 45 bd 32 f8 0c be ee b0 4b 3d e6 07 58 bd
       -0.048319455 -0.13766554 0.04972928 -0.052741908
000020 6d 69 cb bd 48 b6 37 3e 69 ac 91 3e 71 89 09 bd
       -0.09932218 0.17940629 0.2845185 -0.03357834
000030 b1 b1 4d be 8f f7 9a 3e 7e fa a4 bd 1c 9a b4 bc
       -0.20087315 0.30266997 -0.0805559 -0.022046141
000040 57 38 d5 bd d1 9f ab bd 81 d8 0e be 85 2d 0a be
       -0.104111366 -0.08380092 -0.13949777 -0.13493927
000050 a9 cc 42 be 81 67 07 bd 55 2a 2e 3e b9 b3 ff bd
       -0.19023384 -0.033057693 0.17008336 -0.12485451
000060 1d 00 b1 bd 61 ea bf bd c8 19 59 3e 1c a9 5c 3e
       -0.086426 -0.09370876 0.21201241 0.21548885
000070 94 2f 27 3d e3 68 da bc d9 50 23 be 42 a5 f2 bd
       0.04081686 -0.026661342 -0.1594881 -0.11847927
000080 d2 eb ea 3d e1 8b b0 3d 57 4f 44 3d b5 96 23 3b
       0.114707604 0.0862043 0.047927227 0.0024961655
000090 13 10 7f 3e 88 6f fb bd ed 4c 6b 3d b5 ae 36 3e
       0.24908476 -0.12277132 0.05744641 0.17840083
0000a0 a6 1c 5d be b9 e1 ab bd 02 6f 03 3e ed f9 ff bd
       -0.2159296 -0.083926626 0.12835315 -0.124988414
0000b0 e0 db f8 bd c4 c3 2b 3e de c5 1d bc 5e e3 e9 3b
       -0.12151313 0.16773897 -0.009629695 0.0071377
0000c0 7a fc 8b bd a0 d2 0a 3e 1c 79 00 3e 84 c0 f3 3d
       -0.068352655 0.1355691 0.125462 0.11901954
0000d0 48 a2 13 b8 db 3b 0c 3e 35 57 08 3e 61 f9 05 be
       -3.5198667e-05 0.13694708 0.13314517 -0.13083412
0000e0 ab 27 df bd 44 99 a3 3d 96 56 0a be c7 66 10 3e
       -0.10896238 0.079882175 -0.13509592 0.14101706
0000f0 41 fc 1c be da 55 90 3d 41 a2 91 bd 64 e5 e7 3d
       -0.15330602 0.07047625 -0.071110256 0.1132305
000100 f8 e6 a9 3d fc e0 7a 3d a2 b0 d1 3d 91 56 2e 3e
       0.08296007 0.061249718 0.10238768 0.1702521
000110 f2 4d fb bd e1 76 0f be 1a 3b 47 be 7c d0 e2 bd
       -0.12270726 -0.14010192 -0.19456139 -0.110749215
000120 e9 f6 44 3d be 3d 1e be 42 1c bb 3c c7 c2 0a 3d
       0.048087034 -0.1545324 0.022840623 0.03387716
000130 3b 02 f9 3d bf 59 c0 bd d0 10 87 bd 90 0f 0a 3e
       0.121586286 -0.09392118 -0.065950036 0.13482499
000140 f3 3b 11 bd ba 45 85 3e 78 57 bf bd 4a 19 b5 3c
       -0.035457563 0.2602976 -0.09342855 0.022106785
000150 eb 1c b8 bc 75 9f 15 3d 9d 5b c2 bc f9 03 ec bd
       -0.022474727 0.036529023 -0.023725325 -0.11524195
000160 50 f7 ae 3d 14 0f 56 bd 88 fc 60 bd 9e 69 0c 3d
       0.08543265 -0.052260473 -0.054928333 0.034280412
000170 17 d2 30 3d 09 25 9e 3e 34 8c d6 3d b0 97 89 3d
       0.043169107 0.3088763 0.104759604 0.06718385
000180 23 99 3f 3e 33 1f 31 bd 6e e9 97 bd 08 ec 8c bc
       0.18710761 -0.043242645 -0.0741757 -0.017202392
000190 2f 01 5e be 27 c0 a5 3d db 4f 05 3e 84 61 8b be
       -0.21680139 0.08093291 0.13018744 -0.27222836
0001a0 5f b3 50 3c 8c 23 b7 bd 5c 4d fd 3d 67 4d 07 3e
       0.012738078 -0.08942327 0.12368271 0.1321312
0001b0 20 d8 2d be 33 5f ac 3d d3 38 05 3e d9 54 90 3e
       -0.16976976 0.08416595 0.13009958 0.28189734
0001c0 19 0b e9 bd 70 2d 4a 3d 4b 19 18 3e e5 84 4a 3e
       -0.1137907 0.04935974 0.14853399 0.19777258
0001d0 68 12 ad be 20 18 09 be 61 ab 40 be ee c7 3e be
       -0.33803105 -0.13388109 -0.18815376 -0.18630955
0001e0 7f c3 0c 3d 29 79 40 3e 1b 18 87 be 81 9e 10 3e
       0.034366127 0.18796219 -0.2638558 0.14122964
0001f0 39 4e 84 3e 89 66 aa bd 6b 95 c3 bc 0f b9 88 bd
       0.2584093 -0.08320338 -0.023874959 -0.06675922
000200 78 05 cb bc 0d c8 30 bd 67 cc 83 bd e5 38 d1 bd
       -0.024782881 -0.043159533 -0.06435471 -0.1021593
000210 d1 b3 c8 be 9f 3e b2 3d 11 71 0e 3d b5 f8 b2 bd
       -0.3919969 0.0870335 0.034775797 -0.08738843
000220 bb ef 2c be ef e3 ad 3d 17 64 43 be 28 d8 35 bd
       -0.16888325 0.084907405 -0.1908115 -0.044395596
000230 b1 db 29 be 14 b0 29 be 95 96 ed 3d f6 5e 8a bd
       -0.16587712 -0.16571075 0.11600987 -0.067563936
000240 37 d9 a4 3c f4 39 80 bc 62 e0 ba bc f2 9f 26 3b
       0.020123107 -0.015652634 -0.022812072 0.0025424925
000250 51 99 60 be 34 2d 42 3e 49 e1 b4 be 6d 7d 90 3c
       -0.21933486 0.18962556 -0.3532813 0.017637933
000260 78 52 da 3c 15 79 05 ba 27 ca 40 3e 60 59 78 3e
       0.026650652 -0.000509159 0.18827115 0.24252844
000270 6c 49 49 3d dc a8 28 3c ea 79 62 3e 04 85 33 3e
       0.049142286 0.010294165 0.22116819 0.1753121
000280 2f 85 45 3c b7 77 d1 bd c6 87 19 3d 3d 20 cf 3d
       0.012055679 -0.10227912 0.037483 0.10113571
000290 43 b5 67 3d 26 20 07 bd aa 8d 98 be eb d2 8c be
       0.05656935 -0.032989644 -0.2979558 -0.27504668
0002a0 9c 1e 08 3e 88 04 a7 bc ee 79 68 bc 9e cf 46 3e
       0.13292927 -0.020387903 -0.014189227 0.19415137
0002b0 90 02 01 be e5 57 05 3e 51 28 1c bd 64 d5 51 3d
       -0.12598634 0.1302181 -0.038124386 0.051228896
0002c0 6c 85 10 3e 86 3f 0e 3e 13 ee 03 3e 6a 3a 49 be
       0.14113396 0.1389142 0.12883787 -0.1965119
0002d0 0e f1 21 bd ac cc a6 bc 25 82 ec bd a2 7c a6 3c
       -0.03953653 -0.020361267 -0.115482606 0.020323101
0002e0 cd 72 3e be 4f ec 68 3d 8c c1 32 3e 7a 55 45 be
       -0.1859848 0.056865986 0.17456645 -0.19270888
0002f0 23 99 0b 3e 2f 86 98 3d 3b 09 f1 bd 18 0e 34 3e
       0.13632636 0.074474685 -0.11769339 0.17583501
000300 ef 58 cc bd 74 7f a3 bd 61 d2 10 be 7c 31 21 3d
       -0.099779 -0.07983294 -0.14142753 0.039353833
000310 c9 4e c1 3d 8c aa 86 bc 9f 8b 3d be 04 17 05 bd
       0.09438855 -0.016438745 -0.18510292 -0.032492653
000320 09 0f 23 3e 64 75 18 3e 7a 0b 07 3e 5f cb 08 bd
       0.15923704 0.14888531 0.13187972 -0.033397075
000330 0f 50 69 3c 36 7e 21 be 96 b0 0c 3e 27 8c 39 be
       0.014240279 -0.15770802 0.13739237 -0.1811987
000340 59 f2 e6 bc 46 85 23 bd c5 94 aa 3d 21 ab 2d 3c
       -0.028191732 -0.03992202 0.08329157 0.010599882
000350 f0 2d 84 bd d8 6b b0 3d b7 61 21 be 7d 3b db 3a
       -0.064540744 0.086143196 -0.15759932 0.0016726103
000360 23 55 00 3e 7e c8 22 3d 79 9a c4 bb dc 94 f2 3d
       0.12532477 0.039741985 -0.00599986 0.11844799
000370 bf b2 33 be 7c 75 c6 bd 35 b7 6d 3e df 33 5e bd
       -0.17548655 -0.09690377 0.23214419 -0.054248687
000380 ec e4 8d bc b3 57 b9 3d 67 54 45 3d f7 8d 9d bd
       -0.017321073 0.090499304 0.048176195 -0.07693093
000390 5c 6a c6 bd a1 59 81 bc 05 48 a5 3d 49 d3 b7 3d
       -0.09688255 -0.015789809 0.08070377 0.08975846
0003a0 18 0c a4 3d 64 81 bf bd 63 3a 50 bd 1f 49 e7 3d
       0.08010119 -0.09350851 -0.050836932 0.112932436
0003b0 b8 ec 3e bd d6 df 8e 3c c3 49 ce 3c bd 76 bf bd
       -0.04661247 0.017440718 0.025181657 -0.093488194
0003c0 7f 58 08 be bd 39 5a 3d aa df 5b bc 27 af 0d bd
       -0.13315009 0.05327772 -0.013420025 -0.034590866
0003d0 72 75 18 3d 8d 74 cd 3d cc 61 8a 3d 33 58 8a bd
       0.03722138 0.10031996 0.067569345 -0.06755104
0003e0 11 b5 db bc 4c 86 c4 bd 53 48 9d 3d 37 11 0a be
       -0.026819738 -0.095959276 0.076798104 -0.1348313
0003f0 81 19 2c 3e 04 7d 87 3b 00 93 1a be b3 f7 10 3e
       0.16806604 0.004134776 -0.15095139 0.1415699

func_approx.network.6.bias f4 [30]
000000 c2 23 97 bd 1c 36 3e 3d 83 d7 05 be 62 dd 8e 3c
       -0.07379867 0.04643832 -0.13070492 0.017439548
000010 1e 29 d7 bb 23 00 85 3d c6 30 8f 3d a1 b0 e6 bd
       -0.006566181 0.06494167 0.06991725 -0.11264158
000020 60 79 9a 3d 1f 55 03 3e 0f 8b 06 3c 45 a2 b5 3d
       0.07542682 0.1282544 0.008211865 0.08868841
000030 33 e6 9f bd a0 80 17 3d ca f2 32 3d 17 74 9f bd
       -0.07807579 0.0369879 0.043688573 -0.07785814
000040 3b 0d ab 3d 7a b0 30 be 00 69 78 bd 46 a0 bb bd
       0.08352133 -0.1725482 -0.06064701 -0.09161429
000050 c8 65 e5 bd 56 07 b8 bd da 1c 1f be 08 1f f7 3c
       -0.11201054 -0.08985774 -0.1553835 0.030166164
000060 e1 c4 85 bc 5e 05 17 be 8a 3e b0 3c 08 97 f2 bc
       -0.01632923 -0.14748141 0.021514196 -0.029613033
000070 eb b6 79 3d 48 52 05 be
       0.06096546 -0.13019669

func_approx.network.8.weight f4 [1, 30]
000000 04 d6 fe bd ac 04 19 3e 3c 49 17 3e 51 94 ea 3d
       -0.12443164 0.14943188 0.1477403 0.1145407
000010 e6 67 cc bd aa 33 68 3e 41 a4 e0 3d ab cf f5 3d
       -0.099807546 0.22675958 0.10968829 0.120025
000020 69 2d 09 3e ff 7b 7e be ac 59 ad 3d 41 5b 8a 3c
       0.13396229 -0.24851988 0.08464369 0.016889216
000030 b0 7c aa bd 29 a0 1b 3e 96 e5 c3 3c 3d 3b 74 3e
       -0.083245635 0.15197815 0.023913186 0.23850723
000040 1d 57 78 3d 44 a7 1b be 56 63 5e 3e d9 6f 36 bd
       0.060629953 -0.15200526 0.21717581 -0.04454026
000050 a6 f3 4b 3e a6 c1 9d 3d bf 34 d5 3d 3c 8b 3a 3e
       0.19917163 0.07702951 0.10410451 0.18217176
000060 d6 3e a2 3d d2 88 63 bd 4d 1c 71 bd 57 52 0c be
       0.07922141 -0.055550404 -0.05886488 -0.13703285
000070 f5 3e c4 3c 2d 69 95 bd
       0.023955802 -0.07295451

exp_avg f4 [30, 2]
000000 3c f5 bd 32 d0 25 3a b5 ac 9e 9b 34 fc f1 0d b5
       2.2114016e-08 -6.9345424e-07 2.898645e-07 -5.2878727e-07
000010 ac b6 ec 34 d0 a2 f0 34 46 73 8d b3 8e d4 22 b5
       4.4091337e-07 4.4821945e-07 -6.586792e-08 -6.065901e-07
000020 e1 01 cd b4 21 b2 95 b5 5a e4 d5 34 33 4c a7 35
       -3.8185593e-07 -1.1153207e-06 3.984049e-07 1.2464646e-06
000030 11 32 08 35 8a fa 17 35 e7 c7 e2 36 7c 5e ea 35
       5.0736804e-07 5.6616466e-07 6.7585966e-06 1.7461857e-06
000040 1c 67 4b b4 2a b0 c3 b4 25 b1 6c b4 c9 c0 22 34
       -1.8943359e-07 -3.6449757e-07 -2.2043658e-07 1.515756e-07
000050 dd 1e db 34 3b fc 82 b5 f1 2e 35 35 5a af 8f b5
       4.0814385e-07 -9.759164e-07 6.7496063e-07 -1.0705364e-06
000060 51 a6 d2 b4 67 82 a6 b5 2c 3e a5 b5 23 bc 3c 35
       -3.923656e-07 -1.2405916e-06 -1.2311552e-06 7.030923e-07
000070 63 04 7f 35 2f 6f 28 35 81 68 ad 34 61 fa 8f b5
       9.5001286e-07 6.274667e-07 3.2299798e-07 -1.07272e-06
000080 bd 51 28 35 3e c2 cd 33 78 cc af 34 48 2c 00 36
       6.270382e-07 9.581389e-08 3.274506e-07 1.9099261e-06
000090 ff c1 b3 35 69 93 70 34 12 3c b0 b4 08 c6 27 b5
       1.3393e-06 2.240537e-07 -3.2826262e-07 -6.250052e-07
0000a0 69 0f 3a b4 12 4c cc 35 65 d0 87 b4 b3 20 97 35
       -1.7328206e-07 1.5221324e-06 -2.5297336e-07 1.1259893e-06
0000b0 60 84 f5 34 59 67 c0 35 a8 ab 8b b3 b5 6c fa b4
       4.5731122e-07 1.4335193e-06 -6.503916e-08 -4.6645224e-07
0000c0 95 71 25 36 17 b0 df 35 f3 5c 8d 34 f3 f5 8f 34
       2.465303e-06 1.6666044e-06 2.6330926e-07 2.6814777e-07
0000d0 a7 a6 e3 b4 df fd 09 b5 50 a9 d5 b5 a8 2f 2d 35
       -4.24033e-07 -5.140591e-07 -1.5919013e-06 6.451687e-07
0000e0 d4 24 56 b5 9f 1f 16 35 5d 5b 94 34 87 9c 3e 34
       -7.9774804e-07 5.592537e-07 2.7633624e-07 1.7752073e-07

exp_avg_sq f4 [30, 2]
000000 21 6f 10 26 93 65 07 2b 56 42 bd 29 09 aa 9d 2a
       5.0110644e-16 4.8102597e-13 8.4047935e-14 2.8006788e-13
000010 77 e1 5a 2a ac 37 62 2a 72 b1 9c 27 e3 25 cf 2a
       1.9440513e-13 2.0092147e-13 4.3491085e-15 3.6796876e-13
000020 08 32 24 2a 8b 13 af 2b 80 b8 32 2a f7 c1 da 2b
       1.4583484e-13 1.2439922e-12 1.5873587e-13 1.5543668e-12
000030 cb f6 90 2a 14 73 b4 2a e7 ef 48 2e 08 a7 56 2c
       2.5750786e-13 3.2054275e-13 4.568781e-11 3.050395e-12
000040 95 a1 21 29 05 9b 15 2a 56 d8 5a 29 38 f4 ce 28
       3.588933e-14 1.3287642e-13 4.8593365e-14 2.2976507e-14
000050 68 97 3b 2a 42 0b 86 2b dc 3b 00 2b 87 57 a1 2b
       1.6661466e-13 9.524397e-13 4.5557807e-13 1.1464032e-12
000060 3e 59 2d 2a 27 b0 d8 2b a4 65 d5 2b 25 40 0b 2b
       1.5396449e-13 1.5396615e-12 1.5162771e-12 4.947174e-13
000070 17 1f 7e 2b ad a4 dd 2a fd f6 ea 29 a6 fc a1 2b
       9.0282073e-13 3.9371753e-13 1.0434533e-13 1.1509862e-12
000080 68 5c dd 2a 14 7e 27 28 60 85 f1 29 f8 5f 80 2c
       3.9321606e-13 9.297701e-15 1.0725687e-13 3.6486335e-12
000090 5c 82 fc 2b d0 32 62 29 07 c9 f2 29 9a ee db 2a
       1.7941859e-12 5.0226154e-14 1.07818316e-13 3.9067778e-13
0000a0 e1 3a 07 29 f7 15 23 2c cf 1f 90 29 6f 70 b2 2b
       3.002709e-14 2.3175886e-12 6.4004025e-14 1.2678867e-12
0000b0 bd 7c 6b 2a 46 9b 10 2c c0 d6 98 27 bc fa 74 2a
       2.091547e-13 2.0549825e-12 4.2421307e-15 2.1758544e-13
0000c0 c3 e1 d5 2c e2 af 43 2c 2a 42 9c 29 37 67 a2 29
       6.0788887e-12 2.7808801e-12 6.939269e-14 7.21215e-14
0000d0 34 74 4a 2a 98 c6 94 2a ca 5d 32 2c 88 53 ea 2a
       1.798152e-13 2.6427883e-13 2.5347385e-12 4.1624711e-13
0000e0 1a 24 33 2b 24 37 b0 2a b0 f3 ab 29 48 0c 0e 29
       6.3643676e-13 3.1302142e-13 7.6361985e-14 3.1540986e-14

max_exp_avg_sq f4 [30, 2]
000000 00 4c e8 35 db 8d 53 36 01 96 30 35 2e ea ab 35
       1.7307466e-06 3.152402e-06 6.5783394e-07 1.2808648e-06
000010 bc b5 bf 35 37 46 9f 37 99 3d 5e 35 99 f5 d6 35
       1.4283501e-06 1.8986973e-05 8.279108e-07 1.6015721e-06
000020 c1 65 05 36 6c 4c 40 37 24 b8 7d 34 c5 ce 81 35
       1.9877773e-06 1.1461885e-05 2.3629451e-07 9.671427e-07
000030 1b e0 af 34 78 89 95 35 a6 de ed 34 36 ac 55 35
       3.2759348e-07 1.1141374e-06 4.4306688e-07 7.9599283e-07
000040 17 36 8e 35 1c 53 d7 35 87 d1 a4 34 71 7a ce 35
       1.0595567e-06 1.6042936e-06 3.0699832e-07 1.5383831e-06
000050 3c c4 96 35 18 07 f5 35 d9 c7 4e 36 a6 74 81 36
       1.1232983e-06 1.8255987e-06 3.0812719e-06 3.8580793e-06
000060 61 13 c0 36 0c bc 1a 37 6d 30 0c 36 73 9a 41 37
       5.724302e-06 9.222898e-06 2.0889813e-06 1.1539657e-05
000070 f2 4b 06 35 16 ef bc 36 f4 18 b4 36 b7 fc 01 37
       5.0029405e-07 5.63067e-06 5.367323e-06 7.747839e-06
000080 8f 00 8b 35 99 9b fa 35 2f b1 8a 36 78 9a 2d 37
       1.035647e-06 1.8671736e-06 4.1333474e-06 1.0347569e-05
000090 76 f3 ed 34 7b a7 8e 35 97 aa f2 34 1a c1 a3 35
       4.432183e-07 1.0628568e-06 4.5200133e-07 1.2200646e-06
0000a0 a2 fe b2 35 b6 66 90 36 8a 98 3f 36 9d cf e8 36
       1.3336141e-06 4.3034916e-06 2.8550007e-06 6.938308e-06
0000b0 8b ec af 34 e1 5a 20 36 a2 3d 42 36 fe 27 a5 36
       3.2768398e-07 2.3894756e-06 2.8944128e-06 4.922039e-06
0000c0 2e 48 c0 35 17 1e e4 36 46 22 32 35 1c 52 a8 35
       1.4326122e-06 6.7984324e-06 6.636004e-07 1.2540872e-06
0000d0 29 d6 3d 35 f1 9e b7 35 44 12 92 34 73 73 92 34
       7.071963e-07 1.368082e-06 2.720791e-07 2.727862e-07
0000e0 b9 68 d0 34 9c 3e 6f 34 a3 71 26 34 66 ba e6 35
       3.8819215e-07 2.2281387e-07 1.5501296e-07 1.7190584e-06

exp_avg f4 [30]
000000 3d d6 9f b2 b7 69 83 b4 83 f3 19 b5 f5 15 80 31
       -1.860746e-08 -2.447757e-07 -5.73513e-07 3.7277865e-09
000010 1c bb 92 34 9c e4 57 b5 e2 b1 7e b4 a5 06 00 b6
       2.733076e-07 -8.042641e-07 -2.3720307e-07 -1.9077354e-06
000020 72 f7 b6 34 80 96 dc b2 ad 13 88 b3 03 69 0a b5
       3.4080182e-07 -2.567981e-08 -6.3365725e-08 -5.156182e-07
000030 4d 4e 43 34 db 6a 91 35 48 f8 a1 34 46 54 a3 33
       1.8189276e-07 1.0834441e-06 3.0169235e-07 7.605608e-08
000040 23 30 3e b3 a8 d2 9a 33 3b 2f 79 b4 38 4a b1 30
       -4.4281602e-08 7.209502e-08 -2.3207114e-07 1.2899539e-09
000050 02 3b e5 b4 8c c6 90 34 6a 53 9e 34 1f 88 49 b4
       -4.2697508e-07 2.6966552e-07 2.9490485e-07 -1.8769104e-07
000060 85 eb b0 32 67 36 9a b4 7a d1 2a 35 f2 16 67 b4
       2.0596199e-08 -2.8724318e-07 6.3634764e-07 -2.1521899e-07
000070 59 e3 f5 34 cc 4b 0c 33
       4.5800223e-07 3.2665227e-08

exp_avg_sq f4 [30]
000000 0a e6 d2 25 6f f5 86 29 6e 3b b9 2a a5 12 79 25
       3.6585074e-16 5.9933714e-14 3.290384e-13 2.1603624e-16
000010 d2 3d a8 29 70 28 36 2b 92 a1 7d 29 d6 1c 80 2c
       7.471423e-14 6.4715507e-13 5.6317425e-14 3.6411802e-12
000020 52 c8 02 2a 62 95 46 26 8a 07 95 27 3d b0 95 2a
       1.161582e-13 6.88975e-16 4.136398e-15 2.6590007e-13
000030 01 07 15 29 43 39 a5 2b 4c fc cc 29 c3 10 d1 27
       3.309072e-14 1.1739848e-12 9.1031864e-14 5.8027326e-15
000040 56 0c 13 27 cd 51 bc 27 0d d1 72 29 02 cc 93 24
       2.0407035e-15 5.226917e-15 5.3916117e-14 6.409669e-17
000050 c6 59 4d 2a 99 cd a3 29 70 0b c4 29 40 fa 1e 29
       1.8238804e-13 7.2743196e-14 8.7061326e-14 3.5300105e-14
000060 81 e0 07 26 96 35 ba 29 e5 4c e4 2a 80 bc 50 29
       4.7141793e-16 8.269355e-14 4.0554292e-13 4.6348776e-14
000070 f1 32 6c 2a 5b 08 9a 26
       2.0978685e-13 1.0688161e-15

max_exp_avg_sq f4 [30]
000000 3d 0b 6a 36 db 6c 73 35 71 54 8c 36 74 f3 c5 35
       3.4875259e-06 9.068296e-07 4.1821554e-06 1.4748498e-06
000010 e1 89 8e 36 37 d8 36 35 cd 5a 2d 35 4d 03 3d 35
       4.247981e-06 6.811492e-07 6.4579655e-07 7.041279e-07
000020 25 b3 16 36 82 26 13 35 42 22 39 36 70 05 fa 36
       2.2456018e-06 5.4817804e-07 2.758709e-06 7.4512136e-06
000030 df d3 7b 37 cd 85 ac 36 f2 30 c7 35 d4 41 41 37
       1.5010096e-05 5.141576e-06 1.48409e-06 1.1519023e-05
000040 95 62 01 36 32 8a 08 37 45 e4 0d 34 0f de 8e 35
       1.927988e-06 8.138408e-06 1.3214692e-07 1.0644452e-06
000050 f4 e2 40 36 63 05 e2 36 de 15 37 35 0b c2 ef 36
       2.8742334e-06 6.735952e-06 6.8204633e-07 7.1453446e-06
000060 35 72 88 36 7a 43 51 35 93 72 d6 35 d1 d4 14 35
       4.0664113e-06 7.795676e-07 1.5977588e-06 5.5443985e-07
000070 1b 91 6c 35 32 00 85 34
       8.812801e-07 2.4773323e-07

exp_avg f4 [30, 30]
000000 1c 8e 9c b4 14 a7 86 33 6c e7 e9 33 c6 08 b0 b4
       -2.9160663e-07 6.2702526e-08 1.08920034e-07 -3.2788938e-07
000010 54 68 8e b4 2a 09 aa b3 ca 18 10 34 88 e5 0d b5
       -2.652547e-07 -7.917909e-08 1.3420063e-07 -5.2860605e-07
000020 f9 16 9e b4 a5 56 c9 b4 f2 11 aa 34 52 a5 21 33
       -2.9446508e-07 -3.750221e-07 3.1678024e-07 3.763609e-08
000030 35 45 36 b4 07 63 75 33 1d 4e f4 b4 bf 24 f5 b4
       -1.6975248e-07 5.7133573e-08 -4.5505377e-07 -4.5661542e-07
000040 75 41 aa b2 8f f0 d7 34 54 06 55 b4 16 75 ad 34
       -1.9820371e-08 4.02219e-07 -1.9839473e-07 3.2308952e-07
000050 36 0e d1 34 a5 cc a7 b4 9e f2 88 b4 a3 43 0f 35
       3.8939623e-07 -3.1255072e-07 -2.55085e-07 5.3370076e-07
000060 3d ef 85 b4 e4 16 80 b4 1a a8 03 34 e0 dd da 34
       -2.494725e-07 -2.3858513e-07 1.2261481e-07 4.07671e-07
000070 b1 14 42 33 a9 02 6a 34 c7 4e 5f b3 23 f8 ef 32
       4.5187964e-08 2.1793916e-07 -5.199288e-08 2.7936101e-08
000080 bd 19 a0 34 b4 c3 71 b1 27 e5 d6 b3 80 b6 b2 32
       2.982105e-07 -3.518136e-09 -1.0006834e-07 2.0804919e-08
000090 80 54 6e 34 52 2a 0b 35 de a5 20 b4 ed 84 af b4
       2.2196218e-07 5.184312e-07 -1.4961503e-07 -3.2693006e-07
0000a0 5a 24 c6 34 fe 3f a7 34 7a ef cf b3 2e 8e f9 b4
       3.6906823e-07 3.1152734e-07 -9.682749e-08 -4.6483314e-07
0000b0 3d 9f 30 b4 84 01 cd b3 72 68 26 b1 a4 f7 69 34
       -1.6449208e-07 -9.546332e-08 -2.421555e-09 2.1789907e-07
0000c0 8b 54 d3 34 ac 07 1f 34 2f 72 44 34 2b c0 f6 b4
       3.9363326e-07 1.481082e-07 1.8295462e-07 -4.596089e-07
0000d0 53 51 26 b4 ac a2 8f 34 96 12 cc b2 ef 84 66 b3
       -1.548954e-07 2.6754185e-07 -2.3757178e-08 -5.367195e-08
0000e0 3f 7b 2d 34 f2 b2 87 b4 7b 44 9a b4 b4 44 40 34
       1.6156717e-07 -2.527591e-07 -2.873456e-07 1.7906387e-07
0000f0 4c 43 82 b4 e0 06 ac b3 6a b7 05 35 58 36 44 b4
       -2.4263352e-07 -8.010625e-08 4.9813264e-07 -1.8273693e-07
000100 07 54 df 33 14 67 24 b5 40 85 3f 34 a3 78 4d 35
       1.0399531e-07 -6.124476e-07 1.7836737e-07 7.6544e-07
000110 29 96 f5 b4 1e 64 05 35 c0 7e 71 b4 8d 9f 75 b4
       -4.5744062e-07 4.969205e-07 -2.2490985e-07 -2.2875447e-07
000120 2e 21 9e b3 1c 33 e5 34 93 75 4f 35 23 1c dc b4
       -7.363484e-08 4.269176e-07 7.72846e-07 -4.0998665e-07
000130 ad 23 b8 34 fb fb 30 b4 ee ca 0e b5 e9 cf 50 b5
       3.4298628e-07 -1.6482947e-07 -5.3194424e-07 -7.778859e-07
000140 5d 48 80 34 05 4a a2 34 cd 3a bd 34 48 cd 81 b5
       2.389451e-07 3.0228708e-07 3.5246777e-07 -9.670994e-07
000150 06 42 5e b5 74 dc 27 34 07 12 13 34 63 6e 46 33
       -8.279752e-07 1.5633287e-07 1.3697e-07 4.6200864e-08
000160 a0 67 90 34 d2 ca 43 35 7c c0 4f b3 93 d7 e9 34
       2.6897487e-07 7.2938303e-07 -4.8371007e-08 4.3556483e-07
000170 51 89 39 33 ac a9 91 b2 06 1e b0 32 a2 20 36 34
       4.3198558e-08 -1.695738e-08 2.050275e-08 1.6961943e-07
000180 d1 c5 04 35 4c 1b 99 34 53 46 34 b4 e3 90 da 33
       4.946169e-07 2.8518332e-07 -1.678939e-07 1.0177771e-07
000190 81 c7 15 b4 86 38 b5 b0 90 2e 54 33 92 7b a6 33
       -1.3949285e-07 -1.3185548e-09 4.9402445e-08 7.752455e-08
0001a0 c2 bc 9c 34 27 82 22 34 96 e3 ad 34 fe 87 48 34
       2.9194604e-07 1.5134775e-07 3.2389352e-07 1.8675925e-07
0001b0 fa f6 d8 32 7e 8a 84 b4 b6 09 5c b2 df 09 b9 33
       2.5258021e-08 -2.4687682e-07 -1.2807893e-08 8.6165294e-08
0001c0 42 8c b8 34 51 e4 67 b4 df 87 79 34 57 73 aa b4
       3.4374722e-07 -2.1596612e-07 2.3239362e-07 -3.1748888e-07
0001d0 f9 f2 b0 b3 ad 5b 69 b4 2a 2d cc b2 03 19 6d 34
       -8.239835e-08 -2.1733167e-07 -2.3769264e-08 2.2081444e-07
0001e0 df 3b 0f b4 9f 3e 2a 35 b3 61 13 b4 a5 c8 4e b4
       -1.3339694e-07 6.342106e-07 -1.3725985e-07 -1.9258239e-07
0001f0 ad a0 b8 33 9d 11 8b 34 4f 2e 83 35 c6 62 d5 34
       8.5973944e-08 2.5903583e-07 9.773738e-07 3.974621e-07
000200 f0 b0 b0 b4 3b bb e2 34 b7 fa da b4 e6 71 80 b4
       -3.2911294e-07 4.2232008e-07 -4.0788083e-07 -2.392473e-07
000210 cb 91 31 34 57 33 a0 34 18 15 2e 35 de 35 aa 33
       1.6537449e-07 2.9839677e-07 6.4850747e-07 7.92604e-08
000220 02 75 1b 35 17 92 35 35 c3 ea 25 b4 63 3e 14 b5
       5.791227e-07 6.7640343e-07 -1.5452228e-07 -5.522508e-07
000230 0a 6b 16 b4 31 49 c8 34 d8 c5 1e 35 03 34 15 b5
       -1.4008779e-07 3.7306157e-07 5.914749e-07 -5.558251e-07
000240 59 6e b3 34 be 3a 03 b5 ec 41 8b b4 bd 37 dd b3
       3.3421637e-07 -4.8886784e-07 -2.5938732e-07 -1.0301253e-07
000250 82 df 4e 34 3c 06 e6 34 07 c2 60 34 ad e0 d6 34
       1.9266557e-07 4.2845375e-07 2.0932212e-07 4.002408e-07
000260 6f 97 fd b1 2d fb 72 34 47 c3 a2 34 4a 13 ee 33
       -7.380485e-09 2.2629384e-07 3.0316934e-07 1.1086247e-07
000270 b1 7e df 34 fd 74 81 35 5b a8 0c 34 6d ea a1 34
       4.1629167e-07 9.645297e-07 1.3099763e-07 3.0159154e-07
000280 d0 b3 9e b4 b6 e8 b4 33 b4 11 7c 34 57 d7 81 b4
       -2.9560624e-07 8.424233e-08 2.3475769e-07 -2.4184803e-07
000290 5d dd 00 35 eb 79 eb 34 38 85 97 34 9e db 77 b4
       4.800584e-07 4.3860868e-07 2.822287e-07 -2.3083564e-07
0002a0 36 4f 04 35 5b 09 c7 b4 91 d2 c4 b4 59 4c f5 33
       4.92891e-07 -3.7073445e-07 -3.6661052e-07 1.1422589e-07
0002b0 73 e3 f7 34 3b 31 f9 b4 c4 e9 bf 34 bc 7b 35 b4
       4.6172826e-07 -4.6415684e-07 3.574661e-07 -1.6901953e-07
0002c0 23 fb e2 b3 dc e8 38 b5 47 1d 33 b4 da 8a 0a b3
       -1.05696266e-07 -6.8884196e-07 -1.6681325e-07 -3.2256914e-08
0002d0 80 85 9e 34 b1 5f 24 b4 a9 ce 91 b3 1c d4 bf 34
       2.9526927e-07 -1.5308503e-07 -6.78968e-08 3.5730852e-07
0002e0 ab 29 80 34 79 ed d2 33 ab 4b 2a b4 3a 6e 20 35
       2.3872175e-07 9.822083e-08 -1.5860012e-07 5.9765046e-07
0002f0 15 d7 9a 34 49 a7 d3 34 45 8a 63 b4 ae 20 8b b2
       2.8841228e-07 3.942353e-07 -2.1191325e-07 -1.619659e-08
000300 86 b4 32 34 78 d9 68 b3 ee a0 ff 34 0a 19 e5 34
       1.6643216e-07 -5.4214496e-08 4.7614543e-07 4.2672792e-07
000310 f4 45 33 b3 3f 1c cd b4 75 a9 8a 34 8d 92 a4 b4
       -4.1740307e-08 -3.8204777e-07 2.58278e-07 -3.065401e-07
000320 99 f5 bb b4 4f 5c 8d 34 7b ed 1b 34 67 b4 04 b5
       -3.501016e-07 2.633046e-07 1.4521895e-07 -4.943635e-07
000330 ab c2 96 34 65 21 a5 34 a7 73 0d b4 c3 a2 f7 b4
       2.8081317e-07 3.0757943e-07 -1.3173722e-07 -4.612576e-07
000340 11 2e a3 b3 2a e2 5c b4 03 35 06 33 9d b2 df b3
       -7.5986584e-08 -2.0571375e-07 3.124752e-08 -1.0416736e-07
000350 59 ee d6 b2 45 69 20 33 e3 63 1b 32 0a b8 e1 b3
       -2.5021267e-08 3.7348645e-08 9.044899e-09 -1.05108555e-07
000360 86 0c 18 b4 84 c6 4c b4 26 04 49 33 57 88 15 b4
       -1.4160659e-07 -1.90712e-07 4.6802732e-08 -1.3926307e-07
000370 42 f0 bf 33 52 6d 82 32 cb 33 ed b2 ca 2e b8 33
       8.937833e-08 1.5183705e-08 -2.7613984e-08 8.5766786e-08
000380 26 f2 23 b4 6d 64 97 b2 06 bd cb b3 d8 de 9f b3
       -1.5268651e-07 -1.7624382e-08 -9.487307e-08 -7.4445495e-08
000390 10 d0 c3 b3 3a 2a 0d 34 a2 41 0a 31 e4 d1 83 b3
       -9.1182415e-08 1.314701e-07 2.011895e-09 -6.138342e-08
0003a0 d0 73 e6 b3 cd 7a 22 34 09 38 19 b4 f4 15 c6 33
       -1.0731276e-07 1.51321e-07 -1.4269621e-07 9.224087e-08
0003b0 92 8e ab 33 0e 89 2b 34 65 66 7b 31 72 3c 66 b3
       7.9887414e-08 1.5975476e-07 3.6583512e-09 -5.3606023e-08
0003c0 f8 f1 8f 32 5d 5f 85 b3 fe bf d5 33 63 0c 03 33
       1.6757426e-08 -6.2106416e-08 9.9535086e-08 3.051208e-08
0003d0 86 e6 3d b2 b0 a8 18 b3 57 8b db b2 b7 0d 99 34
       -1.1053663e-08 -3.5543678e-08 -2.555832e-08 2.850845e-07
0003e0 69 1d 56 2f f4 1a 35 b4 b7 23 8b 34 bb 49 67 34
       1.9473635e-10 -1.6866744e-07 2.5916754e-07 2.1540374e-07
0003f0 bb e3 e2 b2 b4 aa df b4 53 fa 14 b4 35 2f 87 b3
       -2.6413423e-08 -4.166119e-07 -1.3874642e-07 -6.295014e-08

exp_avg_sq f4 [30, 30]
000000 1a a6 bf 29 1a 24 90 27 63 07 56 28 c7 4a f2 29
       8.510918e-14 4.000717e-15 1.1880988e-14 1.0759931e-13
000010 be 88 9e 29 be f4 e1 27 3a f0 a2 28 28 4e 9d 2a
       7.0403305e-14 6.2715395e-15 1.8089795e-14 2.7943034e-13
000020 8c 78 c3 29 3b 6b 1e 2a a8 f8 e1 29 0a a9 cd 26
       8.680651e-14 1.4070422e-13 1.0035142e-13 1.4270551e-15
000030 d1 d6 01 29 14 14 6e 27 05 2a 69 2a e1 e0 6a 2a
       2.8830078e-14 3.304002e-15 2.0709136e-13 2.0861396e-13
000040 92 d8 fa 25 e6 4b 36 2a 63 46 31 29 ae 0f eb 29
       4.351484e-16 1.619118e-13 3.9362946e-14 1.04388164e-13
000050 f6 d4 2a 2a 78 19 dc 29 16 8e 92 29 3d 5b a0 2a
       1.5172919e-13 9.774381e-14 6.5083504e-14 2.848502e-13
000060 cc 29 8c 29 d6 63 80 29 87 75 87 28 aa 23 3b 2a
       6.2244995e-14 5.7016607e-14 1.503898e-14 1.662131e-13
000070 e8 4e 13 27 dc 47 56 29 cc d2 43 27 dc 02 67 26
       2.0443123e-15 4.7579874e-14 2.717596e-15 8.01481e-16
000080 eb 48 c8 29 f7 e5 cc 23 d5 e0 34 28 73 ca 00 26
       8.8944334e-14 2.2215118e-17 1.004076e-14 4.468329e-16
000090 42 35 5e 29 46 60 97 2a d5 e7 c9 28 5f b3 f0 29
       4.9340096e-14 2.6889791e-13 2.2416024e-14 1.0689257e-13
0000a0 db 6a 19 2a f1 8b da 29 95 11 29 28 68 4e 73 2a
       1.3626203e-13 9.705421e-14 9.385197e-15 2.1609938e-13
0000b0 0a cc f3 28 f2 90 24 28 87 57 7a 23 52 10 56 29
       2.7066907e-14 9.135259e-15 1.3571062e-17 4.75317e-14
0000c0 53 77 2e 2a bf a5 c5 28 6d ed 16 29 35 dd 6d 2a
       1.5495703e-13 2.1943274e-14 3.3512625e-14 2.1126575e-13
0000d0 88 2d d8 28 32 4d a1 29 ba ea 23 26 92 08 51 27
       2.4000563e-14 7.1632275e-14 5.68701e-16 2.9009222e-15
0000e0 87 21 eb 28 db e5 8f 29 05 ef b9 29 54 91 10 29
       2.6104781e-14 6.390349e-14 8.257114e-14 3.2100475e-14
0000f0 1e c8 84 29 31 f2 e7 27 0a c9 8b 2a b4 8f 16 29
       5.8966924e-14 6.4377964e-15 2.483086e-13 3.3431333e-14
000100 6c 56 4d 28 80 3f d3 2a 4d 63 0f 29 a4 f3 24 2b
       1.1398526e-14 3.752519e-13 3.1838508e-14 5.8602624e-13
000110 a8 b6 6b 2a a9 1e 8b 2a 9b 08 64 29 92 04 6c 29
       2.0935564e-13 2.4712635e-13 5.0633634e-14 5.240649e-14
000120 d5 2e c6 27 50 40 4d 2a df 23 28 2b 90 60 3d 2a
       5.5006815e-15 1.822997e-13 5.973537e-13 1.6820074e-13
000130 63 80 04 2a f9 c4 f5 28 98 51 9f 2a 85 5b 2a 2b
       1.1768498e-13 2.7285887e-14 2.830069e-13 6.052314e-13
000140 f7 b8 81 29 70 d4 cd 29 b8 ec 0b 2a 42 a4 83 2b
       5.760837e-14 9.140681e-14 1.2427808e-13 9.3537e-13
000150 f0 f6 40 2b d5 56 dc 28 ae 94 ab 28 7d 04 2d 27
       6.8554797e-13 2.4462564e-14 1.9049293e-14 2.4011006e-15
000160 cb 14 a3 29 95 d2 15 2b 87 f5 28 27 45 b1 55 2a
       7.242261e-14 5.3227675e-13 2.3447784e-15 1.8979703e-13
000170 8c b7 06 27 cd 31 a9 25 ab d1 f7 25 9e 9b 01 29
       1.8695737e-15 2.9350573e-16 4.2989746e-16 2.877873e-14
000180 af c2 89 2a 30 46 b7 29 94 f6 fd 28 08 10 3b 28
       2.4471178e-13 8.139008e-14 2.8195579e-14 1.03840615e-14
000190 ac 8d af 28 be 83 b2 22 5d 5b 30 27 28 e5 d8 27
       1.9490343e-14 4.8386484e-18 2.4474435e-15 6.0200495e-15
0001a0 4e 16 c0 29 7f 9d ce 28 76 54 ec 29 89 21 1d 29
       8.530382e-14 2.2938897e-14 1.0495157e-13 3.489009e-14
0001b0 74 5c 3c 26 20 5a 89 29 ac f7 4f 25 ac 25 06 28
       6.53509e-16 6.0996564e-14 1.8038302e-16 7.446663e-15
0001c0 de 20 05 2a 1b 5d 52 29 bf 58 73 29 40 11 e3 29
       1.1824176e-13 4.6710123e-14 5.4033814e-14 1.00838175e-13
0001d0 39 c5 f4 27 16 1d 55 29 fa 78 23 26 18 a3 5b 29
       6.7937434e-15 4.732073e-14 5.671594e-16 4.876923e-14
0001e0 6c 5e a0 28 d2 70 e2 2a ba ba a9 28 8a 09 27 29
       1.7804517e-14 4.022395e-13 1.8843749e-14 3.7089723e-14
0001f0 a2 f5 05 28 5b 18 97 29 e4 72 86 2b 1d f2 31 2a
       7.436246e-15 6.709972e-14 9.553161e-13 1.5804758e-13
000200 46 e9 f3 29 65 d6 48 2a f9 55 3b 2a f0 e7 80 29
       1.0831834e-13 1.7837951e-13 1.6638764e-13 5.7245766e-14
000210 6f 7e f6 28 9b 8b c8 29 42 c7 ec 2a 1d 30 e3 27
       2.7366318e-14 8.906002e-14 4.2060284e-13 6.305732e-15
000220 51 cf bc 2a 1f c8 00 2b a3 16 d7 28 5e b3 ab 2a
       3.3539363e-13 4.575246e-13 2.3879612e-14 3.0500163e-13
000230 46 6c b1 28 a2 b9 1c 2a 95 f4 c4 2a e6 ef ad 2a
       1.9697904e-14 1.3919988e-13 3.4986307e-13 3.0897436e-13
000240 59 95 fb 29 9e 8b 86 2a 48 82 97 29 e7 7f 3f 28
       1.1172547e-13 2.390006e-13 6.728347e-14 1.0630364e-14
000250 26 30 27 29 4d af 4e 2a e8 5a 45 29 20 7b 34 2a
       3.712321e-14 1.8357295e-13 4.3821636e-14 1.6029929e-13
000260 e9 7d 7e 24 12 a4 66 29 14 f8 ce 29 00 df 5d 28
       5.518412e-17 5.1212567e-14 9.1912724e-14 1.231632e-14
000270 fb 3c 43 2a 6a fb 82 2b a1 b1 9a 28 67 e8 cc 29
       1.7340636e-13 9.306837e-13 1.7174469e-14 9.099735e-14
000280 a8 f2 c4 29 92 cc ff 27 69 34 78 29 24 b8 83 29
       8.746243e-14 7.0998513e-15 5.511252e-14 5.849512e-14
000290 fe ca 81 2a 46 99 58 2a 10 8e b3 29 28 00 70 29
       2.3055857e-13 1.9237831e-13 7.973841e-14 5.329084e-14
0002a0 c9 c6 88 2a 00 da 1a 2a 6d 53 17 2a d5 7d 6b 28
       2.4296388e-13 1.3753582e-13 1.3440438e-13 1.3072406e-14
0002b0 a4 32 70 2a 98 b5 72 2a 48 e8 0f 2a 43 d8 00 29
       2.1333852e-13 2.1556921e-13 1.278154e-13 2.8609287e-14
0002c0 0e 78 49 28 56 93 05 2b f6 a5 fa 28 9e f4 99 26
       1.1183774e-14 4.745556e-13 2.782755e-14 1.0682811e-15
0002d0 6f 85 c4 29 f2 75 d3 28 7b 6f a6 27 a1 dd 0f 2a
       8.7272956e-14 2.3476856e-14 4.6195123e-15 1.2777844e-13
0002e0 63 72 80 29 40 d0 2d 28 19 ee e2 28 bc 17 c9 2a
       5.704185e-14 9.648586e-15 2.5194299e-14 3.5721242e-13
0002f0 67 84 bb 29 ad 0c 2f 2a b6 42 4a 29 b3 6f 97 25
       8.3274364e-14 1.554752e-13 4.4910873e-14 2.6270015e-16
000300 60 ab f9 28 6c fb 53 27 75 4a 7f 2a 97 2e 4d 2a
       2.7718875e-14 2.9418428e-15 2.2674382e-13 1.8223822e-13
000310 1d 87 ff 26 00 7a 24 2a 64 3f 96 29 2e 9a d3 29
       1.7730802e-15 1.4608453e-13 6.672335e-14 9.397028e-14
000320 92 20 0a 2a e1 22 9c 29 a9 09 be 28 89 96 89 2a
       1.2268162e-13 6.933842e-14 2.1098427e-14 2.4440543e-13
000330 1f a0 b1 29 4e 34 d5 29 06 5e 9c 28 fe a0 6f 2a
       7.8881556e-14 9.4681736e-14 1.7360255e-14 2.128332e-13
000340 2d 32 d0 27 c3 e5 3e 29 db 89 90 26 90 ae 43 28
       5.7786e-15 4.238776e-14 1.0029373e-15 1.0862527e-14
000350 ef f7 36 26 93 2e cd 26 11 1c e5 24 8c 23 47 28
       6.3479947e-16 1.4237356e-15 9.9360465e-17 1.1054427e-14
000360 0e dc b4 28 4c d4 23 29 a8 08 20 27 52 b2 ae 28
       2.0079448e-14 3.637741e-14 2.2209153e-15 1.9395215e-14
000370 63 01 10 28 77 e8 85 25 d8 97 5c 26 be d4 04 28
       7.9939065e-15 2.3229347e-16 7.653362e-16 7.373603e-15
000380 57 ff d1 28 58 2b ca 25 a8 5a 22 28 75 78 c9 27
       2.3314397e-14 3.5070785e-16 9.0124644e-15 5.5919307e-15
000390 ac f3 15 28 0e b6 9b 28 e4 1c 25 24 53 d6 87 27
       8.3239994e-15 1.728741e-14 3.5803143e-17 3.7702398e-15
0003a0 0f 84 4f 28 ac 42 ce 28 39 6c b7 28 3f 96 19 28
       1.1519444e-14 2.2899509e-14 2.0364015e-14 8.5257856e-15
0003b0 7f f5 e5 27 73 fe e5 28 fa 26 98 23 79 ff 50 27
       6.3826436e-15 2.5534457e-14 1.649638e-17 2.900429e-15
0003c0 81 44 a4 25 b9 1e 8b 27 ce b4 32 28 c3 a6 86 26
       2.8495885e-16 3.861356e-15 9.920191e-15 9.343319e-16
0003d0 70 d0 10 25 89 5c b6 26 d3 27 3e 26 ce 09 b7 29
       1.256063e-16 1.2653869e-15 6.5973464e-16 8.1285334e-14
0003e0 af 4b 35 23 89 30 00 29 b5 48 97 29 c9 13 51 29
       9.828056e-18 2.8463807e-14 6.71836e-14 4.6424483e-14
0003f0 a8 74 49 26 96 74 43 2a 8a 69 ad 28 e0 f0 8e 27
       6.989398e-16 1.7359928e-13 1.9252629e-14 3.9674075e-15
