paper/Burgers/runs/rand30checkpoint.pt (torch, 59607 bytes, 36 tensors)

func_approx.network.0.weight f4 [30, 2]
-0.032564536 -0.586732 -1.1914772 0.4564132 0.6404423 -0.4522425 -0.38392013 0.2937537
-0.17613353 0.67559355 -0.04363111 0.19741939 -0.7152846 0.36488673 -0.021637479 0.22677547
0.28300443 0.5836943 0.023165917 -0.16727674 -0.75116867 0.7005903 0.82220775 0.011877929
1.4968184 0.97031224 0.27994737 0.56052357 0.4563563 -0.041060116 -0.30171934 0.7478619
-0.20297116 0.29341274 -0.39328063 0.33857867 0.5579276 0.6152239 0.48254636 0.61502266
-0.1328196 0.8388332 0.2841399 0.78419185 -0.9961208 -0.5388788 -0.7429688 0.10632077
0.61153567 -0.6581029 0.28479576 0.10398018 -1.7405962 -0.09822024 -0.06859579 -0.47092077
-0.45454454 0.5656318 -0.10437343 -0.23417136
00000000: 6462 05bd 1134 16bf 5382 98bf feae e93e
00000010: 07f4 233f 548c e7be 2e91 c4be e366 963e
00000020: 595c 34be b3f3 2c3f 89b6 32bd 4f28 4a3e
00000030: e41c 37bf 6fd2 ba3e 1541 b1bc d437 683e
00000040: f5e5 903e fd6c 153f 73c6 bd3c 984a 2bbe
00000050: 974c 40bf e359 333f 357c 523f a59b 423c
00000060: bf97 bf3f 6266 783f 4355 8f3e 797e 0f3f
00000070: 88a7 e93e a72e 28bd f57a 9abe e173 3f3f
00000080: acd7 4fbe 323a 963e 145c c9be 2f5a ad3e
00000090: 58d4 0e3f 507f 1d3f 5110 f73e 2072 1d3f
000000a0: dc01 08be c6bd 563f c97a 913e ccc0 483f
000000b0: c601 7fbf f6f3 09bf 3433 3ebf b4be d93d
000000c0: 9a8d 1c3f 6f79 28bf c0d0 913e 90f3 d43d
000000d0: dbcb debf b127 c9bd f37b 8cbd 871c f1be
000000e0: 10ba e8be 3fcd 103f bdc1 d5bd 9eca 6fbe

func_approx.network.0.bias f4 [30]
-0.17302918 -0.11665836 -0.14911816 -0.37620053 0.20080373 -0.020651432 -0.52428687 -0.30770066
-0.19296327 -0.2598993 0.011805476 0.5707 0.14475659 -0.026500808 0.60177296 -0.45336735
-0.51552874 0.114112936 0.14790764 0.035181325 0.4372517 -0.64417607 -0.27550918 0.4479329
-0.4081057 -0.10989777 0.07149505 -0.37337986 -0.4892249 -0.39777705
00000000: 902e 31be 94ea eebd 6eb2 18be 5b9d c0be
00000010: 7e9f 4d3e 312d a9bc aa37 06bf f18a 9dbe
00000020: 2a98 45be 8511 85be c16b 413c 6519 123f
00000030: 123b 143e 3918 d9bc cb0d 1a3f c41f e8be
00000040: b1f9 03bf 0bb4 e93d 1a75 173e 4b1a 103d
00000050: 74df df3e b9e8 24bf 8a0f 8dbe 7657 e53e
00000060: 3bf3 d0be 1512 e1bd ff6b 923d a52b bfbe
00000070: b07b fabe 6fa9 cbbe

func_approx.network.2.weight f4 [30, 30]
-0.25020438 -0.09389107 -0.14318317 -0.15718925 -0.031565566 0.070824675 0.18152863 0.21402161
0.37015557 -0.023198508 0.21801592 -0.043306325 0.28928474 0.22736806 0.073679395 0.22092862
0.10747322 0.15171148 0.27184278 0.26316172 -0.05657794 0.27713966 0.006195928 0.06104136
-0.05500112 0.22859296 0.04731855 -0.005036712 0.20412582 -0.03140921 0.060300335 0.11533245
-0.30871677 0.06486458 0.13208085 -0.090128876 0.23515092 -0.035031017 0.1967878 -0.10258018
0.3300398 -0.12088229 0.0010589525 0.10490708 0.09862863 0.18609002 0.1339516 0.21710306
0.09691498 0.028091531 -0.03683025 0.20820144 -0.05176805 0.11181842 -0.2381216 -0.18152216
0.58205795 0.11827012 0.2753069 -0.13341744 0.28255418 0.10353422 0.029865073 -0.108083546
-0.1087956 0.03154075 -0.0070688883 -0.093446046 -0.32694328 0.16824049 0.12717862 0.010621008
-0.17627609 -0.073746584 -0.10245873 -0.07528513 0.13330902 -0.052658163 -0.33886328 -0.322622
0.10963379 0.0011084765 0.19009021 -0.010704698 -0.12777214 -0.4343453 0.44463098 0.031225588
0.14014585 -0.0670419 -0.10492699 -0.13117643 0.14552617 -0.14602333 0.07435264 -0.2622438
-0.31140158 -0.0794898 0.17344667 0.11943471 -0.3608909 0.23334055 -0.023306014 -0.058200203
0.00025417627 -0.20951347 -0.11122495 -0.30558595 0.08201579 0.06700889 -0.083768085 -0.08663512
0.009149385 -0.15936434 0.33829758 0.32666203 -0.8973172 0.024866214 0.07792724 -0.19425027
-0.2185192 0.41046214 -0.19045517 0.2930593 0.15852852 0.19990626 0.24558282 0.28427222
0.22128053 -0.17386575 0.2569319 -0.17723243 0.1580209 0.1867224 -0.13451612 0.368947
0.3140552 0.28088516 -0.056739975 0.09042425 0.1781354 0.17720935 0.16076586 0.13513131
-0.20667024 0.050357245 0.2457875 0.055887043 0.10190192 -0.1572933 0.16588439 0.036009993
0.16612372 -0.14811575 -0.055492822 0.0012265207 -0.091326565 0.106756866 0.07308902 0.17283507
0.026232738 -0.17148386 -0.14490718 -0.01007035 -0.049059585 0.0020444146 -0.05297503 0.04577897
0.12476894 0.11063479 0.13337754 -0.18914072 -0.028518125 -0.11898909 0.06851579 0.01272796
0.07999097 0.07636904 -0.08688096 0.03985174 -0.2381177 -0.012973507 -0.16340142 -0.013048884
0.31526515 0.08426552 -0.14352185 0.17558502 0.089457735 0.08001606 0.072593585 0.2481328
0.22988605 0.2005593 0.15449618 0.20403832 -0.14509498 0.06673485 0.40313432 0.24993998
0.32420766 0.15237826 -0.3628889 0.0712451 -0.2789704 0.31532124 -0.80418575 -0.2534807
0.046414062 -0.25494364 0.10088057 -0.13947743 0.1780154 -0.03472318 -0.255429 -0.11180277
0.00487911 0.06789091 -0.259887 -0.0828859 -0.06686156 -0.104670785 -0.27328894 -0.29358605
-0.033427294 -0.3092388 0.002481252 -0.10743899 -0.016922647 -0.2785638 0.13752367 -0.2953769
-0.024610456 0.018000625 0.18182372 0.105511144 -0.15783548 -0.08969238 -0.2468303 0.039379522
-0.09511781 -0.33892286 0.32390124 -0.16837662 -0.0309872 -0.357263 -0.121679075 0.042140123
-0.07810353 -0.026679726 -0.32542938 -0.012262025 0.13178323 -0.21879864 0.099785134 -0.33488172
00000000: ca1a 80be f649 c0bd 9c9e 12be 38f6 20be
00000010: e54a 01bd 870c 913d a4e2 393e 7b28 5b3e
00000020: 0885 bd3e cc0a bebc 913f 5f3e f961 31bd
00000030: 211d 943e 2cd3 683e 39e5 963d 1d3b 623e
00000040: eb1a dc3d 415a 1b3e fa2e 8b3e 22bd 863e
00000050: 45be 67bd 40e5 8d3e 3607 cb3b 8106 7a3d
00000060: db48 61bd 4614 6a3e 19d1 413d 010b a5bb
00000070: 5c06 513e f2a6 00bd 7cfd 763d 6b33 ec3d
00000080: 2010 9ebe b9d7 843d 3440 073e 7d95 b8bd
00000090: 67cb 703e af7c 0fbd be82 493e 8f15 d2bd
000000a0: fafa a83e 2291 f7bd 8dcc 8a3a 86d9 d63d
000000b0: cffd c93d 628e 3e3e 9c2a 093e 4450 5e3e
000000c0: 5c7b c63d 3620 e63c 51db 16bd c232 553e
000000d0: bc0a 54bd 0e01 e53d 26d6 73be f2e0 39be
000000e0: c001 153f 9b37 f23d 07f5 8c3e 959e 08be
000000f0: f1aa 903e c009 d43d 99a7 f43c e85a ddbd
00000100: 3ad0 debd e030 013d 22a2 e7bb a460 bfbd
00000110: 1c65 a7be 3c47 2c3e 1d3b 023e bd03 2e3c
00000120: b881 34be 7308 97bd e2d5 d1bd 172f 9abd
00000130: 2982 083e 16b0 57bd 7d7f adbe b62e a5be
00000140: ae87 e03d 4d4a 913a 02a7 423e c262 2fbc
00000150: b3d6 02be 8262 debe aca6 e33e cecc ff3c
00000160: 6582 0f3e 434d 89bd f6e3 d6bd 1d53 06be
00000170: d004 153e 2487 15be 3246 983d d244 86be
00000180: 0770 9fbe 8ccb a2bd 019c 313e 2f9a f43d
00000190: b1c6 b8be d3f0 6e3e 41ec bebc 5663 6ebd
000001a0: f642 8539 b38a 56be e8c9 e3bd c375 9cbe
000001b0: e5f7 a73d f53b 893d 9a8e abbd c16d b1bd
000001c0: 4de7 153c 6830 23be 5735 ad3e 3f40 a73e
000001d0: 94b6 65bf 3bb4 cb3c 5198 9f3d 8be9 46be
000001e0: 7fc3 5fbe 1828 d23e ae06 43be de0b 963e
000001f0: 4d55 223e 3ab4 4c3e 107a 7b3e 218c 913e
00000200: 5d97 623e dd09 32be 948c 833e 6b7c 35be
00000210: 3bd0 213e 2834 3f3e 98be 09be 9fe6 bc3e
00000220: d8cb a03e 2ed0 8f3e 2d68 68bd 5930 b93d
00000230: 2069 363e 5e76 353e ce9f 243e dd5f 0a3e
00000240: 5da1 53be 6643 4e3d b8af 7b3e d0e9 643d
00000250: f4b1 d03d 7f11 21be 99dd 293e 377f 133d
00000260: 561c 2a3e a8ab 17be 714c 63bd 35c3 a03a
00000270: 6c09 bbbd 58a3 da3d b2af 953d adfb 303e
00000280: 0ae6 d63c 7799 2fbe 8c62 14be 1cfe 24bc
00000290: b4f2 48bd 96fb 053b 58fc 58bd bb82 3b3d
000002a0: dc86 ff3d 7e94 e23d 1f94 083e 1bae 41be
000002b0: d89e e9bc 8db0 f3bd 0252 8c3d ef88 503c
000002c0: 4ed2 a33d 5f67 9c3d a5ee b1bd 943b 233d
000002d0: 20d5 73be d58e 54bc b452 27be fdca 55bc
000002e0: 6f6a a13e 6793 ac3d 64f7 12be 8fcc 333e
000002f0: 9e35 b73d 76df a33d f2ab 943d 8616 7e3e
00000300: 4067 6b3e 6b5f 4d3e 3f34 1e3e 6cef 503e
00000310: c793 14be 48ac 883d 9f67 ce3e 44f0 7f3e
00000320: 8cfe a53e 0c09 1c3e 93cc b9be f3e8 913d
00000330: 35d5 8ebe c971 a13e 1edf 4dbf 39c8 81be
00000340: ac1c 3e3d f987 82be 799a ce3d 2cd3 0ebe
00000350: ab49 363e e539 0ebd 97c7 82be daf8 e4bd
00000360: f1e0 9f3b 640a 8b3d e90f 85be 15c0 a9bd
00000370: b7ee 88bd a35d d6bd 87ec 8bbe e950 96be
00000380: 0feb 08bd 8c54 9ebe 809c 223b f908 dcbd
00000390: 5da1 8abc ea9f 8ebe 01d3 0c3e a43b 97be
000003a0: de9b c9bc 0c76 933c ff2f 3a3e 3a16 d83d
000003b0: a09f 21be a3b0 b7bd 15c1 7cbe 6c4c 213d
000003c0: 20cd c2bd 4c87 adbe 62d6 a53e ec6a 2cbe
000003d0: ded8 fdbc 2deb b6be e132 f9bd 1f9b 2c3d
000003e0: bef4 9fbd 718f dabc ae9e a6be a9e6 48bc
000003f0: 2ff2 063e c00c 60be 265c cc3d 9e75 abbe

func_approx.network.2.bias f4 [30]
0.15968227 -0.1448036 -0.09903823 0.17653447 -0.12121051 0.0028073348 -0.09215602 0.011131645
0.011400499 -0.070505716 0.06931608 0.054010883 -0.120441295 0.101567864 0.14014024 -0.15195538
0.096153595 -0.15271598 0.061234817 0.021563541 -0.055160083 -0.020461053 0.13930704 0.0069458387
-0.030255716 -0.08954266 0.19044545 0.18558371 -0.07106331 -0.15815873
00000000: c083 233e 6547 14be 8ed4 cabd 74c5 343e
00000010: 373d f8bd 43fb 373b 4cbc bcbd 8161 363c
00000020: 29c9 3a3c 4d65 90bd 97f5 8d3d 843a 5d3d
00000030: eda9 f6bd d002 d03d ec80 0f3e 319a 1bbe
00000040: 2dec c43d 9461 1cbe 5cd1 7a3d 06a6 b03c
00000050: 8aef 61bd f09d a7bc 81a6 0e3e eb99 e33b
00000060: d6da f7bc 2462 b7bd 2204 433e a809 3e3e
00000070: a489 91bd 5df4 21be

func_approx.network.4.weight f4 [30, 30]
-0.12651843 -0.10197029 -0.27309093 -0.006306322 -0.10612681 0.013647634 0.3376062 0.1498744
0.026035542 -0.7001031 -0.20786944 -0.4403962 -0.008069057 -0.2295347 -0.3350975 0.014163589
-0.13046394 -0.66315216 0.22326657 -0.012173983 -0.12438542 0.1933745 -0.12631436 -0.22352536
0.007536467 0.07617712 -0.20016223 0.2644617 -0.15079966 0.276044 -0.014761094 0.028476937
0.06604423 -0.14244762 0.07280113 0.16591929 -0.037103478 0.035800435 0.1867497 -0.15580408
-0.254397 0.0060516866 0.023153547 0.02761745 0.14220409 -0.024221517 0.17896023 -0.19159256
-0.07996375 0.037802 0.19631878 -0.15473205 -0.055116195 0.003420785 -0.15905915 -0.18150552
0.19764626 0.0994772 0.009753386 0.18859349 0.17458566 -0.14527859 -0.14928146 0.016893292
-0.0021309613 -0.09102599 -0.06496416 -0.21613702 0.24886264 -0.076512784 -0.02671219 0.066931784
-0.146968 -0.16301158 0.03069846 -0.030059291 -0.12125664 -0.15167506 0.07657035 0.020683156
-0.10208972 0.11529291 -0.07177852 -0.11387152 0.015281302 -0.05110045 0.14174762 -0.070686474
-0.14721198 -0.17115378 -0.011053603 0.050985333 -0.04891038 -0.15286797 -0.07644325 -0.070411965
-0.3908082 0.059966296 -0.094265364 0.15494856 0.2366737 0.3413366 -0.023698466 0.1761519
-0.09806807 -0.13709481 0.07511448 0.041020986 -0.21328117 0.057984803 -0.16419935 0.04043774
0.06537819 0.09763139 0.104462095 0.08432695 0.06509981 -0.37481073 0.1990861 -0.07059774
-0.016966162 -0.1841835 0.165675 0.046694335 -0.26469257 0.13755204 -0.09025635 0.39073175
0.3588067 -0.320742 0.13344078 0.0048710615 -0.11133032 0.07646715 0.1640843 -0.21000953
0.15544635 0.10435022 -0.15121202 0.22051659 0.052617762 0.076992124 0.033237807 -0.0037874517
0.062248144 0.09294322 0.18256137 0.23069292 0.067952044 0.032383665 0.05113319 0.014412951
-0.0877429 0.006634363 -0.0336674 0.015247697 0.024749333 0.039496936 -0.2722371 0.07914337
-0.16098006 -0.23481397 0.11148161 -0.052839156 0.2145939 0.1490835 0.011303356 0.34798402
0.1310684 0.05240154 -0.006581131 -0.13499795 0.1621003 0.09396062 -0.108061604 0.09557292
-0.09818725 -0.104636945 0.16584197 0.13405512 0.031440493 -0.027362507 -0.04985922 0.20079498
-0.19984266 0.20195128 0.13932545 -0.068485565 -0.024527017 -0.025302542 0.01901705 0.030907067
-0.21305835 -0.0049537583 0.040605634 0.09181154 -0.007897148 -0.40966347 0.1924121 0.16623323
0.06288404 0.11111787 0.05231035 -0.14487395 0.09693667 0.06787839 0.17029636 -0.07696466
0.16875134 -0.020036729 0.23441587 -0.07704952 -0.045444116 -0.08096506 -0.08195619 -0.13133559
0.30587572 -0.015662163 -0.08856265 -0.22647825 -0.17586184 -0.08716217 -0.05735126 -0.22429045
-0.34095228 -0.019550148 -0.02942974 -0.03870308 0.083455436 0.12447862 -0.13612711 -0.1015997
0.17489874 0.014333534 -0.15807115 0.12988107 -0.252386 -0.09563493 -0.052712526 0.1521892
-0.05283674 -0.017479545 0.20190513 0.1160752 -0.017796895 -0.04078062 -0.30604234 0.029533612
0.093309104 -0.002099462 0.14026324 0.23090246 0.0069383155 -0.0092656845 -0.16096053 0.016819408
00000000: 0c8e 01be cdd5 d0bd 93d2 8bbe 43a5 cebb
00000010: 0359 d9bd 539a 5f3c b8da ac3e ad78 193e
00000020: 7d48 d53c f539 33bf badb 54be 9c7b e1be
00000030: 1434 04bc 250b 6bbe e691 abbe 660e 683c
00000040: 5798 05be 57c4 29bf fe9f 643e 6375 47bc
00000050: c8bd febd f703 463e 8d58 01be d5e3 64be
00000060: 78f4 f63b c002 9c3d 54f7 4cbe 8667 873e
00000070: 3a6b 1abe a455 8d3e 84d8 71bc 7748 e93c
00000080: 3242 873d cadd 11be c218 953d bfe6 293e
00000090: d1f9 17bd 7aa3 123d 503b 3f3e 1b8b 1fbe
000000a0: 5340 82be 3a4d c63b 82ac bd3c fe3d e23c
000000b0: f39d 113e 346c c6bc 5a41 373e d730 44be
000000c0: 09c4 a3bd 45d6 1a3d ca07 493e 1472 1ebe
000000d0: 85c1 61bd 402f 603b 67e0 22be 95dc 39be
000000e0: c863 4a3e b4ba cb3d aacc 1f3c a71e 413e
000000f0: 95c6 323e e9c3 14be 3ddd 18be cd63 8a3c
00000100: 99a7 0bbb d66b babd ee0b 85bd 0653 5dbe
00000110: d9d5 7e3e bcb2 9cbd 86d3 dabc 8813 893d
00000120: c87e 16be 82ec 26be 567b fb3c e73e f6bc
00000130: 6755 f8bd b550 1bbe ead0 9c3d b96f a93c
00000140: 6a14 d1bd b01e ec3d 9e00 93bd 7935 e9bd
00000150: 6d5e 7a3c b54e 51bd 4a26 113e 12c4 90bd
00000160: bdbe 16be f042 2fbe 2c1a 35bc ffd5 503d
00000170: 4056 48bd 6c89 1cbe 478e 9cbd 2634 90bd
00000180: 0318 c8be 389f 753d 330e c1bd d6aa 1e3e
00000190: 975a 723e acc3 ae3e 4923 c2bc 2a61 343e
000001a0: ead7 c8bd 9562 0cbe 9fd5 993d 9f05 283d
000001b0: 6166 5abe 7981 6d3d e023 28be 0ba2 253d
000001c0: 00e5 853d f7f2 c73d 39f0 d53d 9cb3 ac3d
000001d0: 0d53 853d 31e7 bfbe 3add 4b3e 8c95 90bd
000001e0: 9ffc 8abc 999a 3cbe b5a6 293e 8f42 3f3d
000001f0: c985 87be 71da 0c3e 52d8 b8bd fe0d c83e
00000200: 83b5 b73e 4c38 a4be b3a4 083e 6d9d 9f3b
00000210: 2701 e4bd cf9a 9c3d b705 283e bd0c 57be
00000220: 542d 1f3e 91b5 d53d 53d7 1abe 1acf 613e
00000230: b985 573d 0cae 9d3d 5e24 083d e536 78bb
00000240: e9f7 7e3d 0459 be3d 5ef1 3a3e c43a 6c3e
00000250: 712a 8b3d bca4 043d 0971 513d 4c24 6c3c
00000260: 8db2 b3bd 1265 d93b d4e6 09bd 7ad1 793c
00000270: 1dbf ca3c 8ac7 213d a962 8bbe eb15 a23d
00000280: f5d7 24be 1373 70be 7850 e43d df6d 58bd
00000290: 81be 5b3e 58a9 183e b631 393c f62a b23e
000002a0: cb36 063e ffa2 563d 87a6 d7bb e73c 0abe
000002b0: 9ffd 253e 6d6e c03d 674f ddbd bcbb c33d
000002c0: 6616 c9bd e54b d6bd 7ad2 293e bf45 093e
000002d0: bfc7 003d 5627 e0bc 2e39 4cbd 339d 4d3e
000002e0: 8ea3 4cbe 51cc 4e3e 55ab 0e3e 2942 8cbd
000002f0: e2ec c8bc 4747 cfbc a5c9 9b3c d130 fd3c
00000300: f82b 5abe 2353 a2bb 1852 263d b007 bc3d
00000310: 0a63 01bc 69bf d1be ad07 453e 0b39 2a3e
00000320: 59c9 803d c491 e33d 6143 563d d659 14be
00000330: bc86 c63d d303 8b3d 2b62 2e3e a69f 9dbd
00000340: 27cd 2c3e 1124 a4bc b70a 703e 24cc 9dbd
00000350: 9c23 3abd 02d1 a5bd a6d8 a7bd d67c 06be
00000360: be9b 9c3e f04d 80bc 5660 b5bd eae9 67be
00000370: 2015 34be 1482 b2bd 28e9 6abd 65ac 65be
00000380: 4c91 aebe a227 a0bc a316 f1bc 1f87 1ebd
00000390: afea aa3d a6ee fe3d e864 0bbe 8113 d0bd
000003a0: a818 333e 33d7 6a3c 67dd 21be 8bff 043e
000003b0: bd38 81be 3fdc c3bd 17e9 57bd 7cd7 1b3e
000003c0: 566b 58bd 4331 8fbc 38c0 4e3e d6b8 ed3d
000003d0: cbca 91bc 9409 27bd 95b1 9cbe 79f0 f13c
000003e0: d818 bf3d 2197 09bb 2ba1 0f3e b271 6c3e
000003f0: cf5a e33b 19cf 17bc d6d2 24be dbc8 893c

func_approx.network.4.bias f4 [30]
0.12374857 -0.050277118 0.10445975 -0.06671535 -0.06570762 0.07823619 0.025743295 -0.12463285
0.13539574 -0.020358523 0.004397958 -0.021233149 0.1490429 0.031582765 -0.01876497 -0.027465185
0.15965591 0.08282503 -0.07970962 -0.044377584 -0.18453066 0.10227173 -0.17426863 -0.15921082
0.01718109 -0.022025172 -0.12069101 0.15369573 0.014579376 -0.038637318
00000000: e46f fd3d 61ef 4dbd feee d53d 0fa2 88bd
00000010: b791 86bd 4c3a a03d 9ae3 d23c 823f ffbd
00000020: 2ea5 0a3e ebc6 a6bc bf1c 903b 24f1 adbc
00000030: b49e 183e ee5c 013d ffb8 99bc abfe e0bc
00000040: d77c 233e 2ba0 a93d cc3e a3bd 45c5 35bd
00000050: 9bf5 3cbe d773 d13d 7a73 32be 2908 23be
00000060: 5bbf 8c3c 226e b4bc d92c f7bd 6a62 1d3e
00000070: 56de 6e3c 2a42 1ebd

func_approx.network.6.weight f4 [30, 30]
0.15507777 0.021433767 -0.1260686 0.01331923 -0.03667403 -0.07269379 0.04452029 0.08660246
-0.09254135 -0.08973546 -0.17654496 -0.16003913 -0.02271169 -0.1122691 0.04743407 0.13649254
0.18481933 -0.015538879 -0.17087695 0.060452063 -0.06480099 -0.06630885 0.22357954 0.019297088
0.025140414 0.29064572 0.10766867 0.14109449 0.10848122 0.18074648 -0.12127542 -0.024577443
0.059162825 0.07914811 0.28864017 -0.07822636 0.03654938 0.19365306 -0.16380703 -0.12866615
0.10328033 -0.07696843 0.15587635 -0.14436027 0.050541565 -0.12157758 -0.077999346 -0.027806142
-0.17751823 0.111153916 0.04611003 0.12196613 0.09594608 0.05276334 0.027567323 0.31055543
-0.03440242 0.20456837 -0.18287022 -0.052967425 0.16422908 0.0852689 -0.09652353 0.18803096
0.14850116 -0.07026095 0.09115972 0.18844253 -0.08200423 0.11758496 -0.08707494 -0.34327123
-0.12861677 -0.15128766 0.12827398 0.10404702 0.18137628 0.042376906 -0.0028811472 -0.024034226
-0.047186118 -0.12034999 0.040426645 0.16410285 -0.043026313 0.09386979 -0.017659904 0.2198236
-0.07282722 0.17538816 -0.10810297 -0.15108564 -0.03556059 0.04602203 0.07474698 0.033112075
0.17555313 -0.11012918 0.07358541 0.14861402 -0.029003171 0.33035055 -0.16055512 0.16724187
0.10216604 0.055110104 -0.0145341065 0.048403457 -0.21715307 0.10660911 -0.15052296 -0.011511291
-0.07277197 0.07029568 -0.12275594 -0.21675427 0.0043048826 0.087892056 0.074726164 -0.09760286
0.03842006 -0.04796933 0.13756104 -0.069498755 0.22244577 0.03750871 0.09726388 0.089079395
-0.17680937 0.12928553 -0.13791744 -0.30084923 0.09162554 -0.021018373 -0.09720965 0.012166178
0.15993056 -0.2406103 0.09892066 0.07215843 -0.0035254273 0.036474496 -0.07996506 0.017179172
-0.021164889 0.17761895 -0.095202364 -0.19368528 -0.07544587 0.18813647 -0.14760675 0.21966036
0.08056222 -0.10242084 -0.14277141 0.13778372 -0.022176022 0.005220744 -0.008996914 0.046562843
-0.1444183 -0.0048872908 0.1618932 0.21855015 0.069590785 0.15796429 -0.10546605 0.08319533
-0.07181283 0.01990265 0.03330677 0.123774886 -0.15584932 0.12672071 0.12387539 -0.06327926
-0.050974462 -0.121477395 -0.010668601 -0.22524862 -0.07749793 0.16945122 0.16187826 -0.02290561
0.0047337078 -0.07847277 0.24790806 -0.18664889 0.10088163 -0.14325976 0.26125106 0.32294777
0.12722744 0.055065364 0.103724435 -0.06404875 -0.07515347 0.28875157 -0.12227633 -0.030686222
-0.27184746 0.17077054 -0.24106571 -0.1938006 -0.12072828 -0.15266183 0.23095182 0.10238486
0.15958631 -0.1198785 0.08959489 0.19779441 -0.16335505 0.12945063 -0.018949192 0.02020082
0.08349742 0.09533942 0.034423597 -0.034528166 -0.0077898186 0.012171483 -0.014306644 -0.034682084
0.12687126 -0.2083857 0.14461017 -0.10572683 0.10692006 -0.05679921 -0.28107673 0.08970015
-0.20855153 -0.14636455 0.014165552 -0.13274539 0.08232265 0.11829691 -0.106014095 0.13520877
-0.12801565 0.0076178634 0.11296651 -0.12957789 -0.15936181 -0.07585534 0.08124059 -0.034861542
0.20400736 0.08821386 -0.12236317 -0.009488778 0.008230697 0.060189206 -0.043259244 -0.01820976
00000000: b5cc 1e3e de95 af3c 2118 01be e638 5a3c
00000010: 8237 16bd 7be0 94bd e85a 363d a15c b13d
00000020: 5286 bdbd 3ac7 b7bd 34c8 34be 4ce1 23be
00000030: de0d babc 58ed e5bd 3a4a 423d b3c4 0b3e
00000040: 4741 3d3e c896 7ebc 5efa 2ebe 959c 773d
00000050: 62b6 84bd efcc 87bd 09f2 643e ed14 9e3c
00000060: 45f3 cd3c 84cf 943e 6481 dc3d 137b 103e
00000070: 672b de3d 9b15 393e 3f5f f8bd a256 c9bc
00000080: b854 723d 6718 a23d a5c8 933e 2435 a0bd
00000090: cdb4 153d fd4c 463e 08bd 27be 0fc1 03be
000000a0: a384 d33d a0a1 9dbd 0d9e 1f3e 2ed3 13be
000000b0: ac04 4f3d abfd f8bd 1fbe 9fbd b5c9 e3bc
000000c0: 57c7 35be aaa4 e33d dfdd 3c3d 61c9 f93d
000000d0: 617f c43d 5f1e 583d ded4 e13c 1f01 9f3e
000000e0: 8de9 0cbd 5f7a 513e 5542 3bbe 5ff4 58bd
000000f0: ab2b 283e 76a1 ae3d 21ae c5bd 308b 403e
00000100: b010 183e f9e4 8fbd f3b1 ba3d 14f7 403e
00000110: d5f1 a7bd 62d0 f03d 5954 b2bd 3fc1 afbe
00000120: 1db4 03be 27eb 1abe 415a 033e 9b16 d53d
00000130: b4ba 393e 6893 2d3d a1d1 3cbb 6de3 c4bc
00000140: 3b46 41bd 0e7a f6bd 6996 253d 940a 283e
00000150: 5c3c 30bd ce3e c03d 81ab 90bc 7019 613e
00000160: 7026 95bd f498 333e 1765 ddbd 32b6 1abe
00000170: fba7 11bd 9981 3c3d f214 993d 87a0 073d
00000180: 33c4 333e 688b e1bd f3b3 963d 462e 183e
00000190: 0f98 edbc b523 a93e 9068 24be 7441 2b3e
000001a0: 6e3c d13d 22bb 613d 7620 6ebc b442 463d
000001b0: 605d 5ebe e155 da3d b122 1abe db99 3cbc
000001c0: 7809 95bd 2ef7 8f3d 7767 fbbd d5f4 5dbe
000001d0: f90f 8d3b c000 b43d 080a 993d 02e4 c7bd
000001e0: 5a5e 1d3d 7d7b 44bd cddc 0c3e 5d55 8ebd
000001f0: d3c8 633e bca2 193d 4932 c73d 426f b63d
00000200: 840d 35be 6d63 043e 3b3a 0dbe e908 9abe
00000210: 2ca6 bb3d b92e acbc da15 c7bd a654 473c
00000220: d6c4 233e 8c62 76be ea96 ca3d cdc7 933d
00000230: db0a 67bb 4866 153d b9c4 a3bd 56bb 8c3c
00000240: fd61 adbc bee1 353e 75f9 c2bd 6f55 46be
00000250: 5d83 9abd d9a6 403e 3926 17be a5ee 603e
00000260: cefd a43d 04c2 d1bd ab32 12be 2d17 0d3e
00000270: 7daa b5bc c612 ab3b cb67 13bc aeb8 3e3d
00000280: 64e2 13be 9125 a0bb 55c7 253e 9ccb 5f3e
00000290: 9d85 8e3d 64c1 213e 96fe d7bd 5062 aa3d
000002a0: 9b12 93bd e20a a33c ae6c 083d b07d fd3d
000002b0: f796 1fbe 13c3 013e 61b2 fd3d 8f98 81bd
000002c0: 99ca 50bd 24c9 f8bd 5bcb 2ebc 93a7 66be
000002d0: 3cb7 9ebd 9f84 2d3e 6ac3 253e 8ca4 bbbc
000002e0: 381d 9b3b 55b6 a0bd 9cdb 7d3e e320 3fbe
000002f0: 079b ce3d b0b2 12be b3c2 853e 6959 a53e
00000300: e947 023e 388c 613d 7a6d d43d fe2b 83bd
00000310: 10ea 99bd 3fd7 933e 036c fabd ac61 fbbc
00000320: 972f 8bbe 79de 2e3e eed9 76be aa73 46be
00000330: 6340 f7bd 6253 1cbe a27e 6c3e 27af d13d
00000340: 986a 233e dc82 f5bd 877d b73d 9e8a 4a3e
00000350: 8c46 27be b58e 043e 563b 9bbc 317c a53c
00000360: b200 ab3d 5041 c33d c2ff 0c3d 686d 0dbd
00000370: bc41 ffbb e66a 473c 6a66 6abc cd0e 0ebd
00000380: 8aea 013e 1063 55be b014 143e 4f87 d8bd
00000390: e8f8 da3d 4aa6 68bd 4ae9 8fbe b6b4 b73d
000003a0: 888e 55be 97e0 15be a216 683c 68ee 07be
000003b0: c798 a83d a645 f23d eb1d d9bd 2b74 0a3e
000003c0: 8916 03be 459f f93b fc5a e73d 11b0 04be
000003d0: be2f 23be 0b5a 9bbd 7761 a63d faca 0ebd
000003e0: 4ee7 503e 78a9 b43d 8b99 fabd d276 1bbc
000003f0: 0cda 063c f588 763d 9b30 31bd a22c 95bc

func_approx.network.6.bias f4 [30]
0.12247769 -0.11214117 -0.14990114 0.041681804 -0.0513634 0.070210986 -0.053642675 0.14812933
-0.15406536 -0.14858922 0.13743141 -0.08378762 0.026982624 0.04943421 0.001955607 -0.0983896
0.033020582 -0.12597583 0.1323342 0.046866994 0.14840099 0.11889313 0.07334427 0.04950732
0.10538697 -0.08889199 0.1473927 -0.043944057 0.15130357 -0.03301951
00000000: 95d5 fa3d 45aa e5bd af7f 19be 8aba 2a3d
00000010: 6e62 52bd c7ca 8f3d 6cb8 5bbd 37af 173e
00000020: 4fc3 1dbe c627 18be d2ba 0c3e d898 abbd
00000030: aa0a dd3c 877b 4a3d a429 003b 7d80 c9bd
00000040: 9740 073d cfff 00be 9e82 073e 9bf7 3f3d
00000050: 6ef6 173e 3e7e f33d 8535 963d 30c8 4a3d
00000060: 20d5 d73d 010d b6bd 1dee 163e affe 33bd
00000070: 53ef 1a3e 773f 07bd

func_approx.network.8.weight f4 [1, 30]
0.079381205 0.1692562 0.045776356 -0.08319196 0.122737296 -0.19299719 -0.08680785 -0.038772795
-0.11338845 -0.044958327 0.12066902 -0.26665938 0.26087305 0.14162448 0.2539059 -0.06440305
-0.17525014 0.108992 0.207324 -0.13866907 -0.13533795 -0.05075946 0.27573743 0.05871816
-0.32047337 -0.11455958 -0.135018 0.2206083 -0.16594 0.1862993
00000000: 9d92 a23d 7f51 2d3e fd7f 3b3d 8c60 aabd
00000010: b15d fb3d 0ea1 45be 50c8 b1bd 39d0 1ebd
00000020: 3438 e8bd 3926 38bd 5221 f73d 9487 88be
00000030: 2791 853e 0206 113e f4ff 813e bfe5 83bd
00000040: c674 33be 3337 df3d be4c 543e 44ff 0dbe
00000050: 0896 0abe 27e9 4fbd 752d 8d3e 7482 703d
00000060: 1615 a4be 379e eabd 2942 0abe 24e7 613e
00000070: 2dec 29be 3ec5 3e3e

exp_avg f4 [30, 2]
-2.4102894e-07 2.8565614e-07 2.78428e-07 -1.4105164e-07 -2.600454e-07 2.6132173e-07 -4.3615525e-09 7.870437e-08
-9.234799e-08 -2.1225216e-07 -2.408902e-08 -2.55898e-07 6.8485924e-08 -1.7796562e-07 -6.0553944e-08 -2.4249155e-07
-3.0356634e-07 -4.81931e-07 6.239722e-08 2.1158871e-07 3.1728243e-07 1.3250197e-07 -1.8571068e-07 -2.4025448e-07
-6.2838745e-07 -2.8637796e-08 -9.764383e-08 -4.3822553e-07 -1.7579076e-07 -9.736513e-09 1.6338882e-07 -5.4338005e-07
1.4084688e-07 -1.07489974e-07 3.9621193e-07 -1.15273046e-07 -3.4009406e-07 -1.473625e-07 -4.0937678e-07 -4.3066052e-07
9.828189e-08 -3.8832832e-07 -3.5970103e-07 -1.226048e-06 6.287738e-07 -6.1951525e-08 6.2984964e-07 -4.8245744e-07
3.8962213e-07 2.9544688e-07 -8.523841e-07 7.257809e-08 2.2905601e-06 1.3407256e-07 -4.932908e-07 4.780403e-07
1.5730457e-07 -3.7610795e-07 1.657125e-07 -5.0806836e-08
00000000: c466 81b4 485c 9934 da7a 9534 fb73 17b4
00000010: 5e9c 8bb4 c94b 8c34 9fdc 95b1 2f04 a933
00000020: d850 c6b3 6ee7 63b4 51ec ceb2 5a62 89b4
00000030: 8912 9333 d116 3fb4 e209 82b3 c92f 82b4
00000040: d7f9 a2b4 0c5e 01b5 3cff 8533 1031 6334
00000050: f756 aa34 dd45 0e34 c367 47b4 53fc 80b4
00000060: 75ae 28b5 2eff f5b2 43b0 d1b3 4245 ebb4
00000070: ffc0 3cb4 a345 27b2 fa6f 2f34 cbdc 11b5
00000080: b23b 1734 3dd5 e6b3 f4b6 d434 078c f7b3
00000090: 2c96 b6b4 b23a 1eb4 51c8 dbb4 8835 e7b4
000000a0: 0a0f d333 707b d0b4 ef1c c1b4 b08e a4b5
000000b0: 02c9 2835 360a 85b3 f012 2935 3982 01b5
000000c0: 422d d134 e99d 9e34 64cf 64b5 3adc 9b33
000000d0: 86b7 1936 96f5 0f34 b06a 04b5 ae52 0035
000000e0: 8de7 2834 e2eb c9b4 b5ee 3134 b536 5ab3

exp_avg_sq f4 [30, 2]
5.809581e-14 8.160076e-14 7.752333e-14 1.9898157e-14 6.7629076e-14 6.829096e-14 1.9549729e-17 6.195763e-15
8.5290975e-15 4.5051433e-14 5.80887e-16 6.548691e-14 4.6907444e-15 3.1676e-14 3.6677988e-15 5.880336e-14
9.215474e-14 2.3225923e-13 3.894108e-15 4.4770723e-14 1.0066896e-13 1.7557612e-14 3.4488776e-14 5.772234e-14
3.9487277e-13 8.223297e-16 9.536373e-15 1.9204194e-13 3.0902544e-14 9.498935e-17 2.6699703e-14 2.9526498e-13
1.9838394e-14 1.1554874e-14 1.569881e-13 1.32915495e-14 1.1566488e-13 2.171629e-14 1.6759082e-13 1.8546899e-13
9.66212e-15 1.5080062e-13 1.2939541e-13 1.5032021e-12 3.9535814e-13 3.8409022e-15 3.967136e-13 2.327706e-13
1.5180645e-13 8.729218e-14 7.2656605e-13 5.2789406e-15 5.246781e-12 1.7981647e-14 2.433379e-13 2.2852396e-13
2.474565e-14 1.4146151e-13 2.7461218e-14 2.5818068e-15
00000000: f4d1 8229 a3bf b729 2891 ae29 073a b328
00000010: 8249 9829 0fc7 9929 7e50 b423 d439 df27
00000020: 85a5 1928 c4e4 4a29 e56d 2726 a276 9329
00000030: 7b00 a927 f1a7 0e29 7925 8427 d469 8429
00000040: 9783 cf29 15c0 822a cf4c 8c27 21a1 4929
00000050: b4af e229 1925 9e28 da52 1b29 aafa 8129
00000060: 2a4b de2a 3905 6d26 c2ca 2b28 5238 582a
00000070: 352c 0b29 d107 db24 537d f028 2b38 a62a
00000080: 39b0 b228 7327 5028 bdc0 302a 7470 6f28
00000090: 223a 022a 5b9a c328 c4b0 3c2a ccd1 502a
000000a0: aa0e 2e28 52c9 292a b0af 112a 908e d32b
000000b0: 1d91 de2a 1262 8a27 7454 df2a c709 832a
000000c0: 3beb 2a2a 8490 c429 9a82 4c2b a231 be27
000000d0: cd9a b82c dbf6 a128 b0fc 882a c6a5 802a
000000e0: 96e3 de28 8145 1f2a 4259 f728 ee09 3a27

max_exp_avg_sq f4 [30, 2]
1.615161e-06 4.0067175e-06 1.814766e-07 2.0083044e-06 4.4374087e-06 3.1232878e-06 3.0836617e-07 3.4597383e-06
2.2192103e-06 2.575583e-06 5.831288e-07 5.2203217e-07 5.8301e-07 8.520029e-06 1.0181702e-06 6.5897025e-06
5.8775487e-07 1.2469172e-06 5.1096285e-06 2.802619e-06 9.625732e-07 5.914471e-07 1.0791894e-07 1.5549605e-07
1.4131992e-07 7.456909e-07 1.8211144e-06 6.2447643e-06 1.0574152e-07 6.435401e-07 7.99427e-07 2.7055007e-06
1.5943481e-06 1.3804936e-05 1.4662589e-06 1.6194007e-06 8.061496e-07 1.3194523e-06 8.579681e-07 1.6475517e-06
8.543375e-06 1.6493377e-05 6.6701477e-06 1.0122392e-05 1.5064298e-07 1.4003136e-06 1.3648511e-06 9.293454e-07
5.7898333e-06 6.7995607e-06 6.1000387e-06 2.1107105e-06 4.862777e-07 7.8882977e-07 2.7865278e-06 8.6905e-06
3.1041004e-06 2.0133783e-05 2.3924956e-06 5.7397606e-06
00000000: 82c8 d835 7171 8636 e8db 4234 68c6 0636
00000010: 0de5 9436 ad99 5136 868d a534 da2d 6836
00000020: beed 1436 2ed8 2c36 4e88 1c35 c721 0c35
00000030: 2480 1c35 3ff1 0e37 10a8 8835 1d1d dd36
00000040: 35c6 1d35 c05b a735 6073 ab36 a114 3c36
00000050: c331 8135 efc3 1e35 11c1 e733 6ef6 2634
00000060: b9bd 1734 7d2b 4835 046d f435 1e8a d136
00000070: 0414 e333 bdbf 2c35 3598 5635 2690 3536
00000080: 62fd d535 c09b 6737 46cc c435 2f5a d935
00000090: 2e66 5835 0918 b135 1e4f 6635 7221 dd35
000000a0: 8455 0f37 425b 8a37 22d0 df36 58d3 2937
000000b0: 6dc0 2134 69f2 bb35 ed2f b735 2178 7935
000000c0: 4a46 c236 c827 e436 efae cc36 bba5 0d36
000000d0: c088 0235 f8bf 5335 2f00 3b36 6acd 1137
000000e0: 0a50 5036 f8e4 a837 c38e 2036 2b98 c036

exp_avg f4 [30]
-6.022911e-08 -2.4032545e-07 2.0633784e-08 -3.083529e-08 -1.5351343e-07 6.9076826e-08 -1.516798e-07 9.1091074e-08
-1.2277224e-07 1.2666746e-07 4.062932e-08 7.4699535e-08 -2.453116e-07 -8.9624784e-08 1.0954596e-08 -3.0126603e-08
-9.6737196e-08 -1.7482009e-07 -2.834875e-07 7.1764006e-08 2.44477e-07 -6.468483e-07 -1.4862688e-07 2.6674036e-07
-7.734995e-08 1.763249e-07 4.1741183e-07 -1.3397877e-07 -1.3234728e-07 -2.8293902e-08
00000000: 4e57 81b3 1406 81b4 2c3e b132 c36f 04b3
00000010: 73d5 24b4 6357 9433 6ddd 22b4 d99d c333
00000020: 60d3 03b4 1602 0834 6980 2e33 816a a033
00000030: 5fb3 83b4 bf77 c0b3 d332 3c32 8d64 01b3
00000040: d6bd cfb3 2eb6 3bb4 3a32 98b4 ae1c 9a33
00000050: aa40 8334 14a3 2db5 3f96 1fb4 8434 8f34
00000060: 961b a6b3 d253 3d34 a518 e034 cedb 0fb4
00000070: 581b 0eb4 f30a f3b2

exp_avg_sq f4 [30]
3.6316732e-15 5.776273e-14 4.321878e-16 9.520115e-16 2.3569461e-14 4.7723767e-15 2.3010179e-14 8.298882e-15
1.5076034e-14 1.6045899e-14 1.6590795e-15 5.5802166e-15 6.018157e-14 8.034061e-15 1.2039857e-16 9.128624e-16
9.359157e-15 3.0572218e-14 8.036746e-14 5.1515735e-15 5.977239e-14 4.1841763e-13 2.2090516e-14 7.116059e-14
5.9874616e-15 3.1108413e-14 1.7424423e-13 1.7952794e-14 1.7518628e-14 8.017724e-16
00000000: 46d8 8227 f211 8229 a923 f925 0633 8926
00000010: 7a4b d428 68f1 ab27 dc41 cf28 d77f 1528
00000020: f8ca 8728 5387 9028 3b19 ef26 6a0c c927
00000030: 5084 8729 91ba 1028 63cf 0a25 ae8e 8326
00000040: 7e99 2828 5eaf 0929 b0f8 b429 e19a b927
00000050: 7098 8629 568c eb2a 43f9 c628 4a3d a029
00000060: 96b8 d727 8f19 0c29 7b2e 442a 53b4 a128
00000070: 35cb 9d28 5c18 6726

max_exp_avg_sq f4 [30]
4.293292e-06 5.264176e-07 1.2482519e-05 7.867319e-07 5.1991774e-06 1.5563322e-06 1.8536704e-06 2.8117518e-06
1.5318492e-06 1.4057075e-05 2.1216051e-06 3.256891e-07 4.5527798e-07 4.838999e-06 2.622295e-07 2.318837e-06
4.4201206e-06 3.6976994e-06 1.752599e-06 2.353758e-06 2.2536256e-05 1.970464e-05 2.7637012e-07 3.4265238e-06
1.5553336e-05 1.6106382e-05 1.2350538e-06 7.5061207e-06 9.355623e-06 6.679698e-06
00000000: 190f 9036 244f 0d35 036c 5137 ce2f 5335
00000010: 9874 ae36 2be3 d035 a1cb f835 87b1 3c36
00000020: f099 cd35 add6 6b37 e660 0e36 5eda ae34
00000030: ee6c f434 af5e a236 8cc8 8c34 519d 1b36
00000040: 8c50 9436 fe25 7836 d83a eb35 41f5 1d36
00000050: 3e0c bd37 644b a537 0560 9434 3bf3 6536
00000060: 8978 8237 311c 8737 20c4 a535 16dd fb36
00000070: 18f6 1c37 2b22 e036

exp_avg f4 [30, 30]
-1.26743895e-08 -5.068057e-08 -2.3839974e-08 -3.6786847e-09 1.2549369e-08 2.7707696e-09 -1.9111638e-08 -1.9559416e-09
-5.182783e-08 -3.1825866e-09 -1.8911393e-08 1.905831e-09 1.8545728e-07 -3.8032276e-08 -1.8383068e-08 -7.67833e-08
-8.991296e-09 1.3075495e-08 -4.8015927e-08 -6.246326e-08 6.464928e-08 -9.3834664e-08 -3.654389e-08 1.4707165e-07
-6.22634e-09 -3.204428e-08 -3.555908e-07 -1.2978102e-08 -4.694927e-08 7.579478e-09 2.2692715e-08 -1.7118694e-07
8.483326e-08 -2.933367e-09 -4.88643e-08 -1.1138962e-08 -2.4565054e-08 2.1249047e-08 6.334131e-08 3.823494e-08
-8.347855e-08 1.3338285e-08 1.0842538e-07 3.5415482e-08 -2.05018e-08 1.8039591e-08 2.7406388e-08 -6.094743e-08
2.6179242e-08 4.0388638e-08 -7.394191e-08 1.4361846e-07 -4.102687e-08 -1.2095576e-07 1.0394446e-07 3.919795e-08
-1.7452805e-07 4.2796298e-08 -1.0835519e-08 4.0847716e-08 -1.9502775e-08 -9.940018e-08 3.9807396e-08 -4.026389e-08
-5.4236327e-09 3.620694e-08 -7.903028e-08 -3.2204177e-09 -9.775008e-09 -7.2155636e-08 -6.0635784e-08 7.215918e-08
-7.7344716e-08 1.32634765e-08 4.4988713e-08 -6.974534e-08 -3.8535042e-08 9.773727e-09 4.100427e-08 2.801442e-08
1.4939404e-08 -7.107077e-08 4.7057753e-08 1.06420764e-07 3.1934217e-08 -8.603025e-09 -1.4861179e-07 -6.502244e-08
-7.1023635e-08 -8.584521e-08 -6.0122485e-09 1.9426145e-07 -1.0648019e-07 4.402451e-08 2.0125547e-08 8.814284e-09
5.0839628e-08 1.3484462e-08 -2.5104757e-10 4.6315303e-09 1.1674164e-07 -7.0236695e-08 -1.8321856e-07 -1.40984815e-08
-5.0742884e-08 1.0261107e-07 2.796672e-08 6.371466e-08 -8.0852416e-08 -7.0876894e-08 -1.1584388e-09 -1.065842e-09
1.2597663e-07 3.744902e-08 -5.8742454e-08 -2.1263187e-08 1.9592616e-07 -3.916259e-09 1.6019649e-07 5.2268727e-09
6.62048e-08 -8.2930036e-08 7.3515554e-09 -1.3737568e-08 -6.117282e-08 -2.1997351e-08 -2.9172913e-08 -2.1254492e-08
-9.2696816e-08 2.2598103e-08 -9.526218e-09 -3.6785253e-09 5.2677628e-08 -8.795644e-08 -7.1922557e-09 -2.2810761e-08
-1.6664165e-08 -1.4960632e-08 -1.07906786e-07 -1.2173287e-07 -6.495043e-08 -1.311588e-07 7.825649e-08 8.610864e-09
-7.6179646e-10 -1.746612e-08 1.0853018e-07 4.8209404e-08 -4.1914365e-08 2.9361049e-08 3.0674997e-08 -7.992771e-08
-2.7264722e-08 -2.5214202e-08 -2.5767436e-08 3.1113558e-08 -7.4365865e-08 -8.232362e-09 -1.1323761e-07 -6.6246486e-08
2.529564e-08 8.213731e-08 6.23872e-08 -4.7613153e-08 6.714021e-08 -2.3006612e-08 -2.4908443e-08 6.069168e-08
1.107969e-07 5.7155066e-08 -1.4023357e-08 -3.6518574e-07 -1.04783155e-07 3.8386467e-08 -9.8833354e-08 -1.4652669e-08
7.2380013e-09 -3.845793e-08 2.1795519e-09 -7.752213e-08 -9.1345065e-08 4.2361148e-07 -2.844018e-07 4.2994504e-08
1.0749535e-07 2.4358188e-08 1.12098036e-07 -1.5486167e-08 5.5211736e-08 -6.30428e-08 2.3482116e-07 -1.8852157e-07
-1.8690639e-07 1.101943e-07 -2.1128255e-08 -5.2439457e-08 -2.9547325e-08 1.205001e-07 2.545098e-07 2.198615e-07
1.9637774e-07 -9.8392405e-08 1.7793072e-07 1.5547337e-07 -3.612216e-07 6.162384e-08 9.3368186e-07 -1.5029859e-07
1.1355634e-08 -1.1919513e-07 -6.9420544e-08 4.2956238e-08 -1.7311974e-07 4.1721997e-08 7.657122e-08 2.2052504e-08
1.6722867e-08 -1.4147543e-08 6.147502e-08 -4.841982e-08 2.4703047e-07 1.05046226e-07 1.09703024e-07 1.1469177e-07
6.828572e-08 1.4644392e-07 7.1405912e-09 1.2096491e-07 3.1324115e-07 2.8097497e-07 6.953717e-08 -1.5443517e-07
-2.498769e-07 6.1031834e-08 -2.255182e-07 -2.1905707e-08 5.4222133e-09 -8.90175e-08 1.161952e-07 -7.258581e-08
-4.626784e-08 3.1041654e-07 -2.3775438e-07 9.182075e-08 7.5246376e-08 8.237219e-09 1.3733616e-07 -3.74937e-08
8.7076685e-10 -3.577245e-08 2.1449262e-07 -4.416827e-08 -2.5662288e-07 3.4365655e-09 -1.990972e-08 6.3612354e-08
00000000: 8ebe 59b2 e0ab 59b3 a8c8 ccb2 1bcc 7cb1
00000010: b598 5732 e567 3e31 f02a a4b2 4a69 06b1
00000020: 4d99 5eb3 a8b4 5ab1 9872 a2b2 bcf7 0231
00000030: 1c22 4734 ee58 23b3 cbe8 9db2 11e4 a4b3
00000040: 2378 1ab2 a3a2 6032 123a 4eb3 8a23 86b3
00000050: 51d5 8a33 2782 c9b3 6ff4 1cb3 bfea 1d34
00000060: 77ef d5b1 0fa1 09b3 07e8 beb4 4cf6 5eb2
00000070: 45a5 49b3 e636 0232 cfed c232 82cf 37b4
00000080: 942d b633 5794 49b1 dede 51b3 ac5d 3fb2
00000090: 2003 d3b2 2687 b632 4106 8833 c337 2433
000000a0: d144 b3b3 6626 6532 7cd7 e833 bc1b 1833
000000b0: ef1b b0b2 7bf5 9a32 496b eb32 34e2 82b3
000000c0: c3e0 e032 c777 2d33 ffc9 9eb3 8b35 1a34
000000d0: 8535 30b3 11e0 01b4 1238 df33 9a5a 2833
000000e0: e865 3bb4 07cf 3733 1e27 3ab2 8a70 2f33
000000f0: 0e87 a7b2 d475 d5b3 b2f8 2a33 9eee 2cb3
00000100: c75a bab1 f481 1b33 5bb7 a9b3 304e 5db1
00000110: f1ee 27b2 fbf3 9ab3 e036 82b3 eef5 9a33
00000120: b518 a6b3 63dd 6332 9d39 4133 e8c6 95b3
00000130: ba81 25b3 4ee9 2732 ac1c 3033 5ca4 f032
00000140: 1954 8032 929f 98b3 8c1c 4a33 6f89 e433
00000150: 0b28 0933 81cc 13b2 1992 1fb4 77a2 8bb3
00000160: a885 98b3 e759 b8b3 4c94 ceb1 2e96 5034
00000170: 1baa e4b3 7615 3d33 8ce0 ac32 a26d 1732
00000180: c35a 5a33 4ba9 6732 ce03 8aaf 5f23 9f31
00000190: 65b3 fa33 08d5 96b3 bcba 44b4 c735 72b2
000001a0: 64f0 59b3 085b dc33 783b f032 81d3 8833
000001b0: 16a1 adb3 fc34 98b3 f136 9fb0 fb7c 92b0
000001c0: 3144 0734 a2d7 2033 034c 7cb3 3ea6 b6b2
000001d0: c65f 5234 c78f 86b1 7a02 2c34 0f98 b331
000001e0: 792c 8e33 4517 b2b3 f798 fc31 7702 6cb2
000001f0: 1d5e 83b3 b0f4 bcb2 ea97 fab2 1f93 b6b2
00000200: 9d10 c7b3 c11d c232 c0a8 23b2 4dc9 7cb1
00000210: aa3f 6233 90e2 bcb3 c01f f7b1 65f1 c3b2
00000220: e324 8fb2 c782 80b2 62ba e7b3 adb5 02b4
00000230: e07a 8bb3 a8d4 0cb4 f60d a833 fbee 1332
00000240: a966 51b0 6708 96b2 1911 e933 cd0e 4f33
00000250: 5505 34b3 a135 fc32 84bf 0333 b9a4 abb3
00000260: c233 eab2 9e96 d8b2 3157 ddb2 b8a1 0533
00000270: 11b3 9fb3 506e 0db2 092d f3b3 6443 8eb3
00000280: b349 d932 7763 b033 baf9 8533 377f 4cb3
00000290: b92e 9033 13a0 c5b2 3ff6 d5b2 9b55 8233
000002a0: 3def ed33 a97a 7533 60eb 70b2 bf0e c4b4
000002b0: 2605 e1b3 5ede 2433 363e d4b3 1fbb 7bb2
000002c0: 22b2 f831 f12c 25b3 15c7 1531 3e7a a6b3
000002d0: 7b29 c4b3 b86c e334 e3af 98b4 f5a8 3833
000002e0: 32d8 e633 393c d132 8cba f033 7106 85b2
000002f0: f221 6d33 2562 87b3 2623 7c34 6a6c 4ab4
00000300: 70b0 48b4 f5a3 ec33 867d b5b2 cb39 61b3
00000310: 41cf fdb2 d162 0134 90a3 8834 1213 6c34
00000320: e7db 5234 cc4b d3b3 390d 3f34 32f0 2634
00000330: ebed c1b4 1056 8433 21a2 7a35 c361 21b4
00000340: 9b16 4332 37f8 ffb3 5914 95b3 e27e 3833
00000350: cbe2 39b4 d231 3333 796f a433 f86d bd32
00000360: f9a5 8f32 8d0d 73b2 4004 8433 28f6 4fb3
00000370: 9c9f 8434 c695 e133 e095 eb33 784c f633
00000380: 79a4 9233 333e 1d34 4e59 f531 95e2 0134
00000390: 892b a834 e8d8 9634 7754 9533 d1d2 25b4
000003a0: d226 86b4 9b10 8333 f925 72b4 292b bcb2
000003b0: 4b4e ba31 e329 bfb3 fd86 f933 79e0 9bb3
000003c0: 07b8 46b3 53a7 a634 6d49 7fb4 fe2e c533
000003d0: 2297 a133 ac83 0d32 ad76 1334 c208 21b3
000003e0: c55a 6f30 3aa4 19b3 484f 6634 87b3 3db3
000003f0: fbc5 89b4 b328 6c31 f005 abb2 439b 8833

exp_avg_sq f4 [30, 30]
1.6112803e-16 2.5692686e-15 5.68483e-16 1.4224625e-17 1.5791479e-16 7.687776e-18 3.6655758e-16 4.120131e-18
2.6863265e-15 1.04597055e-17 3.5786483e-16 5.470188e-18 3.4396964e-14 1.4467829e-15 3.3956233e-16 5.8962836e-15
8.177811e-17 1.7103299e-16 2.306577e-15 3.9023464e-15 4.1807738e-15 8.8057266e-15 1.3371817e-15 2.1630352e-14
3.9327938e-17 1.026884e-15 1.264465e-13 1.6938883e-16 2.2051124e-15 5.8319304e-17 5.154346e-16 2.9305233e-14
7.197115e-15 8.6939445e-18 2.3882596e-15 1.2411566e-16 6.0370325e-16 4.5160806e-16 4.012415e-15 1.4621848e-15
6.9690318e-15 1.7867635e-16 1.17568436e-14 1.2546001e-15 4.2098347e-16 3.2568525e-16 7.5132627e-16 3.7148286e-15
6.8592696e-16 1.6317142e-15 5.468365e-15 2.0626645e-14 1.6838982e-15 1.4631124e-14 1.08053935e-14 1.5365628e-15
3.0460562e-14 1.8321933e-15 1.1752127e-16 1.6690685e-15 3.80668e-16 9.88065e-15 1.5847968e-15 1.6214054e-15
2.977666e-17 1.3109831e-15 6.2461666e-15 1.05132505e-17 9.5676825e-17 5.2064777e-15 3.6768608e-15 5.2074285e-15
5.9850747e-15 1.7608592e-16 2.0244168e-15 4.864697e-15 1.4852444e-15 9.5627776e-17 1.6817489e-15 7.8507037e-16
2.240029e-16 5.0513958e-15 2.215274e-15 1.1325453e-14 1.0202448e-15 7.402195e-17 2.2085895e-14 4.228238e-15
5.0446767e-15 7.3695034e-15 3.694697e-17 3.7737706e-14 1.1338718e-14 1.9382515e-15 4.0591664e-16 7.7832944e-17
2.5853144e-15 1.8187879e-16 5.380878e-19 2.1860425e-17 1.3629473e-14 4.934063e-15 3.3570555e-14 1.9937374e-16
2.575657e-15 1.0529419e-14 7.8224583e-16 4.059976e-15 6.538025e-15 5.0243326e-15 2.5442386e-18 1.4577092e-18
1.5871182e-14 1.4027305e-15 3.451848e-15 4.5226154e-16 3.8388465e-14 1.6315471e-17 2.5663497e-14 2.811824e-17
4.388295e-15 6.8825374e-15 5.5561986e-17 1.9081915e-16 3.747192e-15 4.842297e-16 8.563307e-16 4.5209505e-16
8.596487e-15 5.1255515e-16 9.34913e-17 2.2136468e-17 2.7870639e-15 7.741111e-15 5.819618e-17 5.2240603e-16
2.79716e-16 2.2467443e-16 1.1651767e-14 1.4825624e-14 4.226828e-15 1.7206028e-14 6.13402e-15 7.520969e-17
5.1240592e-18 3.05736e-16 1.1788509e-14 2.3302971e-15 1.7591566e-15 8.666216e-16 9.418323e-16 6.389503e-15
7.436799e-16 6.3613106e-16 6.648487e-16 9.681296e-16 5.53116e-15 6.788328e-17 1.2823336e-14 4.388918e-15
6.404817e-16 6.747942e-15 3.8942213e-15 2.2677975e-15 4.5088966e-15 5.2980847e-16 6.2082825e-16 3.68366e-15
1.2277713e-14 3.2681517e-15 1.9806895e-16 1.3336133e-13 1.09814705e-14 1.4737115e-15 9.768798e-15 2.1480242e-16
5.3813588e-17 1.4800655e-15 5.229172e-18 6.010455e-15 8.344246e-15 1.7945163e-13 8.088557e-14 1.8504568e-15
1.1555908e-14 5.93466e-16 1.25693675e-14 2.4073433e-16 3.0493281e-15 3.9745158e-15 5.514345e-14 3.554349e-14
3.4942366e-14 1.2143385e-14 4.487261e-16 2.7526354e-15 8.7513226e-16 1.4520721e-14 6.477641e-14 4.8339987e-14
3.8565064e-14 9.683801e-15 3.1660967e-14 2.4173163e-14 1.3048248e-13 3.7977053e-15 8.7176897e-13 2.2589869e-14
1.3186308e-16 1.4207919e-14 4.8205085e-15 1.8459287e-15 2.997071e-14 1.7411742e-15 5.8641573e-15 4.864016e-16
2.8063882e-16 2.0035871e-16 3.781409e-15 2.3448506e-15 6.1024834e-14 1.1036343e-14 1.20369125e-14 1.3156375e-14
4.664255e-15 2.1446956e-14 5.1565328e-17 1.4632647e-14 9.8122994e-14 7.895008e-14 4.837043e-15 2.3853261e-14
6.2440565e-14 3.726148e-15 5.0859382e-14 4.801935e-16 3.0937018e-17 7.925484e-15 1.3502134e-14 5.2696643e-15
2.1420847e-15 9.6358895e-14 5.6527537e-14 8.431165e-15 5.6634097e-15 6.8016706e-17 1.8861694e-14 1.4058319e-15
2.2954012e-18 1.2801422e-15 4.6007977e-14 1.9520238e-15 6.585809e-14 1.313862e-17 3.9735763e-16 4.0489577e-15
00000000: 9ac4 3925 a422 3927 a4da 2326 f232 8323
00000010: 3810 3625 7fd0 0d23 5a4e d325 8901 9822
00000020: fa91 4127 90f2 4023 874b ce25 77d0 c922
00000030: 00e9 1a29 de80 d026 8ebe c325 9e6f d427
00000040: 4791 bc24 0730 4525 d634 2627 cb98 8c27
00000050: d5a0 9627 3fa1 1e28 4cb5 c026 32d4 c228
00000060: 3c5e 3524 55fd 9326 b95d 0e2a c24a 4325
00000070: 25e5 1e27 a479 8624 5c90 1426 a2fa 0329
00000080: d6a6 0128 fe5f 2023 9d17 2c27 7a18 0f25
00000090: 7001 2e26 cb2a 0226 ff8f 9027 19b9 d226
000000a0: f915 fb27 f3ff 4d25 dfca 5328 93ce b426
000000b0: 32ae f225 a9be bb25 188e 5826 3fd7 8527
000000c0: 7ab4 4526 a127 eb26 c404 c527 cec9 b928
000000d0: e1ac f226 13c9 8328 15a7 4228 2971 dd26
000000e0: a32e 0929 0006 0427 287e 0725 c289 f026
000000f0: ae70 db25 75fe 3128 af64 e426 4dab e926
00000100: 1352 0924 bdee bc26 b80a e127 6cef 4123
00000110: a19d dc24 4895 bb27 0e79 8427 0d9e bb27
00000120: 92a2 d727 6403 4b25 e6df 1127 e944 af27
00000130: d90b d626 ad80 dc24 955d f226 f847 6226
00000140: fe20 8125 e7fe b527 98a0 1f27 6f05 4c28
00000150: 6408 9326 d9ae aa24 9bee c628 9d56 9827
00000160: eec0 b527 d6c1 0428 4863 2a24 9df4 2929
00000170: 9b42 4c28 6eaa 0b27 b9fe e925 7678 b324
00000180: a24a 3a27 25b1 5125 c4d0 1e21 78a0 c923
00000190: da86 7528 b3c4 b127 3730 1729 bedc 6525
000001a0: 7c98 3927 60ae 3d28 8e77 6126 ab46 9227
000001b0: a38e eb27 4a05 b527 4fbb 3b22 b21e d721
000001c0: 74f4 8e28 9f27 ca26 5bbb 7827 035b 0226
000001d0: e3e2 2c29 d17b 9623 ff27 e728 29ac 0124
000001e0: e11a 9e27 34f8 f727 021e 8024 dfff 5b25
000001f0: bf01 8727 d891 0b26 0ed2 7626 ba4e 0226
00000200: 4ddc 1a28 e5bb 1326 8693 d724 422c cc23
00000210: 41d4 4827 9373 0b28 f630 8624 c392 1626
00000220: cc3e a125 1884 8125 4ae6 5128 9089 8528
00000230: 9b49 9827 66fa 9a28 5900 dd27 f76b ad24
00000240: 5f0b bd22 ac3e b025 e75c 5428 65ea 2727
00000250: 6c85 fd26 63c9 7926 7bbb 8726 c334 e627
00000260: e459 5626 305a 3726 2da1 3f26 ae85 8b26
00000270: f247 c727 3787 9c24 3301 6728 a020 9e27
00000280: 359b 3826 c81e f327 da4d 8c27 7b69 2327
00000290: 3b73 a227 f7b4 1826 0af1 3226 c4b7 8427
000002a0: f52c 5d28 c27e 6b27 a35b 6425 c926 162a
000002b0: 18d3 4528 5c62 d426 a1fa 2f28 7ca6 7725
000002c0: df2b 7824 c74c d526 22ec c022 aa8c d827
000002d0: 0b51 1628 690b 4a2a 5b23 b629 e756 0527
000002e0: 382c 5028 100e 2b26 fa6d 6228 1ec6 8a25
000002f0: 2dba 5b27 7032 8f27 1258 7829 db12 2029
00000300: ce5d 1d29 7bc1 5a28 2456 0126 2959 4627
00000310: 5d3d 7c26 81ca 8228 0fdd 9129 36b4 5929
00000320: 7eae 2d29 a672 2e28 9c96 0e29 85bb d928
00000330: 04e9 122a a6d3 8827 9361 752b b178 cb28
00000340: 1d07 1825 76f2 7f28 58ad ad27 6003 0527
00000350: e0f9 0629 fded fa26 4e47 d327 1a32 0c26
00000360: fbc6 a125 74ff 6625 583d 8827 dcf6 2827
00000370: 6c6a 8929 26d0 4628 76d6 5828 1201 6d28
00000380: 290c a827 502d c128 98cd 6d24 96cc 8328
00000390: 0ef4 dc29 9fc7 b129 d945 ae27 e0d9 d628
000003a0: 899a 8c29 a63f 8627 e00c 6529 0768 0a26
000003b0: fcab 0e24 d8c5 0e28 9a3b 7328 13dc bd27
000003c0: 7d5a 1a27 1ffb d829 d093 7e29 e3e1 1728
000003d0: bc0b cc27 fad5 9c24 1be4 a928 0b9a ca26
000003e0: e75e 2922 e97c b826 9633 4f29 7ca8 0c27
000003f0: 9b4c 9429 615d 7223 a30f e525 0be1 9127
