paper/Burgers/runs/random_grid12checkpoint.pt (torch, 59095 bytes, 36 tensors)

func_approx.network.0.weight f4 [30, 2]
0	0x3e486d02	0.19572833
1	0xbf2dc54d	-0.6787918
2	0xbf629bc8	-0.88518953
3	0xbf25de1c	-0.64792037
4	0xbf4a7819	-0.79089504
5	0xbe1a79f8	-0.1508559
6	0xbd11d956	-0.03560766
7	0xbf5a2516	-0.8521284
8	0x3dd3bdca	0.10338934
9	0xbee98cae	-0.45615143
10	0x3d5ae11b	0.053437334
11	0xbf413fa7	-0.7548775
12	0x3e5eb7c0	0.21749783
13	0xbe840293	-0.25783214
14	0xbcd09c41	-0.025465133
15	0xbe29f29d	-0.16596456
16	0x3d3cf2e0	0.04613006
17	0x3f14e98a	0.5816885
18	0xbdb9a9e0	-0.09065604
19	0xbe864db5	-0.2623116
20	0x3e515010	0.20440698
21	0xbf36f5e8	-0.71468973
22	0x3e25bfd2	0.16186455
23	0xbed255cd	-0.41081086
24	0x3f118f58	0.5685935
25	0x3f5aeae9	0.85514694
26	0x3e663105	0.22479637
27	0xbe945092	-0.2896772
28	0xbedea450	-0.43484735
29	0x3f128b41	0.57243735
30	0xbe7e7ed1	-0.24853064
31	0x3efa6ac6	0.48909587
32	0xc00bb1d3	-2.1827285
33	0xbed3a60b	-0.41337618
34	0x3ecadd4a	0.39621955
35	0x3f282cbc	0.6569326
36	0xbea0a446	-0.3137533
37	0x3e76c703	0.24099354
38	0xbd29cf83	-0.041457664
39	0xbedbcb55	-0.42928568
40	0x3f5d4ee6	0.86448514
41	0xbee76b74	-0.45199168
42	0xbec8a498	-0.39188075
43	0x3f2a34aa	0.6648661
44	0x3f1bd02e	0.6086453
45	0xbec2efa0	-0.38073444
46	0xbec6ba0b	-0.38813815
47	0xbf38c862	-0.7218076
48	0x3ebee3d7	0.37283203
49	0xbe7d8040	-0.24755955
50	0xbe025078	-0.12726009
51	0xbf3b21da	-0.7309853
52	0xbedb4cda	-0.4283207
53	0x3eb2ae49	0.34898594
54	0xbf8df680	-1.1090851
55	0x3ee7b11d	0.45252314
56	0xbedbe487	-0.4294779
57	0x3f71825f	0.94339556
58	0xbed7f406	-0.42178363
59	0x3f62ed28	0.8864312

func_approx.network.0.bias f4 [30]
0	0xbd93140d	-0.07181559
1	0x3e02723e	0.12738892
2	0x3c070b10	0.008242384
3	0xbe9c8c6d	-0.30575886
4	0xbe0ccb29	-0.13749374
5	0x3e8f4b79	0.2798727
6	0x3e866cfc	0.26255023
7	0x3f06a213	0.52591056
8	0xbba8521a	-0.0051367404
9	0x3e79e4e5	0.24403723
10	0x3eff3c71	0.498508
11	0xbe8437b8	-0.2582376
12	0xbe121c54	-0.14268619
13	0x3e98baf5	0.29830137
14	0xbe7285c0	-0.23683834
15	0x3e100b91	0.14066912
16	0x3dceb3ad	0.10092864
17	0x3c8c6941	0.017140033
18	0xbe0a6423	-0.13514762
19	0x3f1b9354	0.6077168
20	0x3e5d5ac2	0.21616653
21	0xbf21f033	-0.6325714
22	0xbf2020be	-0.6254996
23	0xbe47d616	-0.19515261
24	0xbed1748b	-0.40909228
25	0x3f0ef9bb	0.5584981
26	0x3ed42718	0.41436076
27	0x3e148338	0.14503181
28	0x3f1aaf45	0.6042369
29	0x3f069900	0.5257721

func_approx.network.2.weight f4 [30, 30]
0	0x3e835092	0.25647408
1	0x3d9c6603	0.07636645
2	0x3de34063	0.11096265
3	0x3db5f6cf	0.08884966
4	0x3e5b147c	0.21394533
5	0x3d8ba5a4	0.06818703
6	0x3df30d75	0.11867801
7	0xbe1d3458	-0.15351999
8	0xbd8fb7c6	-0.07017474
9	0xb9652481	-0.0002185274
10	0x3e62c0b5	0.22143824
11	0x3daf4b62	0.085593
12	0xbdd2ddf6	-0.10296242
13	0x3e9131cd	0.28358307
14	0xbec54c27	-0.38534662
15	0xbe8775ce	-0.26457065
16	0xbe65c495	-0.22438271
17	0xbe3e1e40	-0.18566227
18	0xbe5b4071	-0.21411301
19	0xbcd0f454	-0.02550713
20	0x3e9de010	0.3083501
21	0xbe8fd637	-0.2809312
22	0xbdbe6b8d	-0.092978574
23	0x3e2a6f20	0.16643953
24	0xbd6654db	-0.05623327
25	0x3e0e7761	0.13912727
26	0xbe1c2087	-0.15246783
27	0xbda17494	-0.07883564
28	0x3e061a5c	0.13095993
29	0xbe121f8d	-0.14269848
30	0xbe6f59b4	-0.23374063
31	0x3e1e6508	0.15468228
32	0x3d694501	0.056950573
33	0x3d4450d1	0.047928635
34	0xbccee313	-0.025254762
35	0xbba06567	-0.0048949006
36	0xbda71b14	-0.081594616
37	0x3ddf9804	0.109176666
38	0xbb7c7998	-0.0038524624
39	0x3c113b29	0.008864203
40	0xbe83009c	-0.25586402
41	0xbe1c2dfd	-0.15251918
42	0x3d4ce868	0.050026327
43	0xbd249db6	-0.040189467
44	0x3ec531c9	0.38514546
45	0x3e60fa4a	0.21970478
46	0x3eea1a64	0.4572326
47	0x3d976450	0.0739218
48	0x3e8f64b7	0.28006527
49	0xbe4da9ac	-0.20084256
50	0xbe73b836	-0.2380074
51	0x3e885c13	0.26632747
52	0xbdaf7456	-0.08567111
53	0x3e1f7160	0.15570593
54	0x3ceb9a36	0.028760057
55	0xbe2a5e5a	-0.16637555
56	0x3e2a690a	0.16641632
57	0x3e09a87e	0.13443181
58	0x3e21b97b	0.15793411
59	0x3e3faefa	0.18719092
60	0x3e8e1ba7	0.27755472
61	0x3ef2f7a3	0.47454557
62	0x3d897b45	0.06712965
63	0x3d27ab11	0.040934626
64	0x3e880a83	0.2657052
65	0x3e39bbdd	0.1813807
66	0xbd0be525	-0.034154076
67	0x3c1b31dd	0.009472338
68	0xbea9c6ef	-0.33159587
69	0x3e3a183b	0.18173306
70	0xbdbdb509	-0.09263045
71	0x3e3909c4	0.18070132
72	0xbefa8f1b	-0.48937306
73	0xbd04743b	-0.03233741
74	0x3d450f37	0.048110213
75	0xbe1954e1	-0.14973785
76	0x3f1dba7d	0.61612684
77	0xbe1afe87	-0.15136157
78	0xbdc17acb	-0.09447249
79	0x3da32fff	0.07968139
80	0xbdf7de2c	-0.12102923
81	0xbdd5009b	-0.10400506
82	0xbc1c8439	-0.009553009
83	0x3e64c1a5	0.22339495
84	0x3d95c69d	0.07313273
85	0x3e5e12ab	0.21686809
86	0x3e20374f	0.15646099
87	0x3e8c99e1	0.2746115
88	0xbe057a5d	-0.13034959
89	0xbe0fe4be	-0.14052102
90	0xbe0d659f	-0.13808297
91	0x3e0e1e22	0.13878682
92	0x3e2ebf9d	0.17065282
93	0xbe2cf3cc	-0.16889876
94	0xbd401ebf	-0.04690432
95	0xbe2d959d	-0.16951604
96	0x3e01f414	0.12690765
97	0xbdb64103	-0.08899119
98	0xbd9a7cb3	-0.07543316
99	0xbc51733d	-0.012783823
100	0xbe8f15da	-0.2794636
101	0x3dbc1d37	0.0918526
102	0x3e495cbc	0.19664282
103	0xbe6b9195	-0.23004754
104	0x3e2baf2a	0.16766039
105	0x3d91c27b	0.07117172
106	0x3de501d0	0.11181986
107	0xbdd6cacb	-0.104878984
108	0x3e857272	0.26063877
109	0x3d86fb82	0.0659094
110	0xbe77ae5a	-0.24187604
111	0x3e6cc442	0.23121741
112	0xbdfcfc67	-0.123528294
113	0x3c3e9c25	0.011633907
114	0xbdc0f0f8	-0.09420961
115	0xbd46e226	-0.048555516
116	0xbd192cf8	-0.0373964
117	0x3eac8118	0.3369224
118	0x3ba42c60	0.0050101727
119	0x3e623587	0.22090732
120	0xbe97802f	-0.29589984
121	0xbe25a104	-0.16174704
122	0x3da46671	0.08027352
123	0xbebfb14c	-0.37439954
124	0xbe259e2b	-0.16173618
125	0xbd40b58c	-0.047048137
126	0x3c0f21f1	0.00873612
127	0xbda74e10	-0.08169186
128	0x3d5ff623	0.054678094
129	0x3d0f7ad9	0.035029266
130	0xbe77b058	-0.24188364
131	0xbe91b02e	-0.28454727
132	0x3e88c913	0.26715907
133	0xbd9af213	-0.07565703
134	0xbd95c2b6	-0.07312529
135	0x3dd85868	0.10563737
136	0xbe6d22d0	-0.23157811
137	0x3dc22703	0.09480097
138	0xbd8a059a	-0.0673935
139	0xbdf163b0	-0.11786592
140	0x3df0c5e4	0.11756495
141	0x3e353a56	0.17698035
142	0xbe8c81fc	-0.2744292
143	0xbd763ce3	-0.06011666
144	0x3d0e60ce	0.03476029
145	0xbe00cd42	-0.125783
146	0x3e4e890e	0.2016947
147	0x3cf1783f	0.029476283
148	0x3ec19771	0.37810853
149	0x3e00a98d	0.12564678
150	0xbe8f20a4	-0.2795459
151	0xbe7472aa	-0.23871866
152	0xbe4002e3	-0.18751101
153	0x3d07ff94	0.033202723
154	0xbe090a1d	-0.13382764
155	0xbe33aded	-0.17546816
156	0x3d28c99b	0.04120789
157	0x3db85d88	0.09002215
158	0x3c097152	0.008388834
159	0x3d91e10f	0.07123005
160	0x3c5e3987	0.01356352
161	0xbdeecd66	-0.116602704
162	0x3e73d204	0.23810583
163	0x3da6a232	0.08136405
164	0xbe438547	-0.1909381
165	0xbdf0d4d6	-0.11759345
166	0xbeea63bc	-0.45779216
167	0x3bbcbb58	0.005759638
168	0xbe003f4f	-0.1252415
169	0x3c935ab6	0.01798759
170	0x3c7ae97b	0.015314455
171	0x3d43ad46	0.04777267
172	0xbd8f3097	-0.0699169
173	0xbe4a9d17	-0.19786488
174	0xbe04a23b	-0.12952511
175	0x3dfb20c2	0.122621074
176	0xbe3f4a77	-0.1868075
177	0xbd2a9789	-0.04164842
178	0x3e88a68b	0.26689562
179	0x3e451d52	0.19249466
180	0xbd8a0360	-0.06738925
181	0x3c99b282	0.018761877
182	0x3c1e3d2b	0.009658138
183	0xbe889e86	-0.26683444
184	0xbe51fb5a	-0.2050604
185	0xbe89cacb	-0.2691253
186	0xbe2b3c85	-0.16722305
187	0x3d4b2e04	0.04960443
188	0x3ea29951	0.31757596
189	0xbbc662f1	-0.006054275
190	0xbe646356	-0.22303519
191	0xbe907a90	-0.28218508
192	0x3e9b3740	0.3031559
193	0xbd4eb732	-0.050467677
194	0xbd375715	-0.044760782
195	0x3e5a51c6	0.21320257
196	0xbea7e544	-0.32792103
197	0x3e96eca2	0.29477412
198	0x3e3c2f36	0.18377385
199	0xbe0b6619	-0.13613166
200	0x3d59f546	0.053212427
201	0xbdb37fb5	-0.087645926
202	0x3d976243	0.07391789
203	0xbeafd77c	-0.3434409
204	0x3c91e3d5	0.017808834
205	0x3dcb1e26	0.0991786
206	0x3e10be4e	0.14135095
207	0x3e72b149	0.23700441
208	0x3e3f80cc	0.18701476
209	0x3e8c56c2	0.2740994
210	0x3e310bac	0.17289609
211	0x3ea29bd6	0.31759518
212	0x3e5aafb6	0.21356091
213	0x3ef65e1b	0.48118672
214	0xbd4f71a2	-0.050645478
215	0x3e281575	0.16414435
216	0x3e068c10	0.13139367
217	0x3daa1edb	0.083066665
218	0xbe978977	-0.29597065
219	0x3dd5ca0d	0.10438929
220	0xbdcbc234	-0.09949151
221	0xbd56b901	-0.052422527
222	0xbd4b69e7	-0.049661543
223	0xbe2ed84a	-0.17074695
224	0x3e198d07	0.14995204
225	0xbe25dc74	-0.16197377
226	0x3f863ed1	1.048792
227	0xbee57427	-0.4481518
228	0xbd2f92b2	-0.04286451
229	0x3d31e8d8	0.043434948
230	0xbe0a8482	-0.1352711
231	0x3e441f92	0.19152668
232	0x3d139544	0.036031023
233	0x3f01a481	0.5064164
234	0xbe3bf8dc	-0.18356651
235	0xbdc2f7c5	-0.095199145
236	0x3c2e46b2	0.010636972
237	0x3e994e31	0.29942468
238	0xbee9bfce	-0.45654148
239	0xbebd6625	-0.36991993
240	0xbe1a232f	-0.15052484
241	0x3f481d33	0.78169554
242	0x3e71d236	0.23615345
243	0xbe3805e2	-0.17970994
244	0xbd361902	-0.044457443
245	0x3eb6b59d	0.35685435
246	0x3dbfe87c	0.09370515
247	0xbc838f18	-0.016059443
248	0xbe6c03fd	-0.23048396
249	0x3de8099e	0.11329959
250	0x3e1d3bf2	0.15354899
251	0xbbcd6855	-0.006268541
252	0xbe7a71d5	-0.24457486
253	0x3dfa8e17	0.12234133
254	0x3dd1545f	0.10221171
255	0xbe2eb631	-0.17061688

func_approx.network.2.bias f4 [30]
0	0x3e20de5e	0.15709826
1	0x3d4af1c2	0.049546964
2	0xbd886da1	-0.06661535
3	0xbe24f2be	-0.16108224
4	0xbd9161b2	-0.07098712
5	0xbe354b69	-0.17704548
6	0x3dd47687	0.1037417
7	0xbdde204d	-0.10846005
8	0x3d5bcb6e	0.053660803
9	0xbceb986c	-0.028759204
10	0xbdb0cc44	-0.086327106
11	0xbbdb9419	-0.006701004
12	0xbd5cfd16	-0.0539523
13	0xbcdea921	-0.027180256
14	0x3d100b84	0.035167232
15	0xbe2c9da2	-0.16857007
16	0xbe30d73a	-0.17269602
17	0x3e215a5e	0.15757129
18	0x3bc55c6e	0.0060229814
19	0xb99b836b	-0.00029661818
20	0x3df2ac0e	0.11849223
21	0xbd061777	-0.03273722
22	0x3da3808e	0.07983504
23	0xbdce0a07	-0.10060506
24	0xbe00be16	-0.12572512
25	0x3d40fa08	0.04711345
26	0x3cff62d8	0.031175062
27	0x3d0b0913	0.0339442
28	0xbc3b9a13	-0.011450308
29	0xbca44b8a	-0.020055551

func_approx.network.4.weight f4 [30, 30]
0	0x3e28dd73	0.16490726
1	0x3e076eaf	0.13225816
2	0xbdcc4314	-0.09973732
3	0xbd62613c	-0.05526851
4	0xbd5ffbe5	-0.054683585
5	0xbe0513be	-0.12995812
6	0x3cbb8412	0.022890124
7	0xbd8bb1d2	-0.06821026
8	0x3e3349ca	0.17508617
9	0xbdd7eea9	-0.10543568
10	0x3e11c823	0.14236502
11	0x3e03e345	0.12879665
12	0x3e25356f	0.16133665
13	0x3e1dbd0c	0.15404147
14	0x3da616a4	0.08109787
15	0xbe08fbd7	-0.1337732
16	0x3e2e0c16	0.16996798
17	0xbe689768	-0.22714007
18	0x3cca7d53	0.024717962
19	0x3e752bd5	0.23942502
20	0x3c981d8e	0.01856878
21	0x3d6413cc	0.055682942
22	0xbdf7c884	-0.12098792
23	0xbe1e090d	-0.1543314
24	0x3dc24c14	0.09487167
25	0x3dfc66db	0.123243056
26	0xbddb21bf	-0.10699796
27	0x3d3be7e0	0.04587543
28	0xbc2c05ef	-0.010499462
29	0xbd8db2ff	-0.069189064
30	0x3e2ea4e7	0.17055093
31	0xbee49528	-0.44645047
32	0x3dd0e4bc	0.101998776
33	0xbe51ebb8	-0.20500076
34	0x3d96537e	0.073401436
35	0x3e096c66	0.13420257
36	0x3dd0e053	0.101990364
37	0xbe1c80c8	-0.15283501
38	0xbf0de7f9	-0.5543209
39	0x3d9b9847	0.07597404
40	0x3c6d1e43	0.014472547
41	0x3e026590	0.12734056
42	0x3e6ec753	0.23318224
43	0xbe37f8a5	-0.17965944
44	0xbe423591	-0.18965746
45	0xbdc420c2	-0.095765606
46	0x3e18577f	0.14877127
47	0x3ea169c5	0.31526008
48	0xbedac2f7	-0.4272687
49	0xbee37a9c	-0.4442948
50	0xba1736ea	-0.00057683757
51	0x3c4a10d8	0.012333117
52	0xbd35ef58	-0.04441771
53	0xbe380a26	-0.17972621
54	0x3c8fc7ad	0.017551268
55	0x3de0649d	0.109566905
56	0x3e68cdbc	0.22734731
57	0x3e2c1403	0.16804509
58	0xbe64134a	-0.22272983
59	0xbdf4b9ee	-0.11949526
60	0x3d1eb5be	0.03874754
61	0xbd6568ef	-0.056008276
62	0xbafa81ff	-0.0019112228
63	0x3dfffd70	0.12499511
64	0xbd487ecf	-0.04894906
65	0xbe0ec756	-0.13943228
66	0xbd87d289	-0.06631953
67	0xbe52815f	-0.20557164
68	0x3d96cf17	0.07363718
69	0x3d4ca3f2	0.049961038
70	0xbd8c0cc5	-0.06838373
71	0x3e1be4bf	0.15223978
72	0xbe66ddcf	-0.22545551
73	0x3e7f23a0	0.24915934
74	0xbd9bebfe	-0.07613371
75	0xbde38611	-0.111095555
76	0x3d855489	0.065102644
77	0xbe4b6a49	-0.19864763
78	0x3cc69e48	0.024245396
79	0x3e14aca0	0.14518976
80	0xbd967e08	-0.07348257
81	0x3cc7ce1a	0.02439027
82	0x3da091af	0.07840287
83	0x3e415125	0.1887861
84	0x3b3de609	0.0028976223
85	0x3d244f7a	0.040114857
86	0xbdab2154	-0.08355966
87	0xbd360f29	-0.04444805
88	0x3e0b729f	0.13617943
89	0x3e59dc35	0.21275409
90	0xbd42d4fa	-0.04756639
91	0xbc9dd4ab	-0.019266447
92	0x3de9b4d3	0.114114426
93	0xbe24bf5c	-0.16088623
94	0xbe6ad5dd	-0.22933145
95	0xbd5768b9	-0.052590106
96	0xbe1cb4bb	-0.15303318
97	0xbdc7b9bd	-0.09752224
98	0x3e9382c7	0.28810713
99	0x3d9577f5	0.072982706
100	0x3d582fc5	0.05277993
101	0x3c4fd4c7	0.012685007
102	0x3dadffc9	0.08496053
103	0x3e87db1f	0.26534364
104	0x3d173195	0.03691252
105	0xbe1ab093	-0.1510642
106	0x3dcc30b5	0.09970228
107	0x3d123221	0.035692338
108	0x3e9f99a5	0.3117191
109	0x3e69ef21	0.22845127
110	0xbde2d2cd	-0.11075363
111	0xbd1edf47	-0.038787153
112	0xbc9157bb	-0.017742028
113	0xbe496911	-0.19668986
114	0x3d03087e	0.03199052
115	0xbe5dde22	-0.21666768
116	0x3d47ee4d	0.048811246
117	0xbcf5b09b	-0.029991439
118	0x3e0c0c77	0.1367663
119	0xbe3a3e4d	-0.18187828
120	0xbbcb12c6	-0.0061973063
121	0x3e2e6059	0.17028941
122	0xbd4d92f3	-0.05018897
123	0xbe1d8ffd	-0.15386958
124	0x3bed5f93	0.0072440594
125	0xbda501ab	-0.08056959
126	0xbdec9e0b	-0.11553582
127	0xbd0298d9	-0.031884048
128	0x3cdf3a6c	0.027249537
129	0xbe667762	-0.22506478
130	0xbd934618	-0.07191104
131	0xbdad6ffb	-0.08468624
132	0xbdfa70ba	-0.12228532
133	0x3d56e644	0.052465692
134	0xbddde819	-0.10835285
135	0x3a23c2f3	0.0006247006
136	0xbdfcaf0e	-0.123380765
137	0xbe747836	-0.23873982
138	0x3e85dd6c	0.26145494
139	0x3c17e604	0.009271149
140	0x3e7baa25	0.24576624
141	0x3d3a6e63	0.04551543
142	0xbddd9ae2	-0.10820557
143	0xbe0117f6	-0.12606797
144	0xbe668bde	-0.22514293
145	0x3e27468d	0.16335507
146	0x3e08f571	0.13374878
147	0x3e0d797b	0.13815872
148	0x3e8bb80c	0.27288854
149	0x3e4d50c9	0.20050348
150	0x3e1712a7	0.14753209
151	0xba7ca068	-0.00096369395
152	0x3e1783a5	0.14796312
153	0xbb02e09d	-0.0019970306
154	0x3e9e4b99	0.3091705
155	0x3e21bbab	0.15794246
156	0x3d77492e	0.060372524
157	0xbd853287	-0.06503778
158	0xbd7fe292	-0.062471934
159	0x3ed1d722	0.40984446
160	0x3ea3d5d6	0.3199908
161	0x3e33a173	0.17542057
162	0x3ea37f19	0.31932905
163	0xbe548bea	-0.20756498
164	0x3e469053	0.19390993
165	0x3de0ad8c	0.109706014
166	0xbe2dc0e9	-0.1696812
167	0xbccec11f	-0.025238572
168	0xbed2ca21	-0.41169837
169	0xbf1912c7	-0.59794277
170	0x3eb0ad35	0.34507146
171	0x3e613d70	0.21996093
172	0xbe4a8cbd	-0.1978025
173	0xbe512f8a	-0.20428291
174	0x3e54b5a2	0.20772412
175	0x3e285025	0.16436823
176	0xbbf2d03c	-0.0074100774
177	0xbeb2fb94	-0.34957564
178	0x3d9c8b93	0.07643809
179	0xbec21d9c	-0.37913215
180	0xbe58723f	-0.21137331
181	0x3d57b73c	0.05266498
182	0xbc57b223	-0.01316503
183	0xbd617289	-0.05504087
184	0xbd9ce811	-0.07661451
185	0xbe49b6eb	-0.19698684
186	0xbe175e58	-0.14782083
187	0xbd8b96a2	-0.0681584
188	0xbe025f2e	-0.1273162
189	0xbb04cec9	-0.0020264855
190	0xbd9f8983	-0.077899
191	0x3d82e4d5	0.063913025
192	0xbe5b0171	-0.21387269
193	0x3e2072de	0.15668818
194	0xbde6f132	-0.11276473
195	0xbd53a31e	-0.051669233
196	0x3da7863a	0.081798986
197	0xbe593cfc	-0.2121467
198	0xbe468674	-0.19387227
199	0xbdcc2af7	-0.099691324
200	0xbe7691aa	-0.24079004
201	0x3bf3117f	0.007417857
202	0x3e1ce412	0.15321377
203	0xbd335dcf	-0.043790635
204	0x3e53beab	0.20678203
205	0xbdfba58e	-0.122874364
206	0x3e2e8997	0.17044674
207	0x3d30a0ea	0.04312221
208	0x3e136ea5	0.14397676
209	0x3d0cde42	0.03439165
210	0xbe20dff6	-0.15710434
211	0x3dad56b1	0.08463801
212	0x3d9d4c1a	0.07680531
213	0x3e21e2c2	0.15809157
214	0x3de5e577	0.112254076
215	0x3dd25e13	0.102718495
216	0x3d31be66	0.04339447
217	0x3e37ffd2	0.17968681
218	0x3d0388be	0.03211283
219	0xbe079089	-0.1323873
220	0xbcfe5442	-0.031046037
221	0x3e137407	0.1439973
222	0xbe718aa8	-0.2358805
223	0x3e9df9a7	0.30854532
224	0x3e772d18	0.24138296
225	0x3e13a5f9	0.14418782
226	0x3d91cc5f	0.07119059
227	0xbde101e4	-0.10986689
228	0x3e21dc05	0.15806587
229	0x3edb55e7	0.42838976
230	0x3c95dfdb	0.01829522
231	0x3bba0b20	0.0056775957
232	0xbd4ae46e	-0.049534254
233	0x3e24d612	0.16097286
234	0xbd137cae	-0.036007576
235	0xbe1fb378	-0.15595806
236	0x3dc27deb	0.09496673
237	0x3e06d725	0.13168009
238	0x3da28380	0.07935238
239	0x3e656d24	0.22404915
240	0xbe2feab2	-0.17179373
241	0x3d71e813	0.059059214
242	0x3cb47093	0.022026336
243	0x3db48ddd	0.08816121
244	0x3deb5afa	0.11491962
245	0x3dcf1d9b	0.10113069
246	0x3e8bbf9b	0.2729462
247	0xbe70723b	-0.23481075
248	0xbd862a88	-0.06551081
249	0x3dd107b7	0.102065496
250	0xbe5c9b0f	-0.21543525
251	0xbd93b60e	-0.072124586
252	0xbe313bff	-0.17308043
253	0x3cfaf67d	0.030635113
254	0x3c65f411	0.014035241
255	0x3e218eb1	0.15777089

func_approx.network.4.bias f4 [30]
0	0x3c94c079	0.018158184
1	0xbd81c708	-0.0633679
2	0x3d584201	0.05279732
3	0xbdc4e7e1	-0.0961454
4	0xbe0ec880	-0.13943672
5	0x3d3de9e2	0.046365626
6	0x3df3f2c0	0.11911535
7	0xbc0cf238	-0.008602671
8	0x3dca88c2	0.09889366
9	0x3dce010a	0.10058792
10	0x3e172c99	0.14763106
11	0x3c961f2a	0.018325407
12	0xbcf52ca2	-0.02992851
13	0xbe213c76	-0.1574572
14	0xbb65c3f8	-0.0035059433
15	0xbd424448	-0.0474284
16	0xbccab05f	-0.024742303
17	0x3e3761b7	0.17908369
18	0xbd720626	-0.059087895
19	0xbe7fb63b	-0.24971859
20	0x3e2f04bd	0.17091651
21	0xbaaf92b2	-0.0013395159
22	0xbe07c50e	-0.13258764
23	0x3c93c486	0.018038046
24	0x3a35ea28	0.0006939494
25	0xbb9c0167	-0.0047609094
26	0x3e1bc35c	0.15211242
27	0xbdec561c	-0.115398616
28	0xbda96cc3	-0.08272698
29	0xbd42f16e	-0.047593527

func_approx.network.6.weight f4 [30, 30]
0	0x3dd8c19d	0.10583804
1	0x3e9f3e1c	0.31102073
2	0xbd4e4a2c	-0.050363705
3	0xbde7c8b1	-0.11317576
4	0x3c24b1de	0.0100521725
5	0xbee0485f	-0.43805215
6	0x3b3b6aba	0.002859755
7	0x3dfe13f3	0.12406149
8	0x3e52f670	0.20601821
9	0x3e08a50c	0.1334421
10	0xbd0cd0ba	-0.034378745
11	0xbe3aab8d	-0.18229504
12	0x3e518773	0.20461826
13	0xbd1dde6b	-0.038542192
14	0x3d0c66f5	0.034277875
15	0x3e49826e	0.19678661
16	0xbd25faaa	-0.040522255
17	0x3d890308	0.06690031
18	0xbdb0c742	-0.086317554
19	0x3dc73ba0	0.097281694
20	0x3e2622c5	0.16224201
21	0xbd40101b	-0.04689036
22	0xbe22ce16	-0.15898928
23	0x3dc8a59c	0.097972125
24	0x3d108cf4	0.035290673
25	0x3dcccc9f	0.09999966
26	0x3e1a21bd	0.15051933
27	0xbd00d015	-0.031448442
28	0x3e32e564	0.17470318
29	0x3e20abb9	0.15690507
30	0x3dd9be66	0.10632019
31	0xbd604e64	-0.05476226
32	0xbe51b1ae	-0.20477936
33	0xbde95649	-0.11393411
34	0x3e021185	0.12701996
35	0x3e5246dd	0.20534845
36	0xbe19eeee	-0.1503255
37	0x3e3ea821	0.18618824
38	0xbd1d8709	-0.038458858
39	0xbe1bf3b0	-0.15229678
40	0xbdb4cabe	-0.088277325
41	0xbd35c69c	-0.04437886
42	0xbde3b5c8	-0.111186564
43	0xba8b2c29	-0.0010618019
44	0xbd7e1690	-0.062033236
45	0xbd883750	-0.06651175
46	0x3c7a8b0e	0.015291942
47	0x3e489b92	0.19590595
48	0x3dfdc666	0.12391357
49	0xbea44c27	-0.3208935
50	0x3d32167b	0.04347847
51	0xbcc03889	-0.023464458
52	0x3c58289d	0.013193277
53	0xbe2d2625	-0.16909082
54	0xbe522597	-0.20522152
55	0xbdb2a6cb	-0.087232195
56	0xbe3689c5	-0.17825992
57	0xbd8624a0	-0.065499544
58	0xbe1253c7	-0.14289771
59	0xbe5c8565	-0.21535261
60	0x3d0da62f	0.034582313
61	0xbe8039d5	-0.25044122
62	0xbd8ced30	-0.068811774
63	0x3def288e	0.11677657
64	0x3e3ff565	0.18745954
65	0x3e578f72	0.21050814
66	0xbe1dc9e7	-0.15409051
67	0x3e314eba	0.17315188
68	0xbd925295	-0.071446575
69	0x3d791ead	0.06082027
70	0xbe08825f	-0.13330983
71	0x3e812353	0.25222263
72	0xbe20dae0	-0.15708494
73	0x3e009aec	0.12559098
74	0x3dc1689f	0.09443783
75	0xbcfc7d88	-0.030821577
76	0x3e35755f	0.17720555
77	0x3e1e91f4	0.15485364
78	0xbcc262b2	-0.023728702
79	0xbd942041	-0.072327144
80	0xbbe0b4a7	-0.006857473
81	0x3cc5f685	0.024165401
82	0xbdd26cbf	-0.10274648
83	0x3c3bb161	0.011455865
84	0xbe9ca190	-0.30592012
85	0x3d6d6c04	0.05796434
86	0xbd902640	-0.070385456
87	0x3d157895	0.03649195
88	0xbde360d4	-0.11102453
89	0xbe06fdb3	-0.13182716
90	0xbd36e75a	-0.044654228
91	0xbd460230	-0.04834193
92	0xbdca6795	-0.09883038
93	0x3d4ff4e2	0.050770648
94	0x3e2f8600	0.1714096
95	0xbe6cabea	-0.23112455
96	0xbd1d0c4b	-0.0383418
97	0xbc5d4b71	-0.013506756
98	0xbd4c8974	-0.049935773
99	0x3c85cda0	0.016333401
100	0x3b6087f4	0.0034260722
101	0xbd5115c9	-0.051046167
102	0xbd661ad5	-0.056177933
103	0xbe3f579f	-0.18685769
104	0x3cca75f0	0.02471444
105	0x3e2203e3	0.15821795
106	0x3df02683	0.117260955
107	0x3df1a078	0.11798185
108	0x3bfd4da7	0.007730204
109	0x3e9e8a81	0.30965045
110	0xbd819086	-0.06326394
111	0x3d91accf	0.07113039
112	0xbc6daafe	-0.0145061
113	0xbd88d06e	-0.0668038
114	0x3d306ea3	0.04307426
115	0x3e2aa441	0.1666422
116	0xbda8e777	-0.082472734
117	0xbe38a28c	-0.18030757
118	0x3e9a3019	0.3011482
119	0x3df14a86	0.11781792
120	0x3d54aa4a	0.051920213
121	0x3d075220	0.033037305
122	0x3e322fe1	0.17401077
123	0x3de73d70	0.11291015
124	0xbe09be09	-0.13451399
125	0xbd846a05	-0.06465534
126	0x3e3b2ac9	0.1827804
127	0xbe25f4b5	-0.1620663
128	0x3dbd9c2b	0.09258302
129	0xbd9e5939	-0.077318616
130	0x3e0dfed8	0.13866746
131	0x3d69f9c4	0.05712296
132	0x3e0e1609	0.13875593
133	0xbd5262d5	-0.051363785
134	0x3e3d1a0d	0.18466969
135	0xbc6c4785	-0.014421348
136	0x3dc479e2	0.0959356
137	0x3d2b9f98	0.041900247
138	0xbe12da64	-0.14341122
139	0xbc584c49	-0.013201782
140	0xbc79f250	-0.015255526
141	0xbe3be899	-0.18350448
142	0xbdb18b29	-0.08669121
143	0x3e234465	0.15944059
144	0x3e851078	0.25989127
145	0xbbd7c385	-0.006584587
146	0xbd155085	-0.036453743
147	0xbe0dcede	-0.13848445
148	0x3dffec34	0.12496224
149	0x3d68c233	0.056825828
150	0x3dc465fe	0.09589766
151	0xbdb8ef58	-0.09030026
152	0x3d43b47c	0.047779545
153	0xbe0d06e2	-0.13772157
154	0xbd41b157	-0.047288265
155	0x3c1cbb6d	0.00956617
156	0xbe13233c	-0.1436891
157	0xbdf3e9aa	-0.11909802
158	0x3e443d12	0.19163921
159	0xbe233be4	-0.15940815
160	0x3e181651	0.14852263
161	0xbdd8d374	-0.105872065
162	0xbd8c6e86	-0.06857018
163	0xbd61c8fc	-0.055123314
164	0xbdd0b392	-0.101905
165	0x3d512253	0.051058125
166	0x3da4ab46	0.0804048
167	0xbe149967	-0.14511643
168	0xbe0b3a04	-0.1359635
169	0x3e3d75d2	0.18501976
170	0x3cbc5784	0.02299095
171	0x3ddd0b36	0.10793154
172	0x3dc8dbb0	0.09807527
173	0xbdcef7eb	-0.1010588
174	0x3e50af04	0.20379263
175	0x3deb4ffa	0.11489864
176	0xbe1e7b12	-0.15476635
177	0x3e09a027	0.1344
178	0x3e95e0e3	0.29273137
179	0x3ce7dbfd	0.02830314
180	0x3e2b49df	0.16727398
181	0x3e78b740	0.24288654
182	0x3db9c6aa	0.09071095
183	0xbd6dffea	-0.058105387
184	0x3e342d0e	0.17595312
185	0x3d4db7e5	0.050224204
186	0x3e2cff79	0.1689433
187	0xbe03e1b6	-0.1287907
188	0x3df0e204	0.11761859
189	0x3d9b4c29	0.07582886
190	0xbdbe5406	-0.0929337
191	0x3aceb8cd	0.0015771628
192	0xbd48c1c0	-0.0490129
193	0xbe224d41	-0.15849783
194	0x3e48ad5a	0.19597378
195	0xbe10465d	-0.14089341
196	0xbe573d8d	-0.21019574
197	0x3e099101	0.13434221
198	0x3dc9dee0	0.09856963
199	0x3e3275aa	0.17427698
200	0x3e17318b	0.14764993
201	0xbc9ef1f8	-0.019402489
202	0xbddcdf0c	-0.1078473
203	0xbce76ca1	-0.02825004
204	0x3e019441	0.1265421
205	0xbe3158a0	-0.17318964
206	0xbe2705e8	-0.16310847
207	0xbd87140f	-0.06595623
208	0x3df27063	0.11837842
209	0x3e2e72fb	0.17036049
210	0xbddb8c62	-0.10720135
211	0xbe0273a6	-0.12739429
212	0xbe8403fb	-0.25784287
213	0x3d49ca39	0.04926512
214	0xbd134ffb	-0.035964947
215	0xbdbff9a7	-0.09373789
216	0xbe380a79	-0.17972745
217	0x3dc4a9bf	0.09602689
218	0xbda035cd	-0.07822762
219	0xbe2359d0	-0.1595223
220	0x3cba1718	0.02271609
221	0xbdcb052e	-0.09913097
222	0x3e3f692e	0.18692467
223	0x3d7a1528	0.061055332
224	0x3d96fe1c	0.07372686
225	0x3d273b0e	0.040827803
226	0xbdb4901d	-0.0881655
227	0x3db60e9d	0.08889506
228	0x3d881d68	0.06646234
229	0xbc61712f	-0.013759895
230	0xbca0fbcf	-0.019651322
231	0x3e48ff83	0.1962872
232	0x3e234d2e	0.1594741
233	0x3e06bda4	0.1315828
234	0xbd0a04df	-0.03369605
235	0xbd039430	-0.032123744
236	0xbb98efbd	-0.004667251
237	0x3c964d1f	0.018347321
238	0x3d827c10	0.06371319
239	0x3e1a2397	0.15052639
240	0xbdd83056	-0.10556094
241	0xbe771492	-0.2412894
242	0x3cd2b774	0.025722243
243	0xbd5a8482	-0.053349026
244	0xbdc79769	-0.09745676
245	0x3c5c0385	0.0134285735
246	0x3dd95bb1	0.10613192
247	0xbd6cedc4	-0.05784394
248	0xbd5734be	-0.052540533
249	0x3dca0d5f	0.098658316
250	0xbe33b95d	-0.17551179
251	0x3dce1442	0.100624576
252	0xbdfce0e0	-0.12347579
253	0xbe11375d	-0.14181276
254	0xbd06e99f	-0.032937642
255	0x3ba45346	0.00501481

func_approx.network.6.bias f4 [30]
0	0x3dc93584	0.098246604
1	0xbdebfac4	-0.11522439
2	0x3dfa31bd	0.12216518
3	0x3e160778	0.14651287
4	0xbdd325de	-0.10309957
5	0x3d65369d	0.055960286
6	0xbe17b3f4	-0.1481474
7	0x3d594f6e	0.053054266
8	0xbd8de696	-0.069287464
9	0x3d192904	0.03739263
10	0xbd2869e9	-0.04111663
11	0x3e1bddcb	0.15221326
12	0x3d229941	0.039696936
13	0xbdcf0221	-0.10107828
14	0xbe3a2bd4	-0.18180782
15	0xbd4cdbc9	-0.05001429
16	0xbd18515b	-0.03718696
17	0xbdb5d13c	-0.08877799
18	0xbd591c6c	-0.05300562
19	0xbd987fa0	-0.074462175
20	0xbd0b508e	-0.03401237
21	0x3d56fc9f	0.052487012
22	0xbd6a8014	-0.05725105
23	0xbc194570	-0.009354934
24	0x3b15f39e	0.0022880803
25	0x3e1f1d38	0.1553849
26	0x3c6df1d5	0.014522989
27	0xbda6ae7a	-0.081387475
28	0x3e07ca4d	0.13260765
29	0x3c8e96d7	0.01740591

func_approx.network.8.weight f4 [1, 30]
0	0x3df8719b	0.121310435
1	0xbe0ac453	-0.13551454
2	0xbdd9f6c0	-0.10642767
3	0x3dbb5d6c	0.09148678
4	0x3dd32b19	0.103109546
5	0x3d9a1d47	0.075251155
6	0x3db5a524	0.08869389
7	0xbc397559	-0.011319482
8	0xbe40449f	-0.18776177
9	0x3c92fc36	0.01794253
10	0x3e05e16f	0.13074277
11	0x3e1ae774	0.15127355
12	0x3d543e3f	0.051817175
13	0x3e9d38fc	0.30707538
14	0xbd8197d8	-0.0632779
15	0x3d1f4030	0.038879573
16	0xbe54acc4	-0.2076903
17	0xbde42e07	-0.111415915
18	0xbe15a6e0	-0.14614439
19	0xbdbf578a	-0.093428686
20	0xbe47ac84	-0.19499403
21	0xbde6bfc2	-0.11267044
22	0x3e2264ec	0.15858811
23	0x3d04470b	0.032294314
24	0x3dce2195	0.10064999
25	0x3e12a430	0.14320445
26	0x3e441c14	0.19151336
27	0xbe0f6e0c	-0.14006823
28	0x3e0562ce	0.13025972
29	0xbe4b4f39	-0.1985444

exp_avg f4 [30, 2]
0	0x34b82674	3.430065e-07
1	0x349757cd	2.8189825e-07
2	0x356b167c	8.757704e-07
3	0x349e9583	2.9538577e-07
4	0x350de0bd	5.285363e-07
5	0x339ae365	7.212547e-08
6	0xb4a6f305	-3.109673e-07
7	0x35599b25	8.1064564e-07
8	0x34721672	2.2546172e-07
9	0xb3efe8b9	-1.1171637e-07
10	0xb4597d0c	-2.0255192e-07
11	0x34baa551	3.4765483e-07
12	0x3197104f	4.3965325e-09
13	0xb2b0bea1	-2.0575785e-08
14	0x3528c797	6.287532e-07
15	0x34722af8	2.2553638e-07
16	0x3437bb68	1.7111381e-07
17	0xb4d9f089	-4.0594412e-07
18	0x33c71a5c	9.2714544e-08
19	0xb42d348c	-1.6130997e-07
20	0x345fcf46	2.0843899e-07
21	0x34c73b34	3.7109714e-07
22	0x31aee8f0	5.0905484e-09
23	0x348974bb	2.560317e-07
24	0xb3ebdd14	-1.0983254e-07
25	0xb51d0e56	-5.850792e-07
26	0xb4bf1c33	-3.559704e-07
27	0xb3f13fe8	-1.12340615e-07
28	0x34766797	2.2948221e-07
29	0x346f661f	2.2295761e-07
30	0x3450b9cb	1.94391e-07
31	0xb483d1c6	-2.4553282e-07
32	0x3600405b	1.9110946e-06
33	0x34be5f70	3.5459698e-07
34	0xb4e1f025	-4.2084244e-07
35	0xb500c9ae	-4.79772e-07
36	0x34c8ded7	3.741504e-07
37	0xb2068585	-7.830185e-09
38	0xb466eb5b	-2.1506041e-07
39	0x338ceb27	6.562032e-08
40	0xb57300cc	-9.0525714e-07
41	0xb542cbae	-7.2567025e-07
42	0xb3dbb96d	-1.0231711e-07
43	0xb548f953	-7.486862e-07
44	0x341fde6b	1.4888944e-07
45	0x34b9ab80	3.4583718e-07
46	0x34b548a7	3.376674e-07
47	0x358e45d3	1.0600146e-06
48	0xb3b360a2	-8.3529144e-08
49	0x339d35f4	7.320696e-08
50	0xb40a4331	-1.2876696e-07
51	0xb417ac47	-1.4125645e-07
52	0xb32c1fe3	-4.007587e-08
53	0xb42ed7ed	-1.6283566e-07
54	0x35238f09	6.0930375e-07
55	0x35189d66	5.685346e-07
56	0xb56a36bb	-8.7251436e-07
57	0x338a85a9	6.4504384e-08
58	0xb46a5394	-2.1823354e-07
59	0x340f42d2	1.3342222e-07

exp_avg_sq f4 [30, 2]
0	0x2a0477f2	1.176557e-13
1	0x29b2f332	7.9469756e-14
2	0x2b57e86d	7.67059e-13
3	0x29c482da	8.7268476e-14
4	0x2a9d4324	2.793539e-13
5	0x27bb88a9	5.2051094e-15
6	0x29d9c18e	9.670312e-14
7	0x2b38f8b6	6.571509e-13
8	0x2964f1a0	5.0835746e-14
9	0x2860def0	1.248284e-14
10	0x2938cc37	4.1033335e-14
11	0x2a0815e7	1.2086825e-13
12	0x23b6d2ba	1.9821726e-17
13	0x25f46e61	4.2402048e-16
14	0x2ade8d7c	3.9533296e-13
15	0x296519e1	5.087066e-14
16	0x2903e132	2.928317e-14
17	0x2a398ab3	1.6479422e-13
18	0x281adccc	8.596595e-15
19	0x28ea61a0	2.6021557e-14
20	0x2943b2cf	4.345379e-14
21	0x2a1b0eaa	1.3771853e-13
22	0x24154516	3.2367743e-17
23	0x2993a05b	6.5559286e-14
24	0x28596611	1.2068052e-14
25	0x2ac0b877	3.423405e-13
26	0x2a0eac54	1.2671922e-13
27	0x2863661e	1.26231745e-14
28	0x296d2ec4	5.2665134e-14
29	0x295fe8db	4.9717917e-14
30	0x292a304d	3.7789477e-14
31	0x2987c346	6.029079e-14
32	0x2c80813f	3.652328e-12
33	0x2a0d9761	1.2575836e-13
34	0x2a476829	1.7710888e-13
35	0x2a8194d6	2.301828e-13
36	0x2a1da087	1.4000095e-13
37	0x24a48153	7.1342746e-17
38	0x29504cd2	4.625191e-14
39	0x279b3063	4.3073603e-15
40	0x2b66ab3c	8.195005e-13
41	0x2b143a00	5.2660654e-13
42	0x283ca080	1.0470899e-14
43	0x2b1dc6ec	5.6053664e-13
44	0x28c7b215	2.2170669e-14
45	0x2a06abd7	1.196121e-13
46	0x2a006038	1.1402066e-13
47	0x2b9e23b3	1.1236484e-12
48	0x27fb6b6e	6.978297e-15
49	0x27c16049	5.3672654e-15
50	0x28957e0a	1.6596984e-14
51	0x28b3ca98	1.9960853e-14
52	0x26e7ce55	1.6084771e-15
53	0x28eed8ad	2.6517276e-14
54	0x2ad0ff49	3.7125362e-13
55	0x2ab5fa95	3.2325935e-13
56	0x2b5648e2	7.612922e-13
57	0x2795f7f4	4.162464e-15
58	0x295682d0	4.7631007e-14
59	0x28a05c46	1.7803586e-14

max_exp_avg_sq f4 [30, 2]
0	0x357166a2	8.9928847e-07
1	0x35e2cf91	1.6898722e-06
2	0x3508f825	5.1025046e-07
3	0x362298bc	2.4228784e-06
4	0x3583c93a	9.818825e-07
5	0x345c50a8	2.0518439e-07
6	0x358ef71d	1.0651744e-06
7	0x35e20efc	1.6842673e-06
8	0x34a6bf23	3.105898e-07
9	0x3439ad94	1.7292615e-07
10	0x35d9d0ce	1.622853e-06
11	0x36175edc	2.2555969e-06
12	0x34b1377d	3.3009192e-07
13	0x3605aa24	1.991758e-06
14	0x3483b7b0	2.4534302e-07
15	0x342c9fd4	1.6076893e-07
16	0x34e5ea82	4.28252e-07
17	0x35d01b27	1.550511e-06
18	0x35c9efaf	1.5045424e-06
19	0x351711fd	5.627806e-07
20	0x363eac2b	2.8412421e-06
21	0x36df0c2b	6.6473344e-06
22	0x3708dd8c	8.157815e-06
23	0x365e82c0	3.3156684e-06
24	0x35feb5df	1.8977406e-06
25	0x35931277	1.0957727e-06
26	0x3691049e	4.3218743e-06
27	0x376ef69f	1.4243326e-05
28	0x367619cd	3.6671875e-06
29	0x3617b2be	2.2604795e-06
30	0x35e9e42e	1.7426262e-06
31	0x356dab43	8.85386e-07
32	0x34202444	1.4914355e-07
33	0x342624d4	1.5473353e-07
34	0x363cc61d	2.81295e-06
35	0x35dda46a	1.6513634e-06
36	0x3476b5f3	2.2976728e-07
37	0x35cbf619	1.5196302e-06
38	0x359ba080	1.1595112e-06
39	0x367543b4	3.6547253e-06
40	0x35bdc85b	1.4139908e-06
41	0x36dc21f0	6.5604618e-06
42	0x36809964	3.8325543e-06
43	0x37c88b0d	2.3906608e-05
44	0x35e4eab1	1.7055628e-06
45	0x361bf113	2.3237124e-06
46	0x365e3a48	3.3114502e-06
47	0x369da393	4.698007e-06
48	0x370da87e	8.443485e-06
49	0x356f4665	8.9136876e-07
50	0x3653573a	3.1492223e-06
51	0x36b79edb	5.472318e-06
52	0x34fd5125	4.7183963e-07
53	0x35811df9	9.619972e-07
54	0x350f38fb	5.335457e-07
55	0x35bf37dc	1.4246866e-06
56	0x36917b77	4.33571e-06
57	0x36b0e6f6	5.272096e-06
58	0x362e161c	2.594089e-06
59	0x367df6bf	3.7843563e-06

exp_avg f4 [30]
0	0x346380cd	2.118788e-07
1	0x35bcfc20	1.408047e-06
2	0x3423e648	1.5264334e-07
3	0xb542f5b3	-7.262817e-07
4	0x3502042b	4.843484e-07
5	0x3483741f	2.448514e-07
6	0xb1fb6508	-7.3165474e-09
7	0x32f92f98	2.9009058e-08
8	0xb42a472e	-1.5858379e-07
9	0x341b4bdf	1.4463102e-07
10	0x34609974	2.0917452e-07
11	0x34c53479	3.6732288e-07
12	0xb52bfeb8	-6.407313e-07
13	0xb345e193	-4.6072795e-08
14	0xb3cc984b	-9.527192e-08
15	0xb45d5f4c	-2.0616898e-07
16	0xb2ed611d	-2.7634593e-08
17	0xb52de416	-6.477943e-07
18	0xb266c656	-1.3432858e-08
19	0x34340c20	1.6768217e-07
20	0xb3c859cf	-9.329562e-08
21	0xb4b8ea8c	-3.4443326e-07
22	0x3425937d	1.5420478e-07
23	0xb28e031f	-1.6532395e-08
24	0xb3b641b0	-8.486984e-08
25	0x343e9b47	1.7751618e-07
26	0x3453ab88	1.9713309e-07
27	0x352e3360	6.489481e-07
28	0xb5550ef0	-7.937042e-07
29	0xb51a0e8a	-5.739063e-07

exp_avg_sq f4 [30]
0	0x294a35c4	4.4899644e-14
1	0x2c0b85f3	1.9827445e-12
2	0x28d1ee8b	2.3307113e-14
3	0x2b147992	5.2748875e-13
4	0x2a84117d	2.3460045e-13
5	0x29870b7a	5.997195e-14
6	0x247afc39	5.442375e-17
7	0x2672d733	8.4252266e-16
8	0x28e2b463	2.516927e-14
9	0x28bc6c9a	2.0919291e-14
10	0x294514aa	4.376071e-14
11	0x2a17eb29	1.3493082e-13
12	0x2ae72057	4.1056283e-13
13	0x27193898	2.1263695e-15
14	0x2823c9cf	9.092078e-15
15	0x293f7b26	4.2517334e-14
16	0x266980cf	8.101268e-16
17	0x2aec467d	4.1970932e-13
18	0x25534da6	1.8327641e-16
19	0x28fd45e3	2.8118951e-14
20	0x281cf453	8.712719e-15
21	0x2a05943d	1.1864203e-13
22	0x28d63dbe	2.3785549e-14
23	0x25a6d8a2	2.8943206e-16
24	0x2801d45a	7.206985e-15
25	0x290def44	3.151582e-14
26	0x292f07b3	3.8864484e-14
27	0x2aed190b	4.2117034e-13
28	0x2b3153ad	6.2999156e-13
29	0x2ab96cee	3.2938187e-13

max_exp_avg_sq f4 [30]
0	0x3626c8e5	2.4852864e-06
1	0x35957369	1.1134954e-06
2	0x36671007	3.4431011e-06
3	0x36124394	2.179503e-06
4	0x357cf417	9.4232513e-07
5	0x36912c9c	4.32653e-06
6	0x359172a5	1.0836708e-06
7	0x354dc707	7.6658074e-07
8	0x3532118b	6.6335696e-07
9	0x369556ba	4.4506423e-06
10	0x37087c0f	8.135116e-06
11	0x37c466d1	2.3412898e-05
12	0x36a52e86	4.9227992e-06
13	0x375ece5b	1.3280277e-05
14	0x37371570	1.0912641e-05
15	0x369e2c55	4.713928e-06
16	0x34f5288b	4.5664305e-07
17	0x36e1953c	6.7228957e-06
18	0x352d2810	6.450582e-07
19	0x365dd1f0	3.3053766e-06
20	0x369faa1a	4.7583717e-06
21	0x374b0d6f	1.2102871e-05
22	0x36a3f6b9	4.886501e-06
23	0x371c6636	9.322122e-06
24	0x37c769ef	2.3771978e-05
25	0x3719736b	9.1463835e-06
26	0x35a73fed	1.2461074e-06
27	0x359017ee	1.07358e-06
28	0x3743c36f	1.1668409e-05
29	0x36c4c251	5.8638766e-06

exp_avg f4 [30, 30]
0	0xb4079664	-1.2627567e-07
1	0xb4a9b1ec	-3.1608158e-07
2	0xb3608b29	-5.228063e-08
3	0xb43e3478	-1.7714217e-07
4	0xb3ca5983	-9.42264e-08
5	0xb3f7b484	-1.15346694e-07
6	0xb22a1292	-9.899525e-09
7	0x3276437f	1.4334431e-08
8	0x33f8a12f	1.1577719e-07
9	0xb31c1bff	-3.6347043e-08
10	0xb3a0ed75	-7.493774e-08
11	0xb3bcbc2c	-8.7886605e-08
12	0x34ab51bd	3.1910704e-07
13	0xb2541543	-1.23448585e-08
14	0x3370c63e	5.6059655e-08
15	0x33bfc1b2	8.9293636e-08
16	0xb5138a8d	-5.4963385e-07
17	0x34431ed6	1.8172008e-07
18	0x322474c8	9.572609e-09
19	0xb2ca2774	-2.3533836e-08
20	0xb2dd4ae5	-2.5761844e-08
21	0x331da992	3.6708634e-08
22	0xb344c1a0	-4.5810907e-08
23	0xb45b8f64	-2.044813e-07
24	0xb33d53e3	-4.4081286e-08
25	0xb328c5cf	-3.9295454e-08
26	0x336ef924	5.5640285e-08
27	0x335ca409	5.137193e-08
28	0x34106832	1.3448951e-07
29	0x341023b4	1.3424034e-07
30	0x34a2ddad	3.0336142e-07
31	0x33e62235	1.0716432e-07
32	0xb4cdf915	-3.8365457e-07
33	0x34d9ffb3	4.0605445e-07
34	0x345e2072	2.0687165e-07
35	0x346b0a38	2.1889798e-07
36	0xb36769ea	-5.3880207e-08
37	0xb42004a8	-1.4902855e-07
38	0xb4629f40	-2.1105825e-07
39	0xb2d7a1ab	-2.5102812e-08
40	0x31a56f40	4.8147797e-09
41	0x346d95b0	2.2126801e-07
42	0xb49c12b3	-2.907087e-07
43	0xb38187e2	-6.0317475e-08
44	0xb32f34fd	-4.0793555e-08
45	0xb45c0a8a	-2.0492931e-07
46	0x351e07f2	5.887115e-07
47	0xb45763bc	-2.0059719e-07
48	0x32689d61	1.3539961e-08
49	0xb4253651	-1.5386583e-07
50	0x344b7186	1.8947148e-07
51	0x341441b7	1.3807481e-07
52	0x33fe8849	1.1852587e-07
53	0x34a39688	3.0470642e-07
54	0x3417c823	1.413578e-07
55	0xb3150373	-3.4694903e-08
56	0xb42a8ff9	-1.5884861e-07
57	0xb4b1a64f	-3.3089825e-07
58	0xb4ed9471	-4.4252695e-07
59	0xb4e62656	-4.2868731e-07
60	0x34311c3d	1.6494683e-07
61	0x3494ff1b	2.7752762e-07
62	0xb34968ee	-4.6894392e-08
63	0x339a1131	7.174311e-08
64	0x3313c363	3.4403808e-08
65	0x34b04b14	3.283718e-07
66	0x3460a38a	2.0921121e-07
67	0x34a0f029	2.9977062e-07
68	0xb426004d	-1.5460064e-07
69	0x34520208	1.9558513e-07
70	0x34d62a22	3.9891262e-07
71	0xb367a2ff	-5.3932123e-08
72	0xb4c94d5f	-3.7495462e-07
73	0x347e463f	2.3681149e-07
74	0xb4aece99	-3.2560345e-07
75	0xb36d06ce	-5.518705e-08
76	0xb534807f	-6.724221e-07
77	0xb450a648	-1.9432002e-07
78	0xb41e2c69	-1.4731053e-07
79	0x34ca4df8	3.7682162e-07
80	0x34dd23a9	4.1190404e-07
81	0xb4eea567	-4.44513e-07
82	0xb4a54832	-3.0786174e-07
83	0x33da1125	1.01545346e-07
84	0xb45b521b	-2.0425834e-07
85	0x34dac293	4.0747236e-07
86	0x34377e31	1.7089111e-07
87	0xb4cc5e26	-3.8066463e-07
88	0xb2d297d0	-2.4516254e-08
89	0xb33c8cc2	-4.390018e-08
90	0x33d4a759	9.90246e-08
91	0x34c9644c	3.7512143e-07
92	0x34598972	2.0259702e-07
93	0x3420b803	1.4968104e-07
94	0x3395dae5	6.97817e-08
95	0x340bd739	1.3023681e-07
96	0x3294fc35	1.7344158e-08
97	0xb2d5a34f	-2.4870728e-08
98	0xb3f43604	-1.1371961e-07
99	0xb06d0256	-8.622342e-10
100	0x33c82072	9.3191275e-08
101	0x338c6e31	6.539302e-08
102	0xb4d0415c	-3.8790574e-07
103	0x3292e836	1.7102234e-08
104	0xb3ccb352	-9.5321084e-08
105	0xb3a273d9	-7.5647854e-08
106	0x338b71b5	6.493375e-08
107	0xb4858750	-2.4871633e-07
108	0xb2e81e13	-2.702203e-08
109	0xb282fac2	-1.5248023e-08
110	0xb3bcbf0e	-8.789185e-08
111	0xb3cf5747	-9.655064e-08
112	0x3404014b	1.2293928e-07
113	0x346b24b0	2.1899427e-07
114	0x3387be8e	6.321089e-08
115	0x33dc2211	1.0250745e-07
116	0xb3b458b3	-8.3980375e-08
117	0x345d7822	2.0625933e-07
118	0xb38aa837	-6.456724e-08
119	0xb395e6a2	-6.980305e-08
120	0xb15e9b8b	-3.2393668e-09
121	0x33539937	4.9266614e-08
122	0x33ab7517	7.9841065e-08
123	0x33df97e2	1.0411874e-07
124	0x32db95a3	2.5563002e-08
125	0xb34fa92e	-4.834981e-08
126	0xb396363d	-6.994785e-08
127	0xb398551e	-7.093534e-08
128	0xb30ee463	-3.3269668e-08
129	0xb25532f2	-1.2409815e-08
130	0xb3f1c3e4	-1.1258069e-07
131	0x3313743d	3.4331823e-08
132	0xb3955106	-6.953091e-08
133	0xb3a2e40d	-7.585195e-08
134	0x33da112e	1.0154541e-07
135	0x31411c01	2.8101115e-09
136	0xb3a3b8ac	-7.6238706e-08
137	0xb3bba393	-8.73762e-08
138	0x338d00bc	6.565958e-08
139	0xb3a60c9d	-7.732272e-08
140	0xb3f275a4	-1.1290402e-07
141	0x3414b5ea	1.3849754e-07
142	0x3117d482	2.2094189e-09
143	0x33e1e186	1.05184014e-07
144	0x31e89749	6.769288e-09
145	0xb35a976a	-5.089479e-08
146	0xb1915be1	-4.230501e-09
147	0x3395e8b3	6.980681e-08
148	0xb3dd9aab	-1.03192484e-07
149	0xb3a055b9	-7.4661735e-08
150	0x33d5eb2d	9.961364e-08
151	0xb4a101c1	-2.9989863e-07
152	0xb40998e6	-1.2814743e-07
153	0x34d57a1a	3.9763182e-07
154	0xb2a7c9cf	-1.953313e-08
155	0xb34fa39b	-4.834474e-08
156	0xb4bbc72e	-3.4976387e-07
157	0xb5298e76	-6.3164714e-07
158	0xb3bbafcc	-8.739843e-08
159	0xb50da197	-5.276174e-07
160	0xb434e9bb	-1.6848837e-07
161	0xb38e85bb	-6.636716e-08
162	0xb4967b09	-2.8029197e-07
163	0xb4b65260	-3.3960077e-07
164	0x341aca8a	1.4416051e-07
165	0xb2a92e0b	-1.9695127e-08
166	0x35133fda	5.4854684e-07
167	0xb458df62	-2.0197834e-07
168	0x34970d8d	2.81358e-07
169	0xb4ec6154	-4.402924e-07
170	0xb41f0fe3	-1.4813808e-07
171	0x348f71b7	2.6718564e-07
172	0xb3d5fb8d	-9.964342e-08
173	0x34dbc1d7	4.0932966e-07
174	0xb48f052f	-2.6639597e-07
175	0xb41b9d03	-1.449262e-07
176	0x3403e885	1.2284916e-07
177	0x33904902	6.7188026e-08
178	0xb48107b6	-2.4033733e-07
179	0xb4719710	-2.249983e-07
180	0x33ea8811	1.09212245e-07
181	0x3432817e	1.6624651e-07
182	0x33d50a27	9.920432e-08
183	0xb38a74d5	-6.4473774e-08
184	0x32c1e73a	2.2573307e-08
185	0x344ad5cb	1.8890493e-07
186	0x3412198f	1.3606608e-07
187	0x3409fa96	1.2850282e-07
188	0xb312a35b	-3.4141845e-08
189	0x3364f064	5.330402e-08
190	0x348ca79e	2.619899e-07
191	0xb18e10bb	-4.134646e-09
192	0x328f83a7	1.670726e-08
193	0x3420700d	1.4941925e-07
194	0xb47144bf	-2.2469884e-07
195	0xb38f880e	-6.6837046e-08
196	0x344863f8	1.866282e-07
197	0x320643eb	7.815269e-09
198	0xb3f5f9b4	-1.1454122e-07
199	0x34284aff	1.5673503e-07
200	0x342a5d34	1.5866391e-07
201	0xb496babd	-2.8075547e-07
202	0xb30b8faa	-3.249412e-08
203	0xb2a3ee6e	-1.9084123e-08
204	0xb021c884	-5.885641e-10
205	0x342e2474	1.6218274e-07
206	0xb196ad4e	-4.385277e-09
207	0xb3182048	-3.5419617e-08
208	0x3382c706	6.089799e-08
209	0x327b2ccc	1.46203085e-08
210	0xb477c1bf	-2.3074152e-07
211	0xb4a2ec20	-3.0346655e-07
212	0xb5464c99	-7.387221e-07
213	0xb487551b	-2.5207632e-07
214	0xb2106336	-8.404461e-09
215	0xb4902c02	-2.685411e-07
216	0xb33292cd	-4.157737e-08
217	0xb41eef73	-1.4802008e-07
218	0x33cf1b24	9.6441255e-08
219	0xb41f2e50	-1.4824877e-07
220	0xb4660917	-2.1423726e-07
221	0x33694ab0	5.4317468e-08
222	0xb226f339	-9.717774e-09
223	0xb3739c47	-5.671998e-08
224	0x3406bfed	1.2549545e-07
225	0x33852796	6.200496e-08
226	0xb5de7daf	-1.6576868e-06
227	0xb1d5e644	-6.225294e-09
228	0xb2687d78	-1.3532706e-08
229	0xb41e8c54	-1.4765948e-07
230	0x34178aa1	1.4113404e-07
231	0x3421fbd3	1.5085907e-07
232	0x336fb40c	5.5810276e-08
233	0x33a15209	7.512069e-08
234	0x342c544e	1.6049418e-07
235	0xb46ebd59	-2.2234362e-07
236	0xb3d8fca8	-1.0104242e-07
237	0xb4a994ca	-3.158696e-07
238	0x35152a72	5.556859e-07
239	0x34ff3142	4.753329e-07
240	0xb3ced617	-9.631565e-08
241	0xb43de0d6	-1.7683791e-07
242	0xb3b21b63	-8.2937525e-08
243	0xb4b82df1	-3.4306098e-07
244	0xb3b8a5a7	-8.5983e-08
245	0x3390f342	6.749771e-08
246	0x3435255a	1.6870527e-07
247	0x3487105e	2.5157618e-07
248	0x33baf985	8.706687e-08
249	0x33f66dc5	1.14752346e-07
250	0x346c56eb	2.2010833e-07
251	0xb3f140c4	-1.1234218e-07
252	0x346bb307	2.195121e-07
253	0x34422bd9	1.808361e-07
254	0xb41365f8	-1.3727538e-07
255	0x337306a8	5.65839e-08

exp_avg_sq f4 [30, 30]
0	0x288fa27c	1.5946656e-14
1	0x29e0fa1c	9.9909854e-14
2	0x27453031	2.7365367e-15
3	0x290d5597	3.1382527e-14
4	0x281ff51a	8.879421e-15
5	0x286fb0eb	1.3305528e-14
6	0x24e2e3b9	9.8397654e-17
7	0x256e1164	2.0649102e-16
8	0x28717dc2	1.3405457e-14
9	0x26be6744	1.3211889e-15
10	0x27ca58fe	5.616275e-15
11	0x280b298e	7.725061e-15
12	0x29e54dda	1.0183148e-13
13	0x25303fe5	1.5287215e-16
14	0x27627d3b	3.1431688e-15
15	0x280fa5b5	7.974027e-15
16	0x2aaa1156	3.0210095e-13
17	0x2914bace	3.302463e-14
18	0x24d3ec74	9.190723e-17
19	0x261fe5aa	5.547546e-16
20	0x263fe5bd	6.657779e-16
21	0x26c27289	1.3492499e-15
22	0x27176461	2.1009875e-15
23	0x293c5228	4.1815645e-14
24	0x270c171b	1.9441428e-15
25	0x26dea1f3	1.5448241e-15
26	0x275f2a47	3.0970385e-15
27	0x273e533f	2.6412925e-15
28	0x28a2f3c4	1.809133e-14
29	0x28a25857	1.8023924e-14
30	0x29cf3c80	9.203142e-14
31	0x284f0599	1.1492022e-14
32	0x2a25bde3	1.4720824e-13
33	0x2a39a524	1.6488595e-13
34	0x2940beff	4.2798227e-14
35	0x2957cf39	4.7919327e-14
36	0x275135b9	2.90337e-15
37	0x28c80e67	2.2210707e-14
38	0x2948a113	4.454863e-14
39	0x2635cddc	6.307598e-16
40	0x23e672b6	2.4985232e-17
41	0x295c8173	4.8962092e-14
42	0x29be5122	8.451769e-14
43	0x278317c2	3.6385562e-15
44	0x26efef15	1.664876e-15
45	0x293d24ae	4.1998245e-14
46	0x2ac31cf3	3.4659046e-13
47	0x29353f6a	4.0245076e-14
48	0x2553902c	1.835018e-16
49	0x28d5418c	2.3676177e-14
50	0x2921b286	3.5904026e-14
51	0x28abbb98	1.906617e-14
52	0x287d225d	1.4051773e-14
53	0x29d11536	9.285144e-14
54	0x28b3ff3a	1.9983679e-14
55	0x26ae7b64	1.210712e-15
56	0x28e34c07	2.5235034e-14
57	0x29f69690	1.0950713e-13
58	0x2a5c7e63	1.9583774e-13
59	0x2a4eeae6	1.8377972e-13
60	0x28f513f0	2.720911e-14
61	0x29ad70d4	7.702316e-14
62	0x271e7c2b	2.1994216e-15
63	0x27b9878b	5.149477e-15
64	0x26aab3ce	1.1844856e-15
65	0x29f2d07f	1.0783127e-13
66	0x29452062	4.3770875e-14
67	0x29ca5b62	8.9864544e-14
68	0x28d74cf7	2.3903173e-14
69	0x292c48b1	3.8254722e-14
70	0x2a332b7b	1.5913479e-13
71	0x2751a26b	2.9092623e-15
72	0x2a1e4ba3	1.4059461e-13
73	0x297c918d	5.6081486e-14
74	0x29eebbf5	1.06019285e-13
75	0x275b87f5	3.0466058e-15
76	0x2afe8a5b	4.5215467e-13
77	0x292a1081	3.7761898e-14
78	0x28c3782a	2.1701462e-14
79	0x2a1fe01c	1.419979e-13
80	0x2a3f06da	1.6966585e-13
81	0x2a5e78f3	1.9759524e-13
82	0x29d56c92	9.477934e-14
83	0x2839c7b5	1.03128675e-14
84	0x293be5f8	4.1721807e-14
85	0x2a3af12d	1.6603793e-13
86	0x29038628	2.9204205e-14
87	0x2a232686	1.4490674e-13
88	0x262d7cab	6.019039e-16
89	0x270aed7a	1.9280083e-15
90	0x2830a9a7	9.80675e-15
91	0x2a1e6ffc	1.4072071e-13
92	0x2938dcd2	4.104774e-14
93	0x28c9d148	2.2406244e-14
94	0x27af7695	4.8700824e-15
95	0x2898c8b9	1.696244e-14
96	0x25ad950c	3.0111714e-16
97	0x26325799	6.1874873e-16
98	0x2868fad5	1.2932978e-14
99	0x21837550	8.907958e-19
100	0x281c7480	8.6850015e-15
101	0x279a1751	4.2768866e-15
102	0x2a296b7b	1.5047505e-13
103	0x25a8cb5d	2.928116e-16
104	0x2823b28b	9.087033e-15
105	0x27ce337e	5.7232314e-15
106	0x2797f935	4.218111e-15
107	0x298b4d18	6.1862137e-14
108	0x26529c71	7.3070404e-16
109	0x25863bf6	2.3285926e-16
110	0x280b2e74	7.726123e-15
111	0x2827f0c6	9.322572e-15
112	0x288828f2	1.511679e-14
113	0x2957ff04	4.796078e-14
114	0x278fff0b	3.996699e-15
115	0x283d4db1	1.0508454e-14
116	0x27fe25f1	7.05403e-15
117	0x293f9a40	4.254431e-14
118	0x27964146	4.1704133e-15
119	0x27af9991	4.8738754e-15
120	0x2356758b	1.1625854e-17
121	0x272efc9a	2.4284286e-15
122	0x27e5b64d	6.375792e-15
123	0x28434eac	1.0841734e-14
124	0x263c783a	6.538854e-16
125	0x27288ba4	2.3390383e-15
126	0x27b04dd5	4.89342e-15
127	0x27b55016	5.032442e-15
128	0x269f98af	1.1074226e-15
129	0x2531cdbf	1.5422012e-16
130	0x28645a02	1.267606e-14
131	0x26a9ec3a	1.179076e-15
132	0x27ae373a	4.835458e-15
133	0x27cf528b	5.7543535e-15
134	0x2839c8ab	1.0313076e-14
135	0x231fbe71	8.659735e-18
136	0x27d17133	5.8131884e-15
137	0x28098af0	7.635155e-15
138	0x279b5a58	4.3119093e-15
139	0x27d771fc	5.979807e-15
140	0x2865aa5c	1.27489944e-14
141	0x28acca08	1.9183453e-14
142	0x22e68e7c	6.2492486e-18
143	0x28475159	1.10643586e-14
144	0x2455772f	4.6287965e-17
145	0x273abd3d	2.5915272e-15
146	0x23ac335e	1.8670032e-17
147	0x27afa400	4.8750066e-15
148	0x283fdf60	1.0651067e-14
149	0x27c8eb19	5.5766045e-15
150	0x2832c6fc	9.924133e-15
151	0x29ca873b	8.994061e-14
152	0x2893ee3c	1.6423596e-14
153	0x2a320538	1.5811386e-13
154	0x25dcfaf0	3.8333958e-16
155	0x27289646	2.3396147e-15
156	0x2a09befb	1.2234304e-13
157	0x2ae09bb5	3.9898437e-13
158	0x28099fe6	7.6397e-15
159	0x2a9cb78d	2.783853e-13
160	0x28ffbc24	2.839228e-14
161	0x279ecd57	4.407644e-15
162	0x29b0e991	7.8564874e-14
163	0x2a01db75	1.1533641e-13
164	0x28bb375f	2.0785184e-14
165	0x25e07dfb	3.8943174e-16
166	0x2aa965ac	3.009098e-13
167	0x2937bab5	4.0796105e-14
168	0x29b2477a	7.917187e-14
169	0x2a5a4558	1.9386348e-13
170	0x28c5b855	2.1951335e-14
171	0x29a0c394	7.139355e-14
172	0x2832fb86	9.935525e-15
173	0x2a3ca5b3	1.6755243e-13
174	0x299fd538	7.098006e-14
175	0x28bd38c0	2.1007827e-14
176	0x2887feaf	1.5098462e-14
177	0x27a2c146	4.517358e-15
178	0x29821482	5.776717e-14
179	0x29640266	5.062825e-14
180	0x2856e482	1.1928936e-14
181	0x28f8fc6e	2.7643005e-14
182	0x28315b7d	9.845312e-15
183	0x2795d121	4.1582546e-15
184	0x261300cf	5.1001966e-16
185	0x2920b8c6	3.5687402e-14
186	0x28a6c7aa	1.8516293e-14
187	0x2894c06a	1.6514747e-14
188	0x26a81c16	1.1664954e-15
189	0x274ccaff	2.8420732e-15
190	0x299a91af	6.864246e-14
191	0x23a52a13	1.7907155e-17
192	0x25a72855	2.8997212e-16
193	0x28c91e4f	2.2328627e-14
194	0x2963662c	5.0492745e-14
195	0x27a103c6	4.469057e-15
196	0x291ce241	3.4835202e-14
197	0x249b77a5	6.742322e-17
198	0x286c6442	1.3122372e-14
199	0x28dd4b38	2.456855e-14
200	0x28e2c799	2.5177602e-14
201	0x29b1816c	7.88283e-14
202	0x2699cfc7	1.0672826e-15
203	0x25d56ee1	3.7024745e-16
204	0x22a7c9ae	4.5478977e-18
205	0x28ecf2c0	2.630654e-14
206	0x23e247e3	2.4533414e-17
207	0x26b549a8	1.2579363e-15
208	0x2785e1d2	3.715975e-15
209	0x257d8346	2.1988729e-16
210	0x296fcddb	5.3247212e-14
211	0x29cf62d7	9.2097926e-14
212	0x2b199aaf	5.4571186e-13
213	0x298f19de	6.354963e-14
214	0x24a8c160	7.3185976e-17
215	0x29a2663b	7.2119794e-14
216	0x26f9980b	1.7319057e-15
217	0x28c563df	2.1914706e-14
218	0x28279b0e	9.303984e-15
219	0x28c5fa60	2.1979976e-14
220	0x294ebc7f	4.5904683e-14
221	0x2754c628	2.952833e-15
222	0x24ea943c	1.0173244e-16
223	0x27681715	3.220898e-15
224	0x288de719	1.5754367e-14
225	0x278aa67b	3.8483193e-15
226	0x2c415f07	2.74797e-12
227	0x24400e71	4.1645596e-17
228	0x2556103b	1.856704e-16
229	0x28c47312	2.1810275e-14
230	0x28b37902	1.9925471e-14
231	0x28cd1195	2.2767197e-14
232	0x27611a1d	3.1239179e-15
233	0x27cb6662	5.6454822e-15
234	0x28e80a3a	2.576161e-14
235	0x295ead1c	4.944405e-14
236	0x28380025	1.0214083e-14
237	0x29e0ae53	9.977839e-14
238	0x2aadd84a	3.0881054e-13
239	0x2a7e68b6	2.2596061e-13
240	0x28272171	9.277614e-15
241	0x290cd6a6	3.1272423e-14
242	0x27f7e9a4	6.8809585e-15
243	0x2a0482cd	1.1769336e-13
244	0x280530a3	7.3935295e-15
245	0x27a46ca4	4.5636932e-15
246	0x2900336e	2.8466318e-14
247	0x298e8b0b	6.330187e-14
248	0x2808941e	7.581634e-15
249	0x286d4419	1.3170909e-14
250	0x295a4216	4.8463044e-14
251	0x28636253	1.2622352e-14
252	0x29590510	4.818807e-14
253	0x29134d80	3.2707777e-14
254	0x28a9ca19	1.8850415e-14
255	0x2766be88	3.20222e-15
