paper/Burgers/runs/revision_random_grid_4deriv0checkpoint.pt (torch, 59671 bytes, 36 tensors)

func_approx.network.0.weight f4 [30, 2]
0	0xbcd2ec3a	-0.025747407
1	0x3f14ce90	0.5812769
2	0xbf13399a	-0.5750977
3	0xbf4abbff	-0.7919311
4	0xbe9a9ff8	-0.3020017
5	0x3e707baf	0.23484682
6	0xbd837f03	-0.0642071
7	0x3f3cead5	0.73795825
8	0xbdf56fd0	-0.11984217
9	0x3eab0571	0.3340259
10	0xbecf8f80	-0.4053917
11	0xbe13bac6	-0.14426717
12	0xbf3746cb	-0.71592396
13	0xbf41f05c	-0.75757384
14	0xbf5e41da	-0.8681923
15	0x3d678906	0.05652716
16	0x3e87166d	0.26384297
17	0x3f15573f	0.5833625
18	0xbe2f45a5	-0.17116411
19	0xbeca83a3	-0.39553556
20	0x3d105db2	0.035245605
21	0x3f42a42d	0.7603176
22	0xbebe6b2b	-0.37191138
23	0x3f22e378	0.6362834
24	0xbe0060d8	-0.12536943
25	0x3d06280c	0.032753035
26	0x3f71e0bf	0.9448356
27	0xbf4f413f	-0.8095893
28	0xbf103cd9	-0.56342846
29	0xbe9cad98	-0.30601192
30	0xbeb5236f	-0.35378596
31	0x3f4eb448	0.8074384
32	0xbebb5fc0	-0.3659649
33	0xbf134e32	-0.5754119
34	0xbedc4ad0	-0.43025827
35	0xbf6095c1	-0.87728506
36	0xbf70b1f5	-0.9402154
37	0x3f42d21a	0.7610184
38	0x3eccc285	0.39992157
39	0x3ec265f9	0.37968424
40	0x3da25a26	0.07927351
41	0xbef20b44	-0.4727422
42	0x3eba04d8	0.3633182
43	0xbf4674b4	-0.77521825
44	0xbecc82fe	-0.3994369
45	0xbf12b068	-0.57300425
46	0x3ed13893	0.40863475
47	0x3f07ac9f	0.52997774
48	0xbf04bfc4	-0.5185511
49	0x3c7f2c1f	0.015574484
50	0x3ea372ee	0.31923622
51	0x3f6dae06	0.92843664
52	0xbc8e16b7	-0.017344816
53	0x3e53161d	0.20613904
54	0x3f6f77bb	0.9354207
55	0xbf0025ae	-0.50057495
56	0x3ee4505f	0.44592568
57	0xbf29f74c	-0.6639297
58	0xbee06f91	-0.43835118
59	0xbf038aa9	-0.51383454

func_approx.network.0.bias f4 [30]
0	0x3ea6df38	0.32592177
1	0x3d187471	0.037220422
2	0xbeceb2e9	-0.40370873
3	0x3e9d507d	0.3072547
4	0x3ec75624	0.38932908
5	0xbd3e0899	-0.046394918
6	0x3c43413c	0.011917409
7	0xbd2c1b6f	-0.04201835
8	0x3ec54a2e	0.38533157
9	0x3f1710f7	0.5901026
10	0xbf051122	-0.5197927
11	0xbe9f460d	-0.31108132
12	0x3e8c9069	0.27453926
13	0x3f07dbf7	0.53070015
14	0x3eee5c20	0.4655466
15	0x3f138b82	0.5763475
16	0x3d82c720	0.06385636
17	0xbf0f45b6	-0.55965745
18	0xbe3b32ea	-0.18281141
19	0xbebc8b1e	-0.36824888
20	0xbf1ef101	-0.6208649
21	0x3f2650fb	0.64967316
22	0x3ea22073	0.31665382
23	0xbf28276e	-0.65685165
24	0x3e0ef5c0	0.13960934
25	0x3d5f3882	0.05449725
26	0xbe2c0aab	-0.16800945
27	0xbc539cae	-0.012915773
28	0x3e5102da	0.20411244
29	0xbea9eba4	-0.33187592

func_approx.network.2.weight f4 [30, 30]
0	0x3dcaefb1	0.09908999
1	0x3d174cf2	0.036938615
2	0x3e17b514	0.1481517
3	0x3db85453	0.090004586
4	0xbe0fe40c	-0.14051837
5	0xbe0ff3e6	-0.14057884
6	0x3d50e62c	0.05100076
7	0x3ea55cd4	0.32297385
8	0xbdedabbf	-0.116050236
9	0xbe027803	-0.12741093
10	0x3e723af2	0.23655298
11	0x3e551a21	0.20810749
12	0xbcfed83c	-0.031108968
13	0xbe31b5a0	-0.1735444
14	0xbe0d63d4	-0.13807613
15	0xbbedcd27	-0.007257122
16	0xbe3614e3	-0.17781405
17	0xbe18f298	-0.14936292
18	0x3d8f3e06	0.06994252
19	0x3d7b14cc	0.06129913
20	0xbdcf1d80	-0.101130486
21	0x3c0c1b12	0.008551376
22	0xbe1994f9	-0.14998235
23	0x3e4c68cf	0.19961856
24	0x3e31105b	0.17291395
25	0xbdf3a464	-0.118965894
26	0xbcf76649	-0.03020014
27	0xbd6f448f	-0.058414992
28	0xbd6b7da6	-0.057492875
29	0x3c43f880	0.0119611025
30	0x3c61f7e3	0.013792011
31	0x3da3bf26	0.07995443
32	0xbe4dae11	-0.20085932
33	0x3cd2364b	0.025660655
34	0xbe60760c	-0.21920031
35	0xbdcc92d4	-0.09988943
36	0xbb74a3fd	-0.003732919
37	0xbf202090	-0.62549686
38	0xbdc5a48a	-0.09650524
39	0xbda5937a	-0.080847695
40	0xbe2dd3cb	-0.16975324
41	0xbe1d9fee	-0.1539304
42	0xbe29f70c	-0.16598147
43	0x3e78c33e	0.24293229
44	0x3de27488	0.11057383
45	0xbd3aad2d	-0.04557531
46	0x3d78b3b1	0.060718242
47	0x3b317578	0.0027078073
48	0xbe349ceb	-0.17637984
49	0x3d46599c	0.048425302
50	0x3e4e9996	0.20175776
51	0x3e9afd28	0.30271268
52	0x3e76aee5	0.24090154
53	0xbdaa7960	-0.08323932
54	0xbeafa6fa	-0.3430708
55	0xbe2d5105	-0.16925438
56	0x3d961cf4	0.07329741
57	0x3e339887	0.17538653
58	0x3dadfcff	0.08495521
59	0xbdea7dc3	-0.114497684
60	0xbe2a5b6f	-0.16636442
61	0xbe3e46aa	-0.18581644
62	0xbd0b6e16	-0.034040533
63	0x3d92f1dd	0.07175038
64	0x3dec2e1f	0.115322344
65	0xbe37d89a	-0.1795372
66	0x3daa3854	0.08311525
67	0xbe0c6050	-0.13708615
68	0xbcbae73e	-0.022815343
69	0xbd990b08	-0.07472807
70	0xbca2f802	-0.01989365
71	0xbce0f7ef	-0.027461974
72	0xbe167fc0	-0.1469717
73	0xbe5a44ce	-0.2131531
74	0xbce8f919	-0.028439092
75	0xbd1a0776	-0.03760477
76	0xbdeb40a4	-0.114869386
77	0x3d9b2a8b	0.07576474
78	0xbe3f80a2	-0.18701413
79	0xbb566c72	-0.0032718447
80	0x3e1251ea	0.1428906
81	0xbdf129b8	-0.11775535
82	0x3e1b4c03	0.15165715
83	0x3d942630	0.07233846
84	0xbe032a1b	-0.1280903
85	0x3dd410a6	0.10354738
86	0xbbf2f08c	-0.0074139293
87	0xbd9a40c2	-0.07531883
88	0x3e0adceb	0.13560836
89	0xbe31815f	-0.17334507
90	0x3dd725ca	0.105052546
91	0xbe2f9ee8	-0.17150462
92	0x3e10a8d0	0.14126897
93	0x3e013379	0.12617292
94	0x3e1e0487	0.15431415
95	0x3c579c1f	0.013159781
96	0xbe252a68	-0.16129458
97	0x3dc504d1	0.09620059
98	0xbd938a62	-0.07204129
99	0x3d9e5b02	0.07732202
100	0x3e851463	0.25992116
101	0x3e7bcf38	0.24590766
102	0xbda571f1	-0.08078373
103	0xbdc3d3b2	-0.09561862
104	0xbdf37217	-0.11886995
105	0xbd538bc7	-0.051646974
106	0xbe688281	-0.22706033
107	0xbacc125c	-0.0015569436
108	0x3c878b41	0.016545894
109	0x3d87a59b	0.066233836
110	0xbd6b0df3	-0.05738635
111	0x3c651b79	0.013983601
112	0xbe6b0a63	-0.22953181
113	0xbda437c4	-0.08018449
114	0xbdaa56be	-0.08317326
115	0x3e7b956d	0.2456872
116	0x3d3f509d	0.04670774
117	0x3d32659e	0.04355394
118	0xbd5e064a	-0.054205216
119	0xbd5f452e	-0.054509334
120	0x3c21982c	0.009862941
121	0xbdba913b	-0.09109732
122	0x3d63efe3	0.055648696
123	0x3cc51f11	0.024062665
124	0xbcfbd3e6	-0.03074069
125	0x3c83e0fd	0.016098494
126	0xbe2b5396	-0.16731104
127	0xbea5c4c0	-0.3237667
128	0x3e0fffca	0.1406242
129	0xbe4d3b4a	-0.20042148
130	0x3d02d7ff	0.03194427
131	0x3e626d88	0.22112095
132	0x3cc1b8a3	0.023647612
133	0xbc31e921	-0.010858805
134	0xbe4feb69	-0.20304646
135	0x3e0cd25b	0.13752119
136	0xbe25f8ab	-0.1620814
137	0xbdafe66b	-0.085888706
138	0xbca406b4	-0.020022728
139	0x3cb2a1fd	0.021805758
140	0x3d0cf198	0.03441009
141	0x3df92f95	0.12167279
142	0xbd140dd4	-0.036146
143	0x3e667843	0.22506814
144	0xbd798737	-0.060919967
145	0xbd341fae	-0.043975525
146	0x3db4e1b8	0.08832115
147	0xbde055cf	-0.10953867
148	0xbdf22b3c	-0.118246526
149	0x3d8d18f1	0.06889523
150	0x3cbbf62e	0.022944536
151	0x3e019890	0.12655854
152	0xbe42edf9	-0.19036092
153	0xbd22b208	-0.039720565
154	0x3d7825cf	0.060582932
155	0xbe5ddb34	-0.2166565
156	0x3db75c87	0.08953195
157	0xbf487879	-0.78308827
158	0x3c309959	0.010778748
159	0x3c8fbcf6	0.017546158
160	0xbe53cb8d	-0.20683117
161	0xbe30ad96	-0.17253718
162	0x3dee712b	0.11642679
163	0x3e43461e	0.19069716
164	0xbe2222f5	-0.15833648
165	0xbdade373	-0.08490648
166	0xbe3df300	-0.18549728
167	0x3d5fb46e	0.05461543
168	0xbeae0ba1	-0.33993247
169	0xbe0bbb54	-0.13645679
170	0xbdc55c61	-0.096367605
171	0x3e9646a5	0.29350773
172	0x3dcfa2c9	0.10138471
173	0x3dcbd6c2	0.09953071
174	0xbe8b7db2	-0.27244335
175	0xbdab850e	-0.083749875
176	0xbd83e39d	-0.06439898
177	0x3e84b76c	0.2592119
178	0x3eadb7d2	0.33929306
179	0x3cd899bf	0.0264405
180	0xbdea9d6c	-0.11455807
181	0xbd106958	-0.035256714
182	0xbe683ae1	-0.2267871
183	0x3cb623b0	0.022233814
184	0xbe0abfd6	-0.13549742
185	0xbe2d6949	-0.16934694
186	0x3e3f8e8f	0.18706726
187	0xbf115633	-0.56772155
188	0xbd15db2f	-0.036585983
189	0x3d96eee9	0.07369787
190	0xbd8dfee0	-0.06933379
191	0xbe818353	-0.25295505
192	0xbe48158f	-0.19539474
193	0x3eae600e	0.3405766
194	0xbc6e060d	-0.01452781
195	0x3e29654f	0.16542552
196	0xbce44a80	-0.027867556
197	0x3d4afa88	0.04955533
198	0xbe4d1b55	-0.20029958
199	0xbcdb8635	-0.026797393
200	0xbdc0052f	-0.09375989
201	0x3e4b191d	0.19833799
202	0x3da31c96	0.07964437
203	0xbcd4dea4	-0.02598507
204	0xbe74d2af	-0.23908494
205	0xbe1e1594	-0.15437919
206	0x3dd91b35	0.106008925
207	0x3b3be35e	0.0028669457
208	0x3e4d46f6	0.200466
209	0xbd32f826	-0.043693684
210	0xbd2861b9	-0.04110882
211	0xbcbf777c	-0.023372404
212	0xbd67a339	-0.056552146
213	0x3dbdd2ba	0.092687085
214	0x3db67fa2	0.08911063
215	0xbe27f759	-0.1640295
216	0x3a90b7e2	0.001104113
217	0x3e085d10	0.1331675
218	0x3dc6c2d7	0.097051315
219	0xbdeb4590	-0.11487877
220	0x3c018f48	0.007907696
221	0x3e188a5c	0.1489653
222	0x3dcfccc1	0.101464756
223	0xbe666f9a	-0.2250351
224	0x3d498e4f	0.04920798
225	0x3e19c16f	0.15015195
226	0xbe22a361	-0.15882637
227	0xbc735daf	-0.014853879
228	0x3e643761	0.2228675
229	0x3dd00638	0.10157436
230	0xbbf127fb	-0.0073595024
231	0xbe1c2b6c	-0.15250939
232	0xbe82bbd7	-0.25533935
233	0x3df7625b	0.12079307
234	0x3e28c80f	0.16482566
235	0x3e542a34	0.20719224
236	0x3e38d4da	0.18049946
237	0xbd6a9e81	-0.057280067
238	0xbdc2b0c5	-0.09506372
239	0xbdf07ee5	-0.11742953
240	0xbe4b8515	-0.19874986
241	0xbd7f91ed	-0.062395025
242	0x3e14b19a	0.14520875
243	0x3da489a4	0.08034065
244	0xbe1aafb9	-0.15106095
245	0x3d7d2ca0	0.061810136
246	0x3e55aa2e	0.208657
247	0xbd4f15d2	-0.05055792
248	0x3dec2ef1	0.11532391
249	0x3e228111	0.15869547
250	0xbdcfd9f7	-0.10148995
251	0xbe1817ef	-0.1485288
252	0x3e0c6df8	0.13713825
253	0x3e3ec715	0.18630631
254	0xbdd17a3a	-0.10228391
255	0x3e17a46b	0.14808814

func_approx.network.2.bias f4 [30]
0	0x3d3bebfd	0.045879353
1	0x3e1eff51	0.15527083
2	0x3d0310aa	0.031998314
3	0xbd2ecc04	-0.042675033
4	0x3dd1b07a	0.10238738
5	0x3d266674	0.04062505
6	0x3cffb7b6	0.03121553
7	0xbceca528	-0.028887346
8	0x3ccfb1d0	0.025353342
9	0x3a0f9780	0.00054775923
10	0xbc067761	-0.008207173
11	0xbd41da6a	-0.047327437
12	0x3c360983	0.011110666
13	0xbe0b6fe8	-0.13616908
14	0xbc85e329	-0.01634367
15	0x3db09baf	0.08623444
16	0xbcc2fa12	-0.023800883
17	0xbe270a19	-0.16312446
18	0xbca56c94	-0.020193376
19	0x3caa81b5	0.020813802
20	0x3e53b42b	0.20674197
21	0x3d06e5d2	0.032934017
22	0x3d9e79af	0.07738053
23	0xbdf1acfe	-0.11800574
24	0x3d51ca89	0.051218543
25	0x3dc9a5c2	0.09846069
26	0x3e020d07	0.12700282
27	0xbde5485d	-0.11195443
28	0xbda82d68	-0.082117856
29	0x3d814796	0.06312482

func_approx.network.4.weight f4 [30, 30]
0	0x3e1d8c20	0.15385485
1	0xbe65494a	-0.22391239
2	0xbdbcae0d	-0.09212885
3	0x3de76063	0.11297681
4	0xbc1f08c1	-0.009706677
5	0xbe9382a2	-0.28810602
6	0xbe748a0d	-0.23880787
7	0x3dd49555	0.10380045
8	0xbe4a7cf5	-0.1977423
9	0x3e4c84c8	0.19972527
10	0x3df269b8	0.118365705
11	0x3d326470	0.043552816
12	0xbd8720ad	-0.06598029
13	0x3d51802e	0.051147632
14	0xbd992a8c	-0.07478818
15	0x3db3e012	0.087829724
16	0xbe55f376	-0.20893654
17	0xbe8784bf	-0.26468465
18	0xbe82b6ff	-0.2553024
19	0x3e02ece9	0.12785687
20	0xbe7c6b3b	-0.2465028
21	0x3e4a0946	0.197301
22	0xbd765897	-0.06014308
23	0xbe032783	-0.12808041
24	0x3e869f32	0.2629333
25	0x3dcbe8e5	0.099565305
26	0x3b68459f	0.0035441888
27	0x3e77379c	0.24142307
28	0xbe57b6fb	-0.21065895
29	0x3e1260ce	0.1429474
30	0xbd89f54a	-0.06736238
31	0xbd3f13a8	-0.046649605
32	0x3ddf0686	0.10889916
33	0x3e1d4522	0.15358403
34	0xbe1e2c91	-0.15446688
35	0xbc56dbdc	-0.013113942
36	0x3e5d315d	0.21600862
37	0x3dc9647f	0.09833621
38	0x3e54a846	0.20767316
39	0xbdd600d9	-0.104493804
40	0xbe03f29d	-0.12885518
41	0x3e52e287	0.20594226
42	0x3d9012bf	0.070348255
43	0x3e002017	0.12512241
44	0xbd7c81ea	-0.061647333
45	0xbd73b75d	-0.05950104
46	0xbd05b028	-0.0326387
47	0xbda5b07a	-0.08090301
48	0x3d78dc1e	0.060756795
49	0x3e24ecc2	0.16105941
50	0x3c56dcce	0.013114167
51	0x3c41073a	0.011781508
52	0x3d3244a5	0.043522496
53	0xbdc80cb8	-0.09768051
54	0x3dcf41a9	0.101199456
55	0xbe16aabc	-0.14713567
56	0xbdd37610	-0.10325253
57	0xbd86683e	-0.06562851
58	0x3e677462	0.2260299
59	0xbd41599a	-0.04720459
60	0x3d807f3b	0.06274267
61	0xbdbe2fb8	-0.092864454
62	0x3dcd24a9	0.10016758
63	0xbd2b1cf9	-0.041775677
64	0x3d67778a	0.056510486
65	0x3e450a3b	0.19242184
66	0x3d4df5a7	0.0502831
67	0xbd8d0821	-0.06886316
68	0xbd327229	-0.043565903
69	0xbdd17826	-0.102279946
70	0xbc0565c0	-0.008141935
71	0x3da1cdb3	0.07900562
72	0xbd520037	-0.051269736
73	0x3dafaaf2	0.08577527
74	0xbd085da0	-0.033292413
75	0xbd9a4672	-0.075329676
76	0x3d3336c0	0.043753386
77	0xbe9dc799	-0.30816343
78	0x3d59e91e	0.053200833
79	0xbd918d51	-0.07107032
80	0x3dbc2038	0.09185833
81	0xbdd1ed26	-0.102503106
82	0x3e6328ec	0.22183579
83	0x3dacc9f2	0.084369555
84	0xbe014425	-0.12623651
85	0x3d5d2b89	0.053996596
86	0xbe3a2062	-0.18176416
87	0xbe4c3a77	-0.19944178
88	0xbd052dfc	-0.032514557
89	0x3db6aaa0	0.08919263
90	0xbd46e0dd	-0.04855429
91	0xbe9458e3	-0.28974065
92	0xbe52a6c4	-0.20571429
93	0x3d004420	0.03131497
94	0xbdd450d5	-0.1036698
95	0xbe9d5099	-0.30725554
96	0xbad731a2	-0.001641799
97	0xbc55741f	-0.013028174
98	0xbe3b29b4	-0.18277627
99	0xbd689894	-0.056786135
100	0xbe19bb0f	-0.15012763
101	0xbdf2ce1e	-0.1185572
102	0xbe25621b	-0.16150706
103	0x3e29ac82	0.16569713
104	0xbe96aa84	-0.29426968
105	0xbbf9c8f8	-0.0076228343
106	0xbe8bf059	-0.27331808
107	0x3e85e129	0.26148346
108	0xbd9f4a53	-0.07777848
109	0xbd01d2f3	-0.031695317
110	0xbef0858c	-0.46976888
111	0x3e8877c2	0.26653868
112	0xbe0637d5	-0.13107236
113	0x3e4efab3	0.20212822
114	0x3e02c40c	0.12770098
115	0xbbc9125b	-0.0061362213
116	0xbcabb7b9	-0.02096163
117	0x3e1d516d	0.15363093
118	0x3e8ea93d	0.27863494
119	0xbea6d3c0	-0.32583427
120	0xbc22f2a4	-0.009945545
121	0x3de67ebe	0.11254643
122	0xbd962204	-0.07330707
123	0xbda7f020	-0.08200097
124	0x3d7da96a	0.061929144
125	0xbe176a4a	-0.1478664
126	0x3db68fc3	0.08914139
127	0xbe487827	-0.19577084
128	0x3e324475	0.17408927
129	0xbe23ca0d	-0.15995045
130	0x3e0f38a7	0.13986455
131	0xbe490409	-0.19630446
132	0xbe051853	-0.1299756
133	0xbdb183d7	-0.086677246
134	0x3e3e91d2	0.18610314
135	0xbe3788a0	-0.17923212
136	0xbbf39497	-0.007433485
137	0x3e9a2227	0.3010418
138	0x3cd1721a	0.025567103
139	0x3dc1893f	0.09450006
140	0xbddf1350	-0.108923554
141	0xbdbb090a	-0.091325834
142	0xbd8f7971	-0.07005585
143	0x3e22ca97	0.15897594
144	0xbcf410ad	-0.029793108
145	0xbe082029	-0.13293518
146	0x3d993dd3	0.07482495
147	0xbd5ecf8b	-0.054397147
148	0xbd5682c2	-0.052370794
149	0xbdeeca38	-0.11659664
150	0xbdc511f7	-0.09622567
151	0x3e6db890	0.23214936
152	0xbe1c59c9	-0.15268625
153	0xbe3dbe47	-0.18529616
154	0xbda2d89c	-0.07951471
155	0x3e0b91a4	0.13629776
156	0x3e3879e2	0.18015245
157	0xbd2c7cb2	-0.042111106
158	0x3db4ec06	0.088340804
159	0xbe2ed3cd	-0.17072983
160	0x3bea8ef5	0.007158155
161	0xbde28239	-0.11059994
162	0x3e5b4529	0.21413101
163	0xbe9320c6	-0.28735942
164	0xbd76cf31	-0.060256187
165	0xbe60206f	-0.21887372
166	0x3d09e334	0.033663943
167	0x3ec1a9b5	0.3782479
168	0x3e860fc7	0.26183912
169	0xbe1c7291	-0.15278079
170	0x3e0db437	0.13838278
171	0x3d9b8114	0.07592979
172	0x3dcfa454	0.10138765
173	0x3e15924f	0.14606594
174	0xbe228c10	-0.15873742
175	0xbe1815dc	-0.14852089
176	0x3e6fbe66	0.23412475
177	0xbe690317	-0.22755085
178	0x3de9c25b	0.114140235
179	0xbd6805ca	-0.056646146
180	0x3e11faad	0.14255781
181	0x3e1908b0	0.1494472
182	0x3e8510f1	0.25989488
183	0xbdd65384	-0.10465148
184	0xbe013e52	-0.1262143
185	0xbd9a7dc9	-0.07543523
186	0xbe3acb61	-0.18241645
187	0x3e23c470	0.15992904
188	0xbdeacb0b	-0.114645086
189	0xbd8a8dae	-0.067653045
190	0xbd7145ab	-0.05890433
191	0xbdc5be8d	-0.09655485
192	0x3d1b62cd	0.03793602
193	0xbe1d215b	-0.15344755
194	0xbe172af3	-0.14762478
195	0xbe32f99a	-0.17478028
196	0x3dd4b982	0.10386945
197	0xbda52659	-0.08063955
198	0xbddaa92e	-0.106768
199	0x3cd4a10d	0.025955701
200	0x3e27a004	0.16369635
201	0xbc3f73b8	-0.011685304
202	0xbccd53de	-0.025064405
203	0x3b9a635c	0.0047115516
204	0x3d8b1c17	0.06792467
205	0x3dd077a9	0.10179073
206	0xbe42ed82	-0.19035915
207	0x3dc42f14	0.09579292
208	0x3d8d8ae7	0.06911259
209	0xbd993a75	-0.07481853
210	0x3dad8452	0.08472504
211	0x3eafba97	0.34322044
212	0xbd82d1b5	-0.06387655
213	0xbe148e0f	-0.14507316
214	0x3ce2fb11	0.027707608
215	0x3da613e1	0.0810926
216	0x3e446702	0.1917992
217	0xbd3fe2c0	-0.046847105
218	0x3e28d457	0.16487251
219	0xbe4796c6	-0.19491109
220	0xbdaf02de	-0.08545469
221	0x3cf6d136	0.030129056
222	0x3e0fe7ea	0.14053312
223	0xbe83a589	-0.2571223
224	0xbab2a40e	-0.0013629214
225	0xbe5f194a	-0.21786991
226	0xbd96b605	-0.07358936
227	0x3e43bf62	0.19115975
228	0x3e8bc102	0.2729569
229	0xbd8bdf42	-0.068296924
230	0x3eac2694	0.33623183
231	0x3dc254f1	0.094888575
232	0x3e238ae5	0.15970953
233	0xbe885b67	-0.26632234
234	0x3c3735ef	0.011182292
235	0x3e05d5e1	0.1306987
236	0x3e6a9361	0.22907783
237	0xbec30a1b	-0.38093647
238	0x3d76a4d0	0.06021577
239	0x3e516c32	0.2045143
240	0xbdbd8a48	-0.09254891
241	0xbc197c44	-0.009368006
242	0x3eb62c85	0.3558084
243	0x3d1d22a7	0.038363125
244	0x3dcc36a8	0.09971362
245	0x3d9cb027	0.07650786
246	0xbbe8904a	-0.0070972787
247	0x3e4348a7	0.19070683
248	0x3d5498ce	0.05190354
249	0x3e6f76de	0.23385188
250	0xbcc325ba	-0.0238217
251	0x3e4107b7	0.18850599
252	0xbe712254	-0.23548251
253	0xbe12bf16	-0.14330706
254	0xbd048f40	-0.032363176
255	0xbd82d58c	-0.06388387

func_approx.network.4.bias f4 [30]
0	0xbd584636	-0.052801333
1	0xbd8b34c3	-0.06797173
2	0xbc2a86d0	-0.010408118
3	0x3df87e65	0.12133483
4	0x3c091151	0.008365945
5	0x3df35cef	0.1188296
6	0x3c0c7234	0.00857215
7	0x3daa957a	0.08329292
8	0x3c2f2e4a	0.0106921885
9	0x3cd02e32	0.025412653
10	0xbe2d5535	-0.16927035
11	0xbdf41f08	-0.11919981
12	0x3ce6df89	0.028182762
13	0x3da9f1a3	0.08298042
14	0x3df11407	0.11771398
15	0xbbc77329	-0.006086726
16	0x3d934e9d	0.07192729
17	0x3d8824ac	0.066476196
18	0xbe42f8d7	-0.19040237
19	0xbdd84e8f	-0.10561859
20	0xbdc474f2	-0.09592618
21	0x3ca35bbf	0.019941209
22	0xbddda5f1	-0.108226664
23	0xbd173bdc	-0.03692232
24	0xbd14ccfb	-0.036328297
25	0x3d8ae22a	0.067814186
26	0x3cc825a8	0.024432018
27	0x3e08d259	0.13361491
28	0x3e16a4f5	0.14711364
29	0xbddd3e14	-0.10802856

func_approx.network.6.weight f4 [30, 30]
0	0x3d22c937	0.039742675
1	0xbbe50593	-0.00698919
2	0x3e87117b	0.26380524
3	0xbe3545ce	-0.1770241
4	0xbdd9e8f7	-0.10640138
5	0xbe21eeff	-0.15813826
6	0x3da04786	0.07826142
7	0xbdc6b391	-0.09702218
8	0xbd93ba3b	-0.07213255
9	0x3df5277b	0.11970421
10	0x3e92f667	0.28703615
11	0x3bb6732b	0.0055679283
12	0xbe4aa012	-0.19787624
13	0x3e9abd6c	0.30222642
14	0xbdc67407	-0.09690099
15	0x3a5c0c7f	0.0008394196
16	0xbdb14b4f	-0.08656942
17	0xbd48a1c6	-0.048982404
18	0xbe1d0ec9	-0.15337671
19	0xbddf554a	-0.109049395
20	0xbe48f62e	-0.1962516
21	0xbe284464	-0.16432339
22	0x3e0fe3f8	0.14051807
23	0xbe1fee1c	-0.15618175
24	0xbdca2776	-0.09870808
25	0xbdc4bb41	-0.09606028
26	0x3e63e8a9	0.22256722
27	0x3e556a48	0.20841324
28	0x3d098bb4	0.033580497
29	0xbceedfe7	-0.0291595
30	0xbe2e97eb	-0.1705014
31	0xbddb5022	-0.107086435
32	0x3d619549	0.05507401
33	0x3dcd9b5f	0.100394
34	0x3d8832a8	0.06650287
35	0x3bca576e	0.006174973
36	0x3e198eac	0.14995831
37	0xbdf25b68	-0.118338406
38	0x3d3dd47f	0.04634523
39	0x3e3b7671	0.183069
40	0xbe6cacc9	-0.23112787
41	0xbda2e4b1	-0.07953776
42	0x3e044e61	0.12920524
43	0xbe026d83	-0.12737088
44	0xbdc9c203	-0.09851458
45	0x3df4b63f	0.11948823
46	0xbb96eb2c	-0.0046056714
47	0xbc755aa8	-0.014975227
48	0xbd8ba697	-0.06818884
49	0x3e1320e7	0.1436802
50	0x3ded91c0	0.11600065
51	0x3df8b982	0.12144758
52	0xbc5bbc1a	-0.013411546
53	0x3e062c3c	0.13102812
54	0x3e1b9ca8	0.15196478
55	0xbd43a788	-0.047767192
56	0xbe078d6a	-0.13237539
57	0x3d87cd59	0.06630964
58	0xbe02628a	-0.12732902
59	0x3e22ad4b	0.15886419
60	0xbe2ff004	-0.17181402
61	0x3d97ed56	0.07418315
62	0xbd6b3e08	-0.057432204
63	0x3ded4937	0.1158623
64	0x3df88f3e	0.12136696
65	0x3d8f1d0d	0.06987963
66	0x3cd8e77c	0.026477568
67	0x3e38e32a	0.18055406
68	0xbde8dcd8	-0.113702476
69	0xbe255696	-0.16146311
70	0xbe48c07d	-0.19604678
71	0xbdfb6f0e	-0.122770414
72	0x3cc02141	0.023453357
73	0xbe094d2c	-0.13408345
74	0x3d1b93e4	0.037982836
75	0x3cef4a51	0.029210242
76	0x3df4a6db	0.11945888
77	0xbdf4b4c4	-0.11948541
78	0xbd84b17e	-0.064791664
79	0x3df09476	0.11747067
80	0xbd6088c3	-0.054817926
81	0x3e848e32	0.25889736
82	0xbdc0be87	-0.0941134
83	0x3d235341	0.03987432
84	0xbd04aaa7	-0.03238931
85	0x3d9617ca	0.07328756
86	0x3c8059be	0.015667792
87	0xbdca34ab	-0.09873327
88	0x3db1fad4	0.0869042
89	0xbc94ba8a	-0.018155355
90	0xbd9d169c	-0.07670328
91	0x3be09654	0.006853858
92	0xbda30ac9	-0.079610415
93	0x3eaac0bd	0.33350173
94	0x3e426d69	0.18987049
95	0x3d8da587	0.069163375
96	0x3e275fc7	0.1634513
97	0xbd4a1393	-0.049335074
98	0xbe043d8d	-0.12914105
99	0xbd984fe9	-0.07437117
100	0xbe98ea3e	-0.29866213
101	0x3d5b3b24	0.053523198
102	0x3d9e063d	0.077160336
103	0xbe573c46	-0.21019086
104	0x3c622113	0.013801831
105	0xbe0a2c20	-0.13493395
106	0x3defdfb3	0.11712589
107	0x3e0397df	0.12850903
108	0xbdfcdbca	-0.12346609
109	0x3d7a071b	0.061041933
110	0x3df8dc77	0.12151425
111	0x3e6f8d91	0.23393847
112	0xbda646ff	-0.0811901
113	0x3d4b92da	0.049700595
114	0x3e241b67	0.16026078
115	0x3e44bc32	0.19212416
116	0xbe9e422c	-0.3090986
117	0xbdffa3c9	-0.124824114
118	0xbe4589c3	-0.19290833
119	0xbe1b8825	-0.15188654
120	0x3cdc1670	0.026866168
121	0x3e176382	0.14784053
122	0xbdd57c4e	-0.104241
123	0x3df7898b	0.12086781
124	0x3e4e38f8	0.2013892
125	0xbda28d1f	-0.07937073
126	0x3d652a50	0.055948555
127	0xbd8db121	-0.0691855
128	0x3da2a8a6	0.079423234
129	0xbd317b7b	-0.04333065
130	0xbd5c2573	-0.05374665
131	0xbddf44cc	-0.10901794
132	0xbe436576	-0.19081673
133	0x3dbb7a89	0.09154231
134	0x3c16ccfe	0.009204147
135	0xbcd748a9	-0.026279764
136	0xbe2303dd	-0.15919442
137	0x3da56a75	0.08076946
138	0xbd927134	-0.07150498
139	0xbd1b6bc3	-0.037944566
140	0xbe13569a	-0.14388505
141	0xbe198a86	-0.14994249
142	0x3e073d25	0.13206919
143	0xbd8a05df	-0.06739401
144	0x3a3991c6	0.0007078912
145	0xbdba1e5d	-0.090878226
146	0x3c730a80	0.014834046
147	0x3d3987aa	0.045295395
148	0xbe4834e8	-0.19551432
149	0x3e09fd03	0.13475423
150	0xbea05591	-0.31315282
151	0x3d110b74	0.035411313
152	0x3d15298a	0.036416568
153	0xbc3cb1a7	-0.011516965
154	0x3e3c64b1	0.18397786
155	0x3e7a5372	0.24445894
156	0x3cd1b69c	0.02559977
157	0x3d6f09af	0.058358844
158	0x3de65bf1	0.11248005
159	0x3e373211	0.17890193
160	0x3cf740e1	0.030182304
161	0xbdea864f	-0.114513986
162	0x3d14cd8c	0.036328837
163	0x3dfd30d8	0.12362832
164	0x3d51052a	0.051030315
165	0xbcde5bab	-0.02714332
166	0xbe86d577	-0.26334736
167	0xbe6e83c3	-0.2329245
168	0x3d1fe8fb	0.039040547
169	0xbce5cd86	-0.028052103
170	0xbc748def	-0.014926418
171	0x3e81bec7	0.25340864
172	0xbdbd52c0	-0.09244299
173	0x3e122a0d	0.14273854
174	0xbd451a72	-0.048120923
175	0x3d18700d	0.037216235
176	0x3decae29	0.11556656
177	0x3dfa6984	0.12227157
178	0x3e09537a	0.1341075
179	0xbe43ab5d	-0.19108339
180	0xbd4218cd	-0.047386933
181	0x3b2293fb	0.0024807442
182	0xbe2f34a5	-0.17109926
183	0x3cd3fb73	0.025876736
184	0xbe1edd72	-0.15514162
185	0x3d6e43ee	0.05817025
186	0x3de06e80	0.10958576
187	0xbe3f3181	-0.18671228
188	0x3df1b9f9	0.118030496
189	0x3dc475c1	0.09592772
190	0xbe00c91d	-0.12576719
191	0x3e32a63f	0.1744623
192	0xbe0c8a82	-0.13724712
193	0xbdab8aa3	-0.08376052
194	0xbdff077f	-0.12452602
195	0x3c024703	0.007951501
196	0x3db7cab5	0.0897421
197	0xbce2c360	-0.027681053
198	0xbe40b4c6	-0.1881896
199	0xbd0b9faf	-0.034087833
200	0x3e183682	0.14864543
201	0x3e1e7c50	0.15477109
202	0x3e028d10	0.12749124
203	0xbcb1f74f	-0.021724371
204	0x3cb94c15	0.022619287
205	0xbde210bd	-0.11038349
206	0x3e027ff8	0.12744129
207	0xbe45a5a8	-0.19301474
208	0xbd081d62	-0.033231147
209	0xbc8e12be	-0.017342921
210	0x3d987ba7	0.0744546
211	0x3c686c33	0.014185953
212	0xbda5e997	-0.08101194
213	0x3dcdbb05	0.10045437
214	0xbe0a4d28	-0.13505995
215	0x3b6daa8d	0.0036264986
216	0x3d9c3a5c	0.07628319
217	0x3d36f217	0.04466447
218	0xbcdd4287	-0.027009262
219	0x3dfb99ae	0.122851714
220	0xbe40bafe	-0.18821332
221	0xbdd1d4f5	-0.102456965
222	0x3e5d676d	0.21621485
223	0xbd569fa6	-0.052398346
224	0xbbd7890a	-0.0065776156
225	0x3d98330b	0.07431611
226	0x3d55f88e	0.052238993
227	0xbdb5a866	-0.0887001
228	0xbdd734a6	-0.10508089
229	0xbceda144	-0.029007562
230	0x3d9527ee	0.072830066
231	0x3da668ce	0.08125459
232	0x3d9fae77	0.077969484
233	0xbda97f27	-0.082762055
234	0xbd3aa66b	-0.045568865
235	0x3e0e6d99	0.13908996
236	0xbd698fa5	-0.057021756
237	0x3c905994	0.01762084
238	0x3ce1bb4c	0.02755513
239	0xbd9d611f	-0.0768454
240	0xbe36d540	-0.17854786
241	0x3d910931	0.07081831
242	0xbb74900a	-0.00373173
243	0xbd0ccaa6	-0.034372948
244	0x3d8a825d	0.06763146
245	0x3df6fd44	0.12060025
246	0x3a994b16	0.0011695351
247	0xbd1041d0	-0.035219014
248	0xbd0caab1	-0.03434247
249	0xbda57f1c	-0.08080885
250	0x3da9902d	0.082794525
251	0xbe268200	-0.16260529
252	0x3e349412	0.1763461
253	0x3c81826f	0.015809266
254	0xbe09284d	-0.1339428
255	0x3e0b76e3	0.1361957

func_approx.network.6.bias f4 [30]
0	0xbda79d0f	-0.081842534
1	0x3d7061b2	0.05868692
2	0xbe070487	-0.13185321
3	0x3c9a39c9	0.018826382
4	0xbc1b1fc4	-0.009468023
5	0x3d82469c	0.06361124
6	0x3d89e67b	0.06733414
7	0xbde2b1ac	-0.110690445
8	0x3da5a6bf	0.08088445
9	0x3def86af	0.11695611
10	0x3c3e5a0a	0.011618147
11	0x3db744ca	0.08948667
12	0xbdb4bb2b	-0.08824762
13	0x3d2bcb17	0.04194173
14	0x3d520650	0.05127555
15	0xbd8e98b4	-0.069627196
16	0x3da828df	0.082109205
17	0xbe32fa62	-0.17478326
18	0xbd6854b0	-0.05672139
19	0xbdbcd5d8	-0.09220475
20	0xbde320a3	-0.11090209
21	0xbdb8e1c2	-0.09027435
22	0xbe1a9819	-0.15097083
23	0x3cf5c8f6	0.030003052
24	0xbc15b2b6	-0.009136846
25	0xbe18e1a7	-0.1492983
26	0x3c9f1fac	0.019424282
27	0xbcf78fca	-0.030219931
28	0x3d7ef7c8	0.06224802
29	0xbe091901	-0.13388444

func_approx.network.8.weight f4 [1, 30]
0	0xbe1addf3	-0.1512373
1	0x3e05575e	0.13021609
2	0x3e2f2f92	0.1710799
3	0x3e03f81c	0.12887615
4	0xbd1d7cd7	-0.038449135
5	0x3e682e00	0.22673798
6	0x3da417be	0.08012341
7	0x3de8dc16	0.11370103
8	0x3e1b6243	0.15174203
9	0xbe9acceb	-0.30234465
10	0x3dbaef70	0.091277
11	0x3d066f7a	0.032821156
12	0xbdde0c5a	-0.108421996
13	0x3e2bd3fc	0.16780084
14	0x3984fd59	0.0002536576
15	0x3e763574	0.24043828
16	0x3d3a015f	0.045411464
17	0xbe20ec48	-0.15715134
18	0x3e4fe7a5	0.20303209
19	0xbd4e41eb	-0.050355833
20	0x3e57a572	0.21059206
21	0x3d7b02c2	0.061281927
22	0x3de30ec2	0.11086799
23	0x3e375090	0.17901826
24	0x3d69ba3b	0.05706237
25	0xbd697986	-0.05700066
26	0xbb4b2d32	-0.003100228
27	0xbe1124aa	-0.14174142
28	0x3d0c1f5b	0.03420959
29	0xbd8eae73	-0.06966867

exp_avg f4 [30, 2]
0	0xb7685c60	-1.3849785e-05
1	0xb78fd0bb	-1.7144126e-05
2	0x373045f4	1.0506705e-05
3	0x369d40d7	4.686513e-06
4	0x36ffe31d	7.6260317e-06
5	0xb636d212	-2.724239e-06
6	0xb76bf92e	-1.4065108e-05
7	0xb708ee8d	-8.161774e-06
8	0xb708b3fb	-8.148137e-06
9	0xb792095a	-1.7408911e-05
10	0x37b4b0ea	2.1540054e-05
11	0x3738c76e	1.1013688e-05
12	0x36aac172	5.088915e-06
13	0x358dc8ad	1.0563723e-06
14	0x38a65870	7.9319696e-05
15	0x370edb00	8.5148495e-06
16	0xb6cdf07f	-6.1374735e-06
17	0xb751d870	-1.2507764e-05
18	0xb5319306	-6.6151586e-07
19	0xb5d34853	-1.5741774e-06
20	0x36ed7287	7.076483e-06
21	0xb6451d17	-2.937222e-06
22	0x3661e3d3	3.3660224e-06
23	0xb6f9ebfd	-7.448251e-06
24	0x37017015	7.715095e-06
25	0xb78688b1	-1.6037697e-05
26	0xb7abe399	-2.0490772e-05
27	0xb66784bc	-3.4498944e-06
28	0x37698fff	1.3921409e-05
29	0x378fb2d7	1.7130207e-05
30	0xb747f231	-1.1917714e-05
31	0xb704e348	-7.920731e-06
32	0x371538dc	8.894331e-06
33	0x37498272	1.2010905e-05
34	0x3722858f	9.687049e-06
35	0x38232a21	3.8901464e-05
36	0x3736281e	1.0857386e-05
37	0xb7625ab3	-1.3491767e-05
38	0xb747d39a	-1.1910592e-05
39	0xb767189e	-1.3774405e-05
40	0x3674cbcc	3.6477459e-06
41	0x37fe6fca	3.0331215e-05
42	0xb45504c3	-1.9838903e-07
43	0x378c743a	1.6743423e-05
44	0x3724b146	9.816436e-06
45	0x37080b91	8.108925e-06
46	0xb726510e	-9.913243e-06
47	0xb77b46b4	-1.4977228e-05
48	0x3802c929	3.118176e-05
49	0x372011e9	9.540913e-06
50	0xb786358c	-1.599898e-05
51	0xb7537c35	-1.2605499e-05
52	0xb6073c0c	-2.015152e-06
53	0xb6770f7d	-3.6814884e-06
54	0xb72205d1	-9.657307e-06
55	0x362fff08	2.622548e-06
56	0xb6e3e827	-6.7921533e-06
57	0x3672a0ea	3.6154474e-06
58	0x37230c9c	9.718493e-06
59	0x377cb542	1.5062573e-05

exp_avg_sq f4 [30, 2]
0	0x2f52e8af	1.9182055e-10
1	0x2fa19702	2.9393027e-10
2	0x2ef36233	1.1067804e-10
3	0x2dc18ea9	2.2004914e-11
4	0x2e7ffa3b	5.8202537e-11
5	0x2d035ec5	7.467531e-12
6	0x2f59876f	1.9784151e-10
7	0x2e9389f0	6.709289e-11
8	0x2e9229a5	6.646709e-11
9	0x2fa6b6aa	3.0325015e-10
10	0x2fff1df9	4.6405527e-10
11	0x2f05978e	1.2150123e-10
12	0x2de3e3ec	2.590813e-11
13	0x2b9e584d	1.1251084e-12
14	0x31d85861	6.296475e-09
15	0x2ea2ce23	7.403524e-11
16	0x2e25d0f0	3.770223e-11
17	0x2f2c040a	1.5644744e-10
18	0x2b12e284	5.2183973e-13
19	0x2c2eaa5e	2.482146e-12
20	0x2e5c4a60	5.0088267e-11
21	0x2d2125f8	9.160221e-12
22	0x2d4a3ae6	1.1495449e-11
23	0x2e7518a8	5.572845e-11
24	0x2e84ba25	6.035731e-11
25	0x2f8d7032	2.572747e-10
26	0x2fe6e728	4.2001003e-10
27	0x2d516891	1.1903493e-11
28	0x2f556a2c	1.9409957e-10
29	0x2fa1539f	2.9345146e-10
30	0x2f1c362e	1.4207366e-10
31	0x2e8ba191	6.349688e-11
32	0x2eaec0cd	7.946852e-11
33	0x2f1eb250	1.4433366e-10
34	0x2ecfaa4e	9.4435224e-11
35	0x30d00bbf	1.513733e-09
36	0x2f01b23c	1.1795803e-10
37	0x2f482cac	1.8205765e-10
38	0x2f1c049f	1.4189759e-10
39	0x2f50a130	1.8974755e-10
40	0x2d6a6d47	1.33256245e-11
41	0x307cf9ce	9.203206e-10
42	0x2bb283a9	1.2684204e-12
43	0x2f9a6493	2.80839e-10
44	0x2ed3f731	9.639079e-11
45	0x2e90c82f	6.5839216e-11
46	0x2ed84274	9.834347e-11
47	0x2f76adcb	2.2435313e-10
48	0x3085b106	9.727337e-10
49	0x2ec8d5c6	9.132921e-11
50	0x2f8cd0fa	2.5614338e-10
51	0x2f2ec54f	1.5895306e-10
52	0x2c90073d	4.0935298e-12
53	0x2d6ebc16	1.3570497e-11
54	0x2ece3099	9.376428e-11
55	0x2cf62ab6	6.9964824e-12
56	0x2e4ae6e8	4.613457e-11
57	0x2d6c256a	1.34233544e-11
58	0x2ecff20f	9.4562684e-11
59	0x2f79807a	2.2692062e-10

max_exp_avg_sq f4 [30, 2]
0	0x359a9631	1.1517606e-06
1	0x36397f34	2.764119e-06
2	0x34ed6fd9	4.422607e-07
3	0x3597ae4c	1.1301104e-06
4	0x3599b0cd	1.1450844e-06
5	0x37708a77	1.4337354e-05
6	0x3528bbca	6.2858146e-07
7	0x35cb8445	1.5163174e-06
8	0x35fcbe4b	1.8830846e-06
9	0x375c0a1f	1.3115378e-05
10	0x34467826	1.8483897e-07
11	0x356c470c	8.802024e-07
12	0x3447e652	1.8617109e-07
13	0x3566921a	8.589428e-07
14	0x352afd0b	6.369816e-07
15	0x351047ee	5.374885e-07
16	0x353a237a	6.9342025e-07
17	0x35bce365	1.4073272e-06
18	0x34a7f07a	3.1281144e-07
19	0x359b8727	1.1587734e-06
20	0x353f7eb5	7.133743e-07
21	0x35d391a6	1.5763114e-06
22	0x36004818	1.911545e-06
23	0x365866ec	3.2246417e-06
24	0x36a5cf39	4.941507e-06
25	0x37285f8e	1.0035828e-05
26	0x3598f7ca	1.1396999e-06
27	0x371515c9	8.886164e-06
28	0x35058a50	4.974763e-07
29	0x3699831f	4.57502e-06
30	0x364f4e06	3.089082e-06
31	0x36e07217	6.689002e-06
32	0x350a30ea	5.1480185e-07
33	0x35d323b4	1.5731116e-06
34	0x364ef328	3.0837928e-06
35	0x3720a70c	9.575637e-06
36	0x3563b0f7	8.482161e-07
37	0x3598030b	1.1325768e-06
38	0x349bdfe1	2.9033893e-07
39	0x3579ef6c	9.3108133e-07
40	0x355f974c	8.329414e-07
41	0x3689f469	4.1113713e-06
42	0x35f4d1e4	1.8240503e-06
43	0x36ce9828	6.1569917e-06
44	0x34a81a83	3.1311728e-07
45	0x35f92b19	1.8564489e-06
46	0x35fc270b	1.8786826e-06
47	0x368683fe	4.008877e-06
48	0x35902c21	1.0741679e-06
49	0x369fb80e	4.759996e-06
50	0x35221f35	6.0395115e-07
51	0x35ad6cff	1.2921226e-06
52	0x34cd1509	3.819953e-07
53	0x358e9ddf	1.0625771e-06
54	0x350ad6c4	5.172153e-07
55	0x34afd22b	3.2749207e-07
56	0x34b7a6e0	3.4207824e-07
57	0x348a6be9	2.5783018e-07
58	0x340e0bc7	1.3229065e-07
59	0x35fd78cc	1.8885125e-06

exp_avg f4 [30]
0	0x36955b15	4.4511494e-06
1	0xb627bae1	-2.4993717e-06
2	0xb6f21ee5	-7.2157586e-06
3	0x35f1bb9e	1.8010503e-06
4	0x365fd728	3.3354827e-06
5	0xb6cce119	-6.1058786e-06
6	0x36d2fe40	6.2880863e-06
7	0x3784dd67	1.5838725e-05
8	0x3736f331	1.0904668e-05
9	0xb6c16114	-5.7631496e-06
10	0x355bcfa5	8.188602e-07
11	0xb6ae82d4	-5.2008345e-06
12	0xb56c19fd	-8.795467e-07
13	0x3706fd5f	8.046015e-06
14	0x34c5bb62	3.6830448e-07
15	0xb5b434c7	-1.3426405e-06
16	0xb72a57d5	-1.015324e-05
17	0xb756e848	-1.2809476e-05
18	0x36cce560	6.1063765e-06
19	0x3693b79f	4.4023177e-06
20	0xb6e92e42	-6.9493262e-06
21	0x37764cdf	1.4680641e-05
22	0xb605b42e	-1.9923423e-06
23	0xb6c161d5	-5.7632374e-06
24	0x37348a34	1.0761014e-05
25	0xb71ff7cb	-9.534832e-06
26	0x36567c18	3.1960717e-06
27	0xb793a994	-1.7602732e-05
28	0x367bca95	3.7519833e-06
29	0xb6841ef9	-3.9375122e-06

exp_avg_sq f4 [30]
0	0x2daf7895	1.9948746e-11
1	0x2d012d31	7.3428355e-12
2	0x2e655a1c	5.2148605e-11
3	0x2c694034	3.3146931e-12
4	0x2d45c33b	1.1241503e-11
5	0x2e2abd29	3.8821533e-11
6	0x2e2e15fe	3.9582553e-11
7	0x2f8ac489	2.52417e-10
8	0x2f02da15	1.190091e-10
9	0x2e12e67a	3.340126e-11
10	0x2bb19a71	1.2619473e-12
11	0x2df27116	2.7562435e-11
12	0x2b65cc29	8.164047e-13
13	0x2e8e69a1	6.476176e-11
14	0x2ba76b6a	1.1895877e-12
15	0x2c15e200	2.1299629e-12
16	0x2ee58094	1.04365544e-10
17	0x2f34b874	1.6436436e-10
18	0x2e258b7e	3.764055e-11
19	0x2dab0993	1.9444701e-11
20	0x2e548e44	4.8329576e-11
21	0x2f6d121a	2.1561455e-10
22	0x2c9e14e8	4.492951e-12
23	0x2e13e592	3.362783e-11
24	0x2f00c883	1.1712768e-10
25	0x2eca641f	9.2036816e-11
26	0x2d38c0d3	1.0502005e-11
27	0x2faa5e8d	3.0990002e-10
28	0x2d7a032c	1.4211559e-11
29	0x2d8ac6f5	1.5777138e-11

max_exp_avg_sq f4 [30]
0	0x365e230c	3.3100978e-06
1	0x35327092	6.647398e-07
2	0x364ce15e	3.052955e-06
3	0x35b65b9f	1.3586722e-06
4	0x366ca140	3.52606e-06
5	0x351679dc	5.6056683e-07
6	0x3506b407	5.0180864e-07
7	0x34d9c6aa	4.0563947e-07
8	0x360fcad1	2.1426715e-06
9	0x34ba308c	3.4680522e-07
10	0x36158280	2.2278691e-06
11	0x36d94399	6.4749734e-06
12	0x374fa43c	1.23764e-05
13	0x3683d1a7	3.928511e-06
14	0x35ad6ab2	1.2920557e-06
15	0x37202098	9.544332e-06
16	0x35a60a6a	1.2370995e-06
17	0x3713ff55	8.821332e-06
18	0x34413d38	1.7996797e-07
19	0x357aae66	9.338604e-07
20	0x3629d85f	2.5308907e-06
21	0x36cc734a	6.093095e-06
22	0x34fcfdf3	4.712343e-07
23	0x36cad1d9	6.0444986e-06
24	0x36423c0c	2.8943205e-06
25	0x35064bba	5.0029087e-07
26	0x35701109	8.9431757e-07
27	0x34f5649f	4.5708018e-07
28	0x358e626c	1.0608469e-06
29	0x345f9b96	2.0825095e-07

exp_avg f4 [30, 30]
0	0xb6017bf9	-1.929466e-06
1	0x36539254	3.1526624e-06
2	0xb53eee57	-7.1127346e-07
3	0xb62520c3	-2.4605986e-06
4	0xb54b9148	-7.5834805e-07
5	0x361bd462	2.3220423e-06
6	0x3620e3a2	2.3974358e-06
7	0x3649030b	2.9953105e-06
8	0xb5cc1508	-1.5205305e-06
9	0x366a1205	3.4879206e-06
10	0xb6a15eb8	-4.8092006e-06
11	0xb58e292d	-1.0591808e-06
12	0x351d10f8	5.851175e-07
13	0xb5a4e464	-1.2285423e-06
14	0x369ef484	4.7372323e-06
15	0xb5bedccd	-1.4220365e-06
16	0x36706711	3.582278e-06
17	0x35b2ea1c	1.3330168e-06
18	0x36189c6d	2.2740817e-06
19	0xb690245d	-4.2957677e-06
20	0x35421ec1	7.2315385e-07
21	0x35bdfa1e	1.4154391e-06
22	0x36a3971e	4.875371e-06
23	0xb6c58927	-5.887024e-06
24	0x3615a02a	2.2295958e-06
25	0xb672941c	-3.614702e-06
26	0xb5c61918	-1.4759453e-06
27	0xb639fc12	-2.7713872e-06
28	0x35386752	6.869569e-07
29	0x35b1ed6f	1.325663e-06
30	0x361738b9	2.253377e-06
31	0x33f6c5cf	1.1491249e-07
32	0x35c43281	1.4617837e-06
33	0x362c9250	2.5715162e-06
34	0x35a8fea9	1.2591091e-06
35	0xb58c773e	-1.0465517e-06
36	0x35b206a6	1.3263968e-06
37	0x34dfe23a	4.1701588e-07
38	0x3593bba9	1.100697e-06
39	0xb6889c1b	-4.071289e-06
40	0x36da8d9c	6.513392e-06
41	0x369a0bdc	4.5909383e-06
42	0xb49a5609	-2.8747334e-07
43	0xb6b9c3d2	-5.536226e-06
44	0xb6a2e22d	-4.8543066e-06
45	0x360913e9	2.042618e-06
46	0xb6270324	-2.4886767e-06
47	0xb4735626	-2.2662479e-07
48	0x368bea6a	4.169812e-06
49	0x3690b963	4.3131163e-06
50	0xb58b8b1d	-1.0396794e-06
51	0xb6c1a1a0	-5.770664e-06
52	0xb68c816b	-4.1873914e-06
53	0x36eac105	6.996214e-06
54	0xb55dc70d	-8.261857e-07
55	0x35b1c353	1.3244374e-06
56	0x35c4f8c5	1.467554e-06
57	0xb6031326	-1.9531667e-06
58	0xb6974eb3	-4.5093125e-06
59	0xb4fc8e3d	-4.704215e-07
60	0x36353046	2.69992e-06
61	0xb61564b1	-2.226134e-06
62	0x33ed6825	1.1055116e-07
63	0x36186c02	2.2712634e-06
64	0x355e1124	8.272639e-07
65	0x369b911d	4.6362534e-06
66	0xb6a6e385	-4.9736723e-06
67	0x36e542ed	6.832523e-06
68	0x36acc9f0	5.149508e-06
69	0x35f62bd2	1.8341182e-06
70	0xb6be5404	-5.672222e-06
71	0x3514be2e	5.5411044e-07
72	0xb47a0f6f	-2.3288679e-07
73	0xb6531454	-3.1453283e-06
74	0x36bb567e	5.5831033e-06
75	0x3637aa03	2.7368085e-06
76	0x348509f5	2.4780425e-07
77	0xb725b54e	-9.87698e-06
78	0x36bda2af	5.651578e-06
79	0xb66fd73a	-3.5739054e-06
80	0xb6456cd7	-2.941864e-06
81	0x355257e2	7.835898e-07
82	0x36936210	4.3923574e-06
83	0xb6fa2d99	-7.455889e-06
84	0x36749164	3.6443462e-06
85	0x35891cf8	1.0215726e-06
86	0xb4a76fa7	-3.1187412e-07
87	0xb6988429	-4.5453385e-06
88	0xb5a3cfcc	-1.2204923e-06
89	0xb69c05ad	-4.649823e-06
90	0xb55a80cb	-8.1398747e-07
91	0x369811ed	4.53204e-06
92	0xb62ad3c7	-2.5455245e-06
93	0xb5c1505f	-1.4403012e-06
94	0x34ec4f1b	4.4015982e-07
95	0x356fa3db	8.927288e-07
96	0x36768f99	3.6740441e-06
97	0x35e72d19	1.7223966e-06
98	0xb4f32388	-4.528813e-07
99	0x3687940e	4.0405494e-06
100	0xb67cf0de	-3.769113e-06
101	0xb60d9eab	-2.1102994e-06
102	0x359d694c	1.1728057e-06
103	0x35b546d1	1.3506161e-06
104	0x369b88cc	4.635285e-06
105	0xb49c066c	-2.9061937e-07
106	0x3660c0f4	3.3490915e-06
107	0x352037e2	5.9685965e-07
108	0x35bc3a47	1.4024052e-06
109	0xb68533b4	-3.969728e-06
110	0xb584fd77	-9.908534e-07
111	0x36620e09	3.3684794e-06
112	0x369beadd	4.6467017e-06
113	0xb6afe439	-5.241975e-06
114	0x35bd5594	1.4106504e-06
115	0xb697c9c6	-4.52364e-06
116	0xb5f8aced	-1.8527768e-06
117	0xb6325b9c	-2.657739e-06
118	0x35be94f9	1.419946e-06
119	0x3448e9af	1.8711465e-07
120	0xb3ed553d	-1.1051677e-07
121	0xb5d8c370	-1.6150134e-06
122	0xb697d4a6	-4.524906e-06
123	0xb53ba7de	-6.990721e-07
124	0x353e1704	7.081401e-07
125	0xb6283984	-2.506743e-06
126	0xb66ca239	-3.5261166e-06
127	0xb639a815	-2.7664985e-06
128	0x36369df4	2.7212054e-06
129	0x36a21013	4.8298475e-06
130	0xb6803218	-3.820529e-06
131	0xb632dbf9	-2.6652108e-06
132	0x35af7338	1.3072049e-06
133	0x3604b575	1.9775155e-06
134	0x357b78e9	9.3680734e-07
135	0xb588c132	-1.0189017e-06
136	0xb4451b5d	-1.835701e-07
137	0xb6303de4	-2.6262069e-06
138	0x34fe0647	4.7315754e-07
139	0xb5e96049	-1.7387875e-06
140	0xb5eed931	-1.7795593e-06
141	0x36859c8c	3.9819333e-06
142	0x35f19819	1.8000165e-06
143	0xb69c2472	-4.653405e-06
144	0xb6035614	-1.9570625e-06
145	0x32cf2c90	2.4118236e-08
146	0xb61b00e7	-2.3097325e-06
147	0xb4867f8f	-2.5052256e-07
148	0x35f68564	1.836725e-06
149	0xb697e3a3	-4.526651e-06
150	0x36474748	2.9694802e-06
151	0x361ad464	2.3071416e-06
152	0x34e0ada1	4.1849583e-07
153	0x3657d5e6	3.2162002e-06
154	0x364e1de9	3.0713802e-06
155	0x357e4e97	9.4736737e-07
156	0x365a8e98	3.2567532e-06
157	0x36834a48	3.9127517e-06
158	0x35d745ed	1.6039099e-06
159	0x344d5d3b	1.912603e-07
160	0x3594dc6e	1.1091013e-06
161	0x3681ce31	3.8685034e-06
162	0x35d486ef	1.5834502e-06
163	0xb6cecd30	-6.1631654e-06
164	0x35e7f264	1.7281386e-06
165	0x369baca0	4.639456e-06
166	0x3522a2e2	6.058673e-07
167	0xb607affd	-2.0219006e-06
168	0x36f9ec3c	7.4482796e-06
169	0xb577cfaa	-9.231686e-07
170	0xb6664f7e	-3.4318941e-06
171	0xb65ec8e5	-3.3197514e-06
172	0x35a7a1a0	1.2489509e-06
173	0xb4ea7885	-4.3673586e-07
174	0x362793ef	2.4971048e-06
175	0x3467a35b	2.157298e-07
176	0x34d51370	3.9688484e-07
177	0xb6d2f09b	-6.286498e-06
178	0xb69b67ef	-4.6314594e-06
179	0xb4d04cff	-3.879904e-07
180	0x357a1e35	9.3176214e-07
181	0x369dd9b4	4.7043086e-06
182	0x35066f1e	5.0080587e-07
183	0x359a454d	1.1494063e-06
184	0x3537ae3d	6.842636e-07
185	0x364d40dd	3.0585136e-06
186	0x36cec07b	6.161686e-06
187	0x36c0b2b9	5.742852e-06
188	0xb4928871	-2.7293893e-07
189	0x366462ed	3.403223e-06
190	0x35b20492	1.3263364e-06
191	0x35107bdd	5.3824425e-07
192	0x35d0cb68	1.5556407e-06
193	0xb6a499ae	-4.9054715e-06
194	0x3612cc1c	2.1874503e-06
195	0x3611dbb2	2.1734563e-06
196	0x35aa65f4	1.2695659e-06
197	0x35713300	8.985371e-07
198	0x369d6d27	4.6916716e-06
199	0xb5e9d48d	-1.7421713e-06
200	0xb5a2f73c	-1.2141895e-06
201	0x34c40858	3.6513916e-07
202	0x3510b437	5.390643e-07
203	0x350f0f56	5.329397e-07
204	0x36a3daf6	4.883269e-06
205	0xb61f829f	-2.3768878e-06
206	0xb5df1f4e	-1.6623906e-06
207	0xb6e9ccd5	-6.9677867e-06
208	0xb5a40e8f	-1.2223189e-06
209	0x35b94ae6	1.3805372e-06
210	0xb6321f8c	-2.654243e-06
211	0x369469f3	4.423078e-06
212	0xb3649151	-5.321755e-08
213	0xb6587865	-3.2256587e-06
214	0xb60adad5	-2.069098e-06
215	0xb38e0eb3	-6.615064e-08
216	0x36ad5325	5.165481e-06
217	0x346e9658	2.2220172e-07
218	0xb660fe69	-3.3526687e-06
219	0xb607b67c	-2.0222787e-06
220	0x35abc86a	1.2798821e-06
221	0xb58c3636	-1.044659e-06
222	0xb5a1094c	-1.199814e-06
223	0x351f7da7	5.9414964e-07
224	0xb6613e1c	-3.3563765e-06
225	0xb676180c	-3.6670854e-06
226	0x35c9942d	1.5018792e-06
227	0x36c78648	5.9462946e-06
228	0xb60c2260	-2.0881635e-06
229	0x3603c3f7	1.9634588e-06
230	0x36373093	2.72974e-06
231	0xb4595bba	-2.024307e-07
232	0xb53aa3c9	-6.952874e-07
233	0x36845946	3.9442994e-06
234	0xb5e68e24	-1.7177704e-06
235	0xb6975bb2	-4.5108254e-06
236	0xb3d9ea96	-1.0147521e-07
237	0x3607b5be	2.0222355e-06
238	0x35dace7c	1.630236e-06
239	0x3660d822	3.3504407e-06
240	0x3644cac3	2.9324299e-06
241	0xb6177079	-2.256622e-06
242	0xb534b387	-6.731647e-07
243	0x36333887	2.6705982e-06
244	0x361bef93	2.323625e-06
245	0xb5adfbc8	-1.2962782e-06
246	0xb62ad0ae	-2.5453442e-06
247	0xb663e114	-3.3956649e-06
248	0x366a99b6	3.4958189e-06
249	0xb4ad18da	-3.2241843e-07
250	0x36792155	3.7123293e-06
251	0x367e423f	3.788751e-06
252	0x358cf67e	1.0502552e-06
253	0xb6243886	-2.4470805e-06
254	0xb6641229	-3.3985218e-06
255	0x365642f5	3.192746e-06

exp_avg_sq f4 [30, 30]
0	0x2c8320ac	3.7268712e-12
1	0x2d2f7352	9.9732046e-12
2	0x2b0e7766	5.0614233e-13
3	0x2cd55a23	6.0638313e-12
4	0x2b221c0f	5.75929e-13
5	0x2cbdc730	5.3938173e-12
6	0x2ccbbfec	5.7909146e-12
7	0x2d1de146	8.9744375e-12
8	0x2c23b199	2.326228e-12
9	0x2d567b11	1.2191818e-11
10	0x2dcb7558	2.313054e-11
11	0x2b9e36e5	1.1241812e-12
12	0x2ac20d73	3.4470655e-13
13	0x2bd5a720	1.5180947e-12
14	0x2dc5764e	2.2448845e-11
15	0x2c0f12b6	2.0331909e-12
16	0x2d61d9cc	1.283813e-11
17	0x2bff5e5c	1.814503e-12
18	0x2cb789f2	5.216488e-12
19	0x2da264db	1.8462057e-11
20	0x2b14042e	5.2585963e-13
21	0x2c0d2f6e	2.0063634e-12
22	0x2dd1144e	2.3769566e-11
23	0x2e188a8d	3.4683856e-11
24	0x2caf2fe1	4.9791148e-12
25	0x2d66609d	1.3095439e-11
26	0x2c196e81	2.180395e-12
27	0x2d080588	7.731933e-12
28	0x2b07aa3c	4.819788e-13
29	0x2bf9effe	1.7759125e-12
30	0x2cb2e530	5.084509e-12
31	0x2a3e6113	1.690907e-13
32	0x2c16b866	2.1418644e-12
33	0x2ce9343e	6.6280583e-12
34	0x2bdf538e	1.5868294e-12
35	0x2b9a6374	1.0969962e-12
36	0x2c07d961	1.9305323e-12
37	0x2a6c2297	2.0973011e-13
38	0x2bada862	1.2339125e-12
39	0x2d91d3f1	1.6578712e-11
40	0x2e3a9749	4.2425872e-11
41	0x2db96c29	2.1080098e-11
42	0x29ba6739	8.2779656e-14
43	0x2e06ec3e	3.0677898e-11
44	0x2dcf489d	2.3565422e-11
45	0x2c92f51e	4.176783e-12
46	0x2cdb333c	6.2300425e-12
47	0x29e4192e	1.0129602e-13
48	0x2d9910f0	1.7401608e-11
49	0x2da3a47e	1.8604004e-11
50	0x2b9872b5	1.0832087e-12
51	0x2e1275f2	3.3301313e-11
52	0x2d9a696d	1.7554591e-11
53	0x2e574c0a	4.8952876e-11
54	0x2b40403c	6.8301246e-13
55	0x2c04827a	1.8830757e-12
56	0x2c179868	2.1542993e-12
57	0x2c864523	3.8161848e-12
58	0x2db2e695	2.0338656e-11
59	0x2a908eed	2.5678713e-13
60	0x2d01adc8	7.371388e-12
61	0x2ccd7957	5.839922e-12
62	0x28f6de68	2.740794e-14
63	0x2cb9066b	5.2587288e-12
64	0x2b41a355	6.8794043e-13
65	0x2dbd629d	2.1530605e-11
66	0x2de4d2ac	2.6014156e-11
67	0x2e4dd6f7	4.680253e-11
68	0x2dec6aec	2.6877577e-11
69	0x2c6dbea0	3.3785544e-12
70	0x2e0d8f03	3.2186708e-11
71	0x2ab098e8	3.136998e-13
72	0x297ef9a9	5.6615875e-14
73	0x2d2e5aca	9.910914e-12
74	0x2e09ba6f	3.131578e-11
75	0x2d049d8b	7.538313e-12
76	0x2b05bb80	4.75113e-13
77	0x2ed7e7e6	9.8182615e-11
78	0x2e0cad65	3.198632e-11
79	0x2d6205d0	1.2847903e-11
80	0x2d18a6f6	8.6772724e-12
81	0x2b2ce548	6.1424867e-13
82	0x2dacb0db	1.9632676e-11
83	0x2e74abce	5.563177e-11
84	0x2d69d850	1.3292548e-11
85	0x2bccbbc9	1.4547193e-12
86	0x29fa0220	1.1102599e-13
87	0x2db5c64a	2.0665376e-11
88	0x2bd40fc5	1.5067883e-12
89	0x2dc232f6	2.2077878e-11
90	0x2b4c0fd1	7.249731e-13
91	0x2db64154	2.0720016e-11
92	0x2ce58de9	6.5243267e-12
93	0x2c1b6c9f	2.2087122e-12
94	0x2a686547	2.0640877e-13
95	0x2b60c45a	7.985328e-13
96	0x2d6fcbc8	1.3630826e-11
97	0x2c50cd9d	2.9672716e-12
98	0x2a83a39e	2.3383807e-13
99	0x2d9030da	1.6392599e-11
100	0x2d7e976c	1.4471851e-11
101	0x2ca2903a	4.6203293e-12
102	0x2bc1af1f	1.3762081e-12
103	0x2c083b66	1.9359735e-12
104	0x2dbda769	2.1561157e-11
105	0x2a8362f9	2.333895e-13
106	0x2d479b02	1.1346259e-11
107	0x2ad213df	3.7317282e-13
108	0x2c126296	2.0802574e-12
109	0x2d8b4c5a	1.5836377e-11
110	0x2b8b7cca	9.91118e-13
111	0x2d4a8ba3	1.1513376e-11
112	0x2dbfb47c	2.1794337e-11
113	0x2df32db2	2.7646194e-11
114	0x2c0c14be	1.990671e-12
115	0x2db658e1	2.0730475e-11
116	0x2c72e89e	3.4519397e-12
117	0x2cfa75bc	7.1184985e-12
118	0x2c1adc62	2.2007053e-12
119	0x29830411	5.818274e-14
120	0x28bf39fd	2.1230408e-14
121	0x2c3f8f42	2.7222257e-12
122	0x2db41971	2.0474929e-11
123	0x2b109047	5.13593e-13
124	0x2b0d4d3c	5.0200447e-13
125	0x2cde19ef	6.3124987e-12
126	0x2d5ced8f	1.2558301e-11
127	0x2d070d19	7.67677e-12
128	0x2d0287ae	7.419771e-12
129	0x2dcd480d	2.3337799e-11
130	0x2d80a313	1.4624335e-11
131	0x2cfa2573	7.109585e-12
132	0x2bf0e9dd	1.7117936e-12
133	0x2c89989c	3.9107172e-12
134	0x2b81b1b4	9.215324e-13
135	0x2b937f23	1.0480266e-12
136	0x29bb5193	8.318619e-14
137	0x2cf4da72	6.9591494e-12
138	0x2a7de6f2	2.2551039e-13
139	0x2c56f90c	3.0549478e-12
140	0x2c5ef0a3	3.1681678e-12
141	0x2d8b864b	1.5862109e-11
142	0x2c680ab6	3.2975129e-12
143	0x2dbec255	2.16868e-11
144	0x2c87bf50	3.8581707e-12
145	0x29d3d756	9.407637e-14
146	0x2cbbbfa0	5.3361343e-12
147	0x298e061a	6.307125e-14
148	0x2c6deacb	3.3810062e-12
149	0x2db47229	2.0514328e-11
150	0x2d1b33fb	8.822272e-12
151	0x2cbb4d8e	5.32347e-12
152	0x2a5820ec	1.9196076e-13
153	0x2d36048a	1.034651e-11
154	0x2d261531	9.440713e-12
155	0x2b7ca9c4	8.976398e-13
156	0x2d3aa6cc	1.0609912e-11
157	0x2d86aa4d	1.5309665e-11
158	0x2c35b7bf	2.5823647e-12
159	0x298d3040	6.270028e-14
160	0x2bae4d7d	1.2384951e-12
161	0x2d83cb78	1.4983334e-11
162	0x2c30d881	2.5131288e-12
163	0x2e276f51	3.8070273e-11
164	0x2c531aea	2.9999844e-12
165	0x2dbd72a6	2.1537726e-11
166	0x2acec7fa	3.6731713e-13
167	0x2c905fb3	4.103351e-12
168	0x2e742173	5.5508886e-11
169	0x2b71f235	8.595653e-13
170	0x2d4f8b4d	1.1797519e-11
171	0x2d42874b	1.1057664e-11
172	0x2bdbe60e	1.5624739e-12
173	0x2a69470e	2.0719209e-13
174	0x2cdb7cb6	6.2382e-12
175	0x2952ffc9	4.6851225e-14
176	0x2a3650de	1.6192904e-13
177	0x2e2dd4f3	3.9524783e-11
178	0x2dbcc8b0	2.1462249e-11
179	0x2a33db25	1.5974425e-13
180	0x2b748751	8.6874003e-13
181	0x2dc2d65f	2.2150446e-11
182	0x2a8e1213	2.5236809e-13
183	0x2bb9f69f	1.3213492e-12
184	0x2b046d46	4.704747e-13
185	0x2d249dfd	9.357401e-12
186	0x2e270781	3.797807e-11
187	0x2e114c5c	3.3037004e-11
188	0x29a910de	7.5080336e-14
189	0x2d4bc4e3	1.1582932e-11
190	0x2bf7ee35	1.7616521e-12
191	0x2aa4841e	2.9223927e-13
192	0x2c2a5226	2.4204055e-12
193	0x2dd3b934	2.407017e-11
194	0x2ca99cf1	4.820693e-12
195	0x2ca64910	4.7261153e-12
196	0x2be474d1	1.6232797e-12
197	0x2b63ba56	8.0905194e-13
198	0x2dc19f82	2.2012395e-11
199	0x2c56105f	3.0420317e-12
200	0x2bcfe86b	1.4772744e-12
201	0x2a266ed5	1.4782214e-13
202	0x2ab08215	3.1354143e-13
203	0x2aa4f50b	2.9302285e-13
204	0x2dd1dca5	2.3858535e-11
205	0x2cc769bc	5.667659e-12
206	0x2c427f87	2.763985e-12
207	0x2e558fbb	4.855825e-11
208	0x2bd2c711	1.497665e-12
209	0x2c063de7	1.9076908e-12
210	0x2cf90332	7.0773604e-12
211	0x2dac2382	1.9569905e-11
212	0x2880a4c4	1.428231e-14
213	0x2d37cd9e	1.0448002e-11
214	0x2c97a070	4.3094903e-12
215	0x27a83ea5	4.6697286e-15
216	0x2deac32a	2.668939e-11
217	0x29ad581c	7.698028e-14
218	0x2d466441	1.1277258e-11
219	0x2c91298d	4.125761e-12
220	0x2becf9c6	1.6838135e-12
221	0x2b9a682d	1.0971273e-12
222	0x2bcc04d9	1.4496417e-12
223	0x2ad73a65	3.8232191e-13
224	0x2d471072	1.1315492e-11
225	0x2d6e9147	1.3560992e-11
226	0x2c1ed0a7	2.2568976e-12
227	0x2e1bee3c	3.5454514e-11
228	0x2c9982c8	4.363041e-12
229	0x2c887c68	3.8791644e-12
230	0x2d041b72	7.509425e-12
231	0x29b3cc92	7.984684e-14
232	0x2b0e0e91	5.046875e-13
233	0x2d897e72	1.563125e-11
234	0x2c508750	2.9633691e-12
235	0x2db321ae	2.03649e-11
236	0x2859544d	1.20642e-14
237	0x2c906e63	4.1049815e-12
238	0x2c3b232f	2.659383e-12
239	0x2d45dfdc	1.124786e-11
240	0x2d177806	8.610007e-12
241	0x2cb34449	5.095067e-12
242	0x2b0e11d5	5.047328e-13
243	0x2cfb2028	7.137419e-12
244	0x2cbe0e0d	5.4016847e-12
245	0x2c028cde	1.8552308e-12
246	0x2ce4002a	6.480168e-12
247	0x2d4c67b7	1.1619087e-11
248	0x2d573e1b	1.2235125e-11
249	0x2aba977c	3.314535e-13
250	0x2d76878d	1.4013579e-11
251	0x2d7c8948	1.4355024e-11
252	0x2b9dd103	1.1213533e-12
253	0x2cd55d8c	6.06421e-12
254	0x2d5362b7	1.20158805e-11
255	0x2d33a098	1.0210631e-11
