paper/Burgers/runs/shifted_grid_11model.pt (torch, 15625 bytes, 9 tensors)

func_approx.network.0.weight f4 [30, 2]
00000000: 73de 18bf 5384 2c3f 92c5 8fbf 148e 093f
00000010: 0a62 0b3f c22f 45bf 4337 f53f 5370 1cbf
00000020: dd12 78be 54bf 053f 9b40 81bd c54a 663f
00000030: 50c1 cfbe 5981 bdbd 1637 95bf 11bf e2be
00000040: 73e4 813f f0d6 433f 1a75 003d 1ff4 ea3d
00000050: 96fc 29bf e2fb 3f3f 63b4 e5be 4556 f8be
00000060: 8827 2cbf 2ab2 3b3f fdd1 e53e 2dd2 283f
00000070: 955f 9d3e b0bd 2ebf cc50 4e3e 64a4 873e
00000080: eb02 a43e 7468 33be b4c6 6dbe 17ed 4f3f
00000090: c14f 103f 08c7 c7be d20c d93d 58c2 88be
000000a0: c176 29bd 710d 023f 6781 a4bf aa93 433f
000000b0: 0698 a33f 3986 cb3c fe1a 02bf f014 763e
000000c0: 545f f8be e3ba 083f 7ef8 d5be 558a 3e3e
000000d0: e0fd 92bf 6ca0 d23e b981 0440 01c8 5c3f
000000e0: 5f40 3c3c c516 fb3e d1b4 fb3e fea4 3d3f
-0.5971443 0.6738941 -1.1232169 0.5373242 0.5444647 -0.77026 1.915749 -0.61108893
-0.24225946 0.5224507 -0.06311151 0.8995784 -0.40577173 -0.09253187 -1.1657436 -0.44286397
1.0147842 0.76499844 0.031361677 0.11472344 -0.6640104 0.7499372 -0.44864187 -0.48503318
-0.6724782 0.7331873 0.4488677 0.659457 0.30736986 -0.6825819 0.20148009 0.26492608
0.32033476 -0.17520314 -0.2322033 0.81221145 0.56371695 -0.39019036 0.105981484 -0.26710773
-0.04137302 0.5080176 -1.285199 0.7639719 1.2780769 0.024844276 -0.50822437 0.24031425
-0.4851023 0.53410167 -0.41791147 0.18607457 -1.1483727 0.41138017 2.0704176 0.8624268
0.011489957 0.4904081 0.4916139 0.74079883

func_approx.network.0.bias f4 [30]
00000000: cdf4 b93e d81c c6be 876a b53d 06e0 383d
00000010: 0b4c 80be 8812 053f 478c b0bd 6c1d 71ba
00000020: d7ed b13e 8d76 ea3e cf6d a53e 3fab 41be
00000030: f7e6 0cbf 5a50 febe 39e4 853e a01e 07be
00000040: 8964 b8be 4ecf b33e 5491 e13e fd8f b93e
00000050: f196 aebd 2485 473b 8aa0 aebd c0c8 6b3e
00000060: 6bad fcbe 7205 f03e 45c0 48be b2f8 1f3c
00000070: eb6f 10bf 0cbb 29bd
0.3631958 -0.3869388 0.08858209 0.04513552 -0.25058016 0.519814 -0.08620506 -0.00091978046
0.3475177 0.45793572 0.3231034 -0.18912981 -0.55039924 -0.49670678 0.26150683 -0.13195276
-0.36014202 0.35119098 0.4405619 0.36242667 -0.085248835 0.0030444348 -0.08526714 0.23025799
-0.49351057 0.46879154 -0.19604595 0.009763883 -0.56420773 -0.041438147

func_approx.network.2.weight f4 [30, 30]
00000000: 8330 15be ce83 47bd 8874 923e c6a6 3c3e
00000010: 5929 91be 0862 10be 841e 483e c212 c93e
00000020: f548 6dbe 8414 9239 c05a 0cbe d50e a13d
00000030: 8dad ec3c b8c7 85be c19c 9e3e e7b6 7e3d
00000040: 98ee 873d 1a97 97bd c21d 3a3e 4db3 633d
00000050: 66d0 a7bd fec7 64bd 24b4 18bd a3e5 8cbd
00000060: e70d 1cbe de1d 213d 350c 97bd 8741 90be
00000070: 910f 0ebe 5aec dcbd 2a69 043e a46b 083f
00000080: 0ed0 98be c407 28bf b427 8f3e ebb0 88bd
00000090: 1c82 073e 0dc3 843e b2d9 f4bd b0ee 35be
000000a0: 24a4 9a3d 3d9e 9f3c bd69 323e f444 a2bd
000000b0: 87a1 90be 32ff 833b 776a 4cbd e23c acbc
000000c0: 91b3 c5be aae6 12be a8cb 3b3e bc7c 993e
000000d0: 00f8 12bf a47b d33e abec 873e 2c76 213e
000000e0: 3592 2e3f 63cb 48be 3170 c63d 8103 253e
000000f0: 06ba edbd ab65 ad3d fb4f 16be 0a96 47be
00000100: 7e22 6a3e 1449 dd3d f05f c8bd 8f99 bc3d
00000110: c090 943d 6d1f 063d ae1a 693d 7609 2d3e
00000120: d584 8c3e bb3e ccbd 46cb 50be 535b 453e
00000130: 878c b1bd e525 943b 8507 30be 8734 77bd
00000140: ffe3 313e 4608 cd3d fa02 053e 5cbc 1bbd
00000150: 7d2f 563e f39d 2a3c 971c 253c 63f3 85bd
00000160: 416d a63e 1ff9 49bd bab5 873d 7a6a 64bd
00000170: 88d7 bf3d 265f 313e 6790 4dbd 6cbf af3d
00000180: 21b2 2ebe b03a 16bf f6c0 e83e b0fc 7fbd
00000190: 004e f4bd d3f7 4abe 1253 b4bd b8cb 4c3e
000001a0: 328c 123a f678 e9bc 4fe0 e63d ac1c 163e
000001b0: a737 823e 43f5 a4bc a13f 62bd 6208 92be
000001c0: b487 d93e c0c6 88bd 1911 55be fc0a 81bc
000001d0: d01b 82be 8460 533f 3db5 d3bd 5e4a d73e
000001e0: 76a3 6bbe 3007 f3bd 684f 043d 6644 b53e
000001f0: 35f1 61be f8f0 a63c 472a 76bd ee46 6c3e
00000200: c718 21bd cf3c 43be d23e 86bd 7462 e53d
00000210: 6855 81be 6c9a a13b 8a83 a43e a21d 893b
00000220: 30bb dd3d 5b47 f8bd 4b53 6d3d f6e2 8bbd
00000230: 9c64 203d 1adf 9d3c 56ec 833e 2b05 52be
00000240: a82f 64be 2e9a 50be fa95 ce3d 4441 a1be
00000250: ea78 61be 52ca edbd c8d3 373b d58b 3ebe
00000260: 088d afbd 2e4b 4f3d ed5d 07be 083f b33d
00000270: d71b a73d 5586 9ebd 2637 6ebe 3583 d13d
00000280: d520 88bd 14b9 173c 8826 0cbd d28a 02be
00000290: 33fa 413e 0523 2dbd 10c3 ef3b 1aaa 4bbe
000002a0: 00d1 cf3d e547 debd 9a38 ebbd 4c2c 48bc
000002b0: 27b3 aabd 0d99 edbb a267 3cbe e29d 9cbc
000002c0: d782 b63c dbdb 55bd 08a4 6fbe 81ab f2bd
000002d0: 6099 0f3e 6757 1cbe f1d2 33bd 080d 7f3a
000002e0: 5890 6b3e 7b77 533b cc19 51bd 655a 4abe
000002f0: 3a11 253d a36f b53d 2657 11be 599e 093d
00000300: a175 4a3e dc99 363e 6267 113d 4e8c 6b3d
00000310: bf50 3ebd d79e 733d b3ae 00be 90a0 97bd
00000320: b31b 243d c7e0 1abc 2ed1 2dbe b5d1 37bd
00000330: d4d5 a23c 165e 3b3d 3f05 46be b494 513e
00000340: 6c6a 323e 8273 923e 1109 983e 712e d4bb
00000350: 8ddc 61be 74da a6be d053 1d3e ac2a 183e
00000360: f2ec 863d c92d 4a3e 4e4f d13d c309 e1bd
00000370: 4d6c 963e 05a3 f73d 24e5 123e 3624 13be
00000380: 5656 75be ca67 b63d 5b21 063d 6eab 983e
00000390: c903 83bb 18f0 a5bc 7c85 cf3d 0c4d ac3e
000003a0: d82b 2bbe 04bd 2a3e 16f1 0e3d 939b d33c
000003b0: 0567 803e 64da 393d 228e 3f3d 0f63 e93c
000003c0: d5aa 98bd 81af 7b3e 0b78 673d 4f9f 81be
000003d0: a671 13be 733d 9fbe 76b7 a03e 59ac 573e
000003e0: 5326 69bd 00ff b33d 5a47 a0bc fc28 8d3c
000003f0: 8e3a b9bd e8d0 b83c 3f60 c83d 5b70 3abe
-0.14569287 -0.048709683 0.2860453 0.18422994 -0.28351858 -0.14099896 0.19542891 0.39272124
-0.23172362 0.00027862575 -0.13706493 0.07864157 0.02889135 -0.26128936 0.3097897 0.062186148
0.06637305 -0.07401867 0.18175414 0.055590916 -0.08194046 -0.05585479 -0.03728117 -0.06879737
-0.15239678 0.039335124 -0.07375375 -0.28174993 -0.13873126 -0.10787268 0.12930742 0.53289247
-0.29846233 -0.6563685 0.2795998 -0.066743694 0.13233227 0.25930062 -0.119555846 -0.17766833
0.075508386 0.019484634 0.17423148 -0.07923308 -0.28248236 0.0040282244 -0.04990622 -0.021025125
-0.3861356 -0.14345804 0.18339407 0.29977977 -0.5740967 0.41305268 0.2654775 0.15767735
0.68191844 -0.19608836 0.096893676 0.16114618 -0.11607747 0.08466657 -0.14678948 -0.19490829
0.2286472 0.10804954 -0.097839236 0.092089765 0.07254171 0.032744814 0.05691021 0.1689814
0.27445093 -0.099729024 -0.20390043 0.19273119 -0.086693816 0.004521119 -0.17190368 -0.06035283
0.1737213 0.10011344 0.12989417 -0.03802143 0.20916553 0.010413635 0.010077617 -0.06540563
0.3250523 -0.049309846 0.066264585 -0.055765606 0.09367281 0.17321452 -0.05018654 0.08581433
-0.17060138 -0.586833 0.45459718 -0.06249684 -0.1192894 -0.198211 -0.08804907 0.19999588
0.0005590349 -0.028500061 0.11273252 0.14659375 0.25433084 -0.020136481 -0.055236463 -0.2852202
0.42486346 -0.066785336 -0.20807303 -0.015752308 -0.25411844 0.82569146 -0.10337303 0.42048925
-0.23011574 -0.11866605 0.03230229 0.35403746 -0.2206467 0.020378575 -0.060098913 0.23073933
-0.03933027 -0.19066165 -0.06554951 0.11200419 -0.25260472 0.0049317386 0.32131606 0.0041844407
0.10826719 -0.12122985 0.057940762 -0.06830399 0.03915845 0.019271422 0.25766248 -0.20509784
-0.22283804 -0.20371315 0.100871995 -0.31495106 -0.22018781 -0.11610855 0.0028049815 -0.18608029
-0.085718215 0.050608806 -0.13219424 0.08752257 0.08159607 -0.077404656 -0.23263225 0.10230104
-0.06646887 0.009260435 -0.034216434 -0.12748268 0.189431 -0.042269725 0.0073169544 -0.19889107
0.101472855 -0.108535565 -0.11485405 -0.012217592 -0.08334952 -0.007250911 -0.18398908 -0.019118253
0.022279186 -0.052211624 -0.23402417 -0.11849118 0.14023352 -0.15267716 -0.04390234 0.000972942
0.23004282 0.003226726 -0.051049992 -0.19761045 0.04029963 0.08859184 -0.141934 0.033598278
0.19771434 0.1783213 0.035498984 0.05750685 -0.046463724 0.059477653 -0.12566642 -0.07403672
0.04006548 -0.009453005 -0.16974327 -0.044877727 0.019877352 0.045744024 -0.19337939 0.20466882
0.17423409 0.2860375 0.29694417 -0.006475263 -0.2205679 -0.32588542 0.15364003 0.14860028
0.065881625 0.19744028 0.10220204 -0.1098819 0.29379502 0.120916404 0.14345223 -0.14369282
-0.23958716 0.08906515 0.032746654 0.2981829 -0.003998254 -0.020256087 0.10132882 0.33652532
-0.16715944 0.16673666 0.034897886 0.02583102 0.25078598 0.04537429 0.046766408 0.028489618
-0.074544586 0.24578668 0.056510966 -0.25316855 -0.14398822 -0.3110157 0.3138997 0.21061839
-0.056921314 0.08788872 -0.019565273 0.017231457 -0.090443715 0.022560552 0.097839825 -0.18206923

func_approx.network.2.bias f4 [30]
00000000: 4fd5 9dbd 38a6 703c 34b5 ec3d 30c8 9f3d
00000010: cca5 b93b aa1f 1f3e 3fd0 cebd ef72 a0bd
00000020: 5246 44bc 18d4 35bd c102 c2ba bf5a 943d
00000030: cbba 97bd 1f57 403d 4216 013e e091 e5bd
00000040: a311 a0bd 5f22 06be b35d a53d f0cc 35be
00000050: 82b1 d5bd 770d c83d 705d e9bd fc1f 173e
00000060: d8b4 95bd aacc 313d fd6a 2e3c 2b74 aebc
00000070: 6008 c63d 3cf9 0b3e
-0.07706701 0.014688067 0.11557999 0.078018546 0.0056655165 0.15539423 -0.100983135 -0.07834422
-0.011979656 -0.04439172 -0.0014801846 0.07243871 -0.07408675 0.046958085 0.12606147 -0.11209464
-0.07815864 -0.13099049 0.08074512 -0.17753959 -0.104342476 0.09768193 -0.11394775 0.14758295
-0.07309884 0.043408073 0.010645625 -0.021295628 0.09669566 0.13669294

func_approx.network.4.weight f4 [30, 30]
00000000: 2d9a f2bd c92b ac3d 1a7a ad3d 4c08 333e
00000010: 59a3 07be 1014 8e3d c999 f13d dbc2 1bbe
00000020: 05a1 97be ed2a 26be 0bd8 263d ac17 27be
00000030: 858b a8bd 7451 2b3e 5e08 c0bd 9a8c dcbd
00000040: f252 20bb 8b3d 0dbe d06e 83bd a271 f83d
00000050: a4cd 833d a981 4bbe 2c9e c33d 8038 b43d
00000060: b031 b8bd ce22 ee3d ed5a 6e3d a762 39be
00000070: 5364 3e3e 5cf3 0fbe 0aff 243e 7b3e 41bc
00000080: e9f4 323d 5840 80be a907 773e 752a b43b
00000090: 225b f3bd 352d 01bd 0318 363e 8a82 7abb
000000a0: 443e 92bd 788f a7bd bdec 27be f582 7d3e
000000b0: a252 5dbe 07ac 183e dec7 94bd 203d 853d
000000c0: b4ef 39be ec91 d1bc 65c4 803e 1c45 1fbe
000000d0: faf9 963d abe7 26be 6ce6 273d 8aa7 24be
000000e0: 8603 05be 6b5e ebbd ca73 08be 2c9b b93d
000000f0: be0b edbd 7aaa 813d 34d1 113e ff41 013e
00000100: e6ed 1e3e 2ffa 193e 3397 bbbd d9e4 803d
00000110: be1c 063e f99d 153e 4339 b73c be0b 3e3e
00000120: 85b6 2ebe 5845 313e dd22 813d e461 33be
00000130: 1664 5abe b733 0f3e 49d5 4d3e 4183 433c
00000140: 013f 6abd 0c47 ce3d f678 3c3c 9b79 25bd
00000150: 152d 563e a383 013e 7534 253d 1888 583d
00000160: 8397 72be 3458 15bd 314e 8d3c 1a52 c93d
00000170: a610 61bd 997e 5b3d 6b91 ab3d 48c9 3abe
00000180: b0bd e33d c355 bcbd 2ea8 d4bd 6d6a 55bd
00000190: 9f1f 0abe b8b8 89bd 3696 ffbd 580f 3c3e
000001a0: 3836 24bd 7837 f53c ee0e 5d3e bb21 023c
000001b0: 5d6a 90bd 8093 6cbe a03e 263d 27bd 34bd
000001c0: cbc8 203d 19b8 c33d ac74 f6bd 41a7 1a3c
000001d0: 4219 393d 7f4a 0dbc 28e9 b0bd 7e1c f53c
000001e0: 8a3d e6bd cc40 32bd e2d7 74bd cd6c d23d
000001f0: 2f1d 9ebd 2813 d9bd b09b 8dbc 8392 2ebe
00000200: 89ea 183e 55b0 dabd ccfa c13c be8a 953d
00000210: ee2b bc3d 2b38 52bd b538 e83d 5e4c 2abd
00000220: aedb ffbd bbbb 2f3b fad7 20be af99 febd
00000230: 6ce5 063d 7068 313e bd57 a1bd 49d8 b9bc
00000240: 7330 41be 2757 913d fcc9 693d 6730 023c
00000250: b6d4 363e 1985 3dbe cccd ba3b bdb3 1fbe
00000260: c791 3f3e 4f88 143e 046e 5c3e f4a7 2b3e
00000270: 3667 023e 0de3 44be 7a58 0abe fe16 4fbb
00000280: 602f 7ebe f19b 033e 4367 143e f233 0f3e
00000290: 03c7 4ebe 45f3 103e a1fc 2bbd 0c3d d5bd
000002a0: 1558 bb3d 925f 77bd efa4 5abb ecfe 2e3d
000002b0: d01c bdbe 54dc 383e baa2 403e c5f5 943c
000002c0: 018a 3b3e 320b 44be 88c7 213e 4ba7 57be
000002d0: aa9c 67be fe7e b6bd b8d5 303e f6d8 d13e
000002e0: d21f 43bd ba75 38bd 81e1 1b3e 82ee ddbc
000002f0: 7f93 59be e07a 293e 94c8 593e 95c2 81be
00000300: 690a 873e ebd1 11be ba6a 343e dd2c 87be
00000310: 4329 43bc 8dab 3ebe 0b0d acbd 0bf0 0bbe
00000320: 7e9f 06be 180d f6bd eaa7 07bf e865 1f3e
00000330: 7d7d 883d f113 3abe ed21 f5bc d1f8 71bd
00000340: 43d0 7c3e a9f8 5fbd cb21 9abd 52a7 173e
00000350: 25a4 c2bd 8e2d b03c 085a 453d ff8a e4bd
00000360: 30fd 933d 8175 633e 5ffe 67be eb10 1b3c
00000370: 0d73 6f3e 8861 83bd 168a 593c 3dda 8bbd
00000380: d642 cd3d fbaf c5bd caa7 70bb 496d 593d
00000390: e221 38bd 2aa6 0bbe a61e 12bd 23c0 8cbd
000003a0: 6265 0e3d b6ee e23d 36c2 5d3d 3356 6bbd
000003b0: 5a55 1dbe 2bcd bebd cac5 9fbd 2f60 f9bc
000003c0: 8a42 e7bd ebc3 0e3e c9cf 243e da9f b53d
000003d0: 44b7 523c 1e29 423c d5be cb3d 7492 493e
000003e0: badd 75bd b42a 2fbd 3a12 193e e702 19be
000003f0: c089 3a3d 5db8 1cbe de1b e1bd b619 49bc
-0.11845813 0.08406789 0.08470555 0.17483634 -0.13245906 0.0693742 0.1179691 -0.1521105
-0.29615036 -0.16227312 0.04073338 -0.16317624 -0.08229736 0.1673029 -0.09376596 -0.10769005
-0.0024463502 -0.13793008 -0.0641762 0.12131049 0.06435707 -0.1987368 0.09551653 0.08799839
-0.08993852 0.11627732 0.058192182 -0.18104039 0.18592958 -0.14057678 0.16112915 -0.011794682
0.043690596 -0.2504909 0.24124016 0.0054982253 -0.118826166 -0.031537253 0.17782597 -0.003822478
-0.071407825 -0.08181661 -0.16398902 0.24756987 -0.21613553 0.14909373 -0.07264684 0.06505799
-0.18157846 -0.025582276 0.25149837 -0.15553707 0.07371898 -0.16299312 0.04099123 -0.16079536
-0.12989625 -0.11492618 -0.1332542 0.090628 -0.11574505 0.06331344 0.14239961 0.12622832
0.15520439 0.15036844 -0.09159698 0.06293649 0.13096902 0.14611043 0.022366172 0.18559167
-0.17061813 0.17311609 0.06305478 -0.17517811 -0.21327242 0.13984571 0.20100893 0.011933149
-0.05718899 0.10072145 0.011503449 -0.040399175 0.20915635 0.12647872 0.04033323 0.052864164
-0.2369061 -0.03646107 0.017249199 0.09830113 -0.054947518 0.05358753 0.08377346 -0.18240845
0.111201644 -0.09196045 -0.1038364 -0.05210345 -0.13488625 -0.067246854 -0.12479822 0.18365228
-0.04009077 0.029933676 0.21587726 0.007942612 -0.07051537 -0.23103142 0.040587068 -0.044125702
0.03925399 0.09556598 -0.12033972 0.0094392905 0.045190103 -0.008623718 -0.08638221 0.029920813
-0.112422064 -0.043518826 -0.059776194 0.10274658 -0.0772041 -0.10599357 -0.017286152 -0.17048077
0.14933218 -0.10678164 0.02367916 0.073018536 0.091880664 -0.051323097 0.11338941 -0.041576736
-0.124930725 0.0026814777 -0.15707389 -0.124316566 0.032933637 0.17324996 -0.07878063 -0.02268614
-0.18866138 0.07096701 0.057077393 0.00794611 0.1785458 -0.18507804 0.0057008024 -0.15595908
0.18707953 0.14505123 0.21526343 0.16763288 0.12734684 -0.19227238 -0.13510314 -0.0031599398
-0.2482276 0.12852456 0.14492516 0.1398466 -0.20193104 0.141553 -0.041988973 -0.104120344
0.0914766 -0.060393877 -0.0033362468 0.04272358 -0.36936045 0.18052799 0.18812075 0.018183598
0.18314363 -0.19144896 0.15798771 -0.21059911 -0.22618356 -0.089109406 0.17269027 0.4098584
-0.047637768 -0.045034148 0.15222742 -0.027091268 -0.21247672 0.1655078 0.2126792 -0.25343767
0.2637513 -0.14240234 0.17618838 -0.26401415 -0.011911693 -0.18620129 -0.08400925 -0.13665788
-0.13146779 -0.12014216 -0.5299059 0.15566218 0.0666456 -0.1817167 -0.029923404 -0.05907518
0.2468882 -0.0546805 -0.07525977 0.14809921 -0.09503964 0.021506097 0.048181564 -0.11159324
0.07226026 0.22212793 -0.22655629 0.009464483 0.23383732 -0.06415087 0.013277551 -0.06828735
0.100225136 -0.09652706 -0.0036721104 0.053082738 -0.04495419 -0.13637605 -0.03567376 -0.06872585
0.034764655 0.11080687 0.054140292 -0.057455253 -0.1536459 -0.093164764 -0.07801397 -0.030441372
-0.11291988 0.13941924 0.16094889 0.0886838 0.012861077 0.011850623 0.09948508 0.19684774
-0.060025908 -0.042765334 0.14948359 -0.14942513 0.045541525 -0.15304704 -0.10991643 -0.012274196

func_approx.network.4.bias f4 [30]
00000000: ba27 843d c01a 27bd 4f95 11be a729 133c
00000010: b80e 303e 2ec1 08be 8834 c8bd e819 d03d
00000020: 329b 393e 332c 1fbe d2ed 11be ef92 60bd
00000030: 6ded 273e 4392 dcbd 9647 6f3c 873c 1b3e
00000040: ff00 8abd 5832 5ebd 3598 d6bd 7924 733d
00000050: 9af4 383e 78aa 4a3d 6c44 e93d 8db7 55bc
00000060: 9dfe 70bc 544b a0bc 341d cd3d 283a 96bc
00000070: 86e3 0abe 4974 6bbd
0.0645289 -0.040796995 -0.14217113 0.008982099 0.17193115 -0.13354942 -0.097756445 0.10161191
0.18125609 -0.15544204 -0.14250877 -0.054827627 0.16399164 -0.10770085 0.01460447 0.15159808
-0.06738471 -0.05424723 -0.1047825 0.059360955 0.18062058 0.049478978 0.113900036 -0.01304425
-0.014709142 -0.01956717 0.10015336 -0.018338278 -0.13563356 -0.057483945

func_approx.network.6.weight f4 [30, 30]
00000000: b501 253e a257 6c3e a385 b53d ab95 7cbe
00000010: a123 3cbe 8f64 e5bd 2dc4 b83c 0d2a 593e
00000020: 6806 7f3e 6690 a93d 31bb 1b3e c62e 193e
00000030: 5468 b73e 35b1 1f3e 29fd 6fbe 6f50 613e
00000040: ca1e 78be fdd9 21bd 7dfc 423d 3ce7 103e
00000050: c698 a3bd 1d9d c3bd e2f0 02be 99a9 a63b
00000060: dd3d 1c3e bf1a 633d 6699 eb3d c705 51be
00000070: fce7 523e 18fb 16be 9590 6abe 2fd6 41be
00000080: b854 2b3d a355 83bd ada6 183e 87f1 9f3b
00000090: 9fce 09be aaac 01be bbfd 2dbe 1eb0 813d
000000a0: 46fe 7dbd 2c23 113d d0d5 a8be 38bd 25be
000000b0: 90e9 0b3d 9359 7dbe b18a 263e 23ae a8bd
000000c0: c8aa 7abc e558 2cbe 9bc3 62be 6480 92bd
000000d0: 00ff f4bd 3cdc e6bc 70f4 33be a841 68be
000000e0: e2b7 a5be a2a6 483e dbf2 033d e0af 053d
000000f0: b362 73be f226 523e 0403 8f3d 9a6a 053e
00000100: 0115 c3bd 75cd fb3d ec27 83be e166 0c3d
00000110: aa87 193e dfd7 303e b394 84be 1f56 f9bd
00000120: ee74 bb3d 040c eb3d 3633 0dbe 93b0 9d3d
00000130: 4228 033b 2444 b7bc 4109 263a fb64 08be
00000140: 0f48 49be a902 3a3e c98c 6a3e 60a3 3abb
00000150: ad47 233e 6522 1a3e 16be e7bd 41c1 8fbd
00000160: 1ae3 1cbe c960 233e 8982 a33c 0159 b2bd
00000170: e00e fe3d c580 92bd 50fb bfbd 302b 12be
00000180: 9f08 1abd 7563 343e 6c35 a8bd eb1b d6bd
00000190: 474f 153e 5148 c1bd e701 81be fdb1 073e
000001a0: e604 c8bc b850 29be 3f67 58bd f68b 9abc
000001b0: a30c 943d 6a99 913d a22a dabd e4fb 003e
000001c0: 7786 62be fd2f b03d 0a7f 1abc 4604 d2bd
000001d0: 5d94 003e 3dae 0bbe e159 5b3d bd70 d83c
000001e0: c590 153e df1a fdbd 7d6d 183d e0e0 1d3e
000001f0: 9a98 30be b326 203c a441 18be 750e 543d
00000200: 92f3 27be 4d13 d33d 4899 d1bd 76be b03d
00000210: 659a 9d3d 58e1 5dbd fa7b b9bd 1e89 92bd
00000220: 9f67 96bd d762 09bd 1b8b 36be 8e2d 323e
00000230: 5e4d 25be 808d 67bd df03 563a 693d 23be
00000240: 34ec 9fbd b3dc 7bbd bc03 bebd cf3e 1fbd
00000250: 827e 063e b8ee b93d da91 533e 3573 043d
00000260: 0411 793d 8eb2 ac3d c656 2bbe e8bb afbe
00000270: 03f9 683c f5f9 c13d b899 12be 140d 333e
00000280: ab6a 0cbe 3055 08be 8863 253e 343e 92bc
00000290: c189 19be 769d 4c3e 9e51 72bd a2f1 233e
000002a0: 1e18 973d 0682 4abe f0e1 acbe 3db5 13be
000002b0: 3ad7 3a3e e960 15be 6ef8 abbe 2b29 f13d
000002c0: 664b 35bd 8794 29be 8ec7 7c3e 1e0f 533d
000002d0: d9de a03d 9e59 a43b ef21 22be 0b3e 743e
000002e0: 7809 87bd b571 b63e 0bbc af3d 2b37 1c3d
000002f0: 3810 afbd 0408 b9be cf9e 8b3e 39f9 133e
00000300: 83e7 7cbe dfc1 c83d 7789 0b3f 45b6 ccbd
00000310: 81c5 063e 1825 a13e 61f7 fd3d 91ed ec3d
00000320: 7407 2c3f d778 843c 8099 1ebe ae55 743d
00000330: 9ec4 153e e50b 6cbd 1324 af3c 22b2 2d3e
00000340: 9bb1 4cbe e56c aabe 71ba 8a3d 1595 ed3d
00000350: 41b3 b43d 1752 0abe fe2e f1bd 7351 a33b
00000360: d173 d5bd ed73 be3d 89d4 bcbd e060 713e
00000370: 5b2f 05be a490 573b d9f5 89bd 9ab0 263d
00000380: 68dd 95be b0e0 bdbd 7fe8 a2bd 4e4d 1c3d
00000390: d88e 2fbb 425b 3d3c 9f18 0bbe a37f 3f3e
000003a0: b924 733e e85e 863d 664f df3d 46a7 0c3c
000003b0: 4071 9abd 7c10 203c 048f bc3d 6f1b d83d
000003c0: e6ae 5fbe c28b 233e df0c 2abc 2e43 82bd
000003d0: c589 873d cd92 d73a 7130 3ebe 95fc 06be
000003e0: cec5 2e3e 5d37 6d3e f425 5cbe a9ad b9bd
000003f0: 5598 bd3d fd23 e23d 2a14 9dbe a3ee b53d
0.16113932 0.23080304 0.0886338 -0.24666469 -0.18372966 -0.11200821 0.022554481 0.21207447
0.24904788 0.08279495 0.15208127 0.14959249 0.35821784 0.15594943 -0.23436417 0.22003339
-0.24230495 -0.03951453 0.047604073 0.14150709 -0.079881236 -0.09551451 -0.12787202 0.0050861356
0.15257974 0.05544543 0.11503868 -0.2041236 0.20596308 -0.14744222 -0.22906716 -0.18929361
0.04182884 -0.06412818 0.14907332 0.004881087 -0.13457726 -0.12663522 -0.16991322 0.0633242
-0.062010072 0.035433933 -0.32975626 -0.16185462 0.03415829 -0.24741201 0.16263844 -0.08236339
-0.0152995065 -0.16830786 -0.2214493 -0.07153395 -0.119627 -0.028181188 -0.17573714 -0.22681296
-0.32366854 0.19594815 0.032214027 0.03263843 -0.2376812 0.20522669 0.06982997 0.13028947
-0.095254906 0.12295047 -0.25616395 0.0342778 0.14993158 0.17269848 -0.25894699 -0.121746294
0.09153162 0.11476901 -0.13789067 0.076996945 0.002001301 -0.02237136 0.00063337764 -0.13319771
-0.19656394 0.18165077 0.22905268 -0.0028478727 0.15945311 0.15052183 -0.11315553 -0.07019282
-0.15321007 0.1595489 0.019959705 -0.087083824 0.12405181 -0.07153467 -0.09374106 -0.14274287
-0.037605878 0.17616065 -0.082133144 -0.10454544 0.14581023 -0.094376214 -0.25196764 0.13251491
-0.024416398 -0.16534698 -0.05283284 -0.018865567 0.07228973 0.071093395 -0.10652663 0.12596089
-0.22121607 0.08602903 -0.009429703 -0.10254721 0.12556596 -0.13640685 0.053552512 0.026420945
0.14606006 -0.12358641 0.03721379 0.15417814 -0.17245713 0.009774852 -0.1486879 0.0517716
-0.16401508 0.10306416 -0.10234314 0.086300775 0.07695464 -0.054169983 -0.0905685 -0.07155059
-0.07343983 -0.033541527 -0.17826502 0.1740019 -0.16142794 -0.05653143 0.0008164029 -0.15941395
-0.07808724 -0.061489772 -0.09278056 -0.03887826 0.13134196 0.09078735 0.20661107 0.032336432
0.060807243 0.08432494 -0.1673232 -0.3432305 0.014219525 0.09471504 -0.14316452 0.17485458
-0.13712566 -0.13313746 0.1615125 -0.017851926 -0.14993955 0.19981942 -0.059159867 0.16010144
0.07377647 -0.19776163 -0.33766127 -0.14424606 0.18246165 -0.1458775 -0.33587974 0.1177543
-0.04426136 -0.16560565 0.24685499 0.05152809 0.07855005 0.005015566 -0.15833257 0.23851793
-0.06593603 0.35633627 0.08580788 0.03813855 -0.08548015 -0.36138928 0.272696 0.1445054
-0.2469769 0.09802603 0.5450663 -0.09995703 0.1316128 0.31473613 0.124006994 0.1156875
0.6719887 0.016170902 -0.15488243 0.059652023 0.14625785 -0.05762853 0.021379506 0.16962484
-0.19989626 -0.33286205 0.06773842 0.11600701 0.088232525 -0.13507877 -0.11776541 0.0049840747
-0.10422481 0.09299455 -0.09220225 0.23572111 -0.13006346 0.003289261 -0.06736345 0.040695764
-0.29270482 -0.09271371 -0.07954501 0.03815966 -0.0026788022 0.011557402 -0.13583611 0.18701033
0.23744477 0.06561071 0.10903816 0.008584803 -0.07541132 0.009769555 0.092069656 0.105521075
-0.21844062 0.15971282 -0.010379045 -0.0636047 0.06618074 0.0016446948 -0.18573166 -0.1318229
0.17067644 0.2316565 -0.21498853 -0.09066326 0.09257571 0.110420205 -0.30679446 0.08883407

func_approx.network.6.bias f4 [30]
00000000: fe53 d93d c673 afbd 47a1 833d f65a d53d
00000010: 0394 bfbc 822c bd3d fac4 b93c da30 96bd
00000020: 826b 0fbc 643e 783d e951 9f3d cafd bebd
00000030: e863 073e d348 8dbd 02b9 20be a954 8fbd
00000040: f1db c1bd 357d 803d 20fd 1c3b 53ca 823b
00000050: 9a3f e5bd cd12 cc3d 2b9f 403c e315 08bd
00000060: aa88 263d 475f 813d dbf0 ebbd feeb 5dbd
00000070: 9fec 92bd 679a 153e
0.10611723 -0.08567004 0.064272456 0.1041774 -0.023386007 0.09237005 0.022676934 -0.073335364
-0.008753659 0.060606375 0.07779295 -0.0932575 0.13221705 -0.06898656 -0.15695575 -0.069985695
-0.094657786 0.06273881 0.0023954585 0.003991404 -0.11193772 0.099645235 0.011756699 -0.033223998
0.040657677 0.06317001 -0.11520549 -0.054180138 -0.07174038 0.14609681

func_approx.network.8.weight f4 [1, 30]
00000000: e5f1 483e 56b2 4abe cc0c 763e 8016 b6bc
00000010: 3ea2 7a3c 3b98 5d3e 2da4 73be 2e35 593e
00000020: 4b4d 573e b71b 343e 7d6b e5bd e182 dc3d
00000030: 00f6 68be 5df0 39bd 6eb5 bf3d a781 8ebe
00000040: bda5 f73b bbba 0dbe ba6e 093e d931 04be
00000050: 3349 ad3d b821 03be eab1 703e 6a82 2cbe
00000060: 4548 cabd f814 fdbd d0ff 873e a5c0 493e
00000070: 4ee0 ab3d 0dfb c73d
0.19623525 -0.19794592 0.24028319 -0.022227526 0.015297471 0.21640103 -0.23793097 0.21211693
0.21025579 0.17588697 -0.112021424 0.10767151 -0.22750092 -0.045395244 0.09360777 -0.27833292
0.0075575993 -0.13840763 0.13421145 -0.1290964 0.08461227 -0.12805831 0.23505369 -0.16846624
-0.098770656 -0.12357515 0.26562357 0.19702394 0.08392392 0.09764681
