paper/Burgers/runs/shifted_grid_7checkpoint.pt (torch, 59095 bytes, 36 tensors)

func_approx.network.0.weight f4 [30, 2]
00000000: 8d2d 1bbf d084 4dbf 59ba 39bf 41c4 70bc
00000010: a500 f2bd d67e b43d 0807 f0be d4a5 ecbe
00000020: 7e2b e5be 2cc1 e63e 22ea 433f 8e50 45bf
00000030: b764 003f 88f9 0e3f 8d6f a4bf 5235 14bf
00000040: 8d0d 2d3f d040 d2be 4520 e23e 4401 043e
00000050: 1230 41bf 0579 fa3e 4b37 2b3e a95a 00bf
00000060: 2acf 313f 63a1 b9be 3ec5 2bbf ddc3 89be
00000070: fa6e 10bf 3ce6 5bbf e353 81bc c075 1abf
00000080: e4ee 8dbd 4086 203f 8699 c8bd b31f 34bf
00000090: 4b05 7dbf 686b 2e3f af51 b53e cc8b 3dbf
000000a0: 6711 48bf fd31 013e b149 92bd b60b 133f
000000b0: fdd3 9f3f 9ddc e3be 9bb9 dabd 1606 68bf
000000c0: c183 c03f c4ce 0cbe 33b8 8bbe 64fb 4abe
000000d0: 8c8c babe fecc 433e 537c 3b3f 94a5 c73e
000000e0: c19f 353e 7c0d cabe ac68 963e 24a9 6e3f
-0.6061638 -0.8028078 -0.7254997 -0.014695228 -0.11816529 0.088132545 -0.46880364 -0.46220267
-0.44759744 0.45069253 0.76529133 -0.7707604 0.5015368 0.55849504 -1.2846543 -0.5789386
0.675988 -0.41065073 0.44165245 0.12891108 -0.75463974 0.48920456 0.16720311 -0.50138336
0.6945673 -0.3625594 -0.6709784 -0.26907244 -0.56419337 -0.85898185 -0.01578707 -0.6033592
-0.069303304 0.6270485 -0.09794907 -0.7036087 -0.988362 0.6813264 0.35413882 -0.7404144
-0.78151554 0.12616725 -0.07142962 0.57439744 1.2486569 -0.44504252 -0.10679933 -0.90634286
1.5040208 -0.1375075 -0.2728897 -0.1982246 -0.36435354 0.19121167 0.7323658 0.38993514
0.17736723 -0.39463413 0.29376733 0.9322684

func_approx.network.0.bias f4 [30]
00000000: 86b5 01bf 2e2e 5fbe 34b0 243f 805e e83e
00000010: 6831 303e 0c8e 033f fcd8 5a3c bd8c bd3d
00000020: 2c03 813e f7ff 1e3f 35fc f0be 4a5c 6b3e
00000030: dc63 2d3e 238a 4dbe 4458 acbe fb7c 5c3e
00000040: 38b8 e2be 0613 9c3e 9ade 473e df38 b13e
00000050: df44 90be 5c8c 0d3f b325 1d3e e17b 18bf
00000060: e9c5 5ebe 7cd2 723e 6f3d aa3e 5924 de3e
00000070: f000 083f 1b97 df3e
-0.5066761 -0.2179496 0.64331365 0.45384598 0.17206347 0.5138862 0.013357397 0.09255359
0.25197732 0.6210932 -0.4706742 0.22984424 0.16932625 -0.20072226 -0.3366109 0.21532051
-0.44281173 0.30483264 0.1951851 0.34613702 -0.28177544 0.55292296 0.15346412 -0.59564024
-0.21755184 0.23713106 0.33249995 0.43387106 0.5312643 0.43669972

func_approx.network.2.weight f4 [30, 30]
00000000: bef1 0abe 8d68 6e3d 75bf cdbd b2c1 06bd
00000010: fa48 1f3e 92ef 6f3d 0b98 df3d 6c14 f43c
00000020: e42b c5bd 6b48 3cbe 63ba 28bc e48f ebbd
00000030: 4889 16bd bf1d 523c 61b9 52be c299 2bbe
00000040: a821 883c d34d b93d d6f0 873e ece5 65be
00000050: db0d d6bc b2be 193e 5433 42be 9b0b 52be
00000060: 6941 69be 0f8f 7cbd 839f 233e 8d79 1e3e
00000070: 0c2f d6bd 644b 8a3d 6e3e f83d 2989 9fbd
00000080: 3797 e2bc ac52 0fbe 7186 01be 8a37 e93d
00000090: 8569 9dbd 6f27 17be 5bbd 0d3d db4b 03bd
000000a0: 6c28 a4be 6858 823e 9556 123e d573 2cbe
000000b0: f4ed 45bc 403d 6e3e f763 5fbe 0632 dcbc
000000c0: ca43 c5be 31a1 a73e 62a4 70bd e99b 85bd
000000d0: 98d6 643e d75b 573d 3fd8 923e da95 423e
000000e0: 52f5 b4be 7b78 f23d 21f2 9ebd 38a8 8fbe
000000f0: a637 14be 9252 0a3e a3ef 073c f431 88bb
00000100: d70e 7638 e79b bebe 432f ab3d 0184 323e
00000110: b8a5 e1be 9a67 d6bc b10f 803e 7c9f 60be
00000120: 10d2 55be b7ee c7bd 4813 f73d 35c4 47be
00000130: edea 833e 7ea9 37be 286c 853e 22f1 9cbe
00000140: 153c 853d 6537 393e 59a7 e4be c046 2f3d
00000150: 93d9 b9bd 6816 1b3e a466 193e 5450 4abe
00000160: 9945 96be b734 9f3d 77b4 903c 19b3 9b3d
00000170: 130d 67bc befe 4fbe be37 063d cafd 26bd
00000180: 34dd 2e3e a5ad 2dbe 0b0e 08be a6a2 453e
00000190: 5e7b 4f3e 9f1a f93d c9a5 9e3d d9ec 25bc
000001a0: b3d4 d8bc d861 3fbe 691e 07bc 7411 74be
000001b0: dd2e 2c3e 5498 3f3d c0f2 e13d 4177 f93c
000001c0: 27be 4cbe 98b2 173e 6d55 8abd 17ea 793c
000001d0: 7212 593d 3453 7abd ea27 a6bc 4445 84bc
000001e0: 9473 053f 9a91 7f3e cacf dc3c f6fc ab3e
000001f0: e0b6 a8bd 9391 b83d 5e5c b3be b3cb ea3e
00000200: 62aa 873d 09f1 68be 5e34 143e 0cf4 543e
00000210: d914 eabd c4f6 bd3e 99a7 ce3e f6c6 893e
00000220: 7868 d2bb 6843 863e ab4c 4e3d b6a7 45bd
00000230: 17b6 653e efd2 f4bd 2c78 adbd 2954 db3e
00000240: 375e 16bf 7a26 e73e 3fdc 9d3d 2fbb c7be
00000250: 2e96 0f3e f745 32be a09e 91bd 85af 423d
00000260: 70d9 ba3c 3eb3 823d 9a0a c8bc 6bd9 1bbe
00000270: c532 2f3d fa8a 16be 547a 07be 3cca 1bbe
00000280: 14b1 8c3d 1043 953d 98ab d9bd b9c9 383e
00000290: 04fe 09be c6aa 103e 13f6 873d 8366 0abd
000002a0: b9fa 1f3e 45b8 113e cb3b 063e 6bb1 14be
000002b0: 0455 a0bd a2c2 2ebe 0b75 0c3e 7647 153d
000002c0: 79ed 9cbd d554 19bd a9d0 fc3d b040 4f3e
000002d0: 0aa2 c43c 1314 19be 0e42 ffbd 2f30 5f3e
000002e0: f23b a4bd fed8 b13e eae3 b43d 3260 09bc
000002f0: 51bb 793e ed92 5bbd 829d 6ebe abfb 2e3c
00000300: 7a40 2f3e ef46 a23d 3ed5 0c3e 7e22 973e
00000310: 15f1 89be 8806 d03d 5a7d 16be 888c 773e
00000320: 939e 32bb cb73 f63d 28dd 8f3e e2f3 ec3d
00000330: 9ba7 18bd 1e13 1fbd 4b80 7ebe 7599 04be
00000340: 5cfa 143d 1fca 003e 57b2 f3bd 0e36 5c3e
00000350: d307 fd3d 65bc aa3d cf85 033e a3fe 153e
00000360: 3d61 4f3d 9929 febd 6300 793d c036 973d
00000370: 8372 463e 2370 1fbe eb5f 85bd a9f7 223e
00000380: bd45 1fbd a1ea 23bd 7396 a4bd ca4f 9f3d
00000390: c8ee 0a3e 525f 5bbd 067d 333e a66f ddbd
000003a0: 1866 bd3b 51c8 97bd 460d 8ebd 2c8e 5fbc
000003b0: d448 2bbe ec96 c03d 9e24 d2bd de2c 13bd
000003c0: 2158 053e 580f 0e3e f754 033e f093 6e3e
000003d0: 654e 95bd 3b35 c13d ff68 023d b487 9e3e
000003e0: 4735 3b3e 9846 023c 6915 3fbe d9df d23d
000003f0: 489c aebc 484d 0b3e bd60 513e 1eaf 383e
-0.1356878 0.058205176 -0.10046283 -0.032899566 0.15555182 0.05857808 0.10917672 0.029794894
-0.09627512 -0.18387 -0.010298344 -0.11502054 -0.036752015 0.012824475 -0.20578529 -0.16757873
0.016617611 0.09048047 0.2655093 -0.2245099 -0.026129654 0.1501415 -0.18964893 -0.2051224
-0.22778858 -0.06165987 0.15978818 0.15476055 -0.10458192 0.06752661 0.121212825 -0.07789833
-0.027659995 -0.1399638 -0.12648942 0.11387546 -0.07686142 -0.14761136 0.03460441 -0.032054763
-0.3206209 0.25458074 0.14290841 -0.16841061 -0.012080658 0.23265553 -0.21815477 -0.026879322
-0.3852828 0.32740167 -0.058750518 -0.06523878 0.22347486 0.05257782 0.28680608 0.19002476
-0.35343415 0.11839386 -0.07761026 -0.28058028 -0.14474353 0.1350806 0.00829688 -0.0041563455
5.866479e-05 -0.3722832 0.08358624 0.17433168 -0.44071746 -0.026172448 0.25011972 -0.21935838
-0.20880914 -0.09762328 0.120642245 -0.19508441 0.25765172 -0.1793575 0.2605908 -0.3065272
0.065056 0.18087538 -0.44658926 0.04279208 -0.09074702 0.15145266 0.1498056 -0.19757205
-0.29349974 0.077737264 0.017664177 0.076025195 -0.014102238 -0.2031202 0.032768004 -0.040769376
0.1707657 -0.16960771 -0.13286607 0.19300327 0.20261905 0.12163281 0.07746465 -0.01012727
-0.02646861 -0.18689668 -0.008246996 -0.23834783 0.16814752 0.04677613 0.11032629 0.030452373
-0.19994412 0.14814222 -0.06754575 0.015253565 0.052996106 -0.061114505 -0.020282704 -0.01614631
0.52129483 0.24957886 0.02695455 0.3359143 -0.08238006 0.09012141 -0.35031408 0.45858535
0.06624295 -0.22748198 0.14473101 0.20796221 -0.114297576 0.3710233 0.40362242 0.26909608
-0.006421145 0.26223302 0.050366085 -0.048255645 0.22432743 -0.11954295 -0.084701866 0.42837647
-0.5873751 0.45146543 0.07708024 -0.39009997 0.14022133 -0.17409502 -0.071103334 0.04753067
0.02280876 0.06381844 -0.024419118 -0.15219657 0.042773027 -0.14701453 -0.13230258 -0.15213865
0.068697125 0.07288182 -0.10628432 0.18045701 -0.13475806 0.14127645 0.06638732 -0.03378917
0.15622987 0.1423045 0.13108747 -0.14520805 -0.078287154 -0.17066434 0.13716523 0.036445104
-0.07662482 -0.037434418 0.12344486 0.2023952 0.024003047 -0.14949064 -0.12463771 0.21795724
-0.08019246 0.34735864 0.08832534 -0.008384751 0.24387862 -0.053606916 -0.23302272 0.0106801195
0.1711444 0.07923686 0.1375322 0.29518503 -0.26941743 0.10157496 -0.14696255 0.24174702
-0.0027255162 0.120338045 0.28098416 0.115699545 -0.037269216 -0.03883659 -0.24853627 -0.12949164
0.036371574 0.12577103 -0.1189925 0.21504995 0.12355008 0.08336715 0.12844013 0.14647917
0.050629843 -0.12410278 0.060791384 0.073834896 0.1937962 -0.1557012 -0.065124355 0.15914787
-0.038884867 -0.04001868 -0.080365084 0.077788904 0.1356765 -0.0535577 0.17528161 -0.10812311
0.005779993 -0.07411254 -0.069361255 -0.013644736 -0.16727 0.09403786 -0.102608904 -0.03593146
0.130219 0.1387304 0.1282538 0.23298621 -0.07290343 0.09433981 0.031838413 0.30962908
0.18282042 0.007951401 -0.18660511 0.10296602 -0.021314755 0.13603699 0.20447059 0.18035552

func_approx.network.2.bias f4 [30]
00000000: 3585 cfbd 1f1c d2bd 5120 9ebd bf75 903c
00000010: 77f9 2cbe adb2 103e 76a5 d13c f147 2bbd
00000020: 7f67 2e3b a671 d23c 167e 9e3d aa19 533c
00000030: 5fee 193d 6920 a03c ed12 05be cc97 d13c
00000040: 3a0a 9abc be11 29be 5069 143d 831c 98bd
00000050: 278e 983c a535 323d e402 00be dfaa f6bc
00000060: 36f3 17be d55e 25bd 900e 363e 2a78 e03c
00000070: 9208 0f3e c174 b83d
-0.10132829 -0.1025927 -0.077210076 0.01763427 -0.16892038 0.1413066 0.025591593 -0.041816656
0.0026611981 0.025688957 0.07738893 0.012884537 0.037580844 0.019546704 -0.12995501 0.025585078
-0.018803705 -0.16510674 0.036233246 -0.07427313 0.018622471 0.04350819 -0.12501103 -0.030110775
-0.14838871 -0.040373642 0.17778993 0.027401049 0.13968113 0.09006644

func_approx.network.4.weight f4 [30, 30]
00000000: abe0 9e3d 659d 02bf c8be 22bd f68c 0e3e
00000010: e3ad dbbe 6857 953e c87c 7dbe 39b3 5a3e
00000020: 0153 a33d 59fd 65bc 9d1b da3e 6577 90bd
00000030: b414 543e b7ad 363e 5106 e23d 94f1 84be
00000040: dbd4 19be 5f3e 91bd 7db0 a43e dd92 113f
00000050: 0fcb 46be 7ea5 b7be fc6f e43c 843d 563e
00000060: df4f 92be cf32 babe 47cf cfbe 276f 153e
00000070: bfe3 e4bd 7ebf 843b f1c2 bf3e abf8 34bf
00000080: fba5 1b3e 05d4 5fbe e94d adbe f92d 0ebd
00000090: ae25 a0bd 4d10 e93d 1df0 153e 594f 57ba
000000a0: d50c fc3e dedb b63d 9eb0 1abd c6de 6ebd
000000b0: 7b76 aebc 51b1 fbbe 1fba e3bd 3b74 5dbd
000000c0: b3e9 133d e09a 713f a9f0 01bd 6e4c 39bd
000000d0: ac87 34bb fd86 b33d 9dc3 4bbe 7de8 f8be
000000e0: 9287 b3bd dbf0 9abc c7c8 0a3e 2893 b6bc
000000f0: 27d3 583e 4774 15be d47a 923b 4786 febd
00000100: 2cff 123d 3463 ffbd c37b 1a3d e79a 103c
00000110: c08a 913e f11b 413e 09af 203e e837 1dbe
00000120: 83ad bdbc 9432 eebd 2835 78be 37ba 80be
00000130: f97e 0c3d 5dbf 9c3d cf7f 073e a6b5 b33e
00000140: 1a43 d1bd 3677 3f3e b9c7 eb3d 5471 953d
00000150: dbe7 e73d 2faf 0cbe 6d4e 573e dbef 0cbe
00000160: e0e7 68bc f85b 96bd f1ee 07be 9e08 463e
00000170: 6585 5bbe f9e9 b8bd 6ba0 193d a28e ab3d
00000180: 73b8 7e3e 5668 c93d 6ace 853d dbc9 703e
00000190: 3074 91bc 9b02 dcbd fe59 37bd c0b4 a9bc
000001a0: 7a2d c9bc 1995 bbbd aa14 09be 7baa 963d
000001b0: 7eba 4b3d 8802 913d ef24 45bd 61f5 483d
000001c0: 2519 d73d 9caa 1dbe 9536 dfbc 703d 0a3e
000001d0: aed9 07bc 5c80 003d f56e b23c e5ea 12be
000001e0: 6938 1ebe c2fa d73c f9b6 bdbd c2f2 6bbe
000001f0: f5c3 abbd c57e f03b 0920 143e 5ac4 2ebe
00000200: 71bc 913c 3736 863e 4076 3abe c944 3cbe
00000210: 7f44 9f3d 7518 19be 4e4d 3cbe ad38 49be
00000220: 1051 c0bb d9c6 123b 3527 963c 9b03 cebc
00000230: 378b ce3b ac41 f0bd 494b 34bc 4e75 90be
00000240: 6abd 18be a10d 483e 6aeb be3d 6bf6 cdbd
00000250: 22a0 74bd 700b 463d c767 6bbe 0d76 58bd
00000260: 9d3f 063e e6a3 1abe 3e6e 8a3b ea3b 9c3d
00000270: 70c2 17be faec 803d 4f04 293e 5ee4 22bd
00000280: 743f 0bbe 8fc2 26be fa80 3bbe 3448 c43d
00000290: 8722 d0bd 8248 6e3c b6cb e0bc e265 4fbe
000002a0: 4da7 bbbd 096c 883d bc23 2b3e 297b 593e
000002b0: dd62 1cbd 57b5 04be 4c0d 2b3e 0df5 abbb
000002c0: 1ffc 823c 6733 babd 73ce b3bd 266b 00b7
000002d0: d35a ec3c 5cfe 38be cb34 d2bd ab90 c6bb
000002e0: 2c0c 0ebd f04b 653e 71dc 083e 08a9 ca3d
000002f0: 811f 21bd d945 aa3d 5489 cabc c045 8fbd
00000300: 0b38 393e 7dbc 9b3d 8a55 613e 5a81 fb3d
00000310: 91db 36be 8fd6 dbbd 621d 6a3e a10f 1bbe
00000320: bfe1 9bbd 79e8 25be ebce a33d a103 883d
00000330: 2b48 82bd 2d69 21bc 08f0 3e3c 019a 17bd
00000340: cf50 373e ba15 4a3d 7271 1ebd 8f34 adbd
00000350: 4753 853c b06a 04bd fa50 4f3e 5cba 01bd
00000360: 5bec 50bd a065 343e b160 363c df49 db3b
00000370: 4566 adbd 705c 5e3d 6f43 eb3c be44 123e
00000380: 4ebe 5f3e 3b83 72bd ff8d f1bc fb15 02bd
00000390: 1eb2 353e 7b05 843e d461 113e 9b23 bd3c
000003a0: b316 d7bc 1b73 c83d 01d3 25be 4b4b bdbc
000003b0: 8b83 24be c397 0abe fdb4 64be e6fd 0f3e
000003c0: 090d 2c3e 42eb b0bd cc90 44be 811e b8bd
000003d0: df8f 443c cb1a 263e fe79 053e 9bdb c4bd
000003e0: 4b3b 363e a247 fb3d 2560 613d 735a 133e
000003f0: 2180 d3bd e099 ac3b 1a16 0b3c d4eb 88bd
0.07757696 -0.51021415 -0.039732724 0.1392096 -0.42906103 0.29168248 -0.24754632 0.2135743
0.07974816 -0.014037454 0.42599192 -0.07054023 0.20711023 0.17839704 0.11036361 -0.2596556
-0.15022604 -0.070919745 0.321659 0.5686472 -0.19413398 -0.35868448 0.02788543 0.20921904
-0.28576562 -0.3636689 -0.40587828 0.14593183 -0.111762516 0.004051148 0.37453416 -0.7069194
0.15200035 -0.21858223 -0.33848503 -0.03471181 -0.07819687 0.11380062 0.14642377 -0.0008213423
0.4922854 0.08928655 -0.03776609 -0.058317922 -0.02129673 -0.4915872 -0.11119484 -0.054065924
0.036111545 0.94376945 -0.031723652 -0.045238905 -0.0027546687 0.08765981 -0.1989884 -0.48614874
-0.08766092 -0.018913677 0.13553153 -0.022286966 0.21174298 -0.14595138 0.0044702087 -0.12427955
0.035887882 -0.12470093 0.037715685 0.008825994 0.2842617 0.18858315 0.1569177 -0.15353358
-0.023154026 -0.11630741 -0.24239028 -0.2514207 0.034300778 0.07653687 0.13232349 0.35099524
-0.10217877 0.18697819 0.115127034 0.07297006 0.1132352 -0.13738702 0.21026011 -0.13763373
-0.01421544 -0.073417604 -0.13274743 0.19339225 -0.21437605 -0.09029002 0.037506502 0.083768144
0.2487505 0.098343536 0.06533511 0.23514502 -0.017755598 -0.107426845 -0.044763558 -0.020716071
-0.024557818 -0.091592975 -0.13386789 0.07356735 0.0497384 0.07080561 -0.048130926 0.049062137
0.10502843 -0.15397114 -0.027247706 0.13499999 -0.008291645 0.031372413 0.021781424 -0.14347418
-0.15451206 0.026364688 -0.09263415 -0.23041824 -0.08386985 0.007339331 0.14465345 -0.1706709
0.017790051 0.26213238 -0.18209171 -0.18385614 0.077767365 -0.14950736 -0.18388864 -0.19650526
-0.0058690384 0.0022396354 0.018329242 -0.025148204 0.006303217 -0.11731276 -0.0110042775 -0.28214496
-0.14916006 0.19536449 0.093222454 -0.10056766 -0.059723027 0.04835075 -0.22988807 -0.052846957
0.13110204 -0.15101585 0.0042245677 0.07628615 -0.14820266 0.062952 0.1650555 -0.03976857
-0.13598424 -0.16285156 -0.1831092 0.09584084 -0.101628356 0.014543654 -0.027440887 -0.20253709
-0.091627695 0.06661231 0.1671285 0.21238388 -0.03818022 -0.129598 0.16704291 -0.005247718
0.015989361 -0.090918355 -0.087796114 -7.654342e-06 0.028851902 -0.1806578 -0.10263976 -0.0060597262
-0.034679577 0.22392249 0.13365342 0.098955214 -0.039336685 0.08314104 -0.024723686 -0.06995726
0.18087785 0.07604311 0.22005287 0.12280531 -0.17857195 -0.10734283 0.22862771 -0.1514268
-0.07611417 -0.16201963 0.07998451 0.06641317 -0.06361421 -0.009851736 0.011653908 -0.037012104
0.1790192 0.049337126 -0.03868241 -0.084572904 0.016275061 -0.032328308 0.20245734 -0.031671867
-0.051006656 0.17616892 0.011131451 0.0066921557 -0.08466772 0.054287374 0.028718678 0.14284036
0.21849939 -0.059207182 -0.029486654 -0.031759243 0.17743728 0.2578543 0.14197475 0.023088267
-0.026255941 0.097875796 -0.16193773 -0.023107192 -0.16065805 -0.13534455 -0.22334667 0.14061698
0.16801848 -0.08638622 -0.1919586 -0.08990193 0.011997192 0.16221158 0.13034818 -0.09612199
0.17796056 0.12269522 0.05502333 0.14389972 -0.10327173 0.0052673668 0.008489156 -0.06685606

func_approx.network.4.bias f4 [30]
00000000: f508 c4bc fa61 3a3c 7f27 8d3d 3a6b 163e
00000010: 4f88 6abd 1aec d73d 40ce f33d f070 bdbc
00000020: 7196 26be d474 3e3d 5c14 d83d dda9 08be
00000030: 4040 0c3e 3de9 8ebd b850 1bbe eece b03c
00000040: 28a9 443d 223c 623c 7ddd 20be 3e7d 8cbd
00000050: ce9b 073e 7b06 953d 2e9e af3d d06c a03d
00000060: 74a1 da3d 8f0a 92bd 9567 403d 4506 ab3c
00000070: cf38 9d3d b3e3 253e
-0.023930052 0.0113758985 0.06892299 0.14689341 -0.0572589 0.1054308 0.119045734 -0.023125142
-0.16268326 0.046498135 0.10550758 -0.13346048 0.13696384 -0.069780804 -0.1516751 0.021583047
0.048012882 0.013808282 -0.15709491 -0.068598256 0.13243029 0.07276627 0.08575092 0.07833254
0.10675326 -0.0713092 0.046973784 0.020877013 0.07676851 0.16200142

func_approx.network.6.weight f4 [30, 30]
00000000: 5784 95bc 443d fc3d aa24 13bd a126 233e
00000010: 2b18 58bc 65fa 5b3e d03f 61be 6d89 d9bc
00000020: d3ec 4e3e d017 88bd 5177 e4bd 77d5 31be
00000030: 58c0 333d 9fc8 543c ae46 4fbd e312 c6bd
00000040: b166 9d3e 8a71 8a3d f520 c23e 0757 edbd
00000050: 4eb6 0f3d 0924 e0bd e2c3 7abd b962 29bd
00000060: d017 7abd d4ac f5bd c268 c3bb 2cc5 85bd
00000070: d44a 513e a9ed e2bd ecd4 623e df82 79bd
00000080: af66 7a3d 0206 b13d aeb0 3fbe 8d67 0cba
00000090: 1390 70be 47e1 333e d728 f4bc 423e bc3d
000000a0: 7322 71bd 5708 40be be45 4bbd 6dd3 32be
000000b0: b469 e0bd 47c1 06bd 4098 a23e af0b 3dbe
000000c0: b955 6b3e 5ddc fc3d 1b2c 393d 399c e3bd
000000d0: 06cf bebd 86ea 69bd ee49 093e 1f1a 4bbe
000000e0: 25ce 8a3e 8de7 49be 76ff eb3e bf7f 833c
000000f0: 7b97 f83c 3e68 b9bd d56c 18be 8ec3 d3bd
00000100: 0b16 22be 4652 c0bd 6dfb 0c3e 746f 5ebe
00000110: b064 283e 716d 753c 58aa e33c d4ef 14be
00000120: b1f6 67be c690 0b3e e80d 463e b67d 913d
00000130: 0103 3d3e 5723 253e 7def 2e3e cc5d 3dbe
00000140: 162a 123e 497a 6dbd 29da 313e 6770 543c
00000150: 0b9f 073e 205c 673c ba7c 7e3e 51dc d03d
00000160: bf4e a03e 76c7 91bd 1463 0c3e fabc 683e
00000170: 4b1b 053e e861 49bd d03a e03d 7eb5 38be
00000180: 5cf9 253e cab5 b2bd 48f8 aabd 3bc0 093e
00000190: 314c 80bd ad35 3ebe 472b 55bd 75a2 683e
000001a0: 7e72 663d 8da0 79bd 2f7a 963c 4afa ecbd
000001b0: b00f af3d 75cf 87be c583 8cbd be94 1ebe
000001c0: 99d9 3b3c a77f 193e 53d1 d93d 9776 ebbc
000001d0: e43b 3b3e 874b c0bd 5716 ea3d 8278 0d3e
000001e0: 4cd3 abbe ec38 dfbe 9167 f9bd 61a8 36be
000001f0: c5f2 b6bc 92af 343e 2568 fabc 056f 013d
00000200: 10a5 28bd f098 04be ab43 0fbd 8ee4 2e3e
00000210: 0fe0 a53e 86fe bbbe 54cd bd3d 5131 a7be
00000220: bc28 87be 9312 823d 1716 163e 46ec 1b3e
00000230: c747 fc3d 660f 91bc 9129 51bb 4f92 4f3d
00000240: 93bf 0cbd 6e06 943b ce55 99bd b20a 20bd
00000250: ee0f a0be 4d8f f33d c8b0 42be 1e00 6f3d
00000260: 2ffb 16be 3215 82bd ef39 333d f77b 943d
00000270: ae73 303e 530a d1bc 31cd 783c 41ab f13d
00000280: f6bc a5bd ac3f dbbc a772 393e 5c1d 8d3c
00000290: d43f 9bbd 2391 45bc 59e2 0dbd c4dd 243e
000002a0: 3797 1f3d b51e 133e 1658 27bc 9ea6 3fbe
000002b0: 01e6 a33d e7f9 96bd 8251 b73d b4e5 c3bd
000002c0: 2d67 fe3a b6a1 8c3c 674e 843c 827f 85bc
000002d0: e09f 643d 811a 3ebe 7eda 833d a1b2 64be
000002e0: 79a9 6ebe 7699 50be 46cb 80bd 97f4 1d3c
000002f0: 3afb 1c3c 487e be3d 3e5c 5c3d 7ea9 173e
00000300: 6303 adbd c705 403e 9dd2 35be ae06 433d
00000310: f3a5 ebbd 1cfe adbc b88a 98bd eb5c 053c
00000320: acca 53bc e521 dbbd 0b64 f6bd 54f0 003d
00000330: d7bb 8f3d a8c8 fd3d 9e0d 33bd 660f 223e
00000340: 3553 32be e94e bdbd aac3 85be b5a4 4ebe
00000350: dfd6 21be 6b33 05be f1c1 c13d 81a9 cabd
00000360: dd1a 24be 1058 0fbe 8fe7 48be 9ed2 5b3d
00000370: ade7 b6bb 639b e73d 0894 563e 9c25 ac3d
00000380: 3629 0ebe 669d a03d 4f4c feba 259a 8f3c
00000390: b53e 11be 5194 013e 7a02 25bc 509e 3a3d
000003a0: 3f4d 34be 9802 93bd 0f85 60bd c9aa 0abe
000003b0: d6cf 62be 6d69 793d cd02 9ebe 25ed b43d
000003c0: 14aa 193e 7ea5 50bc 3af4 debc c623 a1bd
000003d0: b81c 42be d082 323e b3f5 a2bd 6ba2 2cbd
000003e0: 4813 03be 3810 603d 8631 913b c40d b33c
000003f0: 8b91 8d3c 516a 113e b04d 40be a3f0 ea3d
-0.018251581 0.12316373 -0.035923637 0.15932705 -0.013189356 0.21482237 -0.21996999 -0.026554788
0.20207529 -0.06645167 -0.1115557 -0.17366587 0.043884605 0.012987285 -0.050604515 -0.09671571
0.3074241 0.06759937 0.3791577 -0.11588865 0.03508597 -0.10944373 -0.061221965 -0.041353915
-0.061057866 -0.11995855 -0.005963416 -0.06531748 0.20438701 -0.11080486 0.22151536 -0.060915824
0.061133083 0.08643724 -0.18719742 -0.00053560064 -0.2349246 0.17566405 -0.02980463 0.09191562
-0.058870744 -0.18753181 -0.04962706 -0.17463465 -0.10957661 -0.032899167 0.31756783 -0.18461488
0.2298192 0.123467185 0.045208078 -0.111137815 -0.0931683 -0.057108425 0.13407108 -0.19834183
0.271104 -0.19717236 0.4609334 0.016052125 0.030345669 -0.09053086 -0.14885266 -0.103400335
-0.15828721 -0.093906924 0.13767786 -0.21722203 0.16444659 0.014979706 0.027791187 -0.14544612
-0.22652699 0.13629445 0.19341242 0.071040556 0.18458177 0.16126762 0.17083545 -0.18492812
0.14273867 -0.05797795 0.17368378 0.012966252 0.13244264 0.014121085 0.24852267 0.10198272
0.31310079 -0.07118122 0.1370967 0.22728339 0.12998693 -0.049165636 0.109487176 -0.18037984
0.16208404 -0.0872608 -0.08348137 0.13452236 -0.06264532 -0.18575163 -0.052043226 0.22718222
0.056261532 -0.06094413 0.018368809 -0.11571176 0.08547914 -0.26525465 -0.068610705 -0.15486428
0.011465454 0.14990102 0.106356286 -0.028743071 0.18284565 -0.09389406 0.11430042 0.13815501
-0.33559644 -0.43598115 -0.12177957 -0.17837669 -0.022332558 0.176451 -0.030567238 0.031600017
-0.04117304 -0.12948966 -0.034976643 0.17079374 0.32397506 -0.36717623 0.09267679 -0.32654813
-0.26398265 0.06351199 0.14656864 0.1522685 0.12318378 -0.017707538 -0.0031915645 0.05067664
-0.034362387 0.004517368 -0.07487069 -0.0390727 -0.31262153 0.11892567 -0.19012749 0.05834972
-0.14744256 -0.06351699 0.04375642 0.07250207 0.17231628 -0.025517618 0.01518564 0.11800242
-0.08092682 -0.02676376 0.18110143 0.017225914 -0.075805336 -0.012058529 -0.03463969 0.16100222
0.03896257 0.14367183 -0.010213872 -0.18715903 0.08002854 -0.07371884 0.08951093 -0.09565297
0.0019409411 0.017166954 0.016150666 -0.016296152 0.05581653 -0.18564798 0.064381585 -0.22333767
-0.23306836 -0.2037104 -0.06288771 0.009640834 0.009581381 0.0930143 0.053798907 0.1481075
-0.084479116 0.18752204 -0.17756124 0.047613792 -0.11506262 -0.021239333 -0.074483335 0.008139829
-0.012926739 -0.10699824 -0.120308004 0.031479195 0.070182495 0.12391788 -0.04371416 0.15826187
-0.17414553 -0.092435665 -0.26125842 -0.20180018 -0.15804623 -0.13007896 0.094608195 -0.098956116
-0.16025873 -0.13998437 -0.19619583 0.053667657 -0.005581817 0.113089345 0.20954907 0.08405611
-0.13882908 0.07842521 -0.0019401404 0.017529557 -0.14184077 0.12654234 -0.010071391 0.045561135
-0.17607592 -0.07178229 -0.054814395 -0.13541712 -0.22149596 0.060891557 -0.30861512 0.08834294
0.15006286 -0.012734769 -0.027216066 -0.07868151 -0.18956268 0.17432714 -0.0795702 -0.04214708
-0.12800324 0.054702967 0.0044309525 0.02185715 0.017281314 0.14200713 -0.18779635 0.11471679

func_approx.network.6.bias f4 [30]
00000000: 70fc 57bc feb8 af3d db75 1dbd 3067 09be
00000010: 8846 9d3d bbdb 373e 0029 db3d 552f b13c
00000020: 1a41 20bd 0182 31be 5a91 033e 87f6 db3d
00000030: 3b1b 853d 62b9 a3bc dace a13d dbce ddbd
00000040: 6b72 e83d 309c 28be 579d 303e 9f8f e8bd
00000050: 29f1 b6bd 2d17 613c b9b3 62bd d86e fb3c
00000060: 58b1 f1bd a3ad 8bbd 908d 17bc 46e6 60bd
00000070: 94e4 4abd 32b8 89bc
-0.013182744 0.08580206 -0.038442474 -0.13418269 0.076794684 0.17954914 0.107011795 0.021629015
-0.039124586 -0.17334749 0.12848416 0.10740381 0.064993344 -0.019985858 0.07900782 -0.1083047
0.113499485 -0.16465831 0.1724752 -0.113555185 -0.089327164 0.013738436 -0.055347178 0.030692503
-0.11801404 -0.06820228 -0.00925006 -0.054907106 -0.049534395 -0.016811464

func_approx.network.8.weight f4 [1, 30]
00000000: 22d5 403e 1445 ad3e 8f43 623e e7ee 143e
00000010: 49c8 5dbe 67d6 b0bd 1525 f2bd 80b3 4dbe
00000020: b672 0bbe 2286 743e b399 3abe e1bb 493c
00000030: 6b7a 313e 7502 773e 82d0 293e 927d 0bbe
00000040: 95bd f6bd 5deb 683e 327d 5cbd c212 183e
00000050: 9ffe 3d3d 52cd 76be 6778 2d3e 2b56 f13d
00000060: 8c86 6abe 4916 953d 86e1 6c3e 43fa 2cbe
00000070: 99cd ea3d b6ce a13e
0.18831304 0.33841765 0.22096084 0.14544259 -0.21658434 -0.08634644 -0.11823479 -0.20088005
-0.13617977 0.23879293 -0.18222694 0.01231286 0.17331855 0.24122031 0.16583446 -0.1362212
-0.12047879 0.22746034 -0.053830333 0.14850906 0.046385404 -0.24101761 0.16940461 0.11784013
-0.22902888 0.07279641 0.23132905 -0.16892342 0.11464996 0.3160302

exp_avg f4 [30, 2]
00000000: 889c ca35 8dbb 5e34 3df8 3e35 8106 8233
00000010: 8f3d 7d33 3d45 b7b3 f9a3 8935 5abe c434
00000020: c0d6 0635 74c9 ffb4 886b 4134 c3b8 3e35
00000030: e9f5 54b5 4150 51b5 b1d7 1a36 ad9f f935
00000040: 589d e0b4 f659 cb34 7778 03b5 772f edb4
00000050: 3633 4635 2f3d 65b4 a57b 0934 39b7 48b3
00000060: f142 00b5 b13f 8b35 4169 8235 e121 8135
00000070: eedb c535 b5b6 1b35 fa73 d634 9437 53b4
00000080: 8501 8ab3 5792 5634 e014 f134 bdc3 2135
00000090: 4efc b835 261e 9635 4aed a6b3 00be 6ab5
000000a0: 9698 5735 dd4b 31b5 1346 3934 6ce8 2533
000000b0: 00a0 b2b5 c349 b933 9d2c 9635 eb71 78b5
000000c0: 7c30 6ab6 ae29 2836 8d17 6835 6638 8033
000000d0: 62bb fd34 5a40 b7b5 aa63 81b5 3f0c 7ab5
000000e0: 1860 2135 f900 4535 5f96 78b5 6f9b 5a35
1.5095729e-06 2.0743592e-07 7.114175e-07 6.05478e-08 5.896214e-08 -8.534196e-08 1.0255018e-06 3.6646344e-07
5.023139e-07 -4.7644028e-07 1.8013645e-07 7.104938e-07 -7.9334e-07 -7.797535e-07 2.3073337e-06 1.8598417e-06
-4.1837734e-07 3.7877152e-07 -4.89766e-07 -4.4179225e-07 7.383527e-07 -2.1349545e-07 1.2804101e-07 -4.673277e-08
-4.778113e-07 1.0374844e-06 9.716388e-07 9.621109e-07 1.4741652e-06 5.8007873e-07 3.994499e-07 -1.9671126e-07
-6.426402e-08 1.9983541e-07 4.4904937e-07 6.026201e-07 1.3782499e-06 1.1184645e-06 -7.77314e-08 -8.744828e-07
8.0315783e-07 -6.6048034e-07 1.725496e-07 3.8628443e-08 -1.33086e-06 8.628151e-08 1.1188855e-06 -9.255297e-07
-3.4896939e-06 2.5058212e-06 8.6461006e-07 5.970723e-08 4.726126e-07 -1.3653291e-06 -9.640255e-07 -9.315008e-07
6.011701e-07 7.3389634e-07 -9.260602e-07 8.1437514e-07

exp_avg_sq f4 [30, 2]
00000000: cf5b 202c 8adc 4129 1377 0e2b 5a83 8427
00000010: eebd 7b27 db8b 0328 6c03 942b 034e 172a
00000020: 600e 8e2a ad98 7f2a f53a 1229 3719 0e2b
00000030: ac29 312b f425 2b2b 4e51 bb2c 7568 732c
00000040: 141b 452a 1190 212a 6a09 872a 17c1 5b2a
00000050: 6e75 192b 3e5d 4d29 95b2 9328 c380 1d27
00000060: fa87 802a c27c 972b f8de 842b e546 822b
00000070: 5dec 182c 846f bd2a e1a8 332a 5847 2e29
00000080: 1d0d 9527 fee9 3329 220b 632a b871 cc2a
00000090: 7fac 052c 4811 b02b a474 da27 1f43 572b
000000a0: ad92 352b 9395 f52a 1b1d 0629 9ba3 d726
000000b0: 4348 f92b 0c91 0628 4b31 b02b 341d 712b
000000c0: 813d 562d 17ee dc2c 226d 522b b32e 8127
000000d0: a784 7b2a d22d 032c 80cb 822b 313c 742b
000000e0: 1177 cb2a dd9b 172b a764 712b 28ae 3a2b
2.2788332e-12 4.3045896e-14 5.0613783e-13 3.677977e-15 3.4936208e-15 7.302287e-15 1.0516982e-12 1.343856e-13
2.5234242e-13 2.270152e-13 3.246965e-14 5.0483527e-13 6.2940863e-13 6.0804074e-13 5.3238863e-12 3.4590362e-12
1.750651e-13 1.4349656e-13 2.398735e-13 1.9518099e-13 5.4519486e-13 4.560002e-14 1.6397726e-14 2.1857929e-15
2.283172e-13 1.0763823e-12 9.44105e-13 9.256733e-13 2.1731707e-12 3.3650524e-13 1.5956985e-13 3.8697642e-14
4.1370025e-15 3.994894e-14 2.0165513e-13 3.6316588e-13 1.8996191e-12 1.2510349e-12 6.0633617e-15 7.6476493e-13
6.450767e-13 4.362453e-13 2.9779222e-14 1.4962967e-15 1.7712571e-12 7.469946e-15 1.2519234e-12 8.5660927e-13
1.2178148e-11 6.2792094e-12 7.475844e-13 3.5855324e-15 2.2339301e-13 1.8641655e-12 9.293538e-13 8.6769746e-13
3.6142663e-13 5.386228e-13 8.5760083e-13 6.6322165e-13

max_exp_avg_sq f4 [30, 2]
00000000: 4fbb 1636 b918 e136 c99b d734 e867 b936
00000010: b70d 8334 278e 3f36 05da 2337 c88a 8538
00000020: f8ad d035 aa85 4037 36b2 5336 7e6a b537
00000030: 5ad7 de35 9cfc bd36 061a 2c35 15de 2036
00000040: 00e4 e835 c1b8 8037 146d de35 8d70 1b38
00000050: 4d9e 0e36 39bc b637 fe24 1835 0119 4736
00000060: 97c5 8534 9430 ea35 1ee4 c335 2630 a637
00000070: b996 f936 c18f b237 7b68 a335 163e 2637
00000080: 3c28 f334 aeaf 3335 0c63 f434 da3c 2936
00000090: 070b 0336 b3ee 5636 c9bb 9f35 3fa2 fe36
000000a0: 1b8b 9434 3cdc 7336 4d63 ee34 1b0f f935
000000b0: 7311 1335 cc72 8536 f38d b837 9b42 8a38
000000c0: 2644 5c35 67d7 0837 bc10 1536 5c4d 2b37
000000d0: 48c6 8736 6d6a 5a38 bb7d aa34 ec8b 2f37
000000e0: ad33 3936 a0c5 bb37 6738 1237 5457 cf37
2.246077e-06 6.7084006e-06 4.016022e-07 5.525526e-06 2.441063e-07 2.8543961e-06 9.766319e-06 6.367784e-05
1.5547839e-06 1.1475213e-05 3.1545183e-06 2.162647e-05 1.6602964e-06 5.6620465e-06 6.411286e-07 2.3971127e-06
1.7351704e-06 1.5344822e-05 1.6572035e-06 3.70597e-05 2.1251792e-06 2.1783739e-05 5.6678243e-07 2.9667865e-06
2.4916946e-07 1.7448497e-06 1.4595023e-06 1.9811163e-05 7.4383247e-06 2.1286194e-05 1.2174854e-06 9.9088265e-06
4.5291551e-07 6.6938344e-07 4.5520608e-07 2.5218383e-06 1.952694e-06 3.2027426e-06 1.1901076e-06 7.588678e-06
2.766836e-07 3.6338015e-06 4.4403205e-07 1.8556342e-06 5.478716e-07 3.977073e-06 2.200061e-05 6.592759e-05
8.2055556e-07 8.156384e-06 2.221247e-06 1.0210406e-05 4.0463965e-06 5.2074367e-05 3.1756448e-07 1.0463391e-05
2.7597227e-06 2.2384163e-05 8.71541e-06 2.4716988e-05

exp_avg f4 [30]
00000000: 0603 8035 0fab f7b3 6353 8bb3 9f18 39b4
00000010: d74b 16b5 d846 a034 9999 eb33 2529 9eb2
00000020: 0858 0135 d02e 0a35 2f5f a0b4 559b e8b4
00000030: 0ab8 6d35 6b85 aab4 b1c0 4335 d2c7 c5b4
00000040: fe8d 8735 4e39 62b4 429b 54b5 c16c 58b4
00000050: a557 bbb4 be73 e1b4 9cd4 b635 241a df35
00000060: 873f b2b5 fe1e c0b2 7d9c ccb4 d1d4 c734
00000070: ec01 8c34 ce8d dbb5
9.537623e-07 -1.1532949e-07 -6.48786e-08 -1.7238425e-07 -5.5989716e-07 2.9853868e-07 1.09709795e-07 -1.8412331e-08
4.818435e-07 5.147713e-07 -2.9871578e-07 -4.3326386e-07 8.855719e-07 -3.1762042e-07 7.2923564e-07 -3.6839498e-07
1.0099609e-06 -2.1068738e-07 -7.9202084e-07 -2.0156132e-07 -3.4895234e-07 -4.199373e-07 1.3621934e-06 1.6622403e-06
-1.3280522e-06 -2.2365835e-08 -3.811182e-07 3.7221483e-07 2.607843e-07 -1.6358042e-06

exp_avg_sq f4 [30]
00000000: 8d06 802b 3fc2 6f28 ae3f 9827 3133 0629
00000010: 6e82 b02a f3c2 c829 7126 5928 b4f8 d825
00000020: 40ba 822a 2d2e 952a a0fb c829 e85b 532a
00000030: 18c0 5c2b 5439 e329 d4af 152b 3cce 182a
00000040: de8e 8f2b 7ffc 4729 a394 302b 8a2d 3729
00000050: 621c 092a 5a91 462a ea93 022c 026f 422c
00000060: 843a f82b 3ea2 1326 0499 232a 88fe 1b2a
00000070: f02e 9929 934c 3c2c
9.096765e-13 1.33092856e-14 4.2257517e-15 2.979838e-14 3.1354384e-13 8.9156025e-14 1.20542555e-14 3.7638555e-16
2.3221876e-13 2.6499758e-13 8.925434e-14 1.8772451e-13 7.8426285e-13 1.009077e-13 5.3179444e-13 1.3571864e-13
1.0200415e-12 4.4405882e-14 6.2734036e-13 4.067366e-14 1.2177892e-13 1.7636362e-13 1.855622e-12 2.763068e-12
1.7637701e-12 5.122075e-16 1.4530396e-13 1.3855074e-13 6.802707e-14 2.6758914e-12

max_exp_avg_sq f4 [30]
00000000: 51b3 9236 0233 6935 8910 3035 f29d ef37
00000010: ebff 4936 01be 1337 f10a 8c36 e36c dd35
00000020: d356 ad36 f609 a736 bf60 d836 7840 d935
00000030: 9104 0c35 4a6b 9b36 85fd 3b37 82d1 8e36
00000040: 6afc 7d35 b454 ad35 639c ac36 f7ab 8436
00000050: 5f32 7735 049c 5335 79d2 1036 8a35 2638
00000060: dc62 0236 5988 c536 62ff 5537 9e60 4735
00000070: c340 0937 1d55 6337
4.3720142e-06 8.687349e-07 6.558917e-07 2.856457e-05 3.0100298e-06 8.8061215e-06 4.173599e-06 1.6497473e-06
5.1659094e-06 4.9781474e-06 6.4485644e-06 1.6186523e-06 5.216071e-07 4.63185e-06 1.1205096e-05 4.2563197e-06
9.4617155e-07 1.2914156e-06 5.1442053e-06 3.953926e-06 9.208797e-07 7.883066e-07 2.1580183e-06 3.9627346e-05
1.9429053e-06 5.8869305e-06 1.275525e-05 7.4273873e-07 8.180915e-06 1.3550071e-05

exp_avg f4 [30, 30]
00000000: 40c2 1134 c123 7732 72ff a8b4 6604 e7b4
00000010: 987f 9332 0caa e2b4 515a aa34 0a91 05b5
00000020: bb9b 74b4 068b 89b4 8ba2 a234 ff71 4cb4
00000030: 9fe8 39b4 fc1c 80b3 321a adb3 ba7d 0db4
00000040: 8e42 a634 8ca3 59b4 0654 8d34 2216 05b5
00000050: a30a b333 8df9 c9b4 7dd8 01b3 a273 ac34
00000060: d54c 3034 b9da 23b4 00d9 20b4 a675 04b4
00000070: 6b87 b6b4 1de5 b8b3 003c 4934 3b30 4a33
00000080: 3e3f 2c32 7837 3d34 63d3 0133 0922 fdb3
00000090: d8bf aeb4 1b39 3635 f3fe e7b3 a0ff 9db3
000000a0: 929d bc33 5e80 0134 d039 d1b3 fa4d 3b34
000000b0: 545e 9634 9c20 9334 ac11 7bb4 b7ef c734
000000c0: b186 9f34 dc73 7534 aa89 b631 89a6 05b4
000000d0: 1698 4434 9c98 e333 49bb 9734 2ab3 c533
000000e0: c8b7 ba33 c128 69b4 96ba adb2 4988 47b4
000000f0: 19f5 d9b4 f6df 77b4 7ded 5b34 9ced 2c35
00000100: 883c c3b3 fa70 1335 f00b 13b4 703e 70b4
00000110: 9c3d bb34 37f5 8534 db43 fbb4 07f2 d434
00000120: 8de3 b334 a069 7cb3 d2c7 d8b4 e730 1335
00000130: 59f2 49b5 8cea 3d35 f42a 90b3 766a 4935
00000140: 0525 c5b4 f9ed dc33 542a 4235 1733 a1b4
00000150: 0440 2c34 1471 fb33 13b0 6133 4ce3 7134
00000160: 9566 9a34 034a bc34 3abe bcb3 9dc2 72b4
00000170: 1245 2d34 d909 cbb3 b33c 3eb3 b3ad c333
00000180: 7bec b2b1 d2d3 f633 72f6 9434 779f 7f34
00000190: fe26 b3b4 a186 e632 e009 9834 6910 c2b3
000001a0: e36d c2b2 460b 1033 c4ce 0fb3 380f c933
000001b0: 670b 95b3 4f51 c633 6823 9db4 5f3d f433
000001c0: b224 d934 7992 0bb4 a99b 30b2 fb3b 0cb4
000001d0: 0125 53b3 5f58 6333 2022 ca33 7149 a533
000001e0: ae32 a8b5 02e7 9ab5 7de3 0ab5 58ff 6db5
000001f0: 6a2e 53b5 8e34 9e33 5412 8d35 a492 66b6
00000200: b710 1835 c52d ca34 e1f7 90b4 eec2 9f32
00000210: fff5 4735 b05d c6b5 02e6 85b5 fd27 5cb4
00000220: e830 7034 5553 abb4 54b7 a7b5 0e17 1833
00000230: efbc 74b5 f978 97b4 cefb 9035 c805 6fb3
00000240: 4535 2536 1ec0 41b5 e148 73b5 dd9b c135
00000250: 3206 1eb4 1133 d334 2ec6 9a34 0c75 79b3
00000260: 7629 85b4 3a6a 70b4 9e6a 93b4 e615 0534
00000270: 7bb2 0a34 51a0 ee33 93ab 8c34 a83d 0ab4
00000280: 8738 88b4 6d7c 2d34 e160 9a34 c762 e3b3
00000290: 1503 5634 89f1 0c34 894b 0ab4 5583 d233
000002a0: 530b 78b3 8182 8133 35f7 02b4 d4f4 1cb4
000002b0: 6159 3534 431f 2f34 4ded b334 0540 21b4
000002c0: c1d3 b2b4 54f5 b733 8eb4 0d34 9859 0bb4
000002d0: 11d9 6533 924f efb3 a38d 8d33 8ac6 06b4
000002e0: 4884 8bb2 4f93 be34 717b 9bb2 6cdf 0635
000002f0: f2c9 9b34 0972 cb33 ed50 a3b4 3703 a8b2
00000300: bb43 9a34 4c67 a9b2 e564 0e34 33d3 10b2
00000310: 6381 1e33 550e d532 e2f8 0fb5 3452 20b2
00000320: 8614 20b4 b756 9133 5bfc 3834 f158 69b3
00000330: 3db7 f5b1 e614 c4b3 ed99 7ab3 8695 87b3
00000340: bfd2 6b33 68fc ebb2 44c9 9934 72d9 2d35
00000350: 1594 f8b4 55ac 2235 978e 90b4 49e6 fe34
00000360: 49f0 b4b3 24a5 0a35 85fb e734 ce4a 09b5
00000370: 0ec5 24b5 afad e934 3624 b834 9161 6bb3
00000380: babd be34 e7ec 8734 d6ed f2b4 7430 3a34
00000390: b4b4 bf33 89c2 5434 418f 1835 12eb 9134
000003a0: 2d09 af34 4de4 0934 733f 5a35 2937 ef34
000003b0: 6fcb 3db4 faed 4135 c9d7 3935 27fc 8ab4
000003c0: 2c20 b0b3 1998 2eb3 e02e 7fb4 b8e9 f6b4
000003d0: d9bd 0cb4 a589 74b4 04eb aa34 fee2 87b4
000003e0: c5b9 9db3 1de1 04b4 b037 3834 8cdb c9b3
000003f0: fee2 d7b2 5a6c f7b3 f790 78b4 d5dd 06b4
1.3574845e-07 1.4385422e-08 -3.14783e-07 -4.3030303e-07 1.7171075e-08 -4.2219506e-07 3.173068e-07 -4.975742e-07
-2.2780925e-07 -2.561939e-07 3.0293117e-07 -1.9040452e-07 -1.7314095e-07 -5.965737e-08 -8.060705e-08 -1.3177387e-07
3.0968334e-07 -2.0269198e-07 2.6324432e-07 -4.957857e-07 8.337272e-08 -3.762074e-07 -3.0232048e-08 3.212163e-07
1.6419229e-07 -1.5260129e-07 -1.4980105e-07 -1.2336258e-07 -3.399867e-07 -8.609843e-08 1.8741412e-07 4.7075655e-08
1.0026097e-08 1.7622176e-07 3.0227408e-08 -1.17874215e-07 -3.254961e-07 6.788338e-07 -1.0803151e-07 -7.35738e-08
8.783094e-08 1.2060761e-07 -9.742837e-08 1.74441e-07 2.800831e-07 2.740461e-07 -2.3382626e-07 3.7241054e-07
2.971406e-07 2.2859552e-07 5.3125477e-09 -1.2447175e-07 1.8309251e-07 1.0598271e-07 2.826221e-07 9.206117e-08
8.6947296e-08 -2.1714642e-07 -2.02247e-08 -1.85829e-07 -4.0597732e-07 -2.3085144e-07 2.0482362e-07 6.442076e-07
-9.091406e-08 5.492617e-07 -1.3694785e-07 -2.2374456e-07 3.487629e-07 2.4951598e-07 -4.6801765e-07 3.9664175e-07
3.3506913e-07 -5.8769388e-08 -4.0378524e-07 5.483293e-07 -7.5231e-07 7.07493e-07 -6.713336e-08 7.5033256e-07
-3.6721045e-07 1.0287835e-07 7.233223e-07 -3.002576e-07 1.6042037e-07 1.1708667e-07 5.2547033e-08 2.2527564e-07
2.8759374e-07 3.507158e-07 -8.789034e-08 -2.2608806e-07 1.6137008e-07 -9.4547154e-08 -4.4293028e-08 9.111991e-08
-5.2073665e-09 1.14937976e-07 2.774646e-07 2.3806739e-07 -3.336972e-07 2.6836746e-08 2.831939e-07 -9.036814e-08
-2.2634543e-08 3.3537866e-08 -3.3482834e-08 9.36256e-08 -6.940427e-08 9.2348834e-08 -2.926929e-07 1.1373299e-07
4.04461e-07 -1.299867e-07 -1.0279941e-08 -1.3060337e-07 -4.916092e-08 5.293293e-08 9.412565e-08 7.69677e-08
-1.2531725e-06 -1.1541126e-06 -5.1740045e-07 -8.8660954e-07 -7.8671167e-07 7.367008e-08 1.0510653e-06 -3.4358027e-06
5.6648736e-07 3.7658734e-07 -2.7002446e-07 1.859868e-08 7.449125e-07 -1.4779416e-06 -9.976213e-07 -2.0503644e-07
2.2369534e-07 -3.1911864e-07 -1.2495825e-06 3.5411226e-08 -9.117202e-07 -2.821396e-07 1.0802121e-06 -5.5651782e-08
2.4617923e-06 -7.217767e-07 -9.0630607e-07 1.4424983e-06 -1.471715e-07 3.9338968e-07 2.882893e-07 -5.8081284e-08
-2.4803347e-07 -2.2390387e-07 -2.7458458e-07 1.2394557e-07 1.2917182e-07 1.11119e-07 2.620187e-07 -1.2874682e-07
-2.5373103e-07 1.6157146e-07 2.8755224e-07 -1.0588479e-07 1.9931424e-07 1.3126386e-07 -1.2879731e-07 9.802776e-08
-5.77523e-08 6.030769e-08 -1.2197127e-07 -1.46177e-07 1.6889454e-07 1.6309518e-07 3.3514007e-07 -1.5017584e-07
-3.3309155e-07 8.5662265e-08 1.3197334e-07 -1.2977978e-07 5.3515638e-08 -1.11437785e-07 6.591588e-08 -1.255195e-07
-1.6241884e-08 3.549744e-07 -1.810051e-08 5.024401e-07 2.9017934e-07 9.473667e-08 -3.0419997e-07 -1.9559236e-08
2.8734016e-07 -1.9721163e-08 1.3261486e-07 -8.429924e-09 3.690492e-08 2.4802981e-08 -5.3633823e-07 -9.331917e-09
-1.4908628e-07 6.767862e-08 1.7228142e-07 -5.433043e-08 -7.1512702e-09 -9.1307626e-08 -5.8347656e-08 -6.3136255e-08
5.4906874e-08 -2.7472382e-08 2.864491e-07 6.4763947e-07 -4.6301344e-07 6.060048e-07 -2.6925838e-07 4.747874e-07
-8.425611e-08 5.164932e-07 4.3210107e-07 -5.114533e-07 -6.1381513e-07 4.3526003e-07 3.4299018e-07 -5.4803937e-08
3.5528302e-07 2.531808e-07 -4.524906e-07 1.7340227e-07 8.927e-08 1.981481e-07 5.6832874e-07 2.717939e-07
3.2602966e-07 1.2842175e-07 8.130366e-07 4.4557353e-07 -1.7676005e-07 7.2244404e-07 6.923188e-07 -2.5887968e-07
-8.201491e-08 -4.0650864e-08 -2.3765779e-07 -4.5991123e-07 -1.3107582e-07 -2.2774346e-07 3.1835964e-07 -2.5310868e-07
-7.3446735e-08 -1.2375354e-07 1.7156594e-07 -9.399727e-08 -2.5132518e-08 -1.1521543e-07 -2.3149538e-07 -1.2560425e-07

exp_avg_sq f4 [30, 30]
00000000: 4d1e a628 9a84 7625 0826 df29 7e7b 502a
00000010: c75d ac25 55b4 482a 7dbb e229 9961 8b2a
00000020: 23be 6929 c1d3 9329 31a9 ce29 7550 2329
00000030: b205 0729 0e81 8027 e088 ea27 e17c 9c28
00000040: 1300 d829 4212 3929 8d10 9c29 d063 8a2a
00000050: d9b6 fa27 115d 1f2a 12e8 8426 9360 e829
00000060: 27e4 f228 a2ca d128 3e27 ca28 ed31 8928
00000070: c727 022a b1c8 0528 baf2 1e29 e862 2627
00000080: 6ae0 3925 0303 0c29 d8af 8526 add5 7a28
00000090: 12d1 ee29 2ac1 012b f3cf 5228 148f c727
000000a0: 2414 0c28 c313 8328 d886 2b28 ed8f 0929
000000b0: 7702 b129 9e2f a929 4645 7629 4f33 1c2a
000000c0: 27d5 c629 d45f 6b29 6d1a 0825 a09e 8c28
000000d0: 5360 1729 472e 4d28 b11d b429 f2d5 1828
000000e0: 1f5d 0828 e50a 5529 f78f f425 073b 1c29
000000f0: c59f 392a 9625 7029 b703 3d29 7aa1 e92a
00000100: 6df5 1428 23d9 a92a 7234 a928 baab 6129
00000110: c0f7 082a fb46 8c29 f5a5 762a 6c22 312a
00000120: e0d8 fc29 8464 7b27 919f 372a 6f43 a92a
00000130: b14e 1f2b d1e4 0c2b f6a4 a227 bb78 1e2b
00000140: 2bdb 172a f23f 3f28 4747 132b 031d cb29
00000150: c734 e828 7803 7728 5526 4727 ccc1 6429
00000160: 6943 ba29 2f8a 0a2a c931 0b28 3136 6629
00000170: b98f ea28 060c 2128 1165 0d27 3897 1528
00000180: aa67 0124 e002 6e28 325c ad29 9241 7f29
00000190: efbf fa29 65c8 4f26 d997 b429 4022 1328
000001a0: 4f2c 1426 593c a226 b0c4 a126 58ee 1d28
000001b0: 0696 ad27 d3a7 1928 f0e9 c029 ed0a 6928
000001c0: e02f 382a d034 9828 b7ca f524 c9a3 9928
000001d0: 072c 2e27 c505 4a27 3f9e 1f28 fb7e d527
000001e0: 4006 dd2b 0577 bb2b 20b5 962a 5c43 5d2b
000001f0: a637 2e2b 6326 c527 c07a 9b2b 7bac 4f2d
00000200: e7ad b42a b1b3 1f2a 2e48 a429 801c d325
00000210: 8233 1c2b ceb5 192c f711 8c2b c566 3d29
00000220: 9f77 6129 975b e529 1ac4 db2b 4ed3 b926
00000230: 03fc 692b 2342 b329 273b a42b ac72 5f27
00000240: 9e3c d52c 85a3 122b 5334 672b 3f6d 122c
00000250: d34b c328 df3d 2e2a b13a bb29 c866 7427
00000260: cf92 8a29 78ca 6129 fcca a929 ec71 8a28
00000270: 646d 9628 e0ee 5e28 ab9c 9a29 8a91 9528
00000280: d500 9129 bd26 eb28 3035 ba29 9558 4a28
00000290: d60c 3329 9b3b 9b28 3f6f 9528 5133 2d28
000002a0: b8a8 7027 3b1c 8327 fe29 8628 81b0 c028
000002b0: b989 0029 6ae4 ef28 2df5 fc29 2126 cb28
000002c0: 1eda f929 44c7 0428 38ef 9c28 1bfc 9728
000002d0: 6e17 6227 7a3c 6228 253f a027 2c49 8e28
000002e0: ff3c a925 aded 0d2a d8c7 0e26 bb40 8e2a
000002f0: a4ba bd29 b252 2528 6d9a d029 4e1b e325
00000300: 0507 ba29 15f8 2226 88c0 a028 4b2f 0e25
00000310: e15d c626 b162 4426 fdf4 a12a 0730 e724
00000320: f36e c928 da3e ac27 ae44 0629 7783 6727
00000330: fc29 7125 a177 1628 e3e5 7627 ad4a 9827
00000340: 6dd4 5a27 a709 9226 2cf7 b829 fa25 ec2a
00000350: d267 712a acbf ce2a b445 a329 56d4 7d2a
00000360: 1cea 0028 c138 962a 383e 522a 3c4b 932a
00000370: 0720 d42a ea4e 552a 9479 042a f6c6 5c27
00000380: b436 0e2a e55f 9029 0a88 662a dd80 0729
00000390: 50b7 0f28 90d6 3029 7edb b52a 1c7e a629
000003a0: 7878 ef29 0f4d 9528 de15 3a2b ed89 5f2a
000003b0: debc 0c29 aaef 122b cdea 062b 3a1a 9729
000003c0: d4b5 f227 8ca1 ee26 8c62 7e29 6926 6e2a
000003d0: 76c2 9a28 a59b 6929 293d e429 024a 9029
000003e0: 346e c227 90ff 8928 9f94 0429 002f 1f28
000003f0: dc8b 3626 dd37 6f28 2c66 7129 b21c 8e28
1.8442843e-14 2.1382026e-16 9.909787e-14 1.8516956e-13 2.990079e-16 1.7826134e-13 1.006894e-13 2.4759082e-13
5.190131e-14 6.564845e-14 9.177588e-14 3.6263056e-14 2.998096e-14 3.566706e-15 6.5096447e-15 1.7373637e-14
9.59234e-14 4.1094088e-14 6.930663e-14 2.4582983e-13 6.9587183e-15 1.4154326e-13 9.222243e-16 1.03196226e-13
2.6966343e-14 2.329154e-14 2.2443524e-14 1.5231707e-14 1.156012e-13 7.426501e-15 3.529358e-14 2.3090745e-15
1.6122227e-16 3.1088857e-14 9.276391e-16 1.3924121e-14 1.0605591e-13 4.6098075e-13 1.17024336e-14 5.538872e-15
7.7759285e-15 1.4552492e-14 9.5216464e-15 3.0544947e-14 7.8608066e-14 7.513368e-14 5.4683058e-14 1.3873385e-13
8.8299424e-14 5.22636e-14 1.1805073e-16 1.5611915e-14 3.3612283e-14 1.1389821e-14 7.9987564e-14 8.484087e-15
7.569709e-15 4.730495e-14 4.2424807e-16 3.4690156e-14 1.6486732e-13 5.3323306e-14 4.1969652e-14 4.150116e-13
8.268869e-15 3.01711e-13 1.8785514e-14 5.0108985e-14 1.2165182e-13 6.229562e-14 2.1906767e-13 1.57327e-13
1.122867e-13 3.4887737e-15 1.6309026e-13 3.0067222e-13 5.6597354e-13 5.005554e-13 4.5142884e-15 5.6300423e-13
1.3487533e-13 1.0616496e-14 5.232381e-13 9.020044e-14 2.5780063e-14 1.37120065e-14 2.7637578e-15 5.0794262e-14
8.271753e-14 1.2304804e-13 7.7268455e-15 5.1117263e-14 2.6041549e-14 8.9399025e-15 1.962247e-15 8.303952e-15
2.8060223e-17 1.3212277e-14 7.698737e-14 5.6678247e-14 1.11355254e-13 7.2089137e-16 8.019947e-14 8.167566e-15
5.1407864e-16 1.1257365e-15 1.1224931e-15 8.766933e-15 4.81798e-15 8.529597e-15 8.5670945e-14 1.2936467e-14
1.6359093e-13 1.6898294e-14 1.06595225e-16 1.7057443e-14 2.4171218e-15 2.803626e-15 8.860587e-15 5.925705e-15
1.5704729e-12 1.3320184e-12 2.6771033e-13 7.860845e-13 6.1894446e-13 5.4720103e-15 1.1047482e-12 1.1804886e-11
3.2095092e-13 1.418438e-13 7.295584e-14 3.6621978e-16 5.5493815e-13 2.184353e-12 9.952585e-13 4.205557e-14
5.006379e-14 1.0185531e-13 1.5615315e-12 1.2894228e-15 8.3127965e-13 7.96067e-14 1.1669319e-12 3.100963e-15
6.060554e-12 5.209655e-13 8.21403e-13 2.0808492e-12 2.1682232e-14 1.547577e-13 8.3146496e-14 3.391752e-15
6.153898e-14 5.013565e-14 7.54032e-14 1.5370483e-14 1.6700786e-14 1.2375273e-14 6.8661514e-14 1.660544e-14
6.439438e-14 2.6107041e-14 8.269286e-14 1.1232461e-14 3.9757118e-14 1.7234307e-14 1.6590568e-14 9.614557e-15
3.3398153e-15 3.639041e-15 1.48952e-14 2.1392828e-14 2.8541165e-14 2.6633389e-14 1.1233579e-13 2.2554063e-14
1.10956586e-13 7.370681e-15 1.7423224e-14 1.6873701e-14 3.1376502e-15 1.2558634e-14 4.4477382e-15 1.57969e-14
2.935816e-16 1.2605776e-13 4.9536986e-16 2.5269183e-13 8.425663e-14 9.177272e-15 9.263844e-14 3.9396725e-16
8.261277e-14 5.6541254e-16 1.7847066e-14 1.233256e-16 1.3764456e-15 6.813491e-16 2.876934e-13 1.0026164e-16
2.23636e-14 4.7807734e-15 2.9813547e-14 3.2128957e-15 2.0917643e-16 8.352613e-15 3.426398e-15 4.226944e-15
3.0368734e-15 1.0133401e-15 8.214119e-14 4.1948373e-13 2.144112e-13 3.672595e-13 7.250746e-14 2.2544583e-13
7.156192e-15 2.6684734e-13 1.8673333e-13 2.616465e-13 3.7680988e-13 1.8945579e-13 1.1766136e-13 3.063899e-15
1.2631113e-13 6.41152e-14 2.0475302e-13 3.0087793e-14 7.977844e-15 3.9265954e-14 3.2304362e-13 7.3937574e-14
1.063463e-13 1.6575742e-14 6.611082e-13 1.9854231e-13 3.125006e-14 5.220222e-13 4.7932215e-13 6.7102967e-14
6.736563e-15 1.6558355e-15 5.6484805e-14 2.1151973e-13 1.7181769e-14 5.1871393e-14 1.01358436e-13 6.407723e-14
5.39653e-15 1.5320888e-14 2.9438796e-14 8.8364645e-15 6.333348e-16 1.32792786e-14 5.360137e-14 1.5777612e-14
