paper/Burgers/runs/space_grid20checkpoint.pt (torch, 59671 bytes, 36 tensors)

func_approx.network.0.weight f4 [30, 2]
000000 6c 31 79 3e f5 cc 24 bf 89 cd 77 bf 1a b8 5e bf
       0.24335259 -0.6437524 -0.96797997 -0.86999667
000010 6a 12 c8 bf 1e 65 1f be 92 82 26 3e 01 d8 51 bf
       -1.563062 -0.15565917 0.16260746 -0.8197022
000020 a0 51 7f 3f a5 07 0a be 3e b6 a4 3d 67 76 55 bf
       0.99733925 -0.13479479 0.080425724 -0.8338379
000030 24 73 22 3f 3d 18 45 be 65 56 8a 3e 34 6e 62 bd
       0.6345694 -0.19247527 0.2701904 -0.05528088
000040 44 af 6e 3e 39 5e 13 3f 98 b2 71 3d 80 12 f9 bd
       0.23309046 0.5756565 0.05900821 -0.12161732
000050 ab 82 58 3e 1f b8 5f bf ed a3 2f 3e 7b 5d bf be
       0.21143596 -0.8739032 0.17152376 -0.37376007
000060 46 f1 1c 3f 24 0c 58 3f 12 31 8e 3e 80 aa 63 be
       0.61305654 0.84393525 0.27771813 -0.2223301
000070 49 d8 eb be 95 d0 08 3f 62 dd 1c bf e4 b6 ae 3e
       -0.4606345 0.5344327 -0.61275303 0.3412391
000080 0e 85 ad bf 31 a8 eb bd 04 8d f5 3e b6 6e 32 3f
       -1.355623 -0.11506689 0.4795915 0.6970018
000090 0b e8 a9 bd c4 92 f1 3e 20 4c 59 bd f0 2c bd be
       -0.08296212 0.47182286 -0.053051114 -0.36948347
0000a0 1f d1 9a 3f a5 d9 09 bf 5d 2b 0a bf 8b 44 40 3f
       1.2095069 -0.53847724 -0.5397242 0.7510459
0000b0 d1 84 5a 3f fd 70 c0 be 96 5e cb be 49 d5 3e bf
       0.8535891 -0.37586203 -0.397206 -0.745442
0000c0 db b4 e2 3e 56 b1 ce bd 3d 27 0b be 72 de 45 bf
       0.44278607 -0.10092418 -0.13589187 -0.7729255
0000d0 9f 1b c6 be 9a 72 aa 3e 93 52 98 bf 99 e2 03 3f
       -0.38692948 0.3329056 -1.19002 0.51517636
0000e0 55 4c fa be b0 1e 66 3f 0d b9 0d bf c1 77 61 3f
       -0.48886362 0.89890575 -0.5536049 0.88073355

func_approx.network.0.bias f4 [30]
000000 1f e2 c2 bd f5 1a 08 3e 85 cb 82 3c db c1 8f be
       -0.095157854 0.13291533 0.015966186 -0.28077587
000010 8d c2 4c 3d ce 76 b5 3e 8a c3 9f 3e 7f 22 08 3f
       0.049990226 0.35442203 0.31203872 0.53177637
000020 40 0e 25 3d 97 5a 7b 3e 71 94 01 3f 08 2b 85 be
       0.040296793 0.24546276 0.5061713 -0.26009393
000030 ff 00 b1 3b 2b 93 9a 3e 49 5e 85 be 11 e7 9e 3d
       0.00540173 0.30190405 -0.26048496 0.07758916
000040 4d cd e2 3d 77 1b 6a 3d 26 4d 6c bd 64 fb 12 3f
       0.11074314 0.0571551 -0.057690762 0.5741484
000050 17 bb 6f 3e 79 9e 0f bf 28 e8 e1 be ac 7f 58 be
       0.23411213 -0.56101185 -0.44122434 -0.21142453
000060 39 43 d3 be 67 37 0e 3f b2 72 d2 3e e3 c7 e9 3d
       -0.41262224 0.5555329 0.4110313 0.114150785
000070 b8 80 13 3f 30 84 e0 3e
       0.57618284 0.4385085

func_approx.network.2.weight f4 [30, 30]
000000 c2 70 42 3e 2d d1 85 3d 27 61 a9 3d 36 5b e3 3c
       0.18988326 0.06534038 0.082704835 0.027753454
000010 0f 9b 45 3e 93 84 29 3d 7f bc 0c 3e 5d fb 01 be
       0.19297431 0.0413862 0.1374378 -0.12693544
000020 e7 8c 91 bc ac 02 98 bd 91 31 6d 3e 98 db 1e 3d
       -0.017767383 -0.074223846 0.2316344 0.03878364
000030 da 4a 2c bd 4a 38 7b 3e 3e b7 9e be 32 78 66 be
       -0.04206357 0.24533191 -0.30999178 -0.22506788
000040 78 84 64 be f8 bd 04 be 20 dc 8c be 75 5a 79 bd
       -0.22316158 -0.12963092 -0.27511692 -0.060877282
000050 72 58 91 3e 46 eb 88 be 54 9e f1 bd dc 3f d5 3d
       0.2838779 -0.26742 -0.11797777 0.10412571
000060 ba 21 a3 bd 90 ba 18 3e bb 98 00 be c4 f9 6e bc
       -0.07965417 0.14914918 -0.12558262 -0.014585916
000070 07 d5 57 3e b7 96 92 bd b0 ea 3b be 38 6c 44 3d
       0.21077357 -0.07157653 -0.18351245 0.047954768
000080 a7 af ac 3c 43 74 e5 3c c6 cd 40 3d a3 d1 8b 3d
       0.021079851 0.02800954 0.04707124 0.068270944
000090 f7 e8 a4 bd 79 ee e0 3d f7 cf c3 bc 4a 8e 62 3d
       -0.08052247 0.10982985 -0.023902876 0.05531148
0000a0 b5 4b 0c be 0c 22 0a be f3 89 a9 3d 0e 12 1f 3c
       -0.13700755 -0.1348955 0.08278265 0.009708894
0000b0 69 82 39 3e 48 90 27 3e 11 06 22 3e 0e e9 cc 3d
       0.18116154 0.16363633 0.15822627 0.10005389
0000c0 d5 3a 8e 3e 81 3b 22 be 9e 40 45 be 1d f3 4e 3e
       0.2777926 -0.15843011 -0.19262931 0.20209928
0000d0 f1 d5 b6 bd 32 a2 fc 3d ec 24 d1 3c da 66 f0 bd
       -0.08927525 0.12335624 0.025530301 -0.117383674
0000e0 08 52 26 3e 08 9c c5 3c 8a 44 2a 3e 85 ed 48 3e
       0.1624223 0.024122253 0.16627708 0.19621857
0000f0 e5 70 6f 3e ef 64 8f 3e ab c4 20 3e 25 94 7a b6
       0.2338291 0.28006694 0.15700023 -3.7339134e-06
000100 d6 ef c1 3d d4 b1 d8 3d 56 69 9a bd cc 82 12 bd
       0.09469573 0.10580793 -0.075396225 -0.03576927
000110 c0 59 77 be 2e f5 f8 3d 39 34 02 be 22 e7 4c 3e
       -0.2415533 0.12156139 -0.12715234 0.20010045
000120 95 81 a9 be 39 14 6f bd 8f 2c 97 3d a4 f9 b3 bd
       -0.33106676 -0.058368895 0.07381546 -0.087878495
000130 74 db 96 3e 5f 97 17 bc 5e ba ef bd ff 08 ef 3c
       0.29464304 -0.009252398 -0.117054686 0.029179094
000140 b7 e8 18 be 55 ca 8e bd 89 b5 e4 3d 69 e7 f2 3d
       -0.14932524 -0.069721855 0.111674376 0.11860544
000150 d4 bd 46 3e 36 3f 18 3e 11 b8 80 3d df 6f 01 3e
       0.19408351 0.14867863 0.06285108 0.12640332
000160 33 b5 04 be 2c 7b 0c be 4f f4 e9 bd 1d 8a 82 3e
       -0.12959747 -0.13718861 -0.11423551 0.25495997
000170 ef c6 bd 3e bd 75 18 be db 14 6f be 90 d6 23 be
       0.37065837 -0.14888664 -0.233478 -0.15999818
000180 d3 be df 3c 17 65 08 be d9 2d f5 bd bc 19 8a bc
       0.027312672 -0.13319813 -0.11971635 -0.016857974
000190 28 f1 9b be d9 9d bd 3d 28 83 12 3e 64 29 80 be
       -0.30457425 0.09258623 0.14307845 -0.2503158
0001a0 41 fa 1c 3e bb 34 fb 3d 87 b8 6b 3e 31 07 19 be
       0.1532984 0.12265917 0.2301961 -0.1494415
0001b0 d5 35 8e 3e 6e cf bf 3d 65 e7 b9 be f5 34 89 3e
       0.27775446 0.09365736 -0.36309353 0.26798216
0001c0 55 fd 2b be 68 62 47 3d 0b 77 26 be 1e 34 08 bd
       -0.16795857 0.048677832 -0.16256349 -0.033252828
0001d0 4a 3c bf bc fd 5f be 3e db 3c ae bc bb 48 53 3e
       -0.023344178 0.37182608 -0.021269253 0.20633213
0001e0 d1 92 54 be 5d 4b 78 3f e1 ff a6 3f dd 6f 17 be
       -0.20759131 0.96989995 1.3046838 -0.14788766
0001f0 74 ad b2 bf 2e 2b 61 3e 66 d9 e9 be fd 79 b2 be
       -1.3959184 0.21989128 -0.45673674 -0.34858695
000200 59 bc e7 be 3a 44 29 3d 47 27 de bd a3 86 84 be
       -0.45260885 0.04132483 -0.10847335 -0.2588397
000210 ba 5c 24 bf dc 35 84 be cb dc 5b 3d 50 95 17 3f
       -0.6420399 -0.2582234 0.05367736 0.5921221
000220 dc 8d 88 3f ed f5 21 bf cf 2a 02 bd 34 a1 80 bd
       1.0668292 -0.6326588 -0.031779107 -0.06280747
000230 11 6a ea be 4e bd 9b 3e 57 98 55 bf 0d cb 24 3f
       -0.45784047 0.30417866 -0.8343558 0.6437233
000240 a8 1b a3 be dc 5b 48 3e 90 14 a6 3e ea 6b 7d 3f
       -0.31857038 0.19566292 0.32437563 0.9899279
000250 1c 5f e3 3e f9 19 84 3e d8 75 34 be 7e 78 f8 bd
       0.444085 0.25801066 -0.17623079 -0.12132357
000260 be df 2e be 1d 0b e6 3d 9c a7 13 be 3f 53 12 be
       -0.17077538 0.112325884 -0.14419407 -0.14289568
000270 e2 a6 17 3d 93 ae 9b 3d f6 a4 96 bd d2 56 8b 3d
       0.037024386 0.07601657 -0.073556826 0.06803669
000280 72 c9 9a 3c c5 4c 05 be 13 75 b8 3d aa f5 a9 3d
       0.018894885 -0.13017567 0.09006705 0.0829881
000290 8f 2f 36 be c5 8e 22 be d2 3a 49 bd 04 bd 00 be
       -0.1779158 -0.15874775 -0.04912836 -0.12572104
0002a0 cb 33 e2 bd 5a b6 91 3c 44 df 95 3c c8 d7 12 3d
       -0.11045035 0.017787147 0.018294938 0.035850316
0002b0 fa a9 ce bd ff d6 f6 bd 00 ca 04 be 17 3a 06 3e
       -0.10091014 -0.12052726 -0.12967682 0.13108097
0002c0 bc 4c 34 be b2 9d 5c 3d e5 88 4e 3e 87 76 07 3e
       -0.17607397 0.053861327 0.20169409 0.13228808
0002d0 c5 6c 09 bd 34 19 30 3d 70 41 88 3a 67 31 79 be
       -0.033550996 0.042992786 0.0010395478 -0.24335252
0002e0 18 77 96 bd 1a 44 81 be a5 c1 40 be 33 83 4f 3d
       -0.07346934 -0.2524727 -0.1882387 0.05066223
0002f0 72 38 8a 3e 32 5c 01 bc fc 6a 6e be d6 51 85 be
       0.2699619 -0.007895516 -0.23282999 -0.26038998
000300 b8 56 8e 3e bb f5 95 bd 65 77 ee bc 36 4f 0e 3e
       0.27800536 -0.0732226 -0.029109666 0.13897404
000310 a2 d3 f3 bc 7f 8b 7a 3e 0a b6 7d 3e 71 61 18 be
       -0.029764 0.24467276 0.24776474 -0.14880921
000320 af b8 57 bb ee b9 86 bd 57 42 eb b9 25 57 a1 be
       -0.0032916476 -0.06578432 -0.0004487212 -0.31511799
000330 68 3e f6 bc 74 c3 c1 3d 7d 61 59 3e a3 99 73 3e
       -0.030059054 0.09461108 0.21228595 0.23789077
000340 b7 86 31 3e 47 6b 87 3e 5c d6 fc 3d 26 ae 5d 3e
       0.17336546 0.26449034 0.12345573 0.21648464
000350 56 d5 7a 3e 71 29 b2 3e 9b 65 c5 bd 9d 78 22 3e
       0.24495444 0.34797242 -0.0963852 0.15866323
000360 9e 8c 16 3e 37 ce b8 3d c9 e8 6c be f1 3c e9 3d
       0.14702079 0.09023707 -0.23135675 0.11388577
000370 d5 cd 89 bd 63 0e cd bc 4e e0 34 3d a6 62 08 be
       -0.067287125 -0.025031274 0.044159226 -0.13318881
000380 e4 93 e5 3d 37 60 de bd 26 a9 22 3e 40 b0 82 be
       0.112098485 -0.10858195 0.15884838 -0.25525093
000390 03 d5 03 be a3 38 8a 3d 78 8b a3 bd 04 75 20 3e
       -0.12874226 0.06749084 -0.07985586 0.15669638
0003a0 0c 09 df 3d 0a 70 a5 3e e2 58 9b bd e3 a7 92 bd
       0.108903974 0.32312042 -0.075853124 -0.07160928
0003b0 9d cc b7 bd 44 96 ec bd 09 b7 91 be c2 32 64 be
       -0.08974574 -0.115520984 -0.28459957 -0.22284988
0003c0 dc 09 2a be 71 c4 3f 3e a2 b5 47 3e d4 8b 32 be
       -0.16605324 0.1872728 0.19502881 -0.17436153
0003d0 9c 04 07 be 6f bf 2c 3e 62 3b bf 3d cc cd 9f bb
       -0.13185352 0.16869901 0.09337498 -0.004876828
0003e0 be 15 b3 bd ab 13 80 3d dd 6c 92 3d 0b d5 7f bd
       -0.08744381 0.06253751 0.0714967 -0.062459033
0003f0 18 a6 c5 3c b3 b7 e9 3d 01 56 1d 3e 96 15 1a be
       0.024127051 0.11411991 0.15364839 -0.15047297

func_approx.network.2.bias f4 [30]
000000 e5 b8 36 3e 99 0f 5f 3d e3 0c cd bd 62 7c 3b be
       0.17843969 0.054458234 -0.100122236 -0.18309167
000010 a5 d0 87 be 49 3d 43 be eb f7 be 3d d5 96 b1 bd
       -0.2652637 -0.19066347 0.0932463 -0.08671347
000020 5a eb 9b 3d 51 a0 c4 bd f7 c4 ac bd c3 75 30 3d
       0.07613249 -0.096008904 -0.084360056 0.043081056
000030 86 62 95 bd 0d 94 02 bd 60 4a 18 3d 5d 75 57 be
       -0.072941825 -0.031879473 0.037180305 -0.21040864
000040 6b 00 10 be 58 6f 47 3e 98 21 d1 3c a6 8f 85 3d
       -0.1406266 0.19476068 0.025528714 0.065215394
000050 bc 65 a4 3c f6 57 32 bb 74 de fe 3d d3 9e e0 bd
       0.020068042 -0.0027213073 0.12444773 -0.10967793
000060 aa ec 20 be 4b 1b 85 3c 05 b1 80 3c 00 40 d4 3c
       -0.1571528 0.016248366 0.01570941 0.025909424
000070 a7 72 be bb d3 c9 88 3c
       -0.0058120075 0.0166978

func_approx.network.4.weight f4 [30, 30]
000000 7d 85 13 3e 3b 64 22 3e 7d d0 ee bd f6 25 52 bd
       0.1440639 0.15858547 -0.1166086 -0.051305734
000010 7e 29 2a bd b5 ef 57 bd ea 98 01 3d a4 27 cb bd
       -0.041543476 -0.052718837 0.03163997 -0.0991967
000020 09 f4 17 3e 89 5d b3 bd d6 65 0a 3e 55 24 f6 3d
       0.14839186 -0.08758075 0.1351541 0.120186485
000030 54 5c 33 3e 2c 20 de 3d 95 d4 f7 3d d9 a3 e6 bd
       0.17515689 0.1084598 0.12101094 -0.1126172
000040 a9 c1 11 3e 55 04 76 be e6 d4 85 3c 0d 22 35 3e
       0.14234032 -0.2402509 0.01633687 0.1768877
000050 fa b6 0b 3d 69 eb 53 3d 34 4e df bd 00 e0 2d be
       0.034110047 0.051738176 -0.10903588 -0.1697998
000060 70 41 ee 3d 9e ed f9 3d c2 02 09 be 57 59 53 3c
       0.11633575 0.12203525 -0.13379958 0.012899718
000070 7f 0e 0e bd 24 a9 90 bd ac 48 e7 3d ea 67 a4 be
       -0.034681793 -0.07063511 0.11293158 -0.3211053
000080 b1 05 9f 3e cb d8 2b be e5 07 31 bc 10 f4 61 3d
       0.3105903 -0.16781919 -0.010805105 0.055164397
000090 11 3c 04 3c 42 9f 3f bd 01 f1 79 3d 1d b2 58 3e
       0.008070962 -0.04678274 0.061020855 0.21161695
0000a0 f4 e1 be 3d 2c 65 9a 3e ca a1 a4 3d 90 f7 a2 bd
       0.09320441 0.30155313 0.08038671 -0.07957375
0000b0 59 45 22 be e4 0b 03 3e 0e 05 9e 3d 31 24 55 3e
       -0.15846767 0.12797505 0.07715808 0.20814587
0000c0 8b d4 ae be 89 61 be bd e5 a5 c7 3c c7 12 89 bd
       -0.34146532 -0.09295947 0.024371097 -0.066930346
0000d0 29 c9 9d bd 0f f2 24 be 7c 9c 3b 3e 8e 81 c2 3c
       -0.07704384 -0.16107963 0.18321413 0.023743417
0000e0 42 c3 9c 3e 78 84 fd 3d 14 e7 83 be e2 ec 88 bd
       0.3061772 0.12378782 -0.25762236 -0.06685807
0000f0 89 b5 70 bd 21 68 b9 bb b3 ed 5f bc a7 97 1f 3e
       -0.058766875 -0.005658165 -0.013667512 0.15585195
000100 b4 0b e7 bc 92 95 e6 bd 5c 49 6a bd 15 d3 4c be
       -0.028203823 -0.11258997 -0.057198867 -0.20002396
000110 e5 b6 8c 3d 02 33 91 bc 99 d4 0a be c3 de a6 3d
       0.06870822 -0.017724518 -0.13557662 0.08147957
000120 b5 6c 57 be fd 67 9e 3e df 23 05 be ee c8 3f be
       -0.21037562 0.30938712 -0.13001965 -0.18728992
000130 ed 15 ae bd 3b fa 85 be 64 e4 f3 3d 94 7f d0 3d
       -0.08500276 -0.26167473 0.119087964 0.101805836
000140 ac 79 2c bc d1 09 85 3d d0 ef a3 3d b3 32 35 3e
       -0.010527056 0.06496013 0.08004725 0.17695121
000150 b9 e5 ba bd c3 fd 09 3d be ac ef bd 2c c4 6c bd
       -0.09125847 0.03368927 -0.1170287 -0.05780427
000160 af 5e 41 3e a3 c8 6a 3e fc ad 91 bd e3 c5 39 3b
       0.18883775 0.229281 -0.07113263 0.002834671
000170 82 a7 69 bb 88 a4 34 be 05 1c a2 be 19 0b 9a bb
       -0.003565282 -0.17640889 -0.31662002 -0.00470103
000180 71 cb ab bd 60 52 08 be a3 f1 29 3e 31 8d 9c 3b
       -0.08388413 -0.13312674 0.16596083 0.0047775735
000190 86 bc 15 bd f4 2e 73 bc 8a 71 90 3e a5 62 23 3e
       -0.036556743 -0.0148427375 0.28211623 0.15955599
0001a0 e6 d9 be 3d d6 34 df be 01 c2 0c 3d 7e 2c 7b 3a
       0.093189046 -0.43594998 0.034364704 0.000958152
0001b0 9e 0c 85 3e 43 50 a6 3d 70 15 fd bc 94 92 29 3d
       0.2598619 0.081207775 -0.030894011 0.041399553
0001c0 02 c5 37 bc 25 23 07 be e9 48 59 be 79 4d e9 bd
       -0.011216404 -0.13197 -0.2121922 -0.1139173
0001d0 ec 9f 81 bc 9d 4c 1d be 69 d6 0d 3e 29 e1 00 be
       -0.015823327 -0.15361257 0.13851322 -0.12585892
0001e0 35 7c 0f 3e c6 27 20 3e 02 37 87 bd 25 ae 06 be
       0.14012225 0.15640172 -0.06602289 -0.13152368
0001f0 0a 13 5b 3e d9 41 56 bd a3 3c 8d bd 08 7b bf bd
       0.21393982 -0.05230889 -0.06896331 -0.09349638
000200 58 29 3e 3d d8 b3 ef bc c6 28 02 3d 02 ac 24 be
       0.046426147 -0.02926056 0.031777166 -0.16081241
000210 d1 8f 2a 3e 03 fe 96 bd 83 7e 47 3d a0 6b 0c 3d
       0.16656424 -0.07372668 0.048704635 0.034282327
000220 14 26 c6 bd c6 c0 a7 be 1a c3 52 3e 1d 04 91 be
       -0.096752316 -0.32764262 0.20582238 -0.2832345
000230 3a 1d 7f 3e ec f2 15 3d 36 e7 07 be 8d 82 16 be
       0.24913493 0.03660862 -0.13271794 -0.14698239
000240 b4 e0 60 bd 0a 26 62 3e 4d d3 1d 3e c1 d7 2e 3d
       -0.054901794 0.22084823 0.15412636 0.042686228
000250 80 66 3e 3e cf 80 30 3e 59 fb d3 3d 98 46 27 3e
       0.18593788 0.17236637 0.10350675 0.16335523
000260 34 7c 81 3e e6 f7 b2 3d d7 f7 7d 3e 32 ce 8c bc
       0.25290072 0.08738689 0.24801575 -0.017188165
000270 d1 41 d4 bd c7 26 1a 3e f0 50 24 3e 46 63 b4 3e
       -0.10364116 0.15053855 0.160465 0.3523199
000280 ed e5 9a 3e bb 1e 40 3e 82 7f b1 3d 6c cc 12 be
       0.30253544 0.18761723 0.08666898 -0.14335793
000290 87 49 27 3e e6 c9 b8 3e 87 d2 1a be 79 f9 58 be
       0.16336642 0.36091536 -0.15119372 -0.21188916
0002a0 a5 ee d7 bd d2 ae d1 be 15 43 84 3e d8 b1 22 3c
       -0.10543565 -0.4095369 0.2583243 0.009930097
0002b0 ed d3 57 bd 12 4d 12 be 42 d2 91 3e 10 80 02 3d
       -0.052692343 -0.14287212 0.28480726 0.03186041
0002c0 b5 cd c2 3d 0b c2 e3 bd ab 64 2a 3e 51 53 72 3c
       0.09511892 -0.11120995 0.16639964 0.014790372
0002d0 46 53 86 be bb 97 9f 3d 87 4d 13 bd 3c 96 28 3d
       -0.26235408 0.07792612 -0.035962608 0.0411589
0002e0 cf 0f 69 bd f6 b8 c9 bc 24 87 05 be 9d ed f1 bd
       -0.056899842 -0.024624329 -0.13039833 -0.11812899
0002f0 fe f1 da ba 40 1d 1e be 39 91 47 be 44 68 a0 bb
       -0.0016704199 -0.15440845 -0.19488992 -0.004895242
000300 18 88 88 be 97 c2 80 3e 35 11 38 be 4b 42 d8 bd
       -0.2666633 0.2514846 -0.17975314 -0.105595194
000310 68 3d ca 3c 0c 9f 17 be ca 01 0a be 57 cb 86 b8
       0.024687484 -0.14806765 -0.13477245 -6.427493e-05
000320 fd 39 0f be fd 3a 95 3d c4 3f 79 3e f3 e5 ab bd
       -0.13986965 0.07286642 0.24340731 -0.08393469
000330 b5 d0 e4 3b 1d df f5 bd b3 5e e1 3d ea 58 bb 3c
       0.0069828876 -0.12005446 0.110043906 0.022869546
000340 f5 f9 72 3e 9d 1b b1 3d 40 b8 70 bd 31 a4 ec bb
       0.23728164 0.08647845 -0.058769464 -0.0072217216
000350 cd 88 24 3e 1d 47 bb 3d e2 78 46 3e fa 7c f2 3c
       0.1606781 0.09144423 0.1938205 0.02960061
000360 c4 c6 21 bd 60 31 8b 3e d9 26 1c be 13 26 a2 bd
       -0.0394962 0.27186108 -0.15249194 -0.07917418
000370 7e 91 31 3d 6a 30 2c 3e 46 ee 8b be 3d 60 8b 3d
       0.043351643 0.16815343 -0.27330226 0.06805465
000380 7c 2a 02 3e 44 a4 6c 3e 3f ca 14 3e 73 02 94 bd
       0.12711519 0.23109537 0.14530276 -0.0722703
000390 1f 11 6c bb 18 74 18 3d 9e e0 15 be 88 81 03 be
       -0.0036020947 0.03722009 -0.14636466 -0.12842381
0003a0 06 40 99 bd 7f c2 1a 3e 2b c4 4b 3d c5 f6 84 be
       -0.074829146 0.15113257 0.049747627 -0.2596952
0003b0 66 79 5c 3e 3b e2 40 3e 61 4d 9c 3c 02 07 fa 3d
       0.21530685 0.188363 0.019079866 0.12208368
0003c0 c0 af 2e be 05 37 38 3d ef 2f 40 3d 7d ef b3 3d
       -0.17059231 0.044974346 0.046920713 0.08785913
0003d0 fa 8d bb 3d e0 09 8c 3d 93 0c 72 3e 42 d8 37 be
       0.09157939 0.06837821 0.23637609 -0.1795359
0003e0 61 ee 85 3d fa 62 3a 3e d5 f0 ec bd 45 e5 cd bd
       0.06539608 0.18201819 -0.115693726 -0.10053495
0003f0 dc bd 48 be d7 54 a2 bd 93 1b d8 bc 3a 6a 56 3e
       -0.19603676 -0.07926338 -0.026380336 0.2093896

func_approx.network.4.bias f4 [30]
000000 aa 84 a1 3c d4 2b e7 bd dc 66 9f 3d af 3c 16 be
       0.01971658 -0.112876564 0.07783291 -0.14671586
000010 1e 90 21 be 66 c1 9e 3d 45 0a 02 3e a0 9b d9 bc
       -0.15777633 0.077517316 0.1269923 -0.026563466
000020 ec 04 e7 3d 61 4a c9 3d 6b dc 20 3e 9a 17 ad 3d
       0.11280236 0.0982864 0.15709083 0.08451767
000030 fc 53 44 bd 14 22 3d be 81 97 a6 ba 33 c2 4d bd
       -0.047931656 -0.18470031 -0.0012709947 -0.05023403
000040 d6 5d aa bc 62 a6 47 3e 84 67 82 bd 29 50 59 be
       -0.020796698 0.19497064 -0.063674 -0.21221985
000050 0d ab 46 3e bb 6e 2a bc ef d1 f7 bd d1 b0 f1 3c
       0.19401188 -0.010402377 -0.121005885 0.029503258
000060 b7 d1 a4 bd f2 9f 17 bd 2c be f5 3d 73 dd 03 be
       -0.080478124 -0.03701777 0.11999163 -0.12877445
000070 63 db 06 be 84 7f 6f bd
       -0.13169627 -0.058471218

func_approx.network.6.weight f4 [30, 30]
000000 bd 1d 84 3d 9b 5b 99 3e ef ee 39 be 80 dc 1c be
       0.064509846 0.29952702 -0.18157552 -0.15318489
000010 b9 b3 4d bd 1a ef 04 be a1 0a 25 bb 9f 9b 20 3e
       -0.050220225 -0.12981835 -0.0025183337 0.15684365
000020 08 1c 41 3e c3 6c 5d 3e ba 9b 55 bd e8 59 60 be
       0.1885835 0.2162352 -0.052150466 -0.21909297
000030 40 54 96 3e 47 6d e8 bb c5 aa ee bc 88 34 0f 3e
       0.29361153 -0.007093105 -0.029134164 0.13984883
000040 e6 4b 7e 3c df 10 07 3c 20 96 de bc c7 aa a7 bd
       0.015521025 0.0082437685 -0.027171195 -0.0818687
000050 57 42 27 3e 6f 5f 5f 3d e3 ec 04 be 46 00 9b 3d
       0.163339 0.054534372 -0.1298099 0.075684115
000060 31 79 79 3d 39 ac f9 3c 18 a7 27 3e 50 ca 57 bd
       0.060906593 0.03047763 0.16372335 -0.052683175
000070 0b 6f 01 3e 6a 81 20 3e 59 23 f5 3d f5 61 18 3d
       0.12640016 0.15674368 0.11969633 0.037202794
000080 50 55 15 be 4d 3b 88 bd 00 1f 34 3e ca 0e 84 3d
       -0.14583325 -0.06651936 0.1758995 0.06448133
000090 59 57 31 be b0 f5 41 3e f8 af 03 bd 6b 29 5a be
       -0.17318477 0.18941379 -0.03215024 -0.21304862
0000a0 cb 9c d3 bd d8 ab fe bc f7 73 1f be ee f0 89 bc
       -0.1033264 -0.0310878 -0.15571581 -0.016838517
0000b0 02 22 22 bd bf 62 68 bd 4c ae 8f 3b 0c c6 65 3e
       -0.039583214 -0.056734797 0.0043847915 0.2243883
0000c0 ca 93 dc 3d 77 8f d2 bd 17 7d e4 3c 31 2a b2 bd
       0.10770376 -0.1028127 0.027891679 -0.086994536
0000d0 1e 43 fa 3c 4d 61 ac bd e3 65 6a be 3f a2 b4 bd
       0.030549582 -0.08416996 -0.22890429 -0.088200085
0000e0 60 11 00 be 43 8c 6c bd 43 f2 e8 bd e9 d7 33 be
       -0.12506628 -0.05775095 -0.11374333 -0.17562832
0000f0 ac 0b 5c 3d 77 ae 63 be 85 f2 28 3d a9 54 2f 3e
       0.05372207 -0.22234522 0.04124691 0.17122139
000100 e3 66 67 3e 20 2f 15 3d f7 18 03 be cc f8 23 3e
       0.22597842 0.036421895 -0.12802492 0.16012877
000110 c1 5a 88 bd 03 16 2d bd ec 9f f9 bd 49 21 ac 3e
       -0.06657935 -0.04225732 -0.12188706 0.33619145
000120 33 a1 7a be 52 ff ca 3d ca 87 10 3e 09 a1 67 3a
       -0.24475555 0.0991198 0.141143 0.0008835947
000130 7f d6 1e 3e 9d 8b 61 3e 54 e6 80 bd 16 20 1a 3e
       0.15511511 0.22025914 -0.062939316 0.15051302
000140 92 ff db bc 47 de 00 bd 2b 0c de bd 4a fd 21 3d
       -0.026855264 -0.03146198 -0.108421646 0.039548196
000150 56 aa b2 be d8 be bd 3d 48 7a 0c bd 22 9e b2 3d
       -0.3489558 0.09264916 -0.034296304 0.08721568
000160 97 f9 ba bd 21 a9 e6 bd 0f a7 33 bd 43 97 00 be
       -0.09129637 -0.112627275 -0.04386049 -0.12557702
000170 fd 30 0a be d1 29 1f 3b f3 ed 1f 3e 2a 41 2a be
       -0.1349525 0.00242864 0.15618114 -0.1662642
000180 bf 13 f1 bc 92 f5 19 bd ab 60 17 bd 83 21 78 3d
       -0.029428361 -0.03758771 -0.036957424 0.060578834
000190 c1 36 29 3d e9 17 7e bd 09 da 2d bd 47 da 43 be
       0.041311983 -0.06203452 -0.042444263 -0.19126235
0001a0 a8 f6 22 3d fe 70 3c 3e f9 6b d3 3d 7e 82 e9 3d
       0.03978601 0.18402478 0.103233285 0.114018425
0001b0 95 b7 0a bc 6b 4c c9 3d 03 c1 2f bd 9e b2 37 3d
       -0.008466621 0.09829029 -0.04290868 0.044848077
0001c0 44 46 65 bd ee 52 0a be 78 e5 4f 3d 16 81 54 3e
       -0.055975214 -0.13508198 0.050755948 0.20752367
0001d0 ac 5e 0f be 0a 0e 45 be ac dc 92 3e 39 b6 bf 3d
       -0.14000958 -0.19243637 0.28683984 0.09360928
0001e0 f1 82 8e 3d 01 06 a0 bd 2b 20 57 3e ed ca 00 3e
       0.06958569 -0.07813645 0.21008365 0.1257741
0001f0 7a 12 11 be 73 82 79 bd 93 f4 56 3e fb 4f 50 be
       -0.14167204 -0.06091542 0.20991735 -0.2034301
000200 1a ea ca 3d 08 d7 68 bd 31 d5 3a 3e a2 61 87 3d
       0.099079326 -0.056845695 0.18245389 0.06610419
000210 49 5d 11 3e d0 9d a5 bd 78 7c 66 3e c7 e6 34 3d
       0.14195742 -0.08086741 0.22508419 0.0441654
000220 42 0d 65 3d 1f 71 a8 3d 2f 84 2a be 3a 75 19 be
       0.055920847 0.08224701 -0.16651987 -0.14986125
000230 ba 07 20 bb f4 9a 76 be b1 12 0e be 16 ea 54 3d
       -0.0024418668 -0.24082547 -0.13874318 0.051981054
000240 e4 a9 56 3e 9c 27 89 3c ce 49 2b be e9 40 a0 bd
       0.20963246 0.01674252 -0.16727373 -0.07824881
000250 63 21 27 3e 4a 44 63 3d 9c c0 64 3d 67 1c f0 bd
       0.1632133 0.055485047 0.05584775 -0.11724167
000260 6d 6d 44 3c ab ea 4b be c5 e4 0d be 3c e8 08 3e
       0.01198898 -0.19913737 -0.138568 0.1336984
000270 4d 99 a9 bd 4e bf d4 bd 97 c8 29 3e af ad d3 bd
       -0.08281193 -0.10388051 0.16580425 -0.10335862
000280 a8 57 27 3e 83 df 3b be 00 7a 89 bd d5 ec b2 bb
       0.16342032 -0.18346982 -0.06712723 -0.0054603615
000290 73 7b 08 be e6 83 40 3d 23 70 fe 3d 25 ad 54 be
       -0.13328342 0.04700079 0.12423732 -0.20769174
0002a0 48 d8 6d bd 06 6a c0 bd 8d be b3 3c 72 85 25 3e
       -0.05806759 -0.09395222 0.021941448 0.16164187
0002b0 d9 d8 9a 3d ea f8 02 be 70 c6 51 3e c4 20 ff 3d
       0.07560892 -0.12790266 0.20485854 0.124574214
0002c0 c7 15 3b be 84 ee 2f 3e 86 e8 b6 3e a2 f7 82 bd
       -0.18270026 0.1718083 0.35724276 -0.063948885
0002d0 0b 72 21 3e 68 10 5a 3e 24 4d 6f 3d d6 fc fc bc
       0.1576616 0.21295321 0.058423176 -0.03088228
0002e0 c1 94 f6 3d 96 96 55 3d 13 dd 62 3e e1 aa 0a be
       0.12040091 0.052145563 0.22154646 -0.13541748
0002f0 6b 05 ad 3d 9c 04 13 3e 71 7f ca bd 74 90 77 bd
       0.08448299 0.14357227 -0.09887589 -0.060440496
000300 cc 28 f7 bc d0 6d fd bd 94 ed 47 3e ca d7 f6 bd
       -0.03017082 -0.12374461 0.19524223 -0.12052877
000310 d0 61 33 be c4 35 ba 3d 49 bf 0f 3e e1 47 e5 ba
       -0.17517781 0.09092286 0.14037813 -0.0017492735
000320 bf 82 0a 3e d8 2b b2 3c d7 3b e0 bd 72 a7 2e bd
       0.13526438 0.021749422 -0.109489135 -0.042640157
000330 a4 18 f4 3d 01 c3 3a be 7f b8 59 be 1f 6c fe bc
       0.11918762 -0.1823845 -0.21261786 -0.031057416
000340 17 43 be 3d 7c ee e9 3d 88 ec 5b bd 82 5f 61 be
       0.0929014 0.114224404 -0.05369237 -0.2200909
000350 8d 69 76 be aa 89 4e 3e e3 3d f3 3c 65 14 fd bc
       -0.24063702 0.20169702 0.029692596 -0.030893514
000360 40 d7 e8 be 0a 24 61 3d 87 11 2d bd 18 b6 38 be
       -0.45476723 0.05496601 -0.042253044 -0.18038213
000370 b5 74 67 3c fe dd 6e 3d 4c a8 68 3d 99 7d 42 3d
       0.014126946 0.058317177 0.056801125 0.04748306
000380 f2 5a d0 3d cc 8d a5 3c 17 ce c3 bd 7a 60 28 3e
       0.101735964 0.020209216 -0.09560793 0.16443053
000390 e4 3e 09 bc 6b e5 8e 3d 6c 24 15 bd 33 9e 2c 3e
       -0.008376811 0.06977352 -0.036411688 0.16857223
0003a0 47 7e 72 3e 9f 86 27 3e bc 1d 91 bd 24 da df bc
       0.23680983 0.16359948 -0.070857495 -0.027325697
0003b0 52 ad 2a 3e af d7 99 bd 24 cc 30 be 39 9a 51 3e
       0.16667679 -0.075118415 -0.17265373 0.20468988
0003c0 74 00 db bd b6 27 46 be 2f b7 2b 3e ab 9b 80 bc
       -0.10693446 -0.19351086 0.16769098 -0.015699228
0003d0 71 d1 49 bd f5 81 4c be dd 9a fd 3d 5b 5f 92 bd
       -0.049272005 -0.1997145 0.123830535 -0.07147094
0003e0 55 55 88 bd 79 3f 4b 3b 8b 5f 40 be 1e d0 4f 3e
       -0.06656901 0.0031013174 -0.18786447 0.20294234
0003f0 cf 53 64 be da 3d 02 be f1 ef 6f bb fd af 2a 3d
       -0.22297595 -0.12718907 -0.0036611522 0.04167174

func_approx.network.6.bias f4 [30]
000000 88 5a c4 3d 75 68 0b be b1 9d f3 3d a2 0d 22 3e
       0.0958758 -0.13614066 0.118953116 0.15825513
000010 b9 ba cb bd 96 9b c4 3d b3 41 09 be bf 5d bd ba
       -0.09947724 0.09599988 -0.13403969 -0.0014447494
000020 bc d8 90 bd ce f3 38 3d e8 93 c0 bc e7 2b 2c 3e
       -0.07072589 0.045154385 -0.023508027 0.16813622
000030 03 0e 7d 3d 05 71 d9 bd 91 22 4b be 24 77 31 bd
       0.06178094 -0.1061726 -0.19837405 -0.043326512
000040 21 52 45 bd c1 9b b8 bd d9 19 92 bd 11 f3 d9 bd
       -0.048174027 -0.09014083 -0.07133836 -0.10642064
000050 33 85 27 bd a3 5f 10 3d c8 30 45 bd 5e a4 58 3b
       -0.040898513 0.035247456 -0.048142225 0.0033056955
000060 27 10 39 3c e1 5d 2a 3e 23 52 9b 3c c1 9a b1 bd
       0.011295355 0.16637374 0.018960064 -0.08672095
000070 74 f2 0d 3e c0 2b 14 3c
       0.1386202 0.009043634

func_approx.network.8.weight f4 [1, 30]
000000 99 6e f9 3d 2d 7d d7 bd a8 8d 42 be 9e 26 bc 3d
       0.12179298 -0.10521922 -0.1899935 0.09187053
000010 b1 49 16 3e 1c 05 0b 3e 81 2e 86 3d ff 52 fe bd
       0.14676549 0.13576168 0.06551839 -0.12418174
000020 32 dd 5b be 33 94 ad bd e5 8f e4 3d 44 eb 32 3e
       -0.21471098 -0.084755324 0.11160258 0.17472559
000030 80 73 87 3d c1 33 80 3e 78 e4 33 bd ee b9 27 3d
       0.06613827 0.25039485 -0.043919057 0.0409488
000040 9a f4 86 be 17 0e f4 bc 8c eb 0c be ad 7c ee bd
       -0.2635849 -0.029791875 -0.13761729 -0.11644874
000050 20 85 7e be 0a 05 d5 bd 39 6a 34 3e c5 84 79 3d
       -0.2485547 -0.10401352 0.17618646 0.060917635
000060 51 da 24 3c 58 9e 34 3e 88 00 a2 3d 29 64 2a be
       0.010061816 0.17638528 0.079102576 -0.1663977
000070 ff de 2f 3e 13 53 8b be
       0.1717491 -0.27211818

exp_avg f4 [30, 2]
000000 b5 34 e2 b3 8a aa 8c 34 6a b5 ca 35 07 58 21 35
       -1.05335324e-07 2.6201116e-07 1.5102971e-06 6.010527e-07
000010 1d d9 ee 35 9f 9a 4e 35 5a 4c c1 b4 15 2f 25 35
       1.779557e-06 7.6965983e-07 -3.6004604e-07 6.1535803e-07
000020 42 5f be b5 b9 f5 ee 34 1d a6 b5 34 0a 02 3f 34
       -1.4183827e-06 4.450974e-07 3.383474e-07 1.7789003e-07
000030 62 49 a9 b4 f7 67 f8 34 80 ed 46 b4 52 18 4c 34
       -3.1532096e-07 4.6269244e-07 -1.8526589e-07 1.9007828e-07
000040 9c f6 d1 b3 20 22 3f b4 98 2f 6a b4 03 9a 02 34
       -9.777179e-08 -1.7800676e-07 -2.1810263e-07 1.2163223e-07
000050 a2 2d 89 34 4e 27 3f 35 bb c8 00 b5 85 00 c2 34
       2.555144e-07 7.121024e-07 -4.7975817e-07 3.6135694e-07
000060 73 5f 11 b5 26 16 62 34 fa e6 38 b3 bf e9 3c 35
       -5.4155606e-07 2.1055948e-07 -4.305091e-08 7.0375603e-07
000070 8c c5 59 34 4d 53 c4 b4 a1 8e 8b 34 c8 55 4c b5
       2.0281567e-07 -3.6568454e-07 2.5994544e-07 -7.612075e-07
000080 bd 2c c5 35 ab db 79 b4 af f5 43 b5 3e 9a 5d 33
       1.4690664e-06 -2.3269847e-07 -7.300068e-07 5.1595855e-08
000090 62 db 98 b4 23 ce eb b4 3d 15 1e 34 c4 ce 00 b2
       -2.8471828e-07 -4.3922145e-07 1.4722623e-07 -7.497594e-09
0000a0 77 fb ff b4 56 39 ff 34 f9 5e 03 b4 35 81 db b5
       -4.7680416e-07 4.753917e-07 -1.2234877e-07 -1.6354376e-06
0000b0 41 31 cc 34 2f 13 4f 35 89 ae 4b 34 bf 4b 6a 33
       3.8033798e-07 7.7141425e-07 1.8969344e-07 5.455126e-08
0000c0 60 99 1b 34 7f 67 86 34 bb 68 e9 33 15 37 58 34
       1.4491297e-07 2.5034748e-07 1.08689584e-07 2.0136606e-07
0000d0 54 68 25 33 a7 7c c3 b4 83 4b 46 35 98 4f 8a b5
       3.8511942e-08 -3.6412277e-07 7.387063e-07 -1.0304966e-06
0000e0 e2 4e c8 34 93 09 b1 b4 72 ee a8 33 24 09 5a b4
       3.7310298e-07 -3.2975785e-07 7.8664826e-08 -2.0306157e-07

exp_avg_sq f4 [30, 2]
000000 d4 f6 47 28 e3 96 9a 29 4e 83 20 2c 4d 60 cb 2a
       1.1100241e-14 6.8651485e-14 2.2810256e-12 3.6126866e-13
000010 c4 d8 5e 2c d9 be 26 2b 71 f5 11 2a a5 2b d5 2a
       3.1668427e-12 5.92399e-13 1.2963742e-13 3.7866685e-13
000020 c3 91 0d 2c aa 0e 5f 2a 04 e5 00 2a 3a 8a 0e 29
       2.011822e-12 1.9811466e-13 1.144814e-13 3.1650226e-14
000030 63 e4 df 29 e4 09 71 2a 40 95 1a 29 9c b7 22 29
       9.942808e-14 2.1408531e-13 3.4324323e-14 3.6130482e-14
000040 df 36 2c 28 66 b6 0e 29 15 3c 56 29 64 46 85 28
       9.559816e-15 3.168854e-14 4.756966e-14 1.4796493e-14
000050 bd 05 93 29 45 bc 0e 2b 34 93 81 2a 1d 05 13 2a
       6.529107e-14 5.070981e-13 2.3017146e-13 1.3057997e-13
000060 f1 1a a5 2a 47 ae 47 29 0d a3 05 27 80 68 0b 2b
       2.9328582e-13 4.4338038e-14 1.8545848e-15 4.9527743e-13
000070 90 41 39 29 41 91 16 2a fa 29 98 29 0e 19 23 2b
       4.113512e-14 1.3373071e-13 6.757438e-14 5.7944003e-13
000080 2b de 17 2c a2 e9 73 29 46 00 16 2b fa 0e 40 27
       2.1581719e-12 5.4159483e-14 5.3291085e-13 2.6653471e-15
000090 fe 8a b6 29 79 35 59 2a 63 3d c3 28 e5 e7 83 24
       8.106535e-14 1.9292024e-13 2.1675971e-14 5.720504e-17
0000a0 44 f8 7f 2a 1d 75 7e 2a d9 db 86 28 ba 36 3c 2c
       2.2734684e-13 2.2600364e-13 1.4972332e-14 2.6746786e-12
0000b0 ef de 22 2a 47 80 27 2b da 0f 22 29 73 b2 56 27
       1.4465836e-13 5.950834e-13 3.5984975e-14 2.9795203e-15
0000c0 1c 2c bd 28 d3 23 8d 29 1a dc 54 28 0f a3 36 29
       2.1002345e-14 6.2678724e-14 1.1816091e-14 4.055355e-14
0000d0 03 ee d5 26 7f 47 15 2a 4d 99 19 2b da 73 95 2b
       1.4844357e-15 1.3258664e-13 5.4569267e-13 1.0619242e-12
0000e0 63 bd 1c 2a 41 dd f4 29 6c 03 df 27 3e b5 39 29
       1.392129e-13 1.0874158e-13 6.1898644e-15 4.1235454e-14

max_exp_avg_sq f4 [30, 2]
000000 96 86 64 36 67 7b 62 37 e4 14 e1 35 eb dd ac 36
       3.4052987e-06 1.3499382e-05 1.6769886e-06 5.151834e-06
000010 56 24 e5 35 f3 f8 10 37 a9 fb 10 36 00 87 de 36
       1.7072405e-06 8.641032e-06 2.1604158e-06 6.6318316e-06
000020 6a 34 ab 35 a1 d7 06 37 4b c9 4e 36 dc e9 2c 37
       1.2755747e-06 8.037227e-06 3.081356e-06 1.03064485e-05
000030 59 08 b1 35 19 17 aa 36 43 12 67 35 fd 94 6a 36
       1.3189957e-06 5.0690837e-06 8.608078e-07 3.495544e-06
000040 10 33 17 36 35 24 37 37 3f e5 e3 35 cf 38 b0 36
       2.2530476e-06 1.091608e-05 1.6979537e-06 5.251822e-06
000050 9c 38 a6 36 96 9a 87 37 a3 d3 66 37 e3 da bf 38
       4.9537757e-06 1.6165239e-05 1.3758344e-05 9.1483606e-05
000060 87 86 29 36 4b 26 0f 37 24 12 bc 36 8a d3 d0 37
       2.5261268e-06 8.53238e-06 5.6049485e-06 2.4894038e-05
000070 5a a4 fa 36 43 3f 11 37 61 d4 6b 35 74 6d 29 36
       7.4697136e-06 8.657403e-06 8.7853374e-07 2.5246673e-06
000080 c5 f8 b9 34 d5 79 c3 35 5c 2f 77 36 db ad 75 37
       3.463994e-07 1.456409e-06 3.6833435e-06 1.4643617e-05
000090 2b ce 9f 35 45 56 7f 36 2b 78 52 35 76 a3 5f 36
       1.1906426e-06 3.8048177e-06 7.8405964e-07 3.3324736e-06
0000a0 b2 17 4f 36 f0 db 2d 37 ff 7b f0 36 e5 d3 00 38
       3.0859196e-06 1.0362812e-05 7.1669924e-06 3.071492e-05
0000b0 50 97 96 36 c5 a7 e7 37 6c c2 aa 36 69 d0 0e 38
       4.4879635e-06 2.761547e-05 5.0890285e-06 3.4049535e-05
0000c0 76 71 d9 36 0e 17 63 38 80 91 52 36 ac ea 5b 37
       6.4803125e-06 5.414249e-05 3.137713e-06 1.3108056e-05
0000d0 fd cc ea 35 ab 6c fb 36 f9 80 7b 36 36 ae 31 37
       1.7494018e-06 7.4930335e-06 3.7476987e-06 1.0590584e-05
0000e0 9a 62 0a 37 f3 81 33 38 eb ff ca 36 48 e6 b9 37
       8.248398e-06 4.279795e-05 6.049862e-06 2.2160952e-05

exp_avg f4 [30]
000000 ad 99 86 34 ca 25 57 35 66 ac 22 b5 8b 86 78 b3
       2.507126e-07 8.014873e-07 -6.0600576e-07 -5.7864366e-08
000010 05 53 c0 b4 93 de 06 b5 35 d4 a9 33 3f ce 1c 34
       -3.5823192e-07 -5.024278e-07 7.908276e-08 1.4603664e-07
000020 5a 53 15 34 db ea 42 b4 ee c0 ee b4 4d f6 9d 34
       1.390703e-07 -1.8153098e-07 -4.447133e-07 2.9422736e-07
000030 ef 9c 59 b4 4f 9a fe b2 c8 72 b0 34 90 0e a0 34
       -2.0266792e-07 -2.9639663e-08 3.286607e-07 2.9812918e-07
000040 6e d1 3a b3 40 fd ef b4 15 0c 5d b3 e7 d3 5a 33
       -4.3496975e-08 -4.4701483e-07 -5.146656e-08 5.0949804e-08
000050 e2 31 58 33 d7 99 17 b5 27 a3 7b b4 20 78 23 34
       5.0336787e-08 -5.647575e-07 -2.3435551e-07 1.5224259e-07
000060 14 7c 74 b4 3f 70 0e b5 c4 57 a9 b4 8e 4e 3c 35
       -2.276941e-07 -5.306246e-07 -3.154256e-07 7.014977e-07
000070 ac ed 52 b3 ef 8d bc 33
       -4.9110596e-08 8.78025e-08

exp_avg_sq f4 [30]
000000 f7 9f 8d 29 fa d0 34 2b 68 bf ce 2a f1 a7 71 27
       6.289407e-14 6.423886e-13 3.6725766e-13 3.353651e-15
000010 f6 7d 10 2a bc 1e 8e 2a 71 63 e1 27 0a 1b c0 28
       1.2833471e-13 2.5245593e-13 6.255786e-15 2.1328008e-14
000020 59 68 ae 28 53 6c 14 29 8c b2 5e 2a 8d fc c2 29
       1.9363134e-14 3.2956558e-14 1.9779507e-13 8.659141e-14
000030 8f 12 39 29 c9 1c 7e 26 cc 41 f3 29 9d 26 c8 29
       4.109435e-14 8.8162964e-16 1.0802782e-13 8.8884825e-14
000040 be 77 0a 27 9f 04 61 2a 86 97 40 27 3c 51 3b 27
       1.921626e-15 1.9985618e-13 2.6727494e-15 2.59955e-15
000050 ed ba 37 27 e6 8e b3 2a 04 64 77 29 70 23 d1 28
       2.5497684e-15 3.1895943e-13 5.4931767e-14 2.321903e-14
000060 20 87 69 29 09 84 9e 2a bb 0b e0 29 fc 84 0a 2b
       5.1853595e-14 2.8158056e-13 9.949633e-14 4.9212e-13
000070 71 32 2f 27 c6 7d 0b 28
       2.4313473e-15 7.743323e-15

max_exp_avg_sq f4 [30]
000000 0a 49 27 37 7d d8 a9 36 c2 bd b7 36 b5 79 af 36
       9.970981e-06 5.061795e-06 5.4759157e-06 5.229575e-06
000010 44 77 45 36 49 fb 31 37 72 e5 81 36 39 a6 1d 36
       2.942471e-06 1.0608529e-05 3.8712105e-06 2.3491577e-06
000020 d3 05 cf 36 d6 e0 95 36 e1 fc 80 37 57 9e 1d 38
       6.1697588e-06 4.4667204e-06 1.5376545e-05 3.7579182e-05
000030 9a 8b 0f 37 16 a5 82 37 c2 06 c1 37 17 06 33 36
       8.555968e-06 1.5574082e-05 2.301054e-05 2.6676623e-06
000040 8a 2a 7b 35 31 62 f6 36 4a d1 d6 35 fc 5b ff 35
       9.356669e-07 7.3428023e-06 1.6005154e-06 1.9025751e-06
000050 bb 45 cf 36 1f aa 80 37 d4 d5 48 37 fd a2 69 37
       6.1771984e-06 1.5338008e-05 1.1970715e-05 1.3925831e-05
000060 93 65 93 37 de fc 27 37 ef ca 96 36 ca 6d 19 37
       1.7571065e-05 1.0012851e-05 4.493973e-06 9.145073e-06
000070 f0 e7 84 37 a3 fe 49 37
       1.584363e-05 1.2039821e-05

exp_avg f4 [30, 30]
000000 ce 61 a3 b4 de 75 e6 b4 e4 fb 99 b4 ce 6d 0b b4
       -3.0432278e-07 -4.2926598e-07 -2.8681745e-07 -1.298533e-07
000010 63 80 49 b3 c5 52 4e b5 b1 99 33 b4 30 f2 0a b4
       -4.6915726e-08 -7.6861426e-07 -1.6726587e-07 -1.2940359e-07
000020 72 eb bc 34 22 85 12 b4 e1 ea 7b b5 81 7f 18 b4
       3.5189038e-07 -1.3645743e-07 -9.384658e-07 -1.4202489e-07
000030 13 ae a5 34 5b dc 5d b4 3f 12 f9 34 3a b5 3b 34
       3.08603e-07 -2.0662394e-07 4.639314e-07 1.7481662e-07
000040 b7 9b 8c b4 ab 88 ad 34 27 d8 bf 34 aa c3 d5 b4
       -2.619033e-07 3.23232e-07 3.5733794e-07 -3.9816706e-07
000050 7c a4 cf b4 67 7a 5a 35 33 5a 48 b3 68 a3 40 b4
       -3.8676433e-07 8.138945e-07 -4.6648164e-08 -1.794084e-07
000060 00 f5 85 33 a0 2d 7d b5 66 26 55 33 11 78 72 34
       6.2378604e-08 -9.431624e-07 4.962785e-08 2.2581686e-07
000070 13 46 6c b3 0e 0b 76 32 8f 5d 22 32 92 10 98 b3
       -5.5011764e-08 1.4321598e-08 9.450914e-09 -7.081066e-08
000080 97 3c e5 b3 aa b8 25 33 8d eb 13 34 04 c6 54 31
       -1.0674665e-07 3.8585007e-08 1.3776135e-07 3.096262e-09
000090 b9 54 b9 33 33 f5 f6 32 20 c5 1b b2 4e f0 33 30
       8.630145e-08 2.8749673e-08 -9.0670085e-09 6.5461314e-10
0000a0 6a aa b9 b2 31 12 72 31 cc f3 86 32 19 1e eb 32
       -2.161433e-08 3.5225975e-09 1.5710519e-08 2.7371287e-08
0000b0 d7 1c a8 b2 11 fd a7 b3 20 0c f1 b3 b0 90 1c af
       -1.9570889e-08 -7.822576e-08 -1.12246425e-07 -1.423952e-10
0000c0 4c 02 16 32 fa 69 38 b3 15 d2 4a 34 25 4e 2b 32
       8.731671e-09 -4.2937224e-08 1.8889143e-07 9.971278e-09
0000d0 bc f2 dc 33 94 c2 51 32 95 6d 44 33 e5 cf 79 b1
       1.02887014e-07 1.2209643e-08 4.573447e-08 -3.6352443e-09
0000e0 48 4b 7c b2 03 49 77 b4 29 6e c7 b2 fa 7a 93 b2
       -1.46854475e-08 -2.3030229e-07 -2.3216744e-08 -1.7168976e-08
0000f0 c3 a9 b9 b2 a3 b9 3c 34 0a fd b0 b4 a9 03 7a 32
       -2.1614033e-08 1.7576399e-07 -3.2966665e-07 1.45527475e-08
000100 d9 07 49 34 40 ce 55 b4 ba a3 8c b2 8a fc 17 b4
       1.8722439e-07 -1.9912204e-07 -1.63726e-08 -1.4154844e-07
000110 03 5b 95 b0 04 c9 b1 b3 83 f4 6f b4 5b da 27 33
       -1.0867044e-09 -8.278769e-08 -2.2347562e-07 3.908131e-08
000120 a9 4f d6 b3 2d a3 c0 b3 fc 1e b7 33 72 72 02 b4
       -9.979642e-08 -8.970378e-08 8.5272376e-08 -1.2148828e-07
000130 1c 82 0a b5 9a 81 bf b3 c3 f4 9f 33 93 af 47 b4
       -5.159834e-07 -8.917705e-08 7.4485364e-08 -1.8597193e-07
000140 7e cc bc b3 44 fb 59 34 86 67 d6 34 14 f3 c9 33
       -8.791629e-08 2.030111e-07 3.993593e-07 9.4040075e-08
000150 95 50 ce 33 84 4b 81 b4 d1 b0 ff b3 34 59 eb b3
       9.60728e-08 -2.4083067e-07 -1.19065255e-07 -1.0959266e-07
000160 b5 84 8e b4 ec 30 79 b4 77 34 3c 34 fb a1 80 34
       -2.6546118e-07 -2.320773e-07 1.7527951e-07 2.3959714e-07
000170 8b ed 8d b2 f7 0f 06 34 28 8b 3e 34 8c c7 04 35
       -1.6522582e-08 1.248553e-07 1.7745754e-07 4.946421e-07
000180 fb d7 12 34 26 ce a3 33 8c 78 4a b4 12 db 32 32
       1.3675883e-07 7.627777e-08 -1.885657e-07 1.04107745e-08
000190 50 56 18 35 8f 51 3d 33 39 4f 59 b4 97 d4 67 33
       5.6750014e-07 4.407917e-08 -2.0238521e-07 5.3977228e-08
0001a0 03 04 21 b4 f0 b0 dd b3 f0 d6 25 b3 a6 58 60 b4
       -1.4995753e-07 -1.0323299e-07 -3.861254e-08 -2.0893876e-07
0001b0 ad 7e f5 b3 fd c9 14 b3 e7 0c 82 34 26 bd 9e b4
       -1.1431744e-07 -3.4642643e-08 2.4223775e-07 -2.9567417e-07
0001c0 cb eb bc 33 ea ed 0b 34 a9 4d 77 33 07 1d 0d 35
       8.797323e-08 1.3031936e-07 5.75798e-08 5.2568834e-07
0001d0 27 ba 0d b3 82 0d 42 b4 55 7f 08 b3 53 b9 99 b3
       -3.2998425e-08 -1.8072572e-07 -3.1780775e-08 -7.158328e-08
0001e0 ae 23 38 34 fd f3 51 b5 b9 04 7a b5 3a 88 2a 34
       1.7149316e-07 -7.8213617e-07 -9.313913e-07 1.5882043e-07
0001f0 2d bf 1f 35 66 c2 91 b3 26 a7 b3 34 cb 2e d5 33
       5.9510313e-07 -6.7874495e-08 3.3462965e-07 9.927097e-08
000200 f5 1d 1a 34 c0 cb f2 32 a4 47 2a b2 a9 e6 0e 34
       1.4353266e-07 2.8265163e-08 -9.9115915e-09 1.3308694e-07
000210 c1 68 f7 34 76 84 1e 34 48 86 8c b4 78 f5 d5 b4
       4.6083554e-07 1.4763086e-07 -2.6174735e-07 -3.9852944e-07
000220 35 3d 57 b5 96 08 aa 34 47 10 79 b3 fe 60 31 b3
       -8.018281e-07 3.1671215e-07 -5.7989634e-08 -4.1299238e-08
000230 54 a1 41 35 d5 f1 55 b4 67 86 01 35 af 85 59 b4
       7.2132866e-07 -1.9925149e-07 4.8251826e-07 -2.0258334e-07
000240 36 07 85 34 5b 8d 2d b4 f0 c8 80 b4 98 cd 54 b5
       2.4778427e-07 -1.6163305e-07 -2.398806e-07 -7.927533e-07
000250 e6 92 c8 b4 4a 64 dd b4 e1 43 0e b4 82 76 2d b4
       -3.7359786e-07 -4.1237428e-07 -1.3249475e-07 -1.6154993e-07
000260 4f 95 65 34 7d a2 a2 b3 0e f1 55 b4 c5 07 42 b4
       2.1381605e-07 -7.573269e-08 -1.9924866e-07 -1.8070484e-07
000270 ba e0 21 b4 92 3b 84 b3 68 c5 79 34 3b a0 c9 b3
       -1.5076048e-07 -6.157565e-08 2.3261748e-07 -9.3889376e-08
000280 81 dd 5a b4 bc ea 6c b4 df 95 2b 34 8b f5 11 b4
       -2.0383415e-07 -2.2064609e-07 1.5980139e-07 -1.3593505e-07
000290 38 99 11 34 4f 05 65 34 94 8d a1 34 31 6e 67 34
       1.3559918e-07 2.1329218e-07 3.0091599e-07 2.1553639e-07
0002a0 5f 83 4a 34 09 eb 32 b4 5a 43 19 b4 1c 48 1b 34
       1.8860509e-07 -1.6663047e-07 -1.4273738e-07 1.4461733e-07
0002b0 df 76 ae b4 da b9 42 b4 13 09 39 b4 4f aa 94 b4
       -3.2496516e-07 -1.813527e-07 -1.7232769e-07 -2.7691064e-07
0002c0 a1 0d 85 34 57 10 21 34 27 08 5e 33 c5 a7 79 33
       2.4783097e-07 1.5000238e-07 5.1695817e-08 5.8127416e-08
0002d0 bf 70 99 34 12 ed 08 35 09 c2 ae 33 1f 0e e5 34
       2.8580504e-07 5.100893e-07 8.137801e-08 4.2664848e-07
0002e0 0a f9 7a b4 55 c2 00 34 2f 17 08 b4 ea a0 00 b4
       -2.3373664e-07 1.1991627e-07 -1.2674421e-07 -1.1979469e-07
0002f0 9e 41 8b b4 ab 0e 65 b2 63 47 33 33 7b 42 7d 34
       -2.593851e-07 -1.33328895e-08 4.174161e-08 2.3586647e-07
000300 ab 7a 01 b5 e6 b1 62 b1 66 36 88 b3 8d e8 4a b3
       -4.823475e-07 -3.2988452e-09 -6.3428885e-08 -4.7243294e-08
000310 13 47 93 34 ee 8f d5 b4 27 55 32 b4 63 38 90 b3
       2.7432597e-07 -3.9779064e-07 -1.660852e-07 -6.715779e-08
000320 3d 17 80 b3 db eb a1 32 03 33 8f b2 58 ff e3 34
       -5.9646915e-08 1.8850121e-08 -1.6670588e-08 4.2467832e-07
000330 a5 55 50 34 5b c6 10 31 57 4c 96 b4 83 46 23 34
       1.9402667e-07 2.106751e-09 -2.7995222e-07 1.520621e-07
000340 83 06 08 b5 b4 10 ec b4 3a 0e 34 b4 41 aa 1c 35
       -5.0673424e-07 -4.397058e-07 -1.6768982e-07 5.836228e-07
000350 21 90 f2 b4 51 18 0a b3 88 f7 30 34 3c 44 b4 b4
       -4.518088e-07 -3.2152744e-08 1.6481329e-07 -3.357726e-07
000360 47 b3 37 b4 27 07 b6 b4 0f 66 6d b4 e0 3a 42 b4
       -1.7108424e-07 -3.3905346e-07 -2.2109474e-07 -1.8089077e-07
000370 8c cd e5 b4 bb 03 d6 b3 9b 54 0a b5 ae 97 9e b4
       -4.280413e-07 -9.96583e-08 -5.1532123e-07 -2.9540155e-07
000380 44 32 97 34 61 f4 a9 33 54 0a 22 b5 32 23 f4 b4
       2.8162515e-07 7.914128e-08 -6.036473e-07 -4.547415e-07
000390 b5 06 28 34 34 00 73 b4 de 1b 37 b4 12 a7 df 34
       1.5648659e-07 -2.2631212e-07 -1.7053341e-07 4.1658546e-07
0003a0 d2 26 8f 34 96 37 e0 34 d1 43 ac b4 b0 cf 82 b4
       2.666407e-07 4.1763695e-07 -3.208684e-07 -2.43655e-07
0003b0 14 d1 51 34 81 22 1b b4 88 50 34 b4 02 80 cf b3
       1.9540704e-07 -1.4448052e-07 -1.6793103e-07 -9.662473e-08
0003c0 99 25 1e b1 b8 97 0d 33 79 49 21 b4 ba 2e de 33
       -2.3013398e-09 3.2967108e-08 -1.5021023e-07 1.034618e-07
0003d0 1f 52 f7 b1 97 a1 56 b4 31 90 1e b4 8d f3 06 b4
       -7.197982e-09 -1.9989089e-07 -1.4767353e-07 -1.2568326e-07
0003e0 a0 87 4e 33 52 d4 f7 b3 6c 97 89 b4 80 f6 80 33
       4.8086463e-08 -1.15404546e-07 -2.5628412e-07 6.0053026e-08
0003f0 62 6c bf b2 22 4d 3e b4 03 ba 83 34 a1 9b 01 34
       -2.2284613e-08 -1.772319e-07 2.4535993e-07 1.2070679e-07

exp_avg_sq f4 [30, 30]
000000 d8 8c d0 29 cc 79 4f 2a 93 3f b9 29 f7 e7 97 28
       9.261488e-14 1.842755e-13 8.226679e-14 1.6864966e-14
000010 67 a8 1e 27 a1 49 26 2b 5e 02 fc 28 94 d6 96 28
       2.2018196e-15 5.907723e-13 2.7978647e-14 1.6746404e-14
000020 7a 6b 0b 2a 88 b8 a7 28 d6 e6 77 2b a3 b2 b5 28
       1.2382968e-13 1.8620752e-14 8.8072377e-13 2.0172508e-14
000030 54 76 d6 29 a4 46 40 29 fe 54 72 2a f7 a2 09 29
       9.524036e-14 4.2693835e-14 2.1523405e-13 3.056146e-14
000040 60 76 9a 29 36 46 eb 29 af c4 0f 2a 55 7f 32 2a
       6.8595086e-14 1.0448276e-13 1.276919e-13 1.5853753e-13
000050 e9 6b 28 2a ec 74 3a 2b 96 df 1c 27 b0 f9 10 29
       1.4958836e-13 6.6242736e-13 2.1770555e-15 3.2190992e-14
000060 2e 34 8c 27 82 63 7a 2b 43 90 31 27 8b a8 65 29
       3.891438e-15 8.8955937e-13 2.4641889e-15 5.0994402e-14
000070 cd 45 5a 27 68 9c 6f 25 a1 6c d4 24 08 e8 b4 27
       3.0291417e-15 2.0782938e-16 9.212437e-17 5.0211605e-15
000080 f5 63 4d 28 7a 90 d7 26 5d f7 aa 28 85 33 48 23
       1.1401461e-14 1.4957782e-15 1.8981068e-14 1.0852931e-17
000090 1c 3c 06 28 d4 da 6f 26 a6 b4 c6 24 fb 01 ab 21
       7.451528e-15 8.321635e-16 8.617484e-17 1.1587935e-18
0000a0 13 fd 06 26 51 55 8e 23 ec 58 92 25 62 5e 58 26
       4.683357e-16 1.5431804e-17 2.5387219e-16 7.5067967e-16
0000b0 f7 26 dd 25 2e 7b dc 27 63 0c 63 28 f3 0a e4 22
       3.8363792e-16 6.119582e-15 1.2603717e-14 6.1811117e-18
0000c0 c8 0f b2 24 b9 ff 04 27 31 b4 20 29 31 db ea 24
       7.722193e-17 1.8457307e-15 3.5683428e-14 1.0185265e-16
0000d0 52 bc 3e 28 bf 27 35 25 b7 d6 16 27 71 76 86 23
       1.0587954e-14 1.5712714e-16 2.0933079e-15 1.4578471e-17
0000e0 92 af 7c 25 55 df 6e 29 bc 3a 1e 26 0e 54 ae 25
       2.1917001e-16 5.3040326e-14 5.489686e-16 3.0241146e-16
0000f0 52 dd 06 26 82 23 0b 29 27 ba f4 29 da 1f 75 25
       4.6790534e-16 3.0894998e-14 1.0868069e-13 2.1261154e-16
000100 0f de 1d 29 1c 93 32 29 8c 33 9b 25 76 7b b4 28
       3.5053608e-14 3.9651537e-14 2.6923143e-16 2.0037557e-14
000110 a9 66 03 22 bd f4 f6 27 45 ed 60 29 97 44 dc 26
       1.7808158e-18 6.854406e-15 4.994379e-14 1.5284158e-15
000120 dc 6c 33 28 a1 fa 10 28 13 03 03 28 66 f2 84 28
       9.960101e-15 8.047952e-15 7.2726274e-15 1.4760067e-14
000130 35 e1 95 2a 62 44 0f 28 15 ec c7 27 c7 c4 1b 29
       2.6623986e-13 7.952923e-15 5.5489556e-15 3.458759e-14
000140 50 42 0b 28 a9 9e 39 29 7b 91 33 2a 95 51 1f 28
       7.730429e-15 4.1215868e-14 1.5948867e-13 8.843963e-15
000150 16 52 26 28 db 9b 82 29 8b 6a 7f 28 d6 5f 58 28
       9.232651e-15 5.8001963e-14 1.4178446e-14 1.201119e-14
000160 6c af 9e 29 db 90 72 29 34 61 0a 29 70 48 81 29
       7.0470404e-14 5.3860436e-14 3.0726466e-14 5.741317e-14
000170 68 e1 9f 25 f1 76 8c 28 7a d4 0d 29 6e bd 89 2a
       2.7734844e-16 1.5594705e-14 3.1492583e-14 2.4467532e-13
000180 69 79 a8 28 06 b9 d1 27 1d 27 20 29 68 76 fa 24
       1.87044e-14 5.8209756e-15 3.5561062e-14 1.08620805e-16
000190 dd 4d b5 2a 1b 30 0c 27 8e 7e 38 29 4b f9 51 27
       3.2206087e-13 1.945498e-15 4.0965976e-14 2.9139719e-15
0001a0 50 8d ca 28 e2 fc 3f 28 22 4f d7 26 a3 a1 44 29
       2.248779e-14 1.0657465e-14 1.4940071e-15 4.366094e-14
0001b0 20 73 6b 28 14 0a ad 26 dc 22 84 29 bd dc c4 29
       1.3070084e-14 1.2007018e-15 5.868025e-14 8.7424405e-14
0001c0 3e 74 0b 28 a5 06 99 28 6f fa 6e 27 90 92 9b 2a
       7.741256e-15 1.6989294e-14 3.3164895e-15 2.763523e-13
0001d0 f3 4e 9d 26 59 19 13 29 1f 8f 92 26 e4 d6 b8 27
       1.0915463e-15 3.2662543e-14 1.0169578e-15 5.1303244e-15
0001e0 2d 74 04 29 98 30 2c 2b c0 2d 74 2b d3 34 e3 28
       2.9410654e-14 6.117411e-13 8.6749705e-13 2.5224972e-14
0001f0 82 5e c7 2a 8a 06 a6 27 21 27 fc 29 62 89 31 28
       3.541508e-13 4.6081345e-15 1.1197836e-13 9.855264e-15
000200 06 91 b9 28 37 51 66 26 96 ab e5 24 27 8a 9f 28
       2.060202e-14 7.9907347e-16 9.96036e-17 1.771246e-14
000210 cf 1b 6f 2a ab 50 c4 28 ed 46 9a 29 cd d2 32 2a
       2.1237112e-13 2.1795355e-14 6.8512775e-14 1.5882712e-13
000220 3f f8 34 2b 49 df e1 29 af 56 72 27 a9 e9 f5 26
       6.4293357e-13 1.0030741e-13 3.3631238e-15 1.7063624e-15
000230 03 75 12 2b ce cd 32 29 cb 11 83 2a 6d d4 38 29
       5.2032006e-13 3.9702447e-14 2.328262e-13 4.1040457e-14
000240 69 41 8a 29 ef 54 eb 28 7e 93 81 29 8e e5 30 2b
       6.139778e-14 2.6127075e-14 5.7543366e-14 6.284633e-13
000250 8c 26 1d 2a 19 77 3f 2a d8 20 9e 28 87 20 eb 28
       1.3957775e-13 1.7005528e-13 1.7555767e-14 2.6104348e-14
000260 eb e5 4d 29 19 b0 ce 27 da cb 32 29 28 12 13 29
       4.5718566e-14 5.736741e-15 3.9700753e-14 3.2656305e-14
000270 77 bb cc 28 24 ac 88 27 8f b2 73 29 1a cf 1e 28
       2.272985e-14 3.793422e-15 5.4111714e-14 8.81567e-15
000280 ce 20 3b 29 c0 42 5b 29 fa 07 e6 28 32 72 a6 28
       4.1550795e-14 4.8685665e-14 2.5538589e-14 1.8479227e-14
000290 b5 9f a5 28 da e2 4c 29 7f e7 cb 29 b6 39 51 29
       1.8387942e-14 4.5493862e-14 9.055169e-14 4.645738e-14
0002a0 6c 34 20 29 ab 1a fa 28 c0 85 b7 28 f3 64 bc 28
       3.5572606e-14 2.7767141e-14 2.0375086e-14 2.0915973e-14
0002b0 12 cc ed 29 e2 1f 14 29 ac c0 05 29 6e ac ac 29
       1.0560315e-13 3.2890255e-14 2.969905e-14 7.668246e-14
0002c0 41 4f 8a 29 83 ac ca 28 bb b5 40 27 7d 95 73 27
       6.1421795e-14 2.250132e-14 2.6743869e-15 3.3804062e-15
0002d0 2a f0 b7 29 f0 79 92 2a 51 b6 ee 27 c6 f2 4c 2a
       8.1684944e-14 2.601942e-13 6.6255938e-15 1.8203069e-13
0002e0 7f 0d 76 29 cb 87 81 28 c4 b6 90 28 65 49 81 28
       5.463468e-14 1.4380768e-14 1.6066474e-14 1.4353707e-14
0002f0 37 81 97 29 21 8e 4d 25 cd 57 fb 26 4f 8d 7a 29
       6.728162e-14 1.7829071e-16 1.7440422e-15 5.5633717e-14
000300 13 fa 82 2a c3 d5 5f 23 b1 ff 90 27 c3 dd 20 27
       2.3266163e-13 1.213412e-17 4.024525e-15 2.2324678e-15
000310 ce 76 a9 29 65 29 32 2a 6c 75 f8 28 25 8f a2 27
       7.525717e-14 1.5823937e-13 2.7584455e-14 4.511923e-15
000320 99 4c 80 27 99 a4 ce 25 1d ae a0 25 a8 0f 4b 2a
       3.5610184e-15 3.584684e-16 2.787356e-16 1.8035454e-13
000330 0b 8c 29 29 38 cd dc 22 a2 7b b0 29 5d 49 d0 28
       3.7647006e-14 5.9848403e-18 7.837417e-14 2.3124455e-14
000340 3b 8e 90 2a 57 af 59 2a 94 49 fd 28 da c0 bf 2a
       2.567823e-13 1.9334305e-13 2.8120552e-14 3.4062233e-13
000350 17 d5 65 2a da 15 95 26 fd ac f4 28 58 e1 fd 29
       2.0413216e-13 1.0344875e-15 2.7164464e-14 1.1274548e-13
000360 49 d4 03 29 10 6f 01 2a ae 27 5c 29 06 5e 13 29
       2.927197e-14 1.1496034e-13 4.888423e-14 3.272211e-14
000370 69 4a 4e 2a 17 ec 32 28 7c 7f 95 2a 05 80 c4 29
       1.8322292e-13 9.932179e-15 2.6556177e-13 8.7263564e-14
000380 e2 99 b2 29 4d b3 e1 27 34 22 cd 2a 29 d4 68 2a
       7.9314823e-14 6.2644443e-15 3.6439048e-13 2.0679347e-13
000390 50 92 dc 28 50 ac 66 29 3a fb 02 29 b5 65 43 2a
       2.448836e-14 5.1219716e-14 2.9083703e-14 1.7354766e-13
0003a0 db 19 a0 29 89 62 44 2a 10 d7 e7 29 af b0 85 29
       7.1099126e-14 1.7442483e-13 1.0295768e-13 5.937036e-14
0003b0 78 f8 2b 29 a8 07 bc 28 b6 07 fe 28 09 37 28 28
       3.818514e-14 2.0875513e-14 2.8203009e-14 9.337807e-15
0003c0 d4 e1 d7 22 18 db 9c 26 cd 3d cb 28 ed da 40 28
       5.851497e-18 1.088406e-15 2.256433e-14 1.0705613e-14
0003d0 cb 12 72 24 85 f4 33 29 16 70 c4 28 74 4d 8e 28
       5.2491303e-17 3.995807e-14 2.180898e-14 1.5798757e-14
0003e0 c6 ac 26 27 e4 ed 6f 28 28 e8 93 29 92 f5 81 27
       2.3130788e-15 1.33187495e-14 6.568384e-14 3.607094e-15
0003f0 8b 84 0f 26 bb 77 0d 29 65 90 87 29 a3 3c 83 28
       4.979272e-16 3.141214e-14 6.020253e-14 1.4570219e-14
