paper/Burgers/runs/space_grid20model.pt (torch, 15689 bytes, 9 tensors)

func_approx.network.0.weight f4 [30, 2]
0.24418598 -0.6446461 -0.9976438 -0.89304614 -1.6238267 -0.16885772 0.16816646 -0.82490474
1.0502727 -0.12385203 0.068944424 -0.8419632 0.6458503 -0.19045219 0.280227 -0.053042833
0.24319969 0.58049744 0.060254697 -0.122003034 0.20447169 -0.8821264 0.17366828 -0.37304592
0.6283386 0.85273767 0.2791073 -0.22328196 -0.46044973 0.53755414 -0.6232011 0.3409218
-1.4539278 -0.12619777 0.49055052 0.70126295 -0.07607914 0.47644714 -0.06533574 -0.37536612
1.2204182 -0.53343654 -0.53736466 0.75346714 0.8571941 -0.37534815 -0.40374398 -0.74790794
0.44256186 -0.1008381 -0.14702496 -0.78101134 -0.39167976 0.33317137 -1.2002336 0.50955296
-0.49504924 0.8988993 -0.55704784 0.8783285
00000000: e40b 7a3e 8707 25bf 9665 7fbf ac9e 64bf
00000010: 8ed9 cfbf 0ae9 2cbe d433 2c3e f52c 53bf
00000020: 566f 863f 22a6 fdbd bc32 8d3d e68a 57bf
00000030: 7256 253f e605 43be ea79 8f3e 7143 59bd
00000040: 5709 793e 7b9b 143f a1cd 763d badc f9bd
00000050: 0761 513e 09d3 61bf 19d6 313e e0ff bebe
00000060: ccda 203f 044d 5a3f 27e7 8e3e 07a4 64be
00000070: 11c0 ebbe 269d 093f 1b8a 1fbf 4d8d ae3e
00000080: 4e1a babf fd39 01be 7029 fb3e f885 333f
00000090: 61cf 9bbd e1f0 f33e bfce 85bd fd2f c0be
000000a0: aa36 9c3f 4c8f 08bf bb90 09bf 39e3 403f
000000b0: 1371 5b3f a22d c0be 88b7 cebe e576 3fbf
000000c0: 7897 e23e 3584 cebd b68d 16be 5cf0 47bf
000000d0: 408a c8be 7095 aa3e 41a1 99bf 1072 023f
000000e0: 1877 fdbe 441e 663f b09a 0ebf 23da 603f

func_approx.network.0.bias f4 [30]
-0.10002169 0.12813094 0.0124511905 -0.2924834 0.05335848 0.35827458 0.30878195 0.52863413
0.042012997 0.24442756 0.5082384 -0.26246578 0.006013684 0.3040813 -0.2619121 0.07351163
0.10791938 0.061855003 -0.058106273 0.5657575 0.23915261 -0.56087375 -0.4421875 -0.21350665
-0.40952092 0.55485016 0.40700576 0.116315246 0.5867548 0.44922718
00000000: 2cd8 ccbd c234 033e 1400 4c3c 62c0 95be
00000010: 6c8e 5a3d c46f b73e ab18 9e3e 9154 073f
00000020: d215 2c3d 384b 7a3e e91b 023f ea61 86be
00000030: 700e c53b 8bb0 9b3e 5819 86be 448d 963d
00000040: d604 dd3d ac5b 7d3d d800 6ebd 7cd5 103f
00000050: 6ce4 743e 6c95 0fbf 6666 e2be 7da1 5abe
00000060: baac d1be a90a 0e3f 0f63 d03e b036 ee3d
00000070: 9035 163f 1b01 e63e

func_approx.network.2.weight f4 [30, 30]
0.19509423 0.08052597 0.087980606 0.029049434 0.18913104 0.056138817 0.1389318 -0.1250169
-0.02546818 -0.06777922 0.2478442 0.04000978 -0.04898993 0.24933167 -0.3182632 -0.22615941
-0.20062354 -0.13650253 -0.28638062 -0.05277576 0.28665558 -0.2759427 -0.120387815 0.106961526
-0.084443524 0.16686304 -0.124556765 -0.014409452 0.21219645 -0.0711955 -0.18323508 0.04959284
0.022041358 0.028630806 0.046228092 0.0688223 -0.08066312 0.10968422 -0.024950104 0.055316847
-0.13700588 -0.13476689 0.08153335 0.009622251 0.18112735 0.16356376 0.16122837 0.09889903
0.27726883 -0.15840699 -0.19262452 0.20215829 -0.08943338 0.12429404 0.025426995 -0.11684896
0.16238163 0.024004199 0.16595328 0.19595093 0.2324796 0.27629378 0.16112594 -0.0007763497
0.08869491 0.103351146 -0.07771554 -0.037830394 -0.23925744 0.11957126 -0.12970486 0.20005886
-0.32883632 -0.06028032 0.075805426 -0.085921705 0.30660287 -0.0072383774 -0.11391494 0.0266164
-0.15147586 -0.067293815 0.11006719 0.11730776 0.19750452 0.14591222 0.062031355 0.1288412
-0.1293775 -0.13650012 -0.116787486 0.24953787 0.37218574 -0.15055545 -0.23948301 -0.16524762
0.02546141 -0.1336843 -0.116905905 -0.016974837 -0.310267 0.09128327 0.14569229 -0.251337
0.15543984 0.12497927 0.23716368 -0.14690033 0.2822832 0.09433014 -0.36740798 0.27085403
-0.1702643 0.046895944 -0.1650844 -0.037777793 -0.022071408 0.37581825 -0.02024045 0.20772791
-0.19845504 1.0265942 1.399111 -0.13648424 -1.5332 0.23770583 -0.48639986 -0.3646223
-0.47979358 0.032383718 -0.09779186 -0.25331888 -0.6832084 -0.271831 0.06014137 0.62392825
1.2084152 -0.6668683 -0.046596978 -0.06330415 -0.48738644 0.30690122 -0.8514309 0.66975325
-0.32616112 0.21003869 0.32549086 1.0458375 0.44438985 0.25825882 -0.175934 -0.119295724
-0.16975532 0.11233763 -0.14320247 -0.1414698 0.03857242 0.07785741 -0.07461804 0.06969381
0.020354688 -0.13055527 0.088990144 0.08459485 -0.17883049 -0.15924443 -0.04691142 -0.126715
-0.11202814 0.01973812 0.019471794 0.03443033 -0.10133275 -0.11999838 -0.13162181 0.1330294
-0.1751076 0.053643595 0.20230904 0.13273191 -0.03382408 0.0403105 -0.009856269 -0.24478056
-0.06509274 -0.24994662 -0.18419737 0.05626896 0.27069542 -0.0049881586 -0.22967984 -0.26306334
0.27948567 -0.0704991 -0.03110815 0.13833345 -0.043535866 0.24615104 0.24643761 -0.14473192
0.00016820466 -0.06923846 -0.0031191206 -0.31767553 -0.04006249 0.098285966 0.21749765 0.23524258
0.175668 0.2661757 0.12618336 0.21379438 0.24780801 0.3506447 -0.093807586 0.16043909
0.14856592 0.09150226 -0.23154712 0.11488682 -0.06564469 -0.021449428 0.04515143 -0.1315414
0.110274665 -0.11272252 0.16169466 -0.25438792 -0.13204046 0.06798111 -0.078855 0.15528525
0.116575554 0.32276744 -0.062420268 -0.07068407 -0.09739131 -0.11725487 -0.28788024 -0.22613136
-0.16674216 0.18694143 0.19334319 -0.17531483 -0.12887274 0.16885221 0.09524427 -0.0030563134
-0.08685518 0.06416272 0.071813166 -0.0638915 0.024413846 0.11571174 0.1528115 -0.15087958
00000000: c8c6 473e cdea a43d 2d2f b43d 14f9 ed3c
00000010: 91ab 413e d1f1 653d 2344 0e3e 6e04 00be
00000020: a5a2 d0bc d5cf 8abd dfca 7d3e 4ce1 233d
00000030: aaa9 48bd cd50 7f3e 65f3 a2be 5596 67be
00000040: 4270 4dbe 52c7 0bbe 7ba0 92be 652b 58bd
00000050: 85c4 923e 5d48 8dbe e38d f6bd a50e db3d
00000060: baf0 acbd 25de 2a3e 9e17 ffbd 9f15 6cbc
00000070: 074a 593e f2ce 91bd faa1 3bbe dd21 4b3d
00000080: 1490 b43c 278b ea3c ab59 3d3d b5f2 8c3d
00000090: b532 a5bd 1fa2 e03d 2964 ccbc eb93 623d
000000a0: 454b 0cbe 5500 0abe f5fa a63d a5a6 1d3c
000000b0: 7379 393e 427d 273e 0d19 253e 938b ca3d
000000c0: 2ef6 8d3e 7135 22be 5d3f 45be 9502 4f3e
000000d0: d928 b7bd e08d fe3d 464c d03c 824e efbd
000000e0: 5f47 263e 74a4 c43c a8ef 293e 5ca7 483e
000000f0: 220f 6e3e 6176 8d3e 33fe 243e f283 4bba
00000100: ada5 b53d c4a9 d33d 5329 9fbd 0bf4 1abd
00000110: e7ff 74be c7e1 f43d 5ad1 04be 3bdc 4c3e
00000120: 3c5d a8be 7fe8 76bd e03f 9b3d b8f7 afbd
00000130: 0dfb 9c3e e92f edbb 3c4c e9bd a30a da3c
00000140: 7d1c 1bbe 57d1 89bd e86a e13d 0d3f f03d
00000150: a03e 4a3e 036a 153e 9714 7e3d f3ee 033e
00000160: 897b 04be b0c6 0bbe 472e efbd db86 7f3e
00000170: 218f be3e 352b 1abe 093b 75be ac36 29be
00000180: 7294 d03c 8ae4 08be 5d6c efbd d00e 8bbc
00000190: 51db 9ebe b9f2 ba3d 5c30 153e 3eaf 80be
000001a0: 9f2b 1f3e 22f5 ff3d 09db 723e 0a6d 16be
000001b0: 6c87 903e 2930 c13d e61c bcbe 61ad 8a3e
000001c0: c459 2ebe f615 403d e30b 29be e3bc 1abd
000001d0: 19cf b4bc 406b c03e 4dcf a5bc a0b6 543e
000001e0: cc37 4bbe 7067 833f 1216 b33f 86c2 0bbe
000001f0: e63f c4bf 2869 733e 6709 f9be c6af babe
00000200: 81a7 f5be caa4 043d 1947 c8bd 03b3 81be
00000210: bfe6 2ebf 6f2d 8bbe cc56 763d c3b9 1f3f
00000220: 59ad 9a3f e2b7 2abf 79dc 3ebd 9ba5 81bd
00000230: b78a f9be 2822 9d3e 60f7 59bf f374 2b3f
00000240: 97fe a6be 6214 573e bda6 a63e 01de 853f
00000250: 1187 e33e 803a 843e 0b28 34be 5151 f4bd
00000260: 57d4 2dbe 4511 e63d aba3 12be 76dd 10be
00000270: 1dfe 1d3d b573 9f3d 58d1 98bd a1bb 8e3d
00000280: e0be a63c 48b0 05be 7740 b63d 1140 ad3d
00000290: 571f 37be f910 23be 3026 40bd 94c1 01be
000002a0: 026f e5bd d6b1 a13c 5083 9f3c d106 0d3d
000002b0: 8b87 cfbd b6c1 f5bd dec7 06be dc38 083e
000002c0: 684f 33be 63b9 5b3d 1a2a 4f3e e0ea 073e
000002d0: 1e8b 0abd 9f1c 253d 307c 21bc c1a7 7abe
000002e0: 584f 85bd 02f2 7fbe 3c9e 3cbe 487a 663d
000002f0: 9798 8a3e b573 a3bb 3131 6bbe 3db0 86be
00000300: bf18 8f3e d561 90bd 85d6 febc 49a7 0d3e
00000310: aa52 32bd 050f 7c3e 245a 7c3e 9b34 14be
00000320: 1860 3039 e5cc 8dbd 296a 4cbb 5ea6 a2be
00000330: 9118 24bd 274a c93d b4b7 5e3e 6ee3 703e
00000340: 50e2 333e 2e48 883e 3636 013e eaec 5a3e
00000350: 62c1 7d3e b487 b33e 311e c0bd 254a 243e
00000360: aa21 183e 8965 bb3d b01a 6dbe c849 eb3d
00000370: b970 86bd b6b6 afbc b5f0 383d cab2 06be
00000380: afd7 e13d 11db e6bd 4993 253e 223f 82be
00000390: 9d35 07be ae39 8b3d bb7e a1bd 1903 1f3e
000003a0: 2abf ee3d c641 a53e 65ac 7fbd cfc2 90bd
000003b0: 1875 c7bd 5223 f0bd 0a65 93be fb8e 67be
000003c0: 75be 2abe 936d 3f3e c2fb 453e bb85 33be
000003d0: 37f7 03be 98e7 2c3e 6e0f c33d 6e4c 48bb
000003e0: 21e1 b1bd bf67 833d c812 933d 8cd9 82bd
000003f0: 8cff c73c 47fa ec3d 9e7a 1c3e 2d80 1abe

func_approx.network.2.bias f4 [30]
0.18106674 0.054347087 -0.10237793 -0.18304043 -0.27478698 -0.18861343 0.09907973 -0.08671175
0.0782074 -0.09383155 -0.08494399 0.035429567 -0.070348434 -0.03248667 0.04321726 -0.20815817
-0.14024542 0.19086275 0.012818948 0.06702602 0.021253705 0.003635712 0.12161517 -0.11107291
-0.15324825 0.023612238 0.016337167 0.026327427 -0.0051954845 0.02119365
00000000: 8f69 393e 0d9b 5e3d 85ab d1bd f36e 3bbe
00000010: e1b0 8cbe e123 41be 50ea ca3d ee95 b1bd
00000020: 342b a03d c12a c0bd 1df7 adbd 981e 113d
00000030: d712 90bd be10 05bd 9504 313d 6a27 55be
00000040: 7f9c 0fbe 8671 433e 9106 523c f044 893d
00000050: 401c ae3c 2045 6e3b 6011 f93d 327a e3bd
00000060: 1ced 1cbe 746e c13c 86d5 853c 9eac d73c
00000070: e23e aabb 4e9e ad3c

func_approx.network.4.weight f4 [30, 30]
0.14419709 0.15786567 -0.11512422 -0.055643983 -0.03742752 -0.052381366 0.030657211 -0.09886265
0.14934598 -0.08798482 0.13626195 0.12220008 0.17437698 0.10813669 0.115521245 -0.11517583
0.14309433 -0.23440565 0.016440583 0.18412966 0.031181956 0.0518433 -0.10904123 -0.17096037
0.12139238 0.11994686 -0.13337727 0.014510348 -0.03457858 -0.074295916 0.12195892 -0.318007
0.30264643 -0.1667234 -0.0012342882 0.058097586 0.015519931 -0.05475268 0.06536664 0.21607485
0.09750629 0.29351372 0.08844627 -0.0868149 -0.14212993 0.11914848 0.07497935 0.20160131
-0.3381735 -0.10431419 0.030567763 -0.0627107 -0.08203871 -0.16679707 0.18961528 0.031094333
0.30286774 0.12293792 -0.2631723 -0.061971795 -0.06477466 -0.00523639 -0.0135519905 0.15906301
-0.031043341 -0.113154426 -0.05786682 -0.19981793 0.06923189 -0.018540632 -0.13527441 0.08185757
-0.2108463 0.31111184 -0.13437195 -0.19006066 -0.08459202 -0.27180132 0.123252 0.096767895
-0.010913821 0.06466174 0.08098872 0.17732517 -0.08933554 0.031904206 -0.117020085 -0.057905894
0.18838525 0.22933951 -0.075600706 0.0077915736 -0.0028345357 -0.17520371 -0.35757858 -0.006516209
-0.07979524 -0.12955657 0.16533497 -0.0055450806 -0.048262212 -0.021495901 0.27261275 0.1649287
0.0955948 -0.4358714 0.033663046 0.007319039 0.26218364 0.092106126 -0.029871384 0.042085517
-0.008716272 -0.12823606 -0.22282495 -0.10761797 -0.020047104 -0.15894589 0.14226604 -0.12247081
0.14920358 0.15810105 -0.067571715 -0.13071217 0.19893585 -0.052598894 -0.067632675 -0.0975384
0.051504035 -0.017577345 0.04501659 -0.16017695 0.17373602 -0.082722604 0.06005627 0.034677118
-0.09492254 -0.3317461 0.19802754 -0.29743135 0.24971628 0.037616804 -0.13457403 -0.15078871
-0.042038936 0.22252503 0.15654814 0.039835647 0.17421941 0.17113082 0.11514109 0.1605226
0.2503393 0.078153536 0.28618437 -0.015821742 -0.101362064 0.1446776 0.16448455 0.36720446
0.31844157 0.18893394 0.08950759 -0.1543155 0.17530112 0.36576176 -0.15019141 -0.20997117
-0.118594095 -0.42262146 0.25534686 0.010876929 -0.058257885 -0.14668699 0.29577085 0.035129372
0.09812419 -0.109697804 0.15134923 0.0066197743 -0.2694851 0.078018926 -0.036368195 0.037117552
-0.04894516 -0.021967348 -0.13357392 -0.11879584 -0.0034954294 -0.16005424 -0.19741791 -0.0014843881
-0.26310787 0.25421342 -0.18660642 -0.11488507 0.02533731 -0.13911654 -0.13486488 0.017922442
-0.14596976 0.07375096 0.24904941 -0.08497742 0.008143244 -0.12636997 0.10881698 0.025029806
0.23709124 0.08144275 -0.058205504 -0.008544921 0.15955766 0.091671154 0.19531916 0.028482247
-0.041275263 0.2719207 -0.1542353 -0.07665614 0.0435989 0.16991238 -0.27555248 0.06757312
0.12932877 0.2379226 0.14520581 -0.07538585 -0.00453537 0.029097866 -0.14569835 -0.13012668
-0.0758078 0.15244369 0.042485204 -0.2602024 0.21694188 0.1881436 0.018436784 0.12227876
-0.17155865 0.04566614 0.042587526 0.08428035 0.09928423 0.06973331 0.23671049 -0.18257797
0.06638158 0.17794219 -0.116322175 -0.10070721 -0.19144036 -0.07916774 -0.031889837 0.20288622
00000000: 67a8 133e 8aa7 213e 3fc6 ebbd f2ea 63bd
00000010: 994d 19bd d88d 56bd d524 fb3c 8078 cabd
00000020: 27ee 183e 6331 b4bd 4188 0b3e 0944 fa3d
00000030: e18f 323e c576 dd3d 6796 ec3d 4ee1 ebbd
00000040: 5287 123e 0908 70be 67ae 863c 7c8c 3c3e
00000050: 4d71 ff3c a459 543d 0251 dfbd 3c10 2fbe
00000060: 919c f83d b3a6 f53d 0d94 08be d0bc 6d3c
00000070: 45a2 0dbd 7528 98bd 99c5 f93d d0d1 a2be
00000080: 79f4 9a3e 8ab9 2abe d7c7 a1ba bcf7 6d3d
00000090: 4f47 7e3c 5944 60bd f2de 853d ba42 5d3e
000000a0: 61b1 c73d 6e47 963e 5123 b53d 03cc b1bd
000000b0: 828a 11be 1e04 f43d c68e 993d 9370 4e3e
000000c0: 1425 adbe aea2 d5bd 3f69 fa3c 786e 80bd
000000d0: e903 a8bd dacc 2abe 822a 423e 8bb9 fe3c
000000e0: 7b11 9b3e e0c6 fb3d 85be 86be 23d6 7dbd
000000f0: 94a8 84bd 0696 abbb 2b09 5ebc 6ae1 223e
00000100: 9b4e febc 82bd e7bd c205 6dbd 129d 4cbe
00000110: 73c9 8d3d 86e2 97bc 6085 0abe f1a4 a73d
00000120: 18e8 57be 0d4a 9f3e cd98 09be 439f 42be
00000130: 953e adbd 8b29 8bbe 8b6b fc3d 3f2e c63d
00000140: e2cf 32bc 606d 843d 6add a53d bb94 353e
00000150: 8df5 b6bd fcad 023d 3aa8 efbd bb2e 6dbd
00000160: 10e8 403e fad7 6a3e 8bd4 9abd 7550 ff3b
00000170: 9ec3 39bb 9a68 33be 8a14 b7be ec85 d5bb
00000180: b06b a3bd 7aaa 04be 924d 293e 82b3 b5bb
00000190: 99ae 45bd 2c18 b0bc e693 8b3e 12e3 283e
000001a0: 35c7 c33d 892a dfbe 43e2 093d 8dd4 ef3b
000001b0: ef3c 863e 23a2 bc3d d5b4 f4bc dd61 2c3d
000001c0: b2ce 0ebc 5050 03be 392c 64be cf66 dcbd
000001d0: d339 a4bc b6c2 22be 30ae 113e fad1 fabd
000001e0: d3c8 183e 3ee5 213e 0a63 8abd 69d9 05be
000001f0: d7b5 4b3e f071 57bd 0083 8abd 36c2 c7bd
00000200: e5f5 523d 5dfe 8fbc 5163 383d 6d05 24be
00000210: dbe7 313e 786a a9bd 90fd 753d 9809 0e3d
00000220: c066 c2bd a0da a9be bbc7 4a3e ec48 98be
00000230: a0b5 7f3e 1414 1a3d c6cd 09be 5b68 1abe
00000240: 0531 2cbd 9add 633e 284e 203e b42a 233d
00000250: 9366 323e eb3c 2f3e 17cf eb3d 0960 243e
00000260: 792c 803e f60e a03d c286 923e 999c 81bc
00000270: ea96 cfbd 5d26 143e a36e 283e 3902 bc3e
00000280: c60a a33e e677 413e c14f b73d e204 1ebe
00000290: 2382 333e 2045 bb3e c7cb 19be af02 57be
000002a0: 76e1 f2bd d761 d8be d3bc 823e 2635 323c
000002b0: d29f 6ebd 1d35 16be 476f 973e d1e3 0f3d
000002c0: 56f5 c83d 3ea9 e0bd 4bfb 1a3e b1ea d83b
000002d0: f3f9 89be 63c8 9f3d d1f6 14bd 9308 183d
000002e0: b87a 48bd def4 b3bc 9ac7 08be 3c4b f3bd
000002f0: 9313 65bb 42e5 23be ec27 4abe cd8f c2ba
00000300: 13b6 86be 4328 823e c115 3fbe dd48 ebbd
00000310: 3190 cf3c 9174 0ebe 051a 0abe 16d2 923c
00000320: 1979 15be be0a 973d cf06 7f3e a408 aebd
00000330: 3e6b 053c 2167 01be 70db de3d 4f0b cd3c
00000340: 0cc8 723e 75cb a63d e568 6ebd ffff 0bbc
00000350: 1563 233e 16be bb3d bf01 483e 9a53 e93c
00000360: 4010 29bd 3139 8b3e dcef 1dbe e5fd 9cbd
00000370: c394 323d 83fd 2d3e 3715 8dbe c763 8a3d
00000380: c36e 043e fba1 733e d5b0 143e e663 9abd
00000390: 719d 94bb a65e ee3c f331 15be ee3f 05be
000003a0: 1f41 9bbd 331a 1c3e f704 2e3d 4039 85be
000003b0: 0326 5e3e b7a8 403e bd08 973c 496d fa3d
000003c0: 12ad 2fbe 6b0c 3b3d 4270 2e3d 2d9b ac3d
000003d0: 8855 cb3d 56d0 8e3d 3c64 723e b8f5 3abe
000003e0: 11f3 873d 7a36 363e 523a eebd 953f cebd
000003f0: f108 44be b222 a2bd eb9e 02bd 68c1 4f3e

func_approx.network.4.bias f4 [30]
0.020361999 -0.10630854 0.07722921 -0.14780831 -0.15393956 0.08081399 0.12560053 -0.026777955
0.11432093 0.09675762 0.15806474 0.08790684 -0.047361474 -0.18472627 -0.00013904028 -0.04799954
-0.022182055 0.19633195 -0.06527242 -0.22443868 0.19483776 -0.012444074 -0.12230159 0.029814035
-0.07699559 -0.029963963 0.11985056 -0.12939101 -0.13062829 -0.055910293
00000000: 35ce a63c 4bb8 d9bd 592a 9e3d 105b 17be
00000010: 55a2 1dbe ce81 a53d 6d9d 003e 715d dbbc
00000020: 1721 ea3d dc28 c63d b9db 213e 8008 b43d
00000030: 1bfe 41bd e228 3dbe 57cb 11b9 2a9b 44bd
00000040: 24b7 b5bc 3e0b 493e 8cad 85bd 41d3 65be
00000050: 8d83 473e 3be2 4bbc 4279 fabd 903c f43c
00000060: ddaf 9dbd fc76 f5bc 3674 f53d 147f 04be
00000070: 6cc3 05be 3102 65bd

func_approx.network.6.weight f4 [30, 30]
0.065300055 0.30296746 -0.18516074 -0.1550436 -0.051199038 -0.12307731 -0.0033518078 0.15610977
0.18752684 0.21641828 -0.053720735 -0.2197685 0.29726362 -0.0028212548 -0.032411862 0.13930151
0.01719917 0.00722166 -0.023955014 -0.082941175 0.16404974 0.059664607 -0.12787227 0.07641628
0.06633822 0.028225072 0.16344692 -0.055979423 0.1242741 0.15627205 0.118504666 0.038320597
-0.14925164 -0.07291515 0.17775626 0.06074896 -0.17729457 0.19177333 -0.029951518 -0.20877372
-0.1039577 -0.030409697 -0.15437311 -0.019513523 -0.037756376 -0.058536034 0.0030213734 0.22268474
0.10523496 -0.102969386 0.027192498 -0.09327203 0.029560635 -0.07969441 -0.22817661 -0.08837116
-0.123922795 -0.061543424 -0.11382137 -0.17464554 0.04850764 -0.19749989 0.035858467 0.15866317
0.21906814 0.041222163 -0.1279203 0.1655686 -0.06677065 -0.041995116 -0.12965122 0.30850744
-0.2437204 0.10358572 0.13532129 -0.006629534 0.16025487 0.2067485 -0.056443494 0.15370026
-0.029492728 -0.026363151 -0.10432201 0.04548188 -0.3292113 0.08626019 -0.027288558 0.0859731
-0.10016715 -0.11193215 -0.042235926 -0.12888302 -0.1290433 0.0080004735 0.15827471 -0.16727754
-0.027125373 -0.040217794 -0.038735174 0.057013452 0.043025367 -0.06033236 -0.04490641 -0.19057128
0.03995979 0.18730128 0.1022492 0.11826699 -0.008803834 0.098875046 -0.043893218 0.046160713
-0.056825697 -0.1418156 0.042511716 0.2114922 -0.14496376 -0.18521668 0.2894329 0.09307669
0.07356528 -0.078174785 0.20901775 0.13607521 -0.14319499 -0.07148908 0.21038257 -0.20925617
0.097662725 -0.057203896 0.18532507 0.06830682 0.14333473 -0.07908985 0.22691491 0.051761784
0.05286285 0.08511509 -0.16868047 -0.15212256 -0.003424485 -0.2415913 -0.14153767 0.05146997
0.20994328 0.020247407 -0.18075061 -0.08038521 0.16758282 0.055460878 0.053129166 -0.107724495
0.00978271 -0.20697947 -0.1384976 0.1618307 -0.07581943 -0.102574654 0.16145256 -0.115537174
0.1626263 -0.20838259 -0.07055679 0.0034181625 -0.14812647 0.039535712 0.13399686 -0.20897235
-0.04619171 -0.089156106 0.022614324 0.17712441 0.083152466 -0.13145557 0.22007382 0.1300113
-0.17590767 0.17499934 0.36423135 -0.06354149 0.15810464 0.21164286 0.061559435 -0.024073059
0.116073355 0.05301505 0.22539203 -0.13655029 0.081312984 0.13907562 -0.09925797 -0.059413716
-0.03138602 -0.1195807 0.19239485 -0.11987354 -0.1728854 0.09091897 0.14418648 -0.0012501694
0.13488269 0.030490935 -0.107650764 -0.04684485 0.1179815 -0.1838448 -0.21024561 -0.02735712
0.0919139 0.11203383 -0.05423515 -0.21161726 -0.2486486 0.20052852 0.02882213 -0.042970337
-0.48773083 0.061208863 -0.02741448 -0.16957383 0.00885106 0.06134908 0.061538834 0.043301266
0.12180173 0.018823229 -0.10668117 0.15440688 -0.0146375215 0.066287264 -0.032923996 0.15455242
0.22684185 0.18054299 -0.065123394 -0.031506978 0.15583679 -0.08415316 -0.17644875 0.20499274
-0.10855037 -0.1999661 0.17584954 -0.010067334 -0.054212335 -0.2082844 0.12672608 -0.068863116
-0.06787406 -0.0010757814 -0.19135822 0.20637158 -0.22980861 -0.12583928 -0.0053071342 0.03866107
00000000: 09bc 853d 8d1e 9b3e c79a 3dbe c0c3 1ebe
00000010: 15b6 51bd f50f fcbd 01aa 5bbb 3ddb 1f3e
00000020: 0907 403e c19c 5d3e 460a 5cbd fe0a 61be
00000030: f032 983e cde4 38bb 4dc2 04bd 0ea5 0e3e
00000040: 46e5 8c3c ada3 ec3b 4e3d c4bc 10dd a9bd
00000050: a8fc 273e e062 743d f3f0 02be 2380 9c3d
00000060: 55dc 873d 4438 e73c a15e 273e ae4a 65bd
00000070: 6b83 fe3d c805 203e 93b2 f23d 0ff6 1c3d
00000080: 6cd5 18be 8a54 95bd bd05 363e e7d3 783d
00000090: b58c 35be 3a60 443e e35c f5bc c7c8 55be
000000a0: c6e7 d4bd c21d f9bc fc13 1ebe d3da 9fbc
000000b0: 6ea6 1abd 7bc3 6fbd 3c02 463b 7807 643e
000000c0: 6d85 d73d 9de1 d2bd cdc2 de3c 6805 bfbd
000000d0: 2529 f23c d336 a3bd 21a7 69be f0fb b4bd
000000e0: 3ccb fdbd f514 7cbd 2e1b e9bd 48d6 32be
000000f0: f2af 463d 693d 4abe 54e0 123d 9978 223e
00000100: 6653 603e 92d8 283d 8afd 02be d18a 293e
00000110: 0dbf 88bd 1203 2cbd 4ac3 04be b0f4 9d3e
00000120: d791 79be c024 d43d aa91 0a3e 903c d9bb
00000130: da19 243e e1b5 533e 4b31 67bd 9a63 1d3e
00000140: bc9a f1bc 89f7 d7bc c7a6 d5bd 354b 3a3d
00000150: 628e a8be 2fa9 b03d 418c dfbc aa12 b03d
00000160: 6f24 cdbd af3c e5bd 94ff 2cbd e9f9 03be
00000170: ed23 04be 6b14 033c c412 223e ce4a 2bbe
00000180: 0836 debc 6abb 24bd c6a8 1ebd f086 693d
00000190: 5e3b 303d 111f 77bd c9ef 37bd 1e25 43be
000001a0: e0ac 233d e8cb 3f3e 0768 d13d f735 f23d
000001b0: f53d 10bc 007f ca3d 60c9 33bd 0413 3d3d
000001c0: 10c2 68bd 1c38 11be c420 2e3d 6991 583e
000001d0: 6171 14be 71a9 3dbe 8d30 943e fe9e be3d
000001e0: 65a9 963d 1a1a a0bd c008 563e 4d57 0b3e
000001f0: b5a1 12be de68 92bd 876e 573e 4047 56be
00000200: 6503 c83d a24e 6abd dbc5 3d3e 72e4 8b3d
00000210: 57c6 123e dcf9 a1bd 625c 683e 2a04 543d
00000220: b786 583d d250 ae3d 93ba 2cbe 04c6 1bbe
00000230: 536d 60bb b663 77be 40ef 10be 2dd2 523d
00000240: 5ffb 563e e4dd a53c b016 39be 00a1 a4bd
00000250: d59a 2b3e f22a 633d f89d 593d a99e dcbd
00000260: a947 203c 6df2 53be 51d2 0dbe f2b6 253e
00000270: 3847 9bbd a912 d2bd d253 253e c19e ecbd
00000280: 8287 263e 3f62 55be 1480 90bd 4003 603b
00000290: 77ae 17be 33f0 213d 7936 093e d9fc 55be
000002a0: 8533 3dbd 7a97 b6bd ad41 b93c 1a60 353e
000002b0: d74b aa3d 4a9c 06be 085b 613e af21 053e
000002c0: 2421 34be 0733 333e 887c ba3e 0a22 82bd
000002d0: 2fe6 213e e8b8 583e bf25 7c3d dd34 c5bc
000002e0: deb7 ed3d 4f26 593d 2bcd 663e d7d3 0bbe
000002f0: 6c87 a63d d769 0e3e c347 cbbd cc5b 73bd
00000300: a18e 00bd bae6 f4bd 2803 453e 4280 f5bd
00000310: df08 31be ba33 ba3d 9fa5 133e b9dc a3ba
00000320: b01e 0a3e 20c8 f93c 0178 dcbd 63e0 3fbd
00000330: 49a0 f13d d041 3cbe a04a 57be 0a1c e0bc
00000340: 5b3d bc3d fe71 e53d ad25 5ebd 32b2 58be
00000350: bd9d 7ebe 5957 4d3e 631c ec3c aa01 30bd
00000360: dbb7 f9be 25b6 7a3d 5594 e0bc c3a4 2dbe
00000370: 0904 113c 2c49 7b3d 2510 7c3d ab5c 313d
00000380: 2f73 f93d 2c33 9a3c a87b dabd d61c 1e3e
00000390: 37d2 6fbc 9ec1 873d 50db 06bd fd42 1e3e
000003a0: 3b49 683e 43e0 383e 6a5f 85bd 760d 01bd
000003b0: ae93 1f3e 7e58 acbd fbae 34be 9ee9 513e
000003c0: a84f debd eac3 4cbe e711 343e 76f1 24bc
000003d0: c10d 5ebd 8148 55be 7bc4 013e 1b08 8dbd
000003e0: 8e01 8bbd 3c01 8dba 69f3 43be 1253 533e
000003f0: f352 6bbe 03dc 00be 78e7 adbb 125b 1e3d

func_approx.network.6.bias f4 [30]
0.09637847 -0.13746314 0.11691202 0.15850306 -0.09866892 0.09663643 -0.13315316 -0.0041848733
-0.07212697 0.04315845 -0.025406444 0.1686392 0.06274627 -0.10544932 -0.19976833 -0.04289118
-0.049020134 -0.091371015 -0.07266177 -0.0980246 -0.042352777 0.034383334 -0.047736887 0.0038392753
0.011360922 0.1667177 0.019169953 -0.08707059 0.13723962 0.007823278
00000000: 1362 c53d 23c3 0cbe 926f ef3d a04e 223e
00000010: ee12 cabd 52e9 c53d 4d59 08be 4321 89bb
00000020: 4eb7 93bd eac6 303d 2d21 d0bc c1af 2c3e
00000030: 1e81 803d d0f5 d7bd 1290 4cbe a9ae 2fbd
00000040: 56c9 48bd ba20 bbbd b2cf 94bd 1fc1 c8bd
00000050: 1b7a 2dbd 8ad5 0c3d c187 43bd 5a9c 7b3b
00000060: 2923 3a3c 0bb8 2a3e 4e0a 9d3c 1152 b2bd
00000070: 8b88 0c3e 352d 003c

func_approx.network.8.weight f4 [1, 30]
0.12122685 -0.10508171 -0.18484627 0.09301456 0.14829706 0.14250343 0.06279437 -0.122184
-0.21586607 -0.08457159 0.10966779 0.17613265 0.065749325 0.25203326 -0.04786765 0.038777716
-0.26597765 -0.029327538 -0.13673377 -0.12210779 -0.24792501 -0.09676503 0.17773186 0.062481288
0.011567953 0.17689283 0.077451475 -0.16539794 0.17147374 -0.2738069
00000000: c845 f83d 1435 d7bd 5748 3dbe 6b7e be3d
00000010: 2fdb 173e 6bec 113e 569a 803d 9b3b fabd
00000020: ff0b 5dbe df33 adbd 8299 e03d 1e5c 343e
00000030: 95a7 863d 810a 813e de10 44bd 62d5 1e3d
00000040: 392e 88be 4e40 f0bc f003 0cbe a613 fabd
00000050: 0ee0 7dbe be2c c6bd 57ff 353e 61ec 7f3d
00000060: 8387 3d3c 6523 353e e19e 9e3d 145e 29be
00000070: d096 2f3e 6b30 8cbe
