paper/Burgers/runs/testje_bcheckpoint.pt (torch, 59095 bytes, 36 tensors)

func_approx.network.0.weight f4 [30, 2]
0	0x3da9dca2	0.082940355
1	0x3f24157f	0.640953
2	0xbf439c5f	-0.7641048
3	0xbf4cee7a	-0.80051386
4	0xbeb3b20d	-0.3509678
5	0x3e6e1a69	0.23252262
6	0x3b5536aa	0.0032533803
7	0x3f4eb2a7	0.8074135
8	0xbda0c9e2	-0.07851006
9	0x3eb40fe6	0.3516838
10	0xbf3d6bc2	-0.7399255
11	0xbe186b53	-0.14884691
12	0xbf8bc962	-1.0920832
13	0xbf3ab571	-0.7293311
14	0xbfced5c1	-1.6158983
15	0x3e588088	0.21142781
16	0x3ec2f73d	0.38079253
17	0x3f1e0dea	0.6173998
18	0xbe2b8c12	-0.16752651
19	0xbee230de	-0.44177908
20	0x3c8ecbaa	0.017431099
21	0x3f385575	0.720054
22	0xbebf0b51	-0.3731332
23	0x3f242bd1	0.6412936
24	0xbe01757e	-0.12642476
25	0x3d418e09	0.047254596
26	0x3f671c0a	0.9027716
27	0xbf5662f1	-0.8374472
28	0xbf2f3881	-0.68445593
29	0xbea20587	-0.31644842
30	0xbea108f6	-0.3145215
31	0x3f5b6dbd	0.8571432
32	0xbf05dbda	-0.5228859
33	0xbf190315	-0.5977033
34	0xbf02f862	-0.5116025
35	0xbf6c8360	-0.9238796
36	0xbf63dd9e	-0.89010036
37	0x3f51b58d	0.8191765
38	0x3ef89c07	0.4855654
39	0x3ed1ffe1	0.41015533
40	0x3cf4c3b7	0.02987848
41	0xbf0b65c7	-0.54452175
42	0x3eab4071	0.33447602
43	0xbf518bf0	-0.8185415
44	0xbf13681c	-0.57580733
45	0xbf1b0a07	-0.60562176
46	0x3ecdddf3	0.40208396
47	0x3f03ffff	0.51562494
48	0xbf37aee8	-0.7175126
49	0x3d35b495	0.04436167
50	0x3ef93d69	0.48679665
51	0x3f69ce95	0.91330844
52	0xbc7e5973	-0.015524256
53	0x3e552b45	0.20817287
54	0x3f7b8101	0.9824372
55	0xbf240986	-0.6407703
56	0x3ef0834b	0.4697517
57	0xbf27e1fa	-0.6557919
58	0xbf28da8e	-0.6595849
59	0xbeffa004	-0.4992677

func_approx.network.0.bias f4 [30]
0	0x3e9f9f39	0.31176165
1	0x3d071672	0.03298039
2	0xbebf839b	-0.37405095
3	0x3e8bfb29	0.27340057
4	0x3ecb9bf3	0.39767417
5	0xbd74cd9e	-0.059766404
6	0xbcfdfffe	-0.031005856
7	0xbd29b046	-0.041427873
8	0x3ebda586	0.37040347
9	0x3f1e2199	0.61770016
10	0xbf097ac4	-0.5370295
11	0xbe98b002	-0.29821783
12	0x3e8a4709	0.2700732
13	0x3ef252b3	0.4732872
14	0x3ed7ee98	0.4217422
15	0x3f126418	0.5718398
16	0x3cbb5cb6	0.022871356
17	0xbf0d6cd7	-0.552442
18	0xbdcc92c9	-0.099889345
19	0xbeafb5f9	-0.34318522
20	0xbf1b5027	-0.6066918
21	0x3f22d59d	0.636072
22	0x3e8982be	0.2685756
23	0xbf263cfc	-0.64936805
24	0x3df40eaf	0.11916863
25	0x3e5567b5	0.20840342
26	0xbe4055f4	-0.18782789
27	0xbcb99107	-0.022652162
28	0x3e3ae1df	0.18250225
29	0xbea2d928	-0.31806302

func_approx.network.2.weight f4 [30, 30]
0	0x3df55523	0.11979129
1	0x3c6ae46f	0.014336689
2	0x3e12901c	0.14312786
3	0x3debca5d	0.11513207
4	0xbdfbe1b3	-0.12298908
5	0xbe1bb54f	-0.15205882
6	0x3cf72562	0.030169193
7	0x3eb5cae0	0.35506344
8	0xbdca2d86	-0.09871964
9	0xbe108eea	-0.14117017
10	0x3e85b393	0.26113567
11	0x3e6ea1d9	0.23303927
12	0xbcb63be2	-0.022245351
13	0xbe459782	-0.19296077
14	0xbe0b1362	-0.13581613
15	0x3c7c7ab2	0.015410112
16	0xbe4ca788	-0.19985783
17	0xbe2b8d70	-0.16753173
18	0x3db2fdaf	0.087397926
19	0x3d9a723e	0.07541321
20	0xbdf1522c	-0.11783251
21	0xbc7da378	-0.0154808685
22	0xbe35af43	-0.17742638
23	0x3e585ba5	0.2112871
24	0x3e37ec89	0.17961325
25	0xbdc3e3e3	-0.0956495
26	0xbc6c1208	-0.014408596
27	0xbd919ef1	-0.07110394
28	0xbda833fb	-0.082130395
29	0xbb53e15e	-0.0032330374
30	0xbd188c5c	-0.037243232
31	0x3daeeab1	0.085408576
32	0xbe27e558	-0.16396081
33	0xbce72bd3	-0.02821914
34	0xbe86c933	-0.26325378
35	0xbd94fdb5	-0.07274953
36	0xbb98f5af	-0.0046679596
37	0xbf2d0cb7	-0.67597526
38	0xbe09bcb8	-0.13450897
39	0xbd98dfb2	-0.074645415
40	0xbe480916	-0.19534716
41	0xbe2d4d89	-0.16924109
42	0xbe46410f	-0.19360755
43	0x3e6493ee	0.22322056
44	0x3e05886c	0.13040322
45	0xbde6cd7e	-0.11269663
46	0x3db76c33	0.08956184
47	0x3d29759a	0.04137192
48	0xbe498e6f	-0.1968324
49	0x3c8c73c9	0.017145054
50	0x3e7ebe8e	0.24877378
51	0x3e9b6b30	0.30355215
52	0x3e8bf1b5	0.27332845
53	0xbde70614	-0.11280456
54	0xbea0e69b	-0.31425938
55	0xbe44cfb4	-0.19219857
56	0x3d94dd1f	0.07268738
57	0x3e4c0a59	0.19925822
58	0x3dea8093	0.11450305
59	0xbdb209f1	-0.086933024
60	0xbe278b45	-0.16361721
61	0xbe2d19d7	-0.16904388
62	0xbd36acb1	-0.044598285
63	0x3d89f4a0	0.06736112
64	0x3e03ed4a	0.12883487
65	0xbe42d051	-0.19024779
66	0x3dbd3ca4	0.09240082
67	0xbdac7757	-0.084212
68	0xbcb43245	-0.021996627
69	0xbd52329c	-0.051317796
70	0xbd0d7eef	-0.03454488
71	0xbd279297	-0.040911283
72	0xbe0ead54	-0.13933307
73	0xbe4bc717	-0.19900165
74	0xbc4f8667	-0.012666321
75	0xbd089dff	-0.0333538
76	0xbdcc7d96	-0.09984891
77	0x3da58dbc	0.08083674
78	0xbe4d6741	-0.2005892
79	0xbcba1a04	-0.022717483
80	0x3e05fedf	0.13085507
81	0xbddc4e93	-0.10757174
82	0x3e39a46a	0.18129125
83	0x3d4438ff	0.04790592
84	0xbe15baa2	-0.14621976
85	0x3daeb3c5	0.08530382
86	0xbcbb98ed	-0.02290007
87	0xbd97b5e8	-0.07407743
88	0x3e14453a	0.14479533
89	0xbe33b50d	-0.17549534
90	0x3e0aa35d	0.1353888
91	0xbe7eb79a	-0.24874726
92	0x3dd45626	0.10367994
93	0x3e1dce8f	0.15410827
94	0x3e3929da	0.18082371
95	0xbd3ded8b	-0.046369117
96	0xbe66f86f	-0.22555707
97	0xbe333b45	-0.17503078
98	0xbd051a82	-0.032495983
99	0x3df33b4d	0.11876545
100	0x3e6d2895	0.23160012
101	0x3e66ff52	0.22558334
102	0xbd5d9d43	-0.054105055
103	0xbd938e04	-0.07204822
104	0xbdff4c3e	-0.12465714
105	0xbd08c4b0	-0.0333907
106	0xbe8edf02	-0.27904516
107	0xbd2f1646	-0.04274585
108	0x3b283d05	0.0025671136
109	0x3da4e50c	0.080515
110	0xbdb32217	-0.087467365
111	0x3d28a6e1	0.041174773
112	0xbe88aa23	-0.26692304
113	0xbdd7c6d1	-0.10535968
114	0xbe325cf2	-0.17418268
115	0x3e9e25ab	0.30888113
116	0xbbc60a51	-0.0060437103
117	0x3d476434	0.048679546
118	0xbd2a4af7	-0.0415754
119	0xbdc3d7fc	-0.0956268
120	0x3d501515	0.050801355
121	0xbe235760	-0.159513
122	0x3d47897d	0.048715103
123	0x3d66fbfe	0.056392662
124	0xbc99d62c	-0.018778883
125	0xbd8a5517	-0.06754511
126	0xbe72020e	-0.23633596
127	0xbf2439aa	-0.6415049
128	0x3e498aed	0.19681902
129	0xbe613d87	-0.21996127
130	0xbae91ee5	-0.0017785697
131	0x3e3ec76c	0.18630761
132	0x3c256339	0.010094457
133	0x3d0ea142	0.034821756
134	0xbe8abb51	-0.27096036
135	0x3e28fcd8	0.16502702
136	0xbe780826	-0.24221858
137	0xbe274e2e	-0.16338417
138	0xbdd235bc	-0.10264155
139	0x3da99173	0.08279695
140	0x3c1cea1c	0.0095773
141	0x3e22bf6d	0.15893336
142	0xbdab094d	-0.08351383
143	0x3e7be59e	0.24599311
144	0xbe8d95bb	-0.27653298
145	0x3c628c0c	0.013827335
146	0x3e15e38f	0.14637588
147	0xbcfdbdd4	-0.030974306
148	0xbd96d4e5	-0.07364825
149	0x3ca10f3a	0.01966058
150	0x3cc14ff2	0.023597691
151	0x3dd33f4b	0.103148066
152	0xbe4ccac7	-0.19999228
153	0xbd1691d4	-0.036760166
154	0x3d568d96	0.05238112
155	0xbe635bc8	-0.2220298
156	0x3d7528a2	0.059853204
157	0xbf724373	-0.9463417
158	0x3c7b3ca4	0.015334282
159	0x3d8a9f0b	0.06768616
160	0xbe808666	-0.25102538
161	0xbe525588	-0.2054044
162	0x3dde4321	0.108526476
163	0x3e5eca69	0.21756901
164	0xbdefe542	-0.11713649
165	0xbdad933a	-0.08475347
166	0xbe413c11	-0.1887057
167	0x3d346460	0.044041038
168	0xbeb63245	-0.35585228
169	0xbe2e237b	-0.17005722
170	0xbdbf474e	-0.09339772
171	0x3eac9a06	0.3371126
172	0x3df0ca3b	0.117573224
173	0x3d3e574a	0.046469964
174	0xbe965f62	-0.29369646
175	0xbd875bd8	-0.06609315
176	0xbdc00164	-0.09375265
177	0x3e896384	0.26833737
178	0x3ebcf0ba	0.3690241
179	0x3c9cadfd	0.019125933
180	0xbe1055a2	-0.14095166
181	0xbc63fe31	-0.013915584
182	0xbe560089	-0.20898642
183	0xbbb65663	-0.0055644973
184	0xbe242230	-0.16028666
185	0xbe0fe935	-0.14053805
186	0x3e4de59b	0.20107119
187	0xbeff615e	-0.49878973
188	0xbd61d727	-0.055136826
189	0x3dcc4ec4	0.09975961
190	0xbdebc1f9	-0.11511607
191	0xbe8d6751	-0.27617887
192	0xbe55dab7	-0.20884214
193	0x3ea9c2d7	0.33156464
194	0x3c88830f	0.016664056
195	0x3e0c1957	0.13681541
196	0x3b984fda	0.004648191
197	0x3d7fae03	0.06242181
198	0xbe557b73	-0.20847873
199	0xbd8bf0f2	-0.06833066
200	0xbd92e3a0	-0.07172322
201	0x3e611dce	0.21984026
202	0x3e07004a	0.13183704
203	0xbd847248	-0.0646711
204	0xbe44e62b	-0.19228427
205	0xbe32fcac	-0.17479199
206	0x3dac654a	0.08417757
207	0x3b7282f7	0.003700433
208	0x3e6d091e	0.23148009
209	0xbce555b9	-0.027994977
210	0xbd465c8d	-0.048428107
211	0xbaa4ba26	-0.0012567684
212	0xbd306390	-0.0430637
213	0x3daffefa	0.08593555
214	0x3dace4a0	0.08442044
215	0xbe1ab366	-0.15107498
216	0x3c3dfa63	0.011595341
217	0xbd28b3bf	-0.041187044
218	0x3dbccbf9	0.09218592
219	0xbdebce2f	-0.11513936
220	0x3bdb924e	0.0067007905
221	0x3e21359c	0.15743107
222	0x3dce816c	0.10083279
223	0xbe84d0c8	-0.25940537
224	0x3dc4c344	0.096075565
225	0x3e14d732	0.14535215
226	0xbe11d12d	-0.1423995
227	0xbc73c61b	-0.014878775
228	0x3e5c4a69	0.2151276
229	0x3d821593	0.06351771
230	0xbb41f0c8	-0.002959298
231	0xbe3a8ece	-0.18218538
232	0xbe659f41	-0.22424032
233	0x3db8d804	0.09025577
234	0x3e6a0860	0.22854757
235	0x3e46a4ff	0.19398879
236	0x3e45b3f0	0.19306922
237	0xbd37619c	-0.044770822
238	0xbdd555b2	-0.10416736
239	0xbdebd5a1	-0.11515356
240	0xbe5e4974	-0.21707708
241	0xbd34c811	-0.04413611
242	0x3e18ea3d	0.14933105
243	0x3d6f5377	0.058429208
244	0xbe2aa61c	-0.16664928
245	0x3dadb202	0.08481218
246	0x3e5e122c	0.2168662
247	0xbe108e05	-0.14116676
248	0x3dd680dc	0.10473797
249	0x3e426b0c	0.18986148
250	0xbe122204	-0.14270788
251	0xbe31d92a	-0.17367998
252	0x3e059b0b	0.13047425
253	0x3e404e1e	0.187798
254	0xbdad69d7	-0.08467453
255	0x3e0702f5	0.13184722

func_approx.network.2.bias f4 [30]
0	0x3d6a8b54	0.05726178
1	0x3df89ff6	0.12139885
2	0x3d26aed9	0.04069409
3	0xbc221a46	-0.009893959
4	0x3dcdfb6f	0.10057723
5	0x3d0d29d1	0.034463707
6	0x3c5a27a5	0.013315116
7	0xbd11dc27	-0.035610344
8	0x3c832979	0.016010987
9	0x3ae32fbf	0.0017332955
10	0x3b77aa59	0.0037790744
11	0xbd8a2197	-0.06744688
12	0x3a1fbc5f	0.0006093438
13	0xbe16700e	-0.14691183
14	0xbcff3d14	-0.031157054
15	0x3dad1ee2	0.08453156
16	0xbcde8f4e	-0.027167942
17	0xbe4dba03	-0.20090489
18	0xbd0128ce	-0.031533055
19	0x3c5ce61f	0.0134825995
20	0x3e872542	0.26395613
21	0x3d146a30	0.03623408
22	0x3d9edea1	0.07757307
23	0xbdfaf151	-0.12253059
24	0x3d288c6e	0.04114955
25	0x3dd0e61d	0.102001406
26	0x3df61270	0.120152354
27	0xbdbadda0	-0.09124303
28	0xbde3b108	-0.111177504
29	0x3d8629fc	0.06550977

func_approx.network.4.weight f4 [30, 30]
0	0x3e3ae074	0.18249685
1	0xbe80fdd1	-0.25193647
2	0xbdd0d765	-0.10197333
3	0x3dce7059	0.10080022
4	0xbc84c71d	-0.016208226
5	0xbe9dc03b	-0.30810723
6	0xbe7efdbe	-0.24901482
7	0x3de0bd09	0.109735556
8	0xbe52d545	-0.20589168
9	0x3e614118	0.21997488
10	0x3dfe1c13	0.124076985
11	0x3c7b8700	0.015352011
12	0xbda10eaa	-0.07864125
13	0x3d66fd61	0.056393985
14	0xbe0c470c	-0.13698977
15	0x3d9bb154	0.07602182
16	0xbe738ebe	-0.2378492
17	0xbdb0fcc4	-0.08641961
18	0xbe8e3bd9	-0.27780035
19	0x3e1753a0	0.14777994
20	0xbecb9541	-0.3976231
21	0x3e571a4d	0.21006127
22	0xbd2c62fb	-0.042086583
23	0xbe0d9396	-0.13825831
24	0x3e929b67	0.28634188
25	0x3ddfbab1	0.109242804
26	0xbbc5b3e9	-0.00603341
27	0x3eadde7f	0.33958814
28	0xbe60d9cf	-0.21958087
29	0x3e1b865c	0.15187973
30	0xbd62bcf6	-0.05535599
31	0xbd83a525	-0.06427983
32	0x3df785a9	0.120860405
33	0x3e2fe230	0.17176127
34	0xbe0f0f46	-0.1397067
35	0xbd0efade	-0.034907214
36	0x3e4a32f1	0.19745995
37	0x3e08b658	0.13350809
38	0x3e283f8f	0.16430496
39	0xbdbd9f29	-0.09258873
40	0xbe20448f	-0.15651153
41	0x3e6630b8	0.22479522
42	0x3d67ea4b	0.056619924
43	0x3e04ab1d	0.129559
44	0xbdabaa9a	-0.08382149
45	0xbd961d0b	-0.07329758
46	0xbceec09f	-0.029144583
47	0xbdcb21a0	-0.09918523
48	0x3ce1deb9	0.027572023
49	0x3de7f6b8	0.11326355
50	0x3d38c86e	0.04511302
51	0x3d1d492b	0.038399857
52	0x3c1ebfa2	0.0096892435
53	0xbdcb5ea1	-0.099301584
54	0x3ddc82a1	0.10767103
55	0xbe4bc8a8	-0.19900763
56	0xbdf60765	-0.12013129
57	0xbd2a7b0a	-0.041621245
58	0x3e8127f3	0.2522579
59	0xbd911069	-0.07083208
60	0x3d9428f0	0.07234371
61	0xbda67ca4	-0.08129242
62	0x3e198f0e	0.14995977
63	0xbc1c6911	-0.009546534
64	0x3dbb0acd	0.091329195
65	0x3e5d8ffe	0.2163696
66	0x3d9bee54	0.07613817
67	0xbd9e6863	-0.07734754
68	0xbc99d59d	-0.018778617
69	0xbdd70562	-0.104990736
70	0x3b2521ae	0.0025197077
71	0x3c46a19b	0.012123491
72	0xbd47a657	-0.04874262
73	0xbcbeb740	-0.02328074
74	0x3cad67de	0.021167692
75	0xbd95f31b	-0.07321759
76	0x3ba393e7	0.0049919966
77	0xbf15cbb1	-0.58513933
78	0x3d82f3cf	0.06394159
79	0x3ca4cd79	0.020117508
80	0x3db23d53	0.08703103
81	0xbddd9ec4	-0.10821298
82	0x3e5d943a	0.21638575
83	0x3d1bb547	0.038014676
84	0xbe000a5f	-0.12503956
85	0x3e0035a0	0.12520456
86	0xbe1febc2	-0.15617278
87	0xbe59ab93	-0.21256857
88	0xbd64419e	-0.05572664
89	0x3dc41448	0.09574181
90	0xbd569edd	-0.052397598
91	0xbe9b5498	-0.30337977
92	0xbe5cc159	-0.21558131
93	0x3cd14b12	0.025548492
94	0xbddb668c	-0.10712919
95	0xbea91335	-0.33022466
96	0xbc2ed961	-0.010671944
97	0xbc65753f	-0.014005004
98	0xbe3a4af3	-0.18192653
99	0xbd6fbfe4	-0.05853261
100	0xbe37071d	-0.17873807
101	0xbd951dd5	-0.07281081
102	0xbe1cc4f1	-0.15309502
103	0x3e60b817	0.21945225
104	0xbea1870b	-0.31548342
105	0xbbe4a248	-0.0069773532
106	0xbe995052	-0.29944092
107	0x3d78b198	0.06071624
108	0xbdee49ab	-0.11635145
109	0xbd1e2371	-0.03860802
110	0xbf0a03f8	-0.53912306
111	0x3e8dbe40	0.27684212
112	0xbe3d3358	-0.18476617
113	0x3e70ea19	0.23526801
114	0x3e51a63d	0.20473571
115	0xbbbce44f	-0.005764521
116	0xbcca68ad	-0.024708116
117	0x3e3a034d	0.18165322
118	0x3e9daf1a	0.30797654
119	0xbeb2dfdf	-0.34936425
120	0xbc56c4fa	-0.013108486
121	0x3de7713c	0.113008946
122	0xbb4f596f	-0.0031639
123	0xbe16aa4e	-0.14713404
124	0x3cb8e1b2	0.022568557
125	0xbe0f1ee5	-0.13976629
126	0x3dc82b34	0.09773865
127	0xbe9dc41b	-0.3081368
128	0x3e49cf25	0.19707926
129	0xbe2d5e42	-0.16930488
130	0x3e32dc0d	0.17466755
131	0xbe57bef1	-0.21068932
132	0xbdcb4ba3	-0.09926536
133	0xbe04e0fc	-0.1297645
134	0x3e49d73c	0.19711012
135	0xbe28a5c3	-0.16469483
136	0xbcb8b380	-0.02254653
137	0x3ebdf627	0.37101862
138	0x3d23308d	0.039841224
139	0x3dc4a452	0.09601654
140	0xbe2ec2ce	-0.170665
141	0xbdcef9fd	-0.10106275
142	0xbbee2862	-0.0072679976
143	0x3e14822c	0.14502782
144	0xbc680577	-0.014161459
145	0xbdd19791	-0.10233987
146	0x3db4ad72	0.088221446
147	0xbd350b75	-0.04420038
148	0xbdc0136d	-0.09378705
149	0xbdd27efd	-0.10278127
150	0xbe01de13	-0.12682371
151	0x3e84056a	0.2578538
152	0xbe0ea7b6	-0.13931164
153	0xbe54b42a	-0.20771852
154	0xbdae9a77	-0.085255556
155	0x3e1a8f32	0.15093687
156	0x3e40ed1e	0.18840453
157	0xbd4447ee	-0.04792016
158	0x3dd4f12e	0.10397564
159	0xbe3fe33e	-0.1873903
160	0x3c1a7014	0.009426136
161	0xbdbdfb69	-0.09276468
162	0x3e64da08	0.22348797
163	0xbe9456f2	-0.28972584
164	0xbcb6440d	-0.022249246
165	0xbe442a5d	-0.19156785
166	0x3d15edd8	0.03660378
167	0x3e8d100e	0.2755131
168	0x3e8ffca2	0.2812243
169	0xbe1d2778	-0.15347087
170	0x3e460618	0.19338262
171	0x3d72950e	0.05922418
172	0x3dcbedf6	0.09957497
173	0x3e1c7947	0.15280639
174	0xbe2422b9	-0.1602887
175	0xbe0edd31	-0.13951565
176	0x3e73918e	0.23785993
177	0xbe868cb4	-0.26279223
178	0x3de9ee51	0.11422408
179	0xbd66ea2f	-0.05637568
180	0x3d0fd7a7	0.03511777
181	0x3e4221d0	0.18958211
182	0x3df3a8d4	0.11897436
183	0xbe55a10c	-0.20862216
184	0xbe8f65f3	-0.2800747
185	0xbdb36243	-0.08758976
186	0xbe5c9a09	-0.21543135
187	0x3e0ee988	0.13956273
188	0xbdaba524	-0.083811074
189	0xbdad1841	-0.08451892
190	0xbd2c8320	-0.042117238
191	0xbea21977	-0.31660053
192	0x3d845db7	0.06463187
193	0xbe398332	-0.18116453
194	0xbdc0fdc5	-0.09423403
195	0xbe137220	-0.14399004
196	0x3e3fed9c	0.18742985
197	0x3e57ce05	0.21074684
198	0xbdb8dceb	-0.09026512
199	0xbd8fd84e	-0.07023679
200	0x3e5eb3b0	0.21748233
201	0xbd0e33aa	-0.03471724
202	0x3dbe967f	0.093060486
203	0xbd96e5f1	-0.073680766
204	0xbdc72817	-0.097244434
205	0x3e40ee85	0.18840988
206	0xbe68d5ba	-0.2273778
207	0x3ca33cfb	0.019926539
208	0x3d90fa75	0.07079021
209	0xbd5d501c	-0.054031476
210	0x3d85593a	0.06511159
211	0x3eacb207	0.33729574
212	0x3babc374	0.0052418057
213	0xbd9499ad	-0.07255874
214	0x3d5b8a9e	0.053598993
215	0x3d8ff9da	0.07030077
216	0x3e3587cb	0.17727582
217	0xbc9bc381	-0.019014122
218	0x3e1a16f0	0.15047812
219	0xbe3ffce5	-0.18748815
220	0xbdc79a69	-0.09746248
221	0x3d875367	0.066077046
222	0x3df1c9fc	0.118061036
223	0xbe984a7f	-0.29744336
224	0x3c2ca5d8	0.010537587
225	0xbe5ea6f5	-0.21743377
226	0xbd75ce00	-0.06001091
227	0xbde3c761	-0.11122013
228	0x3e8c0917	0.27350685
229	0xbdd16004	-0.10223392
230	0x3ed2c209	0.41163662
231	0x3dc6c16f	0.09704863
232	0x3dffee90	0.12496674
233	0xbe516db5	-0.20452006
234	0xbaf7b377	-0.0018898089
235	0x3d9345d8	0.07191056
236	0x3e5e80a3	0.21728759
237	0xbec68ca1	-0.38779166
238	0x3d894984	0.06703475
239	0x3e4946f0	0.19655967
240	0xbdf43404	-0.11923984
241	0xbb0dd0c4	-0.0021639327
242	0x3ea28527	0.31742212
243	0x3c2d54f3	0.0105793355
244	0x3df658f5	0.12028686
245	0x3da355ab	0.07975324
246	0x3c6f4223	0.014603171
247	0x3e2eb171	0.17059876
248	0x3d6a5ff7	0.057220425
249	0x3e4faad2	0.20280007
250	0xbd108a34	-0.03528805
251	0x3e791749	0.24325289
252	0xbe53d9f0	-0.20688605
253	0xbdf3dba4	-0.119071275
254	0x3c2879b5	0.0102829235
255	0xbd59e95f	-0.053201076

func_approx.network.4.bias f4 [30]
0	0xbd57925f	-0.052629825
1	0xbd9bf191	-0.076144345
2	0xbc7345d5	-0.014848192
3	0x3df2f54b	0.11863192
4	0x3c5d26ad	0.013497991
5	0x3de840b1	0.11340464
6	0x3d1ab15b	0.037766796
7	0x3d98ed72	0.07467164
8	0x3cc62a9e	0.024190243
9	0x3b81df7a	0.003963408
10	0xbe224b5c	-0.1584906
11	0xbde98543	-0.11402371
12	0x3c269a4b	0.010168622
13	0x3dbaa105	0.09112743
14	0x3dc742e8	0.09729558
15	0x3c5689b6	0.013094356
16	0x3d98bef2	0.07458295
17	0x3da275a1	0.07932592
18	0xbe147cf8	-0.14500797
19	0xbddf137b	-0.108923875
20	0xbdd5340e	-0.10410319
21	0x3c7529d4	0.014963586
22	0xbdf58aa3	-0.119893335
23	0xbd53c95b	-0.0517057
24	0xbd795789	-0.060874496
25	0x3d983fb3	0.07434025
26	0x3d1778d6	0.036980473
27	0x3e165ed0	0.14684606
28	0x3e132277	0.14368616
29	0xbdbb6336	-0.09149782

func_approx.network.6.weight f4 [30, 30]
0	0x3cd3af3e	0.025840398
1	0xbd2ce446	-0.042209886
2	0x3ea83ff5	0.32861295
3	0xbe44c897	-0.19217144
4	0xbd56cd75	-0.052442033
5	0xbe116b8e	-0.14201185
6	0x3d6026e9	0.054724608
7	0xbd7220bf	-0.05911326
8	0xbdaed0eb	-0.08535942
9	0x3df01678	0.117230356
10	0x3e9d7e12	0.30760247
11	0xbccadbcd	-0.024763012
12	0xbea0d0f6	-0.31409425
13	0x3ead77bc	0.33880413
14	0xbdcac6f1	-0.09901226
15	0x3c04bca5	0.008101617
16	0xbdef984e	-0.11698972
17	0xbda6d36c	-0.08145794
18	0xbe34d239	-0.17658319
19	0xbdf75e8d	-0.12078581
20	0xbe7a5fe0	-0.24450636
21	0xbd91097c	-0.07081887
22	0x3e20f142	0.15717033
23	0xbe0450a1	-0.12921382
24	0xbdeeb957	-0.116564445
25	0xbdc9e87a	-0.098587945
26	0x3e748a3c	0.23880857
27	0x3e610ac8	0.21976769
28	0x3d2045e4	0.039129153
29	0x3d02508c	0.031815097
30	0xbe7a484e	-0.24441645
31	0xbe3469fa	-0.17618552
32	0xbdaf5e40	-0.08562899
33	0x3dd7a71e	0.10529922
34	0xbd81c54d	-0.0633646
35	0x3bd2ea2a	0.006436606
36	0x3e924c0c	0.28573644
37	0xbdec0c6b	-0.11525806
38	0x3c33856f	0.010957106
39	0x3e43ba8c	0.1911413
40	0xbe665803	-0.22494511
41	0xbdf08bce	-0.11745416
42	0x3e3d9735	0.18514712
43	0xbe14e804	-0.14541632
44	0xbe2eedad	-0.17082854
45	0x3e327b56	0.17429861
46	0x3d8aab62	0.0677097
47	0x3d4fa50b	0.050694507
48	0xbb1a577c	-0.002355068
49	0x3dd9289f	0.10603451
50	0x3e168c71	0.14702012
51	0x3e560c40	0.2090311
52	0x3cfdb29d	0.030968959
53	0x3d64cabe	0.055857413
54	0x3df9f945	0.122057475
55	0xbe26af78	-0.16277874
56	0xbdd10241	-0.10205508
57	0x3d4c133c	0.04982303
58	0xbe2512e9	-0.16120495
59	0x3e025b51	0.12730147
60	0xbe75c022	-0.23999074
61	0x3d307808	0.04308322
62	0xbc886983	-0.016651874
63	0x3ddaa090	0.10675156
64	0x3de0cd55	0.10976664
65	0x3dca7e20	0.09887338
66	0x3d9db3c9	0.07700307
67	0x3e6d6aa9	0.23185219
68	0xbe1ecad0	-0.15507054
69	0xbd61b041	-0.05509973
70	0xbe33f6cf	-0.17574619
71	0xbe2c5801	-0.16830446
72	0x3cc1c37a	0.02365278
73	0xbdefb6b6	-0.11704771
74	0x3cc98b45	0.024602542
75	0x3d9bc28d	0.07605467
76	0x3daf899a	0.08571167
77	0xbe3e358f	-0.18575118
78	0xbdb33457	-0.087502174
79	0x3dbfcbde	0.093650565
80	0xbd840581	-0.06446362
81	0x3eb25064	0.34826958
82	0xbcdf9774	-0.027293898
83	0x3dcea343	0.100897335
84	0xbd86223c	-0.065494984
85	0xbd2a558a	-0.041585483
86	0x3dcbecca	0.09957273
87	0xbdb6667c	-0.08906266
88	0x3ddb955c	0.107218474
89	0xbcfd3c6e	-0.030912604
90	0xbdaafe84	-0.08349326
91	0x3d26102f	0.040542778
92	0xbe3562ac	-0.17713422
93	0x3ea834e5	0.32852855
94	0x3e30849b	0.17238085
95	0x3db6ae9b	0.08920022
96	0x3e70bbef	0.23509191
97	0xbd9ee924	-0.07759312
98	0xbdbe6631	-0.09296835
99	0xbd83410f	-0.06408893
100	0xbe93a61c	-0.2883767
101	0x3d439304	0.047747627
102	0x3e71ab11	0.23600413
103	0xbe819f94	-0.2531706
104	0x3cc94df4	0.024573304
105	0xbe13c2b5	-0.14429744
106	0x3df99d99	0.121882625
107	0x3dbc9e89	0.09209926
108	0xbded6876	-0.1159219
109	0x3d990ae4	0.0747278
110	0x3e2544a4	0.16139466
111	0x3e4879f7	0.19577776
112	0xbdab2821	-0.08357263
113	0x3d48d19e	0.04902803
114	0x3e873769	0.26409462
115	0x3e34c0b1	0.17651631
116	0xbe8d50f9	-0.2760084
117	0xbe331403	-0.17488103
118	0xbe6159d2	-0.2200692
119	0xbe7d0f98	-0.2471298
120	0x3d39182b	0.045189064
121	0x3e230be1	0.159225
122	0xbdfc3b0e	-0.12315951
123	0x3df0c4cb	0.11756285
124	0x3eb03f4b	0.3442329
125	0xbd83bcdc	-0.064325064
126	0xbc1f1826	-0.009710347
127	0xbd80b8e2	-0.062852636
128	0x3d776067	0.06039467
129	0x3ca11451	0.019663008
130	0xbd53d199	-0.05171356
131	0xbdbb55ec	-0.09147248
132	0xbedbe8ff	-0.429512
133	0x3df5b135	0.1199669
134	0x3d3d7601	0.046255115
135	0xbda608cc	-0.081071466
136	0xbe845086	-0.25842685
137	0x3d55e90b	0.0522242
138	0xbe1913bf	-0.14948939
139	0xbd2f2770	-0.04276222
140	0xbe310487	-0.17286883
141	0xbe076dbd	-0.13225456
142	0x3de49646	0.11161475
143	0x3bf1aa4c	0.0073750373
144	0x3d03829f	0.03210699
145	0xbc6b5f3a	-0.0143659655
146	0x3c5a6c65	0.013331507
147	0x3d658ee0	0.05604446
148	0xbe435077	-0.19073664
149	0x3e3a5798	0.18197477
150	0xbeb404f0	-0.35160017
151	0x3d0e0913	0.034676623
152	0x3dd84ee5	0.10561923
153	0xb991be00	-0.00027798116
154	0x3e2f3986	0.17111787
155	0x3e79ff92	0.24413899
156	0x3d2a765e	0.04161679
157	0x3d80323f	0.06259584
158	0x3dfe2c19	0.12410755
159	0x3e4bc78b	0.19900338
160	0x3c5c280d	0.013437283
161	0xbde85061	-0.11343456
162	0x3d536a1b	0.051614862
163	0x3df80910	0.121111035
164	0x3d49bbb1	0.049251262
165	0xbca47593	-0.020075595
166	0xbe87732d	-0.2645506
167	0xbe84d200	-0.25941467
168	0x3d466b23	0.048442017
169	0xbcbedd69	-0.023298936
170	0xbcb18ec4	-0.021674521
171	0x3e8a279e	0.2698335
172	0xbdc404f1	-0.09571255
173	0x3e1cba3d	0.1530542
174	0xbd508d2b	-0.05091588
175	0x3cd85aaa	0.02641042
176	0x3e0688f9	0.13138188
177	0x3ded993a	0.11601491
178	0x3e10c2a1	0.14136745
179	0xbe4b5c8a	-0.1985952
180	0xbddbba0c	-0.10728845
181	0xbcd95adc	-0.026532583
182	0xbe69bab7	-0.22825132
183	0x3cc4a283	0.024003273
184	0xbe7a9293	-0.24469976
185	0x3d79ecc2	0.061016805
186	0x3e3d5576	0.18489632
187	0xbe3c925d	-0.18415208
188	0x3e060378	0.1308726
189	0x3d84f5d3	0.064922
190	0xbdf4d605	-0.119548835
191	0x3e1b7ed1	0.15185095
192	0xbd2b1dec	-0.041776583
193	0xbdbea199	-0.09308166
194	0xbe2e6f10	-0.17034554
195	0x3d4133d4	0.047168568
196	0x3e19cdbb	0.15019886
197	0xbb8cb80c	-0.004294401
198	0xbe181c68	-0.14854586
199	0xbd55b242	-0.052171953
200	0x3e2856b0	0.16439319
201	0x3e47fc3f	0.19529818
202	0x3e175a15	0.14780457
203	0xbd8ce344	-0.06879285
204	0x3c21fec9	0.009887406
205	0xbe305d39	-0.17223062
206	0x3e11c21a	0.142342
207	0xbe482551	-0.19545485
208	0xbd3e9fe7	-0.046539214
209	0xbd5b26d9	-0.053503845
210	0x3d821bdb	0.06352969
211	0x3cc1f3a1	0.023675742
212	0xbe0384bf	-0.12843607
213	0x3dda6ca3	0.10665252
214	0xbe52e4ca	-0.20595089
215	0xbb30d304	-0.0026981244
216	0x3dda685d	0.10664437
217	0x3d196758	0.037452072
218	0xbc89dae8	-0.016828015
219	0x3e010b67	0.12602006
220	0xbe425e63	-0.18981318
221	0xbdd2c55a	-0.10291548
222	0x3e9218c5	0.28534523
223	0xbd9526cf	-0.07282793
224	0xbc49d264	-0.012318227
225	0x3db0ab7c	0.08626458
226	0x3da05ed1	0.07830585
227	0xbd80a72e	-0.06281887
228	0xbd971742	-0.07377483
229	0xbcf77b5b	-0.030210188
230	0x3dc2260c	0.09479913
231	0x3db20154	0.086916596
232	0x3daffef4	0.0859355
233	0xbdeafffa	-0.11474605
234	0xbd45baed	-0.04827397
235	0x3dfddc10	0.12395489
236	0xbd80ee81	-0.06295491
237	0x3ae5efbe	0.0017542762
238	0x3ce152ca	0.027505297
239	0xbddcb990	-0.10777581
240	0xbe4dc0e9	-0.2009312
241	0x3d749d14	0.059720114
242	0x3d759c57	0.05996355
243	0xbd034f29	-0.032057915
244	0x3d416d8f	0.047223624
245	0x3df986c0	0.12183905
246	0x3cf62e0a	0.03005125
247	0xbd0ae525	-0.033909936
248	0xbccee93a	-0.025257695
249	0xbd60be09	-0.05486873
250	0x3dabbcea	0.08385642
251	0xbe2c736b	-0.16840903
252	0x3e385155	0.17999776
253	0x3c8c9783	0.01716209
254	0xbe103d85	-0.14085968
255	0x3e1c2415	0.15248139

func_approx.network.6.bias f4 [30]
0	0xbd997ade	-0.07494138
1	0x3d427830	0.0474779
2	0xbe096e77	-0.13421045
3	0x3a0087e8	0.0004903064
4	0x3bb27a64	0.005446719
5	0x3d8050c5	0.062654056
6	0x3d8af398	0.06784743
7	0xbde921a5	-0.1138337
8	0x3d9bc382	0.076056495
9	0x3e0051fe	0.12531278
10	0x3b8e70ad	0.004346928
11	0x3db51edb	0.08843776
12	0xbda506bd	-0.08057926
13	0x3d110976	0.035409413
14	0x3d445d52	0.04794056
15	0xbd96c0f3	-0.07361021
16	0x3d919447	0.0710836
17	0xbe2d5f62	-0.16930917
18	0xbd863161	-0.06552387
19	0xbdb8cdad	-0.090236045
20	0xbdec847c	-0.11548707
21	0xbdbd36d0	-0.0923897
22	0xbe2129cb	-0.15738599
23	0x3cefcc64	0.029272266
24	0xbce26cf5	-0.027639845
25	0xbe153fca	-0.14575115
26	0x3caea14e	0.02131715
27	0xbccdd122	-0.025124136
28	0x3d5cb7f9	0.053886387
29	0xbe02d0f7	-0.12775026

func_approx.network.8.weight f4 [1, 30]
0	0xbe38fc3f	-0.18064974
1	0x3e593be7	0.21214257
2	0x3e498610	0.19680047
3	0x3e350aeb	0.17679946
4	0xbdeae14f	-0.114687555
5	0x3e77563c	0.2415399
6	0x3e1f8185	0.15576752
7	0x3e142baa	0.14469782
8	0x3e23893c	0.1597032
9	0xbe971cda	-0.295142
10	0x3df96b0c	0.12178621
11	0x3cec29da	0.02882855
12	0xbdec0696	-0.11524694
13	0x3e47ebe9	0.19523586
14	0x3cfa6529	0.030565815
15	0x3e9545dd	0.29154864
16	0x3d88f10b	0.066866
17	0xbe360f4d	-0.17779274
18	0x3e8ad6ab	0.27116904
19	0xbd719bef	-0.0589866
20	0x3e58f932	0.2118881
21	0x3dc1b1be	0.0945773
22	0x3e197b55	0.14988454
23	0x3e503e7a	0.20336333
24	0x3e0d21fd	0.13782497
25	0xbdb135cc	-0.08652839
26	0xbc7490b6	-0.01492708
27	0xbe26f3df	-0.16303967
28	0x3d19ab22	0.03751672
29	0xbdad755f	-0.084696524

exp_avg f4 [30, 2]
0	0xb4eb4473	-4.3821964e-07
1	0xb4479fa7	-1.85914e-07
2	0x354ce0db	7.632313e-07
3	0x34d3696a	3.9378511e-07
4	0x34a7f369	3.1283278e-07
5	0xb38d930f	-6.592574e-08
6	0xb3cbe657	-9.494823e-08
7	0xb465b928	-2.1394646e-07
8	0xb48a3a33	-2.5746849e-07
9	0x3360707e	5.2256375e-08
10	0x358f5060	1.0677722e-06
11	0x3571dc6b	9.0100247e-07
12	0x359786c3	1.1289598e-06
13	0x350112fe	4.808388e-07
14	0x36bb7662	5.586816e-06
15	0xb42867b7	-1.568395e-07
16	0xb5342d1e	-6.712088e-07
17	0x328ecbaa	1.6623591e-08
18	0x3482b804	2.4348276e-07
19	0x358ef194	1.0650133e-06
20	0xb4a1fae9	-3.0171148e-07
21	0xb53a79b7	-6.946752e-07
22	0x34342ecb	1.678083e-07
23	0xb512b199	-5.4647677e-07
24	0xb3019133	-3.016721e-08
25	0x352d98a1	6.4669626e-07
26	0xb541f701	-7.225754e-07
27	0x330402e1	3.0736263e-08
28	0x35504161	7.7581177e-07
29	0x3505a0a0	4.97801e-07
30	0x35297eac	6.314174e-07
31	0xb526d0a2	-6.214342e-07
32	0x35810b12	9.614471e-07
33	0x3517b5af	5.651627e-07
34	0x352d3849	6.452943e-07
35	0x35054c7b	4.9657655e-07
36	0x351c46a3	5.821732e-07
37	0x33b6c5c2	8.5110074e-08
38	0xb538a3e4	-6.8783834e-07
39	0xb57dcf36	-9.4551376e-07
40	0xb43143b3	-1.6509038e-07
41	0x35e56818	1.7092125e-06
42	0xb43beab5	-1.7501118e-07
43	0x357055df	8.9531926e-07
44	0x35736d58	9.068367e-07
45	0x35816d0f	9.642989e-07
46	0xb5259b70	-6.169348e-07
47	0xb54b8d86	-7.5829337e-07
48	0x36007b45	1.9145239e-06
49	0x32d3a716	2.4639615e-08
50	0xb55f8360	-8.326515e-07
51	0xb513a5a7	-5.5002823e-07
52	0xb43f824f	-1.7835667e-07
53	0xb49c7fbd	-2.9150206e-07
54	0xb581d124	-9.672117e-07
55	0xb46e8fdb	-2.2217812e-07
56	0xb417b5b2	-1.4129071e-07
57	0x34b276a7	3.3241415e-07
58	0x34f6c20b	4.5962256e-07
59	0x339b4eb9	7.2320695e-08

exp_avg_sq f4 [30, 2]
0	0x2a5836fd	1.9203732e-13
1	0x291baab5	3.456498e-14
2	0x2b23f862	5.8253933e-13
3	0x2a2e9891	1.5507237e-13
4	0x29dc5f2f	9.786474e-14
5	0x279cb6e9	4.349701e-15
6	0x28226db8	9.016598e-15
7	0x294e2cc2	4.578001e-14
8	0x29954770	6.6293217e-14
9	0x27456123	2.73919e-15
10	0x2ba07620	1.140147e-12
11	0x2b648298	8.1183107e-13
12	0x2bb36146	1.2745714e-12
13	0x2a8229ff	2.312178e-13
14	0x2e0946ad	3.1212966e-11
15	0x28dda7cf	2.4608704e-14
16	0x2afd9fa4	4.50526e-13
17	0x259fd706	2.772781e-16
18	0x29857f78	5.928499e-14
19	0x2b9fa214	1.1342615e-12
20	0x29ccfbdb	9.10311e-14
21	0x2b07d538	4.8257535e-13
22	0x28fdb62f	2.8167652e-14
23	0x2aa81e7f	2.9863956e-13
24	0x26838fd7	9.128939e-16
25	0x2aeb6fc4	4.182194e-13
26	0x2b12f78e	5.221317e-13
27	0x268cf028	9.779546e-16
28	0x2b296b0f	6.0189435e-13
29	0x2a8b841b	2.4783027e-13
30	0x2ae07176	3.9869123e-13
31	0x2ad966c1	3.8618243e-13
32	0x2b8218d0	9.243942e-13
33	0x2ab3d03a	3.1941274e-13
34	0x2aea6a8f	4.164069e-13
35	0x2a8ad2f2	2.4660097e-13
36	0x2abecde4	3.3893645e-13
37	0x28028c87	7.246922e-15
38	0x2b052cbc	4.7313173e-13
39	0x2b7ba36f	8.9399923e-13
40	0x28f57e00	2.7255108e-14
41	0x2c4d9408	2.9214426e-12
42	0x2909f696	3.063399e-14
43	0x2b61a1d4	8.016064e-13
44	0x2b67793a	8.223592e-13
45	0x2b82de56	9.298766e-13
46	0x2ad643fe	3.8061215e-13
47	0x2b21da1d	5.7501383e-13
48	0x2c80f72d	3.665421e-12
49	0x264a6a57	7.0226946e-16
50	0x2b4326d3	6.9331796e-13
51	0x2aaa4f65	3.0253157e-13
52	0x290f4556	3.1812518e-14
53	0x29bf5955	8.4976005e-14
54	0x2b83a93f	9.355085e-13
55	0x295e6259	4.9379205e-14
56	0x28b3d20e	1.9964089e-14
57	0x29f8d309	1.1050021e-13
58	0x2a6dda2b	2.1125521e-13
59	0x27bc735d	5.230556e-15

max_exp_avg_sq f4 [30, 2]
0	0x35bf0aef	1.4233791e-06
1	0x363e9515	2.8398983e-06
2	0x35150ad0	5.552256e-07
3	0x35ba7db2	1.3894662e-06
4	0x359827cc	1.1336465e-06
5	0x376661bc	1.3731824e-05
6	0x355eff74	8.307318e-07
7	0x35e81b9a	1.729338e-06
8	0x360fa2fb	2.1403528e-06
9	0x3747d4c6	1.19108645e-05
10	0x3459429e	2.0233935e-07
11	0x35828a48	9.726e-07
12	0x345801ab	2.0117174e-07
13	0x354bd2d6	7.59302e-07
14	0x352b469a	6.3805203e-07
15	0x351b6ad6	5.7897466e-07
16	0x3575c125	9.1550675e-07
17	0x35ca08a9	1.5052693e-06
18	0x34b1373e	3.3009013e-07
19	0x35b16dca	1.321948e-06
20	0x355ce194	8.2284646e-07
21	0x3603860e	1.9598551e-06
22	0x3608ecdb	2.0403447e-06
23	0x36761814	3.6670872e-06
24	0x36b6cabd	5.4476245e-06
25	0x370c8398	8.375289e-06
26	0x35a919d0	1.2598994e-06
27	0x371eb92f	9.46065e-06
28	0x350462a1	4.9317356e-07
29	0x36985cdb	4.540763e-06
30	0x36791a34	3.7119144e-06
31	0x36e9bc8b	6.9658904e-06
32	0x35533a73	7.868868e-07
33	0x35e3b10d	1.6964347e-06
34	0x36882bf1	4.0582313e-06
35	0x37302058	1.0497948e-05
36	0x356532a6	8.538285e-07
37	0x35adf3a1	1.296041e-06
38	0x34ad6025	3.2293715e-07
39	0x358c26b8	1.0442081e-06
40	0x359622a5	1.1185954e-06
41	0x36821591	3.8768126e-06
42	0x360eac0c	2.1259793e-06
43	0x36f1d495	7.2071075e-06
44	0x34bee3d9	3.555604e-07
45	0x3616be3e	2.2462477e-06
46	0x36107f9b	2.1531948e-06
47	0x36936dfc	4.3937453e-06
48	0x3589adf4	1.0257922e-06
49	0x36a156ca	4.8082775e-06
50	0x354a9c38	7.547819e-07
51	0x35c599d8	1.4722418e-06
52	0x34f29789	4.518627e-07
53	0x3597ffd2	1.132483e-06
54	0x3515f3dc	5.586169e-07
55	0x34b7c36c	3.4228594e-07
56	0x34d3c558	3.94454e-07
57	0x34a26a40	3.0252158e-07
58	0x34228962	1.5137405e-07
59	0x35f52d03	1.8267023e-06

exp_avg f4 [30]
0	0x326415b0	1.3276278e-08
1	0xb4b39e55	-3.345655e-07
2	0xb4c1985f	-3.6059916e-07
3	0xb4a9677b	-3.1553995e-07
4	0xb4b263e6	-3.322777e-07
5	0xb44d16fd	-1.9100476e-07
6	0xb4f19ce4	-4.50039e-07
7	0x33b53a68	8.439093e-08
8	0x340edb2f	1.3304519e-07
9	0x348bb3a8	2.6021485e-07
10	0xb444e736	-1.8338037e-07
11	0xb3769ca5	-5.7418806e-08
12	0x349f3719	2.9656147e-07
13	0x3505dbc5	4.986617e-07
14	0x33dfcbc9	1.0421315e-07
15	0x346d03b8	2.2073698e-07
16	0x31f6ed66	7.1865314e-09
17	0xb4a85657	-3.135526e-07
18	0x34292f4a	1.5756555e-07
19	0x342c4509	1.6043863e-07
20	0xb50dc45e	-5.2812345e-07
21	0x34eb9662	4.388158e-07
22	0x34abef06	3.2025144e-07
23	0xb5105a89	-5.3775926e-07
24	0x34a7cc6c	3.125491e-07
25	0x34dc6b82	4.1056416e-07
26	0x34150411	1.3878186e-07
27	0xb3bee50b	-8.889227e-08
28	0xb3b967e8	-8.633634e-08
29	0xb4927977	-2.7282996e-07

exp_avg_sq f4 [30]
0	0x254e69bc	1.7903476e-16
1	0x29fc1016	1.11938386e-13
2	0x2a1269bf	1.3004093e-13
3	0x29e03576	9.956872e-14
4	0x29f89f6a	1.1041066e-13
5	0x29245400	3.6488174e-14
6	0x2a640949	2.025369e-13
7	0x2800d72d	7.152086e-15
8	0x289f7135	1.7701642e-14
9	0x29987aab	6.7714355e-14
10	0x291777be	3.3632595e-14
11	0x276e2c8e	3.3053288e-15
12	0x29c60fb9	8.795694e-14
13	0x2a8bffed	2.4868944e-13
14	0x2843cf78	1.0869662e-14
15	0x295b7589	4.8729714e-14
16	0x247bfa54	5.4638985e-17
17	0x29dd6597	9.8319946e-14
18	0x28dfb460	2.4836199e-14
19	0x28e7e2db	2.5744535e-14
20	0x2a9d0436	2.7891724e-13
21	0x2a58cf79	1.9256635e-13
22	0x29e6f3c0	1.0256336e-13
23	0x2aa2ccfd	2.891922e-13
24	0x29dc0064	9.7700304e-14
25	0x2a3dc95e	1.6856435e-13
26	0x28ad8229	1.9263306e-14
27	0x280e81f9	7.910767e-15
28	0x280659db	7.4579786e-15
29	0x29a7a051	7.4441e-14

max_exp_avg_sq f4 [30]
0	0x365c34b6	3.2813236e-06
1	0x3539cbac	6.921425e-07
2	0x364e4a99	3.0739814e-06
3	0x35befca6	1.4229634e-06
4	0x3688d80b	4.0782666e-06
5	0x3521b1ae	6.023573e-07
6	0x34e47442	4.2552898e-07
7	0x34ad82db	3.231897e-07
8	0x3613ad22	2.2005484e-06
9	0x34b5814c	3.3807953e-07
10	0x362381ea	2.4364513e-06
11	0x36d83621	6.443603e-06
12	0x37647ca7	1.3618882e-05
13	0x368a2fec	4.1182993e-06
14	0x35b02100	1.3122626e-06
15	0x37216ca3	9.621642e-06
16	0x35c75c43	1.4853507e-06
17	0x37128a80	8.734525e-06
18	0x348c3993	2.6118923e-07
19	0x358352fc	9.784412e-07
20	0x363fcd00	2.8580544e-06
21	0x36dcaedb	6.576867e-06
22	0x350a4cc3	5.152071e-07
23	0x36dcac8a	6.576597e-06
24	0x363c7bc8	2.8086233e-06
25	0x34ecc0c8	4.4098692e-07
26	0x3573be49	9.0801456e-07
27	0x34f05db9	4.4771676e-07
28	0x358b2c53	1.0369207e-06
29	0x346787ab	2.1562907e-07

exp_avg f4 [30, 30]
0	0xb42938e1	-1.5760044e-07
1	0x3446abb7	1.8502656e-07
2	0xb2fcb489	-2.9418759e-08
3	0xb443b218	-1.822558e-07
4	0xb3c25b47	-9.050432e-08
5	0x33db4a36	1.0211481e-07
6	0x34452a05	1.8362341e-07
7	0x33dfa775	1.0414707e-07
8	0xb427fd5f	-1.5645263e-07
9	0x31783768	3.6120245e-09
10	0xb401a80c	-1.2075196e-07
11	0xb3fe2cd1	-1.1835949e-07
12	0xb31f04fd	-3.702461e-08
13	0x342fd2a4	1.6374776e-07
14	0x33ae3cd6	8.1135724e-08
15	0xb4379416	-1.7097076e-07
16	0x342c7bfe	1.6063856e-07
17	0x344b3064	1.8923453e-07
18	0xb42a8bb0	-1.5883302e-07
19	0xb3b2ac76	-8.3201414e-08
20	0x340c94cf	1.3092652e-07
21	0x33fff5c5	1.1919068e-07
22	0x342a0ae0	1.583644e-07
23	0xb35e3294	-5.1734403e-08
24	0x32c95e47	2.3442352e-08
25	0xb4597ce5	-2.0255136e-07
26	0xb2ea66f7	-2.7288008e-08
27	0x33f96668	1.16135936e-07
28	0x340de44d	1.3214704e-07
29	0x34208553	1.4949664e-07
30	0x347cc306	2.3540278e-07
31	0xb3f496b1	-1.1389546e-07
32	0xb3032b55	-3.0540225e-08
33	0x349a0094	2.8685156e-07
34	0x3420fa58	1.4992236e-07
35	0xb38057b8	-5.9764204e-08
36	0xb3c59681	-9.200904e-08
37	0xb26f8b0b	-1.3943246e-08
38	0x34871b5a	2.516561e-07
39	0x341e41d0	1.4738839e-07
40	0xb3e49f70	-1.0646079e-07
41	0x33104e1e	3.359866e-08
42	0x3398ab08	7.109162e-08
43	0xb3445059	-4.5707882e-08
44	0x31062267	1.9519122e-09
45	0x34af4eaf	3.265354e-07
46	0xb4041cbc	-1.2303911e-07
47	0xb4db5666	-4.0854792e-07
48	0x347ebd42	2.3724445e-07
49	0xb1771564	-3.595539e-09
50	0xb47c1347	-2.3476342e-07
51	0x34128417	1.3645364e-07
52	0xb3291d18	-3.937484e-08
53	0xb3e441d7	-1.06290535e-07
54	0x31c32248	5.6791443e-09
55	0x34aadabb	3.1824115e-07
56	0xb21eae5b	-9.236454e-09
57	0xb47787b3	-2.3053035e-07
58	0xb3d99f44	-1.013382e-07
59	0xb451c97f	-1.9537946e-07
60	0x33350988	4.2151015e-08
61	0xb380566d	-5.976185e-08
62	0xb3ff3435	-1.1883859e-07
63	0x3406eff7	1.2567021e-07
64	0x3214a504	8.652254e-09
65	0x339b8b3f	7.243079e-08
66	0xb4734028	-2.2654478e-07
67	0xb32ed7fc	-4.070897e-08
68	0xb2997e12	-1.7868874e-08
69	0xb4aa6288	-3.1736658e-07
70	0x34b0a367	3.2901445e-07
71	0x3436a599	1.7010315e-07
72	0xb3a760eb	-7.794173e-08
73	0x33b1e3aa	8.2836166e-08
74	0x325765a9	1.2537762e-08
75	0x3488b9b7	2.54671e-07
76	0x331b7397	3.6193878e-08
77	0xb0f44eec	-1.7775768e-09
78	0xb41cb6a7	-1.459508e-07
79	0x3323c088	3.81265e-08
80	0x328a3fac	1.6094269e-08
81	0xb4b4e600	-3.369496e-07
82	0x33e837e1	1.0813506e-07
83	0x346d278b	2.208673e-07
84	0xb3992f89	-7.133264e-08
85	0x32afdf6b	2.047428e-08
86	0x3175ab00	3.5749395e-09
87	0x34aab29c	3.1794923e-07
88	0xb3dbe82a	-1.02402126e-07
89	0xb220814d	-9.342625e-09
90	0xb4cb5d36	-3.7879516e-07
91	0x3531283b	6.599618e-07
92	0xb29d10a2	-1.828477e-08
93	0xb5003d42	-4.777286e-07
94	0xb4330407	-1.6672139e-07
95	0x3452531d	1.958801e-07
96	0x3538dc92	6.8866314e-07
97	0x3491e5d7	2.7175585e-07
98	0xb4e06f75	-4.1804347e-07
99	0x3408b660	1.2732335e-07
100	0xb46578a5	-2.1371177e-07
101	0xb47271ca	-2.2579403e-07
102	0xb2114365	-8.455435e-09
103	0x342e2a51	1.6220407e-07
104	0x3467d5ba	2.1591305e-07
105	0xb4d06ec0	-3.88236e-07
106	0x34f50c2f	4.564367e-07
107	0x35172ecc	5.631998e-07
108	0xb4a31ed4	-3.0383546e-07
109	0xb4902e42	-2.6855747e-07
110	0x34800a9f	2.3849586e-07
111	0x3435a104	1.6915516e-07
112	0x34d9981f	4.0530082e-07
113	0xb4512b24	-1.9480336e-07
114	0x33875238	6.301383e-08
115	0xb53b3c1f	-6.9750416e-07
116	0xb3ad2169	-8.0620175e-08
117	0x34809b03	2.3954644e-07
118	0x348a3139	2.5740317e-07
119	0x34d98247	4.051419e-07
120	0x336329b6	5.2890492e-08
121	0x3443075d	1.8163469e-07
122	0xb350b574	-4.8593805e-08
123	0xb3883ac8	-6.343686e-08
124	0x33c92e81	9.368251e-08
125	0x33e7f10d	1.08006226e-07
126	0x34c5226e	3.671916e-07
127	0x341ba5ad	1.4495772e-07
128	0xb278f258	-1.44906025e-08
129	0x340881f3	1.2713262e-07
130	0xb28c8886	-1.6360229e-08
131	0xb32517e2	-3.8438777e-08
132	0x33a0b49b	7.4834325e-08
133	0xb0c6b355	-1.4457365e-09
134	0x343c4d9d	1.75371e-07
135	0xb24b4c98	-1.1833571e-08
136	0x33c4ef88	9.170532e-08
137	0x33aac5ff	7.952257e-08
138	0xb192beac	-4.270836e-09
139	0xb408cd70	-1.2740725e-07
140	0xb455f6c7	-1.9926948e-07
141	0x30acbf99	1.2569102e-09
142	0x339b2305	7.22412e-08
143	0xb3f330c9	-1.1324443e-07
144	0x34323860	1.6598051e-07
145	0xb4487b1c	-1.8671238e-07
146	0xb3851385	-6.196846e-08
147	0xb2c1db6c	-2.2567939e-08
148	0x32e6d438	2.687203e-08
149	0x3408b9da	1.27336e-07
150	0x338b8f1f	6.4987255e-08
151	0xb3dcc79a	-1.02808556e-07
152	0x34436ab5	1.819961e-07
153	0x337a60a5	5.829556e-08
154	0x332cbaab	4.0216644e-08
155	0x3280356b	1.4925453e-08
156	0xb30a983c	-3.2269085e-08
157	0x34c61b28	3.6900133e-07
158	0x329975dd	1.7865142e-08
159	0xb45be649	-2.0479742e-07
160	0x34ec4c0b	4.4013754e-07
161	0x348ba952	2.6013964e-07
162	0x329f65af	1.8556277e-08
163	0xb49c30ae	-2.9092683e-07
164	0xb4165fa3	-1.4004631e-07
165	0xb28fbf8e	-1.67345e-08
166	0xb4160f50	-1.3975409e-07
167	0x33d59274	9.945225e-08
168	0x343bf280	1.7503953e-07
169	0x3445d925	1.8426051e-07
170	0xb1e23e1a	-6.584526e-09
171	0xb501bf98	-4.833505e-07
172	0xb47c8077	-2.3516064e-07
173	0x349844c8	2.836225e-07
174	0x3405a50a	1.2446631e-07
175	0xb1d02ae2	-6.058472e-09
176	0x33b61a2a	8.4797946e-08
177	0xb3ce5576	-9.608168e-08
178	0xb473d49a	-2.2708483e-07
179	0xb1d44296	-6.177582e-09
180	0x34b630a8	3.3935544e-07
181	0xb4cd0648	-3.8188796e-07
182	0x33da5456	1.0166757e-07
183	0x34c30585	3.6325596e-07
184	0x34787222	2.3138321e-07
185	0xb45b8a30	-2.0446237e-07
186	0xb4a7366f	-3.114578e-07
187	0xb2e36d9d	-2.6476124e-08
188	0x34b26366	3.3227406e-07
189	0xb37da15f	-5.905292e-08
190	0x34e31a2d	4.230109e-07
191	0x34abdc05	3.2011317e-07
192	0x33e6c931	1.0746806e-07
193	0xb4ed80a9	-4.4238303e-07
194	0xb49497f1	-2.76777e-07
195	0x34a04677	2.9853592e-07
196	0xb4e295cc	-4.2204772e-07
197	0xb4981b34	-2.8332e-07
198	0x34f30df4	4.527243e-07
199	0x34a3ba26	3.0496557e-07
200	0xb496939e	-2.8047083e-07
201	0xb4cc597d	-3.8063072e-07
202	0xb508f3df	-5.101883e-07
203	0x348aa6d0	2.5825875e-07
204	0x328cd1ac	1.6393493e-08
205	0x34bae3cd	3.4810947e-07
206	0x33b878df	8.590154e-08
207	0xb4d1511b	-3.8988296e-07
208	0xb4bb7f99	-3.4924304e-07
209	0xb4ab7fa8	-3.1944114e-07
210	0xb437a9b8	-1.7104946e-07
211	0x33ac46de	8.022265e-08
212	0x32e01749	2.6087621e-08
213	0xb45c69c6	-2.0527577e-07
214	0xb449f4c9	-1.8808636e-07
215	0x334a0e1a	4.7044615e-08
216	0x34270db3	1.5558071e-07
217	0xb315f158	-3.4911267e-08
218	0xb3fe12c9	-1.1831214e-07
219	0x3375f8a9	5.7269663e-08
220	0xb41941f4	-1.4273229e-07
221	0xb3d6e68f	-1.000709e-07
222	0xb39cba17	-7.2981656e-08
223	0xb39616d9	-6.989075e-08
224	0xb3e0451e	-1.0443385e-07
225	0xb4b494ea	-3.3635962e-07
226	0x32c3209d	2.2715819e-08
227	0x343cee0e	1.7595468e-07
228	0x338bcb81	6.509709e-08
229	0x338726bd	6.293474e-08
230	0x34694b31	2.172717e-07
231	0x33aaab41	7.947393e-08
232	0xb3873859	-6.296677e-08
233	0x3341cb17	4.5121023e-08
234	0x32dd4ee1	2.5763656e-08
235	0xb3de8f6c	-1.0363769e-07
236	0xb3682433	-5.4049632e-08
237	0xb40b34da	-1.2964611e-07
238	0x33c4d802	9.166253e-08
239	0x33e8eede	1.08467916e-07
240	0x3348fc2e	4.6795485e-08
241	0xb3bfe3fa	-8.935599e-08
242	0x33c1edcd	9.0305186e-08
243	0x31a13974	4.6922484e-09
244	0xb3629082	-5.2751155e-08
245	0xb3b3c02e	-8.370294e-08
246	0x33885a0f	6.349375e-08
247	0x32d764cc	2.5075131e-08
248	0x33c4ffa7	9.173464e-08
249	0xb3a08e4d	-7.476465e-08
250	0x340ae43a	1.293528e-07
251	0x33c13bf7	8.9981704e-08
252	0xb352f0dd	-4.91135e-08
253	0xb493c6bf	-2.752549e-07
254	0xb4b20f58	-3.3166248e-07
255	0xb449b2aa	-1.8784581e-07

exp_avg_sq f4 [30, 30]
0	0x28dfbda0	2.484021e-14
1	0x291a3114	3.4237438e-14
2	0x2679cc50	8.6666124e-16
3	0x29159ba0	3.321963e-14
4	0x2813957d	8.192554e-15
5	0x283bdfc3	1.0429106e-14
6	0x2917dd86	3.3720876e-14
7	0x28437171	1.0849273e-14
8	0x28dc7fe4	2.448037e-14
9	0x2378b128	1.3481621e-17
10	0x28835642	1.458133e-14
11	0x287c5f78	1.4009512e-14
12	0x26c59888	1.3710965e-15
13	0x28f189cd	2.6816136e-14
14	0x27ed3621	6.58394e-15
15	0x2903a889	2.9234024e-14
16	0x28e87202	2.5806617e-14
17	0x29214a40	3.5813583e-14
18	0x28e33e7d	2.5229163e-14
19	0x27f97045	6.9233106e-15
20	0x289a6ce5	1.714466e-14
21	0x287ff111	1.42076165e-14
22	0x28e1e7e8	2.5080591e-14
23	0x2740e924	2.6771738e-15
24	0x261eb0b2	5.505673e-16
25	0x2938c87f	4.103011e-14
26	0x2656a372	7.4467674e-16
27	0x2872fe82	1.3488886e-14
28	0x289d4be3	1.7463412e-14
29	0x28c95495	2.2352164e-14
30	0x297992fd	5.54166e-14
31	0x2869b7bc	1.2973939e-14
32	0x26868219	9.333381e-16
33	0x29b94ace	8.228627e-14
34	0x28ca77a3	2.247839e-14
35	0x2780b93e	3.5727977e-15
36	0x28188aee	8.4678206e-15
37	0x2562925a	1.9651961e-16
38	0x298e9d51	6.333357e-14
39	0x28c3b060	2.172584e-14
40	0x284c3622	1.1336013e-14
41	0x26a2bb6d	1.129181e-15
42	0x27b61c97	5.0546145e-15
43	0x2716a3c5	2.0905461e-15
44	0x22bbb13e	5.0874114e-18
45	0x29f01bdb	1.0662973e-13
46	0x28885e18	1.513984e-14
47	0x2a3bee77	1.669167e-13
48	0x297d7f58	5.6287738e-14
49	0x23824ba4	1.4126663e-17
50	0x297839d1	5.511721e-14
51	0x28a7b98b	1.8621191e-14
52	0x26df9f5e	1.551693e-15
53	0x284b923b	1.1300472e-14
54	0x24186392	3.3044085e-17
55	0x29e41006	1.01280136e-13
56	0x24c5061c	8.544548e-17
57	0x296f5b58	5.314789e-14
58	0x283901cf	1.0269955e-14
59	0x292bed53	3.8175473e-14
60	0x2700d599	1.787936e-15
61	0x27812915	3.5849234e-15
62	0x287e804e	1.4127654e-14
63	0x288e5b37	1.5804725e-14
64	0x24be3abb	8.249886e-17
65	0x27bd4f09	5.254373e-15
66	0x296735ca	5.133896e-14
67	0x26f0de32	1.6713572e-15
68	0x25c01c4a	3.332586e-16
69	0x29e2cf48	1.0072374e-13
70	0x29f3c647	1.08257634e-13
71	0x2902536c	2.8938156e-14
72	0x27daf511	6.0772856e-15
73	0x27f775ca	6.868398e-15
74	0x25392d6c	1.6061582e-16
75	0x299213d5	6.487143e-14
76	0x26be3338	1.3197781e-15
77	0x23cbb786	2.208703e-17
78	0x28bfe81f	2.1305926e-14
79	0x26d1f17c	1.4567743e-15
80	0x259d09e5	2.7241863e-16
81	0x29ffae86	1.135455e-13
82	0x2852c57f	1.1700167e-14
83	0x295bb5a4	4.8785317e-14
84	0x27b77064	5.0914558e-15
85	0x25fa3383	4.3402993e-16
86	0x23711f43	1.3071256e-17
87	0x29e3a635	1.01096574e-13
88	0x283cf40a	1.0489014e-14
89	0x24eb6e08	1.02101404e-16
90	0x2a218e0f	1.4348959e-13
91	0x2af53274	4.3555751e-13
92	0x25c27feb	3.3740316e-16
93	0x2a807b24	2.2822814e-13
94	0x28fa62b5	2.7798383e-14
95	0x292ccefc	3.8371202e-14
96	0x2b057e8d	4.7426716e-13
97	0x29a64da9	7.385353e-14
98	0x2a44c5c6	1.7476913e-13
99	0x28920cc9	1.62148e-14
100	0x294db4f8	4.567611e-14
101	0x29659cf1	5.098434e-14
102	0x24a63578	7.2081604e-17
103	0x28ed0216	2.631319e-14
104	0x2951f3b2	4.6618694e-14
105	0x2a29b537	1.5073087e-13
106	0x2a6a9156	2.0833799e-13
107	0x2ab292db	3.1721053e-13
108	0x29cfe121	9.2317e-14
109	0x29a26846	7.212334e-14
110	0x29801859	5.6885655e-14
111	0x2900e2c8	2.861841e-14
112	0x2a38f382	1.6426967e-13
113	0x292aea1d	3.7950644e-14
114	0x278f14e2	3.9713114e-15
115	0x2b08f1a3	4.8652244e-13
116	0x27ea308a	6.5000673e-15
117	0x2981376f	5.738367e-14
118	0x299532ac	6.6257194e-14
119	0x2a38d0ab	1.6414879e-13
120	0x2749b0e2	2.7990242e-15
121	0x29149548	3.2992082e-14
122	0x272a3fab	2.3626754e-15
123	0x2791039e	4.0249506e-15
124	0x281e24b4	8.778721e-15
125	0x28522a12	1.1666464e-14
126	0x2a17ce51	1.3483075e-13
127	0x28bd4bbb	2.1016058e-14
128	0x25765b64	2.1368063e-16
129	0x289198f3	1.6164565e-14
130	0x259caab6	2.7177364e-16
131	0x26d5567e	1.4803288e-15
132	0x27c9c8b5	5.6006314e-15
133	0x23305668	9.559276e-18
134	0x290a82cd	3.0755607e-14
135	0x25231b89	1.4147326e-16
136	0x28178284	8.410485e-15
137	0x27e42988	6.332774e-15
138	0x23cbdd14	2.2102934e-17
139	0x289236ec	1.6233075e-14
140	0x2932da34	3.97132e-14
141	0x23140a50	8.02528e-18
142	0x27bc0b66	5.219284e-15
143	0x28670e76	1.2826212e-14
144	0x28f827b2	2.7550746e-14
145	0x291d026b	3.48631e-14
146	0x278a5eb7	3.8405384e-15
147	0x26136d4a	5.1148984e-16
148	0x2650cf4e	7.2445447e-16
149	0x28920f44	1.6215877e-14
150	0x27986408	4.229693e-15
151	0x283e9484	1.0579323e-14
152	0x29152d0c	3.3123718e-14
153	0x27756694	3.4056188e-15
154	0x26e9b848	1.6217572e-15
155	0x2582a76d	2.2664857e-16
156	0x2697beee	1.0529481e-15
157	0x2a194f1d	1.3616578e-13
158	0x25bc6175	3.267884e-16
159	0x293cea23	4.1947467e-14
160	0x2a5a1e7b	1.9372865e-13
161	0x29986404	6.767506e-14
162	0x25c6de89	3.449832e-16
163	0x29be9731	8.4639225e-14
164	0x28b0b40d	1.961801e-14
165	0x25a6187b	2.8812998e-16
166	0x28aff80c	1.9536476e-14
167	0x28326048	9.901863e-15
168	0x2909fdbe	3.0640197e-14
169	0x2918ecfa	3.3956324e-14
170	0x2468e673	5.050218e-17
171	0x2a8386a7	2.3363708e-13
172	0x29791202	5.5304726e-14
173	0x29b528a1	8.045063e-14
174	0x288b8db9	1.5493562e-14
175	0x245c2f58	4.7744997e-17
176	0x28018c64	7.191381e-15
177	0x2826564b	9.233563e-15
178	0x29683f62	5.1569324e-14
179	0x24523995	4.5585265e-17
180	0x2a01ab9d	1.1517042e-13
181	0x2a243620	1.4584904e-13
182	0x283a3ced	1.0338285e-14
183	0x2a1493fc	1.3196383e-13
184	0x29712336	5.354329e-14
185	0x293c4c3f	4.181052e-14
186	0x29da76ff	9.701787e-14
187	0x264cb849	7.102647e-16
188	0x29f8a26b	1.10415874e-13
189	0x277b5554	3.4879504e-15
190	0x2a497836	1.7894093e-13
191	0x29e6c012	1.0247371e-13
192	0x285011ac	1.15501514e-14
193	0x2a5c5849	1.9570555e-13
194	0x29ac8212	7.660898e-14
195	0x29c8b61a	8.913374e-14
196	0x2a488f02	1.7813184e-13
197	0x29b4c7d9	8.028274e-14
198	0x2a66c418	2.0496137e-13
199	0x29d16ef0	9.300709e-14
200	0x29b127e0	7.867296e-14
201	0x2a231f59	1.4488184e-13
202	0x2a9288ef	2.6029827e-13
203	0x29963212	6.670024e-14
204	0x259c2986	2.7089824e-16
205	0x2a08731f	1.2119167e-13
206	0x2804ee89	7.379196e-15
207	0x2a2b260d	1.5201052e-13
208	0x2a095402	1.219719e-13
209	0x29e5cd43	1.020525e-13
210	0x2903c669	2.9259937e-14
211	0x27e7fa58	6.4386803e-15
212	0x2644ee3a	6.832402e-16
213	0x293dc801	4.2139906e-14
214	0x291f5454	3.5378235e-14
215	0x271f9c63	2.215046e-15
216	0x28da0f1f	2.420942e-14
217	0x26b03f7e	1.2229663e-15
218	0x287c3c3a	1.400187e-14
219	0x276cbcac	3.2853858e-15
220	0x28b78bb3	2.0377666e-14
221	0x28347076	1.0016393e-14
222	0x27bfedfc	5.3271173e-15
223	0x27b02836	4.889341e-15
224	0x28447e2a	1.0907543e-14
225	0x29fec52b	1.1314069e-13
226	0x26152979	5.1750966e-16
227	0x290b7666	3.0966894e-14
228	0x2798c082	4.2397192e-15
229	0x278ebd1c	3.961795e-15
230	0x29549eb5	4.7211113e-14
231	0x27e3c91a	6.322319e-15
232	0x278ee13c	3.9657117e-15
233	0x27130a36	2.0405883e-15
234	0x263f9394	6.646644e-16
235	0x28418f51	1.0744729e-14
236	0x27528e78	2.9220587e-15
237	0x28976a3b	1.6810438e-14
238	0x281761c0	8.40338e-15
239	0x285406b6	1.1769819e-14
240	0x271e0b0d	2.1932895e-15
241	0x280fecb1	7.989419e-15
242	0x2812f08a	8.156787e-15
243	0x23edced3	2.5783185e-17
244	0x2748af9c	2.7850774e-15
245	0x27fc804b	7.0083146e-15
246	0x27917b0a	4.0378984e-15
247	0x2636662e	6.3282414e-16
248	0x2817ace6	8.419675e-15
249	0x27c9715d	5.5911616e-15
250	0x2896b87f	1.6733358e-14
251	0x2811df8e	8.097593e-15
252	0x272dd724	2.41252e-15
253	0x29aa9e21	7.5769476e-14
254	0x29f7b359	1.10001153e-13
255	0x291eefa2	3.5290896e-14
