paper/Burgers/runs/random_results/random_grid3checkpoint.pt (torch, 59031 bytes, 36 tensors)

func_approx.network.0.weight f4 [30, 2]
000000 7a 8e 3a 3d 71 f4 19 3f 33 3f 27 bf 7d 96 45 bf
       0.045546032 0.60138613 -0.6533081 -0.7718275
000010 44 13 9e be 93 92 63 3e 57 01 ca bd d1 53 46 3f
       -0.30874074 0.22223882 -0.09863537 0.77471644
000020 41 aa e1 bd a0 f7 ac 3e c4 ce 27 bf ed db e6 bd
       -0.110188015 0.33782673 -0.65549874 -0.11272416
000030 73 c3 8b bf 41 85 40 bf 2d ff 9f bf 55 75 64 3e
       -1.0919021 -0.7520333 -1.2499748 0.22310384
000040 62 54 b0 3e 43 2e 20 3f e5 02 a4 bd 78 97 cd be
       0.3443938 0.6257059 -0.080083646 -0.40154624
000050 52 c7 d4 3b 36 73 40 3f ef 83 c9 be ad aa 27 3f
       0.0064934874 0.751758 -0.3935847 0.65494806
000060 ef 50 fe bd 0f 44 ed 3c b9 b2 70 3f c9 b3 56 bf
       -0.124177806 0.028963117 0.9402271 -0.8386808
000070 19 4f 18 bf 84 30 8f be 1a 9b ad be cf 30 51 3f
       -0.59495693 -0.27966702 -0.33907396 0.817151
000080 4f 57 ee be e7 66 14 bf 68 91 f1 be 41 a7 64 bf
       -0.46550986 -0.57969517 -0.4718125 -0.8931771
000090 42 06 6f bf 2e 53 52 3f d4 d0 dc 3e 53 47 ca 3e
       -0.93368924 0.8215817 0.43128073 0.3950754
0000a0 97 2e 9f 3d a6 f6 04 bf f6 8f b2 3e 0c 41 52 bf
       0.07772558 -0.51938856 0.34875458 -0.82130504
0000b0 9b ef 0b bf 8c 1b 1d bf cf e5 d6 3e 64 99 08 3f
       -0.54662484 -0.6137016 0.41972205 0.53359056
0000c0 76 a7 48 bf 32 f2 04 3d dc b8 bf 3e b2 76 62 3f
       -0.78380525 0.032457538 0.37445724 0.88462365
0000d0 b2 ab 7f be b9 ca 57 3e a9 09 88 3f 68 bb 1b bf
       -0.2496784 0.21073426 1.0627948 -0.60832834
0000e0 2b 80 0b 3f 94 bf 29 bf 87 5c 0d bf aa 68 ef be
       0.54492444 -0.6630795 -0.5521931 -0.4675954

func_approx.network.0.bias f4 [30]
000000 de 18 99 3e 76 73 e0 bb db 2a bb be 43 73 81 3e
       0.29901785 -0.0068497015 -0.36556134 0.2528325
000010 60 63 c0 3e 81 8b 83 bc b2 8f de bc 27 d2 7b bd
       0.37575817 -0.016057732 -0.027168129 -0.061479714
000020 f5 cc b9 3e b8 f3 23 3f ac 9a 09 bf 83 1b 9c be
       0.36289182 0.6404376 -0.53751636 -0.3048974
000030 16 9d 90 3e c7 3d f6 3e 53 c9 e5 3e 77 53 15 3f
       0.28244847 0.48094007 0.4488016 0.5833048
000040 a5 cf 11 3d 7c 0f 0e bf d6 bc 24 be 0b f1 b4 be
       0.035598416 -0.5549238 -0.1608766 -0.3534015
000050 c0 4f 17 bf a5 3a 24 3f 80 2c 84 3e 96 2a 24 bf
       -0.59106064 0.64151984 0.258152 -0.6412748
000060 33 c7 ed 3d 37 bc 0c 3e 8c d9 42 be 69 63 07 3c
       0.1161026 0.13743673 -0.190283 0.008263447
000070 60 89 53 3e 64 fd b5 be
       0.20657873 -0.35544884

func_approx.network.2.weight f4 [30, 30]
000000 ef 4d ec 3d 6c 91 82 3c cd 4f 0e 3e fc 0a dc 3d
       0.11538302 0.015938483 0.13897629 0.107442826
000010 40 31 03 be 54 98 1d be 0b 75 03 3d 1d 34 59 3e
       -0.12811756 -0.1539014 0.032094043 0.21211286
000020 65 fc cf bd 2d 24 07 be 0b 6e 80 3e ef e7 58 3e
       -0.10155562 -0.13197394 0.25083956 0.21182226
000030 46 44 e6 bc ff 94 2e be 53 9a 1e be bd 25 10 3c
       -0.028108727 -0.17049025 -0.15488558 0.00879806
000040 84 71 4d be 67 d2 25 be fd a0 88 3d 25 bc 9d 3d
       -0.20062834 -0.16193543 0.06671331 0.07701901
000050 be fc e9 bd 6f af 85 3b 9a 37 3c be dc d9 56 3e
       -0.1142516 0.004079751 -0.18380585 0.20981544
000060 e2 97 22 3e 82 fc cb bd fb cf bc bc 88 f8 51 bd
       0.15878251 -0.099602714 -0.023048392 -0.05126241
000070 55 b4 7d bd f3 40 80 ba 3a 20 46 bc 7a e2 4f 3d
       -0.061939556 -0.0009784981 -0.012092644 0.050753094
000080 64 d3 30 be d0 00 2e ba 20 7c 80 be 74 ee f2 bd
       -0.17268139 -0.00066376943 -0.250947 -0.118618876
000090 40 c8 5c bd 76 e5 32 bf f3 30 dd bd 4d 16 ca bd
       -0.05390191 -0.6988138 -0.10800352 -0.09867535
0000a0 bd 0f 29 be ef f0 32 be 2a 11 41 be bd 15 83 3e
       -0.1650991 -0.17474721 -0.18854204 0.25602522
0000b0 53 36 5a 3d a2 31 b5 bd 9a 26 52 3d d2 43 4c 3c
       0.053274464 -0.08847357 0.051306345 0.0124673415
0000c0 e0 d9 52 be 22 b8 a1 3d 28 fd 6e 3e 74 fc 9d 3e
       -0.20590925 0.07896449 0.23338759 0.3085667
0000d0 57 eb 4f 3e 1c 70 60 bd 51 ae 02 bf 94 c4 20 be
       0.20304619 -0.054794416 -0.51047236 -0.15699989
0000e0 bc 07 97 3d 22 ef 59 3e 7a 1c e6 3d cc d1 e5 bd
       0.07374522 0.21282628 0.112359 -0.11221656
0000f0 34 84 2b be d3 b3 25 be e5 04 07 bd 2d ca 85 3d
       -0.1674965 -0.16181879 -0.032963652 0.065327026
000100 d3 5a 02 3e 2f b4 40 be 18 87 ba 3d ef b2 8f be
       0.12729959 -0.18818735 0.09107798 -0.28066203
000110 91 41 c6 bc 8e de 87 bd 75 38 23 bd ba be 31 bd
       -0.024201186 -0.06634246 -0.039848763 -0.04339478
000120 8d 4b 19 be 61 b4 46 be c4 3e fe bc d6 8b e4 bc
       -0.14970227 -0.19404747 -0.031035788 -0.02789871
000130 1b da c7 bd 55 80 b8 3d 9a 99 51 be 8f 2a 02 bc
       -0.09758397 0.090088524 -0.2046875 -0.007944717
000140 b9 c3 04 3e 19 5c c4 bd 1f dd 33 3e 13 1b 4e 3d
       0.12965287 -0.09587879 0.1756482 0.05031879
000150 34 2a 7e be 84 8e 9f 3d 1e ae ac 3c 11 56 b0 bd
       -0.24820787 0.077908546 0.02107912 -0.08610166
000160 7f 9c 17 3e 53 b9 3a be 39 18 07 3e a3 42 70 be
       0.14805792 -0.18234758 0.13192834 -0.2346292
000170 84 b1 d3 3d f2 2e 13 3e 25 a8 39 3e f2 55 13 bd
       0.10336593 0.14373377 0.18130548 -0.035970636
000180 33 ee 78 be 48 9a 21 be 3c e6 eb bc 54 cf 0a 3e
       -0.24309616 -0.1578151 -0.028796308 0.13555652
000190 b7 a4 5c 3e df a7 57 3e 7a 10 5b bd 8d c3 89 bd
       0.21547209 0.21060131 -0.05348251 -0.067267515
0001a0 c3 2f c0 bd 61 25 ff bc b4 8d 85 be 1f 30 68 bd
       -0.0938411 -0.031145753 -0.26084673 -0.056686517
0001b0 57 19 18 bd 98 22 48 3d e4 79 b9 bd 63 f7 3e 3d
       -0.03713354 0.048861116 -0.09056452 0.046622645
0001c0 04 c4 6f be 39 97 07 be 9b 3d 44 be d4 da 94 3e
       -0.23414618 -0.1324128 -0.19164126 0.29073203
0001d0 d5 c9 34 bd f9 f8 bd 3d aa 79 a8 bc 23 51 cd bd
       -0.044137795 0.092760034 -0.020565826 -0.10025241
0001e0 33 8c db 3d 01 c8 0f be 0b 9b 10 3d 07 14 93 3d
       0.107201 -0.14041139 0.03530411 0.07181554
0001f0 d9 64 3c 3d 09 c4 01 be cd b5 3b be fa c0 0d bf
       0.045994613 -0.12672438 -0.1833107 -0.55372584
000200 a4 e9 6e 3e 1a be 38 be 6f 7c f6 bb ae 1a 35 3e
       0.23331314 -0.18041268 -0.007522158 0.17685959
000210 df 80 6e 3d 18 86 2a 3d d9 70 46 be c7 58 49 3e
       0.05822837 0.041631788 -0.19378985 0.19662772
000220 b0 9c 7a be cf 04 3b be 0c 56 d6 bd 7e d3 f3 3c
       -0.24473834 -0.18263553 -0.10465631 0.029763933
000230 07 75 5f bd 19 fb 29 3e ab 0b 82 bd ac 61 5b 3e
       -0.054554965 0.16599692 -0.06349882 0.21423978
000240 22 72 76 be 19 fe 7a ba 25 96 87 3d 19 b0 62 bc
       -0.24066976 -0.00095746067 0.06620435 -0.01383593
000250 89 eb 84 bd d0 3e d4 3b 89 35 3b 3d 1b c2 9c 3d
       -0.06490237 0.0064772144 0.045705352 0.0765421
000260 5f 92 7a be c3 d0 da bc ff f3 8e 3d bd fe 9f be
       -0.24469899 -0.026710873 0.06980132 -0.31249037
000270 be 7c b0 3c 9f 6a 98 bf f6 76 1e 3d 16 e7 82 3c
       0.021543857 -1.1907538 0.03868767 0.015979331
000280 6d 9f 3d be 7b cb 41 be af f6 e3 3d a0 e5 80 3e
       -0.18517847 -0.18925278 0.111310355 0.2517519
000290 b8 4a 90 be 79 18 9d bd 72 9d 79 be 1f 15 0c 3d
       -0.28182006 -0.076706834 -0.24376467 0.03419983
0002a0 ce 85 bf be c8 71 4e bd 83 e8 dc bd a0 72 9c 3e
       -0.37406772 -0.05040148 -0.107865356 0.30556202
0002b0 ae 50 1b bc ff 91 2d 3e 91 a8 35 bf 0e 83 58 bd
       -0.009479685 0.16950224 -0.70960337 -0.05285936
0002c0 2b c5 37 be 65 f2 a6 3e 65 3a bc 3e c4 d9 d8 bb
       -0.17946307 0.32606807 0.36763301 -0.0066177566
0002d0 15 c6 03 be 17 72 d3 bc 2f 7a 66 be 18 bb bf 3b
       -0.12868531 -0.025811238 -0.22507547 0.0058511607
0002e0 fc 85 17 be 98 fe 2b be 06 4d 3e 3e 3c be fc be
       -0.14797205 -0.16796339 0.1858407 -0.49363887
0002f0 29 c5 34 bd 88 26 af 3d 96 c4 c0 bd c4 1c 8d be
       -0.04413334 0.08552271 -0.09412496 -0.2756101
000300 c5 5a 4b be 5d d2 b3 3e f8 6c 2a bc 84 ab 18 3e
       -0.19858845 0.35121432 -0.010401957 0.14909178
000310 bd f6 29 bc c1 12 5a 3d bb 57 59 be 0c 94 13 bd
       -0.010373768 0.05324054 -0.21224873 -0.03602986
000320 29 79 a8 bd 9a 22 5d 3e c6 1b d0 3d 1d 35 12 bd
       -0.082262345 0.2159523 0.10161547 -0.035695184
000330 b5 2b 9b be 6e bd 28 be e7 2f 80 3d 8f 7e 6a 3c
       -0.30306783 -0.16478512 0.06259137 0.0143124005
000340 39 90 67 3e 26 3a 1d bd 46 1e 17 bd 36 80 50 bd
       0.2261361 -0.038385533 -0.036894105 -0.05090352
000350 ea 67 8e bd d8 56 c4 3d 9d 21 c0 3d 13 d7 26 be
       -0.06953414 0.09586877 0.09381411 -0.16292982
000360 2a a7 0a bd 27 95 d8 bc 7d 4e df 3d 7a 83 97 bd
       -0.033850826 -0.026438309 0.10903642 -0.07398124
000370 b9 d6 37 bd dc 25 db 3d 3c ce df 3d eb b2 5a be
       -0.04488251 0.107005805 0.10928008 -0.21357314
000380 cd fb be 3d ad bd 1e 3e 9b a9 26 be 53 42 00 bd
       0.09325371 0.15502043 -0.16275637 -0.03131325
000390 d1 2c 33 3e 94 eb 67 3d 6a 4c 7a bc 87 d3 ef bd
       0.17497565 0.05662115 -0.015277008 -0.117102675
0003a0 54 a4 6d be 10 86 53 3d 03 3f 3e 3e e1 ef 67 3e
       -0.23207217 0.051641524 0.18578725 0.226501
0003b0 ba 44 38 3e 3b 0a bf bc 59 38 75 bd f9 b9 04 be
       0.17994967 -0.023320308 -0.05986819 -0.12961568
0003c0 dd 71 50 be 69 f6 aa bd 23 bb 12 3e 5e c9 9b 3d
       -0.20355935 -0.0834778 0.143292 0.07606767
0003d0 00 c5 22 be 40 74 89 3d 7a 36 3e 3e 9d ae f4 bd
       -0.15895462 0.06711626 0.18575469 -0.11947367
0003e0 3a c7 f0 3d 7f 67 38 3e 98 d7 04 be 3e c8 2f be
       0.117567495 0.1800823 -0.12972867 -0.1716623
0003f0 6a ad 0a 3e e6 3c 57 3e 10 b5 c0 bd 47 dd 11 3e
       0.13542715 0.21019325 -0.09409535 0.14244567

func_approx.network.2.bias f4 [30]
000000 a6 42 5f 3d 98 63 05 3e 7b 9f 02 3d 33 20 3e bc
       0.05450692 0.13026273 0.031890374 -0.011604357
000010 e3 2b 0c 3e c0 92 67 3d 55 a1 e1 3c 5d c0 9d bc
       0.13688616 0.056536436 0.02754275 -0.019256765
000020 60 78 ba 3c 98 05 0b bc 0a 9b 98 bc 40 8b 88 bd
       0.022762477 -0.00848522 -0.018628616 -0.06667185
000030 c1 f5 86 3c d8 4a 13 be 24 a6 db bc c1 6a b1 3d
       0.016474606 -0.1438402 -0.02681262 0.0866294
000040 22 0e 5b bd 6e 2d 3a be 35 b9 79 bc db 26 ba 3c
       -0.053480275 -0.18181393 -0.015241911 0.022723606
000050 bc 2f f3 3d ac 55 ff 3c 14 34 9a 3d 9a c9 eb bd
       0.11874339 0.031168781 0.07529464 -0.11513062
000060 96 5e 00 3d c7 39 cd 3d e0 d3 00 3e f9 29 b0 bc
       0.031340204 0.10020786 0.12580824 -0.02150439
000070 16 66 de bd 8d 6a b8 3d
       -0.10859315 0.09004698

func_approx.network.4.weight f4 [30, 30]
000000 f7 f4 26 3e 48 86 81 be 46 14 00 be d5 fa b3 3d
       0.16304384 -0.2529776 -0.12507734 0.08788077
000010 e9 27 03 bd 02 89 bd be 79 f1 81 be df bb c8 3d
       -0.032020483 -0.3701859 -0.25379542 0.098014586
000020 4e 4d 5a be b5 9d 65 3e 31 a4 05 3e 8f 9f b6 3a
       -0.21318552 0.22423442 0.13050915 0.001393305
000030 1e bb b0 bd 72 a8 7d 3d fe cb dc bd 17 35 c5 3d
       -0.0862944 0.06192822 -0.10781096 0.09629267
000040 95 04 8c be 5c 5f 58 bd a7 57 86 be 58 e4 1c 3e
       -0.27347246 -0.052825317 -0.26238748 0.15321481
000050 49 a0 00 bf 40 7c 52 3e 0b ac ce bc 2d 0d 0c be
       -0.50244576 0.2055521 -0.02522852 -0.13676901
000060 06 09 90 3e 99 24 06 3e d9 52 1d bc 99 51 82 3e
       0.28131884 0.13099898 -0.009602272 0.2545288
000070 03 9c 68 be 9f a3 1e 3e f3 0d 8a bd 91 f0 20 bd
       -0.22715764 0.15492104 -0.06740942 -0.039291922
000080 fa 42 fd 3d 65 e9 18 3e 36 16 2e be 76 e4 86 bc
       0.123662904 0.14932783 -0.1700066 -0.01646636
000090 e9 bc 55 3e 98 9b bd 3d 8c 1e 49 3e 32 a3 d4 bd
       0.20872845 0.09258193 0.19640559 -0.103826895
0000a0 01 18 09 be f7 11 68 3e 9f 48 98 3d aa cc d2 3d
       -0.13388063 0.22663103 0.074357264 0.10292943
0000b0 9a fa b3 bd 51 de 77 bd cb d1 21 bc bf 81 9c bd
       -0.08788033 -0.06051475 -0.009876679 -0.076419346
0000c0 12 65 35 3d 0d dd 00 3e ba 26 f7 3a a2 c6 57 3b
       0.04428584 0.12584324 0.0018856146 0.003292479
0000d0 48 b4 e6 3c 7e 8b 06 be 20 26 cf 3d ac 2e 16 be
       0.028162137 -0.1313915 0.10114694 -0.14666241
0000e0 91 a0 df bd 96 5e 36 bd 9f 8f 75 3e cf 29 82 bd
       -0.109192975 -0.044523798 0.23980568 -0.063556306
0000f0 09 a7 cc 3d 72 0c 05 be 23 3b df 3d 08 f1 e8 bc
       0.09992797 -0.12993029 0.10899951 -0.028435245
000100 4e 75 bd 3d d5 73 2f 3e ef 11 2f 3d 84 d5 30 bd
       0.0925089 0.1713403 0.042741712 -0.043172374
000110 ef bf 62 bd af 66 b6 bd 97 8f 97 bc c6 2f 95 3d
       -0.055358823 -0.08906304 -0.018501086 0.07284503
000120 6a 53 97 bd 0c 13 f5 3d 53 38 48 bb 14 ce b0 bd
       -0.07388957 0.119665235 -0.003055115 -0.08633056
000130 49 c7 4f 3c 75 11 c8 be 35 6f 36 3d 5f 59 2c bd
       0.012681791 -0.3907582 0.04453965 -0.04207742
000140 c3 9b ff 3d f9 b8 99 bd fc 2f 66 3e e1 ad 1d 3e
       0.12480881 -0.07505984 0.22479242 0.15398361
000150 a5 85 9d bd 5b fe 3b 3d 4c 9c 40 be f0 43 3e be
       -0.07691506 0.04589687 -0.18809623 -0.18580604
000160 ac c2 25 bd 10 a2 aa 3d 4c de 16 bd 2f db ad be
       -0.040468857 0.08331692 -0.036833093 -0.33956286
000170 41 95 5b be e2 80 19 bc 0a 8e 07 be ab 63 bc be
       -0.21443655 -0.009369107 -0.13237777 -0.3679479
000180 27 12 cb bc 32 25 16 bd 8e e0 6b be f1 1a 22 bd
       -0.02478893 -0.036656566 -0.2303488 -0.039576475
000190 f0 d1 20 be b5 1b f6 bd de 16 0b be f1 ae 68 3e
       -0.15705085 -0.120170034 -0.13582942 0.22722985
0001a0 6c f0 b3 be 35 b2 f6 3c c9 f3 be be c6 25 99 3e
       -0.35144365 0.030114273 -0.37295368 0.2991163
0001b0 50 78 e8 bd eb e7 80 bc 62 0a 1b bf 02 16 8f 3e
       -0.11351073 -0.015735587 -0.6056272 0.27946478
0001c0 cd 50 0d be 7a 39 41 3e fb ea 35 3e ea 64 3d 3d
       -0.13800354 0.18869582 0.17765419 0.046238817
0001d0 25 89 f2 bc cb 02 0c 3e 4c 76 95 3e 8c 64 ae be
       -0.029606411 0.1367294 0.29191816 -0.34061086
0001e0 99 32 0d bc 17 7f e6 3d 14 07 4f bd 20 22 b5 bd
       -0.00861802 0.11254709 -0.05054386 -0.088443995
0001f0 5c 54 43 3d de e3 0f be c9 df c7 3d 23 f4 54 be
       0.047687873 -0.14051768 0.097594805 -0.20796256
000200 d9 6a 3e 3e bc 42 2b be 43 f3 0c 3e 1a 42 3c be
       0.18595447 -0.16724676 0.13764672 -0.1838459
000210 28 cd 03 be 0a 7b ad bd 9c 5e 5b 3e 73 77 3b be
       -0.1287123 -0.084707335 0.2142281 -0.18307285
000220 14 a4 bb bc ed 38 6c 3e e8 c9 c7 3c ef 6f 9a 3d
       -0.022905387 0.2306859 0.024388269 0.07540881
000230 ef 3e 1b be 86 5b 94 bd 22 81 9e bd 2d e8 14 3e
       -0.15160726 -0.07244019 -0.07739474 0.14541693
000240 ee 0d 18 3c 01 e8 fa bd 83 82 ad 3d 5a 95 02 bd
       0.009280665 -0.122512825 0.08472159 -0.031880714
000250 b7 99 17 bd 33 17 15 be fb 2f ca bd ea ef 86 3e
       -0.03701183 -0.14559631 -0.09872433 0.26354915
000260 fd 65 07 be ba e1 4d be f0 d9 9e bd a3 29 29 3e
       -0.13222499 -0.20105639 -0.07756412 0.1651979
000270 e6 8c 45 3e ca 5c 6b bd 77 a0 eb 3d 56 ea 3c be
       0.1929203 -0.057461537 0.115052156 -0.18448767
000280 da 2b bc 3c 5e 6c f8 bd 38 38 63 3e 8f 93 9c be
       0.022970129 -0.121300444 0.22189415 -0.30581328
000290 f3 f7 dd bc 01 70 5e be 2d fa 6b 3d 5c e2 a5 3e
       -0.02709577 -0.21722414 0.057611633 0.3239926
0002a0 6d 6d 8c 3e 81 63 19 be 5d c5 41 3e ff 14 4a 3d
       0.27427235 -0.14979364 0.18922944 0.04933643
0002b0 88 07 f9 3d c4 d1 0c 3e 02 20 52 be 6b fb 14 be
       0.121596396 0.13751894 -0.20520023 -0.14549033
0002c0 36 5a 7c 3e f5 c1 4c be 4f 3d cf 3d 28 0f 2d bd
       0.24643788 -0.19995864 0.101191156 -0.042250782
0002d0 9d 2c ba 3c 25 c7 4f 3e fd 4d 5e 3e 83 e2 07 be
       0.022726351 0.20290811 0.21709438 -0.13270001
0002e0 00 dd 7e be 81 c7 7b bc c4 6e 41 be 77 f9 ea 3d
       -0.24888992 -0.01536739 -0.1888991 0.11473363
0002f0 13 ab 95 bd 29 97 a8 bd 96 05 01 bd 15 b5 3d be
       -0.073080204 -0.082319565 -0.031499468 -0.18526109
000300 c0 e3 83 3d 38 8d 48 be 4c 27 83 be 52 ca f9 bd
       0.06439924 -0.1958512 -0.2561592 -0.12196793
000310 e7 fb e4 3d ea 63 31 bd 49 15 e3 bd 89 dc c8 b9
       0.11180859 -0.043308176 -0.11088044 -0.00038311284
000320 67 ff dc 3d 11 2e 7a bd 97 3d 51 3c 46 b2 56 be
       0.10790902 -0.06107909 0.012771032 -0.20966443
000330 b0 a8 1c bd de 4d 19 3e 83 3f 4a be 58 c7 a7 3d
       -0.03824681 0.1497111 -0.1975079 0.08192319
000340 f8 a2 46 3d 45 b8 1d bd 6d 2b 1e 3d 0c ff b9 3e
       0.048495263 -0.03850581 0.038615633 0.36327398
000350 09 a9 12 bd ef fd 85 bd b7 33 82 3d 78 88 f7 3d
       -0.035805736 -0.065425746 0.0635752 0.12086576
000360 de 89 59 3e d2 3b a2 bc 27 e8 47 3e 55 94 5f be
       0.21243998 -0.019803915 0.19522153 -0.21833928
000370 74 57 cc bd 2e fd 91 3d e3 00 12 3e ee cb 8e be
       -0.09977618 0.07128368 0.14258151 -0.2788996
000380 50 72 7e 3b 2c b2 68 be 4c c7 e3 bc 81 54 11 be
       0.003882546 -0.22724217 -0.027804993 -0.14192392
000390 ff 0d 8e 3e 8d 0a 9a bd 4f 2e f3 3e aa de ba 3d
       0.27745053 -0.07521544 0.47496268 0.09124501
0003a0 b4 e4 c8 3d 76 3b 82 be e7 0d 08 3d e0 a9 9f 3d
       0.09809247 -0.2543599 0.033216383 0.07796073
0003b0 33 69 7b 3e 6a f7 93 be c5 14 9f 3d c0 46 42 3e
       0.24551849 -0.288997 0.07767633 0.18972301
0003c0 e4 86 05 be a3 5d 49 3d 47 37 e1 3e b4 8c 95 3d
       -0.13039738 0.049161565 0.43987486 0.073022276
0003d0 0d b0 12 3e 99 03 e6 3d bb f6 18 3c 37 84 32 3e
       0.1432497 0.11231155 0.009336169 0.17433248
0003e0 95 0e b0 3d 9a 02 58 3e b9 91 ac bc bc 97 92 3e
       0.08596531 0.21094742 -0.02106558 0.2863139
0003f0 04 72 71 be a7 01 a5 be 90 7b e3 3d a3 bd 20 be
       -0.2357865 -0.32227823 0.11107552 -0.1569734

func_approx.network.4.bias f4 [30]
000000 ce cc 74 bd 23 19 90 bd 12 8d 2f bc 7d f8 fb 3d
       -0.05976563 -0.070360444 -0.010714786 0.12303255
000010 be d1 74 3c f9 6f e3 3d 89 cd fc 3b d7 c1 b1 3d
       0.014942585 0.111053415 0.0077149314 0.0867955
000020 fe 39 4f 3d d7 92 1e 3c 1b e0 38 be 45 4d e5 bd
       0.050592415 0.009678564 -0.1805424 -0.111963786
000030 af 3e ac 3c ff db ad 3d a5 91 d9 3d 19 f6 64 bc
       0.021025984 0.084892265 0.106234826 -0.01397469
000040 59 85 8a 3d c1 b2 96 3d 32 19 2c be 00 1a 03 be
       0.06763715 0.07358313 -0.16806486 -0.12802887
000050 88 8b ba bd 6c 97 67 3c 02 35 fc bd 7b 84 30 bd
       -0.09108645 0.014135223 -0.12314798 -0.043095093
000060 84 ba 33 bd 3d 93 8f 3d 3e e9 f9 3c b8 87 14 3e
       -0.043879047 0.07010505 0.030506726 0.14504898
000070 37 04 0d 3e 9f 1e d1 bd
       0.13771139 -0.10210919

func_approx.network.6.weight f4 [30, 30]
000000 8c 6d 0f 3d e7 38 26 bc d7 45 a0 3e 21 de 4a be
       0.03501658 -0.0101454025 0.31303284 -0.19811298
000010 04 9e 9b bd ca 86 1e be cf 3c 92 3d 31 f3 9e bd
       -0.075984985 -0.15481105 0.071405046 -0.07761229
000020 d6 f6 a8 bd 9c 78 f1 3d 3d 92 9a 3e b2 05 a3 bc
       -0.08250205 0.117905825 0.30189696 -0.019900177
000030 95 68 6b be 05 d8 ac 3e c1 71 ca bd c7 b1 57 3b
       -0.22989114 0.3375856 -0.09884978 0.003291236
000040 c4 2b cc bd 31 0b 9a bd 06 3a 24 be fe e3 f7 bd
       -0.09969285 -0.07521666 -0.16037759 -0.12104033
000050 2b cb 6a be f5 4f 5a be 85 84 0d 3e b6 42 0c be
       -0.22929065 -0.21319564 0.13820083 -0.13697323
000060 7f 77 f4 bd 4b 0a a0 bd ad e1 6b 3e 19 f8 6b 3e
       -0.119368546 -0.07814463 0.23035307 0.2304386
000070 8a 63 0f 3d 54 05 d7 bc 5f 47 32 be e7 d9 4a be
       0.035007037 -0.026247658 -0.17410038 -0.19809686
000080 03 3f 57 3d 46 98 c4 3d ee 43 9e bc 40 d5 27 3c
       0.052550327 0.09599356 -0.0193195 0.010243714
000090 2b ed 87 3e 4b 6d e2 bd d7 cf d2 3d e1 d9 2e 3e
       0.26548132 -0.11056002 0.102935486 0.17075302
0000a0 70 95 62 be f6 da 8e bd ce ed 04 3e b0 93 f8 bd
       -0.22127318 -0.06975357 0.1298134 -0.12137544
0000b0 be cc 01 be e4 4e 48 3e 2c 77 4e 3d a8 bb 80 3d
       -0.12675759 0.19561344 0.05040662 0.062857926
0000c0 37 35 2f 3d 71 30 0b 3e 71 18 16 3e 85 28 44 3e
       0.04277536 0.13592698 0.14657761 0.19156082
0000d0 41 9d 1d 3c 4a 4e 52 3d e9 72 31 3e a9 24 54 be
       0.009620012 0.051344194 0.17328991 -0.2071711
0000e0 16 a1 a1 bd 7d 54 29 3d e4 d9 c2 bd 5f 16 1b 3e
       -0.07892053 0.04134034 -0.095142156 0.15145253
0000f0 88 fc 66 be 8f 0a 03 3d 44 50 db bc 13 77 ed 3d
       -0.2255727 0.03199249 -0.026771672 0.11594977
000100 c7 13 c6 3d 11 fd ab 3d 25 ef cd 3d 9e db 63 3e
       0.09671741 0.08397878 0.10055379 0.22251746
000110 54 bf ef bd 97 6b d2 bd 3a f9 44 be 24 08 11 be
       -0.11706415 -0.102744274 -0.19235697 -0.14163262
000120 a8 14 13 3b 11 1a f2 bd 47 b6 f8 3c b7 17 ac 3d
       0.0022442732 -0.11821378 0.030360354 0.08402961
000130 40 b0 ef 3d 15 ef 08 be 12 98 41 bd 27 5a d8 3d
       0.11703539 -0.13372453 -0.047264166 0.1056407
000140 1e 5d 2a bd dc b3 a5 3e 80 87 6f bd 07 e9 55 3d
       -0.04159271 0.32363784 -0.058478832 0.052224185
000150 5b a1 ff bc eb 18 d2 bc 24 22 77 3d 1b 2a bb bd
       -0.03120487 -0.025646647 0.060335293 -0.0913889
000160 8c 98 f2 3d 21 5e 31 bc 09 f7 95 bd b9 e0 4d 3c
       0.11845502 -0.010825665 -0.07322509 0.012565785
000170 06 e6 e8 bd 44 5e c3 3e 44 26 61 3e 63 b5 fa 3d
       -0.113719985 0.38157856 0.21987253 0.12241628
000180 b2 d9 10 3e aa ac 95 bc 9f 93 00 be 07 ca 9b bd
       0.14145544 -0.01827081 -0.12556313 -0.07606893
000190 b7 10 9a be fb b9 4e 3d 60 38 c7 3d db 85 78 be
       -0.30090877 0.050470334 0.097275496 -0.24269812
0001a0 cf 66 b8 3c ab 36 1a be 22 57 a8 3d db db 18 3e
       0.02250996 -0.15059917 0.08219744 0.14927618
0001b0 8c b3 1c be be ad 98 3d a6 5d 0a 3e 5d 63 ac 3e
       -0.15302867 0.07455014 0.13512287 0.33669558
0001c0 2e 40 8e bd 55 ad 86 3d c0 6a 8e 3e d5 91 3c 3e
       -0.06945835 0.06576029 0.2781582 0.18415006
0001d0 1f fb ac be f2 30 80 be c2 52 55 be 22 55 26 be
       -0.3378534 -0.25037342 -0.20832351 -0.16243413
0001e0 68 84 1e 3d b4 e8 41 3e d1 ef c3 bd c5 d3 07 3e
       0.03870049 0.18936425 -0.09567226 0.13264377
0001f0 cd a3 91 3e 1e aa 95 bd ba 39 de bc d3 26 8b bd
       0.28445283 -0.07307838 -0.027127136 -0.067945145
000200 bf 31 89 3c 6c 30 32 3a 67 13 64 bd 05 d8 f7 bd
       0.016747354 0.00067973766 -0.055682566 -0.12101749
000210 29 70 63 be 90 db c6 3d a6 2a 16 3d 03 2b a0 bd
       -0.22210754 0.09709847 0.036661766 -0.07820704
000220 34 d2 75 be d9 87 3d 3d 85 41 3d be ab 4e 2f bd
       -0.24005967 0.046272133 -0.18482025 -0.042799633
000230 14 58 3e be f2 c2 3d be 03 ea 02 3e db c6 99 3c
       -0.18588287 -0.18531397 0.12784581 0.01877158
000240 73 8e ae 3b 52 aa f9 3c 3c e1 39 3c 60 f2 4a 3d
       0.00532704 0.030476723 0.011345204 0.049547553
000250 ad ab 65 be b1 fc 1a 3e f7 e3 c0 be ac c7 5b 3d
       -0.2242877 0.15135457 -0.37673923 0.05365722
000260 66 70 de 3d f4 24 c6 3c 5d 52 0e 3e 04 f3 6f 3e
       0.10861282 0.024187542 0.13898607 0.23432547
000270 8f 4f 11 3d 09 af a0 3d 0d ff 1c 3e a7 7d 72 3e
       0.035476264 0.07845885 0.15331669 0.23680745
000280 81 06 a4 ba 7b 80 c8 bd 82 48 77 3d 15 38 d1 3d
       -0.0012514145 -0.09790131 0.060371883 0.10215775
000290 48 6d 68 3d d6 af 94 bc 7e fa 8a be d5 34 81 be
       0.056744844 -0.018150251 -0.27144235 -0.2523562
0002a0 0e 4c 8d 3d eb 52 6e bc 82 03 31 bc 8f 00 6c 3e
       0.06899272 -0.014546136 -0.010804059 0.23047088
0002b0 5d 16 d1 bd 34 11 14 3e 7d cc 12 bd 88 f7 26 3d
       -0.102093436 0.14459687 -0.035839546 0.040763408
0002c0 8d 51 d8 3d 3d 91 ee 3d 6d 5f 20 3e b8 23 4b be
       0.105624296 0.11648796 0.15661402 -0.19837844
0002d0 35 d4 60 bd 0d 2b 19 bd 75 a8 23 be 29 8c a7 3c
       -0.054889876 -0.037394572 -0.1598223 0.020452576
0002e0 c8 72 52 be 44 57 6b 3d ea 13 35 3e f0 31 3c be
       -0.20551598 0.05745627 0.17683378 -0.18378425
0002f0 46 bd 29 3e 97 14 ae 3d 9f 29 f5 bd d6 04 3d 3e
       0.16576108 0.08500021 -0.11970829 0.18458876
000300 ae 43 03 be c7 30 ac bd 59 6d 0d be a2 1d 66 3d
       -0.12818787 -0.08407741 -0.13811244 0.056180604
000310 8b c3 f5 3d 4c 4b a9 3b 36 b3 e9 bd d7 97 2b bd
       0.120001875 0.005166447 -0.11411135 -0.041892853
000320 a1 ff 2d 3e 3d 39 39 3e 1d 3c 07 3e 61 0e 8b bd
       0.16992046 0.18088241 0.13206525 -0.06789852
000330 61 f6 d9 3c 31 e4 4c be 0c 92 1a 3e 67 59 47 be
       0.02660674 -0.20008923 0.15094775 -0.19467698
000340 ca 40 cc ba 25 79 d1 bc e5 43 96 3d 76 d0 1c 3b
       -0.0015583273 -0.025570462 0.073371686 0.0023927963
000350 1e 7e da bd 8e c5 d7 3d fd f3 2f be d2 4a f3 3a
       -0.10668586 0.105357274 -0.17182918 0.0018561727
000360 67 2a e4 3d d7 75 39 3d 6b b5 25 bb 51 c7 08 3e
       0.111409 0.045278396 -0.0025285135 0.13357283
000370 7c f9 3f be 8d 51 c0 bd 7b b6 74 3e 7b 2d 5a bd
       -0.18747514 -0.093905546 0.23897736 -0.05326603
000380 69 2b e2 bb bd 4c b9 3d ef 3f 99 3d 19 ed 78 bd
       -0.0069021476 0.0904784 0.074828975 -0.06077299
000390 83 53 86 bd 92 83 bf bc e2 48 c0 3d 07 90 db 3d
       -0.06558897 -0.023378167 0.09388901 0.107208304
0003a0 2d 2f a9 3d a8 ab e3 bd 49 5b 0c bd 78 d2 cf 3d
       0.08260951 -0.11116725 -0.034266744 0.101475656
0003b0 1f a2 65 bd b0 02 2f 3a 9a 36 2e 3d 89 9d b7 bd
       -0.056062814 0.00066761207 0.04253254 -0.08965594
0003c0 cf f1 5d be 86 b2 64 3d 0e 02 5d 3d 42 56 07 bd
       -0.21674274 0.055834316 0.053957038 -0.033041246
0003d0 93 7e 73 3d 77 fe 09 3e 35 a0 c2 3c a8 75 32 bc
       0.059446882 0.13475977 0.023758033 -0.010892309
0003e0 f6 1c e7 bc 07 00 12 bd c7 cc b7 3d b9 32 3c be
       -0.028212052 -0.035644557 0.08974605 -0.18378724
0003f0 d7 0a 27 3e 18 46 e7 3c 6e b0 08 be 71 94 21 3e
       0.16312729 0.028231665 -0.13348553 0.15779282

func_approx.network.6.bias f4 [30]
000000 d9 cc 9c bd 3e a2 47 3d ae 0a 0e be cd aa c9 3b
       -0.07656259 0.04873871 -0.13871261 0.0061543942
000010 77 f4 63 ba e5 8c 81 3d 11 45 86 3d 95 79 e4 bd
       -0.0008695791 0.063257016 0.06556142 -0.111560024
000020 57 27 9e 3d 81 de fc 3d 18 02 eb 3b fa 3f b5 3d
       0.07722347 0.12347127 0.0071718805 0.08850093
000030 ef c1 a2 bd bd 9a 18 3d dc 1d 56 3d 7d c9 8e bd
       -0.07947146 0.037256945 0.05227457 -0.069720246
000040 1b ca 89 3d 3f 72 2f be 48 4c 7e bd 63 36 b3 bd
       0.06728002 -0.17133425 -0.062084466 -0.08750608
000050 a0 70 e8 bd 2e 87 b7 bd b8 80 1d be f0 93 dc 3c
       -0.113496065 -0.0896133 -0.15381134 0.02692601
000060 4e 9b bc bc 35 29 19 be b4 08 ac 3c 0e f3 e5 bc
       -0.023023274 -0.14957125 0.021000244 -0.02807
000070 1d b6 4e 3d 61 19 04 be
       0.050466646 -0.12900306

func_approx.network.8.weight f4 [1, 30]
000000 45 76 30 be d1 9a 3a 3e 5a 0a 45 3e 17 81 1b 3e
       -0.17232616 0.1822312 0.1924223 0.15185963
000010 ff 12 e3 bd f1 be 75 3e f6 42 04 3e bb 70 05 3e
       -0.110876076 0.2399862 0.12916169 0.13031285
000020 5b 4d 1f 3e d8 65 9b be d7 ae e7 3d 9e 04 fd 3c
       0.15556853 -0.30351138 0.11312645 0.03088599
000030 b9 e2 01 be 36 5d 43 3e ee 58 1f 3b 3d 1c 7e 3e
       -0.12684144 0.19078526 0.002431448 0.2481546
000040 de a1 94 3d 5e 15 2f be ef ca 78 3e 1c 7c 9c bd
       0.07257436 -0.17097995 0.24296163 -0.076408595
000050 34 2d 5a 3e b5 96 ae 3d a4 39 f8 3d c1 d6 50 3e
       0.21306306 0.08524839 0.12120369 0.20394422
000060 3f 30 0e 3e 3e 9f 95 bd 27 e7 aa bc db 21 1f be
       0.13885592 -0.07305764 -0.020862175 -0.15540259
000070 e5 d4 53 3d 85 6e ba bd
       0.051716704 -0.09103111

exp_avg f4 [30, 2]
000000 68 54 e8 b4 24 95 ca 34 89 c0 bd 35 63 f2 d2 b3
       -4.327478e-07 3.7733946e-07 1.4137632e-06 -9.822977e-08
000010 f5 35 5e 34 27 45 b7 b2 a8 84 13 b5 78 b4 9e b4
       2.069499e-07 -2.133545e-08 -5.495481e-07 -2.9561102e-07
000020 ab c4 48 b5 79 5e 0a b5 d8 d1 b7 35 a5 c8 2d b4
       -7.4791996e-07 -5.154648e-07 1.3695635e-06 -1.6184875e-07
000030 11 62 40 35 fa cf c8 34 d0 87 98 36 d9 00 64 b5
       7.166828e-07 3.7404226e-07 4.5457637e-06 -8.493785e-07
000040 0d 70 9d b4 37 45 e9 b3 9d ae 14 b4 1d 31 d0 34
       -2.9325057e-07 -1.0862498e-07 -1.3847098e-07 3.8778754e-07
000050 62 33 f7 b4 cf ac 2e b5 c0 ec 4e 33 4e 01 bb b4
       -4.604472e-07 -6.507152e-07 4.8178435e-08 -3.4832414e-07
000060 d6 2c 04 b5 b8 2c 93 b5 74 22 52 b5 e5 2f 8d b4
       -4.9239077e-07 -1.0965368e-06 -7.828123e-07 -2.6298144e-07
000070 82 a2 41 35 b0 f5 8e b4 f9 1b e6 34 1e 3b f0 b4
       7.213458e-07 -2.6628322e-07 4.286119e-07 -4.4746497e-07
000080 db b6 70 35 74 9d 37 35 93 4f 45 35 01 97 82 35
       8.9673057e-07 6.8401937e-07 7.3504015e-07 9.729703e-07
000090 4e 36 5d 35 0c ab 6f 34 00 42 09 b5 68 61 91 b4
       8.240794e-07 2.2320836e-07 -5.113252e-07 -2.7079227e-07
0000a0 72 7a c7 33 82 99 1a 35 d0 48 15 35 3c f2 80 35
       9.288932e-08 5.7592854e-07 5.561278e-07 9.607243e-07
0000b0 9c e4 8a 35 d2 11 9d 35 40 f1 e6 b4 e3 6a ea b3
       1.0348335e-06 1.1702598e-06 -4.301637e-07 -1.0915917e-07
0000c0 ca 63 10 36 86 c7 23 b5 83 8e 50 b5 9a fe 95 b4
       2.1515757e-06 -6.1012577e-07 -7.769342e-07 -2.793866e-07
0000d0 b9 e8 03 35 cf 42 e4 b4 d5 9c a5 b5 9b 24 82 b4
       4.913996e-07 -4.251692e-07 -1.2339102e-06 -2.424102e-07
0000e0 50 5a 6d b5 fc 9d cd b3 02 4c 07 35 a3 37 50 35
       -8.84208e-07 -9.5747936e-08 5.0402025e-07 7.7567e-07

exp_avg_sq f4 [30, 2]
000000 41 da 52 2a 3e 52 20 2a da a5 0c 2c 6c fd 2d 28
       1.8727469e-13 1.4239388e-13 1.9987263e-12 9.658381e-15
000010 79 f8 40 29 f5 01 08 26 a9 03 aa 2a 5a ca c4 29
       4.284808e-14 4.718713e-16 3.0200606e-13 8.739251e-14
000020 f1 74 1d 2b 0e 99 95 2a 74 fe 03 2c 7a c3 ec 28
       5.5939894e-13 2.657392e-13 1.875747e-12 2.6286038e-14
000030 60 93 10 2b 4c 95 1d 2a 7d c4 b5 2d 00 18 4b 2b
       5.13636e-13 1.3996199e-13 2.0664576e-11 7.2153394e-13
000040 ab a9 c1 29 4e 99 54 28 2e b8 ac 28 1d 56 29 2a
       8.6003545e-14 1.1801607e-14 1.9175711e-14 1.5040092e-13
000050 1b b7 6e 2a d2 60 ee 2a b4 39 28 27 d1 a2 08 2a
       2.1202174e-13 4.2344475e-13 2.3345964e-15 1.2135715e-13
000060 cd 83 88 2a f7 39 a9 2b 0f 81 2c 2b 14 ca 9b 29
       2.4249908e-13 1.2024261e-12 6.128578e-13 6.918438e-14
000070 b3 76 12 2b 6c b7 9f 29 87 d7 4e 2a eb 6f 61 2a
       5.203435e-13 7.092837e-14 1.8371252e-13 2.0022844e-13
000080 60 57 62 2b df b2 03 2b 98 13 18 2b 99 3c 85 2b
       8.0412586e-13 4.678878e-13 5.402844e-13 9.467038e-13
000090 a6 2a 3f 2b 85 82 60 29 98 2f 93 2a da 36 a5 29
       6.791602e-13 4.98512e-14 2.614547e-13 7.336987e-14
0000a0 64 73 1b 28 49 ba ba 2a a5 21 ae 2a a8 f1 81 2b
       8.62925e-15 3.3169499e-13 3.0931955e-13 9.233074e-13
0000b0 92 b6 96 2b ae c1 c0 2b ce 5b 50 2a 65 96 59 28
       1.0708814e-12 1.3696177e-12 1.8505962e-13 1.20785314e-14
0000c0 7c e1 a2 2c 63 96 d1 2a 43 e8 29 2b 65 c8 af 29
       4.6293507e-12 3.723021e-13 6.036319e-13 7.806324e-14
0000d0 11 f7 87 2a cd 93 4b 2a 52 4a d6 2b 53 66 84 29
       2.4152254e-13 1.80813e-13 1.5226243e-12 5.879728e-14
0000e0 8e 12 5c 2b 7b 79 25 28 a4 02 8f 2a da 5b 29 2b
       7.818545e-13 9.185682e-15 2.5403735e-13 6.016833e-13

max_exp_avg_sq f4 [30, 2]
000000 dc db 6c 35 77 fe 2e 36 c3 19 b0 34 b0 ca a1 35
       8.823679e-07 2.6076139e-06 3.28013e-07 1.2054425e-06
000010 df 8f 4e 35 61 68 47 37 a6 58 24 35 88 27 d3 35
       7.695034e-07 1.1885627e-05 6.122376e-07 1.573223e-06
000020 72 d4 d7 35 4d a0 58 37 a5 04 06 34 a7 27 5e 35
       1.6080578e-06 1.2911926e-05 1.2481412e-07 8.2759146e-07
000030 3a d4 f8 33 59 b2 19 35 ff 09 3c 35 a2 9d 13 35
       1.1587004e-07 5.725647e-07 7.0050004e-07 5.4991153e-07
000040 0a 48 1b 35 8c 23 ac 35 c2 79 52 34 4a e0 88 35
       5.784683e-07 1.2825344e-06 1.960207e-07 1.0198066e-06
000050 47 a7 15 35 23 bb f1 35 88 b2 b9 35 cb 28 5b 36
       5.5750246e-07 1.8010363e-06 1.3835534e-06 3.2657288e-06
000060 fa e8 84 36 9f 4c 15 37 5e 3f 8b 35 d2 62 05 37
       3.9610286e-06 8.898932e-06 1.0374749e-06 7.950426e-06
000070 8d 33 b7 34 4c b2 8f 36 c0 c4 12 36 8d a0 dd 36
       3.4123914e-07 4.2824886e-06 2.187022e-06 6.605004e-06
000080 91 99 d0 34 f3 02 c3 35 2f 2d 45 36 9b fa 2b 37
       3.8854753e-07 1.452949e-06 2.9381588e-06 1.0250743e-05
000090 e9 53 63 35 c6 17 b0 35 c4 fe 63 34 a9 01 82 35
       8.4686195e-07 1.3119941e-06 2.1233706e-07 9.686238e-07
0000a0 a0 dc 29 35 0d 55 5e 36 74 5f c6 35 b5 78 e2 36
       6.327846e-07 3.3130084e-06 1.477993e-06 6.749377e-06
0000b0 c5 21 8a 34 51 f3 01 36 44 4a bb 35 b7 4c 80 36
       2.5729074e-07 1.9364127e-06 1.39542e-06 3.823628e-06
0000c0 2c bd 2e 35 98 a6 94 36 f7 56 d4 34 be 2c be 35
       6.509533e-07 4.430138e-06 3.9551352e-07 1.4169125e-06
0000d0 71 a1 8a 34 3f 76 76 35 ae 22 c7 34 38 74 a6 34
       2.5821967e-07 9.181421e-07 3.709187e-07 3.100447e-07
0000e0 ae 02 a8 34 19 d2 8c 34 79 42 e8 33 62 33 e2 35
       3.1294388e-07 2.6229898e-07 1.0815433e-07 1.6853267e-06

exp_avg f4 [30]
000000 c7 2d dd b4 90 66 f4 b4 6b 3c 03 b5 1a 5e 1c b5
       -4.1197765e-07 -4.5523166e-07 -4.888922e-07 -5.8251464e-07
000010 de 84 7a 34 a9 1c ed b4 aa a7 90 b5 74 40 51 b5
       2.3331401e-07 -4.4165543e-07 -1.0777633e-06 -7.795236e-07
000020 4a 57 83 34 4e 2d d2 33 f8 70 40 b3 a4 ec 0d b4
       2.4464163e-07 9.787128e-08 -4.4806228e-08 -1.3217738e-07
000030 9f d1 14 b2 ec 86 4d 35 4a 1b 0d 34 f7 ae d0 b4
       -8.662396e-09 7.656479e-07 1.3141576e-07 -3.8870323e-07
000040 d0 d4 9e b4 a1 c9 42 34 90 5e 55 b4 7a ae 4a b4
       -2.9584635e-07 1.814101e-07 -1.9871572e-07 -1.887619e-07
000050 d1 b6 75 b3 57 ee 72 35 5a 1c 36 33 16 a1 fa b4
       -5.720978e-08 9.0498855e-07 4.2400963e-08 -4.6683334e-07
000060 5e 16 e8 af 7a fc 6a 34 a8 45 3d b4 18 27 df 34
       -4.2216447e-10 2.1884799e-07 -1.7627337e-07 4.156543e-07
000070 45 4f 4a 34 03 60 40 b3
       1.8841554e-07 -4.4790806e-08

exp_avg_sq f4 [30]
000000 ad 20 3f 2a a7 65 69 2a 7a 90 86 2a 55 09 bf 2a
       1.6975545e-13 2.0729825e-13 2.3903432e-13 3.393489e-13
000010 c1 4b 75 29 aa a5 5b 2a 08 7d a3 2b 6e 29 2b 2b
       5.4466634e-14 1.9508584e-13 1.161655e-12 6.08089e-13
000020 bf c7 86 29 91 b3 2c 28 9f 8b 13 27 d6 78 9e 28
       5.985446e-14 9.586855e-15 2.0476037e-15 1.7593928e-14
000030 ed 0a da 24 f9 0f 25 2b df aa 9b 28 e0 26 2a 2a
       9.456094e-17 5.864194e-13 1.728256e-14 1.511252e-13
000040 6b 25 c5 29 e4 69 14 29 c7 a2 32 29 2b 80 20 29
       8.7550484e-14 3.2954447e-14 3.9665127e-14 3.5638305e-14
000050 29 1b 6c 27 d3 91 66 2b f1 9b 02 27 0f 6d 75 2a
       3.2766303e-15 8.1914786e-13 1.812566e-15 2.1798209e-13
000060 91 11 6c 25 79 ce 57 29 33 0f 0c 29 d6 a2 42 2a
       2.0475689e-16 4.7918677e-14 3.1099428e-14 1.7287156e-13
000070 6f 38 20 29 23 1a 11 27
       3.5576085e-14 2.0136961e-15

max_exp_avg_sq f4 [30]
000000 53 8b 35 36 d9 b0 d0 34 2c 6e 1c 36 c2 ae 91 35
       2.70522e-06 3.8871693e-07 2.330994e-06 1.0854203e-06
000010 67 9d 4f 36 01 c7 f0 34 b9 f0 a5 34 45 ad f8 34
       3.0937024e-06 4.4848278e-07 3.0908794e-07 4.631967e-07
000020 61 bb fb 35 ab 86 89 34 d3 7b 03 36 df 2e b6 36
       1.8755492e-06 2.5616222e-07 1.9592596e-06 5.429479e-06
000030 1b 07 39 37 d2 88 6a 36 f2 6d 8d 35 5c 26 05 37
       1.1028514e-05 3.4948357e-06 1.0537317e-06 7.936349e-06
000040 cf cc 67 35 2b 6f 0a 37 c4 68 9a 34 59 ac 50 35
       8.635224e-07 8.251324e-06 2.8760962e-07 7.7736837e-07
000050 86 c6 14 36 91 df c3 36 63 4f 0c 35 38 7a ab 36
       2.2169274e-06 5.8374794e-06 5.2269587e-07 5.1104253e-06
000060 1c 02 0b 36 b7 29 86 34 54 b9 23 35 01 9d cc 34
       2.0713842e-06 2.4989797e-07 6.099192e-07 3.8112196e-07
000070 4e 14 97 35 80 ae 27 34
       1.1256286e-06 1.561657e-07

exp_avg f4 [30, 30]
000000 6f 90 1c b3 6d af 77 34 c3 c2 ff b3 bd 3c dc b3
       -3.6452942e-08 2.3067487e-07 -1.190979e-07 -1.02555965e-07
000010 75 8b f9 32 90 a9 1a 33 75 ff 84 34 3c 6c 73 b2
       2.9050833e-08 3.6010135e-08 2.4772785e-07 -1.4169071e-08
000020 b7 a6 1a b3 93 bf 2f 34 7e f3 67 b4 3e 48 59 b4
       -3.6007545e-08 1.636784e-07 -2.1602133e-07 -2.0235981e-07
000030 57 de 53 33 ae a9 7c 34 0d 50 ef 33 9e 73 33 b2
       4.9329483e-08 2.3531058e-07 1.1143866e-07 -1.044546e-08
000040 be 05 33 34 1d 8b 09 b1 80 80 5d b4 cd da 04 b4
       1.6672763e-07 -2.00152e-09 -2.0628977e-07 -1.2373057e-07
000050 db 7d 92 b3 56 2b 70 34 6e b5 82 34 bc 38 13 b4
       -6.821548e-08 2.2367507e-07 2.4346394e-07 -1.3711082e-07
000060 96 79 97 32 f8 d5 3a b4 e1 2f ba b3 e1 20 09 34
       1.7634004e-08 -1.7400441e-07 -8.670009e-08 1.277108e-07
000070 5b 9a 54 34 31 22 05 33 4f 33 0d 34 0f 52 7a b4
       1.9800193e-07 3.0997573e-08 1.3150314e-07 -2.3312917e-07
000080 a8 2b b4 32 96 87 75 34 48 4b d2 b1 93 c2 f9 31
       2.097461e-08 2.2866729e-07 -6.120363e-09 7.2689743e-09
000090 5a c7 87 b4 7c ef e6 33 98 63 fc 33 16 e9 8d b4
       -2.5290757e-07 1.07537716e-07 1.17527804e-07 -2.643289e-07
0000a0 39 f5 6d 34 ba 94 9e 34 1b 4c c5 b3 b0 28 83 b4
       2.2161557e-07 2.9538006e-07 -9.187371e-08 -2.4430256e-07
0000b0 b9 65 0b b4 41 d1 29 34 bd 27 18 b4 3e ec 74 b4
       -1.298239e-07 1.5815478e-07 -1.417056e-07 -2.2810215e-07
0000c0 b4 33 ad 34 77 80 22 34 1a 08 04 32 a2 80 be b4
       3.226138e-07 1.5134161e-07 7.685253e-09 -3.548385e-07
0000d0 67 9d 08 b4 a7 0e 37 34 1a d5 6e b1 df ba 8d 34
       -1.272325e-07 1.7048534e-07 -3.4754692e-09 2.6399263e-07
0000e0 da 67 19 31 95 ba df 32 c6 8a 92 b4 d7 22 1d b3
       2.2323463e-09 2.6045464e-08 -2.729559e-07 -3.6586098e-08
0000f0 ef 6e e2 33 80 32 89 34 4f aa 61 b5 27 d5 64 33
       1.0544124e-07 2.5554982e-07 -8.4066863e-07 5.3279248e-08
000100 e0 8f 82 35 b9 49 2a b5 a3 b6 77 35 72 0b fd 33
       9.727628e-07 -6.3437216e-07 9.228044e-07 1.17833125e-07
000110 e5 52 b9 b4 97 ad 66 35 6e b9 4a 34 9a cc 4b 34
       -3.451925e-07 8.5934283e-07 1.8880175e-07 1.8980282e-07
000120 59 f6 c0 33 3a 05 86 b4 33 7f 92 34 47 b0 c3 b2
       8.985507e-08 -2.4963248e-07 2.728717e-07 -2.278115e-08
000130 cb 49 d7 34 a6 2d 07 b4 e9 6c 4e b2 74 0b 09 b5
       4.0100562e-07 -1.2589462e-07 -1.20155415e-08 -5.1053144e-07
000140 c8 6d 2b b5 d0 cc 09 b5 6d ea d9 34 7e f1 99 b4
       -6.3862217e-07 -5.133452e-07 4.0589967e-07 -2.867418e-07
000150 ef 58 c0 34 a1 c9 f9 33 b1 a3 a4 b4 d1 72 9a 34
       3.5827495e-07 1.1631642e-07 -3.0666482e-07 2.8768275e-07
000160 e3 72 1b b4 84 0c 4b 35 a1 c3 57 b4 fa 86 35 35
       -1.4477295e-07 7.5641606e-07 -2.0094605e-07 6.762417e-07
000170 9b 5f 7f 34 35 7a 3f b3 4b 91 cc b3 c3 d7 df 34
       2.3783507e-07 -4.45818e-08 -9.525919e-08 4.1693974e-07
000180 bd 93 71 35 2b e9 97 34 8a 59 01 b5 50 32 13 b4
       8.9994484e-07 2.8295594e-07 -4.818654e-07 -1.3708745e-07
000190 96 3d 17 34 a9 1e 54 34 85 5d b5 b2 1d 64 46 b4
       1.4085376e-07 1.9755193e-07 -2.1113701e-08 -1.8476608e-07
0001a0 9a c6 af 34 40 5c 8d 33 3d e6 ec 34 d0 98 2f 35
       3.2740792e-07 6.582604e-08 4.4125946e-07 6.541495e-07
0001b0 34 c7 2f 34 1f 26 7f b4 92 4e 58 34 ff 98 6d b4
       1.6370615e-07 -2.3762594e-07 2.0145151e-07 -2.2128005e-07
0001c0 29 60 d2 34 70 b4 22 b3 f7 c0 d3 34 fd 86 eb b4
       3.9185514e-07 -3.788267e-08 3.9442213e-07 -4.3870378e-07
0001d0 7c b3 46 34 ba 72 61 b4 e5 2f 5f b4 01 d3 12 35
       1.8505483e-07 -2.0996495e-07 -2.0785917e-07 5.469629e-07
0001e0 73 13 f7 b4 9f f1 fb 34 05 d5 2e b3 6a 4f 29 b4
       -4.6021486e-07 4.6928196e-07 -4.0706272e-08 -1.5768242e-07
0001f0 bf c5 99 b4 1a 84 0e 35 23 55 10 35 97 5d af 34
       -2.864235e-07 5.3091355e-07 5.376807e-07 3.2664386e-07
000200 3b 7c 24 b5 9c 9e bf 33 2e f7 ac b3 76 16 6f 33
       -6.127554e-07 8.9229815e-08 -8.054336e-08 5.5666952e-08
000210 33 fe 46 34 d7 d2 44 b4 54 8e 6d 34 76 b7 20 b4
       1.8532664e-07 -1.8330626e-07 2.2124124e-07 -1.4967904e-07
000220 d3 a1 dd 34 f4 e4 77 35 5b 5c d0 34 06 d0 5f b4
       4.12822e-07 9.234784e-07 3.8810217e-07 -2.0844172e-07
000230 87 5e 18 35 44 7b 1f 32 fd 7f b3 34 fe 1c 1e b4
       5.676197e-07 9.283045e-09 3.3434472e-07 -1.4725444e-07
000240 40 d0 bd 34 08 43 a2 b4 15 a0 9d b3 ab 27 04 b5
       3.5355515e-07 -3.0223623e-07 -7.340001e-08 -4.9231556e-07
000250 2a 84 1f b4 5e 9c af 34 71 84 ac 33 82 3f 7f 34
       -1.485611e-07 3.2710062e-07 8.033465e-08 2.377183e-07
000260 16 00 08 33 46 e1 bb 33 d9 15 49 34 44 3e db 34
       3.1665046e-08 8.748843e-08 1.8727532e-07 4.0837233e-07
000270 dd 7a bd 34 70 00 35 35 07 23 c5 32 a4 42 c3 34
       3.5293388e-07 6.742839e-07 2.2949747e-08 3.6370068e-07
000280 d7 f3 4a b4 8c c3 e8 33 b1 72 3e 34 fa 78 07 b5
       -1.8901424e-07 1.08389116e-07 1.7736853e-07 -5.0467463e-07
000290 7f a1 2d 35 05 3d 7f 34 99 14 79 34 d4 13 84 b3
       6.468253e-07 2.3770924e-07 2.3197425e-07 -6.150336e-08
0002a0 72 01 fd 34 60 7b 02 b5 e4 14 7f b4 7d 23 83 b2
       4.7125974e-07 -4.860831e-07 -2.3756326e-07 -1.5266545e-08
0002b0 da 48 c3 34 df 80 1e b5 e4 41 0a 35 62 bc e0 b3
       3.6374587e-07 -5.904712e-07 5.150489e-07 -1.04650795e-07
0002c0 2e a4 a1 33 39 06 35 b5 f5 a6 7e b4 76 f5 48 33
       7.527011e-08 -6.743681e-07 -2.3716332e-07 4.6789374e-08
0002d0 e9 84 b5 b3 8a 7a 4e 33 76 a7 bf 33 e1 16 a7 b3
       -8.4526455e-08 4.807456e-08 8.9245916e-08 -7.780705e-08
0002e0 17 d2 52 b3 0e 7a 01 34 69 04 cf 33 2b 7b 3f 34
       -4.908551e-08 1.2058464e-07 9.639991e-08 1.783307e-07
0002f0 a3 fe d4 b3 24 83 56 b3 eb 53 2c b4 94 f8 ef b1
       -9.9183374e-08 -4.994503e-08 -1.6049277e-07 -6.9840755e-09
000300 bf 78 12 b3 20 9f 37 b4 88 3a 07 34 34 ea 98 b3
       -3.4103092e-08 -1.7101092e-07 1.2594148e-07 -7.120653e-08
000310 02 a5 bb 33 e0 79 19 34 d5 1b 37 33 52 63 0f b4
       8.737881e-08 1.4293573e-07 4.263332e-08 -1.3354045e-07
000320 b4 98 9e 33 5e 3d d3 33 02 26 93 33 c7 ae 6d b4
       7.385225e-08 9.836616e-08 6.8521345e-08 -2.2135929e-07
000330 69 bf 9d 33 76 31 9d b3 34 72 87 33 93 49 0c b4
       7.3456995e-08 -7.319879e-08 6.307201e-08 -1.3065282e-07
000340 da eb ae b2 bb cf f0 33 71 98 c1 b2 ab 31 01 33
       -2.0363519e-08 1.1213657e-07 -2.253748e-08 3.0080326e-08
000350 5d 2a 13 33 74 8c 42 b2 35 a4 1e b3 bf b9 73 32
       3.4264634e-08 -1.1324222e-08 -3.6936587e-08 1.4186695e-08
000360 3e d4 d8 33 43 7e c4 33 c8 cb 92 b3 da 7e 1a b4
       1.00968904e-07 9.149928e-08 -6.8357224e-08 -1.4388516e-07
000370 28 a6 0f 34 58 ee 09 33 7b fb 7f b3 b5 4a 4f b3
       1.337836e-07 3.211457e-08 -5.9600534e-08 -4.826389e-08
000380 b8 0c f5 b3 93 d6 b6 b3 0e 39 22 b1 e6 cb 02 34
       -1.1411015e-07 -8.514066e-08 -2.3606535e-09 1.2181371e-07
000390 db ca 66 32 89 4d e6 33 ee a7 85 33 d1 06 c9 b3
       1.3433886e-08 1.0724313e-07 6.223841e-08 -9.361032e-08
0003a0 be a5 37 b3 4b 94 4d 34 5d 25 55 31 65 b4 7e b2
       -4.275875e-08 1.9146061e-07 3.1016818e-09 -1.4825763e-08
0003b0 35 96 62 32 4c 62 ec b2 8a 19 83 b1 70 59 dc 33
       1.31890845e-08 -2.7518716e-08 -3.8155052e-09 1.0260817e-07
0003c0 22 2a 16 34 74 c4 ba b3 c4 93 19 32 24 d8 43 34
       1.3985166e-07 -8.6970346e-08 8.93937e-09 1.8239422e-07
0003d0 e8 77 5d 33 21 60 76 b3 91 6d cd b3 3b 2a 7c 34
       5.1564626e-08 -5.7363767e-08 -9.5659864e-08 2.3484692e-07
0003e0 15 e5 f2 33 bc 0d 25 b4 16 0c b4 34 79 80 57 34
       1.1310673e-07 -1.5371819e-07 3.3536406e-07 2.0070173e-07
0003f0 50 cc 2b b3 2a f3 ac b4 4c fd 4d b4 73 0c 0b 34
       -3.999986e-08 -3.2214422e-07 -1.9184262e-07 1.2949913e-07

exp_avg_sq f4 [30, 30]
000000 61 fa bf 26 1b a8 6f 29 84 8b 7f 28 71 88 3d 28
       1.3321153e-15 5.321447e-14 1.4185596e-14 1.0521194e-14
000010 3e e5 73 26 48 06 bb 26 60 33 8a 29 4e 2e 69 25
       8.461824e-16 1.2977434e-15 6.137343e-14 2.0225217e-16
000020 89 81 bb 26 e1 52 f1 28 fd 2a 52 29 b7 6c 38 29
       1.3010842e-15 2.6792318e-14 4.6666653e-14 4.0950502e-14
000030 fd 62 2f 27 bf 61 79 29 97 b8 5f 28 2e b8 03 25
       2.433979e-15 5.5373888e-14 1.2419013e-14 1.1424841e-16
000040 41 67 fa 28 1d c6 45 23 5a a9 3f 29 a8 e5 89 28
       2.7800355e-14 1.07213435e-17 4.255741e-14 1.5309653e-14
000050 02 d2 a7 27 b8 53 61 29 99 7a 85 29 b9 56 a9 28
       4.6579502e-15 5.003265e-14 5.927654e-14 1.8800379e-14
000060 41 85 b3 25 68 60 08 29 6c 6b 07 28 2b eb 92 28
       3.1141847e-16 3.0281685e-14 7.517299e-15 1.6311244e-14
000070 4f 91 30 29 48 18 8b 26 ea e2 9b 28 2d d6 74 29
       3.9205886e-14 9.651644e-16 1.7306865e-14 5.436465e-14
000080 23 b1 ff 25 c0 8d 6b 29 f3 ff 66 24 3f a7 8c 24
       4.435548e-16 5.230343e-14 5.0090097e-17 6.099865e-17
000090 4f 12 90 29 fb 88 50 28 ed 21 79 28 7e 6b 9d 29
       6.3980607e-14 1.1576022e-14 1.3829633e-14 6.9908475e-14
0000a0 5b 39 5d 29 43 84 c4 29 de 16 18 28 9e 7f 86 29
       4.9121606e-14 8.727092e-14 8.4426535e-15 5.9729335e-14
0000b0 40 df 97 28 97 7b e1 28 de f8 b4 28 62 6f 6a 29
       1.6861187e-14 2.5033617e-14 2.0091943e-14 5.2055047e-14
0000c0 1c 74 ea 29 6b 5d ce 28 ef 8c af 24 92 c7 0d 2a
       1.0411829e-13 2.2911108e-14 7.61329e-17 1.2592556e-13
0000d0 e5 eb 91 28 92 f8 02 29 f7 aa bf 23 5b f8 9c 29
       1.6200537e-14 2.90814e-14 2.0780668e-17 6.9708745e-14
0000e0 78 9f f8 22 27 e2 44 26 ff d3 a7 29 17 3b c3 26
       6.738938e-18 6.8307654e-16 7.453065e-14 1.3546859e-15
0000f0 77 99 48 28 0c 19 93 29 13 ee 46 2b b8 e7 4d 27
       1.1135508e-14 6.532456e-14 7.0674125e-13 2.857508e-15
000100 48 2d 85 2b 06 8d e2 2a 57 b4 6f 2b 73 8e 7a 28
       9.462786e-13 4.024352e-13 8.516013e-13 1.39086766e-14
000110 2d 31 06 2a 21 dd 4f 2b 95 98 20 29 0b 4d 22 29
       1.1918652e-13 7.384805e-13 3.565948e-14 3.603805e-14
000120 5b 7e 11 28 c4 5e 8c 29 84 b6 a7 29 b7 c3 1c 26
       8.076516e-15 6.233688e-14 7.447951e-14 5.4388616e-16
000130 9a 14 35 2a 30 0c 8f 28 ee dd 36 25 7c bf 92 2a
       1.6083177e-13 1.5881475e-14 1.5861176e-16 2.606768e-13
000140 52 9a e5 2a 41 5c 94 2a 2a 86 39 2a 1a 35 b9 29
       4.0785653e-13 2.6354095e-13 1.6477848e-13 8.224862e-14
000150 bf 88 10 2a 1e 17 74 28 45 c8 d3 29 d5 6b ba 29
       1.2837213e-13 1.3549734e-14 9.4050236e-14 8.278765e-14
000160 91 e5 bc 28 1d 15 21 2b ea db 35 29 48 b8 00 2b
       2.0971751e-14 5.722799e-13 4.038082e-14 4.5730477e-13
000170 32 ca 7e 29 c8 4b 0f 27 93 81 23 28 8d ba 43 2a
       5.6574706e-14 1.9886318e-15 9.076415e-15 1.7384202e-13
000180 57 f8 63 2b 54 51 b4 29 8c b7 82 2a c4 64 a9 28
       8.099124e-13 8.007714e-14 2.322e-13 1.880647e-14
000190 e5 d5 b2 28 5d d1 2f 29 cc 00 01 26 a0 d8 19 29
       1.9854732e-14 3.90394e-14 4.4756946e-16 3.4160717e-14
0001a0 b0 63 f1 29 2d 3e 9c 27 87 39 5b 2a 77 e6 f0 2a
       1.0719843e-13 4.336611e-15 1.9471066e-13 4.279248e-13
0001b0 9c 8d f1 28 55 50 7e 29 b5 cb 36 29 54 9d 5c 29
       2.6817788e-14 5.6469007e-14 4.0588806e-14 4.8986273e-14
0001c0 7b e2 2c 2a f7 9e d0 26 63 28 2f 2a 80 b1 58 2a
       1.5355245e-13 1.4475987e-15 1.5557134e-13 1.9246237e-13
0001d0 e4 3e 1a 29 59 9a 46 29 7d a2 42 29 35 6c a8 2a
       3.4249418e-14 4.4098707e-14 4.321759e-14 2.9917879e-13
0001e0 66 78 6e 2a 2f f4 77 2a 4e 11 ef 26 b0 f8 df 28
       2.1180418e-13 2.2022725e-13 1.6588647e-15 2.4865824e-14
0001f0 99 bd b8 29 a6 ae 9e 2a 1a c0 a2 2a cf 43 f0 29
       8.2041314e-14 2.8187625e-13 2.8910278e-13 1.0669904e-13
000200 f2 5f d3 2a 86 7a 0f 28 4d dc e9 27 e0 a3 5f 27
       3.7547705e-13 7.964663e-15 6.490934e-15 3.1036304e-15
000210 eb ae 1a 29 dd 61 17 29 d6 71 5c 29 ac d6 c9 28
       3.4346586e-14 3.3613618e-14 4.894855e-14 2.2408582e-14
000220 30 e1 3f 2a 11 0d 70 2b ed 9a 29 2a 5c ad 43 29
       1.7042335e-13 8.528326e-13 1.5063966e-13 4.3449063e-14
000230 18 63 b5 2a 0d ff d4 24 33 b9 fb 29 c8 54 c3 28
       3.222082e-13 9.237242e-17 1.1178766e-13 2.1686117e-14
000240 bd bd 0c 2a 1d b3 cd 29 76 24 c2 27 e3 73 88 2a
       1.2500327e-13 9.1349e-14 5.3885348e-15 2.4238866e-13
000250 fd d8 c6 28 99 ef f0 29 a2 d2 e8 27 23 9d 7e 29
       2.207652e-14 1.06997046e-13 6.4621304e-15 5.6535624e-14
000260 cd ac 90 26 6d 0f 0a 28 98 f7 1d 29 ab c5 3b 2a
       1.0038845e-15 7.663884e-15 3.5075756e-14 1.6677516e-13
000270 91 49 0c 2a 0b f5 ff 2a 38 f2 1a 26 b5 ef 14 2a
       1.2460021e-13 4.5467132e-13 5.375775e-16 1.3228206e-13
000280 b6 f5 20 29 27 c3 53 28 26 af 0d 29 5b 62 8f 2a
       3.5740257e-14 1.175517e-14 3.1460206e-14 2.547015e-13
000290 cc 88 eb 2a 7a 82 7e 29 76 6c 72 29 8f b4 88 27
       4.1839308e-13 5.65125e-14 5.382887e-14 3.7943345e-15
0002a0 63 0d 7a 2a be 04 85 2a 41 31 7e 29 87 e8 8d 25
       2.2209105e-13 2.3628837e-13 5.644205e-14 2.4617168e-16
0002b0 fd fd 14 2a aa 48 c4 2a 1f 57 95 2a 2a a1 45 28
       1.323316e-13 3.4867015e-13 2.652817e-13 1.0970644e-14
0002c0 8f 24 cc 27 f1 01 00 2b 31 56 7d 29 7c 8e 1e 27
       5.666101e-15 4.547743e-13 5.6252044e-14 2.2004146e-15
0002d0 91 d9 00 28 31 38 27 27 79 88 0f 28 ba 6d da 27
       7.1526046e-15 2.3206367e-15 7.967687e-15 6.062612e-15
0002e0 b0 06 2e 27 62 05 83 28 87 99 27 28 e5 46 0f 29
       2.4150976e-15 1.4546256e-14 9.303653e-15 3.181387e-14
0002f0 4e 66 31 28 76 15 34 27 1d 0e e8 28 63 5f 6d 24
       9.8476576e-15 2.4991652e-15 2.5763295e-14 5.147198e-17
000300 b1 ce a7 26 54 c6 03 29 51 f8 8e 28 93 20 b7 27
       1.1643977e-15 2.9259865e-14 1.5872857e-14 5.082802e-15
000310 7a a6 09 28 ce 26 b8 28 79 ae 03 27 82 b0 a0 28
       7.6411266e-15 2.0444933e-14 1.8274484e-15 1.7840116e-14
000320 cf e3 c4 27 b7 68 2e 28 c2 5b a9 27 3f bf 5c 29
       5.464792e-15 9.681647e-15 4.7006407e-15 4.9015693e-14
000330 63 a1 c2 27 00 6c c1 27 6a 60 8f 27 d6 e5 99 28
       5.4020793e-15 5.3685355e-15 3.9795005e-15 1.7086088e-14
000340 93 3f f1 25 90 b2 62 28 cc eb 12 26 ba db 82 26
       4.1849915e-16 1.258424e-14 5.097349e-16 9.080119e-16
000350 f6 67 a9 26 9a 72 16 25 11 ca c4 26 1d d4 69 25
       1.1754909e-15 1.3049255e-16 1.3655002e-15 2.0281395e-16
000360 03 c0 37 28 57 dd 16 28 2c 74 a8 27 ef 7c ba 28
       1.0200177e-14 8.374668e-15 4.675532e-15 2.070433e-14
000370 ae 3d a1 28 a1 f2 94 26 f4 fb 7f 27 79 13 28 27
       1.790134e-14 1.0335328e-15 3.5524943e-15 2.332524e-15
000380 54 94 6a 28 f7 a4 02 28 b0 fe 02 23 37 b2 85 28
       1.3021773e-14 7.252221e-15 7.101246e-18 1.4843255e-14
000390 f3 b4 52 25 3a 32 4f 28 4d a5 8b 27 0e e9 1d 28
       1.8275904e-16 1.15016995e-14 3.875947e-15 8.765786e-15
0003a0 de d4 03 27 86 18 25 29 9d 34 4c 23 cb 61 80 25
       1.8295298e-15 3.665863e-14 1.10700035e-17 2.2270728e-16
0003b0 a2 69 49 25 a9 e2 5a 26 c7 71 9a 23 a7 b7 3d 28
       1.7469761e-16 7.5941125e-16 1.67449e-17 1.0531431e-14
0003c0 e6 36 b0 28 92 63 08 28 49 09 bc 24 b5 d9 15 29
       1.9563734e-14 7.5711074e-15 8.154773e-17 3.3273477e-14
0003d0 da e3 3f 27 35 76 6d 27 af 02 25 28 aa 73 78 29
       2.6630093e-15 3.2954437e-15 9.159922e-15 5.5167385e-14
0003e0 87 92 66 28 d2 da d4 28 6d 43 fd 29 e9 6a 35 29
       1.2799338e-14 2.3631626e-14 1.12471535e-13 4.0282803e-14
0003f0 f2 b9 e6 26 68 b3 e9 29 6d c6 25 29 87 21 97 28
       1.6009857e-15 1.03784006e-13 3.6809467e-14 1.6778908e-14
