paper/Burgers/runs/shifted_grid_noise_20/shifted_grid29model.pt (torch, 15561 bytes, 9 tensors)

func_approx.network.0.weight f4 [30, 2]
00000000: 56a1 0dbf 4887 223f a768 77bf 8063 083f
00000010: 7243 ed3e beb3 49bf c767 c23f 4a96 2dbf
00000020: 8859 3cbe 914e 063f f029 ba3c 2bee 653f
00000030: 018b 0abf 0e16 d2bd 9e69 cdbf 947a ebbe
00000040: 628a 8b3f bb33 403f 264e d33c 85e9 ca3d
00000050: 3670 1bbf 6502 443f bcf8 d7be da66 01bf
00000060: e9c7 32bf e731 373f ab1e fc3e 42b2 313f
00000070: b0be 503e 7f4a 2ebf be54 35be e366 863e
00000080: 878f b03e 0306 30be 81ec 3cbe c859 523f
00000090: 13aa 9f3e ef96 f5be 1c75 6e3d 1815 8dbe
000000a0: b559 923d 2340 0d3f 7704 97bf 6516 483f
000000b0: f290 0d40 9bcc 053e 0034 0dbf 2945 613e
000000c0: ab47 edbe c857 0f3f f8b6 f1be 9664 393e
000000d0: 5170 84bf f77a e83e 9b82 de3f 45c8 813f
000000e0: 2732 ea3b 9117 003f 3fa7 0d3f d4ab 4e3f
-0.55324304 0.6348767 -0.9664406 0.53276825 0.4634052 -0.7878989 1.518792 -0.6780745
-0.18393528 0.5246363 0.022725075 0.8981654 -0.54118353 -0.10258113 -1.6047857 -0.45991957
1.0901606 0.75078934 0.0257941 0.099078216 -0.60718095 0.76566154 -0.42181957 -0.50547564
-0.6983629 0.7156052 0.49242148 0.69412625 0.20385242 -0.6808242 -0.17708108 0.2625037
0.34484503 -0.17189793 -0.18449594 0.82168245 0.31184444 -0.47966716 0.058217153 -0.27555156
0.071460165 0.5517599 -1.1798238 0.7815917 2.2119718 0.13066332 -0.5515747 0.21999039
-0.4634374 0.5599332 -0.47209907 0.18104777 -1.0346776 0.45406315 1.7383608 1.0139242
0.007147092 0.5003596 0.5533332 0.8073094

func_approx.network.0.bias f4 [30]
00000000: ec1d c23e 58ba e3be 75b3 ce3d 86e3 3c3d
00000010: 4096 7dbe da5e 0d3f f3ce c2bd 11be acbd
00000020: fdca b93e 12e5 ed3e 74b9 b23e fddc 5ebe
00000030: 84bb 15bf e676 e8be f488 893e 262d 42be
00000040: a4eb b1be d05c c23e afcc d03e b7fa b73e
00000050: f97e 0fbd ce79 85bc b526 f4bc f062 783e
00000060: 67dd fcbe 3816 e93e bb3d 57be 3e14 a73c
00000070: eee6 10bf d346 c13c
0.37913454 -0.44478106 0.100928225 0.04611542 -0.24764347 0.55222857 -0.09512129 -0.0843469
0.3628768 0.4646383 0.34907115 -0.21763988 -0.5848925 -0.45403212 0.268623 -0.18962535
-0.34750092 0.37961435 0.4078116 0.35933468 -0.0350332 -0.016293433 -0.029803613 0.24256492
-0.49387667 0.45524764 -0.21019642 0.020395394 -0.5660237 0.023593342

func_approx.network.2.weight f4 [30, 30]
00000000: 1b78 d6bd 3704 ac3d cf9f 7b3e 039b 12bd
00000010: ea8f 7cbe 9c71 28be e458 bf3e 51cd 253f
00000020: ab0f aabe bda3 99bd afe3 e4bd 5a80 0b3e
00000030: c7ee dd3d d404 adbe da9f 963e ddad 193e
00000040: 316e 5b3d f143 babd 3c2c c43d b036 5fbc
00000050: c62e cfbd 16c5 a53d cd36 43bf dd87 d53c
00000060: f874 9ebd 0d77 783d 6fd7 b33d 8a20 9cbe
00000070: a6ad 03be c2d1 26be ed3f 5c3e 109e a63e
00000080: b42c 8ebe 7075 cbbe f912 4e3e 2e56 61bc
00000090: dfb0 4b3e 008f b83e cd46 09be ed06 e4bd
000000a0: 81b5 1b3e 6fc8 513c ae26 b93d e996 a1be
000000b0: 6a5a 3cbe a3e9 043e c1b7 f1bd 6cb0 f93c
000000c0: fb54 70be 66b3 74bd 923e 033e d1ca a33e
000000d0: b73a b3bf 71e1 dc3e ed50 343e 81e7 833e
000000e0: a98d e03e aac2 56be 9e98 103c 23a7 ee3d
000000f0: c51f eebd 08e0 fe3d e587 2ebe 0f21 38be
00000100: 9acb 803e 91b7 b53d 8db2 9dbd b2e1 71bc
00000110: 78d3 993d 812d c5ba 75cb 753d 1dcf 1d3e
00000120: a267 a53e 2f59 1d3a c372 61be bdec 833e
00000130: f0a5 9bbd 306c a7ba 9899 60be 503f c8bd
00000140: c885 2c3e 5d15 fa3d d236 963e e3ec 0abd
00000150: 3324 823e 27cc e0bb 1219 283d b9e4 16bd
00000160: 86f9 b53e f85b 4f3c 0d78 d13d 480e b63c
00000170: 4f47 0a3d 7793 ec3c 6b40 af3c 93ec 9e3d
00000180: e87a 0abe 4fd1 ecbe b940 c83e 11fa c4bd
00000190: 30ab b7bd 7154 09be fb4a b3bc 0a54 763e
000001a0: 6e12 95bd 7acc 05be 5ba1 e53d d9c5 143e
000001b0: 73b9 2f3e 7226 a6bd 3bf4 a0bc 4bfb 4fbe
000001c0: fdf4 053f 2d38 25bc bbb3 0abe ce49 adbc
000001d0: b7b8 14be 7097 0e3f aed6 3ebd ef03 c83e
000001e0: c9ad 87be 1ab3 1abe b45d e73c 0f79 bb3e
000001f0: af77 67be 2797 243c 6933 debd 0de4 563e
00000200: 8192 ebbc 2f66 44be 0b59 cfbd 52e6 e23d
00000210: 01a2 90be 6d24 d23c 603d 9c3e d090 463c
00000220: 91dc 113e 8e6e 09be 64ad 963d 7a1b 82bd
00000230: 989c 533d 3ab2 eabc a69d cb3e 4f33 8bbe
00000240: 8b20 80be 83e8 85be c92a 393d ab4f 7abe
00000250: 702a 53be a64d cfbd f468 1a3d 3c1a 32be
00000260: a956 0fbe 3bdb 77bc f1e3 d4bd aa71 e13d
00000270: 72cf f73d fa05 4dbd ab58 57be 5380 e13d
00000280: c5b2 0abd b103 62bd 374f 073c 6c7d 06bd
00000290: 1817 0a3e 0e30 c4bd 47dc f4bc 582c 2ebe
000002a0: 3290 e53d f058 9bbd f8d5 7ebd 0927 0c3d
000002b0: 19fd b3bd f426 4c3d a64c 2ebe 58ac 0f3d
000002c0: 2fb4 0c3d 6fec a4bc c51b 6ebe 2e74 57bc
000002d0: 4922 0a3e cf56 0fbe c1ac 00bd bdbf ad3b
000002e0: 61c9 693e 462f d3ba 0273 e8bc 1222 54be
000002f0: 9155 173d 36cf 983d 9f82 18be b57d 813d
00000300: ff18 483e 9880 1e3e 1f57 373d 773c 323d
00000310: af6e 31bd 015b 6b3d de02 15be b0af 9fbd
00000320: 5b99 cf3c cd61 9abc 47c8 84bd 6ff6 25bd
00000330: a8a5 d83c 9536 313d 5ae9 35be bf23 3c3e
00000340: 61a2 2f3e 741f 7c3e 0036 9f3e c7e5 70bc
00000350: a811 41be 4f81 94be 94fc e83d 578d 3f3e
00000360: fc79 6b3d f07c db3d 5c2c 123e 76ab b3bd
00000370: c0e2 963e 8cb1 903d 4804 eb3d 36e1 16be
00000380: 7f13 44be d929 e13d 8813 c3bc 4bff a23e
00000390: ce91 713c 9cff 053c 143d 9c3d e4ef a43e
000003a0: 2d81 1dbe 525e 653e 0bf6 f33b 1c9a ae3d
000003b0: 5b65 793e b295 c03d d5f1 523a 4217 943d
000003c0: 16ab d2bd f1b7 643e a9d1 783d 507f 5ebe
000003d0: b8f1 24be 4de8 b3be ad14 b93e 44c3 c23e
000003e0: 81d1 02be 2ff7 5a3d 03f8 36bd a277 e03d
000003f0: 9460 b5bd c7d4 f9bb 78bd db3d d577 f6bd
-0.10472127 0.083992414 0.24572681 -0.035792362 -0.24664274 -0.16449589 0.37372506 0.6476641
-0.3321508 -0.07501934 -0.1117624 0.13623181 0.10836559 -0.33792746 0.29418832 0.1500773
0.053571884 -0.0909499 0.095787495 -0.013623878 -0.10116343 0.08094232 -0.76255494 0.026065761
-0.07737154 0.06066041 0.08781325 -0.30493575 -0.1285921 -0.16290954 0.21508761 0.32542467
-0.2776848 -0.39738035 0.20124425 -0.013753457 0.1989169 0.360466 -0.13405915 -0.111341335
0.15205957 0.012804135 0.09040581 -0.31560448 -0.18393865 0.1297975 -0.118026264 0.030479632
-0.23469917 -0.0597414 0.12816837 0.31990674 -1.4002293 0.43140748 0.17608996 0.2576256
0.43858078 -0.20972696 0.008825449 0.116529725 -0.11627153 0.12445074 -0.17044027 -0.17981361
0.25155336 0.08872903 -0.077000715 -0.014763283 0.075110376 -0.0015043468 0.060008485 0.15411039
0.32305628 0.0006002364 -0.22016434 0.25766554 -0.076000094 -0.0012773331 -0.21933591 -0.09777701
0.16847908 0.12211106 0.293387 -0.03391732 0.25418243 -0.0068602744 0.041039534 -0.03683922
0.35541934 0.012656204 0.10227976 0.022223607 0.03375941 0.02887891 0.021393022 0.07759967
-0.13523448 -0.4625344 0.3911188 -0.09618009 -0.08968198 -0.13411118 -0.02188634 0.24055496
-0.07278906 -0.13066283 0.11212417 0.14528598 0.17160587 -0.081128016 -0.019647708 -0.20310704
0.5232695 -0.010084194 -0.13545124 -0.021153357 -0.14523588 0.55699825 -0.046591453 0.390655
-0.26499775 -0.15107384 0.028242923 0.36615798 -0.2260425 0.010045803 -0.108496495 0.20985432
-0.028756382 -0.19179605 -0.101244055 0.11079086 -0.282486 0.025652135 0.30515575 0.012119487
0.14244296 -0.1342108 0.073572904 -0.06352897 0.05166301 -0.028649438 0.39768714 -0.27187583
-0.25024828 -0.26153955 0.04520682 -0.24444453 -0.20621657 -0.10122232 0.037697747 -0.1739282
-0.13997902 -0.015127952 -0.10395039 0.11008008 0.12100114 -0.050054528 -0.21029918 0.11010804
-0.033861894 -0.0551793 0.008258632 -0.032834455 0.13485372 -0.09579478 -0.029890193 -0.17009103
0.11209144 -0.07585323 -0.062215775 0.034216914 -0.08788509 0.049841836 -0.17021427 0.03507647
0.034351524 -0.020132272 -0.2325278 -0.013150258 0.13489641 -0.13997959 -0.03141475 0.005302398
0.22830726 -0.0016112111 -0.028375152 -0.20716122 0.036946837 0.07461397 -0.14893578 0.06322805
0.19540785 0.15478742 0.04476082 0.043514695 -0.043318447 0.057459835 -0.14551875 -0.077971816
0.02534168 -0.018845463 -0.06483512 -0.04051822 0.026446179 0.043264944 -0.17764798 0.18373011
0.17151786 0.24621373 0.31095886 -0.014703221 -0.18854392 -0.29004905 0.113763005 0.1870626
0.05748938 0.10717189 0.14274734 -0.08772938 0.29469872 0.070651144 0.11475426 -0.14734349
-0.19148062 0.1099431 -0.023813024 0.31835398 0.014744235 0.008178618 0.07628837 0.32214272
-0.15381308 0.22399262 0.007445102 0.08525488 0.2435507 0.09403552 0.00080469 0.072309986
-0.10286538 0.22335793 0.060746823 -0.21728253 -0.16107833 -0.3513817 0.36148587 0.380396
-0.12775232 0.05345839 -0.044670116 0.10960318 -0.088563114 -0.007624242 0.10729498 -0.12034575

func_approx.network.2.bias f4 [30]
00000000: 0289 27be 4b39 b33d 3426 9c3d 9950 113d
00000010: 8932 cb3b ad8a 323e 0232 e8bd e5e3 58bd
00000020: c2e5 f8bc aa15 09be f15b f5bc be95 a13d
00000030: 7aac a4bd 5f25 8f3d 3693 053e 0cf0 cabd
00000040: e756 84bd 16cd e5bd edef f43d de99 33be
00000050: d8d1 67bd 0681 943d 6d31 b2bd a81d 103e
00000060: 4d6b 80bd c959 243d 5eb3 22bc b462 a3bc
00000070: b419 4d3d 69be 0c3e
-0.16360858 0.08751162 0.07624474 0.035477255 0.0062010926 0.17435713 -0.11337663 -0.052951712
-0.030382995 -0.1338717 -0.029951068 0.07889889 -0.0804071 0.0698955 0.13044438 -0.099090666
-0.06461888 -0.11220758 0.11959825 -0.17539164 -0.056596607 0.07251172 -0.087008335 0.14073813
-0.06270466 0.04012469 -0.00993046 -0.019944526 0.05007334 0.1374451

func_approx.network.4.weight f4 [30, 30]
00000000: 3f1c 15be cc86 893d 3f85 b73d 8089 313e
00000010: 3007 e8bd eaf7 8d3d f969 193e 8670 10be
00000020: feb7 9abe 3fe6 25be bc31 9b3d c70d 4bbe
00000030: 21e5 46bd 19fc 3a3e 87f0 d6bd f1b3 08be
00000040: ed47 29bc c318 0ebe 33f7 01be f700 dc3d
00000050: bdb5 833d 5bdc 6bbe 32b3 a63c 5631 c43d
00000060: 2887 b6bd 7fe6 ed3d 42a8 bb3d 17b6 3abe
00000070: 0cef e03d ed6b 18be f974 483e 544d b3bd
00000080: 33e2 623c fbf0 21be 2bcd 643e f9cf 293d
00000090: a028 34be 58e5 e8bc e171 173e 3e74 aabc
000000a0: 1f6f a0bd 50da 5abd f36c 49be 646b 883e
000000b0: 6f87 66be d610 273e 265f 83bd 33bc c53d
000000c0: acc0 26be 9cad c9bc 29e3 7f3e 5c3e 00be
000000d0: eaff 933c 5d35 40be b24a 103d cc98 3fbe
000000e0: dad7 e7bd f426 e9bd adf7 a2bd bf4d f93d
000000f0: 8729 abbd 0d57 123d 5181 2a3e ac04 823d
00000100: 2394 0f3e 0b76 303e ddb9 f9bd 53aa 033d
00000110: e10a 5b3e bd27 253e 0b2f 503c 7dfc 3e3e
00000120: 6924 4fbe a59e 273e 40ca e13d 7e99 11be
00000130: 0971 40be d66a da3d e3bd 6d3e f186 1e3d
00000140: a46c a1bd 2a1e 583e 3c99 623d 95b1 843c
00000150: 01db 2c3e 8437 cb3d 12ad 903d 2830 b23d
00000160: 19b0 a2be 6060 6cbd 970e f73b e329 0b3e
00000170: 862b cdbd 41db 503d 26ea b53d 7349 2cbe
00000180: 3d1f cf3d 9186 8cbd ca4a 0ebe 92b1 41bd
00000190: 264a 05be b52a 14bd 8089 08be a78c 323e
000001a0: ae76 b9bd ba36 a63c e605 493e 86f8 243d
000001b0: 3c88 a8bd 4d11 77be 116e 3a3d 86b9 13be
000001c0: 8d18 9dbd 4dc1 1d3d e97a b6bd fa75 2a3d
000001d0: 8664 243b 9a53 00bd 36b7 e93c 399d 5a3d
000001e0: 2f1c 2ebe 8ec7 93bd dd5f b9bd 9058 253e
000001f0: dcbb 60bd 786b cabd 2d48 36bd 5363 2ebe
00000200: 2fe2 b23d 4301 0cbe a5df 483c e751 ba3d
00000210: 4d2f 8e3d f40f 11bd e101 cd3d f74b 35bd
00000220: 35a1 05be 3016 0c3d fca0 01be b345 f6bd
00000230: 198e 6e3d cf41 293e 06b7 0dbe 4194 8fbd
00000240: ad81 30be 54d2 1e3d 49ce 043d a120 ee3b
00000250: 7650 793e af40 23be e49b 1abd b370 33be
00000260: ef06 333e c119 b83d 2351 8f3e 48c0 613e
00000270: 50a6 863d 51db 94be 3ec8 b7bd f45e efbc
00000280: 7d0a 6fbe 42e0 483e f6cd 703d 443a 133e
00000290: a1a3 80be 9730 4d3e 2eba f73c b059 94bd
000002a0: 4430 e73d 2e63 a4bd 86d8 43b9 35c3 2e3e
000002b0: 716c c2be dcd4 1a3e 4c4c e03d f39b 553b
000002c0: c765 aa3e 4588 f7bd cb8f 633e dcb6 7dbe
000002d0: 8853 8abe d0ec aabc c42a 613e 1a39 a73e
000002e0: 042f 7bbd 6d8a 85bd 361f 403e 5b66 dc3c
000002f0: c2f0 66be 4ed9 493e a8fc 893e 67b8 8fbe
00000300: 5200 943e b018 25be cb15 3a3e 2165 a2be
00000310: c6f1 37bd c979 54be 2a08 fdbd 22eb f7bd
00000320: 506a 16be 0547 35be 5ad7 28be d8d3 403e
00000330: c378 083e 1b5c ecbd ec61 9cbd 5f74 9bbd
00000340: b57c 573c 78df 17bd 928f 68bd fe55 233e
00000350: 0002 babd c81b 1c3c a59f 643d c182 dbbd
00000360: 3514 ba3d a3da 5e3e 0481 60be f34e b83b
00000370: d566 623e 4581 aabd c069 f33c 85b6 80bd
00000380: b5af c13d 7b72 c1bd 57af 7f3b d44f 523d
00000390: 8132 6fbd 33e6 0cbe 52eb b7bc d957 96bd
000003a0: a7ca 963d dba3 fb3d 00b9 5b3d 434d 6bbd
000003b0: afe4 15be a4f5 aebd 0334 8abd e0a6 59bd
000003c0: b725 d1bd 3a09 013e 81db 0c3e c901 b73d
000003d0: f728 ca3a 35c8 893c 48ba e43d 6705 3e3e
000003e0: b5d6 46bd a5b4 8dbd 953c 013e fccb 2ebe
000003f0: 1cc7 613d e7bc 14be 025f d1bd d3fd 1bbc
-0.14561556 0.067151636 0.089609616 0.17337608 -0.11329496 0.069320515 0.14981832 -0.14105424
-0.302185 -0.16201113 0.075778455 -0.19829474 -0.048558358 0.1826023 -0.10495096 -0.13349892
-0.01033209 -0.13876633 -0.12691955 0.107423715 0.06431148 -0.23033278 0.020349119 0.095797226
-0.08912498 0.11616229 0.09162952 -0.18233524 0.109830946 -0.1488492 0.19575872 -0.087549835
0.013847875 -0.15814583 0.2234389 0.041458104 -0.17593622 -0.028429672 0.14789535 -0.020807382
-0.07833695 -0.053430855 -0.19670467 0.26644433 -0.22512601 0.16315016 -0.064146325 0.09655037
-0.16284436 -0.024618916 0.24988998 -0.12523788 0.018066365 -0.18770356 0.035227485 -0.18710631
-0.11320467 -0.11384383 -0.07957397 0.12173032 -0.0835753 0.03572755 0.16650893 0.06348547
0.14021353 0.1723253 -0.12193654 0.032144856 0.21390869 0.1612844 0.012706528 0.18651004
-0.20228733 0.16369112 0.11024904 -0.14218709 -0.1879312 0.106649086 0.23216967 0.03870291
-0.0788205 0.21105257 0.055321917 0.016197959 0.16880418 0.09922698 0.070642605 0.08700591
-0.31774977 -0.057709098 0.007539581 0.13590197 -0.10018067 0.050990347 0.08882551 -0.16824894
0.1011338 -0.06861604 -0.13895717 -0.047288485 -0.13016567 -0.03617354 -0.13333702 0.17436467
-0.090558395 0.020289768 0.19631156 0.040276073 -0.0822911 -0.24127693 0.045515124 -0.1442624
-0.07670698 0.038514424 -0.08910162 0.041616417 0.002508433 -0.03132973 0.028529745 0.053372595
-0.17002939 -0.072157964 -0.090514876 0.16147065 -0.054866657 -0.09883779 -0.044502426 -0.17030077
0.08734547 -0.13672356 0.012260352 0.09097653 0.06942616 -0.035415605 0.10010124 -0.0442619
-0.13049777 0.034200847 -0.12659067 -0.12025013 0.058240984 0.1652901 -0.13839349 -0.07010699
-0.17236967 0.038774803 0.03242329 0.0072670733 0.243471 -0.15942644 -0.037746325 -0.1752346
0.17483114 0.08989287 0.2799159 0.22046006 0.0657469 -0.29073575 -0.0897374 -0.029220082
-0.23343845 0.19616798 0.05879017 0.14377695 -0.2512484 0.20038067 0.030240145 -0.07243669
0.11288503 -0.080267295 -0.0001867731 0.17066653 -0.3797336 0.15120262 0.109520525 0.0032594174
0.33280775 -0.12086538 0.22222821 -0.24776787 -0.27016854 -0.020864874 0.2198897 0.32660753
-0.061324134 -0.06520543 0.18761906 0.026904276 -0.2255278 0.19711801 0.26950574 -0.28070375
0.28906494 -0.16122699 0.18172376 -0.3171778 -0.044908307 -0.20749582 -0.12355073 -0.12105395
-0.14688993 -0.17702873 -0.164884 0.18830812 0.13327317 -0.11541005 -0.076358646 -0.075905554
0.013152291 -0.03707835 -0.056777544 0.15950772 -0.09082413 0.009528108 0.05581631 -0.10718299
0.090858854 0.21763091 -0.21924216 0.005624646 0.2210954 -0.083254375 0.029713511 -0.06284813
0.094573416 -0.094456635 0.0039014423 0.05134566 -0.058397774 -0.13759689 -0.022451077 -0.07340974
0.073628716 0.12287112 0.053643227 -0.05744673 -0.14638017 -0.08542946 -0.06748202 -0.05313766
-0.10212272 0.12601176 0.13755609 0.08935887 0.0015423585 0.016819099 0.11168343 0.18556748
-0.048544604 -0.06919221 0.12620766 -0.17070001 0.055121526 -0.14525186 -0.102231994 -0.009520966

func_approx.network.4.bias f4 [30]
00000000: c88e 633d 3539 b1bc a0f8 01be 819c 66bb
00000010: af97 323e dca4 0bbe 019d f3bd 9a1e c03d
00000020: 6737 3d3e a38f 21be 9df1 37be 0414 9ebd
00000030: 9cf9 1a3e d224 ddbd b5f6 cbba e390 fd3d
00000040: 43fb 91bd 81e7 71bd 5503 ccbd 6d32 443d
00000050: 3675 133e 4f4d 3c3d eed3 023e 8186 1cbb
00000060: bfc4 dbbc 68d0 bcbc 72a6 c83d 96ee 4cbc
00000070: fd54 0cbe 5e01 62bd
0.05555609 -0.021633724 -0.12692499 -0.0035188498 0.17440675 -0.13637108 -0.118951805 0.09380837
0.18478166 -0.1577745 -0.17963262 -0.077186614 0.15134281 -0.107980385 -0.0015561195 0.123811506
-0.071280025 -0.05905867 -0.09961573 0.047899652 0.14400181 0.045972165 0.12776157 -0.0023883882
-0.026827214 -0.023048595 0.09797372 -0.012508055 -0.13704295 -0.055177085

func_approx.network.6.weight f4 [30, 30]
00000000: 8a5a 0e3e 996b 563e 3d25 ac3d fe41 7ebe
00000010: a0a4 4ebe 1400 3ebe e63f ae3c 5e20 703e
00000020: d211 873e 988b 9a3d 3996 203e 7225 173e
00000030: 3e6e b53e 28e8 0a3e b95b 79be 8c20 8f3e
00000040: 16d9 7bbe 4890 36bd 51ba af3d ae7a 593e
00000050: 4436 fdbd 3fc7 d3bd 6c7b 07be a5ea 30bb
00000060: b7f8 143e cf98 663d 2242 d83d a4ad 43be
00000070: aba3 563e 2771 12be 0af3 75be 0dbe 33be
00000080: ddec 553d 0c23 89bd e54a 1d3e f86c c33c
00000090: 8de7 9dbd 064c 19be 7e43 3ebe 10f5 a43d
000000a0: 3627 bbbd e18e d13c 88d2 9dbe d26a 34be
000000b0: 128f 4f3d 7980 8ebe 93b3 293e 55dd 99bd
000000c0: f920 a6bc a7af 4abe 4d92 63be a0a3 40bd
000000d0: 014f e4bd d6e1 5dbd 12f0 35be cd77 63be
000000e0: 9c3a 9dbe ff8a 2c3e 1797 d33c 267e 7a3d
000000f0: 67f4 87be 297b 613e f1c5 7b3d 129c 173e
00000100: bd98 bbbd d178 183e 0899 9fbe 4c9a a0b9
00000110: decc df3d 4fea 2e3e f1be a1be a81c 10be
00000120: a1d6 3d3d 0706 f43d 51b8 1ebe 5ae2 2f3d
00000130: 5b0a c8ba b917 04bd 2824 b9bc b142 02be
00000140: 8614 68be bb56 4d3e b22f 793e 66cd 463c
00000150: 1750 213e 33e3 e83d e092 13be 057e 55bd
00000160: f713 2fbe d562 333e e567 dd3c b5b8 a3bd
00000170: ccc1 eb3d 5d50 97bd fa5e bdbd 8a81 26be
00000180: 7d7f 2cbd d46e 323e 655d aebd 73ae a4bd
00000190: 7f0e 133e 0430 e2bd 1988 5cbe a87b 0a3e
000001a0: acdc a7bc 4e01 1cbe 50c0 52bd 61ce 26bc
000001b0: 75d8 8a3d 5d50 7a3d b8f5 e7bd 6f1f 103e
000001c0: a135 4ebe 2328 af3d c276 31bc 615e bcbd
000001d0: c6ad 0d3e 34fe 0fbe dc91 513d 976d 573d
000001e0: a65e 203e b594 08be 179b 823d f4e1 0c3e
000001f0: 4ae7 32be 0411 563d bf4a 0dbe a497 5f3d
00000200: 4d50 2abe 630f c43d ab8e cbbd 1fb9 b13d
00000210: 53b8 803d 80d1 41bd 9ddc e7bd c6fe 90bd
00000220: e1e5 88bd f1c6 e3bc f783 27be ced6 373e
00000230: a36b 2ebe 8afc c4bd f103 85bb 5d3d 2fbe
00000240: 3ae6 cbbd 8531 89bd 73da bcbd 783c 31bd
00000250: 5dd5 0e3e 0c17 b23d 06c3 4e3d 37e6 463d
00000260: 1f67 143e 207b 043d be4c 1cbe f5d2 6dbd
00000270: d91f c6bb 9060 793d 5c4a 3cbe f062 ee3d
00000280: 662e 36be 4f0d f6bd 0359 5e3d 2f00 8dba
00000290: e408 a6be a60e 333e f7aa adbc 41ef c13d
000002a0: 6365 b33d d8e0 12be 308c c8be 4d93 82be
000002b0: f3ec 103e e37b f4bd 473e b7be 738c 863d
000002c0: fc67 05be 6a12 16be 2a76 4e3e dc3f 593d
000002d0: 9e33 dc3d 2d32 1c3d 8b90 c0be 2643 af3e
000002e0: b888 35bd a5a1 2abd 4be9 b8bc 8c60 2b3d
000002f0: 199b 04be bae6 83be b064 823e d139 8d3d
00000300: 2c36 1ebe 82ae 223d 5ea3 d23e 6404 08bc
00000310: b07c 013e d605 893e 4eaa c4bb f95d 173e
00000320: cc64 043f 9b61 543e 2654 bfbd 2a6a 7b3d
00000330: 5016 4f3e c144 e93c 2c55 e33d 2114 193e
00000340: 24bf 7cbe 1438 81be 53b4 b03d 1e39 cc3d
00000350: fa8f 043e 246b 15be e0cb eebd 9600 893d
00000360: 54c8 cabd dc7a b43d b004 c6bd 351e 643e
00000370: 7a89 eebd efe7 163c 26b0 e1bd 9656 4b3d
00000380: ac87 9abe 8eb8 bcbd ac8a b0bd fa47 e43c
00000390: 647b 3d3c 1a72 ba3c b962 09be 5b09 263e
000003a0: 6ffa 703e 840c 803d 591f c43d 0e72 3b39
000003b0: 3e79 a5bd 1d47 9f3b 9b40 ba3d 8b6c b33d
000003c0: b699 2cbe a595 283e af42 2ebc 8578 3abd
000003d0: af0c a13d 8d78 283d c835 51be d3c8 13be
000003e0: 45c6 283e e932 613e dfc3 84be d378 c7bd
000003f0: 4b46 b53d 790a e33d 4d1b 9bbe f27b 833d
0.13901725 0.20939483 0.0840554 -0.24829862 -0.20179987 -0.18554717 0.021270704 0.23449847
0.26380783 0.07546157 0.15682305 0.14760378 0.3543567 0.13565123 -0.24351396 0.2795452
-0.2459453 -0.04457119 0.08580459 0.21238205 -0.12363866 -0.103407376 -0.13230675 -0.0026995328
0.14548002 0.056298073 0.10559489 -0.19109207 0.20960872 -0.14300977 -0.24018493 -0.17552967
0.052227844 -0.06696138 0.15360601 0.023855671 -0.077101804 -0.14970407 -0.18580434 0.080545545
-0.09138338 0.025580825 -0.30824685 -0.17618874 0.05067355 -0.27832392 0.16572408 -0.07512919
-0.020279394 -0.19793569 -0.22223778 -0.047031045 -0.11147881 -0.054170452 -0.17767361 -0.22213669
-0.30708778 0.16849898 0.025828881 0.06115546 -0.26553652 0.22019638 0.06146807 0.1480563
-0.09159992 0.14889838 -0.3117144 -0.00030632538 0.10927747 0.17081569 -0.3159099 -0.14073431
0.046347264 0.11915212 -0.15499999 0.042940475 -0.0015261875 -0.032249186 -0.022600248 -0.12720753
-0.22664079 0.20052616 0.243346 0.012133932 0.15753208 0.1137146 -0.14411497 -0.052122135
-0.1709746 0.1751817 0.02702708 -0.079942144 0.11511573 -0.07388375 -0.09246631 -0.16260353
-0.04211377 0.1742509 -0.08513907 -0.08041086 0.14360999 -0.110443145 -0.21536292 0.13523734
-0.020490967 -0.15234873 -0.051452935 -0.0101810405 0.06779567 0.061111797 -0.11326164 0.14074491
-0.20137645 0.08552577 -0.010831537 -0.09197689 0.1383582 -0.14061815 0.051164493 0.052594747
0.15661106 -0.13337977 0.06377237 0.1375807 -0.17471042 0.05226232 -0.13798045 0.054587975
-0.16632195 0.09573247 -0.09939321 0.08677887 0.06285157 -0.047318935 -0.113213755 -0.07079844
-0.06684471 -0.027804824 -0.16358934 0.17953035 -0.17033248 -0.096184805 -0.0040593077 -0.17113252
-0.099560216 -0.06698898 -0.092213534 -0.043270558 0.13948579 0.08695802 0.050478958 0.048559394
0.14492463 0.032343984 -0.1526365 -0.058062512 -0.006046277 0.060883105 -0.18387741 0.116399646
-0.17791137 -0.12014257 0.054284107 -0.0010757501 -0.32428658 0.17486057 -0.021199686 0.09469462
0.08759572 -0.14343584 -0.39169455 -0.25503007 0.14152889 -0.11937692 -0.357897 0.06569757
-0.13027948 -0.14655462 0.20162264 0.053039417 0.10752033 0.03813379 -0.37610278 0.34230918
-0.04431984 -0.041658062 -0.02257218 0.04184012 -0.1294979 -0.25761968 0.25467443 0.06895793
-0.15450352 0.039717205 0.41140264 -0.008301828 0.12645221 0.26762265 -0.006001747 0.14781941
0.51716304 0.20740359 -0.09342222 0.061380543 0.20223355 0.028475167 0.111002296 0.14949085
-0.2468229 -0.25238097 0.08628144 0.09971832 0.12945548 -0.14591652 -0.1165998 0.06689565
-0.09901491 0.08812496 -0.09668863 0.22277148 -0.11647315 0.009210571 -0.11019926 0.04964312
-0.30181634 -0.092148885 -0.086201996 0.027866352 0.011565063 0.022759486 -0.13416566 0.16214506
0.23533033 0.06252387 0.095762916 0.00017876198 -0.08079766 0.0048607723 0.09094354 0.08760937
-0.16855511 0.16463335 -0.010636016 -0.045525093 0.07863747 0.04113059 -0.20430672 -0.14432077
0.16481884 0.21992077 -0.25930688 -0.09739842 0.08851298 0.11085982 -0.30294266 0.06420125

func_approx.network.6.bias f4 [30]
00000000: 8ece d43d a6dd a7bd 2f93 833d 3143 d33d
00000010: a582 a6bc a5b2 cf3d f9a9 6f3c 7c5b 9abd
00000020: 3d14 53bb 2513 863d aeee 983d fc3c bdbd
00000030: e23b 053e 277e 93bd 530f 1ebe a011 9dbd
00000040: b268 bdbd 2bcf 8f3d a0a6 493b e6e8 ac3a
00000050: 7f48 f2bd b72f dc3d e7b4 803c 8190 0bbd
00000060: f466 1f3d c8a3 5f3d c026 e5bd 325c 6cbd
00000070: ccdf 94bd 07c5 173e
0.1039096 -0.08196573 0.064245574 0.1031555 -0.020325968 0.101414956 0.014627927 -0.075369805
-0.0032208108 0.0654662 0.074673995 -0.092401475 0.13011125 -0.07201796 -0.15435533 -0.07669377
-0.09248485 0.07021936 0.0030769482 0.0013191968 -0.11830234 0.107512884 0.015711261 -0.034073357
0.038916543 0.054599553 -0.111890316 -0.05770511 -0.07269248 0.14821254

func_approx.network.8.weight f4 [1, 30]
00000000: a193 1e3e 744f 61be b959 823e 5290 5ebc
00000010: c910 b03c 6e70 563e d2ef 33be 37ed 5b3e
00000020: f534 593e 91db 2a3e 60ce fcbd 725a eb3d
00000030: e310 59be 4cc0 6cbd ffe4 b23d 85ee 96be
00000040: 3161 daba f1f0 02be 2ee3 033e 5cce d4bd
00000050: fbae b03d 9585 f1bd 16aa 773e e78e 0cbe
00000060: 9056 afbd 8d7d f3bd 8c9b 873e 155f 413e
00000070: ece5 b53d d7c9 c73d
0.15486003 -0.22002965 0.25459078 -0.013584213 0.021492379 0.20941326 -0.17571953 0.21477209
0.21211608 0.1668532 -0.123440504 0.114918604 -0.21197848 -0.057800576 0.08735084 -0.2947885
-0.0016661045 -0.12787224 0.12879631 -0.103909224 0.08627125 -0.11793057 0.24185976 -0.13726388
-0.08561432 -0.11889181 0.2648586 0.18883927 0.08881745 0.09755295
