paper/Burgers/runs/shifted_grid_noise_20/shifted_grid3checkpoint.pt (torch, 59671 bytes, 36 tensors)

func_approx.network.0.weight f4 [30, 2]
000000 ed 8c 39 bd fe ee 58 be 4d 95 0e 3f a2 95 f4 be
       -0.045300413 -0.21184918 0.55696565 -0.4777041
000010 76 eb b4 be 04 2d 4c 3f 9a bd 13 bf 51 fe ee 3d
       -0.35335892 0.7975619 -0.57711184 0.11669601
000020 41 46 1b 3f b3 02 3e bf e3 e9 c7 3d e1 08 28 bd
       0.60654074 -0.7422287 0.09761407 -0.041024093
000030 b0 89 df be f9 b5 fa 3e ad 2d 3a 3f 86 0b 0f 3c
       -0.43659735 0.4896696 0.72725946 0.008730775
000040 6f 98 d7 be 47 39 c5 3e f4 12 a3 be f6 dd 05 3f
       -0.42108485 0.38520262 -0.31850398 0.5229181
000050 e2 7c f5 be 75 3a 3f bf 6c 81 e6 3e 6f d3 22 3f
       -0.4794684 -0.74698573 0.45020616 0.6360387
000060 99 71 1f bf 94 8b 68 be 22 a6 96 3e 25 69 1c 3f
       -0.6228271 -0.22709495 0.29423624 0.6109794
000070 73 4a c3 3e 90 5e 3d 3f 1e 4e 7a bf f9 bd b2 3e
       0.38142738 0.73972416 -0.9777545 0.34910563
000080 d6 e7 24 3f 2f b1 42 bf 2f c2 01 3f 68 bd 05 3f
       0.64416254 -0.7605161 0.50686926 0.52242136
000090 5b 5d 2a bd 36 70 61 3f 9e 84 39 be 99 4b a9 be
       -0.041592937 0.88061845 -0.18116996 -0.3306549
0000a0 5c 8d 51 bf 32 d8 41 3f 50 ac 0d bf 61 5a 46 3f
       -0.8185632 0.7572051 -0.55341053 0.7748166
0000b0 69 5b 17 bf a4 e8 cf 3e 57 e1 c4 be 0b 03 3a 3f
       -0.59123856 0.40607178 -0.3845317 0.72660893
0000c0 cf 1e 11 bf 59 be 63 bf 9e bb dc bd c4 d6 39 bf
       -0.56687635 -0.8896232 -0.10777973 -0.7259333
0000d0 fb b1 21 3f 58 43 ed 3e 73 9d b8 be b4 f1 26 bf
       0.631622 0.46340442 -0.36057624 -0.6521256
0000e0 ce 68 d8 be a1 e0 03 3e 9f 94 c4 be 35 8d 0a 3f
       -0.4226746 0.12878658 -0.3839464 0.54121715

func_approx.network.0.bias f4 [30]
000000 64 f5 b7 be cb 44 71 3e 2d 6f da 3e 18 3e b8 be
       -0.35929406 0.23561399 0.42662945 -0.35984874
000010 18 dd f7 be 10 09 2d bf be 22 97 3d 17 54 13 3f
       -0.4841087 -0.67591953 0.073796734 0.57550186
000020 17 ae f8 be b0 47 03 be 85 5b b9 3e 82 42 fa 3e
       -0.4857032 -0.12820315 0.36202636 0.48878866
000030 56 71 9d 3e 66 21 5c 3e ff 2b 81 3d a4 bd b6 bd
       0.3075053 0.21497115 0.0630722 -0.0892289
000040 8a 44 21 3f 7c 4f 50 3d 4f 71 a5 3e c7 44 e2 3b
       0.6299521 0.050857052 0.3231301 0.0069051716
000050 9f 05 74 3e 40 a3 25 bf 40 e5 61 be 5d 68 20 bf
       0.2383027 -0.64702225 -0.22060108 -0.62659246
000060 b0 08 bf 3d 79 55 13 be 0c 82 0b bf 9d a9 ee be
       0.09327829 -0.14388074 -0.5449531 -0.4661378
000070 2c 20 ed 3d 8c 05 df 3e
       0.11578402 0.4355892

func_approx.network.2.weight f4 [30, 30]
000000 92 23 ae 3d 8f eb 4d 3d f3 b1 dd bd 31 a5 23 3e
       0.08502878 0.050273474 -0.10824957 0.15980984
000010 70 0e ed 3d 40 b8 8e 3b 23 73 ae bd 34 b3 fc bd
       0.11575019 0.0043554604 -0.08518054 -0.12338868
000020 17 9e 94 bd 02 20 08 3e 78 ff 99 3c da e4 46 3e
       -0.07256716 0.1329346 0.018798575 0.19423237
000030 b8 45 02 be f9 3b 0a 3d 03 02 30 3e 6f 7a 26 bc
       -0.12721908 0.0337486 0.17188267 -0.010161026
000040 ce d1 e7 bd 7d 50 3f 3e 9a f6 df bc a8 92 6b bd
       -0.11319314 0.18683048 -0.027339268 -0.05751291
000050 0f 71 e9 3c 29 b7 8a 3e 5d dc a9 bd 61 bd 84 3e
       0.028496293 0.27092865 -0.08293984 0.25925735
000060 ac 11 65 bd 06 d3 86 be e1 be c5 3d db 0d d0 bd
       -0.055925056 -0.26332873 0.09655548 -0.10158893
000070 99 bc 81 3e 90 a5 75 3e 8b a9 c2 bd b8 99 12 be
       0.253392 0.23988938 -0.09504994 -0.14316452
000080 de e6 1d be 51 34 26 3e 61 ab 09 be aa fd c4 bd
       -0.154201 0.16230895 -0.13444282 -0.09618695
000090 ef 38 2d 3e f7 55 8a 3d 47 eb 20 3e d2 ad 3f 3e
       0.1691625 0.06754678 0.15714751 0.18718651
0000a0 aa af 2a be c7 ab 32 bd c8 97 d1 3d 92 79 2a 3e
       -0.16668573 -0.04362085 0.10234028 0.16647938
0000b0 e8 9b 19 bd f2 36 86 3d c2 77 52 3d 6a 57 a6 3d
       -0.0375022 0.06553449 0.05138374 0.08122142
0000c0 db cc 0e be 66 3e 15 be d1 7e 90 bd d4 21 df 3d
       -0.13945334 -0.14574584 -0.07055438 0.10895124
0000d0 51 5d 54 3e 84 de 00 3e 6b 6d a7 3d 12 3b 56 3d
       0.20738722 0.12584883 0.08175167 0.052302428
0000e0 33 3b e8 bd 0c af 0d bd 25 0b 74 3e 57 91 2c 3d
       -0.11339416 -0.034590766 0.23832376 0.042130794
0000f0 c2 73 e1 3d f9 13 20 3e d0 8c 71 3d 3d ee f8 3c
       0.11008407 0.15632619 0.05897218 0.030387038
000100 ad 02 8c 3d 3c b8 96 bd ae 6f 34 be 47 18 96 bd
       0.06836448 -0.07359359 -0.17620727 -0.07328849
000110 9c e1 da 3d 6d ae aa 3d 8c 6f 92 bd 51 0b ba 3d
       0.10687563 0.0833405 -0.07150182 0.0908419
000120 04 d2 00 be 74 80 e0 bd 94 f0 02 3c 15 52 85 be
       -0.12580115 -0.109620005 0.007991929 -0.26039186
000130 03 68 86 bd a2 e6 57 bd 47 57 cc bd 0c aa 1b 3e
       -0.065628074 -0.052710183 -0.09977584 0.15201586
000140 d2 21 0c be 9f 91 49 be 78 c1 53 be 82 b5 0b 3e
       -0.13684776 -0.19684456 -0.20679271 0.13643458
000150 4f 18 f8 3d ed 7e fe bd 0e 8d 0b be ce 40 4e bd
       0.121140115 -0.12426553 -0.13628027 -0.05035477
000160 b3 8b c5 3c 2a fe 00 bc 75 c0 72 bc 6d d8 0d 3e
       0.024114465 -0.007873097 -0.014816393 0.13852091
000170 a5 22 88 bb 9d 45 97 3d cb f2 07 be a1 7b 9c 3d
       -0.0041545206 0.073863246 -0.13276212 0.07640768
000180 8c cd 51 3d 37 6c fc 3d 42 a1 bb 3d 43 3f 72 bd
       0.051221415 0.12325328 0.09161617 -0.059142362
000190 f7 8b 8d bd fa f1 b6 3b 6b b2 a3 bd 6c b2 66 3d
       -0.06911462 0.005583045 -0.07993015 0.0563225
0001a0 f6 91 dd 3d 43 c8 0f 3c b2 6f a4 3c 00 2d 14 3e
       0.108188555 0.008775773 0.020072792 0.14470291
0001b0 18 2e 6c be c7 7e 47 be df 15 5c be 44 52 25 3e
       -0.23064458 -0.19481955 -0.21492718 0.16144663
0001c0 0d 33 4f be a2 61 90 3d fb 7a d8 3d b3 f8 0d bd
       -0.20234318 0.07049872 0.10570332 -0.034661006
0001d0 95 62 8a bd 62 8f e1 3d 20 67 76 bd 30 e6 f6 bd
       -0.06757084 0.11013676 -0.06015694 -0.120556235
0001e0 43 32 01 be fd 26 1c 3e a7 3a 94 be ee 4f 11 be
       -0.1261683 0.15249248 -0.28950998 -0.14190647
0001f0 28 0c ac 3e 09 e9 fe bc 91 3f 1c be 25 19 9f 3e
       0.33603024 -0.03111698 -0.15258624 0.3107387
000200 d2 4b 67 be 58 67 2d be aa 05 27 3e 55 89 14 3e
       -0.22587517 -0.16933954 0.16310754 0.14505513
000210 ef c6 80 bd 2e 33 19 3e 8c 4f 40 be 26 36 c3 be
       -0.062879436 0.1496093 -0.18780345 -0.3812725
000220 22 f5 ae bc 46 d8 2a 3e da ff a0 be 99 96 9f 3d
       -0.021357123 0.16684064 -0.314452 0.07792396
000230 c3 aa d6 be 9b 7f c3 bd 34 be a9 bc ee 0e eb 3c
       -0.41927156 -0.09545823 -0.020720579 0.028693642
000240 16 8d f9 3d 78 af 4a 3e 1e 8c 6a bd c4 69 55 3d
       0.12185113 0.19793499 -0.057262532 0.05210282
000250 b7 5d 8c be 71 d0 87 be 37 81 55 3d 2f 6f 58 be
       -0.2741525 -0.26526216 0.052125182 -0.21136163
000260 c8 f5 81 3e 2c 62 98 bc ed 16 00 3c 23 c8 52 bc
       0.2538283 -0.0186015 0.007817966 -0.012865099
000270 30 7c 56 3e ef 8e 2c 3e 0d 7a b5 bd 4a c3 82 3e
       0.20945811 0.168514 -0.0886117 0.2553962
000280 f5 90 b6 be 48 48 b4 bc b2 38 e1 be 2b 67 57 3e
       -0.35657468 -0.022007123 -0.43988568 0.21035449
000290 fa cc c3 3e 84 1d 31 be 5b 1c 5a bd 25 d1 ad 3e
       0.38242322 -0.17296416 -0.053249698 0.33948627
0002a0 65 ba 6f bd 41 22 23 be 0c 2b 07 bd c2 8f 14 3e
       -0.05852737 -0.15931036 -0.033000037 0.14507964
0002b0 5a 2b 37 bc d4 df 8a 3e eb 49 00 bf 34 0a ba bd
       -0.011179769 0.27123892 -0.5011279 -0.09083977
0002c0 7e 08 1e 3e 28 53 c6 bd 85 73 cb 3d 26 21 36 bd
       0.15432927 -0.096838295 0.09934143 -0.044465207
0002d0 a6 51 ac bd cc 0c 7d be 7c 6e e3 3d 61 63 96 3d
       -0.08414011 -0.24711913 0.111050576 0.07343174
0002e0 8c 58 4b bd c4 7c bd bc 02 8a 9a 3d 70 bb a2 bd
       -0.04964499 -0.023130782 0.07545854 -0.07945907
0002f0 ad d3 35 3e 53 48 7a 3e b7 79 9f 3d 98 54 b3 bd
       0.17756529 0.24441652 0.07786887 -0.08756369
000300 bc b8 7f 3e 37 24 2e 3e 18 06 74 3d 44 98 11 3f
       0.24972814 0.17006002 0.059576124 0.56872964
000310 ba 65 3c be 10 e4 f1 3c 33 30 55 3e 3b 6a ea 3d
       -0.1839818 0.029527694 0.20819168 0.11446043
000320 02 5c 82 3e 79 a3 af 3e fa 49 c2 3e b3 b5 77 3e
       0.2546082 0.34304407 0.37947065 0.24190407
000330 5f 80 05 bc cf f8 08 be 3e b1 b7 bd ca 67 b3 3d
       -0.008148282 -0.13376163 -0.08969353 0.087600306
000340 e6 30 c4 3e 84 1f bc 3d 12 17 95 3b 68 14 7b bc
       0.38318557 0.09185699 0.0045498693 -0.015324689
000350 6a 07 9d bc b1 51 4c bd 5f 92 fe 3b 46 64 6f bd
       -0.019168574 -0.049882594 0.0077689136 -0.058445238
000360 7e df 19 3e de 02 e2 bd 80 d2 f2 bd a6 fb ac bc
       0.15026662 -0.11035703 -0.11856556 -0.02111609
000370 c1 f4 9f bb d6 52 19 3e 8b 13 be 3d a2 b0 07 3d
       -0.004881472 0.14973006 0.09281071 0.033127435
000380 b7 37 22 be 26 c8 81 bd 22 09 a9 3c 81 3f 4d bc
       -0.15841566 -0.063370034 0.020634238 -0.012527348
000390 49 5e 31 be 96 db dc bb 53 d8 f6 3d 30 25 60 3d
       -0.17321123 -0.006740044 0.12052979 0.054722965
0003a0 28 de 12 3e ba 09 43 3e 19 9f a3 bc d3 87 40 3e
       0.14342558 0.19046679 -0.019973325 0.18801813
0003b0 54 05 3c 3d 3f 46 11 3d 46 1a 05 3e 17 ad 02 be
       0.04590352 0.035467383 0.12998304 -0.12761341
0003c0 97 84 78 3c de ef 92 3d ec ce 77 3e d1 81 12 3d
       0.015168331 0.07174657 0.24200028 0.035768334
0003d0 25 2d 64 be 75 d7 10 be 6b 21 36 3e e9 e8 0b 3d
       -0.22282846 -0.1414469 0.17786185 0.034157667
0003e0 7d e1 cd 3d ba 31 8a 3e b3 a3 0e be 1f 95 83 3e
       0.10052774 0.26991063 -0.13929634 0.25699708
0003f0 0e 28 20 bc 4f e3 9e 3d f0 44 37 3d f4 18 87 3c
       -0.009775175 0.077581994 0.04474348 0.01649139

func_approx.network.2.bias f4 [30]
000000 63 60 2a be 88 d7 9f bd 75 aa 23 3e 8c 04 a3 3d
       -0.16638331 -0.07804781 0.15982993 0.079598516
000010 c8 fe c6 3d 49 a6 32 bd 5b 4e 8e bb cf 59 06 3e
       0.097165644 -0.043615613 -0.004342837 0.13120197
000020 32 0a a9 bc 08 40 31 3d ed 52 dd 3d 2b c7 29 3e
       -0.020634744 0.043273956 0.108068325 0.16579883
000030 c9 45 f3 3d 0c b5 99 3d 5b 47 c7 3d 7d f6 3b 3d
       0.11878545 0.07505235 0.09730407 0.045889366
000040 d3 a7 54 be 4f ed c5 bc bf e5 3b bd e1 af 32 bd
       -0.20767145 -0.02416101 -0.0458734 -0.043624762
000050 4b a1 fd bc 22 39 31 be fe dc e9 3d 50 f6 b9 bd
       -0.0309607 -0.1730695 0.11419104 -0.090801835
000060 d6 9b 54 be 4c 26 a5 bd 16 21 55 3d 81 0f 92 bd
       -0.20762572 -0.08063945 0.052033506 -0.071318634
000070 39 2b 3b be b0 f3 50 3d
       -0.18278207 0.05101365

func_approx.network.4.weight f4 [30, 30]
000000 99 e8 5e 3d c5 d5 15 3e 53 66 df bd 53 50 46 bd
       0.05442104 0.14632328 -0.10908189 -0.048416447
000010 80 08 02 bd d6 6e a8 bd 2c ce 9a bd 22 ee f7 3d
       -0.031746387 -0.08224265 -0.075588554 0.12105967
000020 6f 6d 93 bd 8b 69 f8 3d fe 4c be bc 4d 9c 08 be
       -0.07198607 0.12129506 -0.023230072 -0.13340874
000030 44 32 4a bc 8e 0b bb 3d 8a 2d 47 3e 7c cf 0f bd
       -0.012341086 0.09133063 0.19450966 -0.035109982
000040 bb aa 19 3d 67 48 16 be 87 75 8b bd c5 4d a1 bd
       0.037516337 -0.14676057 -0.06809526 -0.078761615
000050 73 e6 0a 3e f6 de 02 3e 81 0a d3 3d da 9a 60 be
       0.13564472 0.12780365 0.10304738 -0.21934071
000060 b2 50 8c 3d 6a 03 ea bd df be e1 bd 7f 4c d9 3d
       0.06851329 -0.114264324 -0.11022734 0.106102936
000070 4a ad c7 3c 55 c4 3b be e5 3c 43 be 87 0f 57 bd
       0.024374623 -0.18336613 -0.19066198 -0.052505042
000080 67 08 0b bd 8f 2e 20 be 75 81 4e 3e a5 34 15 3d
       -0.03394356 -0.1564276 0.20166571 0.03642716
000090 5b 39 9d bc 21 f9 3e 3e 7a 73 52 be 2a cb 51 3d
       -0.019192388 0.18649723 -0.20551863 0.051219143
0000a0 61 4e fa 3d 7c 23 5b 3d 63 1d 06 3e a0 e6 80 bd
       0.12221981 0.053500637 0.13097148 -0.06293988
0000b0 33 4d b0 bd 18 51 25 3e f8 21 5e be 28 0e 94 bd
       -0.086084746 0.16144216 -0.21692646 -0.072292626
0000c0 6b 43 68 3e fb ab f2 bd 9c 6c be bc e6 74 f6 bd
       0.22681968 -0.11849209 -0.023245148 -0.12034015
0000d0 c0 5b 37 3d 75 e9 27 be 28 62 0c 3d 55 50 18 3e
       0.044765234 -0.1639765 0.034273297 0.14874394
0000e0 17 74 40 be 51 0a e7 3d c2 1e b4 bd 82 3b 40 be
       -0.18794285 0.112812646 -0.08794929 -0.187727
0000f0 0c a7 c2 3d 15 a7 0a be 59 8e 7a 3d b3 5c 5c bd
       0.09504518 -0.13540299 0.06117091 -0.053799342
000100 15 6f 4c be 6e c4 4f be 5b b6 45 3c 4c ec 58 be
       -0.1996425 -0.20289776 0.012067403 -0.2118389
000110 b9 44 e6 3d d5 34 94 3d 95 06 0e be d3 97 a1 3d
       0.112435766 0.072366394 -0.13869698 0.07890286
000120 a2 3f 2b be cf f6 1b 3d 9a ea f4 bd 35 fc f3 3d
       -0.16723493 0.038077172 -0.11958809 0.11913339
000130 79 75 d4 bd d4 11 99 bd d9 ce d9 bd ac fb 51 3c
       -0.10373969 -0.074741036 -0.10635156 0.012816351
000140 df 86 51 3c 32 eb f4 bd d3 87 c8 bc 3b 2c ab 3d
       0.012788503 -0.119589224 -0.024478829 0.08358046
000150 fe b8 56 bd 65 24 53 3d 63 89 55 3e 94 8b 06 3e
       -0.052422516 0.05154838 0.2085319 0.13139182
000160 c9 61 8b 3d 22 e0 4a bd ea 83 19 be bd fa da 3c
       0.068057604 -0.049530156 -0.14991727 0.02673089
000170 97 76 89 3c ab b8 2c ba 2b 9d 2b 3d 2c d6 1d be
       0.01678018 -0.0006588797 0.041897934 -0.15413731
000180 37 91 87 be 0c 1d 29 be ac 50 43 be 88 b8 a1 3d
       -0.26477978 -0.16514987 -0.19073743 0.07896525
000190 9c 07 f0 3d 59 82 d8 bd 30 8a 8e bc b3 12 fc 3c
       0.117202014 -0.10571737 -0.017399877 0.030770635
0001a0 b7 2b 34 bd 8d f2 11 be 00 a4 d9 3d e1 46 04 be
       -0.043987002 -0.14252682 0.10626984 -0.12917663
0001b0 9b d6 ca bd e8 86 c4 3c 29 c5 87 bc 28 a6 ee 3d
       -0.09904214 0.02399011 -0.016573505 0.116527855
0001c0 16 b9 5e 3c 71 d1 95 3d a5 47 1f 3e a3 8e 05 be
       0.013593933 0.073153384 0.15554674 -0.13042693
0001d0 4d a4 9d 3c e5 97 25 3e 20 09 27 bd c4 8a ba 3b
       0.019243384 0.16171224 -0.040780187 0.0056928117
0001e0 71 ff 1b 3e da 19 03 3e f8 49 eb 3d a8 37 5f bd
       0.15234162 0.1280283 0.11488718 -0.054496437
0001f0 5d 44 cd 3e 57 e2 88 bd e3 58 ae be e3 c7 8e 3c
       0.4009122 -0.06683796 -0.3405219 0.017429298
000200 bf de 10 be c5 c6 d3 bd 79 05 e1 3d 52 bc 8b 3d
       -0.14147471 -0.10340647 0.10987372 0.068230286
000210 09 e9 2c bd c5 63 01 3e 6b 92 90 3e 29 aa 39 bd
       -0.042214427 0.12635715 0.28236708 -0.045328293
000220 95 1f 52 3d 4f 05 df 3d 53 58 d7 3d 07 5d 80 be
       0.05129965 0.108896844 0.105148934 -0.25070974
000230 49 5b 21 be 44 9b 05 bd 46 a2 51 bd 46 96 9b be
       -0.15757479 -0.032618776 -0.051180147 -0.30388087
000240 60 05 90 be 89 5a 19 be 81 b1 c4 bc 1b c9 fb bd
       -0.281291 -0.14975943 -0.024010422 -0.12294217
000250 d5 9d 9d be b9 57 cc bd 47 8d ac bd 05 6a 64 bd
       -0.3078448 -0.09977669 -0.08425384 -0.05576517
000260 67 89 18 3e 91 a2 10 3e 18 26 91 3e 06 61 71 3e
       0.14896165 0.14124514 0.28349376 0.23572168
000270 08 bf 3c bd 7d f9 31 bd 91 38 90 bd 45 28 65 3d
       -0.04608062 -0.04345082 -0.07042039 0.055946607
000280 6b 50 ad bd b3 b1 3c 3e 1a 31 0d 3e 4a 7a ca bd
       -0.08462604 0.18427162 0.13788262 -0.09886606
000290 56 d7 ef 3d 1e 2e d1 3a cc ed 81 3c 3f ec da bd
       0.11710994 0.0015959179 0.01586046 -0.106895916
0002a0 30 ef 66 3e 84 7d 12 be 0f ce 7a 3d fb 16 07 be
       0.2255218 -0.14305693 0.06123167 -0.1319236
0002b0 3b b4 00 3d 80 1f 1f be e0 0a 0e be ad e8 3d be
       0.03142188 -0.1553936 -0.13871336 -0.1854579
0002c0 5a 1f a2 3c 2e e4 60 bb 33 8a 05 bd 13 18 08 be
       0.01979034 -0.0034315693 -0.0326025 -0.13290434
0002d0 6a 45 13 bc c1 5a 46 be 76 8b cd 3d eb 7a 31 3e
       -0.008988718 -0.19370557 0.10036366 0.17332046
0002e0 27 a4 1e be 1e 4e 2b be 65 46 de be 63 8d 57 bd
       -0.15492307 -0.16729018 -0.43413082 -0.05262507
0002f0 73 9c b5 bd 11 e9 b5 bc b2 76 11 be ec d1 13 3e
       -0.08867731 -0.022205861 -0.14205435 0.14435548
000300 ab 2c 34 3e e6 a4 8e 3c dd db 0c bd ab ce a4 3d
       0.17595164 0.017412614 -0.034389365 0.08047231
000310 d0 11 19 be aa 6e b3 3c 65 df 93 bd 88 94 52 be
       -0.14948201 0.021903355 -0.072203435 -0.20564473
000320 45 d1 3f 3e df ed b9 3d e3 39 2d bd d4 d9 31 3d
       0.18732174 0.090785734 -0.042291533 0.043420628
000330 b6 93 c7 3d 62 c5 93 3e 91 0e bf 3e 0a ba 48 bd
       0.097449705 0.2886153 0.373158 -0.049005546
000340 6f 5a 6f be 48 87 4b bc 47 2e 30 3e e5 2a ba bb
       -0.23374341 -0.01242239 0.17205153 -0.005681383
000350 81 67 ee 3d 61 93 14 bc 44 dc 56 bd 7f ca 90 3e
       0.116408356 -0.009068341 -0.052456155 0.28279492
000360 32 a2 67 3e bc 94 bd 3d 7d ca e0 3d 03 f2 16 3e
       0.22620466 0.092568845 0.109761216 0.14740758
000370 22 d3 08 3c 7e 0e 34 3c 04 48 b5 bd f2 e5 d8 bd
       0.008351119 0.010989783 -0.088516265 -0.105907336
000380 bc e4 9a be 48 c6 e8 3d 0b 1e 29 be 08 17 17 3e
       -0.30252635 0.11365944 -0.16515367 0.1475488
000390 e0 16 95 bc 23 f8 40 3e 10 35 92 be 8a ea 75 be
       -0.018199384 0.18844657 -0.28556108 -0.24015251
0003a0 f7 e6 25 bd 46 ce 21 bd 30 1d ce bd c9 63 2c be
       -0.04050347 -0.03950336 -0.10064161 -0.1683494
0003b0 a3 61 7c be 7b ff 69 3e 79 d3 ab 3e bb 0e 13 bd
       -0.2464662 0.22851364 0.33559778 -0.03590272
0003c0 6a f1 07 3e 25 c8 1b 3d f1 9e 2e 3d 51 1c 06 be
       0.13275686 0.03803267 0.042632047 -0.1309674
0003d0 34 33 20 be dc 98 ef bc d9 90 66 3e 7c bd 2c 3e
       -0.15644532 -0.029247694 0.22516192 0.16869158
0003e0 07 68 d8 3b 8d 49 c3 bd 10 42 b8 bd 3b 96 81 3d
       0.006604198 -0.09535513 -0.089969754 0.06327482
0003f0 9a 82 1d 3b 00 cf fd bd fa 58 57 bd 86 09 5b bc
       0.0024034143 -0.12392998 -0.05257509 -0.01336897

func_approx.network.4.bias f4 [30]
000000 9f b3 e4 3d 71 f8 2b 3c 82 0f 9a 3c e8 e4 23 be
       0.111670725 0.010496245 0.018806223 -0.1600529
000010 af 6e 13 3e a5 8e 3b 3e 75 53 91 3d 7c d4 c8 bd
       0.14397691 0.18316133 0.07095996 -0.09806153
000020 96 d1 d3 bc 7b 94 c5 bd 5c 9b 41 be e8 55 9c 3d
       -0.025856774 -0.09647461 -0.18906921 0.07633573
000030 25 4d d4 3d 1a 29 d0 3d ae 45 12 3e b2 a4 1a bb
       0.10366277 0.101640895 0.14284393 -0.0023596701
000040 7c 5a 8a 3d 69 f7 98 bd 94 97 39 be 60 f6 7e bd
       0.0675554 -0.07469065 -0.18124229 -0.06224668
000050 44 4c 7c bd 12 e6 3f 3e e0 eb 97 bd 5b f2 28 3e
       -0.06159617 0.18740109 -0.074180365 0.16498701
000060 bf 17 86 bd 1e 96 2d 3d 7c f5 36 3e 7a 0c 71 bd
       -0.06547498 0.04237949 0.17867082 -0.05884979
000070 55 b8 43 bd 5b 05 89 3d
       -0.047783215 0.066904746

func_approx.network.6.weight f4 [30, 30]
000000 15 e8 24 bc ae 77 e1 3d 4c d8 11 3d e9 8f 0c 3c
       -0.010065098 0.11009155 0.035606667 0.008579233
000010 e8 02 6d 3e f0 be f8 bb 91 12 ac 3c 3b a2 17 3d
       0.2314564 -0.007591121 0.021004947 0.03701995
000020 90 01 55 be 90 79 d5 3c d4 21 1c 3d 7a 27 fb bd
       -0.20801377 0.026058942 0.0381182 -0.12263389
000030 ff 21 2b 3e 14 8d f6 bd e1 1b 4f 3d dd 6f 87 3d
       0.16712187 -0.12038627 0.050563697 0.06613133
000040 8b b4 57 bd 80 a4 aa 3d ae ac ce bd d1 fd 8c 3c
       -0.052662414 0.08332157 -0.1009153 0.017210873
000050 19 7c bb bd 72 fc 23 be 6c d1 74 3d af 25 37 be
       -0.09154529 -0.16014269 0.059770033 -0.17885469
000060 14 ab 41 3e 6d d5 bb 3d 54 77 ae 3d 2d f9 c2 3d
       0.18912917 0.09171567 0.08518854 0.09520183
000070 d6 a5 85 3d c8 ef 9c bc ee 42 e7 3c cd 6a 33 bc
       0.06525771 -0.019157305 0.028230157 -0.010950756
000080 00 9b 5c 3d 28 df 52 3d cc fc 56 3d ca 4c f8 bd
       0.053858757 0.05148235 0.05248718 -0.12124021
000090 83 a1 97 be 75 49 ca bd 6f cb 9e 3d 12 08 09 3e
       -0.2961541 -0.09877292 0.07753646 0.13381985
0000a0 bb 0d 59 be 55 ab 27 be 7e 13 36 3e 3e cb 3e 3d
       -0.21196644 -0.16373952 0.17780873 0.046580546
0000b0 e8 98 52 be 30 b0 22 bd 44 3e 35 3e 39 0b 43 bd
       -0.20566142 -0.039718807 0.17699534 -0.047618125
0000c0 3c be a1 bd c4 0c d5 bd aa f4 fa bd ff e7 74 bd
       -0.078976125 -0.104028255 -0.12253697 -0.05979156
0000d0 42 f6 01 be f3 c4 c3 bd b4 a9 55 3e e4 6a c3 3d
       -0.12691596 -0.095590495 0.20865518 0.09541872
0000e0 9c ff 25 3d e0 c7 67 be 7f ab 1c 3c 37 18 cc 3e
       0.04052697 -0.2263484 0.009562372 0.39862224
0000f0 80 b2 73 3d 1b cf c6 bd 9c 6c d2 3b 42 ce 3a 3e
       0.059496403 -0.09707471 0.0064216387 0.18242744
000100 ec dd 2d be b1 2a f7 bd a6 4a 2a 3e 02 97 d6 bd
       -0.16979188 -0.120686896 0.16630039 -0.10478021
000110 cd 2b 3a 3d 36 56 aa bd ed 50 3f bd a9 d1 4e 3d
       0.045451928 -0.08317225 -0.046708036 0.050492916
000120 23 8e d5 3c 67 6c 1a be d6 37 14 3e 16 42 70 3c
       0.026068753 -0.15080415 0.14474425 0.014664194
000130 9f b3 3d be 18 d6 88 3e c5 34 3e 3e 82 fc 3e 3d
       -0.18525551 0.2672584 0.18574817 0.04662753
000140 6c 53 4c bc 01 70 15 3d 15 b4 16 3e 29 1e ab 3c
       -0.012471061 0.03648377 0.14717133 0.020888405
000150 ee c3 22 be c0 53 3d bd 52 1d 09 be 48 ab 3a 3e
       -0.15895054 -0.04622245 -0.13390091 0.18229401
000160 48 5a 68 ba 0c d4 92 be a1 f4 d3 bc 22 ca 34 be
       -0.00088635506 -0.28677404 -0.025873484 -0.17655233
000170 ef de 49 3d 6e f5 01 be 33 26 ed bd a6 d5 49 bc
       0.04928487 -0.1269128 -0.115795515 -0.012319004
000180 59 68 63 bc f4 e0 c6 3d 0a 71 5b 3e 99 08 58 be
       -0.013879859 0.09710875 0.2142984 -0.2109703
000190 82 5b bf bd af 3f 46 3c 27 64 c6 bd 47 18 f9 3d
       -0.093436256 0.012100144 -0.09687071 0.12162834
0001a0 6c 3d 41 3e 69 38 2c be 43 5f 7a bc e5 3e ad 3c
       0.18871087 -0.16818394 -0.015281501 0.021148155
0001b0 1a ba 5d 3e e6 ed 83 be 5d 56 cb 3d 56 88 30 be
       0.21653023 -0.2576744 0.09928582 -0.17239508
0001c0 1b 10 9d bd 92 dc ac 3e 2e 9a 6b 3d b5 7f 08 be
       -0.076690875 0.33762032 0.057520084 -0.13329966
0001d0 b9 c8 fb 3d 43 f8 5b be c1 d0 0f 3e 7c 57 c1 bd
       0.12294144 -0.21481423 0.14044477 -0.094405144
0001e0 d6 77 c0 bc 1d dc f9 3d 01 55 07 be 7e e8 0e bc
       -0.023494642 0.122001864 -0.1321602 -0.008722423
0001f0 60 ca c9 bc bf 19 26 3e d5 1e 9d be 60 32 a4 3d
       -0.024632633 0.16220759 -0.30687585 0.08017421
000200 d3 d8 40 be cf 6a 44 bd 38 76 3b bd 4a 51 59 bd
       -0.18832712 -0.047953423 -0.04576704 -0.05305604
000210 0c 98 e9 bd 77 25 42 3c 5c ba 13 bd 74 73 7d bd
       -0.11405954 0.011849753 -0.036066398 -0.061877683
000220 cc a9 b8 3d cd 29 6f be be 2d 67 be 42 65 12 bd
       0.09016761 -0.2335579 -0.22576043 -0.0357411
000230 b1 8b 84 3d 54 38 5a 3c 29 e3 47 be 6c f6 a2 3d
       0.064719565 0.013319094 -0.19520248 0.079571575
000240 b5 92 5a 3d 0b 29 d3 bd 1e e4 3d 3d 71 bd 50 be
       0.053362567 -0.10310563 0.046360128 -0.20384766
000250 96 69 0f 3e 49 c6 86 3e 38 94 8a 3c e0 b8 77 be
       0.14005122 0.26323155 0.01691638 -0.24191618
000260 c2 5d f7 3d 32 e6 f3 bb 44 85 0a be f8 1d 5a bc
       0.1207843 -0.007443213 -0.135274 -0.013312809
000270 39 51 bf bd 8a d7 1d be 7c 50 e5 bd 7d ee cd bd
       -0.09341664 -0.15414253 -0.11196992 -0.10055254
000280 f0 7f ea 3d 6f d0 04 3e 96 67 df 3c 7f b3 6f bd
       0.114501834 0.12970136 0.027271073 -0.05852079
000290 be 8b 77 3d 08 2c 12 3d 44 28 0e be a0 4f d8 bd
       0.060436003 0.035686523 -0.13882548 -0.10562062
0002a0 8a 69 81 3c 8f 98 d9 bd 82 86 1e 3e ce 30 3c 3d
       0.015797395 -0.10624801 0.15480998 0.04594498
0002b0 28 be 99 3d 46 69 17 3e 9f f7 78 be 32 e5 dc bd
       0.075069726 0.14786252 -0.2431321 -0.10785903
0002c0 87 1c 09 be 42 bb 30 bd 9a ea 13 be 8c 66 1f be
       -0.13389789 -0.043147333 -0.14444962 -0.15566462
0002d0 27 f5 2d bd 28 36 27 3e df ae 82 be d6 f5 9b bd
       -0.042470124 0.16329253 -0.2552404 -0.07615249
0002e0 50 47 ab 3e c0 7d 83 3e 23 bb d8 bc 61 68 91 bd
       0.33452845 0.25681877 -0.026456421 -0.07099987
0002f0 c9 bc 8c be 41 96 4e 3e a5 0f de bc b1 e5 00 bd
       -0.27487782 0.20174505 -0.02710707 -0.03146905
000300 8d a1 90 bc 09 8b 87 bd 79 c6 80 3d a2 b7 1b bc
       -0.017655158 -0.06618316 0.06287856 -0.009504231
000310 26 4f 98 3c 51 d1 04 3e 20 49 ff bd 7c 5e 67 3e
       0.018592428 0.12970473 -0.12465119 0.22594637
000320 01 31 a2 3b 2f 3b c9 bd b6 5c 78 bd 2a 88 82 be
       0.0049496894 -0.098257415 -0.06063529 -0.2549451
000330 d5 e9 bb bd 56 13 14 be 80 b5 16 3e d5 8e 79 3e
       -0.09175459 -0.14460501 0.14717674 0.24370892
000340 b5 74 34 3e bc c6 97 3e 55 44 c1 3d 94 25 49 bb
       0.17622645 0.2964381 0.094368614 -0.0030692564
000350 5e 06 fa 3b 86 11 f4 bd 4c a9 3c 3e 60 f8 4a 3e
       0.0076301536 -0.11917405 0.18423957 0.1982131
000360 51 f6 86 bd f3 14 39 3e b5 9a e4 bd d4 ed 8c bd
       -0.0658995 0.18074398 -0.111623205 -0.068812996
000370 78 85 02 be 6b 59 34 be 13 4d 53 3e 8c 50 f0 bd
       -0.12746227 -0.17612235 0.2063487 -0.11734113
000380 5f 8c d0 bd f8 e1 c5 bd 95 3c e9 3d 19 ad b1 be
       -0.10183024 -0.09662241 0.11388508 -0.34702376
000390 eb 88 8b bd d1 7f d8 3d 42 ed 14 be 4a 8a dc 3c
       -0.068132244 0.10571254 -0.14543632 0.02692141
0003a0 8d f8 75 3d 09 ff 31 3e c0 49 90 bd a6 fd 9b 3b
       0.06005149 0.17382444 -0.07045317 0.004760462
0003b0 a0 6b 1a be 6f 0b 86 be 28 67 0a be 01 9e a9 3e
       -0.15080118 -0.26180598 -0.13515913 0.3312836
0003c0 2c 01 34 3e e2 f6 cd 3d 8f 17 8f bd a3 ad eb bc
       0.17578572 0.10056855 -0.06986915 -0.02876932
0003d0 37 00 a1 bd 1c c9 7c 3e 22 7a 35 bc 3f c0 fa bd
       -0.07861369 0.24686092 -0.011076482 -0.12243699
0003e0 20 70 a9 bc 6c 8f 31 3e 52 d1 8c 3d 49 08 17 3e
       -0.020683348 0.17339867 0.06875862 0.14749254
0003f0 77 2d 31 3e 42 e7 ee 3d ec 77 d5 bd cf 0a b0 3d
       0.173025 0.11665203 -0.10423264 0.085958116

func_approx.network.6.bias f4 [30]
000000 31 86 19 bd 4c a0 8a bd 39 6b a3 bd e1 a1 b1 bd
       -0.03748149 -0.067688555 -0.079794355 -0.08673454
000010 90 06 bd 3d 65 09 87 bd 10 3d f0 3d 8d 2c ea bd
       0.09229767 -0.06593589 0.11730397 -0.11434279
000020 34 5b 50 3d 50 4d d5 3d 25 22 66 bd 57 bf cc 3d
       0.050868228 0.10415137 -0.056184907 0.09997433
000030 3c 1c b2 3d 42 5b 13 be b1 bf 0d be 78 cb e4 3d
       0.086967915 -0.14390281 -0.13842656 0.11171621
000040 95 21 22 3a 5a ab c9 3d 5e 8a 52 be d8 4c 92 bd
       0.00061848137 0.09847136 -0.20560595 -0.07143563
000050 af bf ea 3d 2c 78 01 3e 22 74 56 be 20 49 26 3d
       0.11462342 0.12643498 -0.20942739 0.04059708
000060 1b 12 12 be 14 1e 24 be 4c 4c ea 3d 4b 55 6f bd
       -0.14264719 -0.16027099 0.11440334 -0.05843095
000070 26 ef 8d 3c 00 83 0a bd
       0.017325949 -0.033816338

func_approx.network.8.weight f4 [1, 30]
000000 8b 06 0c be 0c 12 62 be 8e 92 5c 3e 57 cc 49 3e
       -0.13674371 -0.22077197 0.21540281 0.19706856
000010 15 56 c6 bd f4 c0 61 3e e6 99 88 be 1e 39 e3 bd
       -0.096843876 0.22046262 -0.26679915 -0.110948786
000020 88 d2 ff bd 08 d2 05 3e 15 5e 10 bd 67 84 29 3d
       -0.124913275 0.13068402 -0.035245974 0.041386034
000030 7e bf 7c bd b1 5a 5e be da 3d 37 3e 67 06 6d 3d
       -0.06170606 -0.21714284 0.17894688 0.057867434
000040 bd 12 28 be 50 2c a4 bc d1 0e 6b 3d 4b 61 0f be
       -0.16413398 -0.020040661 0.057387177 -0.14001958
000050 36 58 4c 3e 31 91 4a 3d 42 ac 0f 3e 02 e2 6f 3e
       0.19955525 0.04945487 0.14030555 0.23426059
000060 c7 a9 06 be 85 df df 3d 5b 17 1b be c7 8b 91 be
       -0.13150702 0.10931305 -0.15145628 -0.28426954
000070 67 2a df bd f5 73 1f be
       -0.108967595 -0.15571578

exp_avg f4 [30, 2]
000000 0e 33 c3 37 57 20 52 b6 ab 28 bf 36 8f bc 8c 36
       2.3269586e-05 -3.1311263e-06 5.696978e-06 4.1942762e-06
000010 da f6 4d b8 6d 3a 04 b6 c3 bb e8 36 c0 ec d0 b6
       -4.9105707e-05 -1.970354e-06 6.935997e-06 -6.2264444e-06
000020 aa 8c bd 36 de 33 8b b7 08 0a e5 37 28 08 1b b8
       5.6490144e-06 -1.6594244e-05 2.7303598e-05 -3.6962476e-05
000030 c9 9b 3f 37 b4 6b e3 b7 0d b7 d0 b6 9a e1 be 36
       1.1420759e-05 -2.7110662e-05 -6.220193e-06 5.6887047e-06
000040 7b bb 0a 38 93 54 db 37 c7 b7 c7 b6 c5 a3 23 37
       3.307637e-05 2.6146217e-05 -5.9520567e-06 9.753688e-06
000050 93 ed 32 38 57 1a 25 37 98 ad 2b b8 9f 8c 08 b8
       4.2659765e-05 9.840899e-06 -4.093125e-05 -3.255589e-05
000060 b1 e0 b5 38 ce 1f 39 38 60 89 e5 b7 f2 09 a8 b5
       8.6726046e-05 4.4137058e-05 -2.7362898e-05 -1.251987e-06
000070 df e3 7e b8 43 7d 28 b8 aa 7b a6 37 40 ef 35 b7
       -6.077054e-05 -4.017098e-05 1.9846328e-05 -1.0844145e-05
000080 19 46 1b b8 bf 5d ec b7 c4 75 82 b8 52 97 0f b8
       -3.7020163e-05 -2.8177046e-05 -6.2208186e-05 -3.4234785e-05
000090 82 8e bf b8 a0 99 48 b8 48 6a 4e 37 6b ee 54 36
       -9.134134e-05 -4.782679e-05 1.2303302e-05 3.172924e-06
0000a0 91 58 2a b7 46 8b 59 b8 b7 31 11 38 5d c5 2c 38
       -1.0153411e-05 -5.186654e-05 3.4616995e-05 4.1191804e-05
0000b0 d2 0a 26 38 d4 7c 50 34 f5 9a 9c 37 58 de a8 37
       3.958756e-05 1.9416922e-07 1.8668807e-05 2.0130698e-05
0000c0 77 01 ab 38 2b cb 0b 37 f2 59 2a 38 79 6a 49 36
       8.154188e-05 8.332349e-06 4.0614927e-05 3.001331e-06
0000d0 44 58 47 b7 a8 81 96 35 40 5d 4a 38 fe dc 79 38
       -1.1881875e-05 1.1213606e-06 4.82474e-05 5.957204e-05
0000e0 87 15 6d b7 bf 0b 06 b8 8b f4 ad b7 12 2d 01 b8
       -1.4131313e-05 -3.195903e-05 -2.0737081e-05 -3.079797e-05

exp_avg_sq f4 [30, 2]
000000 a1 6b 24 30 0d 6b 1b 2f dd 5b 4c 2f d6 15 21 2f
       5.98158e-10 1.41352e-10 1.8586328e-10 1.4650622e-10
000010 56 40 30 31 4b 6f 61 2f f0 2e f8 2e e4 d0 a3 2e
       2.5647942e-09 2.050317e-10 1.1286072e-10 7.449488e-11
000020 bb 69 e1 2f 8f 00 4d 30 44 b4 51 30 52 45 e7 30
       4.1002388e-10 7.457936e-10 7.628993e-10 1.6827164e-09
000030 f8 13 18 30 b9 a0 90 30 c9 90 c9 2f 29 71 0a 2f
       5.5325655e-10 1.0523059e-09 3.6664563e-10 1.259123e-10
000040 19 5a d1 30 10 24 5e 30 84 98 c9 2f 62 9d 97 2f
       1.5232359e-09 8.081438e-10 3.6670056e-10 2.7578567e-10
000050 db 4b 13 31 92 bd c3 2f 9e 24 f8 30 bb 6a a0 30
       2.1434434e-09 3.560499e-10 1.8054782e-09 1.1671867e-09
000060 34 55 0a 32 a5 a8 19 31 7e 5e 6d 30 f3 4b 86 2e
       8.05203e-09 2.2360294e-09 8.635438e-10 6.107106e-11
000070 e8 28 88 31 80 76 09 31 6e 03 1a 31 4f 4c 71 30
       3.9627714e-09 2.0003483e-09 2.24119e-09 8.778373e-10
000080 3a cb 14 31 7d 3b 05 31 88 52 a0 31 25 4e d3 30
       2.1652355e-09 1.9387862e-09 4.6659956e-09 1.5374481e-09
000090 07 09 1a 32 88 ae 38 31 7f 9a 83 2f 03 80 de 2e
       8.966032e-09 2.6874734e-09 2.3938537e-10 1.01181306e-10
0000a0 3d bd dd 2f 0b 09 51 31 f4 13 f2 30 be 35 2c 31
       4.0334128e-10 3.0418643e-09 1.7613488e-09 2.5059843e-09
0000b0 46 d2 20 31 c8 3b 28 30 6c 19 3c 30 97 71 89 30
       2.340259e-09 6.1203e-10 6.843013e-10 1.0000346e-09
0000c0 74 b7 f6 31 99 43 cd 2f 5e e9 fb 30 46 ca 72 2f
       7.1803985e-09 3.7337314e-10 1.8328981e-09 2.2081634e-10
0000d0 47 bd b3 2f db 55 1e 2f bc f3 2d 31 a2 3b 77 31
       3.26944e-10 1.4400518e-10 2.531336e-09 3.5977128e-09
0000e0 03 01 53 30 be 79 b8 30 08 fb 2e 30 d4 36 96 30
       7.676279e-10 1.3422363e-09 6.365757e-10 1.092952e-09

max_exp_avg_sq f4 [30, 2]
000000 bf 8a 33 37 a3 06 ac 37 85 21 41 35 45 12 b8 35
       1.0701536e-05 2.0507088e-05 7.194688e-07 1.3714385e-06
000010 a3 ec 94 36 5b f1 47 37 b1 1c c6 33 d3 4a 8c 34
       4.438292e-06 1.1917519e-05 9.2253124e-08 2.6131474e-07
000020 49 5f 25 37 7f 88 ef 37 31 fa 2f 36 5e a6 01 37
       9.856952e-06 2.8554581e-05 2.6222663e-06 7.727735e-06
000030 77 a5 e9 36 19 6e 4a 37 9f 60 34 35 93 6b af 35
       6.9632038e-06 1.2065772e-05 6.719583e-07 1.3069824e-06
000040 52 6b 77 35 e4 0e 46 36 5b d8 71 36 73 c2 ea 36
       9.217084e-07 2.9512967e-06 3.6037734e-06 6.9963803e-06
000050 e2 4a 48 36 f1 4c c6 36 25 b9 83 35 4a 92 29 36
       2.984591e-06 5.909817e-06 9.814145e-07 2.5268114e-06
000060 7c 92 eb 36 90 ba 2b 37 37 38 7a 34 44 7f 99 35
       7.020599e-06 1.0235832e-05 2.3303515e-07 1.1436427e-06
000070 de 1e 30 36 14 80 07 37 14 2d 3b 35 b0 28 23 36
       2.624401e-06 8.076448e-06 6.9728526e-07 2.4312576e-06
000080 f5 75 54 36 f8 80 2c 37 3c 3e 91 35 b3 a8 24 36
       3.1659122e-06 1.0282027e-05 1.0821454e-06 2.45361e-06
000090 d8 ff a3 37 58 d2 96 38 9b 7f 85 35 e7 8a e2 35
       1.955025e-05 7.191737e-05 9.94641e-07 1.6878738e-06
0000a0 26 ce 3c 36 00 75 86 36 b5 dd ba 36 38 8b a5 37
       2.8134177e-06 4.007132e-06 5.569042e-06 1.9734362e-05
0000b0 96 a6 83 36 ce c2 08 37 13 9f 08 37 e1 05 d2 37
       3.9234974e-06 8.151588e-06 8.143269e-06 2.5036688e-05
0000c0 00 34 0f 35 b6 3c 05 36 3b ca af 36 6c e4 5d 37
       5.334732e-07 1.9853883e-06 5.238949e-06 1.322581e-05
0000d0 c2 b8 94 37 a2 03 83 37 27 79 67 36 2a da ab 37
       1.772901e-05 1.5618109e-05 3.4492202e-06 2.0486379e-05
0000e0 f7 ed 32 36 a1 d0 b7 36 cd ca 8c 36 a7 2f 5e 37
       2.666258e-06 5.4781126e-06 4.1959343e-06 1.3243326e-05

exp_avg f4 [30]
000000 70 37 63 b7 ad 7b aa 37 b4 d6 07 b8 60 c9 8c b6
       -1.3543162e-05 2.032317e-05 -3.2386466e-05 -4.1957683e-06
000010 5e 1b 06 37 38 db 07 37 45 68 df 36 74 1c 36 37
       7.993394e-06 8.097668e-06 6.6580565e-06 1.085467e-05
000020 97 1f 32 b6 e6 b8 d7 b7 a9 20 84 38 8a da b2 b6
       -2.6542455e-06 -2.5716097e-05 6.300334e-05 -5.3302547e-06
000030 7a 0e 94 38 56 dd de b7 1b e8 0d b8 8c 55 b2 b6
       7.0598864e-05 -2.656753e-05 -3.3833185e-05 -5.3147724e-06
000040 15 12 6a b7 65 97 37 b7 72 7a 32 b8 bb 7b d6 36
       -1.3951697e-05 -1.0942899e-05 -4.2552543e-05 6.392101e-06
000050 fe 1d 86 b7 b0 37 93 37 da 92 56 37 79 2f 43 36
       -1.5988011e-05 1.7549697e-05 1.27895855e-05 2.9084897e-06
000060 51 45 c1 38 ce 30 30 38 04 62 32 b8 79 e7 9a b7
       9.215868e-05 4.2007123e-05 -4.252979e-05 -1.8466018e-05
000070 04 4b 25 b8 93 94 f0 b6
       -3.940893e-05 -7.1698537e-06

exp_avg_sq f4 [30]
000000 ea 6b 97 2f e7 2e 4d 30 ff 77 d1 30 bd fd 06 2f
       2.7543418e-10 7.464522e-10 1.5240856e-09 1.2277375e-10
000010 7b 0a 73 30 15 bd 00 2f 54 3c 2f 30 2c 41 ad 2f
       8.841778e-10 1.1708708e-10 6.375036e-10 3.1514824e-10
000020 ac 38 6b 2f a2 92 cf 30 76 88 9a 31 10 31 0c 2f
       2.139326e-10 1.5102908e-09 4.4975037e-09 1.2750356e-10
000030 ae 39 be 31 4d 2f 7c 30 a9 36 0a 31 07 39 18 31
       5.536285e-09 9.1744284e-10 2.0112714e-09 2.2151327e-09
000040 7b fa 43 30 4e e9 00 30 f1 65 45 31 e5 87 21 2f
       7.129654e-10 4.6897675e-10 2.872522e-09 1.4691144e-10
000050 69 d2 a4 30 11 dd 84 30 c1 1f 0a 30 da ac 30 30
       1.1992373e-09 9.667095e-10 5.024923e-10 6.4274064e-10
000060 4a df 20 32 dc 30 1d 31 d4 25 17 31 f5 8c fa 2f
       9.363996e-09 2.287428e-09 2.1994895e-09 4.557489e-10
000070 11 58 2b 31 01 ec a1 2f
       2.4933835e-09 2.945342e-10

max_exp_avg_sq f4 [30]
000000 f0 8a d2 37 52 9c f5 35 26 85 72 37 8b 8d 90 34
       2.5098649e-05 1.8299418e-06 1.4455325e-05 2.6925076e-07
000010 19 bb e4 37 35 d9 bb 36 16 40 91 37 52 e3 25 36
       2.7266842e-05 5.5983205e-06 1.731519e-05 2.4719234e-06
000020 ef 77 32 36 70 68 1c 37 96 e1 05 37 90 08 1b 36
       2.6593877e-06 9.322641e-06 7.979941e-06 2.3101784e-06
000030 d9 17 7b 37 c0 38 47 35 1f d8 24 37 50 fb 15 36
       1.4966318e-05 7.421586e-07 9.825481e-06 2.2349013e-06
000040 50 df ef 36 1d 65 31 36 32 68 95 38 8d c7 f0 35
       7.148752e-06 2.643391e-06 7.1242815e-05 1.793947e-06
000050 22 e9 b2 36 7d 27 65 37 0d bd 1c 37 86 c8 a6 37
       5.3319536e-06 1.3658658e-05 9.342341e-06 1.9882118e-05
000060 1b 9e 04 36 b5 22 b2 37 47 e9 29 38 16 90 73 37
       1.9761562e-06 2.1235415e-05 4.0509996e-05 1.4517476e-05
000070 57 bd f4 36 89 62 80 37
       7.2938087e-06 1.5304673e-05

exp_avg f4 [30, 30]
000000 3d c2 31 b6 83 fe 83 35 32 6b 61 36 a9 92 2d b6
       -2.6488117e-06 9.834333e-07 3.3590009e-06 -2.5864376e-06
000010 30 ac 70 b6 58 fd 55 b6 d0 6d 55 35 67 fa 50 36
       -3.5863013e-06 -3.1886939e-06 7.950848e-07 3.1140169e-06
000020 3a c2 28 b6 63 c1 84 b2 26 bd a6 b6 f6 fd bd 36
       -2.5147006e-06 -1.5454765e-08 -4.9692053e-06 5.662204e-06
000030 33 c0 14 b6 da 26 a0 36 7d 44 c3 36 fd 93 16 b4
       -2.2165593e-06 4.7728945e-06 5.819426e-06 -1.4023676e-07
000040 bc 1f 3d 36 fa 04 a8 36 23 eb 93 36 b4 5d d4 b5
       2.8181666e-06 5.0073695e-06 4.408315e-06 -1.5822502e-06
000050 69 77 9f 36 6b 29 36 b6 f3 ed a4 b5 55 9d 2b b6
       4.7524704e-06 -2.7144222e-06 -1.2288205e-06 -2.5572565e-06
000060 46 8a 16 b7 c1 38 83 b6 ad 19 d2 35 61 c7 bc b6
       -8.972891e-06 -3.9107113e-06 1.5653692e-06 -5.6260474e-06
000070 1e 7f b9 b5 1e de 09 36 2a 81 0a 36 1b 95 4d 37
       -1.382057e-06 2.054388e-06 2.0638786e-06 1.22536685e-05
000080 2b 10 ad b7 d6 3a a3 b6 26 80 ae 37 78 0e 88 b6
       -2.0630736e-05 -4.864628e-06 2.080209e-05 -4.0548002e-06
000090 3b 0e 4a b7 05 c4 23 35 9b 6d 26 b7 d8 0f 38 b7
       -1.20434515e-05 6.100748e-07 -9.9198905e-06 -1.0970944e-05
0000a0 da 61 07 36 a2 db a3 b7 27 bb b5 36 fa 70 5d b7
       2.0173525e-06 -1.9533389e-05 5.4160078e-06 -1.3198931e-05
0000b0 a1 12 02 b7 d2 43 63 b7 b4 ee 15 37 19 f3 21 b7
       -7.752941e-06 -1.3546045e-05 8.9366695e-06 -9.652948e-06
0000c0 c7 db 83 b7 91 94 f2 36 3d 09 9a b7 27 4b 01 b7
       -1.5718759e-05 7.2294574e-06 -1.8362533e-05 -7.706497e-06
0000d0 0f d6 4b b7 81 72 e2 b6 db 13 fc b5 59 59 50 37
       -1.2149582e-05 -6.748655e-06 -1.8781242e-06 1.2418569e-05
0000e0 f8 18 a6 b6 8c 1c 9e 37 15 09 36 35 3d 18 61 b7
       -4.9500923e-06 1.8848361e-05 6.78135e-07 -1.34166885e-05
0000f0 08 51 72 35 89 59 e6 b5 9f 83 8e 35 07 ee 03 36
       9.026994e-07 -1.7162394e-06 1.0618131e-06 1.9659071e-06
000100 c8 4c 18 b6 81 2d 49 35 57 bf df 35 ef c9 89 b6
       -2.2694458e-06 7.494455e-07 1.6670482e-06 -4.1064263e-06
000110 b4 f5 c5 35 5e 87 fd 35 0c bb 54 37 6a 02 a3 b6
       1.4749153e-06 1.8889366e-06 1.2679735e-05 -4.8580596e-06
000120 87 fa a0 36 38 df ad b6 cb 25 f6 b6 8e ca 56 36
       4.797537e-06 -5.181788e-06 -7.335771e-06 3.2006387e-06
000130 f9 15 0d b6 dc d3 06 b7 ce 90 cb b5 0c 73 e6 35
       -2.1023427e-06 -8.03635e-06 -1.5166822e-06 1.7169818e-06
000140 96 9c 47 36 35 6d 19 36 ca bd b8 35 0d b9 2b 36
       2.9744456e-06 2.2862343e-06 1.3764304e-06 2.55887e-06
000150 4f da 38 37 13 f9 7d 36 4e 04 15 b7 76 a8 96 36
       1.1018084e-05 3.7844918e-06 -8.882094e-06 4.48996e-06
000160 f4 ef 48 b4 fc 1e 3f 35 02 a8 ca 36 c1 fa 2e b6
       -1.8713746e-07 7.1198133e-07 6.039628e-06 -2.6073978e-06
000170 34 3f 9d 35 fc 20 4d b7 96 84 fe b4 5c ae 83 35
       1.1715806e-06 -1.2226632e-05 -4.7407656e-07 9.811006e-07
000180 f8 93 21 b6 6c f3 8a 37 33 a5 5d b5 89 eb 52 b5
       -2.4076999e-06 1.6564234e-05 -8.256931e-07 -7.8573845e-07
000190 ac b6 8f 35 e6 5f 12 37 81 5d 99 b5 0c 37 6f 36
       1.0707495e-06 8.724606e-06 -1.1426602e-06 3.5645817e-06
0001a0 78 fb 59 36 bc 58 fd b5 95 61 ba b6 4a 82 7d 36
       3.2481894e-06 -1.8875794e-06 -5.554592e-06 3.7775776e-06
0001b0 e0 36 41 36 b1 54 45 36 77 8a 43 37 09 14 77 36
       2.8791183e-06 2.9404584e-06 1.1655145e-05 3.681753e-06
0001c0 9f 87 e2 34 a7 64 4c 35 5c 7f 26 b6 b7 37 e1 b5
       4.2194458e-07 7.614239e-07 -2.481006e-06 -1.6780021e-06
0001d0 ad 4d 4e b6 87 ca f9 b6 cc e1 78 b7 46 28 0d b7
       -3.0741605e-06 -7.4443556e-06 -1.4834524e-05 -8.413632e-06
0001e0 08 1e 1f b8 c9 32 03 b6 e0 2c 82 38 b3 03 06 b8
       -3.7936523e-05 -1.9550082e-06 6.207242e-05 -3.1951535e-05
0001f0 a3 e8 87 b8 2f 6f 18 b8 2d c7 06 38 60 db 2d 38
       -6.4806336e-05 -3.634317e-05 3.2133587e-05 4.1450723e-05
000200 3c d8 79 b7 39 96 de 37 27 f5 db b5 37 82 5f 38
       -1.48919025e-05 2.6534415e-05 -1.638812e-06 5.3288615e-05
000210 01 63 70 b7 ce f8 2e 38 c5 89 11 38 f6 f1 ab b7
       -1.4328166e-05 4.171655e-05 3.4699002e-05 -2.049746e-05
000220 24 89 a9 36 83 6f fe 37 f9 df 6b 38 44 0c f1 b7
       5.0525578e-06 3.0331086e-05 5.6236957e-05 -2.873515e-05
000230 22 69 50 38 67 6b b0 35 64 5d c6 b6 93 67 0f 37
       4.9688977e-05 1.314428e-06 -5.911732e-06 8.5475795e-06
000240 17 98 d6 b7 b2 e2 2e b8 34 46 17 b5 57 86 5e b8
       -2.558161e-05 -4.169596e-05 -5.635404e-07 -5.305404e-05
000250 3b 5d 0c b6 ed 85 5e 38 c6 4f fb 37 4a cd 2a b8
       -2.0915893e-06 5.3053653e-05 2.9958679e-05 -4.072235e-05
000260 d3 e2 64 b7 c5 91 7f 38 88 d7 23 b6 58 68 0c 38
       -1.3642671e-05 6.0932496e-05 -2.4414348e-06 3.347578e-05
000270 b8 9b 8f 37 b8 96 9d b8 dd 1b 35 38 49 22 86 37
       1.711944e-05 -7.514417e-05 4.3179713e-05 1.599001e-05
000280 4b 19 12 38 72 7e 99 b8 58 c0 36 38 89 93 57 b8
       3.483267e-05 -7.319161e-05 4.3571315e-05 -5.1397397e-05
000290 3c 04 6e b8 73 5f 99 38 40 50 34 b8 6b be 88 b8
       -5.6747565e-05 7.313387e-05 -4.2990083e-05 -6.5204535e-05
0002a0 44 e0 ff b7 e1 a9 c1 37 e4 c7 11 38 b2 d7 23 38
       -3.05028e-05 2.3086499e-05 3.4756857e-05 3.906311e-05
0002b0 0f db 3f 38 19 c3 08 38 0b 3f 98 38 86 4e 0e 38
       4.5741963e-05 3.2606626e-05 7.2596675e-05 3.392857e-05
0002c0 f6 5e bf b7 ad 8d 89 38 a5 99 e0 37 cd 90 ee b6
       -2.2813194e-05 6.559058e-05 2.6774427e-05 -7.1098098e-06
0002d0 bb 75 1e 36 26 6c d8 b5 df 81 6c 35 0f 4c 11 b6
       2.3612363e-06 -1.6124729e-06 8.810584e-07 -2.1650956e-06
0002e0 61 ed e9 36 8f 6d 10 37 04 a1 1b b6 85 30 d3 36
       6.9715757e-06 8.608577e-06 -2.3190523e-06 6.2939384e-06
0002f0 c6 d6 bc 36 36 21 10 36 a4 69 26 b8 71 4b 91 37
       5.6278395e-06 2.1477003e-06 -3.967587e-05 1.7320477e-05
000300 93 de 85 b7 92 7a ab 37 41 42 0e 38 fc d2 09 b7
       -1.595848e-05 2.0441865e-05 3.3917142e-05 -8.21496e-06
000310 c0 07 e1 b6 aa 1f f4 37 9e ad 85 37 42 04 fb b6
       -6.7064248e-06 2.9101811e-05 1.5935682e-05 -7.4808786e-06
000320 fd 68 e0 b6 a2 ac d7 36 f3 b7 36 35 cc f1 ca 36
       -6.6879425e-06 6.4275964e-06 6.8067965e-07 6.048218e-06
000330 55 82 62 b8 07 ab a2 b7 72 33 ad 37 8f 2e 87 b7
       -5.400398e-05 -1.9391546e-05 2.0647163e-05 -1.6114935e-05
000340 c9 35 86 b6 71 0e c9 b6 78 35 41 b7 e8 75 8e b6
       -3.9997726e-06 -5.991948e-06 -1.1516146e-05 -4.245656e-06
000350 22 bc c3 b7 b5 c6 1e 38 d8 20 b8 37 eb 55 01 37
       -2.3333418e-05 3.7855196e-05 2.1949803e-05 7.7090035e-06
000360 c8 6b 8d 36 00 8a 59 b8 a7 ed 34 37 cf 5a 78 34
       4.214675e-06 -5.1865354e-05 1.0784169e-05 2.3129836e-07
000370 cf 04 47 b7 5e f5 da b7 b2 a4 d1 b6 fa 5b 18 b7
       -1.1862444e-05 -2.6101883e-05 -6.2478584e-06 -9.081321e-06
000380 00 bf 4a b4 4f 95 a0 37 4a fd 4c b6 f0 f3 c9 b6
       -1.8882201e-07 1.9143014e-05 -3.0545802e-06 -6.018665e-06
000390 69 b3 4d b7 f3 18 f4 b6 4e 85 a0 b7 1c 51 77 36
       -1.2260724e-05 -7.274671e-06 -1.9135561e-05 3.685308e-06
0003a0 07 9f 20 37 b0 2e 83 36 e2 76 6a b7 19 9e ce 36
       9.57377e-06 3.9095394e-06 -1.3975166e-05 6.1576834e-06
0003b0 0c 5c 89 37 d7 8e bb 37 54 4e 27 38 9d e0 ce 36
       1.6374535e-05 2.2358652e-05 3.988885e-05 6.165427e-06
0003c0 4f 2a 24 37 87 0a 96 b7 75 69 67 37 44 1b af 37
       9.7850125e-06 -1.7886296e-05 1.3793227e-05 2.0874322e-05
0003d0 18 d1 e6 b7 1b e2 15 37 7a b4 9b 37 87 88 c5 b7
       -2.7515503e-05 8.933736e-06 1.856148e-05 -2.3547806e-05
0003e0 8a 98 9a 37 2c 02 8c 37 47 05 e5 36 53 3c 05 b8
       1.8429262e-05 1.6690312e-05 6.825346e-06 -3.1765852e-05
0003f0 6f 18 97 37 fb 22 ae b7 cc 4c ac b7 6a f5 95 37
       1.801198e-05 -2.0758705e-05 -2.053976e-05 1.7876464e-05

exp_avg_sq f4 [30, 30]
000000 90 bd 00 2e e3 17 18 2e 33 bb 67 2e 37 58 75 2e
       2.9272196e-11 3.4582014e-11 5.2689585e-11 5.57849e-11
000010 50 f9 52 2e 41 30 2c 2e a2 71 97 2d 25 63 a5 2e
       4.7969906e-11 3.915113e-11 1.7217176e-11 7.520943e-11
000020 1a 9b 3b 2e 18 93 8a 2d 79 ac 23 2f 3b de e9 2e
       4.2656635e-11 1.5754106e-11 1.4886038e-10 1.0635089e-10
000030 db 19 93 2e 21 90 c0 2e 7e 34 0c 2f 9d d3 95 2e
       6.689379e-11 8.7567516e-11 1.2751575e-10 6.8133256e-11
000040 b6 d3 86 2e 4c 16 d7 2e e3 be c3 2e eb 22 de 2d
       6.131222e-11 9.781029e-11 8.9014816e-11 2.5253985e-11
000050 5e e2 9f 2e 65 31 79 2e 85 13 26 2e 53 39 4c 2e
       7.270694e-11 5.6659916e-11 3.7761367e-11 4.6435144e-11
000060 c1 95 78 2f 40 10 b1 2e 24 7b e8 2e ef 21 e3 2e
       2.2608672e-10 8.051915e-11 1.0572013e-10 1.0328793e-10
000070 0b 98 9f 2d 31 33 f1 2d f5 eb 05 2e 06 e9 34 2f
       1.8143728e-11 2.7421261e-11 3.045027e-11 1.6453691e-10
000080 4c fd fb 2f 01 06 80 2e dd fc 02 30 c4 79 80 2e
       4.5836612e-10 5.8218326e-11 4.7653065e-10 5.842396e-11
000090 03 8b 2f 2f 67 b6 ad 2e 57 42 03 2f 01 ce 0e 2f
       1.5965544e-10 7.89953e-11 1.1937949e-10 1.2988012e-10
0000a0 92 cb ad 2e 5b 04 eb 2f fd cd 75 2e 60 9b 5f 2f
       7.9032905e-11 4.2749346e-10 5.5889505e-11 2.0336932e-10
0000b0 62 aa e4 2e 53 86 66 2f 1d b2 f2 2e 0a 30 08 2f
       1.0398506e-10 2.09661e-10 1.1036525e-10 1.2386195e-10
0000c0 ef 3a 9d 2f f9 79 88 2e c2 f1 d9 2f 1f 68 c0 2e
       2.8600008e-10 6.206231e-11 3.964385e-10 8.749645e-11
0000d0 64 60 32 2f 53 a5 99 2e fa 9f 97 2e de 4e 4d 2f
       1.622325e-10 6.987002e-11 6.8951025e-11 1.867266e-10
0000e0 f8 08 cb 2e d4 3e da 2f ad 14 1f 2d 01 fb 6b 2f
       9.2329644e-11 3.969861e-10 9.0426945e-12 2.14623e-10
0000f0 19 28 95 2d 16 cd 2c 2d 19 5a f9 2d b1 c9 0b 2e
       1.6957146e-11 9.822606e-12 2.8348034e-11 3.178408e-11
000100 9e e5 18 2e fb e3 ce 2d be d0 52 2d 82 4e 97 2e
       3.476474e-11 2.3520732e-11 1.1983468e-11 6.880631e-11
000110 07 3e 72 2d 75 bb 75 2d df 8b 5d 2f 94 aa 8f 2e
       1.376988e-11 1.39682614e-11 2.0149525e-10 6.533188e-11
000120 14 b3 8b 2e c9 e7 6d 2e f8 de be 2e 66 99 44 2e
       6.352799e-11 5.4093428e-11 8.679807e-11 4.4701486e-11
000130 31 df d3 2d 93 8c dd 2e d7 ca ea 2d 34 9b a7 2d
       2.408704e-11 1.00748875e-10 2.6692799e-11 1.9054626e-11
000140 af 63 0d 2e e0 b5 fd 2d 51 99 34 2d bb c7 15 2e
       3.2148225e-11 2.8843539e-11 1.02658585e-11 3.4056074e-11
000150 62 2b 3f 2f 39 2c 1e 2e 07 0e 15 2f ae 58 7e 2e
       1.7386761e-10 3.596432e-11 1.3556455e-10 5.7831677e-11
000160 b4 64 0d 2d b0 e3 c9 2d 86 7d 72 2e 03 99 e1 2d
       8.037283e-12 2.2952168e-11 5.5135917e-11 2.564749e-11
000170 6b 69 1f 2e 2b e1 58 2f c0 56 0d 2e fb d9 b8 2d
       3.6246044e-11 1.9725081e-10 3.2136738e-11 2.1015181e-11
000180 a3 23 9d 2d 89 7a b8 2f 41 1c c1 2d fd ad 00 2d
       1.786466e-11 3.3556471e-10 2.1954107e-11 7.314591e-12
000190 cb f1 b1 2e 90 f1 06 2f 22 eb 44 2e 4a a4 5d 2e
       8.091979e-11 1.2273049e-10 4.477408e-11 5.03955e-11
0001a0 b1 a8 8e 2e 3b 60 91 2e 6c ef 82 2e 92 2f 79 2e
       6.487378e-11 6.6109306e-11 5.9542454e-11 5.6658296e-11
0001b0 e8 85 76 2e 3d bd cc 2d dc c3 2d 2f 38 28 39 2e
       5.6052857e-11 2.3276154e-11 1.5803842e-10 4.209985e-11
0001c0 16 1c e3 2d fb 86 e8 2d fc b5 c1 2e f9 96 3b 2e
       2.5819385e-11 2.643529e-11 8.808951e-11 4.2652968e-11
0001d0 47 49 bf 2e a3 bb dc 2e 76 b0 86 2f 9b a4 de 2e
       8.698691e-11 1.0037773e-10 2.449984e-10 1.0124631e-10
0001e0 f4 67 ea 30 2f 95 98 2f dd d8 94 31 19 c2 ca 30
       1.7055286e-09 2.775464e-10 4.3320214e-09 1.47526e-09
0001f0 dd 77 9f 31 b6 94 ec 30 dd d5 a6 30 7d 61 30 31
       4.641136e-09 1.7213526e-09 1.2138873e-09 2.5666786e-09
000200 e9 0a 29 30 11 d0 8d 30 de e1 29 30 80 7b 73 31
       6.1497346e-10 1.0318236e-09 6.180282e-10 3.5431356e-09
000210 6f 7e 75 30 05 bd 11 31 35 72 dc 30 d2 3b 80 30
       8.9310154e-10 2.1207722e-09 1.6039566e-09 9.330228e-10
000220 5c 6e 57 30 81 d3 b1 30 87 bc 76 31 ac 42 99 30
       7.8373374e-10 1.2938558e-09 3.5904877e-09 1.1151164e-09
000230 55 57 41 31 65 8d 67 30 ba f9 a7 2f ea 26 88 30
       2.813484e-09 8.4238244e-10 3.0554564e-10 9.906362e-10
000240 11 b9 a2 30 8e cf 10 31 b7 dd c1 30 ee 43 6c 31
       1.183965e-09 2.107274e-09 1.4105613e-09 3.4381133e-09
000250 68 d8 05 2f e5 7a 57 31 11 82 9b 30 8f 3d ff 30
       1.2173162e-10 3.1356475e-09 1.1314701e-09 1.8571188e-09
000260 1e 44 06 30 c5 90 8d 31 ea ee af 2f 87 1a ee 30
       4.8845716e-10 4.1200985e-09 3.2002073e-10 1.7324319e-09
000270 50 69 c6 2f 97 cf d9 31 42 e0 1c 31 c8 38 c5 2f
       3.609082e-10 6.3391314e-09 2.2828464e-09 3.5874437e-10
000280 3b 6e 37 31 3a e7 d2 31 8f 73 39 31 e2 c1 58 31
       2.6692664e-09 6.138092e-09 2.698673e-09 3.1542347e-09
000290 dc 65 8c 31 9f 66 ce 31 f6 b1 24 31 64 ef ab 31
       4.0861163e-09 6.0070557e-09 2.39663e-09 5.0039706e-09
0002a0 16 f0 bc 30 5a 99 44 30 42 ff c7 30 df 07 12 31
       1.3747037e-09 7.152231e-10 1.4551704e-09 2.125027e-09
0002b0 02 cb 1e 31 2f 4c ea 30 02 53 eb 31 9c 83 d8 30
       2.3107423e-09 1.7047393e-09 6.848837e-09 1.5753474e-09
0002c0 48 89 fe 30 ec 89 ac 31 53 a1 6f 30 bc b1 a5 2f
       1.851995e-09 5.0215387e-09 8.717695e-10 3.0139613e-10
0002d0 45 1b 9c 2e 9e 27 a1 2e 33 eb 3d 2f 37 90 38 2e
       7.098903e-11 7.32847e-11 1.727301e-10 4.1964845e-11
0002e0 ca ab 9e 2f 81 02 80 2f 9e eb e4 2e 1b a5 17 2f
       2.8862096e-10 2.3284843e-10 1.04100936e-10 1.3792027e-10
0002f0 3e a3 c0 2e a1 b9 85 2e 0d fe e4 30 d5 f3 e3 2f
       8.760147e-11 6.081114e-11 1.6661389e-09 4.1464313e-10
000300 1a 63 cd 2f d5 35 02 30 6d 27 a4 30 78 f9 49 2f
       3.73597e-10 4.7370224e-10 1.1943776e-09 1.8369473e-10
000310 f7 12 40 2f 4c f7 71 30 fb f1 c8 2f 58 45 a1 2e
       1.7469036e-10 8.802672e-10 3.6551726e-10 7.33375e-11
000320 f9 02 b4 2f e6 d6 3a 2f f4 9d 8e 2e 32 6a 24 2f
       3.2743921e-10 1.6992949e-10 6.4854705e-11 1.4953441e-10
000330 8d 9f 4b 31 c5 a3 ef 2f c0 86 2f 30 60 4e cc 2f
       2.9631082e-09 4.3590212e-10 6.385612e-10 3.7163073e-10
000340 d6 1d 9c 2e 65 00 67 2f ba 84 a0 2f 04 39 c0 2e
       7.0993586e-11 2.1009468e-10 2.9198138e-10 8.741277e-11
000350 33 c5 41 30 5e b3 ce 30 59 28 54 30 9e 4b 46 2f
       7.049323e-10 1.5039452e-09 7.718249e-10 1.803486e-10
000360 4d 8d 3b 2f 9f 48 43 31 69 2d 44 2f 55 04 b2 2e
       1.7057751e-10 2.8417515e-09 1.7842229e-10 8.0952724e-11
000370 15 6d 65 2f ac 3a 6d 30 23 09 ff 2e e2 fe 32 2f
       2.0866182e-10 8.6303475e-10 1.15976805e-10 1.6279558e-10
000380 96 4e b5 2e 35 76 0a 30 21 c0 7f 2e 71 ee d8 2e
       8.244887e-11 5.037209e-10 5.8150932e-11 9.8648985e-11
000390 03 b0 91 2f e3 da 35 2f 4c 77 24 30 39 63 8c 2e
       2.650041e-10 1.6539618e-10 5.9832383e-10 6.3840884e-11
0003a0 5d ef 36 2f 0f 15 99 2e 80 39 c7 2f 91 f7 ef 2e
       1.6637842e-10 6.961375e-11 3.6238745e-10 1.0912438e-10
0003b0 b0 3a c9 2f 38 05 36 30 0e 66 e3 30 9a e7 bf 2f
       3.6603387e-10 6.621863e-10 1.654543e-09 3.490726e-10
0003c0 05 72 01 2f 4d e0 c9 2f 9f 59 9a 2f 98 47 04 30
       1.177299e-10 3.6721062e-10 2.8076116e-10 4.812306e-10
0003d0 a3 34 79 30 a4 8a 15 2f 38 87 d8 2f 48 c7 2b 30
       9.0660474e-10 1.3600726e-10 3.938625e-10 6.2492633e-10
0003e0 df b1 d4 2f 42 76 ab 2f 8f 93 22 2f 2d ce 92 30
       3.868896e-10 3.1188746e-10 1.4786238e-10 1.0681497e-09
0003f0 4f 4b e2 2f eb ea fe 2f 37 f1 00 30 41 54 dc 2f
       4.116267e-10 4.636925e-10 4.6908916e-10 4.0077633e-10
