paper/Burgers/runs/shifted_grid_noise_20/shifted_grid5checkpoint.pt (torch, 59607 bytes, 36 tensors)

func_approx.network.0.weight f4 [30, 2]
-0.54763967 0.61772496 -0.7773169 0.45482028 0.60600966 -0.6558509 0.9059108 -0.6472314
-0.2862077 0.44283918 -0.122184075 0.88162345 -0.34137642 -0.1253185 -0.7291875 -0.3786164
0.6899757 0.7511626 0.016936501 0.11687293 -0.63096094 0.710911 -0.2507423 -0.38597512
-0.6140545 0.6596086 0.3778276 0.53754854 0.43213868 -0.56200737 0.30892748 0.23887818
0.3037677 -0.18122905 -0.26309747 0.78291273 0.32438785 -0.37470025 0.09854116 -0.25141665
-0.10973634 0.38857982 -0.80676115 0.72098845 0.69985956 -0.021168333 -0.4603385 0.22093627
-0.48312962 0.51193935 -0.42520127 0.18674491 -0.9129549 0.3989877 1.1496638 0.9541435
-0.01665414 0.443739 0.3193938 0.6803898
00000000: 1d32 0cbf 3923 1e3f 3efe 46bf 34de e83e
00000010: 7323 1b3f d8e5 27bf c5e9 673f f5b0 25bf
00000020: d189 92be d1bb e23e a53b fabd 13b2 613f
00000030: e4c8 aebe 7e53 00be 08ac 3abf 02da c1be
00000040: 3fa2 303f 314c 403f 6bbe 8a3c 135b ef3d
00000050: a886 21bf 43fe 353f 4b61 80be 889e c5be
00000060: ad32 1dbf 1cdc 283f 9f72 c13e c89c 093f
00000070: 4841 dd3e b7df 0fbf be2b 9e3e 7b9c 743e
00000080: 7187 9b3e 1c94 39be b6b4 86be f86c 483f
00000090: 2a16 a63e b6d8 bfbe f3cf c93d afb9 80be
000000a0: 72bd e0bd eff3 c63e e687 4ebf b392 383f
000000b0: ff29 333f 3669 adbc 7db1 ebbe 1e3d 623e
000000c0: c45c f7be 750e 033f fbb3 d9be 0f3a 3f3e
000000d0: 6ab7 69bf 1e48 cc3e 2f28 933f c042 743f
000000e0: 436e 88bc c231 e33e 9687 a33e 072e 2e3f

func_approx.network.0.bias f4 [30]
0.35556713 -0.52364945 0.115255006 -0.07004575 -0.29918316 0.5051684 -0.099252656 0.05090586
0.35656512 0.45635965 0.31307298 -0.15737717 -0.57993996 -0.53686064 0.27706453 -0.07942529
-0.3577354 0.34230927 0.5333451 0.38095206 -0.09221177 0.061465297 -0.35298657 0.2398414
-0.5290831 0.4911465 -0.27436686 0.114671774 -0.5868549 -0.074026264
00000000: e50c b63e e40d 06bf d10a ec3d 2574 8fbd
00000010: 892e 99be b752 013f fa44 cbbd aa82 503d
00000020: b48f b63e f9a7 e93e 1a4b a03e 7b27 21be
00000030: f276 14bf b36f 09bf 67db 8d3e baa9 a2bd
00000040: 1829 b7be 2943 af3e 4e89 083f 260c c33e
00000050: 86d9 bcbd 09c3 7b3d a8ba b4be fc98 753e
00000060: fd71 07bf 8e77 fb3e d079 8cbe 09d9 ea3d
00000070: 1f3c 16bf 159b 97bd

func_approx.network.2.weight f4 [30, 30]
-0.10984547 -0.1107047 0.2670931 0.22581011 -0.29124033 -0.081964135 0.116718076 0.2642613
-0.13743974 0.047478758 -0.099945225 0.018446391 -0.021523604 -0.22570235 0.2793327 0.119000435
0.03911926 -0.010729847 0.21690215 0.06133404 -0.035257522 -0.057586133 0.09494606 -0.06573646
-0.21106106 0.05949251 -0.17931396 -0.09395779 -0.13905345 -0.028285773 0.07415276 0.21651217
-0.1737065 -0.2564332 0.24583417 -0.085211486 -0.090948194 0.0963305 -0.059815023 -0.099996805
0.010452539 -0.021651484 0.06502837 -0.086432934 -0.19525197 0.090212695 -0.020291029 -0.060360212
-0.2245738 -0.120141804 0.1766754 0.09873547 -0.07970522 0.30011544 0.18051451 0.12205323
0.2881636 -0.035617426 0.111253664 0.18940479 -0.097817354 0.048027966 -0.08617037 -0.12278035
0.16501915 0.16055271 -0.101502515 0.015668431 0.092292584 0.054730136 0.076639466 0.13727492
0.19959813 -0.08504633 -0.12993887 0.13053323 -0.11422223 0.043061487 -0.12697476 -0.008859068
0.13880175 0.05382303 0.15981826 -0.0006054297 0.15103441 0.055169165 -0.018773325 -0.016528828
0.2208303 0.030445127 0.12340179 0.07855962 0.0005626594 -0.114378564 -0.018993607 -0.01872226
-0.03944197 -0.17531982 0.22874366 -0.11353856 -0.048958894 -0.013567228 -0.021448286 0.12609142
-0.056828957 -0.08773459 0.12553115 0.10250975 0.17868412 -0.044334542 -0.08607544 -0.089184836
0.04538066 0.028427776 -0.14122365 -0.016738398 -0.07329903 0.37402242 -0.11957635 0.2651693
-0.19507775 -0.07851015 0.007942809 0.18914767 -0.3593658 0.014509851 0.018720005 0.38711438
-0.11464639 -0.18077524 -0.032523904 0.13797244 -0.26289898 -0.20563857 0.4869515 -0.09222643
0.07681377 -0.121708825 0.095533065 -0.010129428 -0.09362066 0.08232482 0.068068594 -0.1636186
-0.24005006 -0.16439022 0.19033074 -0.6011442 -0.33553398 -0.27894315 0.017478801 -0.16840555
-0.13006034 0.028052473 -0.095800154 0.112181425 0.07742155 -0.11297759 -0.21024597 0.09191679
-0.05208106 -0.026082 0.0015465413 -0.043837905 0.13390194 -0.0041466807 9.63486e-05 -0.16404293
0.0809023 -0.12567483 -0.06899743 -5.9973325e-05 -0.0006374802 0.0024367876 -0.15688336 -0.02988974
0.01670881 0.0077319406 -0.19048327 -0.044177275 0.14215665 -0.13746338 -0.035920132 -0.048764825
0.243239 0.0047200015 -0.065879956 -0.17348675 0.030776588 0.10538465 -0.13787232 0.052114293
0.21916728 0.18067122 0.042732272 0.04324965 -0.039471895 0.05996216 -0.12457614 -0.046873752
0.02455633 0.016142288 -0.21203047 -0.040522788 0.04686323 0.04861208 -0.15265171 0.15820816
0.16612563 0.2721866 0.2566973 -0.028531259 -0.23877533 -0.32326856 0.17677821 0.13730294
0.075304136 0.15696624 0.0908767 -0.11404404 0.26856798 0.120385684 0.12247749 -0.106263295
-0.28293884 0.03149866 0.07001805 0.2937342 0.02940121 0.008897701 0.16019617 0.32612047
-0.12451627 0.103060834 0.016222328 -0.0082657635 0.25321293 0.09885005 0.0424855 0.043881077
-0.1429726 0.20267774 0.06290349 -0.039870102 -0.12926723 -0.3147078 0.2950818 0.13860045
-0.026846552 0.041183304 -0.08189703 0.023335489 -0.08166157 0.073924534 0.0793366 -0.19726151
00000000: a9f6 e0bd 25b9 e2bd 6dc0 883e c43a 673e
00000010: 741d 95be d0dc a7bd e309 ef3d 424d 873e
00000020: 01bd 0cbe 1679 423d 15b0 ccbd e31c 973c
00000030: 4552 b0bc 841e 67be b204 8f3e 80b6 f33d
00000040: 843b 203d 3dcc 2fbc 991b 5e3e 6739 7b3d
00000050: 316a 10bd 70df 6bbd 1473 c23d d6a0 86bd
00000060: 6420 58be 6bae 733d 149e 37be f16c c0bd
00000070: 0764 0ebe 91b7 e7bc 67dd 973d 5eb5 5d3e
00000080: 1ee0 31be 364b 83be f4bb 7b3e 5c83 aebd
00000090: 0c43 babd ed48 c53d 9900 75bd 20cb ccbd
000000a0: 2041 2b3c 745e b1bc 982d 853d c003 b1bd
000000b0: 22f0 47be 6fc1 b83d 5f39 a6bc 453c 77bd
000000c0: adf6 65be e80c f6bd 65ea 343e d235 ca3d
000000d0: 7e3c a3bd bba8 993e ccd8 383e 0bf7 f93d
000000e0: 2e8a 933e 94e3 11bd f6d8 e33d 54f3 413e
000000f0: 7754 c8bd f9b8 443d 177a b0bd 4474 fbbd
00000100: c8fa 283e ee67 243e 8de0 cfbd 155b 803c
00000110: e503 bd3d b52c 603d 27f5 9c3d cc91 0c3e
00000120: 7463 4c3e c52c aebd b20e 05be 81aa 053e
00000130: 58ed e9bd 3e61 303d ac05 02be a025 11bc
00000140: 0c22 0e3e 8a75 5c3d 66a7 233e b3b5 1eba
00000150: c4a8 1a3e 10f9 613d 84ca 99bc 7767 87bc
00000160: 5721 623e 0f68 f93c 14ba fc3d dee3 a03d
00000170: 6f7f 133a 4f3f eabd 7b98 9bbc 6d5f 99bc
00000180: e78d 21bd 0a87 33be c73b 6a3e e886 e8bd
00000190: 1f89 48bd 1449 5ebc 51b4 afbc 1c1e 013e
000001a0: 7bc5 68bd 31ae b3bd 3d8b 003e a2f0 d13d
000001b0: f8f8 363e 2398 35bd 5248 b0bd 8aa6 b6bd
000001c0: 12e1 393d 5ee1 e83c ef9c 10be f71e 89bc
000001d0: cd1d 96bd de7f bf3e 72e4 f4bd 45c4 873e
000001e0: 76c2 47be eec9 a0bd 8e22 023c edaf 413e
000001f0: cbfe b7be baba 6d3c b25a 993c db33 c63e
00000200: bacb eabd 251d 39be c937 05bd a648 0d3e
00000210: b29a 86be eb92 52be b551 f93e 36e1 bcbd
00000220: 8a50 9d3d 7a42 f9bd d7a6 c33d e6f5 25bc
00000230: 30bc bfbd ea99 a83d 8c67 8b3d a28b 27be
00000240: afcf 75be e955 28be 10e6 423e 96e4 19bf
00000250: 1ccb abbe a3d1 8ebe b42f 8f3c 8172 2cbe
00000260: 8a2e 05be 4dce e53c df32 c4bd 60bf e53d
00000270: 318f 9e3d cb60 e7bd b84a 57be df3e bc3d
00000280: f352 55bd eba9 d5bc 51b5 ca3a 608f 33bd
00000290: 971d 093e e1e0 87bb c30e ca38 dffa 27be
000002a0: 1bb0 a53d e7b0 00be 864e 8dbd de8b 7bb8
000002b0: 921c 27ba 83b2 1f3b 08a6 20be 54db f4bc
000002c0: eae0 883c 385c fd3b 0c0e 43be 3bf3 34bd
000002d0: 8391 113e 33c3 0cbe fd20 13bd a0bd 47bd
000002e0: a513 793e 3eaa 9a3b 12ec 86bd 83a6 31be
000002f0: 2f1f fc3c e8d3 d73d 672e 0dbe cc75 553d
00000300: 636d 603e e001 393e 0908 2f3d 8c26 313d
00000310: 48ad 21bd e29a 753d c621 ffbd b1fe 3fbd
00000320: 5b2a c93c d53c 843c 841e 59be 39fb 25bd
00000330: a9f3 3f3d 761d 473d bb50 1cbe 5201 223e
00000340: d61c 2a3e 0b5c 8b3e d46d 833e 63ba e9bc
00000350: 8581 74be 7583 a5be 5905 353e 2499 0c3e
00000360: 0e39 9a3d c2bb 203e 901d ba3d ec8f e9bd
00000370: be81 893e c58c f63d 7ad5 fa3d 92a0 d9bd
00000380: 5cdd 90be bd04 013d a065 8f3d 5464 963e
00000390: ceda f03c aac7 113c 770a 243e 43f9 a63e
000003a0: 6302 ffbd 8f11 d33d b0e4 843c 206d 07bc
000003b0: 20a5 813e e571 ca3d 4705 2e3d a5bc 333d
000003c0: 6967 12be c18a 4f3e 8cd3 803d d54e 23bd
000003d0: a15e 04be 6121 a1be f614 973e 47ed 0d3e
000003e0: 4ded dbbc d3af 283d a1b9 a7bd 112a bf3c
000003f0: 2e3e a7bd bf65 973d 3a7b a23d ecfe 49be

func_approx.network.2.bias f4 [30]
-0.030670684 0.082969494 0.14308973 0.02817142 0.02568277 0.14056216 -0.07981352 -0.0790382
-0.060201198 -0.024215862 0.015226735 0.080542624 -0.069566496 0.034378234 0.1469648 -0.090378016
-0.10261836 -0.13430269 0.103161834 -0.18171692 -0.08191325 0.11975809 -0.11474067 0.15154085
-0.08396052 0.039656885 0.014801568 -0.014257254 0.073432766 0.13012275
00000000: 1641 fbbc e9eb a93d 1d86 123e c0c7 e63c
00000010: ac64 d23c 87ef 0f3e 4575 a3bd c8de a1bd
00000020: 8895 76bd 5860 c6bc 8e79 793c 88f3 a43d
00000030: e178 8ebd 31d0 0c3d f17d 163e 1c18 b9bd
00000040: 9329 d2bd a586 09be 8346 d33d 0014 3abe
00000050: 22c2 a7bd bb43 f53d 28fd eabd 862d 1b3e
00000060: 7ef3 abbd 426f 223d 4782 723c 4297 69bc
00000070: eb63 963d e63e 053e

func_approx.network.4.weight f4 [30, 30]
-0.2056295 0.07858195 0.081191696 0.071334556 -0.18803331 0.058515623 0.12587598 -0.12204688
-0.23092633 -0.18004438 0.09012773 -0.12092099 -0.053899694 0.1137244 -0.107988216 -0.19223943
-0.042154543 -0.1499392 -0.077074274 0.13744466 0.014144553 -0.19342418 0.17576952 0.120353535
-0.07440363 0.09187806 0.04492937 -0.19502072 0.006037285 -0.11215013 0.19393681 -0.15833762
0.051095337 -0.18954484 0.37575313 -0.002679289 -0.16315018 -0.016892405 0.15657578 0.019230152
-0.109296076 -0.045469385 -0.15973066 0.29899752 -0.23457806 0.17900184 -0.02351378 0.15882942
-0.18886565 -0.02154568 0.32093892 -0.13113637 0.15838195 -0.20682979 0.014940971 -0.18662865
-0.10906191 -0.083598144 -0.18057884 0.046869762 -0.13557349 0.13438278 0.15689844 0.06375995
0.1902321 0.11027277 -0.048427783 0.040293314 0.13222393 0.18334317 0.028055234 0.18711416
-0.12857462 0.16892827 0.03555629 -0.15377055 -0.18438116 0.07615995 0.19094872 0.0051889243
-0.06182002 0.09337696 0.12768616 -0.0004998976 0.19037788 0.059642993 0.057136014 0.079349615
-0.11790115 -0.079401456 0.09566836 0.038607154 -0.057998586 0.0026997223 0.0925325 -0.13932621
0.06705207 -0.105650105 -0.062505655 -0.018860597 -0.13749072 -0.016366122 -0.1725168 0.18126081
-0.028322237 0.08729798 0.23628467 0.0354563 -0.045398284 -0.24483298 0.046500467 0.0007882705
-0.041514374 0.067688495 -0.14358366 0.08374016 0.046589356 0.014266847 -0.14604323 0.002738941
-0.12536325 0.0015393816 -0.04739167 0.25247794 -0.16940922 -0.08192527 -0.027253736 -0.140389
0.10947735 -0.12753105 0.032360356 0.048601817 0.09544289 -0.07975865 0.18973592 -0.08638475
-0.15914974 0.0011210504 -0.14082633 -0.10367491 -0.015794009 0.15727873 -0.042564493 -0.0038160621
-0.16169725 0.103669636 0.01865008 -0.027785791 0.13315932 -0.13409255 0.048898373 -0.34747705
0.11468284 0.082106076 0.21296977 0.16557395 0.067799754 -0.17249124 -0.17318776 -0.21295144
-0.3890952 0.15370305 0.069622174 0.26875523 -0.32055295 0.12414388 -0.06736789 -0.0049433988
0.08168506 -0.049516495 0.10586046 0.07489115 -0.46464747 0.102918126 0.21138036 -0.007182552
0.16414621 -0.17701885 0.1683752 -0.2004929 -0.19101356 -0.015531378 0.16370052 0.19756858
-0.066761285 -0.049071442 0.13560623 -0.013107076 -0.1422957 0.15931341 0.20498009 -0.19637018
0.21372406 -0.16524254 0.16696386 -0.24956615 -0.02440971 -0.17173505 -0.097172566 -0.11207628
-0.13224931 -0.08626989 -0.115406 0.18040177 0.08002203 -0.13793162 -0.008635003 -0.033891976
-0.00088514277 0.037347198 -0.08288464 0.2290227 -0.11840905 -0.020366747 0.059820782 -0.097235985
0.06990636 0.1776207 -0.18531537 0.044521347 0.22966005 -0.050456848 0.027424583 -0.10824891
0.13126302 -0.077219225 0.02382705 0.0013688621 -0.036047976 -0.16762698 -0.07345727 -0.0438031
0.058344897 0.12843493 0.022327537 -0.06915914 -0.11102604 -0.07559322 -0.021352937 -0.048810452
-0.14541438 0.18008825 0.17504494 0.0583998 0.05095923 0.006496649 0.12799445 0.19644596
-0.06018137 -0.012879318 0.18904236 -0.15883803 0.06825901 -0.16000405 -0.13534203 0.022868466
00000000: 8a90 52be 93ef a03d d547 a63d da17 923d
00000010: ce8b 40be 14ae 6f3d a2e5 003e b7f3 f9bd
00000020: f477 6cbe 8e5d 38be e394 b83d 6da5 f7bd
00000030: edc5 5cbd 57e8 e83d ed28 ddbd 6ada 44be
00000040: 3eaa 2cbd a989 19be 1ed9 9dbd 4bbe 0c3e
00000050: 8ebe 673c fd10 46be edfc 333e ea7b f63d
00000060: ee60 98bd 902a bc3d dc07 383d 83b3 47be
00000070: 6bd4 c53b f8ae e5bd 5f97 463e 4223 22be
00000080: 5849 513d 0b18 42be b762 c03e 0397 2fbb
00000090: d710 27be f161 8abc 6755 203e 8d88 9d3c
000000a0: 9fd6 dfbd 1b3e 3abd 6f90 23be 3416 993e
000000b0: 3b35 70be 424c 373e f99f c0bc 2ea4 223e
000000c0: ff65 41be 9180 b0bc 1b52 a43e 9d48 06be
000000d0: e12e 223e 30cb 53be f9ca 743c 951b 3fbe
000000e0: da5b dfbd 8135 abbd a9e9 38be 82fa 3f3d
000000f0: c7d3 0abe a49b 093e fca9 203e 9494 823d
00000100: 34cc 423e b1d6 e13d 365c 46bd 9a0a 253d
00000110: b665 073e 50be 3b3e 17d4 e53c db9a 3f3e
00000120: 11a9 03be 88fb 2c3e 79a3 113d 0776 1dbe
00000130: 6ace 3cbe bff9 9b3d 1088 433e da07 aa3b
00000140: fd36 7dbd 6b3c bf3d 29c0 023e 8f0b 03ba
00000150: 6bf2 423e 364c 743d 7407 6a3d 0d82 a23d
00000160: 2876 f1bd 3b9d a2bd c6ed c33d 8922 1e3d
00000170: ed8f 6dbd d3ed 303b ae81 bd3d 88ab 0ebe
00000180: 9852 893d 155f d8bd f702 80bd 8a81 9abc
00000190: 5eca 0cbe 3f12 86bc 3ea8 30be 6f9c 393e
000001a0: 0904 e8bc 49c9 b23d 9cf4 713e a03a 113d
000001b0: 8df3 39bd 7fb5 7abe 4677 3e3d f0a3 4e3a
000001c0: fa0a 2abd 44a0 8a3d 9807 13be f67f ab3d
000001d0: 7bd4 3e3d 7ebf 693c 5b8c 15be ce7f 333b
000001e0: 395f 00be 13c5 c93a c51d 42bd ca44 813e
000001f0: 9c79 2dbe 70c8 a7bd 3a43 dfbc 22c2 0fbe
00000200: a935 e03d 8097 02be 4b8c 043d b312 473d
00000210: 9077 c33d 8158 a3bd 224a 423e 7dea b0bd
00000220: 26f8 22be 36f0 923a c734 10be 8353 d4bd
00000230: 7062 81bc ad0d 213e 1b58 2ebd e616 7abb
00000240: f793 25be bf50 d43d 0dc8 983c 079f e3bc
00000250: eb5a 083e 8f4f 09be a949 483d 83e8 b1be
00000260: d6de ea3d 3b27 a83d bf14 5a3e 388c 293e
00000270: 99da 8a3d 8ba1 30be 2258 31be f10f 5abe
00000280: 7c37 c7be 5564 1d3e 1296 8e3d 499a 893e
00000290: 841f a4be 263f fe3d 2df8 89bd 3cfc a1bb
000002a0: 7f4a a73d cfd1 4abd 5ecd d83d 8860 993d
000002b0: 46e6 edbe bdc6 d23d 1874 583e 9d5b ebbb
000002c0: f215 283e 6e44 35be 8c6a 2c3e 034e 4dbe
000002d0: 0f99 43be 5277 7ebc 1ca1 273e 6b4f 4a3e
000002e0: 24ba 88bd 23ff 48bd 5cdc 0a3e 10bf 56bc
000002f0: f7b5 11be 0e23 233e 4de6 513e 4415 49be
00000300: 7bda 5a3e 5735 29be 93f8 2a3e 458e 7fbe
00000310: dff6 c7bc 50db 2fbe 6902 c7bd 4088 e5bd
00000320: 5d6c 07be 45ae b0bd fb59 ecbd 3ebb 383e
00000330: 97e2 a33d f23d 0dbe d479 0dbc 50d2 0abd
00000340: ed08 68ba 60f9 183d 6cbf a9bd ed84 6a3e
00000350: 7280 f2bd 2ad8 a6bc a306 753d a923 c7bd
00000360: 112b 8f3d 33e2 353e 50c3 3dbe 045c 363d
00000370: 012c 6b3e d7ab 4ebd 85a9 e03c 9bb1 ddbd
00000380: d069 063e 1d25 9ebd f230 c33c 646b b33a
00000390: 0ba7 13bd 68a6 2bbe c470 96bd e16a 33bd
000003a0: 0ffb 6e3d 7284 033e 3de8 b63c 4fa3 8dbd
000003b0: 9f61 e3bd 9ed0 9abd 5bec aebc 78ed 47bd
000003c0: 82e7 14be 0e69 383e fb3e 333e a134 6f3d
000003d0: a0ba 503d d7e1 d43b fa10 033e 2129 493e
000003e0: bd80 76bd c603 53bc 5294 413e 70a6 22be
000003f0: 61cb 8b3d 1ad8 23be 1a97 0abe a656 bb3c

func_approx.network.4.bias f4 [30]
0.06357813 -0.0358326 -0.14918728 0.0073316367 0.18135358 -0.15048899 -0.11880685 0.11222444
0.17836869 -0.16874039 -0.0951148 -0.056914 0.17529713 -0.108905256 0.0182349 0.14650361
-0.058226738 -0.06411734 -0.09297291 0.020012764 0.14125226 0.045510724 0.11555382 -0.02270215
-0.021424565 -0.018830152 0.12254305 -0.021552103 -0.13504562 -0.064669594
00000000: 4035 823d 34c5 12bd 8dc4 18be 3a3e f03b
00000010: c1b4 393e c919 1abe 0151 f3bd edd5 e53d
00000020: 48a6 363e 48ca 2cbe 8ccb c2bd a81e 69bd
00000030: 1781 333e b809 dfbd 5b61 953c 0b05 163e
00000040: 297f 6ebd f44f 83bd 9568 bebd cff1 a33c
00000050: 6fa4 103e 7469 3a3d 7ba7 ec3d dcf9 b9bc
00000060: 9282 afbc b141 9abc daf7 fa3d 098e b0bc
00000070: 6649 0abe 7e71 84bd

func_approx.network.6.weight f4 [30, 30]
0.15204841 0.25633517 0.09245736 -0.22564092 -0.20928733 -0.16757627 0.06275909 0.22201568
0.322853 0.06550304 0.1184961 0.14621356 0.36215556 0.13170022 -0.29117584 0.22219068
-0.2610801 -0.04679756 0.043540265 0.19958739 -0.11486747 -0.07985629 -0.14107785 0.047599334
0.14965312 0.09636273 0.08862216 -0.19506134 0.28034678 -0.12533776 -0.16939585 -0.21420214
0.07793027 -0.07857672 0.1497717 0.0058298768 -0.101108275 -0.08808312 -0.1456383 0.05718538
-0.029965734 0.023097986 -0.16156471 -0.14825566 0.025890851 -0.18938686 0.10661863 -0.006059159
0.0057990556 -0.14149614 -0.19765387 -0.09471864 -0.11951266 -0.12604418 -0.17888957 -0.19962645
-0.2312731 0.121364966 0.04143704 0.025107536 -0.32170793 0.26610833 0.07228152 0.14806727
-0.1125813 0.20357752 -0.25368756 0.0033914219 0.11706537 0.1759522 -0.38423616 -0.15539075
0.07533559 0.13916422 -0.059750695 0.028909022 0.03672262 -0.0121411625 -0.010866343 -0.13171735
-0.2014825 0.1502911 0.25246277 0.006911705 0.14886178 0.11550486 -0.14841029 -0.049847662
-0.17680894 0.20955938 0.043370627 -0.116384394 0.09826063 -0.0703751 -0.0569971 -0.19759089
-0.051164497 0.16899316 -0.10034464 -0.096195005 0.17340578 -0.09345601 -0.2203365 0.13340406
0.017006788 -0.16052489 -0.059625555 -0.021921195 0.064194925 0.04804997 -0.122759506 0.15211342
-0.2134403 0.11157654 -0.021966232 -0.13057175 0.115911506 -0.13134725 0.05510763 0.023626897
0.11926096 -0.14097552 0.022803852 0.16447471 -0.17842509 0.036027536 -0.10631434 0.046743955
-0.14939123 0.050350063 -0.021553388 0.15395227 0.03649632 -0.057965524 -0.034775186 -0.10649732
-0.05674144 -0.029079119 -0.17301442 0.1632273 -0.11676327 -0.060894247 -0.055602636 -0.14935516
-0.029882617 -0.05468476 -0.09950816 -0.02746563 0.12141308 0.034219243 0.1413024 0.07926499
0.017444529 0.15267326 -0.17966253 -0.07387163 0.02670885 0.10820291 -0.15486947 0.12629184
-0.14380005 -0.061802946 -0.01103012 -0.1050209 -0.27706766 0.10239222 0.0134095345 0.07984872
-0.0083510075 -0.15545616 -0.19689162 -0.14800811 0.10766345 -0.14544484 -0.22596231 0.123111606
-0.00879679 -0.14219426 0.1473209 0.0050928923 -0.09351198 0.022118472 -0.20869821 0.121226385
0.09255761 -0.020938616 -0.042868238 -0.05541625 0.009270144 -0.2873257 0.21124026 -0.017436175
-0.01160668 0.30700392 0.5498624 0.009560586 0.041502025 0.39171743 0.18311098 0.17348589
0.3730338 0.22744247 0.016837116 0.012513485 0.32405326 -0.085407294 -0.103347465 0.121229544
-0.17474224 -0.20712674 0.15207657 0.09170488 0.10193378 -0.16132371 -0.12732968 0.050584327
-0.017151441 0.1426809 -0.012736827 0.18186975 -0.08913933 0.07784523 -0.012163044 0.019942684
-0.29783162 -0.09689521 -0.10654804 0.07826113 0.008686602 0.042919006 -0.033350196 0.1539102
0.17879139 0.052935496 0.111829266 0.06158176 -0.0075840983 -0.018177483 0.12506983 0.028385594
-0.2728446 0.20139907 -0.030739555 -0.04147625 0.062789604 0.07970935 -0.1810116 -0.151426
0.13797694 0.20476168 -0.3551938 -0.09779995 0.08396743 0.12537862 -0.20151204 0.015381732
00000000: 94b2 1b3e 5d3e 833e 495a bd3d 6a0e 67be
00000010: 6b4f 56be 1d99 2bbe d687 803d 1458 633e
00000020: fd4c a53e 7526 863d 15ae f23d 02b9 153e
00000030: 746c b93e 6cdc 063e 0015 95be f485 633e
00000040: 4aac 85be ccae 3fbd 4757 323d a360 4c3e
00000050: a33f ebbd b28b a3bd b676 10be 85f7 423d
00000060: ab3e 193e d359 c53d 897f b53d 29be 47be
00000070: 9d89 8f3e 8b58 00be 1b76 2dbe ce57 5bbe
00000080: e899 9f3d d5ec a0bd c15d 193e 8d08 bf3b
00000090: db11 cfbd ec64 b4bd 3522 15be 383b 6a3d
000000a0: b37a f5bc fd37 bd3c 3871 25be 55d0 17be
000000b0: 0d19 d43c a1ee 41be de5a da3d e98b c6bb
000000c0: 0106 be3b 5de4 10be c765 4abe d9fb c1bd
000000d0: 0ec3 f4bd ba11 01be d42e 37be e06a 4cbe
000000e0: dbd2 6cbe 328e f83d e3b9 293d 52ae cd3c
000000f0: e7b6 a4be 5a3f 883e 5508 943d f29e 173e
00000100: 0691 e6bd a076 503e 56e3 81be 9e42 5e3b
00000110: f8bf ef3d d02c 343e 9aba c4be c11e 1fbe
00000120: 8c49 9a3d 1181 0e3e 25bd 74bd 9dd2 ec3c
00000130: 756a 163d baeb 46bc bf08 32bc eae0 06be
00000140: 6e51 4ebe e9e5 193e cd42 813e 957b e23b
00000150: 396f 183e d08d ec3d def8 17be 102d 4cbd
00000160: 670d 35be bc96 563e 66a5 313d f15a eebd
00000170: df3c c93d d220 90bd cb75 69bd 4455 4abe
00000180: dd91 51bd 8b0c 2d3e 7e81 cdbd e301 c5bd
00000190: 4991 313e dd65 bfbd e49f 61be 139b 083e
000001a0: d251 8b3c a360 24be ed39 74bd 1494 b3bc
000001b0: a178 833d 0cd0 443d 5669 fbbd 9fc3 1b3e
000001c0: 1890 5abe 3e82 e43d 87f2 b3bc 9ab4 05be
000001d0: 0363 ed3d e57f 06be 8ab8 613d 328d c13c
000001e0: 173f f43d e35b 10be 25cf ba3c 0f6c 283e
000001f0: 11b5 36be 9c91 133d 55bb d9bd 9776 3f3d
00000200: 04fa 18be de3b 4e3d bb90 b0bc aaa5 1d3e
00000210: 2a7d 153d 426d 6dbd 6d70 0ebd 441b dabd
00000220: b669 68bd 5537 eebc b12a 31be 0f25 273e
00000230: 9521 efbd 3f6c 79bd 97bf 63bd 8ff0 18be
00000240: 64cc f4bc 20fd 5fbd efca cbbd 9aff e0bc
00000250: 6ca7 f83d 7a29 0c3d 94b1 103e af55 a23d
00000260: d4e7 8e3c 6156 1c3e 74f9 37be 024a 97bd
00000270: 85cc da3c 7d99 dd3d 1a96 1ebe a652 013e
00000280: 5240 13be 1625 7dbd adb7 34bc 3315 d7bd
00000290: d0db 8dbe 03b3 d13d aab3 5b3c ba87 a33d
000002a0: aad2 08bc e62f 1fbe f59d 49be 708f 17be
000002b0: a87e dc3d 7eef 14be aa62 67be f021 fc3d
000002c0: 6920 10bc 5f9b 11be 4adb 163e 47e2 a63b
000002d0: 3583 bfbd cc31 b53c fcb4 55be 8a45 f83d
000002e0: d88e bd3d 7687 abbc 9b96 2fbd 26fc 62bd
000002f0: cde1 173c 5b1c 93be 5e4f 583e 4fd6 8ebc
00000300: f229 3ebc 9e2f 9d3e c8c3 0c3f 01a4 1c3c
00000310: 07fe 293d 308f c83e 7281 3b3e 49a6 313e
00000320: 49fe be3e aee6 683e feed 893c 5c05 4d3c
00000330: 4fea a53e 05ea aebd d6a7 d3bd 3247 f83d
00000340: a1ef 32be 0819 54be f6b9 1b3e c5cf bb3d
00000350: a8c2 d03d 0b32 25be b662 02be 8331 4f3d
00000360: 2e81 8cbc f11a 123e 20ae 50bc 103c 3a3e
00000370: ae8e b6bd 526d 9f3d 8147 47bc d75e a33c
00000380: 637d 98be ff70 c6bd dc35 dabd 5f47 a03d
00000390: 4052 0e3c d7cb 2f3d 379a 08bd a39a 1d3e
000003a0: 1715 373e e4d2 583d be06 e53d 283d 7c3d
000003b0: 0784 f8bb f2e8 94bc 4e12 003e e888 e83c
000003c0: 4ab2 8bbe 8f3b 4e3e 85d1 fbbc 00e3 29bd
000003d0: d697 803d a83e a33d 1b5b 39be 6b0f 1bbe
000003e0: d449 0d3e 0cad 513e f6db b5be 574b c8bd
000003f0: 1ef7 ab3d 4163 003e 2c59 4ebe a903 7c3c

func_approx.network.6.bias f4 [30]
0.11194038 -0.09325448 0.06206249 0.11581044 -0.02952689 0.09985067 0.08295777 -0.07293872
-0.004240561 0.06934991 0.087360844 -0.100035384 0.12771288 -0.07101994 -0.1592895 -0.07085573
-0.10773928 0.06725973 0.009260205 -0.008688027 -0.11672524 0.112014696 0.0108995885 -0.03489094
0.042304914 0.058723167 -0.11418813 -0.050851073 -0.08647924 0.15175788
00000000: ff40 e53d 34fc bebd 3d35 7e3d 062e ed3d
00000010: 60e2 f1bc 827e cc3d c3e5 a93d e560 95bd
00000020: 67f4 8abb 5307 8e3d 3eea b23d 5adf ccbd
00000030: 2ac7 023e e772 91bd c91c 23be cf1c 91bd
00000040: 69a6 dcbd 78bf 893d 1db8 173c 3a58 0ebc
00000050: a50d efbd f667 e53d 3094 323c cde9 0ebd
00000060: eb47 2d3d b487 703d 77db e9bd 3749 50bd
00000070: 071c b1bd 6b66 1b3e

func_approx.network.8.weight f4 [1, 30]
0.25640404 -0.16427962 0.24212316 -0.03110425 0.0033008435 0.12937537 -0.19770063 0.20214552
0.18998688 0.15075816 -0.08971818 0.09622269 -0.19396897 -0.057629757 0.08632277 -0.27708426
-0.005084865 -0.1238363 0.10509276 -0.051596053 0.07461439 -0.12250632 0.19196925 -0.13974088
-0.10047461 -0.10838021 0.23865424 0.16946456 0.083281174 0.07728008
00000000: 6447 833e eb38 28be 22ef 773e 57ce febc
00000010: f752 583b fa7a 043e 0972 4abe 3cff 4e3e
00000020: ec8b 423e 5960 1a3e 2abe b7bd 6710 c53d
00000030: cd9f 46be 2e0d 6cbd fec9 b03d fddd 8dbe
00000040: f09e a6bb e39d fdbd df3a d73d 6256 53bd
00000050: 6ecf 983d 98e4 fabd 9693 443e 3c18 0fbe
00000060: a2c5 cdbd 72f6 ddbd c761 743e 1e88 2d3e
00000070: 528f aa3d 0545 9e3d

exp_avg f4 [30, 2]
-1.1146969e-06 1.5334402e-07 2.8662023e-06 -4.0432562e-07 -6.496195e-06 9.620421e-08 -7.526488e-06 -2.8244e-06
3.9154766e-06 1.4534612e-06 -3.1714408e-06 5.7240584e-07 2.5134254e-06 7.589929e-07 2.003676e-06 -3.1627917e-06
-2.450533e-08 -4.6786495e-06 -5.3870684e-07 2.7216515e-06 2.7294673e-06 8.5467343e-07 2.4616866e-06 3.3553425e-07
5.6290464e-06 1.3201274e-06 -8.403692e-06 -2.958794e-06 -5.9165554e-06 -2.0031944e-06 -2.6365265e-06 -3.5333348e-06
-9.023076e-07 -1.3531368e-06 -2.0515254e-06 2.3576724e-06 -3.343148e-06 3.2829016e-07 7.922602e-07 2.886632e-06
-4.0697495e-07 8.100807e-07 5.1475727e-06 1.9241165e-06 -8.834247e-06 2.7809574e-06 4.7891403e-06 1.6543588e-06
3.7862983e-06 -1.2424256e-06 4.0039318e-08 1.2600719e-06 7.396936e-06 1.0378134e-06 -1.4822807e-06 6.5255795e-06
2.448294e-07 7.916197e-07 -2.3367945e-06 -2.1353571e-06
00000000: b29c 95b5 e2a6 2434 fb58 4036 1712 d9b4
00000010: e4f9 d9b6 d398 ce33 0a8c fcb6 d38a 3db6
00000020: b061 8336 8c14 c335 f0d4 54b6 6ea7 1935
00000030: 52ac 2836 98bd 4b35 e476 0636 5940 54b6
00000040: ca7f d2b2 4bfd 9cb6 a79b 10b5 9ea5 3636
00000050: e42b 3736 b66c 6535 7433 2536 7a23 b434
00000060: 24e1 bc36 3b2f b135 95fd 0cb7 b28f 46b6
00000070: d386 c6b6 9e6e 06b6 2eef 30b6 3b1e 6db6
00000080: 1b36 72b5 6d9d b5b5 f0ac 09b6 8138 1e36
00000090: d85a 60b6 db3f b034 b5ab 5435 f6b7 4136
000000a0: 367e dab4 5274 5935 50b9 ac36 1220 0136
000000b0: cd36 14b7 7ca0 3a36 67b2 a036 560b de35
000000c0: 1c18 7e36 6bc1 a6b5 b2f7 2b33 be1f a935
000000d0: 3233 f836 ff4a 8b35 c7f2 c6b5 4df6 da36
000000e0: 1971 8334 b17f 5435 d3d1 1cb6 284d 0fb6

exp_avg_sq f4 [30, 2]
1.2524953e-12 2.4325538e-14 8.2941145e-12 2.2626855e-13 4.2295233e-11 2.7048371e-14 5.6755156e-11 8.023091e-12
1.5457483e-11 2.158371e-12 1.00583855e-11 3.4386936e-13 6.3177406e-12 5.7616233e-13 4.0488767e-12 1.0024332e-11
6.3014165e-15 2.1894554e-11 2.9100862e-13 7.4104585e-12 7.464281e-12 7.305248e-13 6.065492e-12 1.1330419e-13
3.1813753e-11 1.7992385e-12 7.094469e-11 8.986219e-12 3.5117815e-11 4.0841445e-12 6.957326e-12 1.25027115e-11
8.167364e-13 1.832239e-12 4.210957e-12 5.5754516e-12 1.1183748e-11 1.1432337e-13 6.301914e-13 8.333182e-12
1.9779039e-13 6.6926006e-13 2.6557747e-11 3.717384e-12 7.807777e-11 7.738828e-12 2.2968152e-11 2.7417246e-12
1.4365908e-11 1.549492e-12 1.985458e-14 1.5924823e-12 5.483632e-11 1.1308746e-12 2.2055402e-12 4.2786597e-11
1.0430623e-13 6.567326e-13 5.478221e-12 4.5750747e-12
00000000: e645 b02b df1a db28 5fe9 112d 78c1 7e2a
00000010: 3304 3a2e 4ca1 f328 a09c 792e ca24 0d2d
00000020: 28f7 872d c1e1 172c f1f2 302d cc94 c12a
00000030: 2649 de2c df2c 222b 0a75 8e2c 9459 302d
00000040: 4f08 e327 2796 c02d c3d2 a32a bd5d 022d
00000050: 2250 032d dc9f 4d2b 1869 d52c 6b23 ff29
00000060: 1aeb 0b2e 6638 fd2b 4f02 9c2e 5516 1e2d
00000070: 2573 1a2e b4b2 8f2c 06ca f42c 35f3 5b2d
00000080: 0fe4 652b afee 002c ee28 942c 342b c42c
00000090: 20bf 442d 78b7 002a 1362 312b 5199 122d
000000a0: 33b1 5e2a 4561 3c2b bb9a e92d 38cb 822c
000000b0: e1b1 ab2e 9524 082d ae07 ca2d 85ee 402c
000000c0: 4cba 7c2d 5512 da2b 8bd5 b228 391f e02b
000000d0: 352c 712e 0d28 9f2b 7b33 1b2c 6d2d 3c2e
000000e0: 73e0 ea29 92da 382b 6ebf c02c 9cf8 a02c

max_exp_avg_sq f4 [30, 2]
3.5882401e-06 7.0938186e-06 2.4843854e-07 2.1094188e-06 3.4615077e-06 6.951688e-06 1.2195934e-06 3.5548583e-06
1.7350394e-06 9.429418e-06 3.8435105e-06 9.640839e-06 1.7511213e-06 4.2847646e-06 3.0535008e-07 1.6666852e-06
9.697941e-07 3.3001604e-06 2.6104244e-06 1.2312024e-05 2.4984315e-06 6.3532016e-06 1.3435731e-07 3.822954e-07
2.2456938e-06 1.5170811e-05 1.527976e-06 9.498163e-06 4.389921e-07 2.8916638e-06 5.341377e-07 2.987541e-06
5.400232e-07 4.188927e-06 1.0349441e-05 2.2414702e-05 6.4032724e-07 4.1129856e-06 7.0802764e-07 2.6934317e-06
1.3854822e-06 4.0187333e-06 9.473195e-07 4.849536e-07 5.6657524e-07 1.7324697e-06 6.340216e-07 1.6498707e-06
6.438734e-06 6.261573e-05 1.75581e-06 1.1094407e-05 7.398136e-07 6.040392e-06 4.0318872e-07 1.1838839e-06
5.834831e-06 3.9076236e-05 1.7303034e-06 2.6957812e-06
00000000: 7fcd 7036 7007 ee36 2261 8534 8a8f 0d36
00000010: 404c 6836 8c42 e936 e9b0 a335 0090 6e36
00000020: 80df e835 0b33 1e37 81f7 8036 17bf 2137
00000030: 1208 eb35 d9c5 8f36 ffee a334 deb2 df35
00000040: df29 8235 5378 5d36 c02e 2f36 be8f 4e37
00000050: baaa 2736 962d d536 db43 1034 483e cd34
00000060: bab4 1636 2386 7e37 db14 cd35 4d5a 1f37
00000070: 9dae eb34 680e 4236 aa61 0f35 907d 4836
00000080: 1df6 1035 9c8e 8c36 83a2 2d37 3507 bc37
00000090: f4e2 2b35 4702 8a36 4a0f 3e35 cec0 3436
000000a0: cef4 b935 a8d8 8636 4d4b 7e35 c22d 0235
000000b0: c116 1835 3587 e835 a231 2a35 2071 dd35
000000c0: 4e0c d836 9050 8338 2ca9 eb35 1d22 3a37
000000d0: 9a97 4635 92ae ca36 d675 d834 f1e5 9e35
000000e0: d1c8 c336 cae5 2338 c63c e835 2be9 3436

exp_avg f4 [30]
-1.0344445e-06 -1.4586523e-06 5.8865777e-07 -4.615601e-06 -1.6622389e-06 -3.1782865e-06 7.004892e-07 -4.240492e-06
1.4359861e-08 -8.44532e-07 2.5275092e-06 -2.6525066e-07 -2.6421928e-06 -3.2837414e-07 -1.7154396e-07 1.7126796e-07
4.7699905e-07 -2.397213e-06 2.1288606e-06 1.8677848e-06 -6.0689626e-07 2.6109694e-06 -3.4149864e-06 8.734972e-07
-1.7716119e-06 -1.0413306e-06 -2.0071268e-06 -3.0032476e-07 -4.871226e-07 -1.1791446e-06
00000000: 3ed7 8ab5 e9c6 c3b5 4104 1e35 b6df 9ab6
00000010: 181a dfb5 8c4a 55b6 4009 3c35 8d49 8eb6
00000020: 56b3 7632 ccb3 62b5 479e 2936 c667 8eb4
00000030: 8750 31b6 664b b0b4 a531 38b4 c7e5 3734
00000040: 200b 0035 cedf 20b6 8cdd 0e36 99b0 fa35
00000050: 98e9 22b5 1d38 2f36 052d 65b6 457a 6a35
00000060: 1fc8 edb5 d9c3 8bb5 2db2 06b6 523c a1b4
00000070: cfc2 02b5 1a43 9eb5

exp_avg_sq f4 [30]
1.0712354e-12 2.1280475e-12 3.5076632e-13 2.1311076e-11 2.7645226e-12 1.0102839e-11 4.9171024e-13 1.8007918e-11
3.3732115e-15 7.135664e-13 6.390977e-12 7.224553e-14 6.98328e-12 1.3418284e-13 3.172224e-14 3.5923616e-14
2.306304e-13 5.7521357e-12 4.541016e-12 3.48912e-12 3.747032e-13 6.8204843e-12 1.1680658e-11 7.635431e-13
3.145263e-12 1.0854168e-12 4.0317576e-12 9.721822e-14 2.4023502e-13 1.3926118e-12
00000000: 53c3 962b 7fbf 152c c176 c52a 4774 bb2d
00000010: 3689 422c 24bb 312d 7567 0a2b 3a66 9e2d
00000020: c510 7327 e1d9 482b cedc e02c b6ae a229
00000030: cbb3 f52c 9213 172a 41dd 0e29 1cc9 2129
00000040: 58d5 812a a262 ca2c d6c5 9f2c 6686 752c
00000050: 6cf0 d22a 76f9 ef2c 027d 4d2d 14eb 562b
00000060: 0554 5d2c 43c2 982b d8da 8d2c 7dea da29
00000070: 843d 872a 21fe c32b

max_exp_avg_sq f4 [30]
1.0315759e-05 6.0897855e-07 7.620621e-06 4.446008e-06 4.408594e-06 1.09559405e-05 5.281827e-06 8.698719e-07
3.0219298e-06 7.4323702e-06 7.045101e-06 2.9497085e-07 5.5069945e-06 4.006847e-06 1.5242007e-06 1.6801292e-06
1.6974748e-06 2.6638738e-05 1.550818e-06 2.1849735e-06 3.5730932e-06 2.7381361e-06 1.5185035e-06 2.0466705e-06
1.7586515e-05 4.455523e-06 2.0688915e-06 1.4272475e-06 1.46766415e-05 4.7426875e-06
00000000: d911 2d37 b078 2335 a3b4 ff36 eb2e 9536
00000010: 89ed 9336 68cf 3737 8c3a b136 2481 6935
00000020: 5ccc 4a36 9363 f936 f564 ec36 7c5c 9e34
00000030: b9c8 b836 8e72 8636 2393 cc35 cd80 e135
00000040: cad4 e335 4176 df37 b325 d035 8fa1 1236
00000050: 46c9 6f36 d2c0 3736 62cf cb35 8859 0936
00000060: c186 9337 a780 9536 49d7 0a36 da8f bf35
00000070: b23b 7637 6023 9f36

exp_avg f4 [30, 30]
-6.9266383e-07 8.814107e-07 -2.3333929e-08 -3.6909486e-07 1.795857e-08 -7.884175e-07 4.394721e-07 3.6068965e-07
-1.005924e-06 -4.50969e-07 -7.263387e-07 5.147857e-07 6.4490695e-07 -1.9482526e-07 -6.799882e-08 -3.7379672e-07
2.460606e-07 -8.717483e-07 -3.8042418e-07 -8.671759e-08 -3.2504204e-07 3.2306232e-08 -2.6273167e-07 -1.2952255e-08
4.982415e-07 -2.6775749e-07 8.972185e-07 -1.9310573e-06 -1.0083086e-07 -3.4405693e-07 -1.5232357e-06 -3.1267962e-06
2.3244706e-06 3.2746984e-06 -1.3639021e-06 -1.8928768e-07 -1.0640907e-06 -1.5382396e-06 7.9091535e-07 -2.197408e-07
-1.5453768e-06 -2.8851275e-07 -2.8223108e-06 1.0925954e-06 1.9350355e-06 9.18417e-07 1.2616973e-06 -5.322144e-07
1.329967e-06 4.349098e-07 -6.5640523e-07 -2.5666614e-06 2.9179034e-06 -1.8922788e-06 -2.1622734e-06 -1.5545545e-06
-3.924836e-06 1.5035442e-06 -1.9618876e-07 5.356992e-07 -2.0097224e-07 -2.0921043e-07 4.0929638e-07 5.114398e-07
-2.495634e-07 -2.8315245e-07 1.10222985e-07 5.522433e-07 -2.0220696e-07 -3.2762935e-07 -1.01569135e-07 5.204797e-07
-5.381826e-07 -3.9624814e-07 3.6497826e-07 -2.8389957e-07 4.1761948e-07 -1.6179443e-07 6.662617e-08 6.5282364e-08
-3.163433e-07 -3.87257e-07 3.8047574e-07 -2.7119245e-07 -2.7553367e-07 -4.7623715e-07 -2.597816e-07 -7.5804984e-08
-1.5806637e-07 -2.360604e-07 -1.9720596e-06 -1.962634e-06 6.4662345e-07 7.386148e-07 -1.4888267e-06 -1.6997866e-06
2.6169766e-06 -1.2039366e-07 -3.4829477e-06 -1.9487418e-06 -9.387471e-07 1.3742334e-06 -1.0339004e-06 -4.910341e-07
1.089303e-06 -1.3097939e-06 1.7791756e-06 -1.1294178e-06 1.4371739e-06 1.0056001e-06 -1.6690731e-06 -2.9428838e-07
-1.3815753e-06 -3.0020985e-06 -1.462502e-06 -1.8518989e-06 -2.4473277e-06 -1.8150163e-06 -9.552732e-07 -1.4050946e-06
-1.9441072e-06 -8.500396e-07 1.6283344e-06 1.4710765e-06 -1.281572e-06 -1.0401575e-06 -8.149327e-07 -7.25239e-08
-9.652404e-07 3.219808e-07 -2.053341e-06 -2.1737428e-07 -1.253984e-06 8.1311316e-07 1.4664505e-06 6.3750343e-07
1.0524506e-06 -1.3403244e-06 1.1954046e-06 8.2345724e-07 -8.3238456e-07 -1.701763e-06 1.8095775e-06 -1.5689538e-06
-1.2684847e-06 -1.4738711e-06 -6.400291e-07 -2.872851e-06 -7.220529e-07 -4.3037915e-07 -4.0033922e-07 6.196645e-07
7.116432e-07 7.2381215e-07 -5.1652567e-08 2.289579e-07 1.3598527e-07 1.4394127e-06 -3.597364e-09 1.17883786e-07
-6.715211e-07 6.766217e-07 -3.849342e-07 -1.6757622e-06 4.2504658e-07 -4.6803777e-07 -4.9047014e-07 -3.050762e-07
-4.17093e-07 -3.037751e-07 -1.3388285e-07 -8.4940876e-07 -4.0782376e-07 6.745255e-07 9.8397116e-08 5.832926e-07
6.297577e-07 4.879585e-07 -1.16077736e-07 -7.705144e-07 -4.7944127e-07 8.898928e-07 -2.1712262e-07 -6.580542e-07
1.8563277e-08 -1.981085e-06 1.7238341e-07 9.4633293e-07 -6.955697e-07 -4.0764743e-07 -1.5769751e-07 7.796975e-07
3.8305214e-07 -5.788079e-07 -1.0112584e-07 -2.9328493e-07 4.7880917e-07 -1.3431628e-06 -4.3233752e-07 -9.082983e-08
-4.5768215e-07 5.0083503e-07 -4.077327e-09 -1.1245521e-08 4.588555e-07 -5.8608066e-07 1.0832301e-06 -7.563891e-07
-6.455597e-10 -1.2777649e-06 2.669112e-07 -3.829236e-06 2.0128948e-06 2.4341434e-06 -1.7529914e-06 1.926128e-06
-1.6549244e-06 -2.5888107e-06 2.751737e-06 1.9236827e-06 -1.3847136e-07 -1.6310594e-06 -3.3320082e-06 -5.93731e-07
2.0679079e-06 9.095775e-07 -6.8055505e-07 9.834993e-07 2.6191253e-06 1.5869153e-06 -4.565107e-07 -1.9412141e-06
1.0869683e-06 -3.279383e-07 -2.963386e-06 8.810262e-07 -3.833811e-06 2.2744496e-06 -1.912968e-06 1.449281e-06
-9.041782e-07 -3.7122124e-06 3.0628034e-06 3.7799643e-06 -1.9620743e-06 1.5139345e-06 -6.153751e-07 -1.5284961e-06
2.189172e-06 1.607641e-06 -1.9241736e-06 -1.1099222e-06 -3.5141668e-06 -1.7665665e-06 2.6218256e-06 2.086283e-07
00000000: 7fef 39b5 159a 6c35 da6f c8b2 0328 c6b4
00000010: 5043 9a32 a3a3 53b5 96f0 eb34 cfa4 c134
00000020: 4903 87b5 b51c f2b4 9ef9 42b5 ce2f 0a35
00000030: ab1d 2d35 2931 51b4 bf06 92b3 3bae c8b4
00000040: 501a 8434 1602 6ab5 1a3d ccb4 8039 bab3
00000050: 7081 aeb4 14c1 0a33 910d 8db4 9f84 5eb2
00000060: e5be 0535 4fc0 8fb4 63d8 7035 5097 01b6
00000070: 5a88 d8b3 d3b6 b8b4 fb71 ccb5 f3d5 51b6
00000080: 1afe 1b36 e4c2 5b36 520f b7b5 003f 4bb4
00000090: e1d1 8eb5 8375 ceb5 4a4f 5435 e4f1 6bb4
000000a0: be6a cfb5 e4e4 9ab4 ee66 3db6 4ba5 9235
000000b0: a8db 0136 2389 7635 9757 a935 7fdd 0eb5
000000c0: 5181 b235 8c7d e934 d333 30b5 e83e 2cb6
000000d0: 33d1 4336 34fa fdb5 931b 11b6 16a6 d0b5
000000e0: 16b2 83b6 63cd c935 f5a7 52b4 f8cc 0f35
000000f0: d4ca 57b4 53a3 60b4 44bd db34 e049 0935
00000100: bcfb 85b4 2d04 98b4 bab3 ec33 df3d 1435
00000110: 3a1e 59b4 09e5 afb4 391e dab3 18b7 0b35
00000120: a077 10b5 eebb d4b4 3bf2 c334 dc6a 98b4
00000130: 2f35 e034 b7b9 2db4 2014 8f33 5c31 8c33
00000140: e4d5 a9b4 32e8 cfb4 3044 cc34 6898 91b4
00000150: 0fed 93b4 89ad ffb4 1c78 8bb4 3bca a2b3
00000160: f4b8 29b4 ca77 7db4 ba57 04b6 ccb5 03b6
00000170: a093 2d35 3945 4635 b2d3 c7b5 3924 e4b5
00000180: 519f 2f36 8f45 01b4 96bc 69b6 21c7 02b6
00000190: 36fe 7bb5 4d72 b835 8cc4 8ab5 9bcf 03b5
000001a0: 2b34 9235 2dcc afb5 02cc ee35 8096 97b5
000001b0: ebe4 c035 28f8 8635 ea04 e0b5 b0fe 9db4
000001c0: 916e b9b5 a977 49b6 304b c4b5 c38e f8b5
000001d0: c53c 24b6 7c9b f3b5 f036 80b5 af96 bcb5
000001e0: 8277 02b6 472e 64b5 258d da35 ce71 c535
000001f0: 7b02 acb5 8a9b 8bb5 c0c1 5ab5 70be 9bb3
00000200: 688d 81b5 b4dc ac34 21cc 09b6 6367 69b4
00000210: 904e a8b5 b644 5a35 dbd2 c435 e720 2b35
00000220: ed41 8d35 32e5 b3b5 ca71 a035 8d0b 5d35
00000230: 0871 5fb5 2268 e4b5 9ce0 f235 d894 d2b5
00000240: cd40 aab5 d3d1 c5b5 77ce 2bb5 34cb 40b6
00000250: 19d3 41b5 dc0e e7b4 34ee d6b4 0557 2635
00000260: c007 3f35 fe4b 4235 99d8 5db3 78d7 7534
00000270: 5903 1234 d831 c135 7f35 77b1 4c27 fd33
00000280: 9442 34b5 17a1 3535 f4a8 ceb4 c0ea e0b5
00000290: f531 e434 9f46 fbb4 daa8 03b5 5bc9 a3b4
000002a0: d3ec dfb4 8816 a3b4 70c1 0fb4 ed02 64b5
000002b0: dff2 dab4 0a11 3535 634e d333 9093 1c35
000002c0: 9f0c 2935 41fc 0235 6946 f9b3 59d5 4eb5
000002d0: f4b2 00b5 f8e0 6e35 3622 69b4 24a5 30b5
000002e0: 1475 9f32 c8f2 04b6 6418 3934 8107 7e35
000002f0: 30b7 3ab5 a3da dab4 9053 29b4 674c 5135
00000300: 49a6 cd34 605f 1bb5 852a d9b3 c674 9db4
00000310: 8487 0035 b946 b4b5 041c e8b4 3a0e c3b3
00000320: 5bb7 f5b4 1f71 0635 8c18 8cb1 5332 41b2
00000330: 9f58 f634 2853 1db5 8163 9135 aa0a 4bb5
00000340: 3a73 31b0 ab7f abb5 ff4b 8f34 e37c 80b6
00000350: 4515 0736 445a 2336 5348 ebb5 a142 0136
00000360: c51e deb5 6ebb 2db6 7baa 3836 9e18 0136
00000370: b8ae 14b4 c6ea dab5 779b 5fb6 e260 1fb5
00000380: 63c6 0a36 b129 7435 63af 36b5 c700 8435
00000390: 3bc4 2f36 fffd d435 5a16 f5b4 ce45 02b6
000003a0: f2e3 9135 7f0f b0b4 95de 46b6 a97f 6c35
000003b0: 30a4 80b6 bfa2 1836 8a60 00b6 ea84 c235
000003c0: a7b6 72b5 531f 79b6 908a 4d36 4bab 7d36
000003d0: 2eac 03b6 6532 cb35 4130 25b5 ba26 cdb5
000003e0: b0e9 1236 20c6 d735 0d21 01b6 a3f8 94b5
000003f0: edd4 6bb6 c31a edb5 9ff2 2f36 4f03 6034

exp_avg_sq f4 [30, 30]
4.798693e-13 7.7729533e-13 6.0718323e-16 1.3669742e-13 4.3356387e-16 6.2198044e-13 1.9392162e-13 1.308117e-13
1.0123504e-12 2.0366446e-13 5.2765664e-13 2.6550726e-13 4.160644e-13 4.1351694e-14 4.6811856e-15 1.4093365e-13
6.077177e-14 7.6072655e-13 1.4481817e-13 7.658739e-15 1.0635134e-13 1.338267e-15 7.030702e-14 9.187537e-16
2.4838852e-13 7.253006e-14 8.0525625e-13 3.729336e-12 1.2193725e-14 1.1846787e-13 2.3275264e-12 9.820981e-12
5.4032816e-12 1.0728136e-11 1.8611002e-12 6.2518926e-14 1.1504918e-12 2.4241692e-12 6.573054e-13 5.4900068e-14
2.3972434e-12 1.0929134e-13 7.986865e-12 1.2363671e-12 3.7451106e-12 8.6194105e-13 1.5919337e-12 3.068898e-13
1.7795313e-12 1.904037e-13 4.3361137e-13 6.5878405e-12 8.535859e-12 3.583548e-12 4.692808e-12 2.4168755e-12
1.545103e-11 2.2936765e-12 3.866563e-14 3.2750666e-13 4.0818087e-14 4.5210343e-14 1.6757427e-13 2.6185526e-13
6.229599e-14 8.148287e-14 1.3141823e-14 3.0668027e-13 4.1045567e-14 1.0773663e-13 1.0882526e-14 2.7200315e-13
2.9074922e-13 1.6053828e-13 1.3326424e-13 8.169351e-14 1.7441269e-13 2.7652751e-14 4.6689456e-15 4.268899e-15
1.00348495e-13 1.4999613e-13 1.4611856e-13 7.370611e-14 7.650432e-14 2.268076e-13 6.904241e-14 5.81697e-15
2.5232771e-14 5.6747176e-14 3.8954226e-12 3.8901096e-12 4.1856606e-13 5.4647275e-13 2.2184084e-12 2.8912079e-12
6.854799e-12 2.5256466e-14 1.2134418e-11 3.8007475e-12 8.8801546e-13 1.8935237e-12 1.0735313e-12 2.482577e-13
1.1869419e-12 1.7189829e-12 3.1664307e-12 1.2784512e-12 2.0750723e-12 1.0135575e-12 2.7866173e-12 8.885938e-14
1.9094845e-12 9.012932e-12 2.148436e-12 3.4297307e-12 6.0191873e-12 3.3014249e-12 9.146297e-13 1.9770693e-12
3.7813632e-12 7.2314854e-13 2.653068e-12 2.1661592e-12 1.6432608e-12 1.0823339e-12 6.6447705e-13 5.7710858e-15
9.32197e-13 1.03868886e-13 4.219038e-12 4.7622517e-14 1.5734167e-12 6.6210237e-13 2.1516864e-12 4.0670427e-13
1.1077747e-12 1.7968371e-12 1.4298015e-12 6.784582e-13 6.9310806e-13 2.898275e-12 3.2765117e-12 2.4621028e-12
1.6100014e-12 2.1725653e-12 4.1020873e-13 8.262822e-12 5.2201174e-13 1.8625635e-13 1.6061959e-13 3.8913577e-13
5.079446e-13 5.2416887e-13 4.185935e-15 5.2506112e-14 1.957787e-14 2.0737004e-12 7.253589e-16 1.3933926e-14
4.513738e-13 4.578861e-13 1.5117203e-13 2.8092066e-12 1.8272573e-13 2.2067102e-13 2.4100126e-13 9.330077e-14
1.7409442e-13 9.329178e-14 1.9246137e-14 7.223239e-13 1.8414788e-13 4.563084e-13 1.0329679e-14 3.4132774e-13
4.0784422e-13 2.3822914e-13 2.0229398e-14 5.9394026e-13 2.301266e-13 7.9288887e-13 4.720511e-14 4.3311096e-13
5.03273e-16 3.9253405e-12 2.9894415e-14 8.9875595e-13 4.9054304e-13 1.6735087e-13 2.4931324e-14 6.0913384e-13
1.4675503e-13 3.353486e-13 1.024147e-14 8.604774e-14 2.3008434e-13 1.8041689e-12 1.8801314e-13 9.170898e-15
2.0948759e-13 2.5089062e-13 7.904942e-16 8.0228224e-16 2.1087763e-13 3.4515002e-13 1.1740584e-12 5.773215e-13
1.682556e-15 1.6353884e-12 7.5222306e-14 1.4698052e-11 4.057228e-12 5.933599e-12 3.0800228e-12 3.7390117e-12
2.748893e-12 6.7531345e-12 7.604861e-12 3.7138964e-12 2.1913574e-14 2.678329e-12 1.11326495e-11 3.557233e-13
4.284187e-12 8.32411e-13 4.663647e-13 9.8179e-13 6.879764e-12 2.5264955e-12 2.0865228e-13 3.7720317e-12
1.1842785e-12 1.0763793e-13 8.8059395e-12 7.813538e-13 1.4728429e-11 5.181562e-12 3.672342e-12 2.131846e-12
8.184305e-13 1.3794166e-11 9.391154e-12 1.4300168e-11 3.85574e-12 2.2926728e-12 3.786895e-13 2.337681e-12
4.7928306e-12 2.5852508e-12 3.706905e-12 1.2322567e-12 1.2362869e-11 3.1292787e-12 6.882113e-12 4.4547133e-14
00000000: 3a12 072b 08ca 5a2b 3702 2f26 59e8 192a
00000010: bcee f925 6a12 2f2b 1a56 5a2a e847 132a
00000020: c479 8e2b 494e 652a ab85 142b a177 952a
00000030: 3339 ea2a 423b 3a29 51a8 a827 5cad 1e2a
00000040: 8ad8 8829 2020 562b ff0c 232a b3f7 0928
00000050: 607b ef29 56dd c026 3d51 9e29 0768 8426
00000060: 8fd4 8b2a bc52 a329 d4a8 622b df36 832c
00000070: a2a9 5b28 0a62 052a fdc8 232c c4c5 2c2d
00000080: 6f1c be2c 3bbb 3c2d 9af6 022c b5c7 8c29
00000090: d6ea a12b f395 2a2c d803 392b 783f 7729
000000a0: e6b0 282c 2b1a f629 a481 0c2d d200 ae2b
000000b0: f5c4 832c 669d 722b 750b e02b 7bc3 ac2a
000000c0: 5f72 fa2b 2160 562a fc19 f42a fec9 e72c
000000d0: 172a 162d 762b 7c2c 0f1d a52c 8f12 2a2c
000000e0: a0e8 872d 3467 212c 7022 2e29 af5e b82a
000000f0: 0dd4 3729 fa9b 4b29 ffab 3c2a 5269 932a
00000100: 3147 8c29 ad7b b729 f6bd 6c28 49a5 ac2a
00000110: 51da 3829 f099 f229 cb0a 4428 c91f 992a
00000120: 61ad a32a 02c0 342a cd0a 162a 1af5 b729
00000130: 095f 442a e712 f928 6c37 a827 a5cd 9927
00000140: f8f6 e129 71e1 282a cf83 242a aef8 a529
00000150: bd45 ac29 d75c 7f2a 3d78 9b29 1494 d127
00000160: cf46 e328 0a91 7f29 d90e 892c fede 882c
00000170: baa1 eb2a 83d1 192b 4b1b 1c2c 5f73 4b2c
00000180: 8a2e f12c 727d e328 8f78 552d 17ba 852c
00000190: 42f4 792b b13e 052c 0b16 972b b5c1 8b2a
000001a0: 170c a72b e3ec f12b 58d1 5e2c 0fed b32b
000001b0: 2e05 122c 42a5 8e2b 3c17 442c f217 c829
000001c0: 375e 062c a38e 1e2d c82e 172c 8958 712c
000001d0: 05c8 d32c 2f51 682c 02b9 802b b71f 0b2c
000001e0: 7e0b 852c 588c 4b2b 6db1 3a2c 0e6e 182c
000001f0: b644 e72b 3053 982b 9e08 3b2b dfec cf27
00000200: f031 832b 56e4 e929 b771 942c 0679 5629
00000210: 5070 dd2b 815d 3a2b 5669 172c 43f4 e42a
00000220: cae7 9b2b e1e1 fc2b 073a c92b 11f8 3e2b
00000230: b317 432b aef2 4b2c 6390 662c 4d41 2d2c
00000240: 6a96 e22b 75e1 182c 4fed e62a 715c 112d
00000250: e9ee 122b bdb4 512a 72d7 342a 6010 db2a
00000260: 44f9 0e2b 598a 132b 70d0 9627 6d77 6c29
00000270: 7f57 b028 77ec 112c 0a12 5126 e402 7b28
00000280: d219 fe2a 2ce2 002b 5f34 2a2a 2bae 452c
00000290: 1bbb 4d2a 1774 782a f1ab 872a 3b18 d229
000002a0: 4d03 442a 0d13 d229 925a ad28 ec50 4b2b
000002b0: 0355 4f2a 7c70 002b 3c15 3a28 8326 c02a
000002c0: 8c98 e52a 701c 862a d135 b628 e82d 272b
000002d0: bd8c 812a aa2d 5f2b c997 5429 ded1 f32a
000002e0: fe0e 1126 531c 8a2c eaa1 0629 31fa 7c2b
000002f0: 5a13 0a2b 9b6b 3c2a b88f e028 b874 2b2b
00000300: 423b 252a d4c8 bc2a 727e 3828 25c3 c129
00000310: a686 812a 09ea fd2b 19af 532a 4d35 2528
00000320: b0dc 6b2a 263d 8d2a 2dd8 6326 fb3d 6726
00000330: 576d 6d2a 5c4d c22a e93b a52b 6680 222b
00000340: 5c7b f226 1429 e62b b562 a929 1249 812d
00000350: 43c0 8e2c 1cc5 d02c c2bc 582c 068e 832c
00000360: a76f 412c d49a ed2c 40c9 052d ceab 822c
00000370: 4361 c528 7c78 3c2c ffd8 432d 2141 c82a
00000380: 87bc 962c 894d 6a2b 1e45 032b b62c 8a2b
00000390: 680f f22c 4cc9 312c edeb 6a2a 71b7 842c
000003a0: 21ac a62b 0b61 f229 6dea 1a2d 7aee 5b2b
000003b0: 798d 812d 5d4f b62c 8435 812c ec03 162c
000003c0: 225e 662b 67ab 722d ff35 252d 3b92 7b2d
000003d0: 6ba9 872c 1f55 212c e92e d52a eb7f 242c
000003e0: fba1 a82c bdeb 352c d56c 822c ba6c ad2b
000003f0: 6a7d 592d 1334 5c2c 9024 f22c 599f 4829
