paper/Burgers/runs/normal_grid/normal_grid12checkpoint.pt (torch, 59031 bytes, 36 tensors)

func_approx.network.0.weight f4 [30, 2]
000000 c5 87 60 bd e9 e1 f3 be f4 dd e8 bf 44 bd 0a 3f
       -0.05481698 -0.47633293 -1.8192735 0.54195046
000010 e0 2a 06 3f 78 45 05 bf a9 c5 a4 be c6 6a b2 3e
       0.5240917 -0.52059126 -0.32182053 0.34847087
000020 8c 64 4e be ae f7 20 3f 42 6b 3f bd de ed b6 3e
       -0.20155543 0.6287793 -0.04673315 0.35728353
000030 44 73 1c bf 91 7c c0 3e ea fd c4 bd 0c bf a2 3e
       -0.6111338 0.37595037 -0.09618743 0.31786382
000040 a3 de 04 3f 38 ec cd 3e 93 28 89 bc d6 ba 71 be
       0.51902217 0.40219283 -0.01674298 -0.23606429
000050 bc f7 dc be f1 7f 5c 3f 5f d7 63 3f 94 10 03 bf
       -0.43157756 0.86132723 0.89000505 -0.5119717
000060 03 88 69 3f d7 70 60 3f 08 f6 e2 3e 68 55 f4 3e
       0.9122316 0.8767218 0.44328332 0.4772141
000070 8c 45 87 3e ab 9c a5 bd c3 6a e9 3d 0f 3c 3e 3f
       0.26420248 -0.08086523 0.11397316 0.7431039
000080 36 80 b1 bd 36 2e b0 3e c3 27 61 be 11 92 be 3e
       -0.086670324 0.34410256 -0.21987824 0.37220815
000090 5c 86 15 3f 68 d9 1b 3f 06 52 23 3f 33 61 04 3f
       0.5840814 0.6087861 0.6379703 0.51710814
0000a0 9e 21 04 be 55 25 4a 3f ea bd bb 3e 0c af 4d 3f
       -0.12903449 0.78963214 0.3666833 0.80345225
0000b0 8d dd fc be 15 d2 e3 be 05 af 1b bf 1f 42 f4 3d
       -0.4938778 -0.44496217 -0.60813934 0.11926674
0000c0 81 25 17 3f 0b fe 27 bf a7 c9 48 3e 18 af 4c 3e
       0.590416 -0.65622014 0.19608174 0.19988668
0000d0 4d 85 be bf 78 43 e4 3c ea b3 a9 bd bd 66 e3 be
       -1.488443 0.027864203 -0.08286269 -0.4441432
0000e0 bc a4 bf be 89 0a 22 3f 43 88 6a bd a4 1b 75 be
       -0.3743037 0.63297325 -0.057258856 -0.23936325

func_approx.network.0.bias f4 [30]
000000 fd 6f d6 bd 38 94 50 be 5f cd 0a be 23 26 c3 be
       -0.10470579 -0.20369041 -0.13554905 -0.38115034
000010 17 f9 26 3e 7c 5d 28 3b bd 09 11 bf 46 c2 c2 be
       0.16305958 0.0025690487 -0.56655484 -0.38038844
000020 66 b1 5e be f8 6c 85 be 9f b0 c7 bd 25 22 1a 3f
       -0.2174736 -0.260597 -0.09750485 0.6020835
000030 e3 c3 c5 be 14 c1 82 bd 3b ee 0d 3f 1b 65 12 bf
       -0.38626012 -0.06384483 0.55441636 -0.57185525
000040 a1 04 07 bf 3e ca 1d 3e 60 0a 59 3b 39 9f df 3c
       -0.5274144 0.1540918 0.0033117756 0.027297603
000050 94 8a e7 3e a1 7d 3a bf 19 d8 97 be 86 e6 fc 3e
       0.45222914 -0.72847944 -0.29657057 0.49394625
000060 bf e4 e2 be e1 d4 f7 bd 81 45 0f 3e 1d fc b8 be
       -0.44315144 -0.1210115 0.13991357 -0.36129847
000070 44 04 fd be 72 6c c4 be
       -0.49417317 -0.38363987

func_approx.network.2.weight f4 [30, 30]
000000 1b 90 57 be dc f6 11 be 29 dc c1 bd 3f d2 17 be
       -0.21051066 -0.14254326 -0.0946582 -0.14826296
000010 42 04 8f bd 2b c1 3d 3d 7b 9c 3c 3e d3 d6 71 3e
       -0.06983234 0.046326797 0.18419068 0.23617105
000020 a8 f6 bb 3e 5a e0 16 3c 8f f5 26 3e ba 54 68 bd
       0.3671162 0.009208763 0.1630461 -0.056721427
000030 31 51 fc 3d 43 4b 46 3e 4e 7e 5c 3d d9 3c 78 3e
       0.123201735 0.19364648 0.05383139 0.24241962
000040 a5 0f 02 3e 2e a9 af 3d 2e cf 55 3e 7a fd 4f 3e
       0.1270128 0.0857719 0.20879814 0.20311537
000050 04 e3 c5 bd 5c 67 a8 3e 81 71 2f 3d 35 b8 58 bb
       -0.096624404 0.32891357 0.042832855 -0.003306878
000060 25 9e 03 bb c1 f3 8c 3e b6 dd ee bd ba ef 11 3d
       -0.0020083275 0.2752972 -0.11663382 0.03562901
000070 a0 5a 51 3e 3f d6 76 ba ac 87 d7 3c a4 cf 91 bd
       0.20444727 -0.00094160804 0.02630981 -0.071196824
000080 a9 2a 02 be 80 10 d6 3c 72 8a f7 3d 4f 99 f1 bd
       -0.12711586 0.026130915 0.12086953 -0.117968194
000090 b7 6f 38 3e fe e5 c1 bc cd 15 ac 3e 61 12 db bd
       0.18011366 -0.02366924 0.33610383 -0.10696865
0000a0 da c7 62 3e 3b ab a3 bd d7 d3 29 3e 77 44 5a 3e
       0.2214655 -0.07991644 0.16584717 0.2131518
0000b0 a9 88 f5 3d d2 f2 3f 3e c1 26 f7 3d 08 fa 8f 3c
       0.119889565 0.18744972 0.120679386 0.017575279
0000c0 1d 07 57 3e 1f e1 07 3e 34 a8 f7 bc 59 8a 9e 3e
       0.20998807 0.1326947 -0.030231573 0.30964926
0000d0 7f 90 ee bd 5d 4f f8 bd cd 6c 0d be a8 00 62 3e
       -0.11648654 -0.12124512 -0.13811035 0.22070563
0000e0 fd 1c 43 3d 8f 60 bd 3d bf c8 6a 3e 8b 2f 19 be
       0.047635067 0.09246933 0.22928141 -0.14959542
0000f0 2d 94 4b 3e 03 a8 29 bc dc 70 97 3d 98 7c 29 be
       0.19880743 -0.0103549985 0.07394573 -0.16551435
000100 3b 1d a1 bc d8 a4 e0 bd 24 56 a4 bd 76 37 07 be
       -0.019667258 -0.109689415 -0.080242425 -0.1320475
000110 d5 14 7f be 16 5c 34 3e ab 7b 19 3e a5 ca 68 3d
       -0.2491029 0.17613253 0.14988582 0.056833882
000120 16 5d b7 bd 1e 36 e9 3c da 7e a6 bd 32 9e 7d bd
       -0.089533016 0.028468188 -0.08129664 -0.061918445
000130 ed e1 b9 3d 17 c7 b5 be 50 5c 50 be 77 34 58 be
       0.09076295 -0.35503456 -0.20347714 -0.21113764
000140 ce 06 4b 3e 0b 58 9e 3c 6f 64 08 3e b5 7a cb bd
       0.19826815 0.019329092 0.13319562 -0.09935514
000150 f1 b1 5a be 43 d0 d9 be 3d 0e e7 3d c9 96 ad bc
       -0.21356942 -0.42541704 0.112820126 -0.021190064
000160 08 81 e5 3d 74 97 91 bd d1 81 25 bb 4c 86 bd 3e
       0.112062514 -0.071089655 -0.0025254379 0.37016523
000170 10 9e 91 be fa ec ae bb cf 94 1c 3e 46 93 82 bd
       -0.28440905 -0.0053383084 0.15291141 -0.063757464
000180 c9 bc 20 be 8b ac 08 bd bd d0 be be c2 98 21 3e
       -0.15697016 -0.033367675 -0.3726863 0.15780929
000190 dc 9b 08 bd 5c 9a b4 3d 48 5a be be 79 f9 f6 be
       -0.033351764 0.08818504 -0.37178254 -0.48237208
0001a0 d6 2e 9b bd ec ca 34 be 78 3a 1a bd bd 8e af 3e
       -0.075772926 -0.17655534 -0.037653416 0.34288588
0001b0 e5 7e ab be 06 e9 e6 be f7 9d 9c bd f1 79 55 be
       -0.3349525 -0.45099658 -0.07647317 -0.20847298
0001c0 d8 f0 32 3e 5c 28 72 3e ed 6b 0f 3d 55 a6 cc be
       0.17474687 0.23648208 0.035015035 -0.3997065
0001d0 f4 8f 5d 3f 49 34 fd 3d 7a a2 76 3e c8 47 01 be
       0.8654778 0.12363488 0.24085417 -0.12625039
0001e0 3f 44 67 be 7f 54 c5 3e f5 fb c2 bd 4b e3 94 3e
       -0.22584628 0.38541028 -0.09520713 0.2907966
0001f0 81 12 08 3e 8f 8d 97 3e 52 18 72 3e 69 d2 a3 3e
       0.13288309 0.29600188 0.2364209 0.31996468
000200 ca 87 96 3e bc f8 33 be bb c5 3f 3e 89 eb 31 be
       0.29400474 -0.17575353 0.18727772 -0.17375006
000210 64 45 64 3e af 7e 71 3e f0 26 0c be fb 6e c5 3e
       0.22292095 0.23583482 -0.13686728 0.38561234
000220 e9 ba af 3e b8 1a 38 3e 0b 98 53 bc 93 ef 06 3e
       0.3432229 0.17978942 -0.012914668 0.13177328
000230 8e 1b 12 3e 3f b5 89 3e 2c fd 10 3e 14 6d b8 bd
       0.14268324 0.26896092 0.14159077 -0.0900518
000240 4a 67 e2 bd 78 a4 d4 3e 65 e7 19 be 0d d1 5b 3d
       -0.11054857 0.4153173 -0.15029676 0.053666163
000250 09 ea ef 3d 94 95 23 be f4 b9 3f 3e ee 4c 89 3d
       0.117145605 -0.15975028 0.18723279 0.06704126
000260 ed a6 0c 3e e1 ba 07 be 3c 9e 7d bd b5 37 bf 3c
       0.13735552 -0.13254882 -0.061918482 0.023341993
000270 6d 15 8d bd cf a6 eb 3d 5f 6a ff bb 13 5a 33 3e
       -0.06888852 0.115064256 -0.007794663 0.1751483
000280 35 81 51 3d db b9 3d be 40 a3 31 be bd be 60 bd
       0.051148612 -0.1852793 -0.17347431 -0.054869402
000290 de b6 57 bd 91 a6 3c bc 35 73 38 bd 4d f9 0b 3e
       -0.05266463 -0.011514322 -0.045031745 0.1366932
0002a0 39 50 cf 3d 99 1d 95 3d 71 e4 06 3e 97 a5 63 be
       0.10122723 0.07281036 0.13173081 -0.22231136
0002b0 60 23 95 bc cb 5a 83 bd 60 c1 21 3d 44 b7 1f be
       -0.018205345 -0.06413802 0.039491057 -0.15597254
0002c0 df a3 9d 3e 45 bc a9 3d 7b 6f a8 bd 85 fa 32 3d
       0.30789086 0.08287863 -0.08224388 0.043695945
0002d0 d5 8e 2c be d6 ed aa 3d ad 5e 77 be ab b9 52 3d
       -0.16851361 0.08346145 -0.2415721 0.051446598
0002e0 31 bf 93 3e 4d 05 6c 3d 9d a4 94 bd 09 df 61 3e
       0.28856805 0.057622243 -0.0725796 0.22057737
0002f0 b1 77 ad 3d e8 00 1f 3e 03 42 04 3e 37 d3 1d 3e
       0.08470095 0.1552769 0.12915806 0.15412603
000300 d3 12 57 3e 0c a7 06 3e da 24 b3 3d 72 60 83 3e
       0.21003275 0.13149661 0.08747263 0.2565952
000310 8e 2f ba bd 85 a3 09 3e 52 c6 8a 3e 17 c6 00 3e
       -0.090911016 0.13441284 0.2710443 0.12575565
000320 68 eb 7b 3e 03 9e 6d 3e e6 cb 44 be 31 11 09 3e
       0.24601519 0.23204808 -0.19218406 0.13385464
000330 d8 6e a0 be 50 aa 08 3e d2 f5 12 bd 4b 6a 0d be
       -0.31334567 0.13346219 -0.035878964 -0.13810079
000340 02 35 cc 3d ef 9f 31 be 9d c8 9e 3d 53 5a 7a bd
       0.09971048 -0.17346166 0.07753108 -0.061121296
000350 fd d1 ca 3d ec 51 45 bc ab 81 62 be 44 ff 44 bd
       0.09903333 -0.0120434575 -0.22119777 -0.048095003
000360 c4 ed 08 3d 3e 8c 9f 3d b3 32 87 be 78 de c1 bd
       0.033429876 0.07790421 -0.26405868 -0.09466261
000370 ef c3 25 3d 66 ee f8 bd 51 cb 82 be c7 3a 93 be
       0.04047006 -0.12154846 -0.25545743 -0.2875578
000380 14 4a 29 bd da 5e 94 be 69 9a 80 3c 88 14 f0 3c
       -0.041330412 -0.28978616 0.015698629 0.029306665
000390 9b ea 28 bb 48 35 83 be 5d eb 16 3e ee 5e a2 be
       -0.0025774601 -0.25626588 0.14738221 -0.3171305
0003a0 b1 77 ab bc bb 36 bf 3d e6 5c f2 3d e0 af 72 3d
       -0.020931097 0.09336611 0.11834125 0.05924976
0003b0 ca 13 0b 3d f1 81 d4 bd d5 d1 5e be d2 b5 10 3d
       0.03395442 -0.10376347 -0.21759732 0.035329647
0003c0 2e 5e 82 bd 1e c0 5d bc 9a 0f f1 3d 0d 45 6d bd
       -0.063656196 -0.013534574 0.11770554 -0.05792718
0003d0 cb 26 24 bc a8 d6 4d be 5e 5c 95 3c 78 fb d3 3d
       -0.010019015 -0.20101416 0.01823252 0.10350698
0003e0 23 a0 14 be bc 71 d0 3c 6d e4 02 be 2f 2c fe bd
       -0.14514212 0.025444858 -0.1278245 -0.12410771
0003f0 34 3d 4b bd 6a c4 a6 be 47 1a ab 3c 50 d7 6f be
       -0.049618915 -0.32571727 0.020886553 -0.23421979

func_approx.network.2.bias f4 [30]
000000 84 52 08 3e 1f 18 12 be c3 68 b6 bd db 8a 08 3e
       0.13312727 -0.14267014 -0.089067005 0.13334219
000010 f1 66 0f be 95 a9 c1 3b 39 53 1c be 60 07 25 3c
       -0.14004113 0.0059101083 -0.15266122 0.010072559
000020 4f 91 37 bd 15 ef 0c bd f4 0c 5a 3d 27 7a 0d 3d
       -0.04481631 -0.034407694 0.05323501 0.03454032
000030 2b 68 f5 bd f2 d6 8f 3d b7 5b 05 3e 87 1c 17 be
       -0.11982759 0.070234194 0.13023268 -0.14756976
000040 74 85 bb 3d 6d 16 fa bd 42 73 89 3d 00 dc 78 3d
       0.091563135 -0.12211309 0.06711437 0.060756683
000050 80 01 73 bd 11 10 84 bd 63 fc 14 3e 0f a8 23 3d
       -0.059327602 -0.06448377 0.14549403 0.039955195
000060 8a 07 6f bd 6e 2e 74 bd 9c ee 0e 3e ab 25 5d 3e
       -0.0583568 -0.05961459 0.1395821 0.215964
000070 a7 6f bb bd 74 6c 28 be
       -0.09152155 -0.16447622

func_approx.network.4.weight f4 [30, 30]
000000 7c c7 41 be 0b 9e e6 bd 40 22 03 be d0 5b 53 bd
       -0.18923753 -0.11260613 -0.12806034 -0.05160123
000010 2c f9 16 be 0c ef 9a 3d 0f 91 14 3e 8b 65 5c 3e
       -0.14743489 0.07565126 0.1450846 0.2152311
000020 8d e1 81 bd f7 99 2b be 47 de 3a bd dc cf 45 be
       -0.063418485 -0.16757952 -0.045622136 -0.19317573
000030 f7 ed 97 bc 95 11 3e be 67 d5 2e bd 0a 54 76 bc
       -0.018546088 -0.18561395 -0.042683985 -0.015034685
000040 e4 c5 17 be 3f df 54 be 49 fc bb 3d 1c ff 90 3d
       -0.14821583 -0.20788287 0.09178979 0.07079908
000050 91 29 39 be e6 19 35 3e 1c c3 10 be e3 5f b8 bc
       -0.18082263 0.1768566 -0.14136928 -0.02250666
000060 56 e7 6b 3e ab a0 27 3d 18 49 81 bd 64 af 12 3e
       0.23037466 0.04092471 -0.0631277 0.14324719
000070 01 c9 00 bb a4 21 fc 3d 8b 7a 07 bd f5 ad 05 3d
       -0.0019651058 0.12311104 -0.03307585 0.0326366
000080 75 9f b7 3d 4e c8 d8 bd 97 2f ce 3d b2 fc 2a 3e
       0.08965961 -0.1058508 0.10067671 0.16697958
000090 9a 25 42 bd 27 a7 f9 3c c8 e5 52 3e 7c 7a 16 be
       -0.04739914 0.030475212 0.20595467 -0.14695162
0000a0 09 55 31 be 54 a9 0f 3e 80 64 d3 3c 9c 5a 88 3d
       -0.17317595 0.14029437 0.025804758 0.06657907
0000b0 fd a4 53 3e e9 18 2f bd 81 27 36 3e dc 97 24 3d
       0.20668407 -0.042748366 0.17788507 0.040183887
0000c0 ed 29 f2 bd 88 e6 b7 bd 62 61 37 3e 4d 40 51 be
       -0.11824403 -0.08979517 0.17908242 -0.20434685
0000d0 94 83 e3 3b 85 5e b9 bd c3 48 26 be f3 75 38 be
       0.0069431756 -0.09051231 -0.16238694 -0.18013744
0000e0 fc 40 32 3e 1c 7b 5c 3e 9b 4d b9 3c b4 bf 2c 3e
       0.17407602 0.21531337 0.022620013 0.16870004
0000f0 56 1b 17 3e 6e 7e 05 be 0b b4 14 be e5 02 65 bd
       0.14756522 -0.1303651 -0.14521806 -0.055910964
000100 d1 61 87 bc 9f 73 87 bd 00 02 8e bd 7e b4 4f be
       -0.016526135 -0.0661385 -0.06933975 -0.20283696
000110 8a 62 32 3e 23 96 7b bd e4 ac 85 bd 7c 77 76 3d
       0.17420402 -0.06142248 -0.06527117 0.060172543
000120 8f 10 0b be 2e 10 1a be 3e f1 39 3d 80 3b 39 bd
       -0.13580535 -0.15045235 0.045396082 -0.04522276
000130 a9 c0 e4 bd 6e ff 7b bd 00 e6 b3 3d 6c 14 28 3d
       -0.111695595 -0.061522894 0.087841034 0.0410351
000140 ac d2 b1 bd 16 26 cb 3d 99 17 63 bd a2 99 80 bd
       -0.086827606 0.09919374 -0.055442426 -0.06279303
000150 b2 62 37 3c 5b e7 05 bd 06 61 02 3e 4d e5 0f bd
       0.011192964 -0.03269134 0.12732324 -0.035130788
000160 dd db 18 be 46 63 2e be 3e de 79 3e d3 80 10 3e
       -0.14927621 -0.17030057 0.24401185 0.14111643
000170 33 6c f9 bd 02 84 0a bc 15 fe a5 ba 34 c8 8e be
       -0.121788405 -0.008454325 -0.0012664223 -0.27887118
000180 74 48 91 be 26 d4 9e bd a9 20 23 be cd 85 82 3e
       -0.2837559 -0.07755308 -0.15930428 0.25492707
000190 0f eb 8b bd 67 6f a2 bc 21 73 11 3d 26 e6 6a bc
       -0.06831943 -0.019828511 0.035510186 -0.014337098
0001a0 88 79 71 be ff 6f 41 3c 66 7d 8d 3d 1c 8d 5c be
       -0.23581517 0.011806487 0.069086835 -0.21538204
0001b0 6e a1 7a bd d5 65 3f 3e b6 c2 c0 bd eb 74 1a 3e
       -0.061189108 0.1869119 -0.09412138 0.15083663
0001c0 cc 17 c1 3e 3b ea 31 3e 32 c3 38 bb 1f c8 fa 3d
       0.37713468 0.17374508 -0.0028192517 0.12245201
0001d0 05 81 f6 bd 7d 16 8e be bf a8 a8 bd fd 2b 5a 3d
       -0.12036327 -0.27751532 -0.08235311 0.053264607
0001e0 e8 f4 08 bd ab 38 2a be 2c 83 4a 3e e5 bd ce 3d
       -0.033436686 -0.1662318 0.197766 0.10094813
0001f0 eb e2 4c be 44 1a 24 3e f4 25 19 be 00 61 bc 3e
       -0.20008437 0.16025645 -0.14955884 0.36792755
000200 1c ae 6e 3e 68 79 8d bc 45 dd b8 3d ec 50 d3 3c
       0.23308605 -0.017269805 0.09026579 0.025795422
000210 16 ee cd bd ab 57 c6 3d 23 8b 9e 3e 23 5f 6b be
       -0.10055177 0.0968469 0.30965528 -0.2298551
000220 b7 4c 07 3e 4d 3d 48 3e 3e 15 1c be b8 42 1d 3e
       0.13212858 0.19554634 -0.15242478 0.15357482
000230 a8 7d 9c 3d c9 b7 85 3d f8 d9 98 3d 7e 52 67 3d
       0.076411545 0.06529195 0.07463449 0.056475155
000240 ab 14 5a 3d c4 30 c3 3d 85 46 19 3e b5 af 8d 3e
       0.053242367 0.09530786 0.14968307 0.27673116
000250 ce 8e 0b 3d 05 0f a4 bc 8e df e0 3d cf c5 d0 3c
       0.034071736 -0.020026693 0.1098014 0.025484947
000260 74 0f fa bd 38 28 92 3d c7 50 99 bc b5 3c 95 3a
       -0.12209979 0.07136577 -0.018715275 0.001138589
000270 10 74 93 bc a9 00 85 3b 93 66 89 be 8e 67 61 bc
       -0.017999679 0.0040589166 -0.2683607 -0.0137575995
000280 97 76 1d be 85 0a 9f be 01 d8 ea 3d f4 1a c5 bd
       -0.1537727 -0.31062713 0.11466981 -0.096242815
000290 bb 0f 06 3e 71 e0 5a 3e 8c 10 65 3b d8 51 8b be
       0.13091938 0.2137468 0.003495249 -0.2721088
0002a0 ae da eb 3d 03 8b d6 3d 5f f9 a8 bb 67 5c d8 bd
       0.11516319 0.10475733 -0.0051566805 -0.10564499
0002b0 15 67 e1 3d 79 06 1f 3d c3 3b 95 bd 7d 27 a9 3d
       0.110059895 0.038824532 -0.07286789 0.08259485
0002c0 15 53 0b be c4 f7 fc bd f5 6c f8 3d 93 44 c1 3d
       -0.13605912 -0.12351945 0.12130157 0.094369076
0002d0 8b d6 85 3c 3e 99 c6 bc d3 7d cc 3c 21 87 45 3e
       0.016337654 -0.024242993 0.024962341 0.19289829
0002e0 c2 87 75 be 99 6a ad 3e 2a c0 b5 3d c4 43 67 bd
       -0.23977569 0.3387039 0.08874543 -0.05646111
0002f0 38 45 7a bd 4c c6 0c 3e a5 66 ad 3c 31 6c ac bc
       -0.06110117 0.13747519 0.021167109 -0.021047683
000300 45 21 59 be e8 46 9f bd 6a 36 f6 3d 71 59 af 3d
       -0.21204098 -0.07777196 0.120220974 0.085619815
000310 51 f5 88 bc 0c fd 9d be 2a 4a 37 3e 10 22 a1 3e
       -0.016718538 -0.30857122 0.17899385 0.314713
000320 ed 22 82 3d 49 e6 e9 3d ee f3 a7 bd 95 36 a5 3b
       0.06354318 0.114208765 -0.08200823 0.005041907
000330 e8 bf 83 3e ad 03 9e 3d aa eb 0a 3e d9 e1 15 be
       0.2573235 0.07715545 0.13566461 -0.14636935
000340 ef a3 3d 3e ce d1 2c bd 7a 93 9a 3e ca 3a 48 bd
       0.18519567 -0.042192273 0.3019064 -0.04888419
000350 cd 3e 6d 3c d2 19 18 be 2d 87 2f be a1 bf 83 be
       0.014480305 -0.148536 -0.17141409 -0.2573214
000360 e2 82 da 3d f3 d6 29 bd 80 a7 04 be aa b5 bf be
       0.10669495 -0.041464757 -0.12954521 -0.37443286
000370 17 f6 e2 bd 82 27 50 bd 17 b3 1e bd 20 6a 80 be
       -0.11082094 -0.050818928 -0.038745012 -0.25080967
000380 c7 4c c6 be de 66 fa 3b af db 7a bd cf 75 14 be
       -0.3873045 0.0076416573 -0.061244663 -0.14498065
000390 5a f6 d3 bc 2c b0 49 3f a1 b7 67 be 3f 8e d9 bd
       -0.025874306 0.7878444 -0.22628643 -0.106228344
0003a0 bb b7 bc 3d 61 ec 15 3d 1c 0a c3 3d 5d 8d be 3d
       0.09214731 0.03660238 0.095234126 0.09304307
0003b0 b6 c5 8a be 3a 6d 60 be 97 d6 85 3c ca 87 99 3b
       -0.27103966 -0.21916667 0.016337676 0.004685377
0003c0 cf 91 d8 bd 75 7b 8b bc fa a4 30 3e d0 75 e4 3c
       -0.10574686 -0.017026642 0.17250434 0.027888209
0003d0 b3 96 07 bd 59 5c 7b bd 4d 65 85 be 0d 6f 3a 3d
       -0.033102702 -0.061367366 -0.2605385 0.045516063
0003e0 36 7d 54 3d 3a 9d 31 be a3 11 13 3d e1 2d 28 3e
       0.051877223 -0.17345133 0.03590549 0.16423751
0003f0 04 f5 0a 3c 54 b1 63 bc d2 24 1b be ea 09 2d 3b
       0.008481268 -0.013897259 -0.15150765 0.0026403614

func_approx.network.4.bias f4 [30]
000000 94 16 00 3e e7 e6 62 bd 40 68 da 3d f0 89 30 bd
       0.12508613 -0.055395987 0.10664415 -0.043100297
000010 98 b0 8e bd 57 86 a5 3d dc 17 a8 3a 4a b8 e1 bd
       -0.06967276 0.08082264 0.0012824493 -0.110214785
000020 ff 1b 0d 3e db 59 de bc d0 29 ee 3b bd 6e aa bd
       0.13780211 -0.027142456 0.007268168 -0.08321903
000030 f2 e4 13 3e bd 61 31 3c 61 a0 43 bc c1 43 19 bb
       0.14442804 0.010826525 -0.011940093 -0.0023386332
000040 d9 23 1b 3e a9 b6 a4 3d ed 27 97 bd b1 10 3a bd
       0.15150394 0.08042652 -0.07380662 -0.045426074
000050 80 19 22 be 4b 2c 7a 3d e0 89 24 be 60 2b 22 be
       -0.1583004 0.061077397 -0.1606822 -0.15836859
000060 73 d2 d0 3c 94 26 cb bc be 87 e7 bd 9c ea 21 3e
       0.025490975 -0.024798669 -0.11305188 0.15812153
000070 9d c1 8e 3a bf 71 64 bd
       0.0010891441 -0.05577254

func_approx.network.6.weight f4 [30, 30]
000000 53 c1 09 3e 9d e4 e1 3a 4a cc fe bd 9c 1d 5c 3c
       0.13452654 0.001723427 -0.12441309 0.013434794
000010 c7 0e 91 bd 89 ea 81 bd 78 e4 65 3d ec a3 dd 3d
       -0.07082897 -0.06343562 0.056126088 0.10822281
000020 01 50 9d bd e0 aa be bd 2d 93 2b be f6 41 c0 bd
       -0.07681275 -0.093099356 -0.16755362 -0.09387581
000030 71 9f f7 bc 0d 03 db bd 6c a2 b7 3d ea 26 27 3e
       -0.030227395 -0.10693941 0.089665264 0.16323438
000040 77 7b 3a 3e 32 3c 92 3c 3c 5f f8 bd 64 88 38 3d
       0.1821116 0.017850969 -0.121275395 0.045051947
000050 20 ba d0 bd 4a ed 2e bd 69 6f 56 3e cc a9 cf 3b
       -0.101917505 -0.042706765 0.20940937 0.00633738
000060 4b 31 89 ba 6b 26 80 3e 1e 49 02 3e f5 32 7f 3d
       -0.0010466961 0.2502931 0.12723204 0.062304456
000070 f4 5a d4 3d 16 80 42 3e 4f 7c ff bd 7e 6c 4b bd
       0.103689104 0.18994173 -0.12474882 -0.049664013
000080 9e 83 83 3d 75 8d a0 3d 1d 80 47 3e 06 b5 6a bd
       0.06421588 0.07839481 0.19482465 -0.057301544
000090 7f 63 8b 3d b9 c6 6f 3e 1b 70 49 be 64 93 ee bd
       0.06806087 0.2341565 -0.19671671 -0.11649206
0000a0 bf 49 21 3e 0f 0f 7b 3d df 35 17 3e 7d a7 c1 bd
       0.15750788 0.061293658 0.14766644 -0.09455774
0000b0 b0 3d 1b 3e 9d bc 61 bd 07 30 bc bd 59 ad 6c bd
       0.1516025 -0.055111516 -0.09188848 -0.057782505
0000c0 a5 47 37 bc 7e 28 9e 3d 12 5a 45 3d 5e ea 46 3e
       -0.011186515 0.07722567 0.0481816 0.19425341
0000d0 e7 b8 bd 3c 5d a7 2d 3d ee 37 1c bd f4 e8 70 3e
       0.023159457 0.04239594 -0.038139276 0.23526365
0000e0 e7 bb 44 bd 6f b1 1d 3e f7 b9 7c be da 93 e5 bd
       -0.04803076 0.15399717 -0.24680315 -0.11209841
0000f0 7a be 06 3e 5c 7b 85 3c 87 b4 9a bd a7 37 3e 3e
       0.13158599 0.016294174 -0.07553964 0.18575917
000100 b8 9a 6b 3d b6 1d 07 bd db 37 11 3e d0 77 99 3e
       0.0575206 -0.03298732 0.14181463 0.29974222
000110 5a b6 d5 bd 4d e0 05 3e 33 28 9f bc 2d f9 7c be
       -0.104351714 0.13073845 -0.019428348 -0.24704428
000120 20 54 13 be 3b d7 f0 bd 22 7f 4e 3e d2 e7 2f 3e
       -0.1438756 -0.11759802 0.20165685 0.17178276
000130 6d 70 2a 3e f3 04 1c 3d aa 3f c5 3d 8f f9 81 bd
       0.1664445 0.038090657 0.096312836 -0.06346428
000140 0f 8b 67 bd 74 5b bd bd 85 e8 0e bd 51 9d 04 3e
       -0.0565291 -0.09245959 -0.034889717 0.12950636
000150 54 36 0a be 69 ca 7c 3c 33 7b f6 3b 66 e5 45 3e
       -0.13497287 0.015429118 0.0075220107 0.1932579
000160 fb 5c e1 bd 30 14 b6 3d 15 35 0a be 1a 4f e5 bd
       -0.11004063 0.08890569 -0.13496812 -0.11196728
000170 12 46 41 bd b0 6c 49 3d 15 65 c5 3d 49 1d b2 3c
       -0.047185965 0.049175918 0.096384205 0.02174248
000180 25 30 07 3e 97 98 16 be 40 c5 ce 3d ca b5 1f 3e
       0.1320196 -0.14706646 0.10096216 0.15596691
000190 fb 98 cc bd eb 19 3f 3e c9 93 0e be 03 d1 2b 3e
       -0.09990116 0.1866223 -0.13923563 0.1677895
0001a0 0e fa 9e 3d cf 3e 9c 3d 1c 83 a0 bc d6 af 10 3d
       0.07762538 0.07629167 -0.019593768 0.03532394
0001b0 23 ef 1a be ac 8e f0 3d 45 54 e0 bd 37 9d 13 bd
       -0.15130286 0.117459625 -0.10953573 -0.036038604
0001c0 4b c7 d7 bc 91 45 d0 3d 6c 83 51 bd 8f df 43 be
       -0.026340147 0.10169519 -0.051150724 -0.1912825
0001d0 cc 8c 2f bd ad 37 b2 3c 67 1a ab 3d 74 00 82 bd
       -0.042858884 0.021755064 0.08354645 -0.06347743
0001e0 f9 0f 15 3d 1a 19 c9 bd ea 38 1c 3e 66 e0 5c bd
       0.036392186 -0.09819241 0.15256086 -0.05392494
0001f0 62 05 3c 3e eb a8 5e 3d 28 b4 2a 3e 10 16 0f 3e
       0.18361428 0.05436031 0.16670287 0.1397326
000200 0c 01 2f be 61 5f f8 3d 98 24 84 bd 1b 40 20 be
       -0.17090243 0.12127567 -0.06452292 -0.15649454
000210 b3 ab a0 3d df a8 a3 bc fe 43 94 bd c9 7c 48 3c
       0.07845249 -0.019977985 -0.07239531 0.012236782
000220 b8 8d 29 3e e6 ee 55 be da 7f d3 3d 74 96 77 3d
       0.16557968 -0.20891914 0.1032712 0.060446218
000230 9b 85 7f bd ec d3 7a 3d 36 18 e2 bd f2 e6 0f bc
       -0.062383275 0.06123726 -0.11039774 -0.008783089
000240 28 cd d4 bd ab 84 17 3e 7d 25 97 bd 95 a6 de bd
       -0.10390693 0.14796703 -0.07380197 -0.10871617
000250 09 59 c0 bd d8 ef 2a 3e 91 a4 28 be 07 a0 7e 3e
       -0.09391982 0.16693056 -0.16469027 0.24865733
000260 27 8c a0 3d f8 a8 26 bd c9 b6 f6 bc b7 43 c2 3d
       0.07839232 -0.040688485 -0.030116456 0.09485572
000270 c5 0e 86 bd c7 ed b1 bd 55 e6 09 3d 1f 0f 11 3d
       -0.06545786 -0.086879306 0.033666927 0.03541481
000280 32 96 2d be cb e4 ba bd 28 8f 3e 3e 79 b4 3c 3e
       -0.16951826 -0.0912567 0.18609297 0.1842822
000290 6e 4b cd 3b 05 d5 c6 3d 2a d5 ae bd 24 9f d3 3d
       0.0062650954 0.09708599 -0.085367516 0.10333088
0002a0 37 53 19 be e5 66 8e 3d 62 04 10 3d 7a 41 ce 3d
       -0.1497315 0.06953219 0.03516043 0.100710824
0002b0 88 88 b6 bd 13 e5 16 3e 0d 95 6f 3e 23 d3 13 3d
       -0.0891276 0.14735822 0.23396702 0.036090028
0002c0 df d9 79 bd 97 ab 48 bd 4e 69 06 3d a9 b3 08 be
       -0.060998794 -0.048991766 0.03281527 -0.13349785
0002d0 f6 65 4e bc 28 c1 8a 3e f0 c7 93 3d 86 b6 f9 bd
       -0.012597552 0.27100492 0.072158694 -0.12193017
0002e0 62 46 bf 3d f3 e0 ca bd d7 da f4 3d 7b 90 af be
       0.09339596 -0.09906187 0.11955803 -0.34289917
0002f0 ca a6 42 3d ca 90 0e be 97 90 af 3d 4b 6b 84 3e
       0.047522344 -0.1392242 0.085725 0.25863108
000300 c0 50 18 3e a8 e4 41 3c 1b 27 64 3c 11 2e 51 bd
       0.14874554 0.011834301 0.013925339 -0.051069323
000310 c4 07 ae bd 75 c8 39 3e 87 60 3e 3d 79 f5 0b 3d
       -0.08497575 0.18142875 0.046478774 0.034169648
000320 58 2a 26 be a3 e5 42 3e 85 bf 1d be 10 cb eb bd
       -0.1622709 0.19032912 -0.1540509 -0.115133405
000330 11 4f 42 3d 34 e2 5e bd fe 1d d0 3d a5 7d 1d 3c
       0.047438685 -0.054414943 0.101619706 0.0096124755
000340 2b d8 11 3e 14 8b a0 bd 30 55 f5 3d 7b 47 7a 3e
       0.14242618 -0.07839027 0.11979139 0.2444133
000350 19 82 2b be 56 21 19 3e 19 72 cd 3c e8 5a 81 3b
       -0.16748847 0.14954123 0.02507882 0.0039476044
000360 e1 ce 1a 3d 40 b8 3b 3d 9d e4 42 3d 58 5f 0d bd
       0.03779495 0.04583001 0.047581304 -0.034514755
000370 45 6b 85 bd 5c fc 83 bd 66 ad 85 bb 17 23 19 bd
       -0.06514601 -0.06444618 -0.0040795086 -0.03738698
000380 35 1e be 3d 13 a4 62 be 2c 7f 17 3e 6b 37 db bd
       0.09283105 -0.22132902 0.14794606 -0.107039295
000390 ba 56 ae 3d 7e e4 18 bd 7b 20 84 be 67 06 69 3d
       0.085126355 -0.037327282 -0.2580603 0.05689087
0003a0 6d 9b 30 be 9e c4 00 be f6 ad 97 3d 55 83 be bd
       -0.1724679 -0.12575004 0.07406227 -0.09302393
0003b0 0a 7a 8f 3d 8d 16 be 3d e7 7f a7 bd af 21 33 3e
       0.07005699 0.09281645 -0.08178692 0.17493318
0003c0 b1 98 f7 bd a8 e5 63 3d 0f 09 d4 3d 50 3d 0a be
       -0.120896704 0.05563894 0.1035329 -0.13499951
0003d0 54 e2 ec bd b0 6b c7 bd 5a 9c e4 3c ac 80 c0 bd
       -0.11566606 -0.09737337 0.027906585 -0.09399542
0003e0 fa 98 53 3e 37 b0 b8 3d 78 dd 42 be 67 a6 c2 bd
       0.20663825 0.09017985 -0.19029796 -0.09504395
0003f0 46 1e d6 3c a2 4c 71 3d ce 3a 8c bd c4 cd 3c bd
       0.026137482 0.058910973 -0.068471536 -0.04609467

func_approx.network.6.bias f4 [30]
000000 d8 76 01 3e 7f 63 d0 bd 85 2b 09 be 9a bd 08 3d
       0.12642992 -0.101752274 -0.13395508 0.033383943
000010 3b fd 2b bd 64 79 7f 3d e7 02 5a bd 7a b8 11 3e
       -0.041989546 0.062371626 -0.053225424 0.14230528
000020 1d 8f 24 be ac 07 19 be 01 28 17 3e d1 fc 9f bd
       -0.16070218 -0.14944333 0.14761354 -0.07811893
000030 4e c0 07 3d 10 2b 69 3d fa b5 a1 3c 7e 51 c9 bd
       0.03314238 0.056925833 0.019740093 -0.098299965
000040 95 2a ba 3c 15 bb ee bd 0e c1 0b 3e ac 3a 13 3d
       0.022725383 -0.11656777 0.13647863 0.035944626
000050 aa 62 0f 3e 11 c7 dc 3d 93 dc 94 3d 22 08 5d 3d
       0.14002481 0.107801564 0.07268634 0.053962834
000060 9c f1 d4 3d c8 4e d0 bd 4e b4 11 3e 01 ab 27 bd
       0.10397646 -0.10171276 0.14228937 -0.040934566
000070 a2 a3 11 3e f3 51 ae bc
       0.14222577 -0.02127931

func_approx.network.8.weight f4 [1, 30]
000000 53 d1 69 3d 1e 4a 20 3e 9d 7e 34 3d f2 5d 35 bc
       0.057084393 0.15653273 0.04406606 -0.011069762
000010 de 41 ae 3d ce 8b 4a be 1a c3 56 bd c7 d5 a4 bc
       0.08508657 -0.19779894 -0.052432157 -0.020121468
000020 7f 02 e9 bd b7 0e 83 bc df 02 89 3d 5a b1 6d be
       -0.11377429 -0.015998228 0.06690001 -0.23212186
000030 c1 a6 5e 3e 78 00 ba 3d a0 07 8b 3e 86 f9 84 bd
       0.21743299 0.09082121 0.27154255 -0.06492905
000040 fe 69 e2 bd ff 32 ba 3d 19 03 3e 3e f3 5a fa bd
       -0.11055373 0.09091758 0.18555869 -0.122243784
000050 16 7a 1b be 2b 31 09 bd fd 49 3a 3e 9e 9d 6d bd
       -0.15183291 -0.033494156 0.18192287 -0.058011644
000060 e2 3a 58 be 98 b7 dc bd 2f 55 b2 bd 89 b2 45 3e
       -0.21116212 -0.10777205 -0.08707654 0.19306387
000070 2d fb 0e be 72 a4 1f 3e
       -0.13963003 0.15590075

exp_avg f4 [30, 2]
000000 20 2d e0 b4 2e b5 2f 34 44 55 2f 36 20 36 22 34
       -4.1756084e-07 1.6364058e-07 2.6126663e-06 1.5107116e-07
000010 10 84 5b b5 85 91 a4 35 a1 89 13 34 8b ce 02 b5
       -8.1776034e-07 1.2261304e-06 1.3740511e-07 -4.8729333e-07
000020 73 4e 82 35 ec f4 20 b5 85 7b bc 34 27 24 9b b5
       9.708587e-07 -5.9961053e-07 3.51076e-07 -1.1558922e-06
000030 af a0 7a b4 53 f1 07 b4 c8 05 b7 34 28 73 1f b5
       -2.3341521e-07 -1.2660648e-07 3.4090613e-07 -5.939969e-07
000040 df ad 49 b5 51 cd 19 34 05 94 75 34 4c 4b 2e 35
       -7.513135e-07 1.4323929e-07 2.2871252e-07 6.492962e-07
000050 42 39 5d 35 e6 cb 4f b4 7c c6 8a b4 18 a8 44 35
       8.2412237e-07 -1.9352555e-07 -2.584892e-07 7.32603e-07
000060 3f fd 8d b5 2e ab a0 33 63 3a 06 b5 bb 80 c2 b4
       -1.0579023e-06 7.481718e-08 -5.0003854e-07 -3.622898e-07
000070 77 5e 73 b2 cd 83 aa 34 c6 e0 59 b5 ce f9 2c 34
       -1.416594e-08 3.1760865e-07 -8.116589e-07 1.6109627e-07
000080 b0 b0 1e 34 15 ab 69 b5 68 ae 81 35 cc e6 b0 b5
       1.4779175e-07 -8.704822e-07 9.662008e-07 -1.3180193e-06
000090 37 37 23 b4 df e4 0e b5 b9 19 be b5 36 1e d4 34
       -1.5200645e-07 -5.3232174e-07 -1.4163589e-06 3.9510059e-07
0000a0 5d b0 ce b3 1a d3 7b 34 a9 03 86 b5 93 9d 1f b4
       -9.624703e-08 2.3452995e-07 -9.984843e-07 -1.4865354e-07
0000b0 a9 9c 05 35 1d a7 35 b5 62 95 6f 35 33 69 57 b5
       4.977433e-07 -6.7670936e-07 8.925182e-07 -8.0246826e-07
0000c0 e6 c6 00 b5 f6 20 16 b2 cb ab 88 b5 49 53 48 b5
       -4.797315e-07 -8.738644e-09 -1.0182788e-06 -7.4627e-07
0000d0 97 13 cb 36 75 8e 55 b2 d6 df 09 b5 04 12 b1 b2
       6.052152e-06 -1.2430623e-08 -5.13622e-07 -2.0613705e-08
0000e0 08 65 07 35 f4 1c 1e b5 bf 1e 1d 35 13 6c 8a b3
       5.043844e-07 -5.890172e-07 5.85318e-07 -6.445784e-08

exp_avg_sq f4 [30, 2]
000000 6b 57 44 2a 5c d7 f1 28 05 2f f0 2c ef 49 ce 28
       1.7438626e-13 2.6849772e-14 6.8264305e-12 2.2902658e-14
000010 fd 4c 3c 2b f1 99 d3 2b a0 11 aa 28 cc b0 85 2a
       6.689786e-13 1.5035179e-12 1.8881435e-14 2.3748223e-13
000020 69 a8 84 2b d1 67 ca 2a 29 cf 0a 2a 17 0d bc 2b
       9.425907e-13 3.5954445e-13 1.2328735e-13 1.3361837e-12
000030 a0 5f 75 29 b9 10 91 28 75 de 02 2a f2 a4 c6 2a
       5.448387e-14 1.6105486e-14 1.16235e-13 3.528632e-13
000040 2e e5 1e 2b 73 7d b9 28 a5 b4 6b 29 46 55 ed 2a
       5.6450927e-13 2.0593531e-14 5.2337166e-14 4.2158827e-13
000050 66 2d 3f 2b 3b 19 29 29 96 9f 96 29 5f 14 17 2b
       6.7919834e-13 3.7547422e-14 6.689022e-14 5.3674247e-13
000060 a6 90 9d 2b a4 f8 c9 27 dd c5 8c 2a e3 c9 13 2a
       1.1195669e-12 5.6058284e-15 2.500629e-13 1.3126266e-13
000070 d6 fb 6a 25 1b 28 e3 29 7c 80 39 2b 2c 56 ea 28
       2.038159e-16 1.0087782e-13 6.590351e-13 2.601659e-14
000080 0e c6 c4 28 bc 49 55 2b 93 67 83 2b 8a 7c f4 2b
       2.1846264e-14 7.577513e-13 9.336857e-13 1.7371809e-12
000090 4c 4a d0 28 64 8e 9f 2a 4c 2a 0d 2c ef ce 2f 2a
       2.312486e-14 2.8342877e-13 2.0060785e-12 1.5614917e-13
0000a0 4e f7 28 28 cd e6 77 29 fc 5a 8c 2b 60 0e c9 28
       9.379499e-15 5.5045205e-14 9.972852e-13 2.2321717e-14
0000b0 44 7c 8b 2a 80 e9 00 2b c6 38 60 2b 16 43 35 2b
       2.4777587e-13 4.579878e-13 7.9659575e-13 6.439722e-13
0000c0 66 96 81 2a b4 e3 d9 24 ce ee 91 2b d4 c6 1c 2b
       2.3019363e-13 9.449449e-17 1.0369151e-12 5.5698263e-13
0000d0 18 19 21 2e 9e cd 6b 26 ec 8d 94 2a ec 23 fd 25
       3.662945e-11 8.1810667e-16 2.638856e-13 4.3912846e-16
0000e0 aa 3d 8f 2a b9 51 c3 2a 70 e1 c0 2a c4 0e 96 27
       2.544469e-13 3.4695665e-13 3.426248e-13 4.1649372e-15

max_exp_avg_sq f4 [30, 2]
000000 79 87 c7 35 ac 22 73 36 ca a8 20 34 51 26 21 36
       1.4866083e-06 3.6230003e-06 1.4962566e-07 2.4013173e-06
000010 58 c3 4e 36 9d 40 52 36 44 10 81 34 0a 1f 63 36
       3.0810097e-06 3.1330048e-06 2.4039957e-07 3.3843703e-06
000020 13 cc f1 35 d6 d3 2a 36 20 d7 24 35 2e 16 04 35
       1.8015293e-06 2.5455279e-06 6.140781e-07 4.920611e-07
000030 49 e1 f9 34 70 8e 03 37 05 ca 8e 35 44 29 07 37
       4.654378e-07 7.841372e-06 1.063862e-06 8.056235e-06
000040 13 94 cc 35 a4 c6 c6 35 ee 60 87 36 be c0 18 36
       1.524228e-06 1.4809962e-06 4.0345976e-06 2.2761956e-06
000050 af 86 01 35 c4 7d 19 35 15 20 dd 33 52 02 35 34
       4.8252235e-07 5.7179955e-07 1.029695e-07 1.6857783e-07
000060 e8 d9 81 35 44 3d 84 35 21 fb e0 35 16 63 be 36
       9.674668e-07 9.852597e-07 1.6762389e-06 5.6739764e-06
000070 a6 3c da 33 d6 4f 1d 35 ef a2 08 36 c9 9e 44 36
       1.0162448e-07 5.8603234e-07 2.036042e-06 2.92987e-06
000080 30 2b b1 35 67 63 7a 37 8c d0 b0 35 ce 4d c0 35
       1.3200097e-06 1.4924305e-05 1.3173717e-06 1.4327759e-06
000090 2a 64 51 35 a4 1a 91 35 a9 6f 48 35 91 b2 c5 35
       7.8004325e-07 1.0811095e-06 7.4668293e-07 1.4729613e-06
0000a0 69 e6 f9 36 b6 0c 87 37 f3 d4 e5 36 33 30 41 37
       7.4476015e-06 1.6099173e-05 6.8495224e-06 1.1514919e-05
0000b0 f8 04 fe 33 e0 ff a3 35 53 e3 85 35 64 18 5f 35
       1.18287005e-07 1.2218916e-06 9.975432e-07 8.3109467e-07
0000c0 6d 07 a2 36 9e 8f dd 36 75 6d a0 36 8f c4 bc 35
       4.8288407e-06 6.6030325e-06 4.781114e-06 1.4064298e-06
0000d0 be 91 a5 34 f3 19 53 35 e8 92 1d 36 42 52 00 37
       3.0839686e-07 7.8641386e-07 2.3480334e-06 7.648547e-06
0000e0 23 8a 22 36 19 60 92 37 fb aa e8 35 26 da c1 36
       2.4220287e-06 1.7449305e-05 1.7335109e-06 5.777244e-06

exp_avg f4 [30]
000000 ab 49 2e b5 09 02 e8 b5 54 ca 4a 35 96 3e 0f b5
       -6.492725e-07 -1.7285939e-06 7.554529e-07 -5.3362726e-07
000010 71 02 52 35 12 e1 63 b5 4c 73 b1 b4 da 5d 14 b5
       7.823465e-07 -8.489161e-07 -3.305271e-07 -5.527087e-07
000020 0f 0e f0 34 d0 ca 98 34 f7 bc 28 b4 14 ca 3b 35
       4.4713713e-07 2.8459772e-07 -1.5714964e-07 6.995699e-07
000030 95 8b a6 34 2e d0 8d 35 ca ff d3 34 9f c8 5f b4
       3.102147e-07 1.0565907e-06 3.9487924e-07 -2.0841479e-07
000040 8f e4 42 b5 a4 38 19 b4 c9 e6 e0 35 77 9f 98 35
       -7.260323e-07 -1.4269841e-07 1.6756468e-06 1.1371293e-06
000050 81 58 5a 35 59 69 48 b5 67 92 85 b4 e9 49 5b 35
       8.134012e-07 -7.4659107e-07 -2.4879702e-07 8.169141e-07
000060 0e ab 35 b5 12 e1 62 b4 e1 3c 0e 36 8a 44 13 b5
       -6.767667e-07 -2.112977e-07 2.1195085e-06 -5.4861505e-07
000070 f1 59 a6 b5 cc 1b e2 34
       -1.239414e-06 4.2116005e-07

exp_avg_sq f4 [30]
000000 29 55 ed 2a 89 45 52 2c 83 b6 20 2b 86 4f a0 2a
       4.215875e-13 2.9881395e-12 5.7096705e-13 2.847689e-13
000010 8f 4a 2c 2b ca e1 4a 2b d6 07 f6 29 22 ff ab 2a
       6.1210146e-13 7.207816e-13 1.0925954e-13 3.0552736e-13
000020 1d 89 61 2a b5 70 b6 29 45 d5 de 28 91 c2 09 2b
       2.0031585e-13 8.101975e-14 2.4739442e-14 4.894219e-13
000030 9f cb d8 29 05 2e 9d 2b 78 93 2f 2a ce ed 43 29
       9.6276496e-14 1.1168294e-12 1.5594286e-13 4.350496e-14
000040 f9 5f 14 2b a9 f1 b8 28 1c 99 45 2c a8 07 b6 2b
       5.271335e-13 2.0532907e-14 2.8080377e-12 1.2934003e-12
000050 5b 44 3a 2b 8d eb 1c 2b bb 8e 8b 29 8e d9 3b 2b
       6.6175337e-13 5.5749226e-13 6.1976e-14 6.6737664e-13
000060 91 ef 00 2b b8 c7 49 29 57 0f 9e 2c 53 7d a9 2a
       4.58072e-13 4.4804194e-14 4.492333e-12 3.0107392e-13
000070 27 37 d8 2b 7f be 47 2a
       1.5363031e-12 1.7740842e-13

max_exp_avg_sq f4 [30]
000000 2b 24 84 36 13 7c ee 34 e4 7d 1a 37 a5 c9 21 35
       3.938117e-06 4.442123e-07 9.2084265e-06 6.0270605e-07
000010 cf 70 a0 36 c6 0e e0 35 77 40 c4 35 e3 27 4e 36
       4.7815042e-06 1.66936e-06 1.46219e-06 3.071961e-06
000020 8a 39 c9 35 de 08 40 37 d1 59 75 35 11 20 a9 34
       1.4992413e-06 1.1446156e-05 9.140031e-07 3.1502034e-07
000030 6d 69 8a 35 65 1c a3 36 ea 26 82 34 f6 e8 fb 35
       1.0312484e-06 4.861084e-06 2.42427e-07 1.8768758e-06
000040 8f 52 80 36 80 72 77 36 3b b7 93 35 52 43 0f 36
       3.8243084e-06 3.6872516e-06 1.100568e-06 2.1347846e-06
000050 83 bd a5 37 ee 64 70 37 c5 5e 94 34 4a 19 33 36
       1.9757781e-05 1.4328614e-05 2.7636102e-07 2.6687799e-06
000060 d5 fd 5d 37 11 ec 6c 37 60 7c 74 35 41 68 d8 36
       1.3231726e-05 1.412166e-05 9.107807e-07 6.4494384e-06
000070 9e 5c fb 36 9e 42 a9 36
       7.491165e-06 5.0443477e-06

exp_avg f4 [30, 30]
000000 04 4a ab b3 8c 8a 54 35 89 a6 9b b4 93 95 e7 34
       -7.9762714e-08 7.9177767e-07 -2.899217e-07 4.3135933e-07
000010 ce b1 70 34 85 bf 41 34 c5 64 06 35 ff eb c4 34
       2.2416427e-07 1.80442e-07 5.006553e-07 3.6679555e-07
000020 3f cd 33 b4 bf 4c 87 33 6b ac c3 34 c3 1a 0e b5
       -1.6745342e-07 6.3003874e-08 3.644703e-07 -5.2938066e-07
000030 e9 c2 2a b4 09 74 2e b4 2e 15 f5 b4 56 70 e0 34
       -1.5903392e-07 -1.6247226e-07 -4.5650216e-07 4.1804986e-07
000040 98 f7 de 34 18 d1 72 34 a5 8c 92 b4 8e 5a bc b4
       4.153087e-07 2.2614074e-07 -2.7296952e-07 -3.5083616e-07
000050 b3 84 9a 33 19 ab d1 34 10 0d d7 34 78 ce 8f 34
       7.195322e-08 3.9053774e-07 4.0056375e-07 2.6786051e-07
000060 8d 18 5d b4 dd 74 fc b2 85 b9 b5 34 91 b7 c9 33
       -2.059116e-07 -2.9389804e-08 3.384886e-07 9.3931824e-08
000070 5c 5b f7 34 c3 f7 36 34 22 ee 17 b4 cb 1d ac 32
       4.6073808e-07 1.7040206e-07 -1.4149603e-07 2.0036984e-08
000080 75 b6 cd b3 81 89 05 34 c5 b5 3f 34 a4 ae 0c 34
       -9.579245e-08 1.2436614e-07 1.7854389e-07 1.310205e-07
000090 e6 19 a9 33 90 ad 21 34 2d 1c b6 33 38 66 23 b3
       7.874387e-08 1.5057435e-07 8.4801606e-08 -3.8044362e-08
0000a0 e0 4e 1b 34 38 73 55 b3 0d b4 86 34 47 31 d6 33
       1.4464194e-07 -4.9697718e-08 2.509045e-07 9.974115e-08
0000b0 86 97 01 b4 90 f7 72 34 5a 6e 2c 34 b8 16 0d 34
       -1.2069185e-07 2.2628069e-07 1.6058894e-07 1.3139913e-07
0000c0 af 87 ed 33 95 de 8a 33 62 38 50 34 d6 41 81 34
       1.1060853e-07 6.466613e-08 1.9392021e-07 2.4076024e-07
0000d0 d7 5e 8f b0 70 e3 97 33 f1 7d 0b b4 df 63 6c 33
       -1.0431574e-09 7.072856e-08 -1.2991201e-07 5.5038864e-08
0000e0 d4 70 7b b4 e7 d6 aa b3 bb 07 11 34 23 93 92 b1
       -2.3417243e-07 -7.9553324e-08 1.350699e-07 -4.2658868e-09
0000f0 f8 34 c4 33 be 13 24 34 21 c3 97 b3 7e 8d a6 32
       9.136596e-08 1.5280872e-07 -7.066979e-08 1.9389287e-08
000100 cc 99 89 b3 c6 d4 a7 b3 d4 5c e2 33 2c b8 26 b3
       -6.407535e-08 -7.815247e-08 1.05408304e-07 -3.881739e-08
000110 cf 5c 1a 34 6c d2 4a 33 43 61 fc 33 5a 11 29 b4
       1.4376131e-07 4.7223168e-08 1.1752356e-07 -1.5745664e-07
000120 04 b8 df 33 fd 66 9a 33 5e c1 5f 33 25 5d 43 b0
       1.0417719e-07 7.189917e-08 5.20971e-08 -7.1072953e-10
000130 cc 3e d9 b2 1d 87 d4 b3 49 bd 9f 33 9d 84 14 34
       -2.5290682e-08 -9.896596e-08 7.438445e-08 1.3831819e-07
000140 df df 24 b4 34 2a 2f 32 c6 cc c1 b3 bc 48 51 b4
       -1.5355134e-07 1.01959365e-08 -9.024511e-08 -1.9491102e-07
000150 c2 38 97 b3 a5 ad e7 32 99 f8 a2 34 2d 05 c6 33
       -7.0418096e-08 2.6970904e-08 3.035573e-07 9.221035e-08
000160 0d 1b 9f 33 7a 4b cd 32 f6 e2 aa 34 b1 a5 59 b6
       7.408935e-08 2.3899464e-08 3.1830103e-07 -3.2431965e-06
000170 a5 97 c3 35 8d 99 c1 b4 53 8f 94 b5 10 0e 90 b4
       1.4572767e-06 -3.6060774e-07 -1.1068572e-06 -2.6832322e-07
000180 f2 49 b0 b4 e4 8a 1c b4 11 79 4b 35 77 a4 da 33
       -3.2836357e-07 -1.457916e-07 7.579957e-07 1.0181332e-07
000190 e6 f1 05 b6 08 c4 ec 34 f9 f5 75 35 f0 db 0e 35
       -1.9959348e-06 4.4101057e-07 9.162755e-07 5.3219173e-07
0001a0 f7 2f 6c 34 15 59 8f 33 9d b9 85 b3 64 48 1f b5
       2.1996662e-07 6.67516e-08 -6.227058e-08 -5.933746e-07
0001b0 ab 3d 1f 35 24 a6 6e 35 98 53 a5 b5 53 22 1e 35
       5.9321854e-07 8.8903676e-07 -1.2317787e-06 5.8909535e-07
0001c0 46 dd de b4 58 95 80 b4 21 63 de 35 08 76 91 33
       -4.151172e-07 -2.395052e-07 1.6569139e-06 6.7735584e-08
0001d0 f1 3c e2 b5 81 f8 71 34 74 ac 14 b5 18 ec 9d 33
       -1.6856048e-06 2.2535279e-07 -5.538525e-07 7.3538274e-08
0001e0 c9 8d 0b 35 22 1e 3a b5 d7 4f 40 35 47 1f 82 b3
       5.198786e-07 -6.933425e-07 7.1641756e-07 -6.059286e-08
0001f0 fc cb 31 b5 44 62 ba b4 8a b5 29 33 2f 5b 33 33
       -6.6234475e-07 -3.4716697e-07 3.9513488e-08 4.1759616e-08
000200 61 9a 35 b4 97 93 f2 34 71 02 47 b5 d3 28 fc 33
       -1.6913101e-07 4.5183398e-07 -7.413683e-07 1.174209e-07
000210 6a 54 15 b5 fb e7 d2 b4 c1 1f d4 b4 dc 85 34 b4
       -5.5629664e-07 -3.9284336e-07 -3.951118e-07 -1.6812504e-07
000220 4c 16 2e 34 a5 dd 08 b5 95 10 16 b5 79 bc 03 b5
       1.6213124e-07 -5.0986483e-07 -5.5903485e-07 -4.9075567e-07
000230 71 3f 5d b5 05 12 cb b3 ff cd 24 35 94 93 31 b5
       -8.2421235e-07 -9.456202e-08 6.1394525e-07 -6.615239e-07
000240 ec 32 5a 35 e4 72 48 b3 d6 b3 f0 b4 66 b7 31 35
       8.128543e-07 -4.667062e-08 -4.4834331e-07 6.620452e-07
000250 31 ca 9d b4 10 ac 11 35 73 02 bf b4 a9 9f 6d b4
       -2.9390642e-07 5.4267093e-07 -3.5578304e-07 -2.2130429e-07
000260 45 2f 9a b3 a9 ec bf b3 f0 5f 7b 34 3d 87 87 34
       -7.179782e-08 -8.937179e-08 2.3411098e-07 2.5244108e-07
000270 24 81 79 b4 b0 ff 3a 33 8b 62 33 35 ee 94 1b b5
       -2.3236913e-07 4.3539046e-08 6.6826095e-07 -5.795872e-07
000280 eb 50 dd 33 35 c6 c2 34 ee 66 ea 34 c1 d9 1b 35
       1.0305833e-07 3.627953e-07 4.3660788e-07 5.8058873e-07
000290 b5 e2 ed 34 3a ed 0a b4 4c 5a 5a b2 c6 74 53 34
       4.430964e-07 -1.2938554e-07 -1.2709801e-08 1.9693388e-07
0002a0 96 ac 17 35 28 d1 53 35 42 31 f8 34 ff 70 7f b3
       5.650303e-07 7.890799e-07 4.622944e-07 -5.9474583e-08
0002b0 32 82 97 b5 7f e5 ea 33 10 ce 61 b4 41 75 1d 35
       -1.1288269e-06 1.0938219e-07 -2.1029723e-07 5.8657685e-07
0002c0 21 49 1e 35 03 c9 23 b5 11 63 84 b4 7a 72 41 b5
       5.8966003e-07 -6.101474e-07 -2.4658996e-07 -7.206469e-07
0002d0 62 96 5d b4 e9 c0 1e 35 98 fe 5e 33 e3 fa 2d b5
       -2.0636938e-07 5.914031e-07 5.1919955e-08 -6.481261e-07
0002e0 42 d8 1c 34 cb e9 c1 b2 7a 4b 4a b5 c0 81 21 b5
       1.4607306e-07 -2.2574474e-08 -7.5360697e-07 -6.0165985e-07
0002f0 dc d5 ff b0 83 97 d5 b4 ed 96 c0 b4 b5 82 2d 35
       -1.8614474e-09 -3.978458e-07 -3.58726e-07 6.4637726e-07
000300 e1 de 84 b4 e5 62 0f 34 2d e8 5e 35 b2 64 3c b5
       -2.4749082e-07 1.335389e-07 8.3039305e-07 -7.018199e-07
000310 f8 d1 4f b5 a1 ad be 33 16 8e 34 34 66 6a 3b 34
       -7.7419054e-07 8.8791474e-08 1.6815497e-07 1.745444e-07
000320 a7 64 2c 35 2a e0 26 b5 c6 d5 0a b5 cd e5 50 34
       6.422146e-07 -6.216602e-07 -5.172009e-07 1.945511e-07
000330 5b 1c 89 b4 bf d4 1f b3 4d d0 41 35 ba d6 1a b5
       -2.553887e-07 -3.7213564e-08 7.220122e-07 -5.768194e-07
000340 7d 5d 53 b5 6b eb 1d b5 39 99 d3 34 1c d8 87 b4
       -7.873967e-07 -5.8829636e-07 3.9413297e-07 -2.530295e-07
000350 e9 e5 0c 35 61 17 f8 b4 bd 6a 23 b5 a1 06 e8 b4
       5.248863e-07 -4.621061e-07 -6.0877557e-07 -4.321819e-07
000360 e5 cb af b4 7b 9b f6 b4 cc 21 57 34 03 57 3f 34
       -3.2744643e-07 -4.5934198e-07 2.003573e-07 1.7819916e-07
000370 8b 4b f4 b4 e7 45 7a 34 69 e8 10 b3 c9 1f 7a 33
       -4.5503506e-07 2.3308495e-07 -3.373899e-08 5.823657e-08
000380 38 94 d3 34 1f 39 df b4 28 8a f5 b4 b5 37 1a b5
       3.9409656e-07 -4.1578548e-07 -4.5735328e-07 -5.7450535e-07
000390 2f 76 b1 33 97 82 7a 34 f6 0d 36 b5 d1 ea 9d b4
       8.263702e-08 2.3330573e-07 -6.78206e-07 -2.941438e-07
0003a0 35 a6 62 b4 6e 07 57 b5 3a 42 30 35 9a 99 96 b2
       -2.1108356e-07 -8.0104553e-07 6.566148e-07 -1.7532148e-08
0003b0 62 86 29 34 75 7f 91 34 94 e8 d5 b4 47 e9 93 33
       1.578824e-07 2.7101092e-07 -3.9843565e-07 6.887654e-08
0003c0 ea b5 a6 b2 4d c1 40 b5 49 46 73 34 fe 3e e1 b3
       -1.9407668e-08 -7.1806863e-07 2.2656708e-07 -1.0488837e-07
0003d0 c9 dd b9 b3 03 ac 1e 31 df f3 5c b4 fd 5d 72 b2
       -8.655076e-08 2.3089803e-09 -2.0577816e-07 -1.4107624e-08
0003e0 41 66 30 33 ff 01 cb b2 ed 8a 9a b4 12 ad a2 34
       4.1071193e-08 -2.3633218e-08 -2.8785817e-07 3.0300777e-07
0003f0 a3 99 85 33 f1 68 5b 33 85 7d 22 33 4f 21 4e b3
       6.2212415e-08 5.1085355e-08 3.7832724e-08 -4.7993407e-08

exp_avg_sq f4 [30, 30]
000000 a6 45 e5 27 68 91 30 2b c2 62 bd 29 92 8e 51 2a
       6.363578e-15 6.272955e-13 8.410418e-14 1.8612393e-13
000010 65 60 62 29 e2 a7 12 29 83 28 8d 2a b7 81 17 2a
       5.026569e-14 3.2564127e-14 2.5074742e-13 1.3456498e-13
000020 ea ba fc 28 19 24 8f 27 f2 a5 15 2a d8 d6 9d 2a
       2.8058681e-14 3.972961e-15 1.3291432e-13 2.803788e-13
000030 a2 3a e4 28 75 e8 ed 28 4c ad 6a 2a ba cf 44 2a
       2.5338513e-14 2.6413098e-14 2.08435e-13 1.7480367e-13
000040 41 3c 42 2a f1 5d 66 29 36 dd a7 29 71 a1 0a 2a
       1.7251566e-13 5.115174e-14 7.454664e-14 1.2312873e-13
000050 47 be ba 27 bf bf 2b 2a 87 b2 34 2a 43 9d a1 29
       5.183167e-15 1.5254376e-13 1.604915e-13 7.177117e-14
000060 f5 16 3f 29 55 73 79 26 de 40 01 2a d9 19 1f 28
       4.243043e-14 8.6545533e-16 1.1480007e-13 8.831878e-15
000070 47 19 6f 2a 8c d0 02 29 17 5d b4 28 2c 40 f4 25
       2.1236234e-13 2.9046684e-14 2.0024386e-14 4.2370737e-16
000080 cc 4f 25 28 ca 55 8b 28 b0 93 0f 29 97 a2 9a 28
       9.176643e-15 1.5469305e-14 3.1880477e-14 1.7167947e-14
000090 d7 90 df 27 c6 3d cc 28 ed a7 01 28 b0 c7 d0 26
       6.205197e-15 2.267534e-14 7.197352e-15 1.4487025e-15
0000a0 ef 75 bc 28 ae 7d 32 27 02 cc 8d 29 e6 4e 33 28
       2.0923338e-14 2.4770593e-15 6.2970476e-14 9.9536044e-15
0000b0 f0 3b 83 28 07 a6 66 29 1a 52 e8 28 19 86 9b 28
       1.4569915e-14 5.1214265e-14 2.579278e-14 1.7266612e-14
0000c0 ad 7e 5c 28 e9 d2 96 27 38 61 29 29 e3 91 82 29
       1.2239922e-14 4.1862033e-15 3.7609862e-14 5.798467e-14
0000d0 a6 7f ae 22 95 5c b4 27 85 09 98 28 06 63 5a 27
       4.7297948e-18 5.0060414e-15 1.6879518e-14 3.0307258e-15
0000e0 6b f9 76 29 d6 21 e4 27 9a 5d a4 28 4a e7 ba 23
       5.483931e-14 6.3319397e-15 1.824825e-14 2.0264115e-17
0000f0 ef 67 16 28 3b 67 d2 28 bd 17 b4 27 b7 87 db 25
       8.34921e-15 2.3359453e-14 4.9985773e-15 3.8082408e-16
000100 35 ff 93 27 99 17 dc 27 4a 4c 48 28 3b a0 d9 26
       4.1077392e-15 6.108785e-15 1.1118773e-14 1.510083e-15
000110 83 32 ba 28 b4 b9 20 27 44 e5 78 28 75 62 df 28
       2.0672054e-14 2.230513e-15 1.38164796e-14 2.4800672e-14
000120 03 a3 43 28 ad 66 ba 27 e9 e1 43 27 c0 6b da 22
       1.0860022e-14 5.173669e-15 2.7184152e-15 5.9203103e-18
000130 cf ab 39 26 9f 73 30 28 e8 8d c7 27 0d 60 ac 28
       6.4417613e-16 9.795034e-15 5.538745e-15 1.9137491e-14
000140 bf 64 d4 28 21 3a 00 25 6c ca 12 28 4d 1b 2b 29
       2.358042e-14 1.1121925e-16 8.148521e-15 3.7993307e-14
000150 24 e1 b2 27 32 eb 51 26 db 82 cf 29 c0 34 19 28
       4.9649023e-15 7.283019e-16 9.2153464e-14 8.5046445e-15
000160 ac fd c5 27 73 fb 24 26 4d 31 e4 29 75 0a 39 2d
       5.4953516e-15 5.7239707e-16 1.0133786e-13 1.0518354e-11
000170 a3 71 15 2c 77 a6 12 2a 82 6d ac 2b a8 38 a2 29
       2.1237255e-12 1.3025159e-13 1.225173e-12 7.2040735e-14
000180 40 75 f3 29 5e f8 c0 28 d1 ba 21 2b 9d ec 3a 28
       1.08117074e-13 2.1423994e-14 5.745795e-13 1.03763815e-14
000190 ad 2a 8c 2c ae 4d 5b 2a 0e 57 6c 2b b3 73 9f 2a
       3.9837773e-12 1.9478058e-13 8.3964855e-13 2.8324356e-13
0001a0 13 59 5a 29 1d 53 a9 27 66 3f 94 27 a6 3b c6 2a
       4.8482983e-14 4.6997034e-15 4.114699e-15 3.5213255e-13
0001b0 5d 1d c6 2a 05 7b 5e 2b 91 8a d5 2b 61 91 c3 2a
       3.519224e-13 7.904097e-13 1.517302e-12 3.4739835e-13
0001c0 92 27 42 2a 96 35 81 29 41 31 41 2c af 6f a5 27
       1.724439e-13 5.7380465e-14 2.745429e-12 4.5917787e-15
0001d0 ac f0 47 2c 8b c5 64 29 81 cd ac 2a 29 4d c4 27
       2.84132e-12 5.079751e-14 3.0695935e-13 5.4484585e-15
0001e0 08 28 98 2a 37 51 07 2b 86 79 10 2b 28 79 84 27
       2.70284e-13 4.8074343e-13 5.1327725e-13 3.6768718e-15
0001f0 e9 fa f6 2a 2b b5 07 2a 82 24 e2 26 9b d0 fb 26
       4.3872482e-13 1.2053264e-13 1.5691796e-15 1.7473166e-15
000200 d3 d4 00 29 89 dd 65 2a e6 b7 1a 2b f3 93 78 28
       2.8606305e-14 2.0416146e-13 5.4967e-13 1.3798847e-14
000210 57 38 ae 2a 8a c2 2d 2a c6 c6 2f 2a ec ab fe 28
       3.0947703e-13 1.5432981e-13 1.5612086e-13 2.8274224e-14
000220 06 cf ec 28 70 5a 92 2a 36 f0 af 2a f2 95 87 2a
       2.6291045e-14 2.5997563e-13 3.1252925e-13 2.4084863e-13
000230 a5 38 3f 2b 1a 24 21 28 ec 32 d4 2a e8 5c f6 2a
       6.793544e-13 8.945124e-15 3.76941e-13 4.3762845e-13
000240 c6 fd 39 2b 3e fa 1c 27 9d 53 62 2a 57 c0 f6 2a
       6.6077384e-13 2.1785006e-15 2.0101841e-13 4.383184e-13
000250 88 8a c2 29 31 ca a5 2a c5 85 0e 2a 11 d2 5c 29
       8.639362e-14 2.9450186e-13 1.2658544e-13 4.9032017e-14
000260 5b 35 ba 27 8a 1b 10 28 38 df 76 29 c2 82 8f 29
       5.168322e-15 7.999577e-15 5.4816584e-14 6.3731586e-14
000270 15 51 73 29 1d 31 09 27 c6 69 fb 2a 84 1f bd 2a
       5.4027166e-14 1.9039194e-15 4.4659952e-13 3.3595013e-13
000280 d7 c1 3f 28 0f 43 14 2a c9 a3 56 2a 9f c4 bd 2a
       1.0644662e-14 1.3168306e-13 1.9063843e-13 3.3709578e-13
000290 38 13 5d 2a 3d f4 96 28 da 3c 46 25 4e ae 2e 29
       1.9635411e-13 1.6759267e-14 1.719438e-16 3.8786946e-14
0002a0 90 bb b3 2a ef 43 2f 2b 99 a1 70 2a 02 c4 7f 27
       3.1926935e-13 6.2266766e-13 2.1372348e-13 3.5494615e-15
0002b0 ef 56 b3 2b 1b 4d 59 28 c5 39 47 29 d2 b5 c1 2a
       1.2742844e-12 1.2062639e-14 4.4236983e-14 3.440985e-13
0002c0 aa c5 c3 2a 60 95 d1 2a b4 fe 88 29 4d 30 12 2b
       3.4776115e-13 3.7229508e-13 6.083797e-14 5.193665e-13
0002d0 3c d3 3f 29 63 ef c4 2a 57 7c 43 27 e2 7e ec 2a
       4.2593736e-14 3.4982702e-13 2.712909e-15 4.2010064e-13
0002e0 73 43 c0 28 83 73 13 26 86 de 1f 2b 3f cc cb 2a
       2.1345534e-14 5.115742e-16 5.679696e-13 3.6201768e-13
0002f0 8f 79 25 23 13 38 32 2a 2a ea 10 2a 90 3a eb 2a
       8.970409e-18 1.582903e-13 1.2871011e-13 4.1785022e-13
000300 e4 f3 89 29 64 b4 a0 28 bf 1a 42 2b 32 a6 0a 2b
       6.1263305e-14 1.78418e-14 6.8959763e-13 4.925809e-13
000310 c6 b7 28 2b 05 18 0e 28 d4 d7 fe 28 77 4a 09 29
       5.9940627e-13 7.887792e-15 2.8293265e-14 3.04847e-14
000320 12 32 e8 2a 31 92 d9 2a 15 9b 96 2a 7e 7d 2a 29
       4.1246222e-13 3.8648384e-13 2.6752962e-13 3.785643e-14
000330 16 e9 92 29 2d ab c7 26 cd bf 12 2b 54 51 bb 2a
       6.5241364e-14 1.3854796e-15 5.2135797e-13 3.3274306e-13
000340 6c 86 2e 2b 09 d8 c2 2a 72 e9 2e 2a 0a e0 90 29
       6.2003766e-13 3.4611227e-13 1.5535297e-13 6.433749e-14
000350 c7 1c 9b 2a 7c 76 70 2a 62 a5 d0 2a f9 4e 52 2a
       2.75535e-13 2.135739e-13 3.706298e-13 1.8679146e-13
000360 26 8e f1 29 b4 94 6d 2a 51 d0 34 29 83 0e 0f 29
       1.0727209e-13 2.110142e-13 4.0148715e-14 3.1764965e-14
000370 06 32 69 2a 24 09 75 29 8c 24 a9 26 13 12 75 27
       2.0711913e-13 5.4408856e-14 1.1736637e-15 3.4010378e-15
000380 f8 e5 2e 2a b0 ae 42 2a c2 88 6b 2a 7c d0 b9 2a
       1.5534091e-13 1.7291268e-13 2.091964e-13 3.3007267e-13
000390 ad b1 f6 27 1c 3a 75 29 45 79 01 2b 92 e2 c2 29
       6.8471352e-15 5.445133e-14 4.59983e-13 8.6546344e-14
0003a0 c5 c7 48 29 0d 9f 34 2b 4e b9 f2 2a 3c c5 b1 25
       4.4582193e-14 6.4169574e-13 4.3116416e-13 3.0838257e-16
0003b0 5f 98 e1 28 8d 6d a5 29 6e cd 32 2a ee 77 ab 27
       2.5046098e-14 7.346476e-14 1.5880849e-13 4.7592062e-15
0003c0 dd 49 d9 25 a0 25 11 2b c4 3a 67 29 a5 53 46 28
       3.769355e-16 5.1566564e-13 5.1343275e-14 1.10093455e-14
0003d0 e7 fb 06 28 4c af d7 22 95 c4 3e 29 5d 0e 6a 25
       7.493117e-15 5.846147e-18 4.2358983e-14 2.0301131e-16
0003e0 cf f6 f3 26 48 29 21 26 4e 9c ba 29 53 c9 ce 29
       1.692841e-15 5.591404e-16 8.287174e-14 9.183162e-14
0003f0 10 3c 8c 27 46 6b 3c 27 a4 3d cf 26 b0 61 26 27
       3.8922926e-15 2.6148394e-15 1.4380218e-15 2.3090084e-15
