paper/Burgers/runs/normal_grid/normal_grid4checkpoint.pt (torch, 59671 bytes, 36 tensors)

func_approx.network.0.weight f4 [30, 2]
0	0xbf116228	-0.567904
1	0x3ef083a7	0.46975443
2	0xbf655916	-0.8958906
3	0x3f08a395	0.53374606
4	0x3f371464	0.7151549
5	0xbf1f7459	-0.6228691
6	0x3f769d0d	0.9633339
7	0xbed47fc9	-0.41503742
8	0xbe962ece	-0.29332584
9	0x3ebfa08c	0.37427175
10	0xbdd24410	-0.10266888
11	0x3f299251	0.66238886
12	0xbecf2c50	-0.40463495
13	0xbdb3c002	-0.08776857
14	0xbed656b4	-0.41863024
15	0xbea4f789	-0.32220104
16	0x3f1c7d78	0.6112895
17	0x3f12d647	0.5735821
18	0x3bc3a4fc	0.0059705954
19	0x3d65db07	0.056117084
20	0xbf2474aa	-0.64240515
21	0x3f066348	0.5249524
22	0xbe5c7364	-0.21528393
23	0xbe98326b	-0.29725966
24	0xbf4ac8a2	-0.7921239
25	0x3f3ed2e5	0.7454055
26	0x3e9b0ae6	0.30281752
27	0x3ee8537d	0.45376197
28	0x3ea22454	0.3166834
29	0xbef9aa47	-0.48762724
30	0x3ea257f3	0.31707725
31	0x3d835cfc	0.0641422
32	0x3ebbcf95	0.3668181
33	0xbe3fc968	-0.18729174
34	0xbe671abe	-0.22568795
35	0x3f39c395	0.7256406
36	0x3e2a85bc	0.16652578
37	0xbe92580f	-0.28582808
38	0x3ebce17f	0.3689079
39	0xbe81d218	-0.253556
40	0xbd1ff78d	-0.039054442
41	0x3eb699ec	0.35664308
42	0xbf098c58	-0.5372977
43	0x3f30b46c	0.690253
44	0x3f2cd7f6	0.6751703
45	0xbd0c76ed	-0.034293104
46	0xbecf3303	-0.40468606
47	0x3e070330	0.1318481
48	0xbf0e2872	-0.55530465
49	0x3f017b0e	0.5057839
50	0xbe89213c	-0.26783168
51	0x3e0ecd09	0.13945402
52	0xbf504e95	-0.81369907
53	0x3ee3308d	0.4437298
54	0x3ef05537	0.46940014
55	0x3f0f776a	0.56041586
56	0xbc681468	-0.0141650215
57	0x3edde385	0.43337646
58	0x3e72e8cc	0.23721617
59	0x3ef7cdf5	0.4839932

func_approx.network.0.bias f4 [30]
0	0x3ed68e59	0.41905478
1	0xbee17320	-0.44033146
2	0x3defd0a2	0.117097154
3	0xbe18be0c	-0.14916247
4	0xbea6dcce	-0.32590336
5	0x3f00cbb1	0.5031081
6	0xbe041f03	-0.12902455
7	0x3e059f37	0.13049017
8	0x3ec6528b	0.3873485
9	0x3ef997f1	0.48748735
10	0x3eb67a37	0.35640118
11	0xbdc8d6ac	-0.098065704
12	0xbf0e2946	-0.5553173
13	0xbf30f7bc	-0.6912801
14	0x3e59ce4f	0.21270107
15	0xbc7975fa	-0.015225882
16	0xbec70be2	-0.38876253
17	0x3eab559a	0.33463746
18	0x3f1ca8d3	0.61195105
19	0x3ea318cf	0.31854865
20	0xbd89a73b	-0.0672135
21	0x3de6d430	0.1127094
22	0xbee2925e	-0.44252294
23	0x3e9b7e91	0.3037
24	0xbf06773e	-0.525257
25	0x3f0a2045	0.5395549
26	0xbe81bf71	-0.2534137
27	0xbe8f4a50	-0.27986383
28	0xbf1fcad4	-0.62418866
29	0xbe2e32e2	-0.17011598

func_approx.network.2.weight f4 [30, 30]
0	0xbd0cc24e	-0.03436499
1	0xbd13b3ee	-0.036060266
2	0x3e0d8a49	0.13822283
3	0x3e01e891	0.12686373
4	0xbe245f97	-0.1605209
5	0xbbdf0760	-0.006806299
6	0x3d84650c	0.06464586
7	0x3e284ccf	0.1643555
8	0xbd131f0a	-0.035918273
9	0x3dc0a75a	0.0940692
10	0xbc9ee85b	-0.019397905
11	0xbd9400e1	-0.0722673
12	0x3d9827c6	0.07429461
13	0xbe19c672	-0.15017107
14	0x3e17fd3f	0.148427
15	0x3e3d027a	0.18457976
16	0xbd0fa0ce	-0.035065465
17	0x3d9a2159	0.07525892
18	0x3e38a7f9	0.18032826
19	0x3d2128f6	0.039345704
20	0x3d925563	0.071451925
21	0x3d500416	0.050785147
22	0xbcc0234a	-0.023454327
23	0x3cd1d42e	0.02561387
24	0xbdd2027c	-0.1025438
25	0x3e00de2d	0.12584753
26	0xbda98d5f	-0.082789175
27	0x3d66a4ba	0.05630944
28	0xbd3ff9ef	-0.046869215
29	0x3dd30e38	0.103054464
30	0x3bcaae3e	0.006185322
31	0x3d7af6e6	0.061270617
32	0xbd36fa18	-0.0446721
33	0xbde629cc	-0.11238441
34	0x3d700e3a	0.058607318
35	0xbdc3229b	-0.09528085
36	0xbe40e59e	-0.18837592
37	0x3d5bb2bc	0.05363725
38	0xbd913d8c	-0.07091817
39	0xbd8c1775	-0.068404116
40	0xbd3b3089	-0.045700584
41	0x3b983aa4	0.0046456624
42	0xbda4d370	-0.08048141
43	0xbd98e2e9	-0.07465155
44	0xbd19e4c3	-0.03757168
45	0x3e1f5826	0.1556097
46	0x3d6c4fae	0.057693176
47	0xbdb036d1	-0.086042054
48	0xbde645a6	-0.11243753
49	0x3c28f752	0.010312872
50	0x3d73c2a6	0.059511803
51	0xbba9201c	-0.0051612984
52	0x3e18f755	0.149381
53	0x3e106139	0.14099588
54	0x3cef0c51	0.029180678
55	0x3d4b90d9	0.049698684
56	0x3da1b7f6	0.07896416
57	0xbd603d1a	-0.05474577
58	0x3cb4947c	0.02204346
59	0x3e1aed7b	0.15129654
60	0xbd8c4fce	-0.06851159
61	0xbc4bdcfc	-0.0124428235
62	0xbd640636	-0.055669986
63	0xbe166086	-0.14685258
64	0x3dad7dff	0.084712975
65	0x3df8f880	0.121567726
66	0xbda35d79	-0.07976813
67	0x3ddf1315	0.108923115
68	0x3ce10c41	0.027471663
69	0x3dbefdf7	0.09325784
70	0x3dce5308	0.10074431
71	0x3e41e6d8	0.18935716
72	0x3e188034	0.14892656
73	0xbe4bdd72	-0.19908693
74	0xbd547e55	-0.051878292
75	0x3d7a8e66	0.061170958
76	0xbdffdc0a	-0.12493141
77	0x3c977194	0.018486775
78	0xbd8a891f	-0.06764435
79	0x3d4405dd	0.047857154
80	0x3da14db8	0.07876152
81	0x3d5712b0	0.052508056
82	0xbcdf0907	-0.027225984
83	0x3c877629	0.016535835
84	0x3dbc19b5	0.09184591
85	0x3dc742b2	0.09729518
86	0xbd68617b	-0.05673359
87	0xbe319de3	-0.17345385
88	0x3e1448d1	0.14480902
89	0xbdb47943	-0.08812191
90	0x3dd6d37a	0.10489555
91	0x3dd0223e	0.10162781
92	0x3c2881f9	0.010284894
93	0xbde9bc19	-0.1141283
94	0xbc328099	-0.010894918
95	0xbdadb5d0	-0.084819436
96	0x3cf608ac	0.030033432
97	0xbda38d4a	-0.07985933
98	0x3e1a1839	0.15048303
99	0xbe11ea90	-0.14249635
100	0xbd9271ff	-0.07150649
101	0x3d0c2417	0.034214105
102	0xbccc137c	-0.024911635
103	0x3e1434e3	0.144733
104	0xbd39de3c	-0.045377955
105	0xbe05b9a8	-0.13059103
106	0x3e1527b0	0.14565921
107	0x3d3643b1	0.04449815
108	0x3e1e342e	0.15449592
109	0xbda11719	-0.07865734
110	0xbe00fba8	-0.12595999
111	0xbdcab2c3	-0.09897377
112	0x3da15eaa	0.07879384
113	0x3cc81570	0.024424285
114	0xbe0c2924	-0.13687569
115	0xbd53bcef	-0.051693853
116	0xbd87e4a0	-0.06635404
117	0x3e3651bc	0.17804617
118	0xbdb115f6	-0.08646767
119	0x3e37ce2c	0.17949742
120	0xbdff173c	-0.124556035
121	0xbd021c48	-0.031765252
122	0xbe192e34	-0.14959031
123	0x3de4f8ca	0.11180265
124	0xbdefa834	-0.11702004
125	0x3d1868b1	0.037209217
126	0xbad7fed5	-0.0016479144
127	0x3e5fb593	0.21846609
128	0x3d151e42	0.03640581
129	0xbe2a5264	-0.16632992
130	0x3ca09b2f	0.019605247
131	0x3d22ad47	0.03971603
132	0xbe01bb5e	-0.12669131
133	0x3b60aaf0	0.0034281574
134	0x3e382f5e	0.17986819
135	0xbc965054	-0.01834885
136	0x3cb15e11	0.0216513
137	0xbd89f8f1	-0.06736935
138	0x3d0f61a6	0.035005234
139	0xbdb7737f	-0.08957576
140	0x3e29a13f	0.16565417
141	0x3e22f32d	0.15913077
142	0x3d554daf	0.052076038
143	0xbd906836	-0.07051127
144	0xbe084450	-0.13307309
145	0xbd9d1828	-0.07670623
146	0x3e65e7d1	0.22451712
147	0xbe50d654	-0.2039426
148	0xbe39497c	-0.18094438
149	0xbd3af727	-0.04564586
150	0x3cb0d9c8	0.021588221
151	0xbe6d0342	-0.23145774
152	0xbdd7f2db	-0.10544368
153	0x3d9e27b4	0.077224165
154	0xbda42c36	-0.08016245
155	0x3dc2069a	0.094739154
156	0x3ce8cc87	0.028417839
157	0xbe389d6d	-0.18028803
158	0xbe5c5ac4	-0.21519
159	0x3d4d2fe0	0.050094485
160	0xbd9a8dc1	-0.07546569
161	0xbd765262	-0.06013716
162	0xbcd6ee2d	-0.026236618
163	0x3c775313	0.01509549
164	0x3dedb85b	0.11607429
165	0x3dd63fac	0.10461363
166	0xbb108629	-0.0022052622
167	0xbe330f73	-0.17486362
168	0x3da24161	0.07922626
169	0xbdfe082c	-0.124039024
170	0xbcf4ad92	-0.029867921
171	0xbc9542ac	-0.018220268
172	0x3d41c951	0.04731113
173	0x3c2dea14	0.010614891
174	0xbe3ea8b6	-0.18619046
175	0xbd4dc72b	-0.05023877
176	0xbd703c13	-0.05865104
177	0x3daa98ff	0.08329963
178	0xbe257dca	-0.16161266
179	0x3c699967	0.014257765
180	0x3de9987f	0.114060394
181	0xbddf0a07	-0.108905844
182	0x3d23e018	0.040008634
183	0xbbf4b8b1	-0.007468306
184	0x3e2286d0	0.1587174
185	0xbcc08a61	-0.023503484
186	0xbc80254e	-0.015642788
187	0xbd9967d7	-0.07490509
188	0xbd6c1459	-0.057636593
189	0x3ddfd60e	0.109294996
190	0xbe204adc	-0.15653557
191	0x3e002780	0.12515068
192	0x3e10287b	0.14077942
193	0x3d9fce5c	0.07803032
194	0x3e05a357	0.1305059
195	0xbd4fc2c8	-0.050722867
196	0xbc5416d9	-0.0129449
197	0x3cdcca25	0.026951859
198	0xbdf3e2ca	-0.11908491
199	0xbd5de87a	-0.054176785
200	0xbd74e418	-0.05978784
201	0xbcfaae8f	-0.030600814
202	0xbe99743e	-0.29971498
203	0xbd8272c2	-0.063695446
204	0xbba972bb	-0.0051711476
205	0x3d304425	0.043033738
206	0xbe140cf9	-0.14458074
207	0x3d08b84a	0.033378877
208	0x3dc82e66	0.09774475
209	0x3e1d5f52	0.15368393
210	0x3dd153e7	0.10221081
211	0xbe8250ed	-0.25452366
212	0x3cb92708	0.02260162
213	0xbb62ad7c	-0.0034588268
214	0xbd23ffa4	-0.04003872
215	0xbcc3fbe4	-0.023923822
216	0x3d5b0d20	0.053479314
217	0x3e23d287	0.15998279
218	0x3c5c0544	0.01342899
219	0xbdafb0cf	-0.085786454
220	0x3d81e531	0.06342543
221	0x3e410ab8	0.18851745
222	0xbd8421e9	-0.0645178
223	0xbe4a7d95	-0.19774468
224	0xbd1809e1	-0.037118796
225	0x3d20312c	0.039109394
226	0x3df63a26	0.1202281
227	0x3dd628e8	0.10457021
228	0x3e0f1209	0.13971724
229	0x3dfa1b61	0.12212253
230	0xbd8bcabb	-0.06825777
231	0x3d7677d3	0.060172867
232	0xbd08d38c	-0.03340487
233	0xbba19d93	-0.0049321144
234	0xbe3fc71d	-0.187283
235	0xbd534074	-0.05157514
236	0xbc28eab1	-0.010309861
237	0x3ced9d78	0.029005751
238	0xbdbf3420	-0.09336114
239	0xbd8181f2	-0.06323613
240	0xbe10364e	-0.14083216
241	0x3df7402d	0.120727874
242	0x3e307519	0.17232169
243	0x3db76d82	0.08956434
244	0xbe31dc7d	-0.17369266
245	0xbe657895	-0.2240928
246	0x3e6bdd88	0.23033726
247	0x3d9c86ff	0.07642936
248	0xba40513d	-0.0007336324
249	0x3d41a889	0.04727987
250	0xbdd82a29	-0.105549164
251	0xbc82a374	-0.015947081
252	0xbe0dc61b	-0.13845102
253	0x3d16549f	0.036701795
254	0x3e12403d	0.14282317
255	0xbe100696	-0.14065012

func_approx.network.2.bias f4 [30]
0	0x3b577e91	0.0032881836
1	0x3e05eb9d	0.1307816
2	0x3e4e249c	0.20131153
3	0xbbfcc66d	-0.007714084
4	0x3cdd0a5d	0.02698248
5	0x3dda637c	0.106635064
6	0xbd93a18c	-0.07208547
7	0xbd0e0b15	-0.034678537
8	0xbd1b9912	-0.037987776
9	0x3bba8384	0.0056919474
10	0x3d653376	0.05595728
11	0x3ddf05af	0.10889756
12	0xbd632b28	-0.05546108
13	0x3c9463db	0.018114021
14	0x3e1e6d1f	0.15471314
15	0xbdc939a8	-0.0982545
16	0xbe0093e7	-0.1255642
17	0xbe0e56bf	-0.13900279
18	0x3dce27e6	0.10066204
19	0xbe3b1389	-0.18269171
20	0xbe008c76	-0.12553582
21	0x3ddff99c	0.10936281
22	0xbda72d3e	-0.08162926
23	0x3e29692d	0.16544028
24	0xbda19972	-0.078905955
25	0x3d8e0d46	0.069361255
26	0x3d2a6ee3	0.041609656
27	0xbcb1d0bd	-0.02170598
28	0x3daae283	0.08343985
29	0x3dbdf027	0.09274321

func_approx.network.4.weight f4 [30, 30]
0	0xbdedec90	-0.11617386
1	0x3d9985e8	0.07496244
2	0x3d2459c8	0.040124685
3	0x3c9e24eb	0.019304713
4	0xbdef1180	-0.1167326
5	0x3d3162a4	0.04330696
6	0x3df35fa2	0.11883475
7	0xbe16350a	-0.1466867
8	0xbe362a8e	-0.17789671
9	0xbe3e4f82	-0.18585017
10	0x3d3293b8	0.043597907
11	0xbd9285ea	-0.07154448
12	0xbd5d03e5	-0.053958792
13	0x3e4ed8cc	0.20199889
14	0xbde6cdb6	-0.11269705
15	0xbdcdac4b	-0.10042628
16	0x3be0abf8	0.006856438
17	0xbddaeed2	-0.106900826
18	0xbda4a0f6	-0.08038513
19	0x3da6fdc1	0.081538685
20	0x3d4cf4aa	0.050038017
21	0xbe0fab0a	-0.1403009
22	0x3e3075f3	0.17232494
23	0x3df6ed1c	0.12056944
24	0xbdcf5a9f	-0.101247065
25	0x3d414214	0.047182158
26	0x3d9382c8	0.07202679
27	0xbe08d78f	-0.13363479
28	0xbdefd14d	-0.11709843
29	0xbe1987f6	-0.14993271
30	0x3d61abbc	0.05509542
31	0x3cb8f790	0.022578984
32	0x3d6c28c2	0.057656057
33	0xbd1e17a7	-0.038596775
34	0x3e0ee61d	0.13954969
35	0xbb0c6f0d	-0.0021428496
36	0xbe19a4b1	-0.15004231
37	0xbd403027	-0.04692092
38	0x3d9e53db	0.07730838
39	0x3d09a078	0.0336003
40	0xbc98dcc7	-0.018659962
41	0xbe599e83	-0.21251874
42	0xbdd6b595	-0.10483853
43	0x3e72d7ea	0.23715177
44	0xbe31a452	-0.1734784
45	0x3e0dccd3	0.13847665
46	0xbd91d5f3	-0.07120886
47	0xbc192cb3	-0.009349036
48	0xbe60e03f	-0.21960543
49	0xbdf1f1c4	-0.11813691
50	0x3e169afb	0.14707558
51	0xbe1d772a	-0.15377489
52	0x3da7d9fc	0.08195874
53	0xbe0cba1f	-0.13742875
54	0x3d3c53a0	0.04597819
55	0xbe52048d	-0.20509548
56	0xbe26da9b	-0.16294329
57	0xbe1a7c67	-0.15086518
58	0x3bd06f15	0.0063608983
59	0x3cb9efec	0.022697411
60	0xbde155bf	-0.11002683
61	0x3c7dcc9a	0.015490675
62	0x3dea84b8	0.11451095
63	0x3e2624a0	0.16224909
64	0x3e2d0079	0.16894712
65	0x3dfd8177	0.12378209
66	0xbcdeb96c	-0.027188025
67	0xbb2ae9dc	-0.0026079332
68	0x3e38e29f	0.18055199
69	0x3dc73c0c	0.0972825
70	0xbd1af3c9	-0.037830148
71	0x3e192664	0.14956051
72	0xbe0b9876	-0.13632378
73	0x3e108d35	0.14116366
74	0x3dc69e99	0.09698219
75	0xbe023fc4	-0.12719637
76	0xbe08f24a	-0.13373676
77	0x3e1d583e	0.15365693
78	0x3e452742	0.19253257
79	0x3da28eb5	0.079373755
80	0xbd6bf800	-0.057609558
81	0x3dcc3913	0.099718235
82	0x3d9bd9e1	0.076099165
83	0xbd8f7eb3	-0.07006588
84	0x3e0cf10b	0.13763826
85	0x3dd5cfd7	0.10440033
86	0x3d82afa7	0.06381159
87	0x3dbc435c	0.09192535
88	0xbe509d6d	-0.20372553
89	0xbdbb95cf	-0.09159433
90	0x3c91cf72	0.017799113
91	0x3d7c53da	0.061603405
92	0xbce4287f	-0.027851341
93	0x3d35aabe	0.044352286
94	0x3d8c61c5	0.068545856
95	0xbe2df7c3	-0.16989045
96	0xbcfa6fe6	-0.030570935
97	0xbd06689b	-0.032814603
98	0xbdf61a61	-0.1201675
99	0x3c5fff93	0.0136717735
100	0x3b046f9e	0.002020813
101	0xbda0adad	-0.07845626
102	0xbeb9ad10	-0.3626485
103	0x3e411dce	0.18859026
104	0xbd3febb6	-0.04685565
105	0xbd37e040	-0.044891596
106	0x3e3921f2	0.18079355
107	0x3b2acd6e	0.0026062387
108	0xbda401ea	-0.080081776
109	0xbe5d5ed9	-0.21618213
110	0x3c72bfca	0.014816234
111	0xbde03d08	-0.10949141
112	0x3c8efc93	0.017454421
113	0x3d674c1e	0.056469075
114	0xbd82ec94	-0.0639278
115	0x3dd36e6f	0.10323798
116	0x3cd586c7	0.026065243
117	0xbd73f50d	-0.05955987
118	0xbd42b22b	-0.047533195
119	0x3d691e99	0.056913946
120	0xbdee515f	-0.11636614
121	0x3d26b105	0.040696163
122	0xbc956e03	-0.018240934
123	0x3dd9d3ab	0.106360756
124	0xbda84431	-0.082161315
125	0xbdd6f321	-0.10495592
126	0x3aaf66ee	0.0013382116
127	0xbdb9a013	-0.09063735
128	0x3da3452f	0.0797218
129	0xbd5b2af2	-0.053507753
130	0x3d9bf32d	0.076147415
131	0x3e000c00	0.12504578
132	0x3d9b8087	0.07592874
133	0xbd3c616a	-0.04599134
134	0x3de3054e	0.11084996
135	0xbdc52858	-0.096268356
136	0xbe2bbb2a	-0.16770616
137	0xbb757c22	-0.0037458022
138	0xbe15a358	-0.14613092
139	0xbd2fdaeb	-0.042933386
140	0x3d423000	0.047409058
141	0x3e16c979	0.14725293
142	0xbd3ff60b	-0.046865504
143	0xbd0a7c56	-0.033809982
144	0xbe1084db	-0.1411318
145	0x3d5f383e	0.054496996
146	0x3d513631	0.05107707
147	0xbd0fba5d	-0.03508984
148	0x3d6e71aa	0.058213867
149	0xbe05b108	-0.13055813
150	0xbce0d11e	-0.027443465
151	0xbdf304c0	-0.1186614
152	0x3e1f2002	0.15539554
153	0x3e148815	0.14505036
154	0x3e43d120	0.19122744
155	0x3e2a5872	0.16635302
156	0x3d4fdefc	0.050749764
157	0xbe12fdf4	-0.14354688
158	0xbe0ab9bf	-0.13547419
159	0x3d168b63	0.036754023
160	0xbe1b61ce	-0.15174028
161	0x3e0ef9e5	0.13962515
162	0x3d679248	0.05653599
163	0x3db9c5ac	0.09070906
164	0xbe58cd7f	-0.2117214
165	0x3e024dc2	0.12724975
166	0xbd054958	-0.03254065
167	0xbda1bb02	-0.07896997
168	0x3dc0f219	0.094211765
169	0xbb81f632	-0.0039661163
170	0xbdb488d9	-0.08815164
171	0x3d14e18e	0.03634792
172	0xbde1a3c0	-0.11017561
173	0x3e489b09	0.19590391
174	0x3e36f49a	0.17866746
175	0x3d2be23b	0.041963797
176	0x3de9b41e	0.11411308
177	0xbe317545	-0.17329891
178	0xbd8bccc3	-0.068261646
179	0xbe27996a	-0.16367117
180	0xbdba31d7	-0.090915374
181	0xbdfae251	-0.12250198
182	0x3e19c9aa	0.15018335
183	0x3d9bc38a	0.076056555
184	0x3dc375f6	0.09543984
185	0xbd8ca118	-0.06866664
186	0x3de9ed6c	0.11422238
187	0xbd171e15	-0.036893923
188	0xbd2f58e9	-0.0428094
189	0x3de73a81	0.112904556
190	0x3e091e58	0.13390481
191	0xbdcb6f7f	-0.099333756
192	0x3dc96f90	0.09835732
193	0xbd6e4138	-0.058167666
194	0x3e0626ef	0.1310079
195	0xbe64a560	-0.2232871
196	0x3d11cacd	0.035593797
197	0xbda13b81	-0.078726776
198	0xbd8c9de0	-0.0686605
199	0xbd780965	-0.060555834
200	0xbc849e4e	-0.016188767
201	0xbd7c9537	-0.06166574
202	0xbde60dd3	-0.112331055
203	0x3e06a44d	0.13148613
204	0x3d295bb3	0.041347217
205	0xbe100a42	-0.14066413
206	0x3d688c93	0.056774687
207	0x3d34ae24	0.044111386
208	0x3be2f653	0.006926337
209	0x3d573cd6	0.052548252
210	0xbd32e46f	-0.043674883
211	0x3dc4c2fb	0.09607502
212	0xbdd37107	-0.10324293
213	0xbd917f17	-0.071043186
214	0x3e0e8785	0.13918884
215	0xbe25aecb	-0.1617996
216	0x3d48a32f	0.04898375
217	0x3e39a34e	0.18128702
218	0xbe25b546	-0.16182432
219	0xbcc52495	-0.024065295
220	0x3e8fecc3	0.28110322
221	0xbc38ca0c	-0.0112786405
222	0xbe7f0de8	-0.24907649
223	0xbc239111	-0.009983317
224	0x3e1292c2	0.14313796
225	0xbe1e4535	-0.15456088
226	0x3d8d501e	0.06900047
227	0x3e11d074	0.14239675
228	0xbc253a13	-0.010084647
229	0xbe1a6d21	-0.15080692
230	0x3c15eb83	0.009150389
231	0xbdb2488a	-0.08705242
232	0x3bfbf158	0.0076886825
233	0x3db2c748	0.08729416
234	0x3cdf5fc6	0.027267348
235	0xbdfbb4f4	-0.122903734
236	0xbd0dee63	-0.03465117
237	0xbd4624fa	-0.048375107
238	0xbca28835	-0.01984034
239	0xbd4388d1	-0.0477379
240	0xbe0cb9d7	-0.13742767
241	0x3e02466c	0.12722176
242	0x3db6437a	0.08899589
243	0x3d8a2518	0.06745356
244	0x3ccc42d0	0.024934202
245	0x3cb30dba	0.021857131
246	0x3e708f67	0.23492204
247	0x3d613ed3	0.054991554
248	0x3bba4a44	0.0056851227
249	0xbdee187d	-0.116257645
250	0x3c6a4486	0.014298564
251	0xbe5f62be	-0.21815011
252	0x3e92bc49	0.28659275
253	0xbe2b50f9	-0.16730107
254	0xbe234349	-0.15943636
255	0x3e294ac8	0.16532433

func_approx.network.4.bias f4 [30]
0	0x3d6972d9	0.056994293
1	0xbd3ada05	-0.045618076
2	0xbe1994cd	-0.14998169
3	0xbcc605f0	-0.024172753
4	0x3e20734e	0.15668985
5	0xbe14b575	-0.14522345
6	0xbdedc85a	-0.1161048
7	0x3daf5418	0.085609615
8	0x3e1d6e9d	0.15374227
9	0xbe3a5df6	-0.18199906
10	0xbe1ab6d0	-0.151088
11	0xbd08055b	-0.033208232
12	0x3e31371f	0.17306183
13	0xbdfb871a	-0.12281628
14	0x368ba7b8	4.162048e-06
15	0x3e0bb396	0.13642725
16	0xbd7cc528	-0.06171146
17	0xbd865f4a	-0.06561144
18	0xbda399bd	-0.079883076
19	0xbaba3a4a	-0.0014208045
20	0x3e18357c	0.14864153
21	0x3d46dd48	0.048550874
22	0x3dde6bb6	0.10860388
23	0xbb911d03	-0.0044285073
24	0xbd20f15c	-0.03929268
25	0xbd0dbeec	-0.034605905
26	0x3ddb7a1b	0.10716649
27	0xbc6be066	-0.0143967625
28	0xbe1343e4	-0.14381367
29	0xbdb8db35	-0.090261854

func_approx.network.6.weight f4 [30, 30]
0	0x3d8d75aa	0.06907208
1	0x3e4fd5d2	0.2029641
2	0xbd8947cf	-0.067031495
3	0xbdec3ff6	-0.11535637
4	0xbe1c3fa4	-0.15258652
5	0xbde59f4e	-0.112120256
6	0x3daf2352	0.08551659
7	0x3e31848e	0.17335722
8	0x3cd8556d	0.026407922
9	0x3d416780	0.047217846
10	0x3dd00a1f	0.101581804
11	0x3df2e9b6	0.11860983
12	0x3e07263a	0.13198176
13	0x3dc6e9b3	0.09712543
14	0x3d8156e5	0.06315402
15	0x3dec54a5	0.11539582
16	0xbdd084e1	-0.10181595
17	0xbdf4b88b	-0.11949261
18	0x3d3cdac8	0.046107084
19	0x3cd91b1f	0.02650219
20	0xbe42ff48	-0.19042695
21	0xbe20aa30	-0.15689921
22	0xbe19f0c2	-0.15033248
23	0x3e15c9ce	0.14627764
24	0x3e031873	0.12802295
25	0xbda9d899	-0.08293266
26	0x3d3c0af0	0.04590887
27	0xbd921a4a	-0.071339205
28	0x3e09572c	0.1341216
29	0xbe1fc733	-0.15603332
30	0xbe08693f	-0.13321398
31	0xbe2f91d1	-0.17145468
32	0x3dbd956d	0.09257016
33	0xbe19299b	-0.14957277
34	0x3df40c07	0.119163565
35	0x3d1a51f8	0.037675828
36	0xbdf12ac5	-0.11775736
37	0xbe045d22	-0.12926152
38	0x3b70755d	0.0036691048
39	0x3dc46829	0.095901795
40	0xbd712806	-0.05887606
41	0x3d5ed977	0.05440661
42	0x3c1330ed	0.008983833
43	0xbe008903	-0.12552266
44	0xbe04b33c	-0.12958997
45	0xbe18cbea	-0.14921537
46	0x3d9a8847	0.07545524
47	0x3d2bebeb	0.041973036
48	0xba87a374	-0.0010348395
49	0xbddf672a	-0.10908349
50	0xbe154d6f	-0.1458032
51	0xbd1037fb	-0.035209637
52	0xbe037ffc	-0.12841791
53	0xbe41f387	-0.18940555
54	0xbe25702e	-0.16156074
55	0xbe0492f9	-0.1294669
56	0xbe5d8025	-0.21630915
57	0x3d8efacb	0.06981429
58	0x3dbbcff1	0.09170521
59	0x3da566c9	0.08076245
60	0xbe3ed3f3	-0.1863554
61	0x3e126065	0.14294584
62	0x3d74abaa	0.059734024
63	0x3e1e9537	0.15486608
64	0xbd825072	-0.06363
65	0x3de6df8f	0.11273109
66	0xbe173d36	-0.14769444
67	0x3e06a0b0	0.13147235
68	0x3d8380e7	0.064210705
69	0x3d8a14c4	0.06742242
70	0xbe43070c	-0.19045657
71	0xbd544b7b	-0.051829796
72	0xbc807644	-0.015681393
73	0x3db72ee1	0.08944488
74	0xbd495fa2	-0.04916347
75	0x3d37eef6	0.044905625
76	0xbd137b42	-0.03600622
77	0xbd0442f6	-0.03229042
78	0xbadcd787	-0.00168489
79	0xbdd9d528	-0.106363595
80	0xbe2fb4b8	-0.17158782
81	0x3df825ef	0.1211661
82	0x3e168a13	0.14701109
83	0x3bed78bf	0.00724706
84	0x3e1830b2	0.14862326
85	0x3e193e2f	0.14965127
86	0xbda458e3	-0.08024766
87	0xbda9e2c0	-0.08295202
88	0xbe1a4089	-0.1506368
89	0x3d89957e	0.067179665
90	0x3bcef9e1	0.006316409
91	0xbd555108	-0.05207923
92	0x3e032612	0.12807491
93	0xbdee64e7	-0.11640339
94	0xbdb2e9a3	-0.08735969
95	0xbe145fb7	-0.14489637
96	0xbddd6898	-0.10810965
97	0x3dc5422a	0.096317604
98	0xbc7eb827	-0.015546835
99	0xbd09c10e	-0.033631377
100	0x3dde80d3	0.10864415
101	0xbe0af45a	-0.13569775
102	0xbdf1fb2d	-0.11815486
103	0x3e1305cb	0.14357679
104	0xbdb5e363	-0.08881261
105	0xbdf49c71	-0.11943901
106	0xbd5874d6	-0.0528458
107	0xbca75bf8	-0.020429596
108	0x3d421f36	0.047393046
109	0x3d88d93e	0.06682061
110	0xbddde7b4	-0.108352095
111	0x3e3a3be3	0.18186907
112	0xbe31f921	-0.17380191
113	0x3d7acd48	0.061230928
114	0xbd0d46f2	-0.034491487
115	0xbda77de2	-0.08178307
116	0x3e03ab77	0.12858377
117	0xbe278b31	-0.16361691
118	0x3d47062d	0.048589874
119	0x3dd00691	0.101575024
120	0x3e2104f9	0.15724553
121	0xbe02bf88	-0.12768376
122	0xbd12be57	-0.035826053
123	0x3e57a9ef	0.21060918
124	0xbe471399	-0.1944107
125	0x3d94e773	0.07270708
126	0xbdeb689f	-0.11494564
127	0x3d5bd382	0.053668506
128	0xbe2d97e6	-0.16952476
129	0x3d954866	0.072891995
130	0xbd8530a5	-0.06503419
131	0x3dc07586	0.09397416
132	0x3cff6994	0.031178273
133	0xbd1dbdd2	-0.038511105
134	0xbcd45152	-0.025917683
135	0xbe16b57f	-0.14717673
136	0xbd54e03f	-0.05197167
137	0xba99bcc7	-0.0011729234
138	0xbe2069dc	-0.15665382
139	0x3e1f1ec0	0.15539074
140	0xbe117804	-0.14205939
141	0xbdaa72f0	-0.08322704
142	0xbca74df1	-0.020422908
143	0xbe156d83	-0.14592557
144	0x3a87aa16	0.0010350372
145	0xbda717fc	-0.081588715
146	0xbe06f978	-0.13181102
147	0xbcd42680	-0.025897264
148	0x3e024bfc	0.12724298
149	0x3d774412	0.06036765
150	0x3e10e345	0.14149196
151	0x3cc2192a	0.02369364
152	0xbdec5a09	-0.1154061
153	0x3e458229	0.19287933
154	0xbe03b4f5	-0.12861998
155	0xbe04219e	-0.12903449
156	0x3d58ab25	0.05289759
157	0x3da073cd	0.07834587
158	0xbdeaedb1	-0.11471117
159	0x3d5c48f7	0.053780522
160	0xbd9cbb75	-0.07652942
161	0xbce0ed61	-0.027456941
162	0xbc38be68	-0.011275865
163	0xbd34e606	-0.04416468
164	0xbe0a8038	-0.13525474
165	0x3d66fbdc	0.056392536
166	0xbce62ff3	-0.028099036
167	0x3e0c7dfd	0.13719936
168	0x3d13430b	0.03595261
169	0xbe1f6104	-0.15564352
170	0xbe2c2f6a	-0.16814962
171	0xbdfb5f94	-0.122740895
172	0x3da4c604	0.08045581
173	0xbdd27f81	-0.10278226
174	0xbd8d0675	-0.06885997
175	0x3d412458	0.0471538
176	0xbe077918	-0.13229787
177	0xbdf8628e	-0.12128173
178	0x3e1d22e9	0.15345348
179	0xbdbdc642	-0.0926633
180	0xbd828b0b	-0.063741766
181	0x3df78210	0.12085354
182	0x3e35b17a	0.17743483
183	0x3e1c09d3	0.15238123
184	0xbdf47b01	-0.11937524
185	0x3d0169de	0.031595103
186	0xbca5f65e	-0.020259079
187	0x3ce42aaa	0.027852375
188	0xbe443fc2	-0.19164947
189	0xbe19fdc7	-0.15038215
190	0x3dfee2fe	0.12445639
191	0xbcdac027	-0.026702954
192	0xbe6db108	-0.23212063
193	0x3e163198	0.14667356
194	0x3dfd2f43	0.1236253
195	0x3d860d54	0.06545511
196	0x3e33722a	0.17524019
197	0x3e246ffe	0.16058347
198	0x3e192d1a	0.14958611
199	0x3e2a2c50	0.16618466
200	0x3e0c468b	0.13698785
201	0x3d870134	0.06592026
202	0x3a90a2e1	0.001103487
203	0x3b3fa5ca	0.0029243105
204	0xbde14de4	-0.110011846
205	0x3d70e262	0.058809645
206	0x3d93f8d3	0.07225194
207	0x3ddf3008	0.10897833
208	0xbe0ae88f	-0.13565277
209	0xbd921d76	-0.071345255
210	0x3e0c6bbe	0.13712975
211	0x3d27b4ea	0.040944017
212	0x3d5b57fe	0.053550713
213	0xbdd919fe	-0.10600661
214	0xbdc5a7d5	-0.09651152
215	0x3cc0ea7c	0.02354931
216	0x3a828b09	0.0009959649
217	0x3e3ad82d	0.18246527
218	0xbddb5a6a	-0.107106045
219	0x3e0c0114	0.13672286
220	0xbd50bfa2	-0.050964005
221	0x3d91f4d2	0.07126774
222	0xbde600a5	-0.11230592
223	0x3ce9192a	0.028454382
224	0xbe2872e2	-0.16450074
225	0xbe06f0ae	-0.1317775
226	0xbdc443ad	-0.09583221
227	0x3d54098a	0.05176691
228	0x3c3d9781	0.011571766
229	0x3c955f28	0.01823385
230	0xbd58735c	-0.05284439
231	0x3e040b6f	0.12894987
232	0x3e30b410	0.17256188
233	0x3da1cac4	0.079000026
234	0x3e163dc4	0.14671999
235	0x3b5b07bd	0.003342136
236	0xbd0c5fc7	-0.034271028
237	0x3c526c43	0.012843194
238	0x3dc1f121	0.0946982
239	0xbcc186d7	-0.023623867
240	0xbe0de28a	-0.13855949
241	0x3dae7b82	0.08519651
242	0xbd3e188b	-0.046410125
243	0xbd0b465a	-0.03400264
244	0x3dc87940	0.097887516
245	0x3cb53aeb	0.02212282
246	0xbda93662	-0.08262326
247	0xbd3925fb	-0.045202237
248	0x3de741bc	0.11291835
249	0x3dd4f589	0.103983946
250	0xbe15fae8	-0.14646494
251	0x3a3eea5b	0.00072828465
252	0x3c11853e	0.008881865
253	0x3dad596a	0.0846432
254	0xbe117995	-0.14206536
255	0x3cd7f682	0.026362661

func_approx.network.6.bias f4 [30]
0	0x3dba3a2c	0.09093127
1	0xbdb74c71	-0.08950127
2	0x3d876ea0	0.06612897
3	0x3e0598c1	0.13046552
4	0xbd657c01	-0.056026462
5	0x3dbfab85	0.09358887
6	0x3d139a3b	0.036035758
7	0xbd8d6bf5	-0.06905357
8	0xbaf36cd7	-0.0018571866
9	0x3d6680a0	0.05627501
10	0x3dd3155c	0.10306808
11	0xbddf7157	-0.1091029
12	0x3e164bfd	0.14677425
13	0xbd8fb1f1	-0.070163615
14	0xbe2bcdfd	-0.16777797
15	0xbd7b9b97	-0.06142768
16	0xbdcd9255	-0.10037676
17	0x3d8201db	0.0634801
18	0x3aaebed1	0.0013332014
19	0x3b6db4a6	0.0036271005
20	0xbe0186f3	-0.12649135
21	0x3dd68584	0.10474685
22	0x3c7d35d3	0.015454727
23	0xbcf3114c	-0.029671334
24	0x3d2dff31	0.042479698
25	0x3d8db154	0.06918588
26	0xbdf2bbc2	-0.11852218
27	0xbd82a576	-0.063792154
28	0xbdae7dc3	-0.08520081
29	0x3e16dcd4	0.14732677

func_approx.network.8.weight f4 [1, 30]
0	0x3c83a528	0.016069964
1	0xbe1179bd	-0.14206596
2	0x3e009efe	0.1256065
3	0xbd0bb207	-0.034105327
4	0xb9feb697	-0.00048582695
5	0xba39d91b	-0.0007089541
6	0x3d4c6feb	0.04991142
7	0x3ddf51f0	0.109043
8	0x3d41b21f	0.04728901
9	0x3d274ba8	0.040843636
10	0xbdb0ef09	-0.08639342
11	0x3d5a96c6	0.053366445
12	0xbe07d35f	-0.13264225
13	0xbd2cd3c3	-0.04219414
14	0x3db024f3	0.086007975
15	0xbe2f83ba	-0.17140093
16	0xbaf6c167	-0.0018825949
17	0xbb1c57bc	-0.0023856005
18	0xbb8041d5	-0.003914098
19	0xbd9387b6	-0.07203619
20	0x3d1c92eb	0.03822605
21	0xbd417e68	-0.04723969
22	0x3e0529d8	0.13004243
23	0xbcf10bac	-0.02942451
24	0xbd9a01a5	-0.07519845
25	0xbd5a9ce7	-0.05337229
26	0x3e07636d	0.13221522
27	0x3d5eae6a	0.054365553
28	0x3d3f003a	0.046631075
29	0x3dc88437	0.09790843

exp_avg f4 [30, 2]
0	0xb4af5319	-3.2656752e-07
1	0xb3b0c067	-8.2306364e-08
2	0x34d7a2fc	4.0165457e-07
3	0xb4dc8561	-4.107524e-07
4	0x340129c4	1.2029255e-07
5	0xb4a27432	-3.0259395e-07
6	0xb409ae4e	-1.2822531e-07
7	0xb59f2dad	-1.1859717e-06
8	0xb42e0bd4	-1.6209316e-07
9	0xb46f14eb	-2.226622e-07
10	0xb4686992	-2.164509e-07
11	0x33e7eb6f	1.0799601e-07
12	0x35ec561d	1.7608432e-06
13	0x34c8aaa3	3.7377058e-07
14	0xb38f7710	-6.680614e-08
15	0x342fd247	1.6374644e-07
16	0x351edd3b	5.918152e-07
17	0xb6093a1c	-2.0448415e-06
18	0xb3f5592e	-1.1424923e-07
19	0x345f2800	2.0783045e-07
20	0xb49e4198	-2.947752e-07
21	0xb49e8d9b	-2.9532825e-07
22	0xb3e7813c	-1.0780283e-07
23	0xb4a54ed5	-3.0791003e-07
24	0x3517bd50	5.652737e-07
25	0x35387829	6.87202e-07
26	0xb3e6b743	-1.0743545e-07
27	0x34fa7325	4.6649907e-07
28	0x3433478b	1.6696701e-07
29	0x344d5334	1.9122382e-07
30	0xb51fc85a	-5.9523666e-07
31	0xb415083b	-1.38797e-07
32	0xb45368fb	-1.9689098e-07
33	0xb413079b	-1.3693209e-07
34	0xb32d8e4d	-4.0409123e-08
35	0x34847ce1	2.4677777e-07
36	0x32daf028	2.548775e-08
37	0xb3f4263a	-1.1369089e-07
38	0xb357de1b	-5.0260592e-08
39	0x336b6176	5.480384e-08
40	0x31ba0a23	5.414465e-09
41	0x344af25b	1.8900884e-07
42	0xb4164bda	-1.3997433e-07
43	0xb1bf6a6c	-5.5709304e-09
44	0xb3fb5e7d	-1.17052856e-07
45	0x35922e49	1.0891318e-06
46	0x3406f9d3	1.2570608e-07
47	0x34397c60	1.7274715e-07
48	0x337a72d9	5.8312114e-08
49	0xb4196d1e	-1.4288932e-07
50	0xb4769540	-2.2964832e-07
51	0x34821919	2.4232648e-07
52	0x350be7f0	5.211905e-07
53	0x35216c94	6.0135176e-07
54	0xb53fdeb8	-7.1477143e-07
55	0x347d13c8	2.3569658e-07
56	0x328efeed	1.6646903e-08
57	0xb3e370e1	-1.0591044e-07
58	0xb5124a6d	-5.449754e-07
59	0x34ba4040	3.4691948e-07

exp_avg_sq f4 [30, 2]
0	0x29f0279a	1.0665011e-13
1	0x27f62333	6.831688e-15
2	0x2a35d5eb	1.6150247e-13
3	0x2a413513	1.7160257e-13
4	0x288337ed	1.4568176e-14
5	0x29ce5c81	9.1642846e-14
6	0x2894c639	1.6517266e-14
7	0x2bc63314	1.4082923e-12
8	0x28ecd87c	2.6295149e-14
9	0x29604525	4.9797965e-14
10	0x295334e6	4.6897294e-14
11	0x285308f4	1.1714794e-14
12	0x2c5a2fc9	3.100619e-12
13	0x2a37f700	1.633936e-13
14	0x27a267bb	4.5076497e-15
15	0x28f49a70	2.7156418e-14
16	0x2ac552eb	3.5051766e-13
17	0x2c9346c1	4.1858465e-12
18	0x286b4fce	1.3062425e-14
19	0x29486c8c	4.450307e-14
20	0x29c3c4d7	8.693886e-14
21	0x29c47e58	8.7260657e-14
22	0x28517c9b	1.162885e-14
23	0x29d57fe4	9.4812857e-14
24	0x2ab417a7	3.1990835e-13
25	0x2b04f274	4.723229e-13
26	0x28500069	1.1546408e-14
27	0x2a7545bb	2.1784564e-13
28	0x28fb2855	2.7884089e-14
29	0x2924c4c7	3.6585992e-14
30	0x2ac7781f	3.5432852e-13
31	0x28da2efd	2.422324e-14
32	0x292f3acb	3.89088e-14
33	0x28ac62aa	1.9138625e-14
34	0x26ebdd9c	1.6366468e-15
35	0x298924ee	6.0904285e-14
36	0x264d3e98	7.1208493e-16
37	0x287d022c	1.4044792e-14
38	0x273ea022	2.6454605e-15
39	0x2778c639	3.452437e-15
40	0x2408a773	2.9632134e-17
41	0x29212cce	3.5788043e-14
42	0x28b09056	1.9602521e-14
43	0x2467c61b	5.0257942e-17
44	0x288ae475	1.5420155e-14
45	0x2ba7fb6c	1.1935847e-12
46	0x288fa630	1.5948262e-14
47	0x290788d9	3.0094718e-14
48	0x277b6d07	3.4892351e-15
49	0x28b81c3a	2.0440345e-14
50	0x296d851f	5.2740036e-14
51	0x29844686	5.8742114e-14
52	0x2a98faca	2.7174644e-13
53	0x2acbe356	3.621779e-13
54	0x2b0fce54	5.1090143e-13
55	0x297aa328	5.5652667e-14
56	0x25a9ff52	2.9489839e-16
57	0x2854cb31	1.1812424e-14
58	0x2aa74b15	2.9717258e-13
59	0x2a07bb3d	1.205537e-13

max_exp_avg_sq f4 [30, 2]
0	0x33790ecc	5.7988288e-08
1	0x342274b3	1.512988e-07
2	0x32fb3a08	2.9246635e-08
3	0x35215975	6.010735e-07
4	0x32fa6587	2.915e-08
5	0x33a24463	7.556152e-08
6	0x34226199	1.5122932e-07
7	0x35187d70	5.680695e-07
8	0x33ab3df5	7.974078e-08
9	0x35459a95	7.3613165e-07
10	0x318fc1a1	4.183861e-09
11	0x328e8af1	1.6594159e-08
12	0x33526897	4.898956e-08
13	0x35b64b01	1.3581886e-06
14	0x3452220b	1.9570159e-07
15	0x354daf99	7.662398e-07
16	0x32634bbe	1.3230361e-08
17	0x341f4a6f	1.4835108e-07
18	0x34043c3b	1.231537e-07
19	0x3600eba5	1.921065e-06
20	0x340b7c37	1.2990573e-07
21	0x349f3f04	2.9661908e-07
22	0x334a3c6c	4.7086743e-08
23	0x34b579b9	3.3802442e-07
24	0x33bc4a3b	8.767935e-08
25	0x35077ebf	5.047586e-07
26	0x348a45f1	2.5755392e-07
27	0x35be2664	1.4167276e-06
28	0x3252da96	1.22733095e-08
29	0x33834660	6.112964e-08
30	0x34213166	1.5012264e-07
31	0x36072896	2.0140192e-06
32	0x33ee84d0	1.1106897e-07
33	0x355806d4	8.0476207e-07
34	0x33b84f9a	8.582647e-08
35	0x3448fb33	1.8717837e-07
36	0x3483f5d0	2.4579504e-07
37	0x36783cd6	3.699029e-06
38	0x327695d7	1.4353154e-08
39	0x349d0672	2.9248218e-07
40	0x31eaba78	6.8314954e-09
41	0x32db7e71	2.5552454e-08
42	0x33095078	3.1970984e-08
43	0x33909d4f	6.734137e-08
44	0x344df122	1.9179836e-07
45	0x36332299	2.6693217e-06
46	0x34c06cfb	3.584208e-07
47	0x36248910	2.4517685e-06
48	0x343013ce	1.6398482e-07
49	0x35d2a9a2	1.5695589e-06
50	0x3401bd41	1.2082911e-07
51	0x35441927	7.305229e-07
52	0x344d5e54	1.9126429e-07
53	0x36360916	2.7125402e-06
54	0x3435b557	1.692291e-07
55	0x34738206	2.2678441e-07
56	0x33059e18	3.111026e-08
57	0x33f0b6fc	1.12091556e-07
58	0x345d412f	2.0605943e-07
59	0x34d76a1a	4.012407e-07

exp_avg f4 [30]
0	0xb48cfb3a	-2.6259823e-07
1	0x34657640	2.1370306e-07
2	0x332367e1	3.8045872e-08
3	0xb523a769	-6.0965846e-07
4	0xb2f05a33	-2.7980695e-08
5	0xb3f26a69	-1.1288359e-07
6	0x34a700cc	3.1106754e-07
7	0xb462ca7c	-2.1121554e-07
8	0x355cd925	8.2272373e-07
9	0xb4c59876	-3.680504e-07
10	0xb314ec24	-3.4673704e-08
11	0xb2b275a9	-2.0775433e-08
12	0x3539984b	6.9139486e-07
13	0x342102b9	1.4995284e-07
14	0xb2cfdfc1	-2.4199723e-08
15	0xb503447a	-4.890095e-07
16	0xb4892191	-2.554266e-07
17	0xb44065fe	-1.7918498e-07
18	0xb3768de9	-5.7405405e-08
19	0xb4590b57	-2.0213825e-07
20	0xb3abeee3	-8.006261e-08
21	0xb349fdbc	-4.702973e-08
22	0x34c7c32c	3.7208645e-07
23	0x340c950a	1.3092736e-07
24	0x333877d6	4.294983e-08
25	0xb4caa584	-3.774586e-07
26	0x3508a8fc	5.090985e-07
27	0xb511d9c6	-5.433361e-07
28	0x33a6e377	7.771353e-08
29	0xb4e2f50d	-4.2274078e-07

exp_avg_sq f4 [30]
0	0x299b5b54	6.8992257e-14
1	0x294f37f3	4.601176e-14
2	0x26d0a4df	1.4477588e-15
3	0x2ad14162	3.7171226e-13
4	0x2665cf64	7.97314e-16
5	0x2865983f	1.2745067e-14
6	0x29da4bf8	9.694323e-14
7	0x2948f475	4.4620954e-14
8	0x2b3e939c	6.770641e-13
9	0x2a1885b3	1.3546698e-13
10	0x26ada475	1.2048863e-15
11	0x25fa63fe	4.3435844e-16
12	0x2b069387	4.78111e-13
13	0x28caaca2	2.2501373e-14
14	0x262cfaa3	6.0014164e-16
15	0x2a86a104	2.391491e-13
16	0x2992f6ee	6.526538e-14
17	0x2910f9e2	3.2191162e-14
18	0x277077df	3.3371673e-15
19	0x29382d0c	4.089528e-14
20	0x27e70087	6.411595e-15
21	0x27218324	2.241433e-15
22	0x2a1cc868	1.3925113e-13
23	0x289a8f0b	1.715947e-14
24	0x2705187a	1.8470727e-15
25	0x2a206d82	1.4248848e-13
26	0x2a91f89a	2.5929676e-13
27	0x2aa64ae6	2.9539495e-13
28	0x27da5bc2	6.060664e-15
29	0x2a499b89	1.7906348e-13

max_exp_avg_sq f4 [30]
0	0x33a4dce5	7.6770256e-08
1	0x33c4441c	9.13935e-08
2	0x337abed9	5.8381236e-08
3	0x34b3bee0	3.3480228e-07
4	0x3433d4d5	1.6748102e-07
5	0x323dc945	1.1047011e-08
6	0x33ebcb5c	1.0980031e-07
7	0x34f664aa	4.5894313e-07
8	0x3320fd76	3.7483424e-08
9	0x348b8c64	2.5992915e-07
10	0x341f95bd	1.4862503e-07
11	0x340f042c	1.331943e-07
12	0x3473541c	2.2661737e-07
13	0x352fc57d	6.5479963e-07
14	0x330d273d	3.2864808e-08
15	0x34dc984f	4.1089012e-07
16	0x349850aa	2.8370897e-07
17	0x343298f3	1.6633184e-07
18	0x3521e851	6.031524e-07
19	0x32bacf21	2.1747441e-08
20	0x328b5f64	1.6225108e-08
21	0x336b45b1	5.4778585e-08
22	0x34ef86f6	4.4615416e-07
23	0x356a7ced	8.7353584e-07
24	0x34ce85be	3.84678e-07
25	0x3493713e	2.7463278e-07
26	0x3505392b	4.962955e-07
27	0x34e35658	4.2344868e-07
28	0x3329be7f	3.9521634e-08
29	0x350b7ea9	5.196585e-07

exp_avg f4 [30, 30]
0	0xb3a89ce9	-7.8516514e-08
1	0xb43d6643	-1.7639199e-07
2	0x337a45de	5.8271205e-08
3	0x34127c1f	1.3642465e-07
4	0xb35c4744	-5.1287557e-08
5	0x33e82973	1.08108814e-07
6	0xb4778575	-2.3052219e-07
7	0xb460c526	-2.0933348e-07
8	0x3475aef8	2.2881056e-07
9	0xb36cba2c	-5.5117354e-08
10	0xb39654a0	-7.0003125e-08
11	0xb3ddd8ba	-1.0330537e-07
12	0xb47274bd	-2.2580475e-07
13	0x3400c09e	1.1991003e-07
14	0x33003864	2.985361e-08
15	0x340b75de	1.2988264e-07
16	0x335bd207	5.118093e-08
17	0x340b86f8	1.2994485e-07
18	0x3208da75	7.965913e-09
19	0x33771caa	5.753524e-08
20	0x32d2f28f	2.455752e-08
21	0x3398fda3	7.124188e-08
22	0x32fd40ba	2.948251e-08
23	0xb3201299	-3.7269817e-08
24	0xb4118977	-1.3554187e-07
25	0xb39bccd9	-7.2550115e-08
26	0xb4100070	-1.3411204e-07
27	0x34597b84	2.0254635e-07
28	0x322ac80e	9.9407895e-09
29	0x342093d0	1.4954935e-07
30	0x338255cd	6.069204e-08
31	0x33e74c79	1.0770686e-07
32	0xb3845792	-6.162658e-08
33	0xb3ce54cc	-9.608047e-08
34	0x334c3cc2	4.755271e-08
35	0xb235b02b	-1.0575643e-08
36	0x34171d68	1.4073669e-07
37	0x33ac4b2c	8.023048e-08
38	0xb3a25fb6	-7.5611226e-08
39	0xb1a96148	-4.929607e-09
40	0x339a357d	7.180913e-08
41	0x3331033a	4.121396e-08
42	0x340fb6bb	1.338439e-07
43	0xb30d1c3a	-3.2854793e-08
44	0xb33a88a8	-4.3430788e-08
45	0xb3a8ee06	-7.866406e-08
46	0x321ec6f1	9.2420445e-09
47	0xb194d2dc	-4.331339e-09
48	0xb30e01cb	-3.3063582e-08
49	0xb3894c1f	-6.393406e-08
50	0x31ca8177	5.893692e-09
51	0x3295aaf3	1.7423622e-08
52	0x325240e3	1.2238362e-08
53	0xb206d366	-7.847893e-09
54	0x33bd2d3f	8.8092285e-08
55	0xb1eb26b8	-6.843802e-09
56	0x33cf2b39	9.647051e-08
57	0xb3048f28	-3.0863845e-08
58	0x32791284	1.44979175e-08
59	0xb2fbf498	-2.9331474e-08
60	0x33898f50	6.405628e-08
61	0x342e1ea6	1.6216163e-07
62	0x33ae9649	8.129843e-08
63	0xb46518f7	-2.1336369e-07
64	0x33fc357b	1.17443925e-07
65	0xb3fd44eb	-1.1793767e-07
66	0x3495f288	2.7929877e-07
67	0xb32d5f5d	-4.0366434e-08
68	0xb474c3bf	-2.2795483e-07
69	0xb42007dc	-1.490402e-07
70	0x33b8b620	8.601296e-08
71	0x33388c12	4.296823e-08
72	0x3385a05d	6.222465e-08
73	0x34985404	2.8373336e-07
74	0xb3084caa	-3.1734693e-08
75	0xb3667382	-5.3656102e-08
76	0x3453a5b2	1.9711186e-07
77	0xb400d70f	-1.1999167e-07
78	0xb46ed529	-2.2243024e-07
79	0xb42bca9b	-1.5999323e-07
80	0x33201601	3.7272915e-08
81	0xb4169e41	-1.4027411e-07
82	0x350b3772	5.186222e-07
83	0xb46ab8dd	-2.1860201e-07
84	0x342c1766	1.602726e-07
85	0xb46005d4	-2.0863746e-07
86	0x34294424	1.5764141e-07
87	0x3458c8c7	2.018961e-07
88	0x3461af5e	2.1018556e-07
89	0x337efddb	5.9369864e-08
90	0xb357bb47	-5.0228916e-08
91	0xb3607e4d	-5.2268934e-08
92	0xb1d61c46	-6.231434e-09
93	0x3359fdbf	5.075503e-08
94	0xb2a0e17f	-1.8728995e-08
95	0xb19f5a40	-4.6377693e-09
96	0xb39ed0d5	-7.395435e-08
97	0x330ccfb8	3.278521e-08
98	0xb3b0eb09	-8.238391e-08
99	0xb32012c5	-3.7269974e-08
100	0xb376a995	-5.7430572e-08
101	0x331d09d0	3.6563335e-08
102	0xb3a5a9e3	-7.7143135e-08
103	0xb273521b	-1.416313e-08
104	0x326bf2be	1.37339935e-08
105	0x2fca06d5	3.674844e-10
106	0xb371775a	-5.6220735e-08
107	0x32a32a7c	1.8995017e-08
108	0x31c9d07f	5.873573e-09
109	0x32753139	1.4272069e-08
110	0xb2bc600c	-2.1929758e-08
111	0x330d1b97	3.2854214e-08
112	0xb46cb286	-2.2044159e-07
113	0x33bb4f84	8.72233e-08
114	0xb345eab0	-4.6081084e-08
115	0x32a5d7f2	1.9306729e-08
116	0xb32791b1	-3.9015223e-08
117	0xb392f96b	-6.844024e-08
118	0xb28f0ac8	-1.6652294e-08
119	0xb2bf7080	-2.2286486e-08
120	0xb38fec39	-6.701925e-08
121	0xb408f9cf	-1.2756867e-07
122	0xb106d0b9	-1.9618211e-09
123	0x34241809	1.5282434e-07
124	0xb23abb05	-1.0869148e-08
125	0x3152f5e2	3.069879e-09
126	0xb401ab00	-1.207627e-07
127	0xb2ed76eb	-2.7644509e-08
128	0xb31b8518	-3.6209798e-08
129	0xb2f4a2b7	-2.8479333e-08
130	0xb398726f	-7.098867e-08
131	0xb208b1a1	-7.95663e-09
132	0xb3a00466	-7.451381e-08
133	0x33650fdf	5.3332652e-08
134	0x308b1714	1.012014e-09
135	0x3354a3e8	4.950917e-08
136	0xb2e193b3	-2.6260613e-08
137	0x32aab151	1.9871239e-08
138	0xb25f15c5	-1.2985258e-08
139	0x3327fa9b	3.9110642e-08
140	0x3202d064	7.6143785e-09
141	0x331117f8	3.3782243e-08
142	0xb3d12287	-9.7386014e-08
143	0x33144ce7	3.4528878e-08
144	0xb372066d	-5.635086e-08
145	0x32119321	8.473564e-09
146	0xb3fc57cd	-1.1750635e-07
147	0xb1b88505	-5.3702274e-09
148	0x330440e1	3.0792652e-08
149	0x32d1111b	2.4338581e-08
150	0xb15b7344	-3.1934215e-09
151	0x34143e2b	1.380619e-07
152	0x338f700a	6.679336e-08
153	0x329e6b30	1.8442364e-08
154	0x32fd8473	2.9513307e-08
155	0xb436bfa4	-1.701979e-07
156	0x34832a8c	2.4431608e-07
157	0x345dcee1	2.0657491e-07
158	0xb48b50e3	-2.594962e-07
159	0x332a2d01	3.962214e-08
160	0xb2d6a415	-2.4987495e-08
161	0x33f09429	1.1202821e-07
162	0x3449ea01	1.8804714e-07
163	0xb3c1cd63	-9.0246225e-08
164	0x327398bd	1.417919e-08
165	0xb3c28b75	-9.059196e-08
166	0x338a0bd5	6.428278e-08
167	0xb45f1705	-2.0776868e-07
168	0xb2a18e75	-1.8807649e-08
169	0xb3060f74	-3.121336e-08
170	0xb3362f78	-4.241835e-08
171	0xb44eef47	-1.9272294e-07
172	0x3474bf81	2.279394e-07
173	0xb3d58d4b	-9.9442865e-08
174	0x34004367	1.194545e-07
175	0xb2b3b1ff	-2.0919286e-08
176	0x33864172	6.251766e-08
177	0xb4672dac	-2.1530167e-07
178	0x320dac6b	8.2464835e-09
179	0xb436b33a	-1.7015273e-07
180	0x340f12e2	1.3324782e-07
181	0x343c00b6	1.7509123e-07
182	0xb38171a0	-6.027699e-08
183	0xb490a141	-2.6939418e-07
184	0x33a22d71	7.5519786e-08
185	0xb3f1a851	-1.12530536e-07
186	0x34a60fbb	3.0931355e-07
187	0x345651ce	1.9960063e-07
188	0xb4bb0555	-3.4835344e-07
189	0xb383cd01	-6.137453e-08
190	0x34222b4c	1.5103177e-07
191	0x34208645	1.4950008e-07
192	0x342b11b7	1.593206e-07
193	0xb2f270e6	-2.8223848e-08
194	0xb325d3d0	-3.86097e-08
195	0xb42c7dd8	-1.606453e-07
196	0x32f33203	2.8311666e-08
197	0xb3ca43f0	-9.418716e-08
198	0xb3b59039	-8.454703e-08
199	0xb407a2c7	-1.2632073e-07
200	0xb30468b2	-3.0828865e-08
201	0xb308ef96	-3.188287e-08
202	0x339e3239	7.366584e-08
203	0xb2bdf8c8	-2.2115628e-08
204	0x3413e7d1	1.3774776e-07
205	0xb357d453	-5.0251696e-08
206	0x34436bad	1.8199962e-07
207	0xb3d7c4d0	-1.0047518e-07
208	0x33142bf2	3.4498903e-08
209	0xb3f6288f	-1.1462645e-07
210	0xb28ad227	-1.616088e-08
211	0x34527e31	1.9603682e-07
212	0x33015642	3.0113604e-08
213	0xb38ec141	-6.647543e-08
214	0x33048cae	3.0861592e-08
215	0xb331a0b8	-4.1357197e-08
216	0x330f10e2	3.3310137e-08
217	0xb189bbcc	-4.008575e-09
218	0x33936d8d	6.865148e-08
219	0x33775610	5.7587442e-08
220	0xb2d3f20c	-2.4673703e-08
221	0xb2ba0d51	-2.1659305e-08
222	0x33e9e72a	1.08919565e-07
223	0xb276d38c	-1.4367185e-08
224	0xb212fedf	-8.5562695e-09
225	0x326a1a8b	1.3626628e-08
226	0x330d50ff	3.2902786e-08
227	0xb3896fb7	-6.3998804e-08
228	0xb1ee855e	-6.9418737e-09
229	0xb2fa219b	-2.9119112e-08
230	0x31daadd3	6.3643966e-09
231	0xb3b105f8	-8.2432905e-08
232	0x3423229a	1.5193146e-07
233	0xb358a6b1	-5.0443024e-08
234	0x33e517c6	1.0667968e-07
235	0xafef0611	-4.3478157e-10
236	0x340fe0c4	1.3399682e-07
237	0xb3066a2c	-3.129587e-08
238	0x32803a58	1.4927693e-08
239	0xb2cbfefc	-2.3748264e-08
240	0xb48f0aa1	-2.664356e-07
241	0xb4e9d574	-4.355494e-07
242	0x351c56d9	5.824091e-07
243	0x34cd254d	3.8211365e-07
244	0xb5023350	-4.8503443e-07
245	0xb3f49982	-1.1390058e-07
246	0xb4902744	-2.685066e-07
247	0xb42309ed	-1.5184169e-07
248	0x355c38cc	8.2039037e-07
249	0x34d08619	3.8840588e-07
250	0xb4b7b3d3	-3.4217246e-07
251	0xb4184a9c	-1.4183246e-07
252	0xb51ee25f	-5.9189e-07
253	0xb505f51c	-4.990304e-07
254	0x34fe6947	4.7387786e-07
255	0x342d3a33	1.6133053e-07

exp_avg_sq f4 [30, 30]
0	0x27e6d9bc	6.407389e-15
1	0x290d379b	3.135652e-14
2	0x27846a6a	3.6752734e-15
3	0x28a9d7c0	1.8856336e-14
4	0x274b26f8	2.8193034e-15
5	0x28574bc5	1.1951327e-14
6	0x296f7fa3	5.3179368e-14
7	0x29463a56	4.401543e-14
8	0x296d06d4	5.2630494e-14
9	0x275c32e0	3.0558713e-15
10	0x27b9cfa7	5.157295e-15
11	0x28438a90	1.08547204e-14
12	0x2966ef9d	5.127809e-14
13	0x288374fb	1.4594654e-14
14	0x26a26c27	1.1270323e-15
15	0x28982a7f	1.689382e-14
16	0x27446ac4	2.7258342e-15
17	0x289a71b2	1.7146742e-14
18	0x2542c7ef	1.6894558e-16
19	0x277625ed	3.4159918e-15
20	0x26692dd5	8.090023e-16
21	0x27c03f63	5.335943e-15
22	0x267d8c12	8.796684e-16
23	0x26d1074a	1.4504264e-15
24	0x28a77d40	1.8595043e-14
25	0x27c0322b	5.3345097e-15
26	0x28a3f656	1.8203466e-14
27	0x2939e727	4.1278745e-14
28	0x25ac1621	2.985224e-16
29	0x28cb9fdf	2.260686e-14
30	0x2789b452	3.8220642e-15
31	0x28533b05	1.1725651e-14
32	0x278e1d1d	3.944448e-15
33	0x282883dc	9.354466e-15
34	0x272b1cd1	2.3746639e-15
35	0x25961823	2.6037208e-16
36	0x28b29498	1.9826412e-14
37	0x27ec28fb	6.554759e-15
38	0x27d31070	5.8582086e-15
39	0x2411c8df	3.1612007e-17
40	0x27beed0a	5.299259e-15
41	0x27020586	1.8044118e-15
42	0x28a2b311	1.806327e-14
43	0x26af694c	1.2171605e-15
44	0x2711cfe2	2.0235486e-15
45	0x27df6891	6.2008305e-15
46	0x2527442d	1.450804e-16
47	0x2543e4e6	1.6991108e-16
48	0x26a7a3ad	1.1632317e-15
49	0x2795d449	4.1585968e-15
50	0x253522cb	1.5711036e-16
51	0x2602c249	4.5366116e-16
52	0x2535467a	1.5723126e-16
53	0x24e09086	9.738935e-17
54	0x280e0be6	7.8851635e-15
55	0x24b840c8	7.9907024e-17
56	0x2829befc	9.422798e-15
57	0x269e77c7	1.0995918e-15
58	0x25c16b31	3.35528e-16
59	0x26907eea	1.0026407e-15
60	0x27b645d6	5.0590864e-15
61	0x28f6105a	2.7318578e-14
62	0x280a5b69	7.68036e-15
63	0x295150ac	4.6477294e-14
64	0x2883e657	1.4643816e-14
65	0x28869bf9	1.4944631e-14
66	0x29afee2c	7.8128774e-14
67	0x272e9b36	2.423149e-15
68	0x296e786b	5.2951062e-14
69	0x28c82fa3	2.222512e-14
70	0x28174f8a	8.399431e-15
71	0x2736cb7c	2.5367883e-15
72	0x27b417cc	4.9985837e-15
73	0x29b774a4	8.1470665e-14
74	0x270f3a27	1.987676e-15
75	0x2756d43d	2.981352e-15
76	0x29308d98	3.9202663e-14
77	0x288b2da1	1.5451888e-14
78	0x296198c9	5.0092556e-14
79	0x28ebdc24	2.6185712e-14
80	0x2721c02e	2.244742e-15
81	0x28bab81c	2.0729993e-14
82	0x2a9772a1	2.6902528e-13
83	0x29582960	4.7997522e-14
84	0x28f0166a	2.6655073e-14
85	0x2944b0b6	4.3674015e-14
86	0x28e84c08	2.5790147e-14
87	0x293c344e	4.1789753e-14
88	0x294b0c16	4.5085538e-14
89	0x27a2a2c6	4.514051e-15
90	0x27488ea9	2.7832912e-15
91	0x27571af9	2.9851866e-15
92	0x25b80e70	3.1928695e-16
93	0x274b2e08	2.8196863e-15
94	0x2623ff6c	5.6898147e-16
95	0x25ae3300	3.0218747e-16
96	0x27c62503	5.499617e-15
97	0x26b9d74a	1.2895308e-15
98	0x27fed6a9	7.0731897e-15
99	0x26c94a7d	1.3967367e-15
100	0x27809088	3.568384e-15
101	0x26dc826f	1.5300921e-15
102	0x27e0db01	6.2409934e-15
103	0x26041556	4.5825615e-16
104	0x2601a6e2	4.4982034e-16
105	0x23cd0a30	2.2230459e-17
106	0x276b37b9	3.2643009e-15
107	0x263a4cf8	6.4636025e-16
108	0x254b32ef	1.76247e-16
109	0x25c57445	3.425284e-16
110	0x264cd3ce	7.1063767e-16
111	0x26c4b638	1.3649623e-15
112	0x295ae312	4.8602676e-14
113	0x280a25cd	7.668736e-15
114	0x272a9b1f	2.367633e-15
115	0x25f590ae	4.2598764e-16
116	0x26fcd47b	1.7543606e-15
117	0x27b2c30f	4.9616408e-15
118	0x26148ce9	5.1538784e-16
119	0x265c34fc	7.639964e-16
120	0x27a78164	4.6492097e-15
121	0x2894069e	1.643417e-14
122	0x2550cfb4	1.8111497e-16
123	0x28d3c889	2.3512674e-14
124	0x2590b792	2.510441e-16
125	0x25514247	1.8150316e-16
126	0x288382f4	1.4600713e-14
127	0x2680eedd	8.946528e-16
128	0x26da19c1	1.5133769e-15
129	0x266b2e45	8.159471e-16
130	0x27bb865e	5.2048608e-15
131	0x255183eb	1.8172556e-16
132	0x27cec47f	5.7389527e-15
133	0x275882fb	3.0047026e-15
134	0x2537d1dd	1.5943824e-16
135	0x27317a8a	2.4630113e-15
136	0x2658ed80	7.5261927e-16
137	0x2623d4ca	5.684037e-16
138	0x25940049	2.56741e-16
139	0x26e8c682	1.615204e-15
140	0x25638e13	1.9737248e-16
141	0x26bd5246	1.313681e-15
142	0x282af94c	9.490953e-15
143	0x26b13e0a	1.2298658e-15
144	0x276fae50	3.3262408e-15
145	0x24ee2abc	1.0328844e-16
146	0x287b5f5e	1.3953978e-14
147	0x25642545	1.9788475e-16
148	0x269dbdaa	1.0945472e-15
149	0x26597b3b	7.5454007e-16
150	0x2617a7e5	5.261619e-16
151	0x28b06cc9	1.9587103e-14
152	0x27b4f665	5.0227178e-15
153	0x26742126	8.469943e-16
154	0x26b854c7	1.2790544e-15
155	0x2904f7a5	2.9524685e-14
156	0x29869912	5.977349e-14
157	0x294220b4	4.310502e-14
158	0x2998eb3a	6.790961e-14
159	0x26e7b3ff	1.6077633e-15
160	0x26a6d5f9	1.1576561e-15
161	0x28693c8c	1.2947227e-14
162	0x2921f6b1	3.5963152e-14
163	0x281be6dc	8.654288e-15
164	0x264bf15d	7.075688e-16
165	0x2814c145	8.257559e-15
166	0x279ce2ff	4.3544808e-15
167	0x2944f936	4.37369e-14
168	0x262953f9	5.874746e-16
169	0x26adff2d	1.2073452e-15
170	0x27222ea6	2.2507304e-15
171	0x2929d20f	3.7707735e-14
172	0x296a197c	5.1980542e-14
173	0x28347043	1.001635e-14
174	0x2884cb68	1.4743157e-14
175	0x26255611	5.7362516e-16
176	0x279d8732	4.3722833e-15
177	0x29533ee3	4.6905957e-14
178	0x2615d1e1	5.19792e-16
179	0x2904c755	2.948278e-14
180	0x28a3e08a	1.8194014e-14
181	0x290bf2b7	3.107472e-14
182	0x279409af	4.108875e-15
183	0x29a45306	7.297465e-14
184	0x27dae70e	6.0757665e-15
185	0x286caa5c	1.31375725e-14
186	0x29d78a0f	9.5718674e-14
187	0x29350f6f	4.020346e-14
188	0x2a0922be	1.2180098e-13
189	0x2788130f	3.7768246e-15
190	0x28d190f6	2.3266528e-14
191	0x28cc3ba9	2.2674423e-14
192	0x28e9010e	2.5868654e-14
193	0x26b0db86	1.2271955e-15
194	0x270b3d97	1.9323513e-15
195	0x28e8bc78	2.583891e-14
196	0x268cce8b	9.770435e-16
197	0x28287d28	9.353012e-15
198	0x280545ec	7.398145e-15
199	0x2891f2f8	1.6203605e-14
200	0x26c0fbb4	1.3390901e-15
201	0x26d79b7b	1.4960765e-15
202	0x27c44b4f	5.448258e-15
203	0x262bb543	5.95732e-16
204	0x28aea13a	1.9387802e-14
205	0x273bd4a1	2.606673e-15
206	0x2916ecb7	3.3512008e-14
207	0x283e5115	1.0564701e-14
208	0x26e5a227	1.5934019e-15
209	0x2874d23c	1.3590308e-14
210	0x25b1eb2a	3.086396e-16
211	0x292d623e	3.8498928e-14
212	0x268a6b2c	9.604723e-16
213	0x27a19009	4.484264e-15
214	0x268ee743	9.915913e-16
215	0x26fe39cc	1.7640456e-15
216	0x26a1476a	1.1190976e-15
217	0x2484c78f	5.758394e-17
218	0x27abe210	4.770713e-15
219	0x276f1ec7	3.3184597e-15
220	0x263d7aab	6.5738793e-16
221	0x2611982c	5.051321e-16
222	0x2856e444	1.1928884e-14
223	0x259b0b3b	2.6895824e-16
224	0x250acb76	1.2038527e-16
225	0x255fa91d	1.9399465e-16
226	0x269ea975	1.1009384e-15
227	0x27959ccb	4.1525803e-15
228	0x24abc1b5	7.448758e-17
229	0x267bf911	8.7420666e-16
230	0x24c28205	8.435435e-17
231	0x27f6d642	6.8511015e-15
232	0x28d001f3	2.3093484e-14
233	0x27382db8	2.5559914e-15
234	0x284de91b	1.1430333e-14
235	0x23304cfb	9.55728e-18
236	0x28a24301	1.8014671e-14
237	0x26953652	1.0353675e-15
238	0x259bd640	2.7033395e-16
239	0x2631fca9	6.175163e-16
240	0x299ff3e0	7.103324e-14
241	0x2a55d81e	1.8993181e-13
242	0x2abf186a	3.3945356e-13
243	0x2a248aac	1.4614238e-13
244	0x2a848351	2.353903e-13
245	0x286aa777	1.30259225e-14
246	0x29a25b34	7.2100664e-14
247	0x28d00c72	2.3098036e-14
248	0x2b3d827f	6.732739e-13
249	0x2a29e570	1.5089817e-13
250	0x2a03e460	1.1714371e-13
251	0x28b581e1	2.0151363e-14
252	0x2ac563ad	3.5063394e-13
253	0x2a8c4c7f	2.4922076e-13
254	0x2a7cfef9	2.2470558e-13
255	0x28ea8416	2.6036502e-14
