paper/Burgers/runs/normal_grid/normal_grid6model.pt (torch, 15625 bytes, 9 tensors)

func_approx.network.0.weight f4 [30, 2]
0	0x3c2afbfb	0.010436053
1	0xbeffee00	-0.49986267
2	0xbfce16a8	-1.6100664
3	0x3eec7399	0.46181944
4	0x3f05581b	0.52087563
5	0xbede4800	-0.43414307
6	0xbeae398c	-0.3402828
7	0x3e7ef14b	0.24896733
8	0xbd99ef26	-0.07516317
9	0x3f0417a4	0.5159857
10	0x3d541ad1	0.051783387
11	0xbc032f87	-0.008006937
12	0xbf3dfd85	-0.74214965
13	0x3e9f8207	0.3115389
14	0xbddcae94	-0.10775486
15	0x3e806f2e	0.25084823
16	0x3ea89404	0.32925427
17	0x3ebc46b5	0.36772695
18	0x3cdb4b0e	0.026769187
19	0xbe52d1ec	-0.20587891
20	0xbea167e1	-0.31524566
21	0x3f231263	0.6369993
22	0x3fcebf14	1.6152062
23	0xbe826814	-0.2547003
24	0x3f442e74	0.7663338
25	0x3f2dafb4	0.67846227
26	0x3e82dfd3	0.2556139
27	0x3eda6417	0.42654487
28	0x3f136867	0.5758118
29	0xbd978c79	-0.0739984
30	0x3ddfad7b	0.10921761
31	0x3f2d2452	0.67633545
32	0xbdf93c7e	-0.12169741
33	0x3eb0f0bc	0.34558666
34	0xbefb0d38	-0.49033523
35	0x3d1f4942	0.038888223
36	0x3ed55947	0.41669676
37	0x3ee9b111	0.45642903
38	0x3e97f41e	0.29678434
39	0x3ecff441	0.40616038
40	0xbe4b221f	-0.19837235
41	0x3f45d538	0.7727847
42	0x3ef6ddd5	0.4821612
43	0x3f21b444	0.6316569
44	0xbf41f20f	-0.7575998
45	0xbf0ee10f	-0.5581216
46	0xbf50f27a	-0.8161999
47	0x3dc46c86	0.09591012
48	0x3ef57e2e	0.4794783
49	0xbf173702	-0.5906831
50	0x3e021463	0.1270309
51	0x3e1e7674	0.15474874
52	0xbf4ced6c	-0.8004978
53	0x3e417c1d	0.18895002
54	0xbd99401e	-0.074829325
55	0xbedd53db	-0.4322804
56	0xbedc564c	-0.4303459
57	0x3f13e7b7	0.57775444
58	0xbd22f410	-0.039783537
59	0xbe3ec61e	-0.18630263

func_approx.network.0.bias f4 [30]
0	0xbe00a7b8	-0.1256398
1	0xbd94de40	-0.07268953
2	0xbe175b12	-0.14780834
3	0xbebda802	-0.37042242
4	0x3e63a034	0.22229081
5	0x3aa094a9	0.0012251335
6	0xbf0dc98c	-0.5538566
7	0xbea474e2	-0.32120425
8	0xbeb759f4	-0.35810816
9	0xbe80dad6	-0.2516696
10	0x3d0eaa45	0.03483035
11	0x3e11eb98	0.14250028
12	0xbf34a1fe	-0.7055968
13	0xbe8c3c78	-0.27389884
14	0x3ee228c2	0.4417172
15	0xbf0f0f33	-0.5588257
16	0xbf039946	-0.5140575
17	0x3e235891	0.15951754
18	0xbdddcad8	-0.10829705
19	0xbe018ee1	-0.1265216
20	0x3edeee47	0.43541166
21	0xbf5e62cf	-0.8686952
22	0xbe45f706	-0.19332513
23	0x3ef4c167	0.47803804
24	0xbefcf2cd	-0.49403992
25	0xbe0fa75b	-0.14028685
26	0x3e78afc2	0.24285796
27	0xbebaef00	-0.36510468
28	0xbef6256f	-0.48075435
29	0xbed493aa	-0.4151891

func_approx.network.2.weight f4 [30, 30]
0	0xbe6f1165	-0.23346479
1	0xbd9fbd2c	-0.077997535
2	0xbdf0db4c	-0.117605776
3	0xbe2378d1	-0.15964057
4	0xbced8d39	-0.028998004
5	0x3d746507	0.05966666
6	0x3e40de11	0.18834712
7	0x3e6a6336	0.22889408
8	0x3e75aa6b	0.2399079
9	0xbcacbbf3	-0.021085715
10	0x3e4beaf6	0.19913849
11	0xbda3c7f8	-0.079971254
12	0xbde0c864	-0.109757215
13	0x3e178f92	0.14800861
14	0x3d8ee0b1	0.0697645
15	0x3e768343	0.2407351
16	0x3df491d3	0.11941876
17	0x3c42ca6a	0.01188908
18	0x3e26d0b8	0.16290557
19	0x3e2787ee	0.16360447
20	0xbd497dc3	-0.0491922
21	0x3e9def8a	0.30846816
22	0x3d87b847	0.06626945
23	0xbc81ffee	-0.015869107
24	0xbd759614	-0.05995758
25	0x3e38a524	0.18031746
26	0xbd0b60b9	-0.03402779
27	0x3c13eead	0.009029073
28	0x3e618bd7	0.22026001
29	0xbcad4d85	-0.021155128
30	0x3d026c2e	0.03184145
31	0xbc8ae182	-0.016953234
32	0xbdbd62bc	-0.09247348
33	0x3c887731	0.016658397
34	0x3de80f39	0.113310285
35	0xbe0b1e90	-0.13585877
36	0x3e3f23f9	0.18666066
37	0xbcd82ec6	-0.02638949
38	0x3e9512eb	0.29115996
39	0xbdf6272d	-0.12019191
40	0x3e57084e	0.20999262
41	0xbddb3681	-0.10703755
42	0x3dacf15a	0.08444472
43	0x3e34469e	0.17605063
44	0x3e0451b7	0.12921797
45	0x3e3cbc92	0.18431309
46	0x3df4242c	0.11920962
47	0xbd832e4a	-0.06405313
48	0x3e21f1ac	0.15814847
49	0x3de14ee5	0.11001376
50	0xbc2804b8	-0.010255031
51	0x3eae8760	0.34087658
52	0xbdbe4243	-0.09289982
53	0xbe29a9c2	-0.16568664
54	0xbe0930e2	-0.13397554
55	0x3e3ea3b3	0.18617134
56	0x3d29d151	0.041459385
57	0x3dac1623	0.0840266
58	0x3e6d9f1a	0.23205224
59	0xbe20d23c	-0.15705198
60	0x3e77f4e9	0.2421452
61	0x3c9d054c	0.019167565
62	0x3df51b1e	0.11968063
63	0xbe00279b	-0.12515108
64	0xbe0aaa16	-0.13541445
65	0x3da79aad	0.08183799
66	0xbd012ee7	-0.03153887
67	0xbdc493d7	-0.09598511
68	0xbe510611	-0.2041247
69	0x3e2a596c	0.16635674
70	0xbd0bab07	-0.03409865
71	0x3cfaedda	0.030630995
72	0xbb7b4834	-0.0038342597
73	0x3d501b3c	0.050807223
74	0xbdc2a396	-0.09503858
75	0xbdd46e61	-0.103726156
76	0x3df54838	0.11976665
77	0xbdc80f36	-0.09768526
78	0xbe40116e	-0.18756649
79	0xbe2ef473	-0.17085437
80	0x3df666fc	0.120313615
81	0x3cd402c6	0.025880229
82	0x3e154295	0.1457618
83	0xbd9ad453	-0.07560029
84	0x3cadb115	0.021202603
85	0xbe22a206	-0.1588212
86	0x3d0961aa	0.033540405
87	0xba090860	-0.0005227383
88	0x3dd12195	0.102114834
89	0xbd979b2a	-0.07402642
90	0xbd115901	-0.03548527
91	0x3e6ff21a	0.23432198
92	0xbde7de53	-0.11321702
93	0xbdaa3fa1	-0.083129175
94	0x3de98cc6	0.114038035
95	0x3d358b86	0.044322513
96	0xbe4c38d3	-0.19943552
97	0xbdde1bb2	-0.10845126
98	0xbeaf6772	-0.3425861
99	0x3ddf3545	0.10898832
100	0xbe6290e4	-0.22125584
101	0x3d980a4f	0.07423841
102	0xbefdfa14	-0.49604857
103	0xbecdfd04	-0.40232098
104	0xbcd0c461	-0.025484266
105	0xbea252b9	-0.31703737
106	0xbddbea59	-0.10738058
107	0x3e2f6fb6	0.17132458
108	0xbe3190e1	-0.17340423
109	0xbe90b4fe	-0.28263086
110	0xbd97b679	-0.07407851
111	0xbecf4ddf	-0.40489098
112	0x3da78c77	0.081810884
113	0x3de772bf	0.11301183
114	0x3e4b2a10	0.19840264
115	0xbe62b2b2	-0.2213848
116	0x3e4d74ba	0.20064059
117	0x3acbf4a4	0.001556058
118	0x3e26b0bf	0.16278361
119	0xbe46130e	-0.19343206
120	0xbe6632f0	-0.22480369
121	0x3f04edeb	0.51925534
122	0xbe2af447	-0.16694747
123	0x3ea50cde	0.3223638
124	0x3e286d39	0.16447915
125	0x3da600b3	0.08105602
126	0x3e9d8d27	0.30771753
127	0x3e9360ad	0.28784695
128	0x3df7eb4e	0.12105428
129	0xbe5834d8	-0.21113908
130	0x3e7db73a	0.24776927
131	0xbea3ed6f	-0.32017085
132	0xbe1d659e	-0.15370795
133	0x3de75a88	0.11296564
134	0xbe34172d	-0.17586966
135	0x3eb54e44	0.35411274
136	0x3ea40c90	0.32040834
137	0x3e954c6b	0.29159865
138	0xbe277eb9	-0.16356935
139	0x3caacd61	0.020849885
140	0x3e4e9d72	0.20177248
141	0x3e2e093b	0.16995709
142	0x3e678cfa	0.22612372
143	0x3e2e6813	0.17031889
144	0xbe6b22a0	-0.22962427
145	0xbd3d7d00	-0.046261787
146	0x3e9437f3	0.28948936
147	0x3d36583b	0.044517737
148	0x3e08b53d	0.13350387
149	0xbe383e23	-0.17992453
150	0x3e564a02	0.20926669
151	0x3ca94a1d	0.020665223
152	0x3e4cbda1	0.19994213
153	0xbe1f8771	-0.1557901
154	0xbdfa7a18	-0.12230319
155	0x3ce31c2b	0.027723392
156	0xbdc51ec3	-0.09625008
157	0x3da46001	0.08026124
158	0x3d738a1d	0.059457887
159	0x3e358954	0.17728168
160	0xbd80928d	-0.06277952
161	0xbe2b7ece	-0.16747591
162	0xbd82e820	-0.063919306
163	0xbcb69b6e	-0.022290912
164	0xbd3fcb26	-0.046824597
165	0xbd0e4cd7	-0.03474125
166	0xbd993ab9	-0.074819036
167	0x3df60099	0.12011833
168	0x3de552c2	0.111974254
169	0x3dcdf0b5	0.10055677
170	0x3da0662e	0.07831989
171	0xbe5693ad	-0.20954771
172	0xbc4fe8f0	-0.012689814
173	0xbda3be6f	-0.07995307
174	0x3e20b631	0.156945
175	0xbd3dac2d	-0.046306778
176	0x3e00177c	0.12508959
177	0x3dce6271	0.1007737
178	0xbdf2c68c	-0.11854276
179	0x3d32680d	0.04355626
180	0xbdd7c455	-0.10535494
181	0xbd5e60d0	-0.054291546
182	0xbe004bf8	-0.1252898
183	0x3ccebe9c	0.025237374
184	0x3e6867a4	0.22695786
185	0x3d85fdc4	0.065425426
186	0xbdf2ea10	-0.1186105
187	0x3e537066	0.20648345
188	0x3d40a5de	0.047033183
189	0x3e3867d1	0.18008353
190	0x3cc999a9	0.024609404
191	0x3e4cac41	0.19987585
192	0x3e41e9f2	0.189369
193	0x3d836841	0.06416369
194	0x3dc6749a	0.09690209
195	0x3e6504e8	0.22365153
196	0xbdd4edec	-0.103969425
197	0x3d0dbe14	0.0346051
198	0x3e509c3e	0.20372102
199	0x3d85da86	0.06535821
200	0x3e6d3435	0.23164447
201	0x3e738231	0.23780133
202	0xbe3d9a43	-0.18515877
203	0x3d72cb00	0.059275627
204	0xbe82e0b7	-0.2556207
205	0x3e5377dd	0.20651193
206	0xbe38b0f2	-0.1803625
207	0xbdb41a39	-0.08794064
208	0x3d2c40f0	0.042054117
209	0xbe1acb70	-0.15116668
210	0x3dcd4cbf	0.10024404
211	0x3de9b8e2	0.11412217
212	0xbdf92e5f	-0.12167048
213	0x3d0e4493	0.034733366
214	0xbe5ed156	-0.21759543
215	0xbdc04028	-0.09387237
216	0x3db65d99	0.08904571
217	0x3d8d1c60	0.06890178
218	0xbecd7c16	-0.40133733
219	0xbdb1ca89	-0.08681209
220	0x3db96245	0.090519466
221	0xbe200dce	-0.15630266
222	0xbf094a38	-0.53628874
223	0xbebb1804	-0.3654176
224	0xbdab6e31	-0.08370627
225	0xbebdc8f6	-0.37067384
226	0x3ca7c6f5	0.020480612
227	0x3f11960e	0.5686959
228	0xbd863dea	-0.06554778
229	0xbeaaad65	-0.33335415
230	0x3e38cf71	0.18047883
231	0xbf1cf499	-0.61310726
232	0xbd0feabb	-0.035135966
233	0x3ec6186a	0.386905
234	0xbc15a173	-0.009132731
235	0xbe332270	-0.17493606
236	0x3ebeaacb	0.3723968
237	0xbdbc2d31	-0.09188307
238	0xbe1df924	-0.15427071
239	0x3d134800	0.035957336
240	0xbdec614b	-0.11541995
241	0xbe0c1245	-0.13678844
242	0x3e029d35	0.12755282
243	0xbd2759bb	-0.040857058
244	0x3ca7eb8e	0.020498063
245	0xbe33d84a	-0.17562976
246	0x3c82cb23	0.015966004
247	0x3e03e9ab	0.12882106
248	0xbd3aaead	-0.04557674
249	0x3ca6a2a4	0.020341225
250	0xbe1ebdc6	-0.1550208
251	0xbdef7a48	-0.11693245
252	0x3d9b236f	0.07575118
253	0xbe62bf65	-0.22143324
254	0x3b942cf7	0.004521962
255	0xbe5d9432	-0.21638563

func_approx.network.2.bias f4 [30]
0	0x3e1e90c0	0.15484905
1	0xbe097a0a	-0.1342546
2	0xbdcd0e4e	-0.10012494
3	0x3e4848d7	0.19559036
4	0xbdc2d08a	-0.09512432
5	0x3c005e86	0.007835036
6	0xbe26f8da	-0.16305867
7	0x3cbb035f	0.022828756
8	0xbd84ad6c	-0.0647839
9	0xbd2f35a8	-0.04277578
10	0x3d85db40	0.06535959
11	0x3d6f126e	0.058367185
12	0xbdd74e0a	-0.10512932
13	0x3dfeedd2	0.124477044
14	0x3deb69bf	0.11494779
15	0xbe31e829	-0.17373718
16	0x3dd0500b	0.10171517
17	0xbe128182	-0.14307216
18	0x3d8aa6b8	0.0677008
19	0x3b47ad1d	0.0030468174
20	0xbc95eb6d	-0.018300736
21	0xbd93e11f	-0.07220673
22	0x3e1290e5	0.14313085
23	0x3d97f681	0.07420064
24	0xbd9077cd	-0.070541
25	0xbd2eddaa	-0.042691864
26	0x3e1f163a	0.15535823
27	0x3e4789d6	0.19486174
28	0xbdb2e7cd	-0.08735619
29	0xbe25e038	-0.16198814

func_approx.network.4.weight f4 [30, 30]
0	0xbe0f5a4a	-0.13999286
1	0xbd9cb26b	-0.07651218
2	0xbe396f66	-0.18108901
3	0xbe11b4dd	-0.1422915
4	0xbdc4161d	-0.0957453
5	0x3c4dfa9d	0.012571958
6	0x3e3083be	0.17237756
7	0x3e3271da	0.17426243
8	0xbdaf190d	-0.085497
9	0xbe0aa4aa	-0.13539377
10	0xbe002279	-0.1251315
11	0xbe4030b1	-0.18768574
12	0x3c98b18b	0.018639347
13	0xbe186796	-0.14883265
14	0xbd5a0bd6	-0.053233944
15	0x3d0d6de7	0.03452864
16	0xbdff21d5	-0.12457625
17	0xbde8a5ea	-0.113597706
18	0x3d9899cf	0.07451212
19	0x3a1aef54	0.00059102965
20	0xbe3569a4	-0.1771608
21	0x3e3e6fd0	0.1859734
22	0xbd0f925a	-0.03505168
23	0xbc67fa6c	-0.014158826
24	0x3e06b332	0.13154295
25	0x3d96543d	0.07340286
26	0xbe180493	-0.14845495
27	0x3e08d8fd	0.13364024
28	0xbd5f8880	-0.054573536
29	0x3e6175c6	0.22017583
30	0x3b74f0c2	0.0037374948
31	0x3d19f14c	0.037583634
32	0x3dcbd6bb	0.09953066
33	0xbe123812	-0.14279202
34	0x3d9a44c3	0.075326465
35	0x3e1b95d5	0.15193875
36	0xbdb40ad0	-0.08791125
37	0x3bed687b	0.007245121
38	0x3e45733b	0.19282238
39	0xbe0ac35b	-0.13551085
40	0xbe56b56d	-0.20967646
41	0x3dd6f647	0.104961924
42	0x3cd5716a	0.026055057
43	0x3d270501	0.040776256
44	0x3de76ab6	0.1129965
45	0x3cbf0577	0.023318036
46	0x3e3c0e9d	0.1836495
47	0xbe20363e	-0.15645692
48	0xbe01c2ba	-0.12671939
49	0x3d0e21cd	0.034700204
50	0x3e364cb3	0.17802696
51	0xbe30d35f	-0.17268132
52	0x3cc2b1cf	0.023766426
53	0xbbd6a6bb	-0.0065506375
54	0xbd8478e4	-0.064683706
55	0xbe3ff9bd	-0.18747611
56	0x3e15a09a	0.14612046
57	0x3da0372e	0.07823025
58	0x3c3d33de	0.011548011
59	0x3e0f758b	0.14009683
60	0x3e18d1ca	0.14923778
61	0xbdff5bd6	-0.12468688
62	0xbe04e3ff	-0.12977599
63	0x3d72d8be	0.059288733
64	0x3c90e386	0.017686617
65	0xbdc8fe5b	-0.098141395
66	0xbd100187	-0.035157707
67	0xbe450af8	-0.19242465
68	0x3e0edd8a	0.13951698
69	0xbcadf222	-0.021233622
70	0xbd335d99	-0.043790434
71	0xbb569224	-0.0032740915
72	0xbdff251b	-0.12458249
73	0xbe272935	-0.16324313
74	0x3dc8527b	0.09781357
75	0xbdb225ff	-0.086986534
76	0xbdd77241	-0.10519839
77	0x3e0a894b	0.13528936
78	0x3de93559	0.113871284
79	0xbd25452c	-0.04034917
80	0xbd9f8c05	-0.077903785
81	0x3dc46ece	0.09591447
82	0xbcf67326	-0.030084204
83	0xbcefbb0c	-0.029263996
84	0xbd292ce6	-0.041302584
85	0xbc371002	-0.01117325
86	0x3e009792	0.1255782
87	0xbd05e807	-0.03269198
88	0xbe2c211d	-0.16809507
89	0xbe1e8a18	-0.15482366
90	0x3dae2902	0.08503915
91	0x3dd3b5db	0.103374206
92	0xbe112c62	-0.14177087
93	0xbe2dd3c5	-0.16975315
94	0xbd6a83cb	-0.057254594
95	0xbd70072d	-0.058600593
96	0xbd352bca	-0.044231214
97	0x3e3c3e58	0.18383157
98	0xbd8eee6e	-0.069790706
99	0x3d5a3f2b	0.053282898
100	0x3d5fd59a	0.054647066
101	0xbd153218	-0.036424726
102	0x3d195bb1	0.03744096
103	0x3db79154	0.08963266
104	0xbd39695c	-0.045266494
105	0xbd713b60	-0.058894515
106	0x3dce4efd	0.100736596
107	0xbc0f0e91	-0.0087315
108	0xbe312380	-0.17298698
109	0x3da2268a	0.07917507
110	0xbdcab870	-0.0989846
111	0x3de82dd7	0.11336868
112	0x3e831921	0.2560511
113	0xbd91dd04	-0.071222335
114	0xbc333928	-0.01093892
115	0x3db2c060	0.08728099
116	0xbd82e1bf	-0.06390714
117	0xbe380c19	-0.17973365
118	0x3d29f343	0.041491758
119	0x3eb8d4be	0.3609981
120	0x3d0ba38f	0.03409153
121	0xbe19eed9	-0.1503252
122	0x3e25901c	0.16168255
123	0xbd4c740c	-0.04991536
124	0xbe5b932c	-0.2144286
125	0x3d428cf7	0.047497716
126	0xbde2dec9	-0.11077649
127	0x3efadf83	0.4899865
128	0x3e1dee1a	0.1542286
129	0xbe5ae9b2	-0.2137821
130	0x3d9af295	0.075658
131	0x3c2157c3	0.009847584
132	0xbd5b52b2	-0.05354566
133	0x3ddf57ce	0.10905419
134	0x3e030a6a	0.12796941
135	0xbe54dc90	-0.20787263
136	0x3e1c20f9	0.15246953
137	0x3f0c58d4	0.5482304
138	0xbe3eb81e	-0.18624923
139	0x3e043574	0.12911016
140	0x3d32f17b	0.043687325
141	0x3da81c20	0.082084894
142	0x3d187108	0.03721717
143	0x3d403be6	0.046932124
144	0x3df40c46	0.119164035
145	0x3e14da88	0.14536488
146	0x3d63c54b	0.055608075
147	0x3e05a784	0.13052183
148	0xbcfb1823	-0.030651158
149	0x3dcaba67	0.09898835
150	0x3d92896a	0.07155116
151	0x3bd50e77	0.0065019685
152	0xbdf1a2ec	-0.11798653
153	0x3e5ccc3e	0.21562287
154	0xbcf390da	-0.029732157
155	0x3d6fbe5c	0.05853115
156	0xbc52ea10	-0.012873188
157	0x3d19b688	0.03752759
158	0xbe5f2824	-0.21792656
159	0xbc4f1125	-0.012638365
160	0xbdcdb957	-0.100451164
161	0xbe1faf17	-0.15594135
162	0x3dc4cd57	0.09609478
163	0xbd602881	-0.054726128
164	0x3e2a23ab	0.16615169
165	0x3e254f68	0.16143572
166	0xbb3b349c	-0.0028565293
167	0x3b8d1769	0.004305769
168	0x3db76168	0.08954126
169	0x3dbc1f16	0.09185617
170	0xbc11c6d6	-0.008897504
171	0xbde859d6	-0.1134526
172	0x3e0f2cee	0.13981983
173	0x3b9dc2e6	0.0048144935
174	0xbdfbf4fc	-0.123025864
175	0x3da240be	0.07922505
176	0xbd9d0dfe	-0.076686844
177	0xbd57af34	-0.05265732
178	0x3e29c5f9	0.16579427
179	0x3d7e37d9	0.06206498
180	0x3d1bf309	0.038073573
181	0xbb27ce29	-0.0025605059
182	0xbd2780ff	-0.040894505
183	0xbd898122	-0.06714083
184	0xbe536af0	-0.20646262
185	0x3e45c3dc	0.19312996
186	0x3dcf7d19	0.10131282
187	0xbdfb769b	-0.122784816
188	0xbd8a3f2c	-0.0675033
189	0x3dc4671b	0.09589978
190	0xbbc38970	-0.0059673116
191	0x3ddc3bb6	0.107535765
192	0xbe4315e6	-0.19051322
193	0x3bafb51e	0.005362167
194	0x3d80dcd9	0.06292123
195	0x3df3ceee	0.11904703
196	0x3c3bae07	0.011455066
197	0xbe784643	-0.24245553
198	0x3e1bb65c	0.15206283
199	0x3e22d0cb	0.1589996
200	0x3d85e252	0.06537308
201	0x3dc970f8	0.09836
202	0x3d861e16	0.06548707
203	0xbd70fcf3	-0.05883498
204	0x3e195ff5	0.14978011
205	0x3d944f4a	0.07241686
206	0x3df6c432	0.1204914
207	0xbe0f2bb9	-0.13981523
208	0x3e12dca2	0.14341977
209	0x3c9f8a9c	0.019475274
210	0x3e785fce	0.24255297
211	0xbd8d68e0	-0.06904769
212	0xbda4900b	-0.080352865
213	0xbe0b7bdd	-0.13621469
214	0xbde86a61	-0.11348415
215	0xbe37df6c	-0.17956322
216	0x3e9f2476	0.31082505
217	0x3dbc24e4	0.09186724
218	0xbda6583b	-0.081222974
219	0xbe23d56d	-0.15999384
220	0xbe172c33	-0.14762954
221	0xbc5297e3	-0.012853595
222	0xbc999ee2	-0.018752519
223	0xbe0959cf	-0.13413166
224	0xbe0634e7	-0.13106118
225	0xbcea4c11	-0.028600724
226	0xbc821ad8	-0.01588194
227	0x3e66c564	0.22536236
228	0xbc17e908	-0.009271868
229	0x3e34a009	0.17639174
230	0xbe2ae7f3	-0.16690044
231	0xbd7846e9	-0.0606145
232	0x3e3bd7a0	0.18343973
233	0x3e284dcb	0.16435926
234	0xbe0b2a49	-0.1359035
235	0x3e2047de	0.15652415
236	0xbe643963	-0.22287516
237	0xbe30c96d	-0.17264338
238	0x3c366590	0.011132613
239	0x3e6155f4	0.22005445
240	0xbdeaccea	-0.114648655
241	0xbbd82c54	-0.006597081
242	0x3e4600cb	0.1933624
243	0x3e4012b6	0.18757138
244	0x3c9f7e5b	0.01946943
245	0xbca55877	-0.020183785
246	0xbe6165e3	-0.22011523
247	0x3d245f6c	0.040130064
248	0xbb9fbbea	-0.004874696
249	0xbd59f7d0	-0.053214848
250	0x3d5d97bc	0.054099783
251	0x3e0d8f13	0.1382411
252	0x3c812f3c	0.015769593
253	0xbd10a162	-0.035310157
254	0xbdf13e59	-0.1177947
255	0xbd6b2b9f	-0.057414647

func_approx.network.4.bias f4 [30]
0	0x3e0c2a03	0.13687901
1	0xbd60c76f	-0.054877695
2	0x3dedaf1e	0.116056666
3	0xbdc76504	-0.09736064
4	0xbd73d91f	-0.059533235
5	0x3d9ae8eb	0.07563957
6	0x3cc9f03d	0.024650687
7	0xbde79547	-0.11307769
8	0x3e0d6693	0.1380866
9	0xbce74cef	-0.028234927
10	0x39970f83	0.00028812521
11	0x3c4bbf30	0.012435719
12	0x3e165ff6	0.14685044
13	0x3d5f4aac	0.054514572
14	0x3d2e4b02	0.042552
15	0xbce76d25	-0.028250286
16	0x3e1e9712	0.15487316
17	0x3d6ba585	0.0575309
18	0x3b772d28	0.0037716124
19	0xbd34cba6	-0.044139527
20	0xbe32c9dc	-0.17459816
21	0x3dd22049	0.10260064
22	0xbe29c86d	-0.16580363
23	0xbe241814	-0.1602481
24	0x3c7b14fc	0.015324827
25	0xbce4cabb	-0.0279287
26	0xbe019753	-0.12655382
27	0x3e1383fd	0.14405818
28	0xbbc36edc	-0.005964143
29	0xbdbb540a	-0.091468886

func_approx.network.6.weight f4 [30, 30]
0	0x3e1a66c3	0.15078263
1	0x3d1c0c71	0.038097803
2	0xbe05bf96	-0.13061365
3	0x3d099533	0.033589553
4	0xbdaf4adb	-0.085591994
5	0xbd80a80a	-0.06282051
6	0x3c6323fa	0.013863558
7	0x3ddd6455	0.108101524
8	0xbdec1f32	-0.115293875
9	0xbda280ec	-0.07934746
10	0xbdf8a18a	-0.12140186
11	0xbe8bd836	-0.27313393
12	0xbcae85dc	-0.021304063
13	0xbd4075ba	-0.046987273
14	0x3dfa468d	0.12220488
15	0x3e3807ce	0.17971727
16	0x3e313c58	0.17308176
17	0x3c805628	0.015666083
18	0xbe1ae9ff	-0.15128325
19	0x3cdd64b3	0.027025556
20	0xbde53103	-0.11190989
21	0xbcfe9e86	-0.03108145
22	0x3df2ab68	0.118490994
23	0x3cc5c5a3	0.024142092
24	0x3d77ce74	0.060499623
25	0x3e61670c	0.22011966
26	0x3dd7bdcc	0.10534248
27	0xbb651c75	-0.0034959589
28	0x3dc96c55	0.09835116
29	0x3d1e04d3	0.03857882
30	0xbdca8585	-0.09888748
31	0x3bdef7f6	0.0068044616
32	0x3daea63c	0.085278004
33	0x3deb09d5	0.11476485
34	0x3e794475	0.2434252
35	0xbd9afa0e	-0.075672254
36	0x3c1bc87b	0.0095082475
37	0x3e6bf10d	0.23041172
38	0xbe208eac	-0.15679425
39	0xbdeb8c54	-0.11501375
40	0x3e2bc9a3	0.16776137
41	0xbdb5663b	-0.088573895
42	0x3e0df771	0.13863923
43	0xbda5d2e6	-0.08096866
44	0x3e12f601	0.14351656
45	0xbddd1b84	-0.10796264
46	0xbdb5c161	-0.08874775
47	0xbb90e133	-0.004421377
48	0xbe128296	-0.14307627
49	0x3d9b6cd9	0.075891204
50	0xbc253d7e	-0.010085462
51	0x3e30518e	0.1721861
52	0xbd416eb1	-0.047224704
53	0x3d6ac33d	0.0573151
54	0x3c8414ce	0.016123202
55	0x3e6e15f4	0.23250562
56	0x3bcd4475	0.006264264
57	0x3e02b60a	0.12764755
58	0xbe4e6681	-0.2015629
59	0xbe57fc0c	-0.21092242
60	0x3e166fc0	0.14691067
61	0x3d9731af	0.07382523
62	0xbdad436b	-0.084601246
63	0x3e5406ae	0.20705673
64	0x3e07bf09	0.13256468
65	0xbd7e1aef	-0.062037405
66	0x3d1ff378	0.03905055
67	0x3e6f20c6	0.23352346
68	0xbdd1a1d1	-0.10235942
69	0x3dfd36e7	0.123639874
70	0xbc8f0377	-0.017457707
71	0xbed184e2	-0.40921694
72	0xbe1a2fb9	-0.15057267
73	0xbdcea497	-0.10089987
74	0x3e65a7ac	0.22427243
75	0x3e03aa7f	0.12858008
76	0x3e2fa069	0.17151035
77	0x3d6af4d4	0.057362393
78	0xbc6b077a	-0.014345044
79	0xbd45374c	-0.04814844
80	0xbdcade5c	-0.09905693
81	0xbd8bd5ae	-0.068278655
82	0xbdad6daa	-0.084681824
83	0x3e3a7d16	0.18211779
84	0xbd5cffb6	-0.053954802
85	0x3d3d1bb4	0.046168998
86	0x3d08ea2f	0.03342646
87	0x3e356265	0.17713316
88	0xbdb6e656	-0.08930652
89	0x3ca8ebb3	0.020620203
90	0xbe239532	-0.15974882
91	0xbe14397b	-0.14475052
92	0xbd4ff1d0	-0.05076772
93	0x3d047def	0.032346662
94	0x3da54700	0.08070183
95	0x3cd6d69c	0.02622538
96	0x3e1c9996	0.15292963
97	0xbe210b89	-0.15727057
98	0x3dbda888	0.092606604
99	0x3e20be15	0.1569751
100	0xbdfea243	-0.12433293
101	0x3e8943a0	0.26809406
102	0xbe11143e	-0.14167878
103	0x3e1786d6	0.1479753
104	0x3d9d1b45	0.07671217
105	0x3dc0ead7	0.09419792
106	0xbcecc3ff	-0.028902052
107	0x3caa3e22	0.02078158
108	0xbdea0b4d	-0.11427937
109	0x3ddb6d3d	0.10714195
110	0xbd58dae6	-0.052943133
111	0xbd12689a	-0.035744287
112	0x3c455025	0.012043034
113	0x3dbd6b25	0.09248952
114	0xbda113c7	-0.078651
115	0xbe3f5131	-0.18683316
116	0xbd52e0eb	-0.05148403
117	0x3cd0dc92	0.025495801
118	0x3da3c567	0.07996636
119	0xbc197689	-0.00936664
120	0x3d7b942d	0.06142061
121	0xbd198475	-0.037479836
122	0x3e1068b0	0.14102435
123	0xbd325ce6	-0.043545626
124	0x3e68505d	0.22686906
125	0x3d341242	0.043962725
126	0x3dcb8d69	0.09939081
127	0x3e06608f	0.13122772
128	0xbe42fdec	-0.19042176
129	0x3dff0989	0.124529906
130	0xbcf043e2	-0.029329244
131	0xbe9ee427	-0.3103344
132	0x3d94f045	0.0727239
133	0x3acafb6f	0.001548631
134	0xbd5a2fad	-0.053268123
135	0xbce4491b	-0.02786689
136	0x3e2cd92e	0.16879722
137	0xbe606bb8	-0.21916091
138	0x3ca9ad78	0.0207126
139	0x3d97eac1	0.07417823
140	0xbdba95af	-0.09110581
141	0x3d934b0b	0.07192048
142	0xbe2cf340	-0.16889668
143	0xba3f9390	-0.00073080603
144	0xbd3466ad	-0.04404323
145	0x3e1b0a43	0.15140633
146	0xbd1bdba0	-0.038051248
147	0xbe17e7b1	-0.14834477
148	0xbdb9189b	-0.09037896
149	0x3d887041	0.06662036
150	0xbe0a5217	-0.13507877
151	0x3e36f77b	0.17867844
152	0x3dc1271a	0.09431286
153	0xbd9d96b6	-0.076947615
154	0xbd89d946	-0.06730895
155	0x3de67392	0.11252512
156	0x3ca29431	0.019846054
157	0xbcdddcd3	-0.027082836
158	0x3d638939	0.055550788
159	0x3cd5c2dd	0.026093895
160	0xbe409e9c	-0.18810505
161	0x3d636c83	0.055523407
162	0x3e3264c0	0.17421246
163	0x3e1dd212	0.15412167
164	0xbc47951e	-0.012181548
165	0x3df0f434	0.11765328
166	0xbdac6a86	-0.08418755
167	0x3dcf7a31	0.10130728
168	0xbda77a12	-0.0817758
169	0x3d85ef2b	0.06539758
170	0x3d617579	0.05504367
171	0x3da10cfb	0.07863804
172	0xbcc149b6	-0.023594718
173	0x3e00a5a7	0.12563191
174	0x3dece8fe	0.11567877
175	0x3d163bf2	0.036678262
176	0xbd964e92	-0.07339205
177	0xbcc4a0a7	-0.024002386
178	0x3cbe88e3	0.023258632
179	0xbd41bffc	-0.04730223
180	0xbc4d55c0	-0.012532651
181	0x3e35d90e	0.17758581
182	0x3dc9aa2c	0.09846911
183	0xbe022e15	-0.12712891
184	0x3c9fcc5a	0.019506622
185	0xbd9586e2	-0.073011175
186	0x3e377fe6	0.17919883
187	0xbe857857	-0.26068375
188	0x3dd44274	0.103642374
189	0xbe0f9b89	-0.14024176
190	0x3cbb905f	0.02289599
191	0x3e9ad39c	0.3023957
192	0x3e16ce38	0.14727104
193	0xbb2e3e7c	-0.0026587537
194	0xbcdb711b	-0.026787331
195	0x3baca8cb	0.005269145
196	0xbdb10d1c	-0.086450785
197	0x3e5cea21	0.21573688
198	0x3e13ab31	0.14420773
199	0xbba8cea2	-0.0051515857
200	0xbde7fae6	-0.11327152
201	0x3e02f349	0.12788118
202	0xbde3f146	-0.11130004
203	0xbe12c3f7	-0.14332567
204	0xbcbfa554	-0.023394264
205	0xbd9c601c	-0.07635519
206	0x3dd05275	0.101719774
207	0x3d5a89ac	0.05335395
208	0x3e2b3d1e	0.16722533
209	0x3d1c3116	0.03813275
210	0x3dd122bf	0.102117054
211	0x3e4aa3ef	0.19789098
212	0xbe234b02	-0.15946582
213	0x3dd35af5	0.10320083
214	0x3b2263b9	0.0024778678
215	0x3c87e0a1	0.016586604
216	0x3dbc029b	0.091801845
217	0x3d54cd40	0.051953554
218	0x3d478ff7	0.04872128
219	0xbd2838ba	-0.041069724
220	0xbdab6e21	-0.08370615
221	0x3d61dfe1	0.05514515
222	0xb92daa70	-0.00016562059
223	0xbd8dc1c3	-0.06921723
224	0x3da3e6b0	0.080029845
225	0xbe4c3b6d	-0.19944544
226	0x3e17740d	0.14790364
227	0xbdf3b285	-0.11899284
228	0x3e14afc7	0.14520179
229	0xbd256c61	-0.04038656
230	0xbe72eba1	-0.23722698
231	0x3d7512a4	0.05983223
232	0xbde2f3ef	-0.11081683
233	0xbe0c3cb2	-0.13695028
234	0x3c0eff23	0.0087278215
235	0xbdb84964	-0.08998373
236	0x3d2be661	0.041967753
237	0x3df1cf0a	0.11807068
238	0xbdb6aced	-0.08919702
239	0x3e85e0d6	0.261481
240	0xbe0512a3	-0.1299539
241	0xbc62abf2	-0.01383494
242	0x3de88e61	0.113552816
243	0xbe1087b2	-0.14114264
244	0xbe1599d5	-0.14609464
245	0xbda59f76	-0.080870554
246	0x3db17c97	0.08666342
247	0xbd7df98a	-0.062005557
248	0x3e5e51a6	0.21710834
249	0x3db19847	0.08671623
250	0xbe4bf8cc	-0.19919127
251	0x3d13485c	0.03595768
252	0x3ca5e932	0.020252798
253	0x3d027216	0.031847082
254	0xbdad5bbc	-0.084647626
255	0xbbadb249	-0.0053007943

func_approx.network.6.bias f4 [30]
0	0x3e092b5a	0.13395444
1	0xbdd5f00f	-0.10446178
2	0xbe131a9e	-0.14365622
3	0x3cfc8610	0.030825645
4	0xbd220c3b	-0.039562445
5	0x3d851f80	0.06500149
6	0xbd536307	-0.05160811
7	0x3e13a6ba	0.1441907
8	0xbe2702fb	-0.1630973
9	0xbe1b678c	-0.15176219
10	0x3e10b554	0.14131671
11	0xbd8d7888	-0.06907755
12	0x3d09f177	0.033677544
13	0x3d737214	0.059434965
14	0x3cb0879e	0.021549042
15	0xbdd6bbc0	-0.10485029
16	0x3cbc8915	0.023014585
17	0xbdfecabe	-0.12441014
18	0x3e0d9968	0.13828051
19	0x3d07326d	0.033007074
20	0x3e0cc1c1	0.13745786
21	0x3de99f38	0.11407322
22	0x3d898604	0.067150146
23	0x3d86e487	0.06586557
24	0x3dda9b72	0.1067418
25	0xbdd7c8d4	-0.10536352
26	0x3e142ed5	0.1447099
27	0xbd4e8ddf	-0.050428268
28	0x3e132701	0.14370348
29	0xbca7adc3	-0.020468598

func_approx.network.8.weight f4 [1, 30]
0	0x3d9b0ddb	0.07571002
1	0x3e2f7b16	0.17136797
2	0x3d654882	0.055977352
3	0xbd26ea84	-0.040750995
4	0x3dfbfb31	0.1230377
5	0xbe0e587a	-0.13900939
6	0xbd5a53a9	-0.05330244
7	0xbcbd9a61	-0.023144903
8	0xbe03b281	-0.12861063
9	0x3c00e63b	0.007867391
10	0x3d1b9a88	0.03798917
11	0xbe49dee2	-0.1971393
12	0x3e4b2f1f	0.19842194
13	0x3dd970d5	0.10617224
14	0x3e81ea5b	0.25374112
15	0xbd8c6116	-0.06854455
16	0xbe08687f	-0.13321112
17	0x3d2bf79f	0.041984197
18	0x3e48f22b	0.1962363
19	0xbdda6aca	-0.106649
20	0xbde2fcef	-0.110833995
21	0xbd0c6f70	-0.034285963
22	0x3e5e4d4a	0.21709171
23	0xbb07b129	-0.002070496
24	0xbe2ec78f	-0.17068313
25	0xbdb21fb3	-0.086974524
26	0xbdd76cfb	-0.10518833
27	0x3e523396	0.20527491
28	0xbe1d44fa	-0.15358344
29	0x3e3a46f5	0.1819113
