paper/Burgers/runs/normal_grid/normal_grid20checkpoint.pt (torch, 59031 bytes, 36 tensors)

func_approx.network.0.weight f4 [30, 2]
0.21073249 -0.6921778 -0.7966532 -0.6745102 -0.92811567 -0.28084537 0.048472364 -0.78191787
0.30067116 -0.42466092 -0.009870281 -0.75496864 0.24611455 -0.24648963 -0.031165551 -0.19524874
0.016716778 0.5927665 -0.108629204 -0.29180384 0.14453006 -0.7328922 0.16440558 -0.43057862
0.4771947 0.8010691 0.18929763 -0.29833406 -0.47288755 0.57448727 -0.17993075 0.5459344
-1.6993322 -0.25734305 0.35518864 0.70434606 -0.120438054 0.27281815 -0.11255687 -0.4545923
0.9013015 -0.4695094 -0.37332764 0.6830099 0.5825998 -0.3769264 -0.29736593 -0.71200013
0.35385317 -0.2590207 -0.18320267 -0.7421076 -0.5547136 0.34968033 -1.0090377 0.47654328
-0.43537703 0.9475082 -0.4466188 0.89145494
00000000: 42ca 573e 9032 31bf 77f1 4bbf b3ac 2cbf
00000010: fd98 6dbf f7ca 8fbe f58a 463d c52b 48bf
00000020: 92f1 993e 286d d9be f6b6 21bc a045 41bf
00000030: 7405 7c3e c767 7cbe e64e ffbc 49ef 47be
00000040: a0f1 883c 8cbf 173f fd78 debd 5067 95be
00000050: b0ff 133e d39e 3bbf f059 283e cd74 dcbe
00000060: dd52 f43e dd12 4d3f 3dd7 413e 3ebf 98be
00000070: 511e f2be 9911 133f c43f 38be 5bc2 0b3f
00000080: b883 d9bf 78c2 83be 49db b53e 0650 343f
00000090: 3aa8 f6bd d2ae 8b3e 3784 e6bd 52c0 e8be
000000a0: b2bb 663f 8963 f0be cd24 bfbe bdd9 2e3f
000000b0: 4325 153f 7ffc c0be 5940 98be a445 36bf
000000c0: 3e2c b53e 5c9e 84be 7b99 3bbe c4fa 3dbf
000000d0: b601 0ebf 4d09 b33e 2628 81bf 7bfd f33e
000000e0: bde9 debe e68f 723f 38ab e4be 6436 643f

func_approx.network.0.bias f4 [30]
-0.08868764 0.18917339 0.023240205 -0.30076116 -0.121727 0.28649402 0.27018827 0.5137454
-0.03441098 0.24499528 0.504599 -0.26421624 -0.18746151 0.29459384 -0.27103224 0.14742495
0.13128549 -0.021475524 -0.096422136 0.60770994 0.2230335 -0.6225626 -0.6239393 -0.17982866
-0.41592246 0.57511336 0.33553073 0.1915712 0.5957525 0.5095834
00000000: dea1 b5bd abb6 413e 3e62 be3c 5efd 99be
00000010: 014c f9bd 58af 923e 1e56 8a3e d284 033f
00000020: 87f2 0cbd 0be0 7a3e 662d 013f 5a47 87be
00000030: e9f5 3fbe 01d5 963e bdc4 8abe 91f6 163e
00000040: b46f 063e 70ed afbc f878 c5bd e192 1b3f
00000050: e562 643e 4360 1fbf 7cba 1fbf 0125 38be
00000060: caf3 d4be a13a 133f afca ab3e 3e2b 443e
00000070: 3c83 183f 0f74 023f

func_approx.network.2.weight f4 [30, 30]
0.26634556 0.07596364 0.1201529 0.09316362 0.22128986 0.07387695 0.11871344 -0.15378785
-0.08972028 0.0113876285 0.22080974 0.09022879 -0.09189068 0.2871154 -0.38785303 -0.27305618
-0.15655836 -0.18876758 -0.22425437 -0.011814715 0.30657977 -0.28464985 -0.0900929 0.16458543
-0.05892211 0.15123075 -0.1531842 -0.06866854 0.12709291 -0.14779888 -0.22524796 0.04315776
0.008310941 0.050730553 -0.0017589339 -0.050085332 -0.07437483 0.10741716 0.019593615 -0.022052066
-0.27306905 -0.14164852 0.10410478 -0.036880165 0.34325695 0.18836877 0.3127714 0.11880222
0.2635342 -0.23393565 -0.2071779 0.2673417 -0.04946361 0.13889849 0.07254136 -0.2677416
0.14614317 0.039965734 0.1329572 0.1636234 0.26009792 0.41346768 0.0597159 0.0061670328
0.19777204 0.16827092 -0.03728159 0.0016512318 -0.2736108 0.16618124 -0.09967117 0.1969369
-0.4189963 -0.03673935 0.047421042 -0.1602791 0.61953574 -0.09554278 -0.103857405 0.06782984
-0.12123797 -0.09791634 0.049997292 0.17932437 0.11797851 0.19228634 0.13901216 0.17245461
-0.119491585 -0.13291901 -0.16815828 0.12781766 0.15539151 -0.20380048 -0.07695297 -0.19462802
0.1418579 -0.074811175 -0.043140277 -0.04314146 -0.2860544 0.061430845 0.21317233 -0.21737409
0.16729073 0.092473805 -0.0042521767 -0.0767083 0.22560944 0.05243922 -0.22521727 0.22041722
-0.13065645 -0.013613359 -0.103541695 -0.07248953 -0.022040801 0.32715753 0.04906816 0.26171404
-0.34016043 -0.14632484 0.102457635 -0.4068644 -0.17503272 -0.06584721 0.010439346 -0.064148046
0.0881335 0.03586122 -0.24515885 -0.3382531 0.25828922 -0.074628286 -0.07297071 0.15665224
-0.07202785 0.10981743 -0.05613405 -0.11657241 0.108218685 0.16942032 -0.321209 -0.073086575
-0.013162936 -0.13723792 0.22820944 0.0572133 0.43232575 0.17552331 -0.3046767 -0.24113922
-0.18691625 0.018669326 -0.19222635 -0.18058518 0.027114907 0.08245934 0.04683675 0.039548732
0.008391476 -0.17504385 0.21668766 0.06314711 -0.17295724 -0.026053198 -0.32501316 0.027291484
-0.08915134 0.0073688426 -0.004807857 0.053764194 -0.08770061 -0.21884328 -0.16841063 0.12384804
-0.17530239 0.021951854 0.28323108 0.20833535 -0.07141188 0.04569302 0.043508787 -0.26335415
-0.16468017 -0.26807937 -0.16953729 0.056859843 0.3053654 -0.00022739112 -0.22045925 -0.3043484
0.28021783 -0.051589318 -0.04112707 0.23243026 -0.036934208 0.2778693 0.19276829 -0.13214722
0.03614074 -0.090520844 0.036657676 -0.32102633 -0.019535616 0.10086225 0.16026443 0.26538804
0.20652032 0.290841 0.17108008 0.30744883 0.19383362 0.43232828 -0.069238365 0.18342377
0.14614725 0.09579895 -0.29760385 0.12243643 -0.08075941 -0.02790727 -0.04656996 -0.15058921
0.13196117 -0.23017058 0.8356574 -0.43157396 -0.08805786 0.06223741 -0.11667649 0.17325744
0.04672417 0.4765357 -0.16149813 -0.07994398 0.018193008 0.1454038 -0.36071318 -0.292469
-0.19441357 1.0980551 0.33505377 -0.14378135 -0.17892437 0.37599137 0.06984347 -0.021034785
-0.2167677 0.14340776 0.119067855 -0.024896406 -0.55626965 0.10524588 0.18375164 -0.13255878
00000000: 725e 883e d392 9b3d b912 f63d 91cc be3d
00000010: cf99 623e cc4c 973d 0820 f33d 907a 1dbe
00000020: 44bf b7bd 2d93 3a3c f31b 623e dfc9 b83d
00000030: 2e31 bcbd ca00 933e ac94 c6be 05ce 8bbe
00000040: d650 20be 4a4c 41be f0a2 65be 8292 41bc
00000050: 06f8 9c3e a0bd 91be a082 b8bd 1589 283e
00000060: 4f58 71bd 3cdc 1a3e 52dc 1cbe 17a2 8cbd
00000070: a524 023e 9758 17be 67a7 66be 31c6 303d
00000080: 9d2a 083c d7ca 4f3d 078c e6ba 4726 4dbd
00000090: d551 98bd 87fd db3d ca82 a03c 89a6 b4bc
000000a0: b5cf 8bbe 4f0c 11be e334 d53d a80f 17bd
000000b0: 60bf af3e bee3 403e 9323 a03e 944e f33d
000000c0: f4ed 863e d48c 6fbe 7226 54be 03e1 883e
000000d0: 5b9a 4abd 683b 0e3e 9190 943d 6d15 89be
000000e0: 8ea6 153e 1cb3 233d ef25 083e e48c 273e
000000f0: 8e2b 853e 09b2 d33e a998 743d d214 ca3b
00000100: c184 4a3e 364f 2c3e 95b4 18bd 256e d83a
00000110: b716 8cbe 6a2b 2a3e 6620 ccbd d4a9 493e
00000120: af86 d6be 007c 16bd 913c 423d 3420 24be
00000130: e599 1e3f efab c3bd 31b3 d4bd 5fea 8a3d
00000140: 9d4b f8bd 5d88 c8bd f6c9 4c3d cfa0 373e
00000150: b89e f13d b6e6 443e 3459 0e3e f197 303e
00000160: 01b8 f4bd ec1b 08be af31 2cbe a2e2 023e
00000170: f41e 1f3e 13b1 50be 8599 9dbd 914c 47be
00000180: 3343 113e 9a36 99bd dcb3 30bd 19b5 30bd
00000190: b975 92be e99e 7b3d d949 5a3e 5097 5ebe
000001a0: 434e 2b3e e862 bd3d d855 8bbb 3e19 9dbd
000001b0: 2906 673e 82ca 563d 5b9f 66be 0db5 613e
000001c0: ceca 05be 910a 5fbc ab0d d4bd 6475 94bd
000001d0: e98e b4bc 3181 a73e b2fb 483d 62ff 853e
000001e0: 8229 aebe 2ed6 15be 4fd5 d13d 8850 d0be
000001f0: c73b 33be e7da 86bd ca09 2b3c 0d60 83bd
00000200: 567f b43d 37e3 123d ec0a 7bbe 832f adbe
00000210: 7c3e 843e b7d6 98bd ab71 95bd 7269 203e
00000220: 5683 93bd f6e7 e03d d1ec 65bd 84bd eebd
00000230: c2a1 dd3d 857c 2d3e 8275 a4be 6aae 95bd
00000240: 5ba9 57bc 1988 0cbe bcaf 693e 7e58 6a3d
00000250: cd59 dd3e 62bc 333e 96fe 9bbe 33ed 76be
00000260: f966 3fbe 6af0 983c fcd6 44be 52eb 38be
00000270: 1520 de3c 71e0 a83d e4d7 3f3d dafd 213d
00000280: 677c 093c b23e 33be 5fe3 5d3e 4653 813d
00000290: b41b 31be 846d d5bc 2068 a6be 6492 df3c
000002a0: fa94 b6bd 5576 f13b 3a8b 9dbb d837 5c3d
000002b0: 619c b3bd 7418 60be d673 2cbe 0ba4 fd3d
000002c0: 7882 33be 60d4 b33c aa03 913e dd55 553e
000002d0: 6440 92bd 9b28 3b3d 4536 323d 5bd6 86be
000002e0: eba1 28be b341 89be 2f9b 2dbe dee5 683d
000002f0: db58 9c3e d76f 6eb9 12c0 61be 8ed3 9bbe
00000300: b678 8f3e 524f 53bd dc74 28bd 3302 6e3e
00000310: 5348 17bd e344 8e3e 0d65 453e 9a51 07be
00000320: 5008 143d fe62 b9bd 5c26 163d 905d a4be
00000330: 2809 a0bc de90 ce3d 5c1c 243e f1e0 873e
00000340: 107a 533e 1de9 943e 9e2f 2f3e ef69 9d3e
00000350: 527c 463e 225a dd3e d8cc 8dbd 71d3 3b3e
00000360: a0a7 153e 3d32 c43d 885f 98be f3bf fa3d
00000370: 3165 a5bd c99d e4bc 24c0 3ebd 0f34 1abe
00000380: d420 073e d6b1 6bbe a5ed 553f 43f7 dcbe
00000390: ae57 b4bd a8ec 7e3d 15f4 eebd 666a 313e
000003a0: d861 3f3d 7dfc f33e c45f 25be abb9 a3bd
000003b0: 8109 953c bce4 143e 66af b8be 7fbe 95be
000003c0: 5a14 47be 128d 8c3f 2b8c ab3e 6b3b 13be
000003d0: f337 37be f181 c03e 180a 8f3d 2451 acbc
000003e0: 5af8 5dbe 7cd9 123e d9d9 f33d 8cf3 cbbc
000003f0: b067 0ebf 278b d73d 6429 3c3e 7dbd 07be

func_approx.network.2.bias f4 [30]
0.15868993 0.041672856 -0.07325033 -0.14014879 -0.049954478 -0.17713895 0.11152221 -0.09515271
0.05186812 -0.036473133 -0.082179256 0.026600668 -0.05675274 -0.048511595 0.052709304 -0.15975022
-0.15486595 0.18174021 0.023985326 -0.017428057 0.12853287 -0.048869606 0.090023026 -0.10058801
-0.12147959 0.056395445 0.026491672 0.0152331665 -0.017875783 0.025913244
00000000: 9d7f 223e 28b1 2a3d 4504 96bd 2a83 0fbe
00000010: 119d 4cbd ea63 35be c265 e43d 6ddf c2bd
00000020: aa73 543d da64 15bd 994d a8bd a5e9 d93c
00000030: 9075 68bd 18b4 46bd b6e5 573d 9095 23be
00000040: 2e95 1ebe 1b1a 3a3e e07c c43c 49c5 8ebc
00000050: 1f9e 033e 7f2b 48bd fe5d b83d 1601 cebd
00000060: 4bca f8bd e9fe 663d 1005 d93c 8894 793c
00000070: 3c70 92bc 0348 d43c

func_approx.network.4.weight f4 [30, 30]
0.17780037 0.12096422 -0.104407825 -0.06730955 -0.040032398 -0.07779387 0.041106783 -0.09527381
0.08700548 -0.11311903 0.1432329 0.11899267 0.15832622 0.064158246 0.14246741 -0.13001585
0.1406828 -0.21952781 0.019688962 0.18163718 0.08867281 0.07275412 -0.11891264 -0.15435623
-0.014133366 0.15349497 -0.1345862 0.04694371 -0.022128938 -0.093627036 0.17535824 -0.4124948
0.15866274 -0.1752776 0.06382993 0.12151561 0.09756903 -0.14012262 -0.63480556 0.097136125
0.0656289 0.12347124 0.25530714 -0.2872316 -0.14950787 -0.07192812 0.157143 0.31610337
-0.52081037 -0.41528088 0.02996666 -0.032368407 -0.07931958 -0.195279 0.010545525 0.1021038
0.23671867 0.11378309 -0.21162504 -0.11522248 0.045791324 -0.03812024 0.028805751 0.12426104
-0.06230713 -0.1425372 -0.078775175 -0.1998955 0.0502842 0.06987963 -0.08241984 0.15288512
-0.19444174 0.2954211 -0.09199798 -0.101990044 0.036841698 -0.21626046 0.103795834 0.14637223
-0.11401247 0.014705164 0.07313578 0.19340576 -0.010098317 0.014243041 -0.07683706 -0.030539928
0.14615478 0.20444413 -0.0853862 0.018732326 0.05653206 -0.12889344 -0.17121461 -0.030564431
-0.122410186 -0.08713246 0.34724298 0.00043427048 0.013203393 0.03035129 0.030001173 0.41034356
0.073674135 -0.15768003 0.079322025 0.00418991 0.33967108 0.23562431 -0.023544723 0.03152618
0.034959015 -0.17299974 0.087765545 -0.15459724 0.0024290443 -0.09658012 0.1588192 -0.09946073
-0.017421942 0.17991759 -0.03687692 -0.16151828 -0.020423137 -0.108054884 -0.1406818 0.003784802
0.026344005 -0.25356266 -0.087298125 -0.08104485 -0.11974778 0.07809174 -0.20420843 -0.010996339
-0.14975704 -0.27869436 0.31967267 0.018180788 0.18433549 0.031169243 -0.098896444 -0.11769868
-0.21669672 0.12993157 0.14568534 0.15729415 0.2766366 0.19463786 0.06346536 0.15804897
0.14176966 0.12113775 0.27023923 0.2276927 0.0949504 0.103863 0.4553528 0.3094155
0.18504512 0.17932889 0.16638154 0.06640164 0.3164051 0.15008745 -0.11329123 -0.10581629
-0.16838863 -0.1697128 0.5534475 0.2060559 -0.036612533 -0.1315168 0.16902587 0.21244429
-0.072466165 -0.50144374 0.17743316 0.121659026 -0.25777274 0.10710591 0.013379276 -0.008291284
-0.09627765 -0.10014441 -0.16196616 -0.06952377 0.19042729 -0.057814226 -0.11380868 0.031377766
-0.24436316 0.41531625 -0.019949475 -0.01417783 -0.034949098 -0.36729595 0.040994216 -0.008811234
-0.22245121 0.012721382 0.169666 -0.021095393 0.03612594 -0.12699652 0.1387742 -0.057136197
0.21034414 0.10463689 -0.16776067 0.08605512 0.06289526 0.15438835 0.10663463 0.10831827
0.034559887 0.18306226 0.090739354 -0.14365745 -0.040973082 0.1541248 -0.24055618 0.3390318
0.20669357 0.13237916 0.06700384 -0.11092351 0.1604877 0.38454133 -0.024280524 0.007940249
-0.04388555 0.16746075 -0.025907546 -0.16921106 0.09387906 0.10912495 0.07628257 0.24059331
-0.15947673 0.041211408 0.046670504 0.07262953 0.077735595 0.07228344 0.24312192 -0.21897218
-0.046385475 0.113013215 -0.17833494 -0.08720544 -0.14224072 -0.1234661 -0.02534575 0.158309
00000000: 4d11 363e 17bc f73d c5d3 d5bd 97d9 89bd
00000010: 03f9 23bd 6452 9fbd 965f 283d ea1e c3bd
00000020: ee2f b23d f3aa e7bd a5ab 123e 6eb2 f33d
00000030: 4520 223e 6665 833d fae2 113e e022 05be
00000040: 270f 103e e6cb 60be bf4a a13c 19ff 393e
00000050: 179a b53d 1d00 953d 7888 f3bd 8f0f 1ebe
00000060: a28f 67bc c92d 1d3e f7d0 09be 0c48 403d
00000070: bf47 b5bc 88bf bfbd 1c91 333e 8532 d3be
00000080: 7c78 223e f97b 33be 44b9 823d 2ddd f83d
00000090: 46d2 c73d 4e7c 0fbe 9e82 22bf 4eef c63d
000000a0: 7268 863d 7dde fc3d 9eb7 823e 0510 93be
000000b0: 9718 19be 0d4f 93bd 18ea 203e 4dd8 a13e
000000c0: d453 05bf b29f d4be a47c f53c bc94 04bd
000000d0: 4e72 a2bd 38f7 47be 23c7 2c3c cc1b d13d
000000e0: 6166 723e 1c07 e93d 3cb4 58be c3f9 ebbd
000000f0: af8f 3b3d f823 1cbd 0afa eb3c 927c fe3d
00000100: c335 7fbd 46f5 11be e154 a1bd 68b1 4cbe
00000110: cef6 4d3d 0d1d 8f3d bccb a8bd eb8d 1c3e
00000120: bc1b 47be 6f41 973e 7069 bcbd 28e0 d0bd
00000130: 52e7 163d 6273 5dbe e992 d43d 9ae2 153e
00000140: 5f7f e9bd eeed 703c 36c8 953d 290c 463e
00000150: 6973 25bc a55b 693c c05c 9dbd df2e fabc
00000160: 99a9 153e cd59 513e f6de aebd 8974 993c
00000170: 298e 673d a4fc 03be e252 2fbe 4262 fabc
00000180: 31b2 fabd 8172 b2bd d5c9 b13e ccae e339
00000190: 0b53 583c 45a3 f83c 05c5 f53c 8d18 d23e
000001a0: 77e2 963d e076 21be 9673 a23d 834b 893b
000001b0: 5ee9 ad3e 8047 713e dde0 c0bc 9921 013d
000001c0: 2f31 0f3d d826 31be 6cbe b33d bd4e 1ebe
000001d0: 9a30 1f3b cccb c5bd 80a1 223e 11b2 cbbd
000001e0: 76b8 8ebc 513c 383e 410c 17bd 0c65 25be
000001f0: 6c4e a7bc e14b ddbd e40e 10be 710a 783b
00000200: 62cf d73c f7d2 81be 5cc9 b2bd d8fa a5bd
00000210: 533e f5bd 90ee 9f3d 041c 51be fd29 34bc
00000220: e959 19be 07b1 8ebe 23ac a33e e0ef 943c
00000230: 71c2 3c3e a456 ff3c 388a cabd 010c f1bd
00000240: bfe5 5dbe c80c 053e 8a2e 153e b811 213e
00000250: 50a3 8d3e 264f 473e 20fa 813d 97d7 213e
00000260: 112c 113e 1217 f83d cc5c 8a3e 4628 693e
00000270: 5b75 c23d 20b6 d43d 0124 e93e b56b 9e3e
00000280: 787c 3d3e fea1 373e ec5f 2a3e 95fd 873d
00000290: d9ff a13e 86b0 193e 3b05 e8bd 36b6 d8bd
000002a0: 126e 2cbe 31c9 2dbe bcae 0d3f 5100 533e
000002b0: 06f7 15bd 57ac 06be 1e15 2d3e ff8a 593e
000002c0: 2469 94bd 9e5e 00bf 0ab1 353e 5e28 f93d
000002d0: cafa 83be 585a db3d c034 5b3c 2ad8 07bc
000002e0: 372d c5bd 8318 cdbd 75da 25be 7a62 8ebd
000002f0: 5fff 423e 9cce 6cbd 8614 e9bd f985 003d
00000300: 563a 7abe 55a4 d43e 156d a3bc 214a 68bc
00000310: c926 0fbd 370e bcbe 8de9 273d fe5c 10bc
00000320: 40ca 63be 586d 503c edbc 2d3e 3fd0 acbc
00000330: cbf8 133d 600b 02be d31a 0e3e a507 6abd
00000340: 7464 573e de4b d63d 74c9 2bbe ab3d b03d
00000350: 3bcf 803d fb17 1e3e 4263 da3d f8d5 dd3d
00000360: ab8e 0d3d ac74 3b3e 8ed5 b93d f01a 13be
00000370: 64d3 27bd e4d2 1d3e 5c54 76be 9395 ad3e
00000380: 7ba7 533e 678e 073e 4f39 893d dd2b e3bd
00000390: e356 243e 9ae2 c43e f3e7 c6bc d117 023c
000003a0: 56c1 33bd d57a 2b3e 103c d4bc aa45 2dbe
000003b0: aa43 c03d e77c df3d 093a 9c3d 185e 763e
000003c0: de4d 23be 4bcd 283d 9229 3f3d cbbe 943d
000003d0: d733 9f3d 5709 943d f4f4 783e 3e3a 60be
000003e0: b2fe 3dbd 7973 e73d 6f9d 36be c498 b2bd
000003f0: 8da7 11be cbdb fcbd e4a1 cfbc c11b 223e

func_approx.network.4.bias f4 [30]
0.020864554 -0.046328127 0.046098523 -0.104531564 -0.13111398 0.047184408 0.11846048 -0.017005365
0.1093272 0.114088066 0.15774788 0.014380558 -0.03307682 -0.16002785 -0.0011446188 -0.04899401
-0.024589807 0.17739035 -0.06406187 -0.18638678 0.1728234 -0.01891095 -0.13371739 0.009106027
-0.012766067 0.009949192 0.15407367 -0.10829709 -0.076280914 -0.041446146
00000000: 24ec aa3c 90c2 3dbd ced1 3c3d a514 d6bd
00000010: be42 06be 7044 413d 689b f23d d64e 8bbc
00000020: f0e6 df3d 01a7 e93d a988 213e 6f9c 6b3c
00000030: 8f7b 07bd 57de 23be 0907 96ba f1ad 48bd
00000040: 9070 c9bc d1a5 353e df32 83bd 2ddc 3ebe
00000050: 9ef8 303e 23eb 9abc 36ed 08be 7231 153c
00000060: c428 51bc f001 233c 7dc5 1d3e ddca ddbd
00000070: 2b39 9cbd 6fc3 29bd

func_approx.network.6.weight f4 [30, 30]
0.09952403 0.26957846 -0.042701524 -0.12108004 0.05288152 -0.48401177 0.0047047157 0.13744895
0.21087109 0.13174024 -0.018237496 -0.11256761 0.21631548 -0.045659486 0.01882598 0.18297242
-0.060821526 0.09888211 -0.10659254 0.1041754 0.18494636 -0.036648404 -0.14744759 0.07211054
0.066808335 0.19291484 0.12812011 -0.042508256 0.16268957 0.16606194 0.11573562 -0.01347533
-0.20964971 -0.13842802 0.08347237 0.15734442 -0.15500928 0.17139617 -0.03304229 -0.15948454
-0.10177591 -0.07925963 -0.1148551 0.0028849626 -0.054573312 -0.05720703 0.012106433 0.18345115
0.12716217 -0.33768907 0.032339428 -0.016209444 -0.006119032 -0.16620867 -0.2198407 -0.14469507
-0.15731439 -0.059506737 -0.14305171 -0.20887637 0.036777027 -0.23203807 -0.061643474 0.0971022
0.15618117 0.16920772 -0.15273342 0.16628948 -0.06670022 0.047855224 -0.1462657 0.24642864
-0.15953545 0.13031696 0.093731254 -0.032924276 0.1783626 0.14657897 -0.019680299 -0.10018235
-0.016296102 0.037811458 -0.11792682 -0.00045307 -0.31469405 0.01066346 -0.052748088 0.0471317
-0.11846652 -0.130414 -0.04821748 -0.057059567 -0.09776577 0.07263724 0.18964848 -0.15902553
-0.031596277 -0.006300207 -0.05049601 0.022253888 0.010286531 -0.04381231 -0.05389992 -0.19171934
0.02567445 0.15525939 0.1243146 0.1214737 0.0015779379 0.33072814 -0.049285617 0.058586974
-0.0029085928 -0.044741888 0.044339884 0.18356113 -0.09555308 -0.18545964 0.29907888 0.109060876
0.05012772 0.026290266 0.17571099 0.13202435 -0.10163353 -0.020883808 0.18743142 -0.15647502
0.08993894 -0.07037459 0.1509814 0.059584912 0.14017484 -0.057108726 0.18687367 -0.012563677
0.09629954 0.04581665 -0.14496319 0.024831258 -0.006741054 -0.20584834 -0.075357 0.17979074
0.27828258 0.025282146 -0.056609772 -0.1456903 0.14190234 0.057913832 0.10287208 -0.0923566
0.03704269 -0.14237504 -0.055734597 0.17362325 -0.15341061 -0.12307299 0.20624417 -0.1507682
0.18824215 -0.1300754 -0.069732726 -0.06959173 -0.081908636 0.064741835 0.06764094 -0.13073772
-0.1521781 0.24461739 0.04890912 0.08279409 0.09941395 -0.034852892 0.20668156 0.1644271
-0.19025177 0.12835938 0.3468503 0.034515385 0.16988534 0.20935862 0.11689257 -0.040298343
0.22131416 0.12648614 0.1656628 -0.116446234 0.12014247 0.05761859 -0.06885427 0.015969923
-0.046321377 -0.18867184 0.18766683 -0.145994 -0.21730822 0.16033153 0.096665576 0.25246778
0.15215074 -0.058286067 -0.08986314 -0.0106114 0.08192715 -0.14598429 -0.19530131 -0.04201816
0.17092426 0.19432399 -0.093899615 0.028778242 -0.07876075 0.030341474 0.044840287 -0.10258644
-0.1351202 0.09604678 -0.040628 -0.15621588 0.06147493 -0.14081699 0.22491056 0.019919649
0.07604697 0.05201491 -0.113161035 0.10621036 0.040548652 0.21529916 0.0024564874 0.08722048
0.14360216 0.22627783 0.08117172 0.0034460563 -0.024499854 0.0037464346 0.25986826 0.24112278
-0.107251756 -0.21853456 0.017134322 -0.06930456 -0.1446229 -0.045538004 0.10467007 -0.06897487
-0.060262956 0.107779026 -0.19166245 0.07140139 -0.12957469 -0.123391636 -0.023879563 0.016082514
00000000: 41d3 cb3d 3006 8a3e cbe7 2ebd d0f8 f7bd
00000010: 4b9a 583d 64d0 f7be 042a 9a3b 6bbf 0c3e
00000020: 97ee 573e eae6 063e cd66 95bc d989 e6bd
00000030: ce81 5d3e 7105 3bbd f138 9a3c 1f5d 3b3e
00000040: fe1f 79bd b482 ca3d 314d dabd ea59 d53d
00000050: 9462 3d3e a31c 16bd 80fc 16be b1ae 933d
00000060: cfd2 883d 788b 453e eb31 033e 231d 2ebd
00000070: 1898 263e 240c 2a3e cc06 ed3d a1c7 5cbc
00000080: 6aae 56be 13c0 0dbe 90f3 aa3d e51e 213e
00000090: c1ba 1ebe 7a82 2f3e 5a57 07bd ea4f 23be
000000a0: e36f d0bd df52 a2bd 2739 ebbd a411 3d3b
000000b0: 4488 5fbd eb51 6abd 0f5a 463c 9eda 3b3e
000000c0: cd36 023e 95e5 acbe 5976 043d abc9 84bc
000000d0: 2982 c8bb 9b32 2abe ec1d 61be f22a 14be
000000e0: 0617 21be 56bd 73bd 267c 12be b0e3 55be
000000f0: 82a3 163d 639b 6dbe de7d 7cbd 85dd c63d
00000100: f5ed 1f3e ca44 2d3e 2666 1cbe ca47 2a3e
00000110: 209a 88bd d703 443d adc6 15be ca57 7c3e
00000120: 435d 23be cf71 053e 2cf6 bf3d 9bdb 06bd
00000130: afa4 363e cc18 163e 9438 a1bc 672c cdbd
00000140: 677f 85bc 30e0 1a3d 9e83 f1bd 078a edb9
00000150: 941f a1be cbb5 2e3c 610e 58bd 2b0d 413d
00000160: 939e f2bd 3f8b 05be b17f 45bd 4bb7 69bd
00000170: 6c39 c8bd d5c2 943d 3633 423e 97d7 22be
00000180: 196b 01bd f871 cebb e7d4 4ebd c94d b63c
00000190: d788 283c 8974 33bd 2ac6 5cbd 1352 44be
000001a0: 3953 d23c 51fc 1e3e a798 fe3d 34c7 f83d
000001b0: cfd2 ce3a 3355 a93e b7df 49bd e5f8 6f3d
000001c0: 179e 3ebb 4543 37bd bd9d 353d 73f7 3b3e
000001d0: 55b1 c3bd 22e9 3dbe de20 993e 4f5b df3d
000001e0: b952 4d3d af5e d73c 95ed 333e 6431 073e
000001f0: 3d25 d0bd 8514 abbc 06ee 3f3e fd3a 20be
00000200: e831 b83d 8e20 90bd de9a 1a3e 4f0f 743d
00000210: fe89 0f3e d7ea 69bd d05b 3f3e e1d7 4dbc
00000220: b138 c53d 3daa 3b3d 3b71 14be ec6a cb3c
00000230: 0fe4 dcbb e8c9 52be c554 9abd 101b 383e
00000240: 0e7b 8e3e 811c cf3c a6df 67bd d72f 15be
00000250: d94e 113e 0e37 6d3d 99ae d23d 7525 bdbd
00000260: 13ba 173d c3ca 11be f649 64bd 4bca 313e
00000270: ac17 1dbe b10d fcbd ac31 533e fb62 1abe
00000280: 8dc2 403e 7c32 05be 08d0 8ebd 1c86 8ebd
00000290: b7bf a7bd 5e97 843d 5587 8a3d 1ce0 05be
000002a0: 93d4 1bbe fb7c 7a3e ee54 483d f38f a93d
000002b0: 8b99 cb3d e8c1 0ebd 55a4 533e 945f 283e
000002c0: 5cd1 42be a470 033e 5d96 b13e 0160 0d3d
000002d0: 6cf6 2d3e 1b62 563e 5f65 ef3d e00f 25bd
000002e0: 2ea0 623e 9585 013e 82a3 293e 5d7b eebd
000002f0: 410d f63d 7801 6c3d 7803 8dbd 5bd3 823c
00000300: 7cbb 3dbd 3133 41be bc2b 403e 737f 15be
00000310: 0c86 5ebe f32d 243e 9af8 c53d 7543 813e
00000320: 67cd 1b3e 5fbd 6ebd 2a0a b8bd 70db 2dbc
00000330: 6cc9 a73d e87c 15be 11fd 47be 3c1b 2cbd
00000340: c506 2f3e defc 463e 714e c0bd 59c0 eb3c
00000350: 514d a1bd af8e f83c 73aa 373d d718 d2bd
00000360: f35c 0abe 2db4 c43d 8c69 26bd 0ef7 1fbe
00000370: 23cd 7b3d 5432 10be f44e 663e 882e a33c
00000380: 84be 9b3d 960d 553d f9c0 e7bd d184 d93d
00000390: 5816 263d 6277 5c3e 05fd 203b a7a0 b23d
000003a0: 720c 133e 60b5 673e 5c3d a63d 3bd7 613b
000003b0: ebb3 c8bc be86 753b 740d 853e e4e8 763e
000003c0: cfa6 dbbd 86c7 5fbe 475d 8c3c 8def 8dbd
000003d0: 0718 14be 0f86 3abd 435d d63d b242 8dbd
000003e0: 4ad6 76bd 40bb dc3d 2943 44be e43a 923d
000003f0: 3aaf 04be c1b4 fcbd 139f c3bc 7abf 833c

func_approx.network.6.bias f4 [30]
0.10226969 -0.117177635 0.11702351 0.15156192 -0.098489754 0.061809193 -0.14485107 0.06868403
-0.0733151 0.03820538 -0.034354843 0.15526304 0.043279316 -0.0955274 -0.18551609 -0.049071766
-0.040352456 -0.105843246 -0.05484183 -0.09020449 -0.036546227 0.0513398 -0.05246358 -0.0075947414
0.0063299313 0.15861395 0.018122299 -0.08157811 0.14387898 0.012806552
00000000: c572 d13d d4fa efbd 06aa ef3d 0c33 1b3e
00000010: ffb4 c9bd a32b 7d3d d753 14be 36aa 8c3d
00000020: 3a26 96bd 3f7d 1c3d aab7 0cbd 46fd 1e3e
00000030: a745 313d dfa3 c3bd eef7 3dbe 7aff 48bd
00000040: 9e48 25bd 58c4 d8bd d4a1 60bd 22bd b8bd
00000050: 7fb1 15bd af49 523d 0de4 56bd 4fdd f8bb
00000060: 506b cf3b b26b 223e 3775 943c 6d12 a7bd
00000070: 0355 133e 93d2 513c

func_approx.network.8.weight f4 [1, 30]
0.12285445 -0.14234255 -0.095970176 0.11114853 0.11621058 0.11187204 0.10321809 0.032357413
-0.21239555 0.007026622 0.11588865 0.17022711 0.045242283 0.28553072 -0.06849759 0.028073035
-0.21885176 -0.16752912 -0.1398708 -0.10513492 -0.17611462 -0.11852486 0.18161367 0.035373524
0.10334552 0.13987984 0.20388238 -0.14685762 0.13940692 -0.20756891
00000000: 1d9b fb3d 3fc2 11be 038c c4bd d7a1 e33d
00000010: d0ff ed3d 2b1d e53d 0264 d33d 3589 043d
00000020: 387e 59be 943f e63b 0757 ed3d 0450 2e3e
00000030: f94f 393d 1531 923e 7748 8cbd 6cf9 e53c
00000040: ad1a 60be c18c 2bbe 4a3a 0fbe fa50 d7bd
00000050: 6457 34be 29bd f2bd eff8 393e d4e3 103d
00000060: d1a6 d33d a93c 0f3e 8bc6 503e d861 16be
00000070: b0c0 0e3e f28c 54be

exp_avg f4 [30, 2]
4.1181255e-07 1.7871923e-07 1.4859588e-06 2.3489126e-07 9.788123e-07 7.988457e-07 -4.515889e-07 4.2114004e-07
4.3390844e-07 9.568198e-07 -2.4145837e-07 -9.376383e-07 -2.0937671e-07 2.4636134e-07 1.1122593e-06 8.6589307e-07
3.0107253e-07 3.1583792e-07 2.210515e-07 6.259684e-07 -1.747056e-07 2.6441018e-07 1.0393202e-06 1.480372e-07
-1.2598006e-06 9.33263e-07 3.504451e-07 1.0704864e-06 8.6131564e-07 -6.089314e-07 -4.171008e-07 8.1235925e-08
7.220607e-06 2.1288011e-07 3.7759483e-07 -2.0731976e-08 -4.84054e-08 -2.7487428e-07 -2.6724362e-07 9.415861e-08
-1.2016557e-06 -5.8384603e-07 -7.5991267e-07 -2.0155649e-06 7.161938e-07 6.435445e-07 -8.386728e-07 2.1894196e-07
8.0780774e-07 1.8310831e-06 3.7744005e-07 9.44656e-07 -3.9464425e-07 -1.1942526e-06 1.7969877e-06 9.237363e-07
-1.4212659e-06 -4.0252235e-07 -1.1155435e-06 -7.793897e-07
00000000: 1617 dd34 f8e5 3f34 2871 c735 6b36 7c34
00000010: bc5f 8335 4270 5635 e871 f2b4 0c19 e234
00000020: ecf3 e834 146c 8035 c9a1 81b4 03b2 7bb5
00000030: 08d1 60b4 a543 8434 f048 9535 b86f 6835
00000040: 18a3 a134 6f90 a934 2c5a 6d34 3908 2835
00000050: b696 3bb4 42f4 8d34 c57e 8b35 28f4 1e34
00000060: 6b16 a9b5 5885 7a35 cf24 bc34 a2ad 8f35
00000070: 2935 6735 7275 23b5 e6ed dfb4 ec73 ae33
00000080: 8b48 f236 0a94 6434 3db8 ca34 1916 b2b2
00000090: 4de6 4fb3 6f92 93b4 af79 8fb4 3e34 ca33
000000a0: 9348 a1b5 98b9 1cb5 cdfc 4bb5 2443 07b6
000000b0: 7740 4035 0bc0 2c35 2821 61b5 4f16 6b34
000000c0: 20d8 5835 89c3 f535 f7a2 ca34 4494 7d35
000000d0: 7edf d3b4 354a a0b5 0730 f135 adf6 7735
000000e0: 53c2 beb5 401a d8b4 c8b9 95b5 4137 51b5

exp_avg_sq f4 [30, 2]
1.6963449e-13 3.1973874e-14 2.208826e-12 5.5217292e-14 9.582122e-13 6.3816243e-13 2.0395206e-13 1.774722e-13
1.8830103e-13 9.157143e-13 5.835407e-14 8.792144e-13 4.3844638e-14 6.0706086e-14 1.2371498e-12 7.4985385e-13
9.071813e-14 9.9816057e-14 4.8879405e-14 3.9191515e-13 3.0533603e-14 7.024619e-14 1.0803504e-12 2.1923429e-14
1.5872084e-12 8.7103615e-13 1.2286872e-13 1.145948e-12 7.4220485e-13 3.7083476e-13 1.7401548e-13 6.640383e-15
5.2139508e-11 4.5549847e-14 1.4262574e-13 4.6389406e-16 2.351501e-15 7.557275e-14 7.145253e-14 8.872168e-15
1.444035e-12 3.4088886e-13 5.774838e-13 4.062697e-12 5.130012e-13 4.1419635e-13 7.034066e-13 4.8053023e-14
6.5255706e-13 3.3531483e-12 1.4247849e-13 8.924541e-13 1.5575398e-13 1.4262492e-12 3.2292105e-12 8.53399e-13
2.0205068e-12 1.6222626e-13 1.2447152e-12 6.0766436e-13
00000000: d0fd 3e2a 5eff 0f29 ac6e 1b2c 34ad 7829
00000010: 3cdb 862b 73a0 332b 2ea1 652a e1d0 472a
00000020: 1402 542a 16e0 802b d566 8329 137a 772b
00000030: 6d75 4529 adb2 8829 051d ae2b aa10 532b
00000040: 7147 cc29 0ac4 e029 1e22 5c29 eda0 dc2a
00000050: d982 0929 2c2e 9e29 ba0b 982b fc77 c528
00000060: 3661 df2b c52c 752b 7f56 0a2a 2147 a12b
00000070: 7fe9 502b ecc2 d02a 8cec 432a b93e ef27
00000080: de4f 652e 6623 4d29 1295 202a 57b5 0526
00000090: 8a71 2927 b92c aa29 94e5 a029 a7d3 1f28
000000a0: d83a cb2b 43e7 bf2a 188c 222b 85f1 8e2c
000000b0: a265 102b fc2b e92a cafd 452b 5d69 5829
000000c0: b1ad 372b f3f4 6b2c a16a 202a 1834 7b2b
000000d0: 075d 2f2a 0bba c82b 493c 632c e135 702b
000000e0: 372e 0e2c 89a6 362a 972d af2b d50a 2b2b

max_exp_avg_sq f4 [30, 2]
1.4429248e-06 2.5522888e-06 1.402055e-06 3.9496385e-06 1.2376714e-06 2.3329986e-07 1.4738844e-06 2.6415198e-06
5.685365e-07 2.0186835e-07 2.757169e-06 3.1715242e-06 4.950493e-07 2.8499385e-06 4.0238353e-07 2.02984e-07
3.0793836e-07 2.3541606e-06 2.3714267e-06 8.04361e-07 4.2405986e-06 8.591205e-06 1.179172e-05 4.9542787e-06
2.6129505e-06 1.8900139e-06 5.9347403e-06 1.9603074e-05 4.708866e-06 2.196046e-06 1.8543236e-06 1.1837138e-06
3.4235475e-07 3.0473598e-07 3.6279714e-06 2.8103877e-06 3.3045598e-07 2.1251014e-06 1.5924251e-06 4.7822537e-06
1.6129859e-06 8.24038e-06 4.637815e-06 2.7473534e-05 3.10765e-06 3.4721565e-06 4.745667e-06 6.824879e-06
1.0540128e-05 1.7297975e-06 4.8233733e-06 6.933974e-06 4.873068e-07 1.2641674e-06 1.3246669e-06 2.1452927e-06
7.000818e-06 8.550432e-06 4.0485693e-06 6.0821408e-06
00000000: 85aa c135 fd47 2b36 3e2e bc35 2387 8436
00000010: 111e a635 fa80 7a34 48d2 c535 f744 3136
00000020: 889d 1835 26c1 5834 ce07 3936 5fd6 5436
00000030: 87e3 0435 9241 3f36 2c07 d834 d1f3 5934
00000040: ba52 a534 2cfc 1d36 cd24 1f36 44eb 5735
00000050: 774a 8e36 f222 1037 0dd5 4537 ee3c a636
00000060: 265a 2f36 62ac fd35 0823 c736 4871 a437
00000070: da00 9e36 c85f 1336 13e2 f835 19e0 9e35
00000080: e1cc b734 989a a334 1378 7336 189a 3c36
00000090: 8669 b134 f79c 0e36 4fbb d535 3f77 a036
000000a0: c67d d835 2a40 0a37 879e 9b36 f776 e637
000000b0: 058d 5036 3203 6936 f83c 9f36 4401 e536
000000c0: 81d5 3037 642b e835 76d8 a136 62aa e836
000000d0: 78cf 0235 76ac a935 35cb b135 d9f7 0f36
000000e0: 92e8 ea36 d373 0f37 f2d8 8736 3115 cc36

exp_avg f4 [30]
-3.6860207e-08 2.6857757e-07 1.8085244e-07 -1.0999298e-06 3.2003527e-07 -1.3446222e-06 -4.5687727e-07 2.3500924e-07
4.0076284e-07 -5.514823e-07 -8.6012693e-07 1.2525461e-06 -7.323492e-07 1.05925416e-07 7.022184e-07 3.436871e-07
1.2916212e-07 2.6402498e-07 -1.4202118e-07 -4.8274615e-07 -1.1724535e-08 -3.8442053e-07 5.7242755e-07 -3.3518162e-07
-4.7097978e-07 3.1198928e-07 1.8980174e-07 2.0115228e-06 3.074159e-07 6.006719e-07
00000000: 3a50 1eb3 0531 9034 5730 4234 4da1 93b5
00000010: 50d1 ab34 de78 b4b5 bc48 f5b4 d956 7c34
00000020: 6d28 d734 9309 14b5 79e3 66b5 281d a835
00000030: a796 44b5 1d79 e333 1580 3c35 ff83 b834
00000040: d0af 0a34 51bf 8d34 7c7e 18b4 1096 01b5
00000050: 0d6d 49b2 5b62 ceb4 eca8 1935 03f3 b3b4
00000060: f8da fcb4 7b7f a734 4ecc 4b34 b3fd 0636
00000070: eb0a a534 dc3d 2135

exp_avg_sq f4 [30]
1.448368e-15 7.2363665e-14 3.2725233e-14 1.2099461e-12 1.0245218e-13 1.8082819e-12 2.0876463e-13 5.524497e-14
1.6070222e-13 3.041406e-13 7.398706e-13 1.5689444e-12 5.3640013e-13 1.1272986e-14 4.932072e-13 1.1823104e-13
1.7356439e-14 6.983668e-14 2.0190375e-14 2.3307598e-13 1.5183557e-16 1.4781613e-13 3.27699e-13 1.1251323e-13
2.218349e-13 9.737703e-14 3.603165e-14 4.0464476e-12 9.468279e-14 3.6102135e-13
00000000: 59bb d026 d0f2 a229 a061 1329 e748 aa2b
00000010: a9b3 e629 397e fe2b 4f0c 6b2a 1dcd 7829
00000020: 43ef 342a 4837 ab2a 4c41 502b 2ecf dc2b
00000030: b4fb 162b 7913 4b28 53d3 0a2b c71d 052a
00000040: 3955 9c28 1b42 9d29 d6db b528 ca35 832a
00000050: f30d 2f25 196d 262a 677a b82a 765b fd29
00000060: 8fc3 792a 0946 db29 aa45 2229 295f 8e2c
00000070: ea34 d529 a93c cb2a

max_exp_avg_sq f4 [30]
4.028279e-06 3.718889e-06 3.898859e-06 3.528625e-06 1.6291901e-06 7.67833e-06 1.4216282e-06 1.1066936e-06
6.9746875e-07 6.527855e-06 1.204338e-05 3.2570173e-05 6.81141e-06 1.6884514e-05 1.34046795e-05 4.993384e-06
9.324284e-07 9.444903e-06 8.7608936e-07 4.3979885e-06 4.9093132e-06 1.3837658e-05 8.364439e-06 1.295292e-05
2.871884e-05 1.3549516e-05 1.2073493e-06 3.6415058e-06 1.987375e-05 1.0869807e-05
00000000: a72a 8736 0792 7936 f2d2 8236 51cd 6c36
00000010: 8caa da35 2dd2 0037 c6ce be35 b489 9435
00000020: b039 3b35 d909 db36 ec0d 4a37 f59b 0838
00000030: 918d e436 38a3 8d37 a9e4 6037 d88c a736
00000040: fe4b 7a35 8d75 1e37 672c 6b35 6f92 9336
00000050: aeba a436 4a28 6837 fe54 0c37 5e50 5937
00000060: 3de9 f037 ba52 6337 350c a235 9860 7436
00000070: 8eb6 a637 775d 3637

exp_avg f4 [30, 30]
-2.283875e-07 1.4552164e-07 1.5979892e-07 -2.1423982e-07 -8.764302e-08 -2.231196e-07 2.976844e-08 -6.622293e-08
2.018276e-07 -1.6696816e-07 -2.0645902e-07 -1.529612e-07 -1.7965734e-09 -2.2618606e-08 1.5444588e-08 1.8784083e-07
4.5732278e-07 8.021559e-08 7.268688e-08 -2.1616302e-07 5.904576e-08 4.6350255e-08 7.654169e-08 -1.1517563e-07
1.4769942e-08 -2.1027732e-07 -1.0084719e-07 -2.0228448e-07 2.4806423e-07 2.4798632e-07 1.1556381e-07 8.283482e-09
-6.731159e-08 1.4084635e-07 4.7780848e-08 1.4442939e-07 -3.7681897e-08 4.7966456e-08 -1.4541823e-07 1.3087373e-07
1.18672574e-07 1.2483446e-07 -9.025808e-08 4.806841e-09 1.762702e-08 -1.2440852e-07 -1.5401227e-07 -1.07800886e-07
-5.504771e-08 1.3307063e-07 -4.14326e-08 -4.2526757e-08 -1.1936162e-07 1.1370297e-07 -3.3986698e-08 1.6222124e-07
1.3727343e-07 1.9837177e-07 -1.1145067e-07 -9.3926324e-08 1.3893231e-07 -2.4110562e-07 -2.5245822e-07 2.3315901e-07
1.8122584e-07 -1.6974676e-07 -8.960222e-08 -2.7937685e-07 5.8377823e-09 -1.5203362e-07 -2.5666768e-07 2.2270527e-07
1.9832405e-07 -1.17040265e-07 3.1718695e-08 -1.6551546e-07 -7.9473597e-07 7.2632034e-08 1.517643e-08 -3.4012567e-07
1.2427238e-07 2.7114908e-07 4.8959254e-07 6.98967e-08 3.241265e-07 -3.4847866e-07 -3.8002125e-07 -4.8835835e-07
-5.3003737e-07 -4.8300717e-07 -6.661741e-08 4.2554746e-09 -2.1059867e-07 -1.5118826e-07 -1.13182665e-07 8.0076475e-08
2.2141447e-07 4.3985204e-07 2.1441853e-08 1.9297464e-07 2.140131e-07 -2.3630845e-07 -7.4254764e-08 2.467143e-07
-2.2531287e-07 1.2960928e-07 -3.1854947e-07 1.1095316e-08 -7.563597e-08 4.0700286e-07 2.5432215e-07 -4.156102e-07
-5.582207e-07 -9.452645e-08 -3.8479328e-07 1.038996e-07 3.414414e-07 2.4673577e-07 3.121351e-07 2.8471808e-07
3.3097848e-08 1.7176016e-07 1.6508343e-07 5.875203e-08 -6.4503562e-09 7.126034e-08 7.982587e-09 4.2822005e-08
-6.0684094e-08 5.2076935e-08 5.0467136e-08 3.9347343e-09 -1.4255674e-07 1.9329823e-08 -1.3282957e-08 -2.0555218e-08
2.3588217e-07 -1.2221525e-07 -1.4174957e-08 6.1283146e-08 -4.1865043e-08 -3.799445e-08 -6.932929e-08 1.09676755e-07
-4.619429e-08 8.516177e-08 5.5172656e-08 8.090392e-08 -1.3768937e-08 -9.629585e-09 -3.1089833e-08 7.1394027e-07
7.205376e-07 2.7493016e-07 -3.0523826e-09 -2.004125e-07 -2.6544274e-07 -8.949688e-08 -1.0634528e-07 1.0358439e-07
-3.653945e-07 2.526724e-07 -1.9206139e-07 -2.2122967e-07 3.7342542e-07 -1.1267075e-07 5.8387656e-07 -3.9054953e-07
3.3952766e-08 -2.0707806e-07 -5.654987e-07 4.403897e-07 2.2428314e-07 6.0481517e-07 1.1698587e-07 -3.1827213e-07
3.267506e-08 5.063867e-07 -5.4821175e-08 -1.335799e-09 -2.9220914e-07 -7.8873434e-08 2.3599331e-07 -7.748669e-08
-1.9601598e-07 -4.7345264e-07 -3.8968383e-07 -4.3799878e-07 2.4953474e-07 -2.659645e-07 -6.243256e-07 -1.93208e-08
2.4237306e-07 -4.0558214e-07 5.7927235e-07 1.723038e-07 1.9391432e-07 1.3509928e-07 2.3233575e-07 -5.3562877e-07
-6.313754e-07 7.028656e-07 1.3390418e-07 -5.9570846e-09 1.03336895e-07 -5.4858754e-07 1.0300813e-07 4.925619e-07
6.117821e-08 1.269256e-07 -4.8466e-07 2.340999e-06 2.318047e-06 1.5769828e-07 -6.093536e-07 -1.3618577e-06
-1.4168752e-06 -1.3817166e-06 6.2028306e-07 -5.734131e-07 -1.7857266e-06 -2.454001e-07 -1.2753283e-08 -1.3980184e-06
1.1459863e-06 4.1411792e-07 -2.3817158e-06 -3.0287694e-07 9.1748024e-07 -1.6666662e-06 -5.409074e-07 1.8786283e-06
-5.0960455e-07 7.391581e-07 -6.582355e-07 -1.7586237e-06 3.924632e-07 -9.052045e-07 -1.2615586e-06 -9.4954595e-07
1.6808326e-07 -1.2298774e-06 -7.915823e-07 1.3682288e-07 -1.3499846e-07 -3.240641e-07 -4.587602e-07 -8.5242783e-07
3.414884e-07 -7.5870884e-07 -4.4748347e-07 -2.6724854e-07 6.8439584e-07 -5.1816284e-07 -9.123368e-08 1.2668659e-07
00000000: ae3a 75b4 af40 1c34 3195 2b34 cb09 66b4
00000010: 4336 bcb3 a692 6fb4 7eb5 ff32 7136 8eb3
00000020: f3b5 5834 dc47 33b4 06af 5db4 a83d 24b4
00000030: 4feb f6b0 d74a c2b2 02ab 8432 4bb1 4934
00000040: f785 f534 fd42 ac33 0918 9c33 701a 68b4
00000050: 8099 7d33 a512 4733 3d5f a433 7956 f7b3
00000060: e4be 7d32 97c8 61b4 5491 d8b3 8933 59b4
00000070: b02d 8534 fb22 8534 e02b f833 244f 0e32
00000080: f08c 90b3 8d3b 1734 9937 4d33 7314 1b34
00000090: afd7 21b3 ad03 4e33 4224 1cb4 4c86 0c34
000000a0: f0d8 fe33 3c0a 0634 e7d3 c1b3 6c29 a531
000000b0: 3a6a 9732 2795 05b4 925e 25b4 2a80 e7b3
000000c0: 996d 6cb3 2de2 0e34 a0f3 31b3 aaa6 36b3
000000d0: df29 00b4 de2c f433 c5f8 11b3 092f 2e34
000000e0: 6f65 1334 0400 5534 a756 efb3 8bb4 c9b3
000000f0: 6c2d 1534 4e71 81b4 9889 87b4 435a 7a34
00000100: fb96 4234 a243 36b4 576b c0b3 43fd 95b4
00000110: ad95 c831 af3e 23b4 23cc 89b4 c220 6f34
00000120: e6f2 5434 9157 fbb3 133b 0833 8bb8 31b4
00000130: d755 55b5 e2f9 9b33 535d 8232 849a b6b4
00000140: bb6f 0534 7292 9134 8b6c 0335 1e1a 9633
00000150: 9b03 ae34 8b16 bbb4 b905 ccb4 bb17 03b5
00000160: e447 0eb5 00a8 01b5 4f0f 8fb3 8d37 9231
00000170: ec20 62b4 5056 22b4 d40e f3b3 82f6 ab33
00000180: f2bd 6d34 ce24 ec34 222f b832 7734 4f34
00000190: 79cb 6534 f9bb 7db4 fd75 9fb3 2874 8434
000001a0: 88ed 71b4 ba2a 0b34 1b05 abb4 b79d 3e32
000001b0: 506d a2b3 0c82 da34 c589 8834 0821 dfb4
000001c0: a2d8 15b5 77fe cab3 9695 ceb4 691f df33
000001d0: 594f b734 1b77 8434 8693 a734 5bdb 9834
000001e0: 7827 0e33 136d 3834 ca41 3134 8a56 7c33
000001f0: efa1 ddb1 c907 9933 ca23 0932 4beb 3733
00000200: 6f51 82b3 32ab 5f33 34c1 5833 4a32 8731
00000210: b311 19b4 bb0a a632 1033 64b2 6791 b0b2
00000220: cc46 7d34 463a 03b4 1f86 73b2 c49a 8333
00000230: 1acf 33b3 572f 23b3 2ee2 94b3 6f87 eb33
00000240: 2967 46b3 2ee2 b633 faf6 6c33 66bd ad33
00000250: 6d8c 6cb2 5d6f 25b2 a287 05b3 9aa5 3f35
00000260: f86a 4135 1d9a 9334 15c2 51b1 f830 57b4
00000270: 2c82 8eb4 6e31 c0b3 f05f e4b3 1f72 de33
00000280: 702b c4b4 08a7 8734 6f39 4eb4 268b 6db4
00000290: 337b c834 66f5 f1b3 b1bb 1c35 b8ac d1b4
000002a0: 76d3 1133 2f59 5eb4 c6cc 17b5 b36e ec34
000002b0: 7bd2 7034 955a 2235 aa39 fb33 fdde aab4
000002c0: 9c56 0c33 a1ee 0735 8574 6bb3 4097 b7b0
000002d0: ebe0 9cb4 2161 a9b3 5965 7d34 c266 a6b3
000002e0: 7678 52b4 d62e feb4 bd35 d1b4 1826 ebb4
000002f0: cbf7 8534 e2c9 8eb4 5497 27b5 e3f6 a5b2
00000300: 801f 8234 c9be d9b4 4b7f 1b35 8202 3934
00000310: c336 5034 cf0f 1134 f777 7934 21c8 0fb5
00000320: ca7b 29b5 8eac 3c35 4dc7 0f34 12af ccb1
00000330: 0fea dd33 a642 13b5 5135 dd33 9938 0435
00000340: 1461 8333 0b49 0834 9519 02b5 0e1a 1d36
00000350: bf8f 1b36 c653 2934 7692 23b5 13c9 b6b5
00000360: 762b beb5 6c73 b9b5 8781 2635 a6ec 19b5
00000370: 19ad efb5 88bf 83b4 8819 5bb2 8ca3 bbb5
00000380: cacf 9935 ef53 de34 91d5 1fb6 179b a2b4
00000390: c348 7635 37b2 dfb5 e032 11b5 2d25 fc35
000003a0: c2cb 08b5 8f6a 4635 99b1 30b5 da09 ecb5
000003b0: bbb3 d234 2efd 72b5 d352 a9b5 4de4 7eb5
000003c0: 607a 3434 4412 a5b5 1f7d 54b5 96e9 1234
000003d0: 18f4 10b4 08fb adb4 864b f6b4 65d2 64b5
000003e0: cf55 b734 13aa 4bb5 a93d f0b4 5c7a 8fb4
000003f0: 53b7 3735 e117 0bb5 3fec c3b3 5807 0834

exp_avg_sq f4 [30, 30]
5.2170006e-14 2.1209497e-14 2.5567312e-14 4.592294e-14 7.684595e-15 4.9789386e-14 8.921189e-16 4.39237e-15
4.074363e-14 2.7880482e-14 4.2629478e-14 2.3406756e-14 2.9568696e-17 5.154971e-16 2.4643836e-16 3.529229e-14
2.0918915e-13 6.458669e-15 5.283808e-15 4.6732444e-14 3.5110636e-15 2.1607552e-15 5.8731515e-15 1.32937645e-14
2.2550966e-16 4.422566e-14 1.017825e-14 4.094201e-14 6.156552e-14 6.1522016e-14 1.3364272e-14 9.130436e-17
4.552368e-15 1.986088e-14 2.285703e-15 2.0877014e-14 1.4259565e-15 2.3120931e-15 2.1156276e-14 1.7133832e-14
1.4107936e-14 1.5592096e-14 8.1674356e-15 2.9148746e-17 3.184953e-16 1.5485055e-14 2.374714e-14 1.1639667e-14
3.031783e-15 1.7731242e-14 1.7312408e-15 1.8353277e-15 1.426223e-14 1.2951794e-14 1.1629133e-15 2.63606e-14
1.8848663e-14 3.9358355e-14 1.2456046e-14 8.85083e-15 1.9303188e-14 5.814317e-14 6.373992e-14 5.4370286e-14
3.2845322e-14 2.8822065e-14 8.032978e-15 7.8068316e-14 3.443177e-17 2.3118717e-14 6.5898066e-14 4.9604892e-14
3.9338328e-14 1.3704101e-14 1.0123155e-15 2.7397936e-14 6.316191e-13 5.2761797e-15 2.308826e-16 1.1570951e-13
1.5447748e-14 7.354742e-14 2.3973694e-13 4.8870756e-15 1.0507588e-13 1.2146154e-13 1.4443053e-13 2.385014e-13
2.8096433e-13 2.333146e-13 4.4443255e-15 3.108887e-17 4.437036e-14 2.2871989e-14 1.281315e-14 6.4204305e-15
4.903849e-14 1.9349992e-13 4.653677e-16 3.7244418e-14 4.5816402e-14 5.585315e-14 5.5241617e-15 6.0881835e-14
5.0781604e-14 1.6805244e-14 1.01502364e-13 1.3329652e-16 5.7229087e-15 1.6567501e-13 6.471095e-14 1.7276484e-13
3.11644e-13 8.948997e-15 1.4808299e-13 1.0807033e-14 1.1658933e-13 6.0883644e-14 9.745115e-14 8.108361e-14
1.0997182e-15 2.950486e-14 2.72581e-14 3.4623063e-15 4.327381e-17 5.0822913e-15 6.736536e-17 1.840704e-15
3.685345e-15 2.713598e-15 2.5555602e-15 1.9661675e-17 2.0325814e-14 3.7740914e-16 1.8226788e-16 4.2604738e-16
5.565713e-14 1.4941095e-14 2.0182204e-16 3.7641352e-15 1.7611549e-15 1.4570467e-15 4.8155013e-15 1.20376816e-14
2.1382642e-15 7.260259e-15 3.0464753e-15 6.5470916e-15 2.0997195e-16 1.08732594e-16 9.757523e-16 5.0981284e-13
5.1924925e-13 7.5603986e-14 1.3881275e-17 4.018175e-14 7.046736e-14 8.0293506e-15 1.1330125e-14 1.0758926e-14
1.3352846e-13 6.385229e-14 3.692602e-14 4.8954554e-14 1.3945579e-13 1.2704293e-14 3.409438e-13 1.5257529e-13
1.1640443e-15 4.291048e-14 3.1978982e-13 1.9396081e-13 5.0304108e-14 3.6585305e-13 1.368646e-14 1.01314614e-13
1.0680335e-15 2.5643322e-13 3.0073877e-15 3.7352226e-18 8.539439e-14 6.2381897e-15 5.5713643e-14 6.010486e-15
3.8431237e-14 2.2416665e-13 1.5186904e-13 1.9185665e-13 6.2270196e-14 7.0740126e-14 3.898058e-13 3.7740606e-16
5.875674e-14 1.6451132e-13 3.3558624e-13 2.9693658e-14 3.7618478e-14 1.8260377e-14 5.3984286e-14 2.8691353e-13
3.9867212e-13 4.9405727e-13 1.7955108e-14 4.5153206e-17 1.0687817e-14 3.0096235e-13 1.0633076e-14 2.426601e-13
3.7668783e-15 1.6133143e-14 2.349145e-13 5.4802877e-12 5.3733467e-12 2.4882545e-14 3.7131813e-13 1.8547618e-12
2.0075864e-12 1.909251e-12 3.847896e-13 3.2883586e-13 3.1889623e-12 6.022434e-14 2.304979e-16 1.9545242e-12
1.313335e-12 1.7150399e-13 5.673228e-12 9.176488e-14 8.4179354e-13 2.7779391e-12 2.9262717e-13 3.5293884e-12
2.5972605e-13 5.463668e-13 4.3328245e-13 3.0929348e-12 1.5404185e-13 8.1955195e-13 1.5915449e-12 9.016493e-13
2.8256138e-14 1.5126263e-12 6.266526e-13 1.8732898e-14 1.822605e-14 1.0502556e-13 2.1046865e-13 7.2665664e-13
1.1661646e-13 5.756513e-13 2.0026277e-13 7.142687e-14 4.6840624e-13 2.6850188e-13 8.331175e-15 1.6052245e-14
00000000: ecf3 6a29 c509 bf28 354a e628 8cd1 4e29
00000010: f06e 0a28 413b 6029 6191 8026 7640 9e27
00000020: 357e 3729 0420 fb28 71fc 3f29 4ed4 d228
00000030: 8e5c 0824 f994 1426 e20f 8e25 3df1 1e29
00000040: ab86 6b2a b5b2 e827 875e be27 d776 5229
00000050: b1ff 7c27 e6b2 1b27 439a d327 ab7a 6f28
00000060: 5aff 8125 b72c 4729 e55a 3728 ec62 3829
00000070: 1ba2 8a29 0789 8a29 d4bf 7028 9588 d224
00000080: 2f04 a427 12e4 b228 c7b3 2427 1e0b bc28
00000090: 8280 cd26 979a 2627 0d8f be28 ed53 9a28
000000a0: 5f25 7e28 ed70 8c28 a621 1328 c46c 0624
000000b0: 9c99 b725 1b7a 8b28 2de5 d528 7dae 5128
000000c0: 8676 5a27 76b5 9f28 837f f926 d23f 0427
000000d0: 7776 8028 9b51 6928 ee97 a726 686f ed28
000000e0: 0fc6 a928 1841 3129 6063 6028 4071 1f28
000000f0: 1fde ad28 41ed 8229 9087 8f29 acdc 7429
00000100: 14ec 1329 94cd 0129 93b5 1028 52cb af29
00000110: dcc9 1e24 223c d028 a663 9429 8c66 5f29
00000120: 012a 3129 03df 7628 dae3 9126 57c7 f628
00000130: f4c8 312b 2b18 be27 4218 8525 ff46 022a
00000140: 1524 8b28 339d a529 bcf5 862a 5113 b027
00000150: 1f9c ec29 e8c0 082a 449d 222a ad43 862a
00000160: 3a2b 9e2a 2d58 832a ab1f a027 425f 0f24
00000170: 8bd3 4729 3703 ce28 3ad2 6628 0552 e727
00000180: 88d9 5c29 8edc 592a 1322 0626 e4bb 2729
00000190: b756 4e29 4c8a 7b29 6607 c727 fd17 8929
000001a0: 34b3 6429 415e 9728 2190 e429 30ae 1925
000001b0: 8430 ce27 9288 3a2a 53b7 9129 1384 422a
000001c0: a270 af2a f735 2128 04ba 262a a5ae 4228
000001d0: 9644 032a 0819 8929 c370 db29 8595 b629
000001e0: 717c 9e26 cae0 0429 e684 f528 477c 7927
000001f0: b390 4724 dd1b b727 7d55 9b24 ffa2 0427
00000200: 4fc7 8427 0c89 4327 c425 3827 d158 b523
00000210: 2314 b728 c28f d925 fc23 5225 7f99 f525
00000220: 4da8 7a29 d293 8628 5aaf 6825 059e 8727
00000230: 26cf fd26 89fb d126 297f ad27 02da 5828
00000240: 0314 1a27 09ca 0228 8d85 5b27 43e2 eb27
00000250: c814 7225 65b8 fa24 e89e 8c26 e37f 0f2b
00000260: da27 122b bb3e aa29 3c08 8023 67f6 3429
00000270: abad 9e29 d8a4 1028 fb1a 4c28 cad0 4128
00000280: f556 162a 57c8 8f29 cd4c 2629 c278 5c29
00000290: 6503 1d2a 36dc 6428 2eef bf2a d5c8 2b2a
000002a0: a8c1 a726 6a40 4129 9206 b42a 6661 5a2a
000002b0: b08c 6229 fbf4 cd2a a88d 7628 e623 e429
000002c0: 7beb 9926 ec5b 902a 83b4 5827 2ece 8922
000002d0: 844a c029 25c1 e027 75e9 7a29 f38c d827
000002e0: 3314 2d29 a363 7c2a 45fd 2a2a ea02 582a
000002f0: 5338 8c29 e84a 9f29 f070 db2a 4e8f d925
00000300: f44e 8429 2939 392a 13eb bc2a 75ba 0529
00000310: 276b 2929 9079 a428 a51f 7329 9984 a12a
00000320: b56e e02a 9410 0b2b a9b9 a128 7f3b 5024
00000330: db88 4028 3f6d a92a 688c 3f28 029b 882a
00000340: 52b7 8727 7f50 9128 bf3e 842a 0bd2 c02c
00000350: ce0e bd2c 3e1f e028 9508 d12a 6b84 022c
00000360: 7645 0d2c 025a 062c 079e d82a 3e1e b92a
00000370: 3d67 602c f89c 8729 7cdf 8425 9489 092c
00000380: e1d5 b82b a918 412a e59b c72c daa2 ce29
00000390: 9ef1 6c2b e77a 432c 05bc a42a cf5b 782c
000003a0: 7836 922a e1c9 192b 95ea f32a 5ca5 592c
000003b0: 8a6f 2d2a f1ae 662b 73fd df2b aeca 7d2b
000003c0: 3882 fe28 1be2 d42b 1463 302b 1fbb a828
000003d0: 692a a428 1d7f ec29 75f7 6c2a 2189 4c2b
000003e0: 684c 032a 0c08 222b d079 612a cad6 a029
000003f0: 3ad8 032b 3327 972a c314 1628 f595 9028
